explainability/stages/final_3/maintainance_agent/2/D3QN_q_target.pth (torch, 77199 bytes, 7 tensors)

weight f4 [128, 11]
000000 e1 c5 d7 40 87 0c fc bf 5d 7f 8e 40 3a 1d d3 3f
       6.742905 -1.9691323 4.4530473 1.6493294
000010 14 10 6a 40 09 22 c1 3e 8d cb 2b 3b cb 3e 36 3e
       3.6572313 0.3772128 0.0026213855 0.17797391
000020 01 62 c8 c0 e4 2e d1 3e 2e 39 a8 bf d3 f8 59 41
       -6.2619634 0.40856087 -1.314245 13.623248
000030 87 bb a6 3f 69 e2 1f c0 3b 0a 07 40 87 cc 1f c0
       1.3025979 -2.498194 2.1099994 -2.4968584
000040 fb 65 b1 3f 2c f7 b1 3c b3 aa 7c bf ae 04 fa 40
       1.3859247 0.021724306 -0.98697966 7.8130713
000050 e1 29 c7 3f 35 f9 0e bf 4d 8b 13 3e 8b 26 6f be
       1.5559655 -0.5584901 0.14408608 -0.23354547
000060 00 07 6a 3b f0 53 fb bc 8d a5 18 3e ce cc 17 be
       0.0035709739 -0.030679673 0.14906903 -0.1482422
000070 7a f7 83 be 17 01 99 be 0c 5b 79 be 33 34 e8 bd
       -0.25774747 -0.29883644 -0.24351138 -0.11338081
000080 e0 2c 72 be 16 b6 0a 41 29 bb f9 bf d9 6b 91 40
       -0.23649931 8.669455 -1.9510242 4.544415
000090 77 6c 8b 3f 7d 0d 79 40 ed 75 21 3e 94 6c 5a bb
       1.0892476 3.8914483 0.15767641 -0.0033328878
0000a0 eb 5a ee 3d 1b 61 b5 c0 09 15 81 be 06 ae 2a c0
       0.11638435 -5.6681037 -0.2521136 -2.6668715
0000b0 62 44 2c c1 02 c5 06 40 d8 06 c0 c0 1a f7 a0 bf
       -10.766695 2.1057744 -6.0008354 -1.257541
0000c0 6c 92 3c c0 d2 91 8a be 5d 4a c6 3c 00 2e c1 3d
       -2.946437 -0.27064377 0.024205381 0.09432602
0000d0 2a 25 6f 40 ab 6c f0 be 0b 3a 1d 40 ac 74 b7 3f
       3.7366433 -0.46957907 2.4566677 1.433248
0000e0 c9 08 73 40 41 e2 34 c0 ef 82 00 40 3d e0 15 40
       3.7974112 -2.8263094 2.0079916 2.3418114
0000f0 60 83 e7 3f 2f c6 ef 3c 96 67 1f be f7 c6 0c 41
       1.8086967 0.029269306 -0.15566859 8.798575
000100 74 fa 3a c0 bc b7 30 40 09 cf 7a c0 05 a6 f8 3f
       -2.9215364 2.7612143 -3.9188864 1.9425665
000110 1c e7 01 40 2f 73 92 bf 95 ab 2c bf 91 2c c4 3e
       2.0297308 -1.1441401 -0.67449313 0.3831525
000120 83 54 46 3e 52 31 88 be 48 a9 29 c1 81 31 e3 3f
       0.19368176 -0.26600128 -10.603828 1.7749482
000130 c4 90 8f 3f 0a cc 5d 3e 53 c6 80 40 03 cd 5b bf
       1.1216054 0.21659866 4.0242095 -0.858597
000140 2c 41 af 40 b5 46 cc c0 2d 4b ab bc 58 9a ee 3b
       5.4767056 -6.383631 -0.02090987 0.007281583
000150 5c ae c3 3c 93 eb 1d c1 a6 70 2f 3e 35 d2 29 40
       0.023886852 -9.870013 0.17132816 2.653455
000160 1a 0f 0c c2 19 99 b0 3f fe e1 fb bf 11 e5 f1 3f
       -35.014748 1.3796722 -1.9678342 1.889803
000170 ee 44 68 40 99 0b b2 3e 68 a3 bb 3c 53 7f c8 bb
       3.6292071 0.34774473 0.022905067 -0.006118694
000180 63 5f 02 bf 27 25 82 3d 3f 17 53 c0 71 2f 59 40
       -0.509268 0.063547425 -3.2982938 3.3935206
000190 dd 9f ba 3e 1c c6 42 c0 b4 6d 12 40 6a f0 67 40
       0.3645009 -3.0433416 2.2879457 3.6240487
0001a0 cd ba 38 3d 6a b1 22 3c 1d 69 49 ba 43 d3 21 c1
       0.045100022 0.009929994 -0.00076832046 -10.114078
0001b0 63 f7 3f 3f 1f 35 a9 3f 84 f7 9f 40 ea fc c6 bf
       0.7498686 1.3219336 4.9989643 -1.5545933
0001c0 86 0d 4c 3f 59 9f a0 3f 3e ad 65 40 bc 4b 12 bf
       0.79708135 1.2548629 3.5886989 -0.5714681
0001d0 28 00 c4 3a c1 07 3b 3d 06 6e f4 c0 00 d0 dd 3d
       0.001495366 0.04566169 -7.6384306 0.108306885
0001e0 0b 0d de bf 90 5a c5 40 9d d8 49 bf e0 33 5e 3c
       -1.734773 6.167305 -0.7884615 0.013562173
0001f0 f6 e8 f2 be e3 ba ad 40 8d 81 7b 3f 8e 3a 2a 3d
       -0.4744336 5.4290633 0.98244554 0.04155975
000200 6f 9b 45 c0 f5 30 25 40 b7 2e c8 3e 8a d6 5e c0
       -3.087612 2.581113 0.3909814 -3.4818444
000210 d1 01 19 41 51 7a 07 c0 2b 89 5b 40 9b 8d a7 3f
       9.562943 -2.1168406 3.430247 1.309009
000220 ff 46 8f 40 9d bf ba 3d 9d e7 c0 ba 78 df 3a 3d
       4.4774165 0.091185786 -0.0014717464 0.045623273
000230 37 84 a6 c0 9d cf 49 be 6e 4c 16 c0 42 b9 17 40
       -5.2036395 -0.19708104 -2.348415 2.3706822
000240 2d 37 65 40 f4 cd 55 3f 52 60 12 40 de 03 22 c0
       3.5814927 0.83517385 2.287129 -2.531486
000250 6f ff 87 3f 8f bb 68 3d 71 9b 1d bf ce fd 38 40
       1.0624827 0.056819495 -0.6156531 2.890491
000260 9b 75 12 3e 12 df 64 3f 0b 55 21 40 38 23 de 3e
       0.14302675 0.8940288 2.5208156 0.43386245
000270 11 5d 8c bf a1 e3 84 40 5f ed 0c c0 d4 6d e9 3d
       -1.0965902 4.1527867 -2.201988 0.11397901
000280 f5 b2 96 3c 5d 7d 10 3d 2a 25 c7 c0 58 7b 05 bf
       0.01839588 0.035275806 -6.2232866 -0.5214133
000290 fe 9a 5b 40 39 d2 78 41 62 49 1b 41 ea 86 31 bf
       3.431335 15.551324 9.705416 -0.6934649
0002a0 0f e5 a8 bf 34 84 83 c0 22 cc 2e bd 41 ca cd 3b
       -1.3194903 -4.109888 -0.042675145 0.006280214
0002b0 62 d2 ff 3a 7c 78 bf 40 dc fe 81 bd 7a 27 c8 3e
       0.0019517655 5.9834576 -0.06347439 0.39092618
0002c0 42 59 0a be 00 66 37 3c 30 e4 7c be 08 5c 49 3d
       -0.13510612 0.011193752 -0.24696422 0.049160033
0002d0 90 3a 80 3e 7b bd 56 be e6 d0 77 be f2 cc e1 bd
       0.2504468 -0.20970719 -0.24200782 -0.11025418
0002e0 d8 35 e4 3d 71 63 09 be 90 50 7e 3d 1e 6c d3 3f
       0.111430824 -0.1341684 0.06208855 1.651737
0002f0 b7 b1 6a 40 b5 a3 50 3f 3f 39 60 40 39 ab 4e 40
       3.6670969 0.814998 3.503494 3.2292006
000300 8e 24 0c 3f d1 3f a9 3c f3 27 5f bb 88 7c 32 c1
       0.5474328 0.020660313 -0.0034050911 -11.155403
000310 38 dc 5e 3f 0a 46 8e 40 08 15 f4 40 f3 7e ab c0
       0.8705478 4.4460497 7.6275673 -5.3592467
000320 37 83 82 40 99 f2 22 c0 a3 50 9d 40 f9 14 97 3e
       4.0785174 -2.546057 4.9160933 0.29508188
000330 94 a4 0f bf f7 ee 4d bd 75 f9 7a c0 58 49 8d 3f
       -0.561105 -0.050276723 -3.9214756 1.1038008
000340 92 a7 13 41 c0 79 9e bd f4 f7 7f 3e 81 67 ce 3d
       9.228411 -0.07738066 0.2499693 0.100783356
000350 c0 c2 d5 3c 80 1b b1 bd ee 72 68 be 2a 9b 8f bd
       0.02609384 -0.08647823 -0.22700092 -0.07012017
000360 ca 8d 95 be cf ab 10 be 80 3b 4f 3d b4 33 64 bd
       -0.2920974 -0.1412804 0.050593853 -0.05571337
000370 3f b5 66 41 c7 e2 15 c0 57 41 3b c0 94 86 4f c0
       14.41925 -2.3419664 -2.925863 -3.242589
000380 60 04 44 c0 49 b4 85 3d ec 57 16 bb ff 52 a8 39
       -3.062767 0.06528527 -0.002294059 0.00032105294
000390 0a 89 c2 40 a9 db 2f 3d 6f c7 2b c0 68 b8 ed 40
       6.0792284 0.042934094 -2.6840475 7.4287605
0003a0 80 f9 1d c0 04 9d 90 40 d3 c5 00 40 72 2e 83 40
       -2.4683533 4.519167 2.0120742 4.0994196
0003b0 98 27 1a 3f f9 3f d9 3a 6f de 6e 3e 2a 95 bb c0
       0.60216665 0.0016574851 0.23327039 -5.8619585
0003c0 bd 2e c7 3e e0 a9 e7 bf 64 fe 0b 41 a9 e0 83 3f
       0.38902846 -1.8098717 8.749607 1.0302936
0003d0 0f f6 07 41 31 a5 7e 40 ab 6b 4c c0 79 ea 92 3e
       8.497573 3.9788325 -3.1940715 0.28694513
0003e0 dc 00 99 3d 27 3f 75 3c cd f4 4f c0 f0 06 60 bd
       0.07470867 0.01496867 -3.2493165 -0.054694116
0003f0 21 9d c5 c0 30 79 16 c1 d4 1c ca 3f 92 03 af c0
       -6.175431 -9.404587 1.5790048 -5.469186

bias f4 [128]
000000 88 36 4e 40 22 9f c8 3f 0c 0b 06 3e c8 c2 3b 40
       3.2220783 1.5673563 0.13090152 2.9337635
000010 24 a0 14 c0 71 8c 04 40 b2 1e 86 3e 86 d7 1b 40
       -2.3222742 2.0710719 0.26195294 2.4350295
000020 00 2f 86 3f 6e 40 58 40 8e 2a 22 40 d9 43 38 40
       1.0483093 3.3789325 2.5338473 2.879141
000030 84 ae 38 40 41 8d f9 3f 86 1c 42 40 27 32 70 c0
       2.8856516 1.9496232 3.032991 -3.753061
000040 64 f1 65 3e 0c b1 65 40 d3 1a 0b 40 6d 76 76 be
       0.22455364 3.588931 2.1735122 -0.24068613
000050 70 0f 86 c0 b5 c2 65 40 25 38 2b 40 c9 a2 2f c0
       -4.1893845 3.590009 2.6753018 -2.7443106
000060 63 da 5e c0 d9 80 d5 40 e7 8b c3 3e f1 d8 3f 40
       -3.4820793 6.6719785 0.38192675 2.997616
000070 eb 6d af 3f a2 84 2d 40 77 f3 1f c0 30 06 44 c0
       1.3705419 2.7112203 -2.499235 -3.0628777
000080 67 0f 5c 40 c1 96 16 40 f2 27 78 3f 93 e2 1d c0
       3.43844 2.3529513 0.9693595 -2.466954
000090 03 ad 78 40 f4 20 1e c0 49 4a 34 c0 1c 1f 47 40
       3.8855598 -2.4707613 -2.817034 3.1112738
0000a0 f3 fb 09 c0 2d cd 51 40 4b 8c 90 3f 12 c7 3b 40
       -2.1560028 3.278148 1.1292814 2.9340253
0000b0 f9 45 45 c0 2e 28 54 40 ac 94 45 3f 74 2a 8c 3d
       -3.0823958 3.3149524 0.7717998 0.06844035
0000c0 31 5d 16 c0 4d a7 02 c0 13 ff 88 40 ad 79 26 c0
       -2.349438 -2.0414612 4.281137 -2.6011765
0000d0 4f 05 c2 3e 7f 59 40 40 5f 21 49 40 81 f6 14 40
       0.37894675 3.0054624 3.1426618 2.3275454
0000e0 cf 4d 2f 40 97 00 8b 40 06 64 31 40 1f 8f 0a c0
       2.739124 4.343822 2.77173 -2.1649854
0000f0 12 08 41 be 3c 8f 86 40 a8 16 2b 40 45 21 01 c0
       -0.18850735 4.2049847 2.6732578 -2.0176556
000100 d1 b4 50 40 b0 95 2e c0 d6 b0 a5 be fd 55 9c 40
       3.2610362 -2.7278862 -0.32361478 4.8854966
000110 6d a8 70 c0 44 5e e6 bf c1 41 1c 40 f4 67 20 c0
       -3.76028 -1.7997518 2.4415133 -2.5063448
000120 7d 4e 41 c0 04 ab 62 40 66 14 1c 40 75 1d bd 40
       -3.0204155 3.541688 2.438745 5.909846
000130 bf 41 32 c0 22 7d 55 40 8f 21 45 3f 71 c4 23 c0
       -2.7852628 3.3357625 0.7700433 -2.5588648
000140 82 0b 2f 40 4d 7d da 3f a5 0b 46 40 b2 09 40 40
       2.7350774 1.7069489 3.0944607 3.0005918
000150 b8 d2 30 40 8c 7e 93 40 50 49 53 c0 b7 e6 05 c0
       2.7628613 4.6091976 -3.3013496 -2.0922067
000160 b9 8a 4a 40 8a 47 ec bf e9 27 4c 40 26 a2 16 c0
       3.164717 -1.8459332 3.189936 -2.3536468
000170 c4 03 b2 be f4 19 ed 40 b8 83 01 c0 ff 3f 9c 3f
       -0.34768498 7.409418 -2.0236645 1.220703
000180 49 37 ea bd f8 4f b0 bf 9b 55 61 40 b4 9c 38 40
       -0.11436326 -1.3774405 3.52085 2.8845644
000190 95 13 d5 3e a0 57 4d 3e fb 48 2b 40 97 74 3f 40
       0.41616502 0.20052958 2.6763294 2.991491
0001a0 a9 fe 49 bf d8 bc a7 bf 03 ce d1 be c8 ad 3c 40
       -0.78904206 -1.3104506 -0.40977487 2.9481068
0001b0 bd 9a 3e 40 d8 be 2f c0 a6 aa 8e c0 0a a4 0e 40
       2.9781945 -2.7460232 -4.458331 2.2287621
0001c0 68 45 28 40 6e 99 4b c0 4c ae a1 bf 2a 6d 84 c0
       2.6292362 -3.1812396 -1.2631316 -4.1383257
0001d0 0d 87 eb 3f 91 06 c6 40 3b 32 44 c0 c8 96 61 c0
       1.8400589 6.1883016 -3.0655658 -3.524828
0001e0 9b 55 42 40 9d c1 87 40 40 f8 3b 40 dc 92 20 c0
       3.036475 4.2423844 2.937027 -2.5089636
0001f0 7a 65 71 bf 32 53 2f 40 72 cc 5a 3e ec 0c 39 40
       -0.94295466 2.7394528 0.21367052 2.8914137

weight f4 [128, 128]
000000 37 a6 7d 3e e5 e1 1b bf 86 46 92 bb 3b 67 84 3e
       0.24770437 -0.6089156 -0.0044639735 0.2586001
000010 87 10 58 bd a6 81 c6 be c6 17 66 3f 58 b3 19 40
       -0.052750137 -0.3877079 0.89880025 2.4015713
000020 7f 92 8d c0 04 f8 cf 3e 08 a3 0a 3e b1 27 4f 3f
       -4.424133 0.40618908 0.13538754 0.8091994
000030 32 c5 e3 3e f7 da 2b c0 8d be b8 3f e5 fc 02 c1
       0.44486386 -2.6852396 1.4433151 -8.186742
000040 6c 02 7c bd 63 fd 97 3e 49 a4 fc bc 8c cd a4 bc
       -0.061525747 0.29685506 -0.030840056 -0.020117544
000050 80 fa 12 c1 18 70 7d 3e 7f 89 6b 3f 4c 7a 62 bd
       -9.186157 0.24749792 0.9200668 -0.055292413
000060 8e c3 79 be ed 05 5c 3e 8d b4 96 3d 27 f5 a4 3e
       -0.24391004 0.21486636 0.07358656 0.32218286
000070 dc af fd 3e 17 07 87 3e e1 39 04 be c9 30 89 bd
       0.49548233 0.26372597 -0.12912704 -0.06698758
000080 08 18 90 c0 41 fe 8a 3d 8c ad ab 3e a7 d6 6a bd
       -4.5029335 0.06786776 0.33530843 -0.057333615
000090 de 71 a0 be de 49 1d bd 5b e1 c9 bd d8 b5 d2 3f
       -0.31336874 -0.038400523 -0.09857436 1.6461744
0000a0 67 a1 38 bc 1c d7 16 3e 26 c1 ae bf 4f 6c d5 3e
       -0.01126895 0.14730495 -1.3652694 0.41684195
0000b0 ce bc 22 be 40 24 af 3e e1 ab 59 bf b0 cf 8b bc
       -0.15892336 0.34207344 -0.8502789 -0.017066807
0000c0 8b d0 3c bf b6 d9 a6 bd 7e fc ba bf 35 b8 62 3c
       -0.7375571 -0.08146994 -1.4608305 0.013837864
0000d0 10 f4 81 bd 00 4d 9f 3e ee b9 91 3e 8c 52 47 3e
       -0.06345379 0.31113434 0.28462166 0.19465083
0000e0 37 2e 27 3e 0a 77 8c be 05 f1 a7 3e 13 d5 8d 3d
       0.16326223 -0.2743457 0.3280107 0.06925406
0000f0 60 96 b1 bd 26 e6 63 bf 86 5a 17 3f f8 4c ae 3c
       -0.0867126 -0.89023054 0.591225 0.021276936
000100 2d d3 85 3e 2c 64 a1 bd 2d 2d 9a 3f 13 c1 9b 3f
       0.26137677 -0.078804344 1.2045037 1.2168297
000110 ad e8 8e be 08 70 ac bf e8 e0 49 3e e6 d8 1b bf
       -0.27911893 -1.3471689 0.19714701 -0.60877836
000120 61 64 0d be 48 4b cc bb 96 10 84 3f ac 7d b0 3e
       -0.13807823 -0.00623456 1.0317562 0.3447088
000130 0f d1 ba bd 60 9f a7 3e 40 41 cb be 4e e4 6f bb
       -0.09121906 0.3273878 -0.3969822 -0.0036604586
000140 4a e4 df 3d 92 73 f1 be 9b 5d 70 3e df 67 4f 3f
       0.109322146 -0.47158486 0.23473208 0.8101787
000150 64 b2 7d 3e a1 17 1f 40 b1 d0 8d c0 74 ac 2d bf
       0.24775082 2.4858172 -4.431725 -0.6784127
000160 72 f4 15 3f 7c 47 e2 bd 32 7d 94 3e 8d ce 0a 3e
       0.5857612 -0.11048791 0.29001766 0.13555355
000170 1a 88 a7 bf 92 16 4f 3d a6 25 6e bf 81 ba 92 3e
       -1.308841 0.050558634 -0.93026197 0.28657916
000180 52 d4 48 3d eb 54 6e bf 82 da db 3e e2 a7 23 3f
       0.04903061 -0.93098325 0.42940146 0.63928044
000190 f8 4f be c0 d1 e8 d9 3c 7d 09 5c 3e 99 99 82 3e
       -5.947262 0.026600273 0.21487994 0.2550781
0001a0 c4 61 e0 be 6a 83 b5 bf e1 16 2a 3e ec b3 57 3e
       -0.4382459 -1.4180729 0.1661029 0.21064728
0001b0 17 bb 58 3e 59 2c 92 be 34 bb eb 3b d5 30 42 3f
       0.21165119 -0.2854946 0.007193947 0.7585576
0001c0 2e ed b3 3e e8 2d 9c be e5 4d d3 3d 25 40 0b bf
       0.3514189 -0.30503774 0.103175916 -0.5439475
0001d0 a5 99 28 3e b6 3f 15 3f 75 48 a1 3c 88 e5 83 bf
       0.1646486 0.5830034 0.01968787 -1.0304422
0001e0 29 e8 28 3f 8c 8b f7 bf ab 2a 44 3e 7b b8 2c bf
       0.6597925 -1.9339461 0.19156902 -0.67468995
0001f0 ab ac 77 c0 ec 5d fc 3e bf 2e 26 bf dd db 8a 3e
       -3.8699138 0.49290407 -0.6491508 0.27120867
000200 ea fc 77 3e 4e 89 20 bf 07 16 83 bd 94 27 0b 3f
       0.24217573 -0.6270951 -0.06400686 0.54357266
000210 55 dd b1 be ae 79 0f be 0d d4 95 be 39 94 a5 3f
       -0.34739175 -0.14011261 -0.29263344 1.2935859
000220 7c 4d 29 c1 20 83 fb 3e 49 45 03 3f e3 22 f4 3d
       -10.581417 0.49123478 0.51277596 0.119207166
000230 56 61 dc 3f 3f 6f 10 3d 87 c4 99 3f e1 29 74 c1
       1.7217205 0.035262343 1.20131 -15.260224
000240 ee f6 3f 3d 2a 34 7c 3b 18 13 7f bd d8 9d bc bc
       0.04686635 0.003848324 -0.06227407 -0.023024485
000250 3e 16 71 c1 da 15 66 3e ab 76 04 40 db b4 20 bf
       -15.06793 0.22469273 2.069743 -0.62775964
000260 c7 67 0d c0 a5 6a 0f 40 13 4e ee 3c a4 70 a7 3e
       -2.209459 2.240884 0.029089963 0.32703125
000270 99 07 7f 3f 43 98 dc 3e 03 37 12 be 0b 1d 50 bf
       0.9962097 0.43084916 -0.14278798 -0.81294316
000280 51 73 08 c1 f3 66 b2 3e b6 81 4d 3f f3 b1 80 be
       -8.528153 0.3484417 0.8027605 -0.25135764
000290 c9 f5 c5 3f f6 0a 2b be c0 bb 01 bf 00 75 10 40
       1.5465633 -0.167034 -0.5067711 2.257141
0002a0 3c eb 9e be 56 e7 36 3e 4f 40 a8 be 56 8f 7f 3f
       -0.31038845 0.17861685 -0.32861564 0.9982809
0002b0 96 be 24 bf 19 40 ba 3e 78 bd 32 bf 6b 5a a9 3d
       -0.6435331 0.36377028 -0.69820356 0.08269199
0002c0 d4 8f 64 bf 01 c3 45 bd 0e ce 8a bd 23 33 66 be
       -0.89281964 -0.048281673 -0.06777583 -0.22480445
0002d0 c7 14 7a bf e9 c3 80 3f c8 41 a1 3e 49 a4 9d 3e
       -0.97687954 1.0059787 0.314955 0.30789402
0002e0 60 d4 03 3f 04 c3 be bc c9 ed e6 3e a3 7f 7b bf
       0.51495934 -0.02328635 0.4510329 -0.98241633
0002f0 40 f0 d4 3a 26 f1 49 c1 8c 06 cf 3e 67 7d 20 3d
       0.0016245916 -12.621374 0.40434682 0.039182093
000300 4f 12 33 3e 7e 9a 66 be fd ca 1a 40 b1 93 57 3f
       0.17487453 -0.22519872 2.4186394 0.84209734
000310 52 26 aa be 66 37 14 bf 5b a0 00 bd 42 d0 ca bf
       -0.3323236 -0.5789703 -0.031402927 -1.5844805
000320 6b 4e 1c bf 36 6c 91 bc 7b 36 0b 40 dd 94 be 3f
       -0.61057156 -0.017751794 2.1752002 1.488918
000330 9b 60 87 bf ef 52 37 3f 78 31 41 bf d8 1c b3 be
       -1.0576357 0.7161092 -0.7546611 -0.34982944
000340 5e 0b 50 3e 6b 31 8b be fd 1b 79 3e 04 9c 96 3f
       0.20316836 -0.2718614 0.24327083 1.1766362
000350 99 91 31 3e c4 65 0c 40 0c c0 07 c1 f1 ff bb bf
       0.17340697 2.1937113 -8.484386 -1.4687482
000360 19 34 e6 3e 84 80 1e bf 35 ae a1 3e d9 2d 58 bf
       0.44961622 -0.6191485 0.31578222 -0.8444496
000370 04 81 51 3f e1 8b cd bf 29 7c 45 bf 6f 91 ea be
       0.8183749 -1.6058313 -0.7714258 -0.45814082
000380 57 8a ad 3d 3a cc ac bf b0 a4 4f 3f 01 ec a4 3f
       0.08473652 -1.3499825 0.8111067 1.2884523
000390 ca ea e4 bf 14 91 8a 3c c6 77 38 3f 54 c0 08 3e
       -1.7884152 0.016914882 0.7205776 0.13354617
0003a0 95 fc 67 bf d8 62 b2 be 33 a8 6a bf c8 ef 0b 3e
       -0.90619785 -0.34841037 -0.916629 0.13665688
0003b0 b7 6c 90 3e db d9 9e bf 7d e0 88 be ec 0b da 3f
       0.28207943 -1.2410234 -0.2673377 1.7034888
0003c0 64 0e 88 3e 05 76 31 be 95 d1 4f bf fa 9f d1 bf
       0.2657348 -0.17330177 -0.8117917 -1.6376946
0003d0 b4 0e a6 3e 62 3b d2 bf c9 6c 70 be 08 60 ec c0
       0.32433093 -1.6424372 -0.23478998 -7.3867226
0003e0 27 f3 ea 3f eb e4 f2 c0 0f 0e 11 3e b9 8e 30 c0
       1.8355454 -7.590444 0.14165519 -2.758711
0003f0 f5 c9 f6 c0 1d 18 97 3d cc d2 b3 3d 38 0c c4 3e
       -7.712153 0.07377646 0.08780441 0.38290572

bias f4 [128]
000000 73 dc 3d 40 a0 ca 27 40 48 0b 0e c0 4a 1a 40 40
       2.9665802 2.6217422 -2.2194386 3.0016046
000010 e5 7a 8f bd 7b 15 3a 40 dd ac 92 3c 84 be 25 3f
       -0.07005862 2.907561 0.017904693 0.6474383
000020 3f c6 20 bd 5a 9f 34 40 6d da 90 bf ad 3b c5 bf
       -0.039251562 2.822226 -1.1316658 -1.5408837
000030 f6 8e 07 c0 1f d1 36 40 44 9b 38 40 03 69 1f c0
       -2.1181006 2.8565137 2.8844767 -2.4907844
000040 20 2c 2e 40 9a 37 cf bf 57 33 97 bf 49 30 4b 40
       2.7214432 -1.6188843 -1.1812543 3.174822
000050 f2 bf e3 bf 8b f0 16 41 31 a1 3f 40 d9 78 11 40
       -1.7792952 9.433726 2.9942133 2.273001
000060 be cf 24 c0 b6 87 a3 3d 4e 59 38 40 9b 01 30 40
       -2.5751796 0.07984869 2.8804507 2.750098
000070 c2 37 a0 3f 37 ec 28 40 c0 72 37 40 6d 7e 35 40
       1.2517016 2.6394174 2.8663788 2.8358414
000080 65 c0 01 c0 ef 58 8d 3e 53 58 ef bb 25 38 3c 40
       -2.0273678 0.27606913 -0.0073042302 2.9409268
000090 f4 4c 75 3f 7a 04 d5 bd f7 7c 3b 40 cf 20 09 c0
       0.95820546 -0.104012445 2.9295022 -2.1426275
0000a0 e5 4e 0e bd 14 47 46 40 ac 32 3a 40 76 f4 00 c0
       -0.03474321 3.0980883 2.9093428 -2.0149207
0000b0 1c 39 7c c0 61 3e 3a 40 a4 c6 dd bf 8d da f3 40
       -3.9409857 2.9100573 -1.7326245 7.6204286
0000c0 70 94 a0 bf 59 1a 55 3b 36 bf e3 3e 88 3c b5 bb
       -1.25453 0.0032516925 0.4448182 -0.0055308975
0000d0 19 62 48 bb 77 0d 09 c0 1b 43 1a c0 62 fd 1f c0
       -0.003057605 -2.1414468 -2.4103458 -2.4998403
0000e0 79 54 38 40 be dd 22 c0 d2 15 36 40 e5 64 42 40
       2.8801558 -2.544784 2.8450818 3.037408
0000f0 ee 33 0c c0 45 d0 13 c0 7a 91 0e c0 81 e7 44 40
       -2.1906695 -2.3095868 -2.2276292 3.0766299
000100 41 58 c3 3e d4 30 01 c0 d3 e7 6e bd 18 f7 c4 3c
       0.3815327 -2.0186052 -0.058326554 0.024043605
000110 13 a5 59 40 f9 9c 3d 40 89 96 39 40 e7 78 a0 bc
       3.4007003 2.9627059 2.899813 -0.0195889
000120 ce 19 ff be 6c f7 29 40 fb 22 3c 40 4f df 38 40
       -0.49824375 2.6557264 2.939635 2.8886297
000130 eb 18 0f c0 74 bd 7e bf 5f ec 37 40 86 3b 39 40
       -2.2358959 -0.9950783 2.873802 2.894258
000140 c0 ab 14 bc 5d 85 23 bf e7 8d a9 bd 61 47 2e 40
       -0.0090741515 -0.6387537 -0.08279019 2.7231066
000150 da cc 28 40 e8 a5 cd 40 20 7e 2a c0 02 97 dd bd
       2.6375031 6.426502 -2.663948 -0.10819818
000160 79 a8 c2 bc 0e 52 12 40 b4 86 06 3d b9 42 2f 40
       -0.023761975 2.2862582 0.032843307 2.7384474
000170 ba ee f8 3f 2e 83 14 c0 86 39 10 c0 2e 7f 2f 40
       1.9447854 -2.3205066 -2.253511 2.7421374
000180 23 2e 49 40 76 3d a6 3c b1 96 49 bd 9b b2 d9 3e
       3.143441 0.020292979 -0.049215976 0.42519078
000190 0b b7 07 40 db 5b 7a 3d 0a 21 35 40 b3 fb 19 c0
       2.120547 0.061122756 2.8301415 -2.4059875
0001a0 10 1d ca 3c f4 f0 4b 3c 44 00 73 bc bd bf 1f 40
       0.024672061 0.012447584 -0.014831606 2.4960778
0001b0 8c fb ce 3f a6 d1 34 40 0c d3 15 40 54 b0 95 3f
       1.6170516 2.825296 2.3410063 1.1694436
0001c0 85 26 0f be 12 70 d1 bd 16 da 35 40 b5 a7 0d bd
       -0.13979538 -0.10226454 2.841436 -0.034583766
0001d0 20 fa 3e 40 26 28 43 3d 7e 45 91 bd 4c 42 19 c0
       2.9840164 0.04764571 -0.07093333 -2.3946714
0001e0 ed 0c 16 3d c0 d5 3f 40 b7 d9 a6 bb da 24 2e bd
       0.03663342 2.9974213 -0.0050918716 -0.042515613
0001f0 c2 3b 03 c0 43 6d e5 bd a1 c2 31 40 59 f8 37 40
       -2.0505223 -0.11202481 2.7775042 2.874533

weight f4 [1, 128]
000000 58 43 a5 3f e2 ab 5d 41 49 bc cd bf cd 3b 90 3f
       1.2911177 13.854464 -1.6073085 1.126825
000010 28 e1 31 bc a1 76 84 3f b7 18 29 bd 62 b1 e7 be
       -0.010856904 1.0348703 -0.041283336 -0.4525252
000020 4e 53 29 3a 1b f8 8e 41 1b e5 c4 be 52 cd db be
       0.0006459252 17.871145 -0.38456044 -0.42930084
000030 4c be 83 bf ca 03 69 3f 5b 3a 8e 3f 4c f2 cb bf
       -1.0292449 0.91021407 1.1111559 -1.5933318
000040 0d 3e 45 3f f0 bb 5e bf 02 cc a3 be 5f d3 b9 3f
       0.77047807 -0.8700552 -0.31991583 1.451763
000050 38 97 49 bf 18 96 cb 40 98 7e d0 3f f1 31 65 40
       -0.78746367 6.362072 1.6288633 3.5811732
000060 18 d0 c1 bf 30 e0 43 3d c0 48 73 3f e8 f0 96 3f
       -1.514163 0.047821224 0.9503288 1.1792269
000070 b6 b0 6d 3e bf 3e a7 3f ec ff 4f 3f 71 3a a3 3f
       0.23211941 1.3066024 0.8124988 1.275221
000080 b9 92 94 bf 53 82 72 3f d6 8a 23 bd af 6f b2 3f
       -1.1607276 0.9473011 -0.039927326 1.3940333
000090 69 16 95 3f 39 78 49 3c ab 4b 6e 3f 6a 1a f4 bf
       1.1647464 0.01229673 0.9308421 -1.9070561
0000a0 40 c2 c2 bc ac f1 b1 3f 73 ae 7e 3f 6e f4 af bf
       -0.023774266 1.3901877 0.9948494 -1.3746469
0000b0 44 c8 a9 3e 4e 9c 82 3f b6 9e da c0 0f 9f a4 40
       0.33160603 1.020395 -6.831874 5.1444163
0000c0 58 fe ab 3f 28 89 48 3d b7 c3 6d bf df 61 2b 3c
       1.3436995 0.048958927 -0.9287676 0.010460346
0000d0 76 05 27 bd 8d d2 cf bf 78 d5 eb bf 73 29 de bf
       -0.040776692 -1.623613 -1.842452 -1.7356399
0000e0 3d 70 5a 3f 9a 0e c1 bf 68 d3 8d 3f 50 0d b1 3f
       0.8532751 -1.5082581 1.1080141 1.3832188
0000f0 eb 50 cb bf 5f 52 e3 bf 62 e3 c9 bf 1d 7e 39 41
       -1.5884069 -1.7759513 -1.5772517 11.593289
000100 0e fa 84 3f b3 48 b5 bf 79 d1 50 bd 8a 05 6c bd
       1.0388811 -1.4162811 -0.05098102 -0.05762247
000110 2c 6a 30 41 c5 fd 97 3f 0f 2d 8d 3f e6 23 2a bb
       11.025921 1.1874319 1.1029376 -0.0025961339
000120 ee eb ae be f9 1c 10 41 b3 87 96 bf d7 3f ac 3f
       -0.34164375 9.007073 -1.1760162 1.3456982
000130 ed 63 37 bf 8b 9c 33 bf f5 95 8b 3f b3 6e 5f 3f
       -0.7163685 -0.7016074 1.0905138 0.8727829
000140 f0 7c 04 bc 39 a8 75 3e 9f 9c 35 bd b5 4b 56 41
       -0.008086428 0.23989953 -0.04433882 13.393483
000150 38 83 50 41 56 11 68 40 4e 98 09 c0 f9 f4 c8 3b
       13.032036 3.626058 -2.149921 0.0061327186
000160 72 a5 6b bd df f1 7c 40 56 be 90 3b 2d f2 5d 41
       -0.057530828 3.9522626 0.004417221 13.871625
000170 f5 07 a7 bf 65 90 3a bf a4 9b e9 bf 84 59 4a 41
       -1.3049303 -0.7287658 -1.8250623 12.646854
000180 6c 65 ae 3f 8e 60 2c 3b 2d 91 1a bd 10 d1 96 3f
       1.3624701 0.0026302668 -0.037736107 1.1782551
000190 76 56 80 41 48 d4 3c 3d 39 c3 b1 3f b4 a3 ec bf
       16.042217 0.046100885 1.3887702 -1.8487458
0001a0 79 a5 4f bd 38 f3 8b 3c a9 1d 5c bd d4 81 88 41
       -0.050694916 0.01708375 -0.053739224 17.063393
0001b0 e8 e6 15 3f cd 96 63 3f ab 71 2d 41 cf a5 9b be
       0.5855546 0.8890198 10.840251 -0.3039994
0001c0 3b 0e fc bb a1 61 43 3d 07 64 3b 41 7e f9 25 3d
       -0.007692126 0.047700528 11.711921 0.040521137
0001d0 ab 3c cd 3f ca fa 68 bd c4 e1 8e bd 82 4a a2 bf
       1.6034139 -0.056879796 -0.06976655 -1.2678988
0001e0 3a 41 67 bd 92 c4 bf 3f 4a 7a 64 3d 80 ce 6d 3c
       -0.05645869 1.4981863 0.055780686 0.0145145655
0001f0 7d 2b c1 bf b9 88 40 bd 44 89 b8 3f a4 69 5d 3f
       -1.5091397 -0.04700539 1.441689 0.8648932

weight f4 [2, 128]
000000 6c 10 a9 3e 37 34 19 41 73 c9 41 bd c8 41 3f 3e
       0.3302034 9.575248 -0.047311258 0.18677437
000010 3c 70 0d 3d 88 15 cb 3e 23 80 f2 bc 8f 80 a5 3f
       0.034530863 0.39664865 -0.029602116 1.2929858
000020 a6 09 25 3d 5c ba 9c 40 93 1b 8d bf 33 df 9a bf
       0.040292405 4.897749 -1.102404 -1.2099365
000030 f2 b5 d8 bf 68 1c 46 3e 5a 76 89 3e 5b 29 3d bd
       -1.6930525 0.19346774 0.26848108 -0.046182018
000040 96 c1 ea 3e e6 ac 60 bf e8 b7 8f bf 15 81 e8 3e
       0.4585082 -0.8776382 -1.1227999 0.45410982
000050 a0 b3 52 bf 76 2b fc c0 cf af f1 3e 61 5e 7b 40
       -0.82305336 -7.8803053 0.47204444 3.9276354
000060 f3 88 a8 bd 38 d3 3e 3d 5f 68 a3 3e ea 32 6f 3e
       -0.08229246 0.046588153 0.31915566 0.23359266
000070 f6 d3 1d bf 40 8a 67 b6 fe 58 a9 3e aa d8 51 3e
       -0.6165155 -3.4502154e-06 0.33075708 0.20492807
000080 c4 8c 38 bf 83 99 81 c0 36 74 a0 bc 1b 22 d6 3e
       -0.7208979 -4.049989 -0.019586664 0.41822895
000090 6b c8 a4 bf 28 24 44 bd 91 72 11 3e 05 3a 97 bf
       -1.2873663 -0.047886044 0.1420386 -1.1814581
0000a0 87 ba b9 bc df da e0 3e c4 b3 04 3e cf 1b 9e be
       -0.022671951 0.43916985 0.129592 -0.3088059
0000b0 f1 5e f3 be 2b f1 21 3e b4 bc c6 bf cf 4c 35 c1
       -0.47533372 0.15814655 -1.5526338 -11.331252
0000c0 2c 60 bc bf ec 92 08 3c db 90 ec 40 84 1d 84 3d
       -1.4716849 0.00833581 7.3926826 0.06450942
0000d0 e4 61 0f bc 3c 1c 41 be 4f ac 99 3d ad 44 00 3b
       -0.008751366 -0.18858427 0.075035684 0.0019572184
0000e0 98 86 46 3e 1e 21 c5 3d 13 17 97 3e 82 e5 cb 3e
       0.19387281 0.09625457 0.29509792 0.39823538
0000f0 41 80 ee 3c f5 55 a8 bd f0 4b e9 be ea b5 8d 40
       0.02911389 -0.0821952 -0.45565748 4.4284563
000100 ba fe 73 be 67 a8 bd be 35 e4 05 3d a6 7a 27 bc
       -0.23827639 -0.37042543 0.03268834 -0.010222113
000110 b9 fb 19 c0 89 05 90 3e d0 b7 a5 3e b4 5c 8d bd
       -2.405989 0.28129223 0.323668 -0.06902447
000120 e9 4a 25 40 17 c5 69 c0 b7 11 c1 c0 3d 8e 86 3e
       2.5826972 -3.6526544 -6.0334125 0.26280394
000130 6d fe 93 3f c4 72 b2 bf f8 12 c4 3e ab f4 80 3e
       1.156202 -1.3941274 0.38295722 0.25186667
000140 88 98 8a bd 8a 4c 39 bf 8f 4d ab bb 5c 6b 6f 41
       -0.06767374 -0.72382414 -0.0052277516 14.963711
000150 c1 f3 db 40 70 9f 1f c1 b3 22 38 be c7 2b 24 3d
       6.873505 -9.976425 -0.17981987 0.04008081
000160 de 5d 9b 3c 2d 17 b4 3f f0 1c 3d 3d b0 ec d3 c0
       0.018965658 1.4069573 0.046170175 -6.6226425
000170 2b 5b 3c 40 19 96 67 3f f8 d9 1a bf b0 3c 81 41
       2.9430645 0.90463406 -0.60488844 16.154633
000180 d4 f6 87 3e 89 2c c0 3d 98 7b 4a bd 35 08 9f bf
       0.26555502 0.093834944 -0.049434274 -1.242438
000190 4c 5a 30 41 78 be 4f bd a4 7b 78 3e a3 f1 47 bd
       11.022045 -0.050718755 0.24265915 -0.048814427
0001a0 9b 9b 7f 3d 17 2f 3b 3c 7f 04 a0 3b 7e ed f3 be
       0.062404256 0.011424801 0.0048833485 -0.4764213
0001b0 71 64 81 c0 d1 6d b3 3e 75 e3 85 41 b1 32 aa 3f
       -4.043511 0.3504472 16.736063 1.329672
0001c0 51 47 c4 3b cf f9 39 bd d0 e5 53 be 0d 42 96 3d
       0.005989947 -0.04540425 -0.20693135 0.07336817
0001d0 a2 d8 19 3f 89 fb a5 3d b2 60 d2 bc 0c 32 0f c0
       0.6009618 0.08104617 -0.025680874 -2.2374296
0001e0 ec bb 7d 3d 14 8f f4 3e 58 26 3a 3c b2 26 5c bd
       0.061946794 0.4776541 0.011361681 -0.05374784
0001f0 ab 18 b0 3e ec 67 0b bd 9b f2 41 3e c4 d8 8d 3e
       0.3439382 -0.034034654 0.18940203 0.27704442
000200 65 19 64 be a6 41 19 c1 08 01 2f 3d 54 31 8a be
       -0.22275312 -9.578527 0.042725593 -0.2699076
000210 25 65 83 3d 55 1f d4 be 61 2d 53 3d 97 76 a8 bf
       0.06415776 -0.41430154 0.05155695 -1.3161191
000220 21 f7 5a bc 44 83 9a c0 c3 6f 90 3f 75 37 9c 3f
       -0.013364584 -4.8285236 1.1284107 1.2204424
000230 81 dc dd 3f da 94 50 be 65 36 86 be c6 61 ea 3d
       1.7332917 -0.20369282 -0.26213375 0.1144443
000240 e6 d7 f5 be d0 c8 5f 3f a1 08 88 3f 11 92 e1 be
       -0.4801628 0.8741579 1.0627633 -0.44056752
000250 80 b5 3e 3f 64 56 f9 40 93 8e e9 be 95 35 7a c0
       0.744957 7.7917957 -0.45616588 -3.9095204
000260 a3 38 48 3e ce 63 80 3d 3c 41 9b be 82 ba 24 be
       0.19552855 0.06269036 -0.30323207 -0.16086772
000270 f9 f7 24 3f a6 4d d0 bd 0a 9d 85 be dc cc 88 be
       0.64440876 -0.1017106 -0.26096374 -0.26718795
000280 c7 47 3b 3f 4a 74 84 40 24 07 82 3d 38 22 0f bf
       0.731564 4.1391954 0.06349018 -0.5591159
000290 05 03 a6 3f ca 68 69 3b e8 af 5f be 55 7e 88 3f
       1.2969671 0.0035615438 -0.21844447 1.0663553
0002a0 2a 34 52 bc d4 72 cc be 58 a3 68 be 91 ef d7 3e
       -0.01282982 -0.39931357 -0.2271856 0.42174962
0002b0 09 89 06 3f 81 cd 51 be b7 32 ba 3f d7 a6 34 41
       0.5255285 -0.2048855 1.4546727 11.290732
0002c0 b4 56 be 3f 88 53 46 bd 83 47 ee c0 c1 f6 4c 3d
       1.487021 -0.048419505 -7.4462295 0.05004001
0002d0 c8 d6 46 3d ca b7 c2 3d cd 56 d6 bc f9 79 b7 3d
       0.048544675 0.09507711 -0.026164437 0.08958811
0002e0 6e b6 34 be 6b c7 fa bd d5 e9 69 be 26 0f aa be
       -0.17647716 -0.12245067 -0.22843106 -0.33214682
0002f0 9d 96 2f 3d 0c be 4f 3e 98 41 dc 3e 4a 15 8d c0
       0.042868245 0.20287341 0.43018794 -4.408849
000300 44 77 17 3e 96 d7 d3 3e bd 7d 11 3d 98 55 c8 3d
       0.1479159 0.41375417 0.035520304 0.09781951
000310 b2 43 1c 40 c9 cc 59 be 28 c5 2c be 75 ac 87 bc
       2.4416318 -0.21269526 -0.16872084 -0.016561726
000320 ba a9 26 c0 5f ff 6e 40 17 78 bf 40 e6 88 b1 be
       -2.6041093 3.7343366 5.9834094 -0.34674758
000330 11 b6 94 bf 00 9a ac 3f d0 97 97 be f1 3a 8f be
       -1.1618062 1.3484497 -0.2960801 -0.27974656
000340 00 27 49 bc f9 18 1a 3f 25 e7 97 bd ed 4a 6f c1
       -0.012277365 0.60194355 -0.07417134 -14.955792
000350 d2 0d db c0 f9 e9 1f 41 84 c5 7e 3e 7d ee 12 3d
       -6.845437 9.994622 0.24880034 0.03587197
000360 e9 75 df 3c 31 94 b2 bf f0 cf 34 b9 1e b3 d3 40
       0.027277904 -1.3951474 -0.000172436 6.615615
000370 8b 7d 3a c0 a0 0b 78 bf 40 51 05 3f ce 3f 81 c1
       -2.9139125 -0.9689274 0.520771 -16.156155
000380 27 cb 9f be d0 36 4d 3d c1 44 d9 3c 26 1a 9f 3f
       -0.3120968 0.0501011 0.026522042 1.2429855
000390 0a a5 31 c1 9a 57 69 3d 63 81 8a be 15 56 2f 3c
       -11.102793 0.05696831 -0.2705184 0.010701676
0003a0 af 89 2e 3c 32 04 e8 3b 57 e0 b4 3c 35 1e fb 3e
       0.0106529435 0.0070805782 0.02207963 0.49046484
0003b0 28 3b 80 40 2d e6 a5 be 00 b9 85 c1 41 b1 a8 bf
       4.007221 -0.32402173 -16.715332 -1.3179094
0003c0 3e 7f 17 bd 26 1d 28 3d b1 09 95 3d 08 26 bf 3b
       -0.036986582 0.041043423 0.07277239 0.005833391
0003d0 5a a9 04 bf f0 bf c0 bc 66 7f 21 bd 35 3d 0f 40
       -0.5182091 -0.023529023 -0.039428137 2.2381108
0003e0 f0 01 35 bd 98 9d cb be 25 de 0c bb d9 74 9c 3d
       -0.0441913 -0.39768672 -0.0021494713 0.076394744
0003f0 79 e2 57 be 08 74 cb 3c cf 5b 57 be 0e f4 97 be
       -0.21082486 0.024835601 -0.21031116 -0.29678386

bias f4 [2]
000000 9b 69 aa 3f af cb a6 bf
       1.3313478 -1.3030909
