explainability/stages/final_3/maintainance_agent/5/D3QN_q_eval.pth (torch, 228957 bytes, 21 tensors)

weight f4 [128, 11]
0	0xc0bf6f0b	-5.982305
1	0xbffed2b6	-1.9908054
2	0x3fdd1891	1.7273122
3	0x4070d949	3.763262
4	0x40b73f3b	5.7264686
5	0x3f5db3fc	0.8660276
6	0x3cf0baac	0.029385887
7	0xbb861767	-0.0040921452
8	0xc11b54f2	-9.708239
9	0x3f453661	0.770361
10	0x404a63c1	3.1623385
11	0xc1080cfb	-8.503169
12	0xc094deac	-4.6521816
13	0xc1aec643	-21.846807
14	0xc0bd3a42	-5.9133615
15	0xc0bfeedc	-5.9979076
16	0x402d5017	2.7080133
17	0xbd370588	-0.04468301
18	0xbbbb0d80	-0.0057083964
19	0xc0665fa0	-3.5995865
20	0xbdbef52f	-0.09324109
21	0x40570b17	3.3600519
22	0x40e8aee9	7.2713513
23	0x404c91a9	3.1963904
24	0x3fd69d7e	1.6766813
25	0x40c122dd	6.035506
26	0x40ad27b4	5.4110966
27	0x3f9b4e88	1.2133341
28	0x3dfff3c9	0.1249767
29	0x3e8f2ff1	0.27966264
30	0xc13627c9	-11.384713
31	0xbc7da47d	-0.015481112
32	0xc0547c27	-3.3200777
33	0xc14b7e1b	-12.718287
34	0xc08bd39a	-4.3695803
35	0xc0d6e1fa	-6.715085
36	0xc1307199	-11.027734
37	0xc099fe5b	-4.8122993
38	0xbf08c098	-0.53418875
39	0x3b863960	0.004096195
40	0x3d919cd0	0.07109988
41	0x410adca9	8.678872
42	0x3c97102f	0.018440334
43	0x4081c0b0	4.0547714
44	0xc1867790	-16.80838
45	0x3a875852	0.0010326004
46	0xc0326d57	-2.7879236
47	0x4046984d	3.1030457
48	0xbf5b316c	-0.85622287
49	0x3efd7234	0.49501193
50	0x3d4fa2b8	0.05069229
51	0x3d2c96dc	0.04213606
52	0x4182c98c	16.348412
53	0xbec23a7e	-0.3793525
54	0x40883b72	4.2572565
55	0xc10ccafa	-8.799555
56	0x4095d696	4.6824446
57	0x3fddeadc	1.7337298
58	0x408f880a	4.4853563
59	0xc01ed36d	-2.4816544
60	0x3f2bf060	0.6716366
61	0x3ca1f3db	0.0197696
62	0x3dbb8315	0.09155861
63	0x4186cd1e	16.850155
64	0xbfad0c02	-1.351929
65	0x4043cea4	3.0594873
66	0x4137aa61	11.479096
67	0x40a13c02	5.038575
68	0x40d5a160	6.675949
69	0x41062204	8.383305
70	0x401d60ea	2.4590402
71	0x3f56fa93	0.83976096
72	0x3e3af869	0.18258823
73	0x3c548dea	0.012973288
74	0xc1179226	-9.473181
75	0x3f4b1eb7	0.7934374
76	0xc0a406bd	-5.1258225
77	0x414a6a94	12.65102
78	0xc100301e	-8.011747
79	0x3fe1f5a9	1.7653095
80	0xc03cce8f	-2.9501073
81	0x40e1e7d1	7.059548
82	0x3fb8fa91	1.4451467
83	0xc0597fa6	-3.398416
84	0x3a8322db	0.0010004895
85	0xbf5d6e06	-0.8649601
86	0x3ed0e144	0.40796864
87	0xbf8effc9	-1.117181
88	0x4080bec0	4.023285
89	0xc0277079	-2.6162398
90	0x40c9daaa	6.3079424
91	0x416c64c7	14.774604
92	0x40a20a89	5.063786
93	0x3fdeb52d	1.739904
94	0x3dd80aa0	0.105489016
95	0xbba3b110	-0.0049954727
96	0xc1307a9c	-11.029934
97	0x3f77baf7	0.9676966
98	0xbf915272	-1.1353285
99	0x41203e8c	10.01527
100	0xc0809d50	-4.019203
101	0x410791e3	8.473117
102	0x41652c96	14.323385
103	0x41006e4e	8.02693
104	0x3ecec2f4	0.40383112
105	0xbdbcbc6c	-0.09215626
106	0xbe02319a	-0.12714234
107	0xc1161e20	-9.382355
108	0xbba313cc	-0.004976725
109	0x3fdbeae4	1.7181058
110	0xc1f7e01a	-30.984425
111	0x3ffaeb0e	1.9602983
112	0xc1044647	-8.267158
113	0x40958e50	4.673622
114	0x40486308	3.1310444
115	0x3f0fb7b1	0.56139666
116	0xbcb8b454	-0.022546925
117	0x3bd90bf0	0.0066237375
118	0x3efb4a31	0.4908004
119	0x3e12cc62	0.14335778
120	0x3db0962f	0.08622395
121	0xc15727d5	-13.447225
122	0x412c66e8	10.775124
123	0x41097275	8.590444
124	0x4132a74e	11.165846
125	0x3f2feb80	0.6871872
126	0xbec53265	-0.3851501
127	0x3e55ca02	0.20877841
128	0x3db09420	0.086220026
129	0x414108dd	12.064664
130	0xc00abd78	-2.1678143
131	0x40d65ca9	6.698811
132	0x4121f818	10.12307
133	0x40cde80e	6.434577
134	0x3e302789	0.17202581
135	0x40659b15	3.5875905
136	0x40387062	2.8818593
137	0x3f414f6c	0.75511813
138	0x3da20c61	0.07912517
139	0x3da2e1e6	0.07953243
140	0xc13c8ae0	-11.783905
141	0x3e992b74	0.29915965
142	0xc08a001f	-4.312515
143	0xc217aab9	-37.91672
144	0x40869c05	4.2065454
145	0x405ab3a3	3.4172142
146	0x40f3ee1a	7.622815
147	0x40733a51	3.8004344
148	0x3ead5edc	0.33861434
149	0x3cdb2524	0.026751108
150	0x3b434ee5	0.0029801663
151	0xc02ca409	-2.697512
152	0xbd8ade2e	-0.06780659
153	0xbe8ae79e	-0.27129835
154	0x420d5f2c	35.34294
155	0x40eddcd9	7.433209
156	0x40d278e0	6.5772552
157	0xc175fcd9	-15.37423
158	0xc0f9d934	-7.807764
159	0xbd37dec5	-0.044890184
160	0x3e275c3c	0.16343778
161	0x3a68f87c	0.0008887125
162	0x40391dd3	2.8924453
163	0x3c8dc2fb	0.017304888
164	0x3e6a179c	0.22860569
165	0xc1c9e6ca	-25.23769
166	0x40986efc	4.763548
167	0xc07f3307	-3.9874895
168	0x407af48d	3.9211762
169	0x4036774c	2.8510313
170	0x3e5b6c01	0.21427919
171	0xbb4f771d	-0.003165669
172	0x3aaf4046	0.0013370595
173	0x409bfd20	4.874649
174	0xbd22e3b0	-0.03976792
175	0xc1490cf2	-12.56566
176	0x3e4acbe2	0.19804338
177	0xbe386e52	-0.18010834
178	0xbe90df13	-0.28295192
179	0xbdf20734	-0.1181778
180	0xbe6a8102	-0.22900775
181	0xbe304ec7	-0.17217551
182	0xbcbcf750	-0.023067147
183	0xbe448b3e	-0.19193742
184	0xbe2afc28	-0.16697752
185	0x3e5cd1a0	0.2156434
186	0xbe6e003c	-0.23242277
187	0xc122ca58	-10.1744
188	0xc0c7b41b	-6.2407355
189	0x41252b60	10.32309
190	0xbf48cfb5	-0.78441936
191	0x4091fa7d	4.561827
192	0x3e86ccd0	0.26328135
193	0x3ca17cd4	0.019712843
194	0xbc291b12	-0.0103213955
195	0x416870fe	14.527586
196	0x3d51d194	0.05122526
197	0xc03d95e9	-2.9622748
198	0x41265f64	10.398289
199	0x409316dc	4.5965405
200	0x407ed561	3.9817736
201	0x409b9661	4.862107
202	0x407d84a2	3.9612203
203	0x3f84cda1	1.0375253
204	0x3e03eff5	0.12884505
205	0x3d546f40	0.05186391
206	0xc1172533	-9.446582
207	0x3f283e01	0.6571961
208	0xc07c9cc3	-3.947068
209	0xc15637f9	-13.388665
210	0xbe7049e4	-0.23465687
211	0xc0943c7c	-4.6323833
212	0xc0f1b027	-7.552753
213	0xc0a24940	-5.0714417
214	0xbe79f672	-0.24410418
215	0xbe8194b9	-0.2530878
216	0x3e38ce38	0.18047416
217	0x411825c0	9.509216
218	0x3e90dae5	0.28292003
219	0x3ffc4b43	1.9710468
220	0xc12a5db6	-10.647879
221	0xc051103f	-3.2666166
222	0xc04a245e	-3.1584697
223	0xc074115f	-3.8135602
224	0xc00ae0ab	-2.1699626
225	0xbe7d7d9f	-0.24754952
226	0x3d6f5dff	0.05843925
227	0x3d25a413	0.040439676
228	0x40bd039e	5.9066916
229	0xc091f53c	-4.561186
230	0x4109c97e	8.611692
231	0x4151f06b	13.121196
232	0xc12d0c38	-10.815483
233	0x4194b816	18.589886
234	0x3f9501ff	1.1641234
235	0x41078dee	8.472151
236	0x3e44fb6e	0.19236538
237	0xbff5cb9e	-1.9202764
238	0x39aab7f0	0.0003256197
239	0xc159621f	-13.586455
240	0x3eaeb78a	0.34124404
241	0xc1579c74	-13.475697
242	0x40c2f513	6.0924163
243	0x4000b931	2.0113032
244	0x3ce09ee2	0.027419511
245	0x3fe2c0f7	1.7715138
246	0x40b4560b	5.6355033
247	0x40672eca	3.6122308
248	0xc03245d4	-2.785512
249	0xbfdfb7ea	-1.7478001
250	0x4098fa5a	4.7805605
251	0x3f205ab0	0.6263838
252	0xc098278f	-4.754829
253	0x410a6e47	8.651923
254	0x4092a214	4.582285
255	0x40906847	4.512729

bias f4 [128]
0	0x40b49c52	5.644082
1	0xc116d840	-9.427795
2	0x40f10af4	7.532587
3	0xc0eab42d	-7.334494
4	0xbf9860ed	-1.1904579
5	0xc0367ed3	-2.8514907
6	0x40af2271	5.4729543
7	0x41053c45	8.327214
8	0x41177bbd	9.46771
9	0x4163083d	14.189511
10	0x3fc23e45	1.5175253
11	0x3fa5ad72	1.2943556
12	0x40b9bd71	5.804375
13	0x401e55e3	2.473992
14	0xc0e091b5	-7.0177865
15	0x3fb182ca	1.3868039
16	0x3e103a08	0.14084637
17	0x40622e7a	3.5340867
18	0x40cbe81e	6.3720846
19	0xc1015289	-8.08265
20	0xc06b17e7	-3.673334
21	0x412ee15e	10.930021
22	0x4089fbc5	4.3119836
23	0x40e74665	7.227343
24	0xc084c500	-4.149048
25	0xc03aa262	-2.916161
26	0x4111b064	9.105564
27	0x40af96c9	5.4871564
28	0x40ab717f	5.3576045
29	0x412e905f	10.910247
30	0x4061a555	3.525716
31	0x3eb6da3a	0.3571337
32	0x40623109	3.5342429
33	0xc0e47f95	-7.140574
34	0x41054124	8.328403
35	0xc0cf55c0	-6.4792175
36	0xbeef7aa6	-0.4677326
37	0xc1399fe4	-11.601536
38	0x40cb7cee	6.359
39	0x40db4968	6.8527107
40	0xc01e6fea	-2.4755807
41	0xbf8373ca	-1.0269711
42	0xbf9da96b	-1.2317327
43	0xc0b771aa	-5.732625
44	0xc0f53644	-7.662874
45	0x412cba88	10.79554
46	0x40c6e3a8	6.21529
47	0x40befeae	5.968589
48	0x3e66711c	0.22504085
49	0x3f25e216	0.64798105
50	0xc0b3c977	-5.618343
51	0x3fa6e020	1.3037148
52	0x3faff948	1.374795
53	0x40be8923	5.9542403
54	0x40b0bd70	5.5231247
55	0x40f557a8	7.66695
56	0xc0945914	-4.635874
57	0x412df84b	10.873118
58	0x40be9f9b	5.956983
59	0xc015c506	-2.3401504
60	0x40e1f53c	7.061186
61	0xbdc16d6a	-0.09444697
62	0x40e67860	7.202194
63	0xc0c96ecd	-6.2947755
64	0x3dbed56a	0.09318049
65	0x3cda1f00	0.02662611
66	0xc0308ed6	-2.758718
67	0x40c6a26d	6.2073274
68	0xc0bcd29e	-5.90071
69	0x40be8a85	5.954409
70	0xbdde35ec	-0.108501285
71	0x40d21823	6.5654464
72	0xc024272f	-2.5648916
73	0xc034f171	-2.8272364
74	0xc08da5da	-4.4264956
75	0xc1128659	-9.1578
76	0x40db6565	6.8561273
77	0x3fc50e9d	1.5395085
78	0x40eb6263	7.35576
79	0x40c3ea74	6.12237
80	0x4111fb0c	9.123791
81	0xc08de6d2	-4.4344263
82	0x40964848	4.6963234
83	0x40c85e94	6.261545
84	0x40984651	4.7585835
85	0x4083967c	4.1121197
86	0x406b8144	3.6797647
87	0x40d3ade5	6.6149774
88	0xc0aa4269	-5.3206067
89	0x40c9c525	6.3053155
90	0xc0a6638d	-5.199652
91	0x4090d145	4.5255456
92	0x409422c4	4.629244
93	0x40d37332	6.607812
94	0x40be0f90	5.9393997
95	0xbe2d9673	-0.16951923
96	0x40d85274	6.760065
97	0xc0d96eeb	-6.79479
98	0xc0d1c632	-6.555444
99	0xbe43aea4	-0.19109589
100	0x401e02d9	2.4689238
101	0x40e05d65	7.0114007
102	0x409cf683	4.905092
103	0xc02075d7	-2.5071924
104	0x408d9609	4.424565
105	0xc085de7a	-4.183408
106	0xc095e7f1	-4.684563
107	0xc07536ba	-3.8314652
108	0xc052a665	-3.291406
109	0x40977061	4.732468
110	0xbf9ea3bc	-1.2393718
111	0xc0dcdbab	-6.901815
112	0xc02cd272	-2.7003446
113	0x409662ac	4.699545
114	0xc09b31b2	-4.8498163
115	0xc09398ae	-4.6123877
116	0xbfd9daca	-1.7019894
117	0xc0b5d068	-5.68169
118	0x40842d8b	4.1305594
119	0x40c7e21b	6.246351
120	0x40e3b918	7.1163445
121	0x40ab4554	5.352213
122	0xbdfc8496	-0.12329976
123	0xc10a9d58	-8.663414
124	0x40bf68b9	5.9815335
125	0xbd8c1d93	-0.06841578
126	0x40e225db	7.067121
127	0x4160134c	14.004711

weight f4 [128, 128]
0	0x40318df3	2.774289
1	0x400f9dff	2.2440183
2	0x3f0894be	0.5335196
3	0x3dd05f3f	0.10174417
4	0x3ead1f21	0.33812812
5	0x3f17e212	0.5932933
6	0x3f3ee319	0.74565274
7	0xc0876f30	-4.2323227
8	0x3ec859a5	0.39130893
9	0xc080747b	-4.014219
10	0x409f6823	4.981462
11	0x3ec7855f	0.38968942
12	0x3f0b0ede	0.5431956
13	0xc082ecf0	-4.091423
14	0x3f29c3cd	0.66314393
15	0x3fd2561e	1.6432531
16	0xbd0d946d	-0.034565378
17	0xc08a34ed	-4.3189607
18	0x3f271f22	0.6528188
19	0x3e43c6a0	0.19118738
20	0xbe45e1f8	-0.19324481
21	0xc0ac1b10	-5.3783035
22	0xbff9bc03	-1.9510502
23	0x3f2535e5	0.6453536
24	0xbf7848a4	-0.9698584
25	0x3e4de96c	0.20108575
26	0x3efc52e5	0.49281994
27	0xc0b4930a	-5.642949
28	0x3d22bc09	0.039730106
29	0xc04ae490	-3.1702003
30	0x3f129708	0.57261705
31	0xbeb31567	-0.34977266
32	0xc0201428	-2.5012302
33	0xbe07c896	-0.13260111
34	0x3f1b8899	0.60755306
35	0x3fb7df66	1.4365051
36	0xbff634e5	-1.9234892
37	0xbf15b6db	-0.5848214
38	0x3f0cb013	0.5495617
39	0x3ee568ff	0.44806668
40	0x3feadfe2	1.8349574
41	0xbf87abd5	-1.0599314
42	0x3f2e2d75	0.6803811
43	0xbef6df4a	-0.4821723
44	0xbf230f7e	-0.63695514
45	0x3efdfe6d	0.49608174
46	0xbfad83a9	-1.3555804
47	0x3f20d754	0.62828565
48	0x3c704898	0.014665745
49	0x3ee4eb1c	0.44710624
50	0x3f88fe05	1.0702521
51	0x3eb9645e	0.36209387
52	0x3f7a78cf	0.9784059
53	0x3f69909d	0.9123629
54	0x3f4d471f	0.8018665
55	0x3f020251	0.50784785
56	0x3ecdf109	0.40222958
57	0x3f112838	0.56701994
58	0x3f3fc7aa	0.7491404
59	0x3f74e24b	0.95657796
60	0x3e8036be	0.25041765
61	0xbd06bba7	-0.032893803
62	0x3f1595b5	0.5843156
63	0xbd8da3a0	-0.069159746
64	0x3c54b210	0.0129819065
65	0xbc8aecc8	-0.01695861
66	0x3e7f548a	0.24934593
67	0x3f07cdee	0.530486
68	0xbc167cfe	-0.009185074
69	0x3f23f6d4	0.64048505
70	0x3e74aeca	0.23894802
71	0x3efdfefe	0.49608606
72	0xc010cf8e	-2.2626681
73	0xbddb8acb	-0.10719832
74	0x3e7fe89c	0.24991077
75	0xbdba497b	-0.090960465
76	0x3f26da0c	0.65176463
77	0xbf800269	-1.0000736
78	0x3f0a27b7	0.5396685
79	0x3f61443f	0.8799476
80	0xbfb42360	-1.4073296
81	0xbe12f4f6	-0.14351258
82	0x3fa71c7f	1.3055571
83	0x3dbadd28	0.091242135
84	0xbfe04b57	-1.7522992
85	0xbec570db	-0.38562664
86	0xbf2190dc	-0.6311166
87	0x3f2588c8	0.64661837
88	0x3e8b8b28	0.27254605
89	0x3ef14708	0.47124505
90	0xbe61603b	-0.22009365
91	0x3f223688	0.6336446
92	0x3f3fe097	0.7495207
93	0xbfde446e	-1.7364633
94	0x3ed1459e	0.40873426
95	0x3d5c7f66	0.053832434
96	0x3f3bd3b7	0.73369926
97	0xbddfeb01	-0.10933495
98	0x3e800fd9	0.2501209
99	0x3d99eb1d	0.075155474
100	0x3f4b3fa5	0.7939399
101	0x3f0058b3	0.50135344
102	0x3f06b9c8	0.5262723
103	0xc0a3f7f0	-5.124016
104	0xc000d505	-2.0130017
105	0xc139f8a8	-11.623207
106	0xbd680571	-0.056645814
107	0x3f1cf9ca	0.6131865
108	0xc068e05d	-3.638694
109	0x3f07df17	0.53074783
110	0x3f71be7b	0.94431275
111	0xbf369c40	-0.7133217
112	0x3d53cd67	0.05170956
113	0xbed6fb31	-0.4198852
114	0x3ed2908b	0.41125903
115	0x3e16a0b7	0.14709745
116	0xc0a69c26	-5.206561
117	0x3e66dae4	0.22544438
118	0x3fc5a28e	1.5440233
119	0x3f9227c5	1.1418387
120	0x3ea34597	0.3188903
121	0x3f43f3b6	0.7654375
122	0xc012ad40	-2.2918243
123	0xbf84ab8f	-1.0364856
124	0x3f378127	0.71681446
125	0x3e2ca108	0.16858304
126	0x3e3b7be5	0.18308981
127	0x3ede4185	0.43409362
128	0xc00a92af	-2.1652029
129	0x3fc625b5	1.5480257
130	0x3e101365	0.14069898
131	0x3e3c5a3b	0.18393795
132	0x3e14f2d7	0.14545761
133	0x3d0be488	0.03415349
134	0x3e27a3bb	0.16371052
135	0x3d7d6f38	0.061873645
136	0x3e5f217d	0.21790119
137	0x40d932af	6.787437
138	0x40783920	3.8784866
139	0xbd1157cc	-0.03548412
140	0x3da635dd	0.08115742
141	0x40e417bc	7.1278973
142	0x3f2d8656	0.67783105
143	0x40b96e76	5.794734
144	0x3d8977e1	0.06712318
145	0xbecc435d	-0.39895144
146	0xbcbc1216	-0.022957843
147	0xbd0dca06	-0.034616493
148	0x3f286b2b	0.65788525
149	0xc092f97e	-4.5929556
150	0xc066b86b	-3.605006
151	0x3ddd34b3	0.10801067
152	0xbe4ed3e5	-0.20198019
153	0x3ddef599	0.10886688
154	0x3e002a49	0.1251613
155	0xbfd802e9	-1.6875888
156	0xbeeff343	-0.4686528
157	0xbeae93ea	-0.34097224
158	0x3d69ed2e	0.057110958
159	0x404d3920	3.2066116
160	0x3fe89cce	1.8172853
161	0x3e4390ce	0.19098207
162	0x3cf1a377	0.029496891
163	0x40672570	3.61166
164	0x3f9e8e5f	1.2387198
165	0xbcf6a9b4	-0.030110218
166	0x3bad09dd	0.005280717
167	0x3c0c4e71	0.008563624
168	0x3f45bdfd	0.77243024
169	0x40032fb1	2.0497859
170	0x3f4741aa	0.7783457
171	0x3eef0916	0.4668662
172	0x3d9f0ff3	0.07766714
173	0xbd774371	-0.06036705
174	0xbebf2469	-0.37332466
175	0x3d75cc27	0.060009148
176	0x3babd3b0	0.005243741
177	0x3dce738e	0.10080634
178	0x3f7c307b	0.98511475
179	0x3dc86d3e	0.09786461
180	0x3ebcbb22	0.3686152
181	0xbdd20ac0	-0.10255957
182	0x3d2f8236	0.04284879
183	0x3d14aeb5	0.036299426
184	0x3c412734	0.011789132
185	0xbf47a451	-0.779851
186	0xbdb7dc6d	-0.0897759
187	0x3e8ac51f	0.27103516
188	0xbe3e0fd3	-0.18560724
189	0x3b9f15a0	0.004854873
190	0x3d88e332	0.06683959
191	0xbdaf0ecc	-0.08547744
192	0x3d4d3322	0.050097592
193	0x3c2011b0	0.009769842
194	0x3e8d10c9	0.2755187
195	0x3da21897	0.079148464
196	0x3e90fffd	0.28320304
197	0x3d3b9fc6	0.04580667
198	0x3db68814	0.089126736
199	0x3e0ffbf7	0.1406096
200	0xbf653a8a	-0.8954245
201	0xbbc71739	-0.0060757664
202	0x3eccc13e	0.39991182
203	0x3dcbf10b	0.09958085
204	0xbd6f43fb	-0.05841444
205	0x408f9f08	4.488163
206	0x3cb7f527	0.022455765
207	0xbe0775cf	-0.13228534
208	0xbf2135a5	-0.6297248
209	0x3ef8335b	0.4847668
210	0x3dc41809	0.09574897
211	0xbd86f948	-0.065905154
212	0xc06f00d8	-3.7344265
213	0xbf06df61	-0.526846
214	0xbedb0474	-0.42776835
215	0x3cbe1018	0.023201033
216	0x3f4c7f30	0.7988157
217	0x3e19ffec	0.15039033
218	0x3e972b8b	0.29525408
219	0x3d73f5b9	0.05956051
220	0x3e28bed9	0.16479053
221	0xbf5517e4	-0.8323958
222	0x3cbb39fa	0.022854794
223	0x3d8f8461	0.07007671
224	0x3dabb099	0.08383293
225	0x3e8cff3c	0.27538478
226	0x3e2b7ab3	0.16746025
227	0xbcbec470	-0.023287028
228	0x3ed9004a	0.42383033
229	0x3d1142dc	0.035464153
230	0x3df01c45	0.11724142
231	0x3f9ca608	1.2238169
232	0xc045194b	-3.0796688
233	0x3ecf3b8d	0.4047512
234	0xbe714a69	-0.23563541
235	0x3dca71cf	0.098849885
236	0x403691e3	2.8526542
237	0x3e215965	0.15756758
238	0x3e699889	0.22812094
239	0x3e59292b	0.2120711
240	0xbd72d288	-0.05928281
241	0xc09a3702	-4.819215
242	0x3e470906	0.19437036
243	0x3d78907c	0.060684666
244	0xbf3639ef	-0.7118215
245	0x3e2d7d05	0.16942222
246	0xbe8735da	-0.26408273
247	0x3e5533dd	0.20820566
248	0x39805750	0.00024479115
249	0x3c38df9e	0.011283783
250	0x3fcefc27	1.6170701
251	0xbe553db5	-0.2082432
252	0xbc93929b	-0.018014243
253	0x3ec83945	0.39106193
254	0x3c2d3f9b	0.010574247
255	0x3d90ec39	0.07076306

bias f4 [128]
0	0x40ee09d1	7.4386983
1	0xc03421d4	-2.8145647
2	0xc0537fb3	-3.3046691
3	0xbdd26ee5	-0.10275058
4	0x40cf3450	6.475136
5	0xc09767f8	-4.7314415
6	0x40d28b26	6.579486
7	0xbd7a6a5e	-0.061136596
8	0xbd06bdeb	-0.032895964
9	0x3d4f5e77	0.050627198
10	0x40da1020	6.8144684
11	0xc06af362	-3.671105
12	0xc1378117	-11.469016
13	0x40c46595	6.1374
14	0x404752c9	3.1144278
15	0x3cee3071	0.029075833
16	0xbfdb94d7	-1.7154797
17	0x40758167	3.836023
18	0x40d5dc39	6.6831326
19	0x3d75336a	0.059863485
20	0xbd897842	-0.067123905
21	0x40dc4516	6.8834333
22	0xbd9e1ec2	-0.0772071
23	0x40d1b09c	6.552809
24	0xc0381497	-2.8762567
25	0xc04bfef9	-3.1874373
26	0x40d6ad43	6.70865
27	0xc049c7b0	-3.152813
28	0xbd23c2b2	-0.039980598
29	0x3d862b96	0.06551282
30	0x40cb0108	6.343876
31	0xbfec945a	-1.8482773
32	0xbd7d3e4a	-0.06182698
33	0xbfa10597	-1.2579831
34	0x400e2312	2.2208905
35	0xbcba5923	-0.022747582
36	0x40d7fdf1	6.7497487
37	0xc0ecde3e	-7.402129
38	0x40d3b657	6.6160083
39	0xc07f7009	-3.991213
40	0xbd20e42f	-0.039280113
41	0xc04b70a5	-3.1787503
42	0xc0f04b26	-7.5091734
43	0x40e70271	7.219048
44	0x40ac23ce	5.3793707
45	0xbcbf4ee1	-0.023353042
46	0xc03166f0	-2.7719078
47	0x40d3c1a2	6.617387
48	0xbd233b3f	-0.039851423
49	0xbb3e6200	-0.0029050112
50	0xbc904eea	-0.017615754
51	0x4087e711	4.2469563
52	0xc0858050	-4.171913
53	0x410b730c	8.715588
54	0x3c44d5ae	0.012013836
55	0xc118d56f	-9.552108
56	0xc0382a49	-2.877581
57	0xc00369f6	-2.0533423
58	0x3c1e6602	0.009667875
59	0x3d15fe62	0.03661955
60	0xc0b8802d	-5.7656465
61	0x410eff76	8.937368
62	0x40db2808	6.8486366
63	0xc04ad25d	-3.1690896
64	0xbfbe4921	-1.4866067
65	0x3fed6029	1.8544971
66	0x3fb0ba31	1.3806821
67	0x3fe0624f	1.7530001
68	0xc03fe54d	-2.9983704
69	0xbde75b92	-0.112967625
70	0xbe191543	-0.14949517
71	0x40d83cd6	6.7574263
72	0x40536106	3.3027968
73	0xbd65f81b	-0.056144815
74	0x3d6fb6ca	0.05852393
75	0x40890db9	4.282925
76	0x40d3f590	6.623726
77	0x3f9afb27	1.2107896
78	0xbd19934f	-0.037494
79	0xbd8e90f5	-0.06961242
80	0xc05716b0	-3.3607597
81	0x40db7683	6.858217
82	0x40c96069	6.293019
83	0x3f890ddd	1.0707356
84	0xc0057353	-2.0851638
85	0xc034886b	-2.8208263
86	0xbffb911c	-1.9653659
87	0x40818c61	4.048386
88	0x3c95e175	0.018295983
89	0xc0941bec	-4.6284084
90	0xbe034015	-0.12817414
91	0xbd4b8c39	-0.049694274
92	0x3d7d0ad7	0.061777916
93	0xc025b738	-2.5893078
94	0xbda99b8b	-0.082816206
95	0xbff7b152	-1.9350989
96	0x40ead282	7.3381968
97	0xc0ef49d4	-7.477762
98	0xc0654b02	-3.582703
99	0xc09de298	-4.9339104
100	0xc0476da2	-3.1160665
101	0x40d87c5d	6.765181
102	0xbfcf3d4a	-1.6190579
103	0x40d2abb9	6.583462
104	0x40e581c9	7.172093
105	0xc016a1cf	-2.353626
106	0x3f40c99b	0.75307626
107	0x3d591806	0.053001426
108	0xc0da2e22	-6.8181314
109	0xc096559f	-4.697952
110	0xbdac3f23	-0.0841048
111	0x40edf36d	7.435965
112	0x3fcb1ec8	1.5868769
113	0x40d40bf0	6.626457
114	0x4091d040	4.556671
115	0x40cebf72	6.46087
116	0x3dff7a27	0.124744706
117	0x4006b6f0	2.1049156
118	0x40d5949a	6.67439
119	0xc08a2edf	-4.3182216
120	0xbfb4132f	-1.4068354
121	0x3fda39f9	1.7048942
122	0x3d47a316	0.048739515
123	0xc0abdf11	-5.37098
124	0xc0312896	-2.7681022
125	0xc05f1a8d	-3.4859955
126	0x3d85f786	0.06541352
127	0xbdc156dc	-0.09440395

weight f4 [1, 128]
0	0x3f6ac0da	0.9170052
1	0xbf1896c7	-0.5960507
2	0xbf0eb1c4	-0.5574
3	0xbd5547f5	-0.052070577
4	0x40da1baa	6.815877
5	0xbf89fb19	-1.0779754
6	0x3fa2d748	1.2721949
7	0x3d8a1f1d	0.06744216
8	0x3d51a68b	0.05118422
9	0xbd4a055b	-0.049321514
10	0x3f6e0f08	0.92991686
11	0xbf4444c9	-0.7666746
12	0xc1055b25	-8.334752
13	0x3f7b14c0	0.98078537
14	0x3f0679e9	0.5252977
15	0xbd945ef2	-0.07244672
16	0xbfc53176	-1.5405719
17	0x411214e1	9.130097
18	0x3f69e080	0.91358185
19	0x3d19f879	0.037590478
20	0xbd965091	-0.073395856
21	0x3f9f779e	1.2458379
22	0x3d12284f	0.035682973
23	0x3f878b27	1.0589341
24	0x401d860d	2.4613068
25	0xc0b4dee4	-5.6522083
26	0x40cafcf6	6.343379
27	0xbf338712	-0.70127976
28	0x40783d1c	3.8787298
29	0x3d7be349	0.061496053
30	0x40836906	4.1065702
31	0xbfd7567d	-1.6823269
32	0x3cb4ee43	0.022086268
33	0xbfbe81df	-1.4883384
34	0x3fd83a4c	1.6892791
35	0x3cad6bd8	0.021169588
36	0x3f7367c6	0.9508022
37	0xbfd19b53	-1.6375526
38	0x3f8e6e38	1.1127386
39	0xbf3ec8f1	-0.7452536
40	0xbd01cbdd	-0.03168856
41	0xc0ebceea	-7.369008
42	0xbfa1a4f6	-1.2628467
43	0x40b5917b	5.674009
44	0x4163071e	14.189238
45	0x3d3b287c	0.045692906
46	0xc0b7958a	-5.7370043
47	0x40f27bbe	7.5776052
48	0xbd5ab091	-0.053391043
49	0xbce897c2	-0.028392676
50	0xbd24842b	-0.040165108
51	0x41045521	8.270783
52	0xbff4a025	-1.9111372
53	0x40fb18e8	7.8467903
54	0xbc40e8a3	-0.011774215
55	0xc02aca73	-2.6686065
56	0xbf2087da	-0.62707293
57	0x3e86fdc6	0.2636549
58	0x3bf193fd	0.007372378
59	0x3d85770b	0.06516846
60	0x411d3c87	9.827277
61	0x413afbb3	11.68645
62	0x3f869b84	1.051621
63	0xc0828aa4	-4.079424
64	0xbfbc6aaa	-1.4720051
65	0x401ee243	2.48256
66	0x40853ee2	4.163926
67	0x40d0331a	6.506238
68	0xbf286d4a	-0.6579176
69	0x4003439a	2.051001
70	0xbd33a084	-0.04385425
71	0x3f9c340e	1.2203386
72	0x403d0d1a	2.9539247
73	0xbc8e9daa	-0.017409164
74	0x3d2203fb	0.039554577
75	0x40f4de85	7.652163
76	0x3f6167a5	0.88048774
77	0x412ae6e8	10.681374
78	0xbd8d49be	-0.06898831
79	0x3d7ee2a4	0.06222786
80	0xc130fe9b	-11.06216
81	0x3f6f1254	0.9338734
82	0x3f824cd4	1.0179696
83	0xbfa33719	-1.275119
84	0xbfec975c	-1.8483691
85	0xbf18c062	-0.5966855
86	0xc0b69264	-5.70537
87	0x40dbdaff	6.870483
88	0xbc961ad0	-0.018323332
89	0xbfa2545d	-1.2681996
90	0x3b5d3c7f	0.0033757982
91	0xbc301055	-0.010746081
92	0xbd61725f	-0.055040713
93	0xbf1c3fab	-0.6103465
94	0x3d210218	0.039308637
95	0xbff0eba8	-1.8821917
96	0x411fec61	9.99521
97	0xbfb7913f	-1.43412
98	0xbf3f0fca	-0.7463347
99	0xbfb1699f	-1.3860358
100	0xc062f319	-3.5460875
101	0x3f73ff81	0.95311743
102	0xbf0add35	-0.54243785
103	0x3f7aa119	0.97902066
104	0x3f771de6	0.96529996
105	0xbfbf52c6	-1.4947135
106	0xbf5621f6	-0.8364557
107	0xbd8cbda7	-0.06872111
108	0xbfc158e7	-1.5105256
109	0xbff4ec0a	-1.9134533
110	0xbcbf1bf0	-0.023328751
111	0x416cb332	14.793749
112	0x40437fa3	3.0546653
113	0x3f8ee648	1.1164026
114	0x3f7d87dc	0.9903543
115	0x4057bb61	3.3708117
116	0x3ee52fa2	0.44762903
117	0xbd39e012	-0.045379706
118	0x3f452809	0.77014214
119	0xbfa4d43a	-1.2877266
120	0xc0bad62d	-5.8386445
121	0xbf32e4c7	-0.69880337
122	0x3da88db1	0.082301505
123	0xc0bab2c7	-5.8343234
124	0xc0b433d9	-5.631329
125	0xbf726034	-0.94678044
126	0xbd633f61	-0.055480365
127	0x3c07ab60	0.008280605

weight f4 [2, 128]
0	0xbf48c0e8	-0.7841935
1	0xbf9053ae	-1.1275537
2	0xbfccaa9f	-1.598957
3	0x3d2d3801	0.042289738
4	0x3ea0e979	0.31428126
5	0xbf162178	-0.5864482
6	0x3eed104a	0.4630149
7	0x3d8ca8e4	0.06868151
8	0x3d5de372	0.054171987
9	0xbceca248	-0.028885975
10	0x3e71ba78	0.23606288
11	0xbf92fded	-1.1483742
12	0xc163e1e3	-14.242648
13	0x3ebb5ebf	0.36595723
14	0x40118aa2	2.2740865
15	0x3da7eb6e	0.081992015
16	0xbfa3ecca	-1.2806637
17	0x4031913c	2.7744894
18	0xbd96a412	-0.07355513
19	0x3cf88ef6	0.030341607
20	0xbd8ea469	-0.069649525
21	0xbf284f19	-0.65745693
22	0xbc5cc1a2	-0.0134739
23	0x3ec3b4e1	0.38223937
24	0xc104b828	-8.29496
25	0xbe1898f2	-0.14902094
26	0xbd8f5541	-0.06998683
27	0xbf92d35c	-1.1470752
28	0xc0e0d118	-7.025524
29	0x3b91e5d6	0.0044524474
30	0xbf9a21b4	-1.2041535
31	0xbf849801	-1.0358888
32	0x3d654178	0.05597064
33	0xbfcccbd4	-1.5999703
34	0x3f5d1e95	0.8637479
35	0xbd68f1a0	-0.056871057
36	0x3e5fef58	0.21868646
37	0x401ffe6c	2.4999037
38	0x3ed72c6f	0.42026088
39	0xbf002e1e	-0.5007037
40	0xbcd260b7	-0.025680883
41	0xc05a747a	-3.4133592
42	0x400fad0b	2.2449367
43	0xbdfbbb0a	-0.12291534
44	0x41061480	8.380005
45	0x3d92071c	0.07130262
46	0xba48b44f	-0.00076562626
47	0x40b1cda0	5.5563507
48	0xbc0e5e4f	-0.008689477
49	0xbc37ba30	-0.011213824
50	0x3c38b6cb	0.01127405
51	0x3f714ff8	0.9426265
52	0x3e5efd3f	0.21776293
53	0x40d232a5	6.568682
54	0xbd3346c0	-0.043768644
55	0x3fa0147e	1.2506254
56	0xbf771e11	-0.9653025
57	0xc012a5d1	-2.2913706
58	0x3c99f4ca	0.018793482
59	0xbd867270	-0.06564796
60	0x410efdd1	8.936967
61	0xc05e6544	-3.4749308
62	0x3e807991	0.25092748
63	0xbefadfca	-0.48998863
64	0xbfbf699e	-1.4954107
65	0x3fb162c1	1.3858262
66	0x4007f2d0	2.124195
67	0x3fb545ce	1.4161928
68	0xbf896445	-1.0733725
69	0xc083d077	-4.1191974
70	0xbd62d3d8	-0.05537781
71	0x3ec4a837	0.38409588
72	0x4122baeb	10.170634
73	0x3b25c221	0.0025292712
74	0x3d5fdedb	0.05465589
75	0x3f94c315	1.1622034
76	0xbe6c8544	-0.23097712
77	0xc09da62d	-4.926535
78	0x3cd296b4	0.025706626
79	0x3cfd87f8	0.030948624
80	0x40a66293	5.199533
81	0x3c838da6	0.016058754
82	0x3ed966c9	0.4246123
83	0x40531bcb	3.2985713
84	0xbfcbca5d	-1.5921131
85	0xbf80c4cc	-1.0060058
86	0xc075b236	-3.8390021
87	0x3f13d60d	0.5774849
88	0xbd16c06b	-0.036804598
89	0xbf04c861	-0.51868254
90	0x3d6a12d1	0.05714685
91	0xbd13e06b	-0.036102694
92	0x3ca43408	0.020044342
93	0xbf8efff2	-1.1171858
94	0x3cea2cbc	0.028585784
95	0xbfb12ec5	-1.3842398
96	0x3f13a6e7	0.5767655
97	0x400c5186	2.1924758
98	0xbf5d099b	-0.8634278
99	0xbed3132a	-0.4122556
100	0x3ff9cf9c	1.9516482
101	0x3e628d79	0.2212428
102	0xbfbac658	-1.459178
103	0x3eab3745	0.33440605
104	0xbdadd744	-0.08488324
105	0xbf86209e	-1.0478704
106	0x4056d161	3.3565295
107	0x3d2eacc3	0.042645227
108	0x40221059	2.5322478
109	0xbe24275d	-0.16030641
110	0x3d1b782e	0.03795641
111	0x40b15fa9	5.5429273
112	0x40fd4455	7.9145913
113	0x3eda3b34	0.42623293
114	0xbd146ae3	-0.036234748
115	0xbf7e5a24	-0.99356294
116	0xbf003ff1	-0.50097567
117	0x3fa89de4	1.3173184
118	0xbe43a750	-0.19106793
119	0xbf2699a7	-0.65078205
120	0xc074e6c8	-3.8265858
121	0xc13ff2ed	-11.996808
122	0xbd740042	-0.05957056
123	0xc0a32f51	-5.099526
124	0xbf7eb08d	-0.99488145
125	0xbf85f19b	-1.0464357
126	0xbd2231bc	-0.03959821
127	0x3dbbe35e	0.09174226
128	0x3f4bc958	0.796041
129	0x3f8cb828	1.09937
130	0x3fd01b4b	1.6258329
131	0xbd2bc6e9	-0.041937742
132	0xbe947857	-0.28998062
133	0x3f01d4f8	0.5071559
134	0xbea61520	-0.32437992
135	0x3b12dc0b	0.0022408988
136	0x3d9048a5	0.07045106
137	0xbbe47ed5	-0.0069731274
138	0xbe82faae	-0.25581878
139	0x3f9716a3	1.1803783
140	0x416464d3	14.274615
141	0xbeb940fd	-0.36182395
142	0xc00ed8ca	-2.2319818
143	0xbd85f7aa	-0.06541379
144	0x3fad92e0	1.3560448
145	0xc0344a7e	-2.8170466
146	0xbd9f0488	-0.07764536
147	0xbd4e0f35	-0.05030747
148	0xbd7f6377	-0.062350716
149	0x3f2e0a75	0.67984706
150	0xbd1b3fc0	-0.037902594
151	0xbed0b3e5	-0.4076225
152	0x410268b6	8.150564
153	0x3db4cec7	0.08828502
154	0x3e204b6d	0.15653773
155	0x3f8b54d2	1.088526
156	0x40e06de0	7.0134125
157	0x3cd47d29	0.025938587
158	0x3f9581d8	1.168025
159	0x3f7aba8f	0.97940916
160	0xbd0e60e5	-0.034760375
161	0x3fcab768	1.5837221
162	0xbf5170df	-0.8181285
163	0xbcc30162	-0.02380437
164	0xbe9637ce	-0.2933945
165	0xc01cbcda	-2.4490266
166	0xbea7e14d	-0.32789078
167	0x3eef0027	0.46679804
168	0xbb6dd075	-0.003628758
169	0x4059da1e	3.4039378
170	0xc005ec15	-2.0925343
171	0x3b383cd7	0.0028112435
172	0xc107670a	-8.462656
173	0x3ba0f32b	0.0049118004
174	0x3de85b80	0.11345577
175	0xc0b0a6f0	-5.520378
176	0xbd4532ab	-0.048144024
177	0xbd3a5bf1	-0.04549784
178	0xbc7755bb	-0.015096123
179	0xbf80213e	-1.0010145
180	0xbe6252ff	-0.22101973
181	0xc0cd1cf5	-6.409785
182	0xbd6eb68f	-0.05827957
183	0xbf9dabc4	-1.2318044
184	0x3f8aacdb	1.0834001
185	0x401561b7	2.334089
186	0xbc7418c3	-0.014898482
187	0xbd8af0cd	-0.0678421
188	0xc10e2e23	-8.886264
189	0x405c0ef8	3.4384136
190	0xbe58a3bf	-0.21156214
191	0x3ef32d6a	0.47495586
192	0x3fb46f0a	1.4096386
193	0xbfb783b9	-1.4337074
194	0xc00b3f33	-2.1757324
195	0xbfbde478	-1.4835348
196	0x3f7ec3ae	0.99517334
197	0x40845665	4.135546
198	0x3c45e7ce	0.012079192
199	0xbeb83061	-0.3597441
200	0xc121d4d7	-10.114463
201	0xbc7af2a5	-0.01531664
202	0xbc8a430b	-0.016877672
203	0xbf8db92f	-1.1072139
204	0x3e2700e8	0.1630894
205	0x40a0c31f	5.0238185
206	0xbd93cf3d	-0.07217262
207	0xbd878eb2	-0.06619014
208	0xc0aa9d03	-5.3316665
209	0xbc20c1dd	-0.009811846
210	0xbed6af2f	-0.4193053
211	0xc053a9ab	-3.3072307
212	0x3fbf44bd	1.4942852
213	0x3f84b186	1.0366676
214	0x406f1528	3.7356663
215	0xbf2f6f0f	-0.68528837
216	0x3d3fc549	0.046819005
217	0x3f1eb5eb	0.61996335
218	0x3ccc12db	0.024911335
219	0x3c9c1dc6	0.019057166
220	0xbd170197	-0.03686675
221	0x3f8f880c	1.1213393
222	0xbbb52e0f	-0.0055291723
223	0x3fb21ff3	1.3916
224	0xbf1810a7	-0.5940041
225	0xc00c4216	-2.1915336
226	0x3f4961d7	0.78664917
227	0x3ee32314	0.443627
228	0xc0025d27	-2.0369356
229	0xbe68985f	-0.22714375
230	0x3fc66c2e	1.5501764
231	0xbe81ae87	-0.25328466
232	0x3dd9afcc	0.10629234
233	0x3f808b3e	1.0042493
234	0xc057b299	-3.3702757
235	0xbc740a18	-0.014894985
236	0xc01b6c3f	-2.4284818
237	0x3d603fb8	0.054748267
238	0x3d401fb8	0.04690525
239	0xc0b30cb5	-5.595301
240	0xc0fe13b5	-7.9399056
241	0xbebf5404	-0.37368786
242	0x3dc3d2be	0.0956168
243	0x3f7dfea6	0.9921669
244	0x3ee2011b	0.44141468
245	0xbfadeab0	-1.3587246
246	0x3de8297f	0.1133604
247	0x3f0d8d81	0.5529404
248	0x4072963c	3.7904196
249	0x4140360d	12.013196
250	0x3d8b9de8	0.068172276
251	0x40a4fe83	5.1560683
252	0x3f7b41dd	0.98147374
253	0x3f88e95d	1.0696217
254	0xbc93cb84	-0.01804138
255	0xbd0bb53f	-0.034108397

bias f4 [2]
0	0x3ff67a40	1.9256058
1	0xbfeb35a2	-1.8375742

exp_avg f4 [128, 11]
0	0xc640038d	-12288.888
1	0xc471b35a	-966.80237
2	0xc20f73c8	-35.863068
3	0x44128eb6	586.22986
4	0xc6ec5d9c	-30254.805
5	0xc8b4d4dc	-370342.88
6	0xc9254341	-676916.06
7	0xcb65c17a	-1.5057274e+07
8	0xc65c0524	-14081.285
9	0xc8f9d702	-511672.06
10	0xc4373a93	-732.9152
11	0x4601b1c6	8300.443
12	0x4354dd80	212.86523
13	0x41f4c62f	30.59677
14	0x4257ad08	53.918976
15	0x468d2309	18065.518
16	0x485cd3ea	226127.66
17	0x48775496	253266.34
18	0x4a8709ea	4.424949e+06
19	0x46100b6e	9218.857
20	0x48ae2a8d	356692.4
21	0x43d3875c	423.0575
22	0xc35bd2e9	-219.82387
23	0xc1b855de	-23.041927
24	0xbef33a48	-0.47505403
25	0x419464cb	18.549215
26	0xc41e0928	-632.14307
27	0xc5ebc497	-7544.5737
28	0xc65a4d2b	-13971.292
29	0xc8a7afa6	-343421.2
30	0xc386b336	-269.4001
31	0xc620fd13	-10303.269
32	0xc1c07a04	-24.059578
33	0x44a7ab55	1341.3541
34	0x428f82f3	71.75576
35	0x410b9a84	8.725224
36	0xc339213d	-185.12984
37	0x4548828e	3208.1597
38	0x470fd1b4	36817.703
39	0x461c4008	10000.008
40	0x49e4bacc	1.8737535e+06
41	0x44dea0e6	1781.0281
42	0x475960c6	55648.773
43	0x4254a445	53.16042
44	0x431c771b	156.46526
45	0x408f79dd	4.483626
46	0xbfaf3a52	-1.3689673
47	0xc18f23b4	-17.892433
48	0xc2038754	-32.882156
49	0x4455f2db	855.7946
50	0x447cef18	1011.73584
51	0xc79d61b1	-80579.38
52	0x42547cb6	53.121788
53	0xc5d38a12	-6769.259
54	0xbfc5b6c4	-1.5446401
55	0x4317ad36	151.6766
56	0x3f3d970c	0.74058604
57	0xc001b48f	-2.0266454
58	0xc247330a	-49.799843
59	0xc295e4ce	-74.946884
60	0x43daf394	437.90295
61	0xc6107dee	-9247.482
62	0xc7b2071d	-91150.23
63	0xc17a40e0	-15.640839
64	0xc6197886	-9822.131
65	0x420386e8	32.881744
66	0xc4462b31	-792.67487
67	0xc29a34e8	-77.10333
68	0xbfe0b841	-1.755623
69	0x42a2121b	81.03536
70	0xc5074718	-2164.4434
71	0xc6ce5ad4	-26413.414
72	0xc7169adf	-38554.87
73	0xc987c57f	-1.1122399e+06
74	0xc472bf36	-970.9877
75	0xc708e6bf	-35046.746
76	0xc281b9bd	-64.86277
77	0x45177b12	2423.692
78	0x428a159a	69.04219
79	0x40fd662f	7.9187236
80	0xc254f6e0	-53.24109
81	0x455a2a76	3490.6538
82	0x47373345	46899.27
83	0x46f0fb39	30845.611
84	0x49b461ad	1.4776856e+06
85	0x450b85ad	2232.3547
86	0x4763970c	58263.047
87	0xc3a552cc	-330.64685
88	0xc5850038	-4256.0273
89	0xc3af6f5e	-350.87006
90	0xc110b03c	-9.043026
91	0x4387512e	270.63422
92	0xc62ba9b9	-10986.431
93	0xc8033bd7	-134383.36
94	0xc7660210	-58882.062
95	0xca99c298	-5.038412e+06
96	0xc59e0d44	-5057.658
97	0xc83660b8	-186754.88
98	0xc38d6e9e	-282.8642
99	0xc3f8d5ac	-497.6693
100	0xc21d6a55	-39.35384
101	0x33cf8b79	9.6645586e-08
102	0x3eb03d00	0.3442154
103	0xc4967c59	-1203.8859
104	0xc66a15b1	-14981.423
105	0xc688c3e5	-17505.947
106	0xc81a3fc4	-157951.06
107	0xc391c499	-291.53592
108	0xc69d445e	-20130.184
109	0xc357d8b2	-215.84647
110	0x455c6ed8	3526.9277
111	0x44224912	649.1417
112	0xbee1ca6c	-0.44099748
113	0xc3ffafed	-511.37442
114	0x467b962b	16101.542
115	0x48412329	197772.64
116	0x495819ac	885146.75
117	0x4aeb7731	7.7157365e+06
118	0x45cea542	6612.657
119	0x48b82496	377124.7
120	0x43ae008a	348.0042
121	0x42f80de6	124.027145
122	0xc0d40356	-6.625407
123	0xc086d950	-4.2140274
124	0xc10bc86e	-8.736433
125	0xc2b7a7e8	-91.82794
126	0x446e6780	953.6172
127	0x45a3c7da	5240.9814
128	0xc7dc0818	-112656.19
129	0x427ff010	63.984436
130	0xc3bfb990	-383.4497
131	0xc0294dbf	-2.6453702
132	0xc332c7a8	-178.7799
133	0xc19512d4	-18.634193
134	0xbd8d6fec	-0.06906113
135	0x41bc8ae5	23.56782
136	0xc401bd78	-518.96045
137	0xc5c3a480	-6260.5625
138	0xc5ea0804	-7489.002
139	0xc89119e8	-297167.25
140	0xc363946d	-227.57979
141	0xc5ebaf28	-7541.8945
142	0xc1bf1395	-23.884562
143	0x4512ba33	2347.6375
144	0x44a9d02e	1358.5056
145	0x412b430b	10.703868
146	0xc47cdcee	-1011.452
147	0x46acde8a	22127.27
148	0x4881fa2e	266193.44
149	0x4a0ab24d	2.2724032e+06
150	0x4b59e69c	1.4280348e+07
151	0x45db4a2f	7017.273
152	0x48d893ae	443549.44
153	0x44878852	1084.26
154	0x4563a2e4	3642.1807
155	0x43101433	144.0789
156	0x417531f3	15.324695
157	0xc32f2231	-175.13356
158	0x4614a285	9512.63
159	0x47dd814a	113410.58
160	0xc694d3f0	-19049.969
161	0x4a86757e	4.405951e+06
162	0x458e9f06	4563.878
163	0x48352574	185493.81
164	0xc2ddc257	-110.87957
165	0x441e7516	633.82947
166	0x444d4345	821.0511
167	0x41017bbf	8.092711
168	0xc42bc2c9	-687.0435
169	0x4641ff94	12415.895
170	0x48175b6d	154989.7
171	0x49743d86	1.0004084e+06
172	0x4b05d8f3	8.771827e+06
173	0x45445200	3141.125
174	0x4869c492	239378.28
175	0x43108ebf	144.5576
176	0x00000000	0.0
177	0x00000000	0.0
178	0x00000000	0.0
179	0x00000000	0.0
180	0x00000000	0.0
181	0x00000000	0.0
182	0x00000000	0.0
183	0x00000000	0.0
184	0x00000000	0.0
185	0x00000000	0.0
186	0x00000000	0.0
187	0xc4582997	-864.64984
188	0x4286e0e9	67.43928
189	0xc1881483	-17.010015
190	0xc374b31c	-244.69965
191	0xc4c98c6c	-1612.3882
192	0xc688ed65	-17526.697
193	0x47da130e	111654.11
194	0x4984766e	1.0851338e+06
195	0xc4b513d3	-1448.6195
196	0xc7833579	-67178.945
197	0x432e36ca	174.21402
198	0xc433e321	-719.5489
199	0xc28d7c44	-70.74271
200	0xbfb051e7	-1.3774995
201	0x4281cba0	64.897705
202	0xc4fba742	-2013.2268
203	0xc6be5d7e	-24366.746
204	0xc7093c9d	-35132.613
205	0xc97b86ab	-1.0302507e+06
206	0xc460c80f	-899.1259
207	0xc7004672	-32838.445
208	0xc281f428	-64.97687
209	0x444c9c4f	818.4423
210	0x41fab0fa	31.336414
211	0x4063f101	3.5615847
212	0xc2b3535e	-89.66283
213	0x44f0fbf1	1927.8732
214	0x46b561d5	23216.916
215	0x460e41f2	9104.486
216	0x4951b728	858994.5
217	0x448101da	1032.0579
218	0x470a268a	35366.54
219	0x428165a2	64.6985
220	0xc320f8fd	-160.97261
221	0x4017bc96	2.3708854
222	0x41707c9c	15.030422
223	0x42e258d7	113.173515
224	0xc3c186df	-387.05368
225	0xc57c01a9	-4032.1038
226	0x478859b6	69811.42
227	0xc805745f	-136657.48
228	0xc258b6f4	-54.178665
229	0xc5163a16	-2403.6304
230	0xc2bea379	-95.31928
231	0xc628d12b	-10804.292
232	0xc33fd15b	-191.8178
233	0xc2324e8f	-44.576717
234	0x42b6dd0a	91.43172
235	0xc6a57877	-21180.232
236	0xc87b0866	-257057.6
237	0xc82bd0d7	-175939.36
238	0xcad316e2	-6.916977e+06
239	0xc6368201	-11680.501
240	0xc8d94a39	-445009.78
241	0xc3033a5c	-131.22797
242	0x40b93101	5.787232
243	0x3fe1c020	1.7636757
244	0xa7f23d65	-6.7235057e-15
245	0x40d85ebf	6.7615657
246	0x406cfe27	3.7030122
247	0x42617bd6	56.370934
248	0x415f1f43	13.945132
249	0x42b3c577	89.88567
250	0x40f011c5	7.502169
251	0x402899e6	2.6343932
252	0x404f6fa9	3.2411902
253	0xc3fa579c	-500.68445
254	0xc24c6154	-51.095047
255	0xbfa30b7d	-1.2737881

exp_avg_sq f4 [128, 11]
0	0x4fa43ee3	5.5111695e+09
1	0x4c2cae8e	4.526751e+07
2	0x49085ff1	558591.06
3	0x4d222109	1.7000462e+08
4	0x514e590e	5.5391085e+10
5	0x54fe4adb	8.7374205e+12
6	0x575aee09	2.4071589e+14
7	0x5aa56059	2.3274653e+16
8	0x507f44f4	1.7130836e+10
9	0x5563e8dd	1.566183e+13
10	0x4df60919	5.1597392e+08
11	0x4f51b467	3.518261e+09
12	0x4b276385	1.0969989e+07
13	0x48593a98	222442.38
14	0x4c0d1966	3.698831e+07
15	0x50aa2f98	2.2841967e+10
16	0x545f3125	3.8344089e+12
17	0x5459789e	3.736126e+12
18	0x59befba9	6.7196186e+15
19	0x4fffe8ee	8.5869107e+09
20	0x54ba21d2	6.3954506e+12
21	0x4bd53622	2.7946052e+07
22	0x4a0a3539	2.2643982e+06
23	0x46a8ac31	21590.096
24	0x43a07974	320.94885
25	0x47c584d9	101129.695
26	0x4bb0adb6	2.3157612e+07
27	0x4f572727	3.6096673e+09
28	0x5198386c	8.17227e+10
29	0x55274b33	1.1496339e+13
30	0x4abc59b6	6.171867e+06
31	0x4fba813f	6.258065e+09
32	0x48b7fe13	376816.6
33	0x4d1c737a	1.6405085e+08
34	0x493244a8	730186.5
35	0x4623ea80	10490.625
36	0x49cfb9be	1.7016878e+06
37	0x4e8eca8b	1.1978193e+09
38	0x522e5de8	1.8722495e+11
39	0x53e51d12	1.9680705e+12
40	0x57e9bef0	5.1401256e+14
41	0x4dcda192	4.3123974e+08
42	0x52a85a70	3.615359e+11
43	0x4ac6dd2d	6.5163745e+06
44	0x495f5c75	914887.3
45	0x461ce30a	10040.76
46	0x45d873c1	6926.469
47	0x47aa6dc9	87259.57
48	0x4a229c1d	2.6641992e+06
49	0x4dce4cbf	4.3264202e+08
50	0x533867ce	7.9201554e+11
51	0x535f9a7a	9.603694e+11
52	0x497c3ac7	1.03313244e+06
53	0x4df7c070	5.19573e+08
54	0x47bfecc8	98265.56
55	0x49c8c392	1.6446582e+06
56	0x46c2b74d	24923.65
57	0x45ff6733	8172.9
58	0x4887c823	278081.1
59	0x4ad6266a	7.017269e+06
60	0x4e8bff28	1.1743775e+09
61	0x53b2c48e	1.5356036e+12
62	0x540e9fe4	2.4502715e+12
63	0x4a1b0d01	2.5403522e+06
64	0x4ebaa4ed	1.5656854e+09
65	0x48b22838	364865.75
66	0x4bc6926a	2.602722e+07
67	0x48844451	270882.53
68	0x44d45156	1698.5417
69	0x496c9f5e	969205.9
70	0x4d9199b7	3.0534627e+08
71	0x5130463e	4.7318295e+10
72	0x52d7e88d	4.6365976e+11
73	0x56f45965	1.3433239e+14
74	0x4c9c1cb3	8.1847704e+07
75	0x51997200	8.2380325e+10
76	0x4a77bee0	4.059064e+06
77	0x4c940452	7.760347e+07
78	0x4822089a	165922.4
79	0x475286a9	53894.66
80	0x4a368c3a	2.9908625e+06
81	0x4d87d534	2.8486208e+08
82	0x5136ce26	4.9071415e+10
83	0x50891e33	1.8403662e+10
84	0x56bc0187	1.0335737e+14
85	0x4d17405c	1.585986e+08
86	0x5197fefd	8.160226e+10
87	0x4a9d1219	5.1468925e+06
88	0x4e2a7432	7.149354e+08
89	0x4a9ed274	5.204282e+06
90	0x46a9929d	21705.307
91	0x4b90ab01	1.8961922e+07
92	0x4fcd41e5	6.8872955e+09
93	0x537a6b33	1.0755403e+12
94	0x54aef2fa	6.011206e+12
95	0x59185ba0	2.6803087e+15
96	0x4ef0c92d	2.019858e+09
97	0x53e863fb	1.9962196e+12
98	0x4c6ad013	6.1554764e+07
99	0x4a0c9fe2	2.3039925e+06
100	0x480a5625	141656.58
101	0x47c99581	103211.01
102	0x4a224bc4	2.659057e+06
103	0x4b5971e6	1.425047e+07
104	0x4f187563	2.55783e+09
105	0x4fd61bde	7.184301e+09
106	0x52d9fbec	4.6811723e+11
107	0x4a129557	2.4016218e+06
108	0x4f4f066a	3.473304e+09
109	0x4a11bfb2	2.3879485e+06
110	0x4ea239a2	1.360843e+09
111	0x4c7a5e37	6.5632476e+07
112	0x493a2e95	762601.3
113	0x4d3d785a	1.9867382e+08
114	0x514a1ed9	5.425631e+10
115	0x54f8bd91	8.5466583e+12
116	0x55eb663d	3.2353043e+13
117	0x5ab6138c	2.5624969e+16
118	0x505bd832	1.4753516e+10
119	0x5544b0e4	1.3516501e+13
120	0x4e02f649	5.4929466e+08
121	0x4ab5faa0	5.963088e+06
122	0x470decea	36332.914
123	0x46662cc6	14731.193
124	0x48940f14	303224.62
125	0x4be85834	3.0453864e+07
126	0x4f957499	5.014893e+09
127	0x5406dd2d	2.3169453e+12
128	0x5529dd04	1.167292e+13
129	0x4b50821a	1.3664794e+07
130	0x4f5db97b	3.7199204e+09
131	0x48775a06	253288.1
132	0x49943484	1.2140965e+06
133	0x465fef23	14331.784
134	0x43183069	152.1891
135	0x47970cdb	77337.71
136	0x4b51cb39	1.3749049e+07
137	0x4efd98e6	2.127328e+09
138	0x51d0b257	1.12043155e+11
139	0x54dd5ec9	7.606224e+12
140	0x4a478468	3.26889e+06
141	0x4f56299b	3.593051e+09
142	0x489e00da	323590.8
143	0x4ecd768a	1.7235489e+09
144	0x4d6327c5	2.3818965e+08
145	0x49a87f75	1.3803346e+06
146	0x4e3d5cf8	7.9424666e+08
147	0x52153a7a	1.602328e+11
148	0x55b8e751	2.5412954e+13
149	0x579768f2	3.32954e+14
150	0x5b943ac9	8.344586e+16
151	0x5117076e	4.0541544e+10
152	0x55f26b19	3.3317724e+13
153	0x4f124155	2.4537551e+09
154	0x4e2945c2	7.099803e+08
155	0x493d0438	774211.5
156	0x47addba0	89015.25
157	0x4a7ea7df	4.1722798e+06
158	0x4f1ea291	2.661454e+09
159	0x52c1afef	4.1594018e+11
160	0x54dea9c4	7.6506475e+12
161	0x582b1601	7.52444e+14
162	0x4e5ad2cf	9.1781216e+08
163	0x537cbac8	1.0854654e+12
164	0x4ab6b76f	5.9872555e+06
165	0x4e383400	7.726039e+08
166	0x4c884979	7.145364e+07
167	0x4945749f	808777.94
168	0x4d3b2416	1.9623152e+08
169	0x514520cc	5.2916175e+10
170	0x54efb8af	8.2367653e+12
171	0x57329dc4	1.9639067e+14
172	0x5ab4e706	2.5459754e+16
173	0x503fc1f5	1.2868638e+10
174	0x552600ae	1.1407616e+13
175	0x4a9acc20	5.0724e+06
176	0x00000000	0.0
177	0x00000000	0.0
178	0x00000000	0.0
179	0x00000000	0.0
180	0x00000000	0.0
181	0x00000000	0.0
182	0x00000000	0.0
183	0x00000000	0.0
184	0x00000000	0.0
185	0x00000000	0.0
186	0x00000000	0.0
187	0x4d729261	2.5435496e+08
188	0x494207a9	794746.56
189	0x485126ab	214170.67
190	0x4b5630ec	1.4037228e+07
191	0x4e41a01b	8.1212384e+08
192	0x51fdcf7f	1.3626349e+11
193	0x55ffab55	3.5138916e+13
194	0x5767380a	2.5422787e+14
195	0x4dcef07c	4.3398336e+08
196	0x5283f12d	2.833435e+11
197	0x4b9ebcd2	2.0806052e+07
198	0x4ba556c5	2.1671306e+07
199	0x486236d0	231643.25
200	0x447cc289	1011.0396
201	0x493a8c24	764098.25
202	0x4d768924	2.5851142e+08
203	0x511550a3	4.0081437e+10
204	0x52cb4bc1	4.3657465e+11
205	0x56d719cc	1.182529e+14
206	0x4c83dc98	6.91335e+07
207	0x51818cf3	6.955194e+10
208	0x4a480353	3.2770128e+06
209	0x4c03b0e5	3.4522004e+07
210	0x47c2bb1c	99702.22
211	0x45247cc0	2631.7969
212	0x48aa3a16	348624.7
213	0x4d3baaa2	1.9678262e+08
214	0x50e6d8d2	3.0983754e+10
215	0x515be292	5.902494e+10
216	0x5682abc5	7.183713e+13
217	0x4c89585b	7.200841e+07
218	0x516cca23	6.3562723e+10
219	0x4959df33	892403.2
220	0x4a5f6a4b	3.6604348e+06
221	0x478b5810	71344.125
222	0x4714a887	38056.527
223	0x498ae91e	1.1379558e+06
224	0x4b8e3359	1.8638514e+07
225	0x4f411124	3.239126e+09
226	0x54337a9c	3.0834248e+12
227	0x559a542b	2.1210786e+13
228	0x4b18bb5a	1.0009434e+07
229	0x4d6e5c86	2.4994006e+08
230	0x498838c6	1.1159288e+06
231	0x4f7d01bc	4.2447493e+09
232	0x4acfc428	6.808084e+06
233	0x48a29355	332954.66
234	0x4adacab8	7.169372e+06
235	0x50ad564c	2.3264911e+10
236	0x5451f775	3.6071992e+12
237	0x53a4bdfd	1.4151242e+12
238	0x59a8d562	5.9403016e+15
239	0x4fef492c	8.0291e+09
240	0x54c86563	6.8855556e+12
241	0x491f0c35	651459.3
242	0x4909a654	563813.25
243	0x4814e26c	152457.69
244	0x481894da	156243.4
245	0x493187f6	727167.4
246	0x47a2acc7	83289.555
247	0x4b077ee6	8.879846e+06
248	0x482afa8b	175082.17
249	0x4ac855eb	6.5645975e+06
250	0x4979398e	1.0208249e+06
251	0x49372536	750163.4
252	0x48578697	220698.36
253	0x4b31d1a9	1.1653545e+07
254	0x47db29a7	112211.305
255	0x4420326f	640.788

exp_avg f4 [128]
0	0xc6e810d9	-29704.424
1	0x468dcc11	18150.033
2	0xc4198469	-614.0689
3	0x453d7c12	3031.7544
4	0xc2509305	-52.143574
5	0xc2fd8bfe	-126.77342
6	0xc502529e	-2085.1636
7	0x45575550	3445.332
8	0xc627935b	-10724.839
9	0xc4967156	-1203.5417
10	0x467396ec	15589.73
11	0xc2d18e88	-104.77838
12	0xc3f7bb19	-495.4617
13	0x46a50d11	21126.533
14	0x4612234a	9352.822
15	0x463763c7	11736.944
16	0x00000000	0.0
17	0xc4ea431d	-1874.0973
18	0xc4f3b699	-1949.7062
19	0x44e638b7	1841.7723
20	0xc3816cc7	-258.84982
21	0xc6a51abe	-21133.371
22	0x41276ee9	10.464578
23	0xc4aeea5b	-1399.3236
24	0x44b2098e	1424.2986
25	0x457301f4	3888.122
26	0xc42f2dd7	-700.71625
27	0xc1412180	-12.070679
28	0xc5086cb4	-2182.794
29	0xc5187c0b	-2439.7527
30	0xc425d7fc	-663.37476
31	0x460d8b6a	9058.854
32	0xc405f92c	-535.8933
33	0x4598c53b	4888.654
34	0xc47d8f7d	-1014.242
35	0x46e6ea8c	29557.273
36	0x4632f3a8	11452.914
37	0x43f6d20f	493.64108
38	0xc41f3ea1	-636.9786
39	0xc3fb38f0	-502.44482
40	0x44acc8c0	1382.2734
41	0x45d739f4	6887.244
42	0x459e507e	5066.0615
43	0x443a004e	744.00476
44	0x447a1287	1000.2895
45	0xc4b35da1	-1434.9259
46	0xc5ebb71e	-7542.8896
47	0xc4c7a753	-1597.2289
48	0x00000000	0.0
49	0x437ee35f	254.88817
50	0x463c6882	12058.127
51	0xc404aa3c	-530.6599
52	0xc51e2a1d	-2530.632
53	0xc53f1d41	-3057.8284
54	0xc553e395	-3390.2239
55	0xc3eef3a2	-477.90338
56	0x438426ee	264.30414
57	0xc55eb342	-3563.2036
58	0xc56affbe	-3759.984
59	0xc37bbe8e	-251.74435
60	0xc51a3ee4	-2467.9307
61	0x00000000	0.0
62	0xc4894149	-1098.0402
63	0x4501095a	2064.5845
64	0x00000004	6e-45
65	0x00000000	0.0
66	0x459e40e0	5064.1094
67	0xc43604b7	-728.07367
68	0x454095da	3081.3657
69	0xc428cbec	-675.1863
70	0x3ff9f280	1.952713
71	0xc439e665	-743.5999
72	0x463df235	12156.552
73	0x45215cdc	2581.8037
74	0x452df3cd	2783.2375
75	0x44f9bad0	1997.8379
76	0xc507062c	-2160.3857
77	0x4523eb40	2622.7031
78	0xc4378213	-734.0324
79	0xc52ddd52	-2781.8325
80	0xc5e00d61	-7169.6724
81	0x448c6c2c	1123.3804
82	0xc59bbb19	-4983.387
83	0xc4ebe61e	-1887.1912
84	0x41234a8d	10.205701
85	0xc5454288	-3156.1582
86	0x432c07ba	172.03018
87	0xc4758784	-982.11743
88	0x44a58f64	1324.481
89	0xc3a0da26	-321.70428
90	0x43f14f78	482.62085
91	0xc3ea7e5e	-468.98724
92	0xc3b98cdf	-371.10056
93	0xc6963134	-19224.602
94	0xc4465f2e	-793.4872
95	0x00000000	0.0
96	0xc49108a4	-1160.27
97	0xc19678a4	-18.808907
98	0x4497df39	1214.9757
99	0x00000000	0.0
100	0xc4d552ec	-1706.5913
101	0xc4205310	-641.29785
102	0xc392e648	-293.79907
103	0x467e4d81	16275.376
104	0x410d2028	8.820351
105	0x4741b51e	49589.117
106	0x00000004	6e-45
107	0xc2f97767	-124.73321
108	0x46d5b0a4	27352.32
109	0xc387617d	-270.76163
110	0xc3803b8b	-256.46518
111	0x451883e0	2440.2422
112	0x00000004	6e-45
113	0xc6054545	-8529.317
114	0x44963483	1201.641
115	0x450aa265	2218.1497
116	0x4636d653	11701.581
117	0x426ee2b6	59.721397
118	0xc571fde6	-3871.8687
119	0xc5fd87ac	-8112.959
120	0xc4728ef8	-970.2339
121	0xc4f30a24	-1944.3169
122	0x462ae5ec	10937.48
123	0xbe9bf9b4	-0.30463946
124	0xc4f8c789	-1990.2355
125	0x44f46e85	1955.4537
126	0xc493c819	-1182.253
127	0xc495d5cc	-1198.6812

exp_avg_sq f4 [128]
0	0x515b1663	5.881084e+10
1	0x50b3669f	2.4078776e+10
2	0x4bb99efd	2.4329722e+07
3	0x4e94c777	1.24805e+09
4	0x4a2dfd19	2.8506302e+06
5	0x4ae52a40	7.50928e+06
6	0x4d9836fe	3.192176e+08
7	0x4d8f6454	3.0071462e+08
8	0x4fd73b0b	7.221942e+09
9	0x4b83ba0d	1.726569e+07
10	0x515ab58f	5.8709307e+10
11	0x4bfa8c29	3.2839762e+07
12	0x4b58c816	1.4206998e+07
13	0x52247a94	1.7660779e+11
14	0x4f208b23	2.693473e+09
15	0x51545e38	5.7007112e+10
16	0x00000000	0.0
17	0x4e52f4fa	8.8481754e+08
18	0x4d80fc74	2.7050355e+08
19	0x4d426bc4	2.0386515e+08
20	0x4bb15fe4	2.324884e+07
21	0x50ae5b12	2.3401632e+10
22	0x497bb997	1.03106544e+06
23	0x4cfe412c	1.3330262e+08
24	0x4de88b49	4.876803e+08
25	0x4ed56a0b	1.7902483e+09
26	0x4c20193c	4.196888e+07
27	0x4e317318	7.442775e+08
28	0x4e067b25	5.6405434e+08
29	0x4ea84f73	1.4118895e+09
30	0x4c96087e	7.866059e+07
31	0x5106dbf1	3.6200976e+10
32	0x4b31ea65	1.1659877e+07
33	0x4e7ee93e	1.06917466e+09
34	0x4c9215d4	7.659075e+07
35	0x5159c38e	5.8455548e+10
36	0x4fe31b61	7.6204447e+09
37	0x4b3ff5af	1.2580271e+07
38	0x4bd68045	2.8115082e+07
39	0x4b6c9111	1.5503633e+07
40	0x4d0dfce6	1.4888509e+08
41	0x5024290d	1.1016615e+10
42	0x501af58a	1.0399132e+10
43	0x4d51d654	2.2003027e+08
44	0x4c8279b5	6.8406696e+07
45	0x4d0bd895	1.4663918e+08
46	0x4f5b4dc2	3.6793062e+09
47	0x4d3a49e8	1.9533786e+08
48	0x00000000	0.0
49	0x4b0ede98	9.363096e+06
50	0x4fbad641	6.269207e+09
51	0x4b8ce540	1.8467456e+07
52	0x4bd24a67	2.7563214e+07
53	0x4e1b3c05	6.511005e+08
54	0x4e48afb8	8.417398e+08
55	0x4bd13ebe	2.7426172e+07
56	0x4a942bca	4.855269e+06
57	0x4e264f6f	6.975559e+08
58	0x4e71b4e8	1.0137912e+09
59	0x4b03a95a	8.62857e+06
60	0x4dc2d415	4.0858486e+08
61	0x00000000	0.0
62	0x4c9f87e1	8.364007e+07
63	0x4d9204db	3.0622397e+08
64	0x000001f4	7e-43
65	0x00000000	0.0
66	0x4f30d9f6	2.9670743e+09
67	0x4c09378f	3.597062e+07
68	0x4e0c0b8e	5.873919e+08
69	0x4c21eb10	4.244589e+07
70	0x4b3b457d	1.2273021e+07
71	0x4c1661fc	3.9421936e+07
72	0x4f800de2	4.296787e+09
73	0x4e23a629	6.863939e+08
74	0x4e42b691	8.1668614e+08
75	0x4d447643	2.060053e+08
76	0x4dbaa6a9	3.9143555e+08
77	0x4e08f0c4	5.7437005e+08
78	0x4c4da1a7	5.3905052e+07
79	0x4e0ce74e	5.9099226e+08
80	0x4f5be823	3.6894236e+09
81	0x4c9b2bb3	8.1354136e+07
82	0x4ee77fe4	1.9419592e+09
83	0x4d8da82a	2.9707603e+08
84	0x49745ec8	1.0009405e+06
85	0x4e9f0fc4	1.3343053e+09
86	0x495df6ee	909166.9
87	0x4c716050	6.327533e+07
88	0x4dd2bc6d	4.419455e+08
89	0x4a9b7530	5.09404e+06
90	0x4bdc2175	2.885297e+07
91	0x4b2ca4bc	1.1314364e+07
92	0x4b37c51d	1.2043549e+07
93	0x5046ca16	1.3340531e+10
94	0x4c18e9d3	4.0085324e+07
95	0x00000000	0.0
96	0x4ced4213	1.24391576e+08
97	0x4b48e0df	1.3164767e+07
98	0x4d0a10c8	1.4477222e+08
99	0x00000000	0.0
100	0x4c6851a8	6.0901024e+07
101	0x4c0dd9f1	3.7185476e+07
102	0x4b032687	8.595079e+06
103	0x5084a2f4	1.7802174e+10
104	0x4948061c	819297.75
105	0x520b4051	1.4951988e+11
106	0x000001f4	7e-43
107	0x4a98956c	4.999862e+06
108	0x51183759	4.0860226e+10
109	0x4a62d65a	3.7165025e+06
110	0x4afa9bc3	8.2119375e+06
111	0x4de31cd7	4.7628976e+08
112	0x1944a2b4	1.016582e-23
113	0x4f9652fc	5.0440417e+09
114	0x4c9ab321	8.110721e+07
115	0x4d6addb9	2.4627496e+08
116	0x4f8c9bd9	4.7180477e+09
117	0x4b349b47	1.1836231e+07
118	0x4ea396e7	1.3722879e+09
119	0x4fb15655	5.95045e+09
120	0x4d076827	1.4198437e+08
121	0x4d254e21	1.7333506e+08
122	0x4f9cbd1f	5.25928e+09
123	0x478d9eaa	72509.33
124	0x4d85bb6b	2.8045654e+08
125	0x4e908905	1.2124494e+09
126	0x4d044a4b	1.3871634e+08
127	0x4d0a28b4	1.448702e+08
