explainability/stages/final_1/cache_agent/1/D3QN_q_target.pth (torch, 80271 bytes, 7 tensors)

weight f4 [128, 15]
0	0xbf3ddb11	-0.74162394
1	0xbdec272d	-0.1153091
2	0xc07b684d	-3.928241
3	0xc086ea1c	-4.216078
4	0x4039b42d	2.901622
5	0xc019c9c5	-2.40294
6	0x3e2b0305	0.1670037
7	0x3fe87103	1.8159488
8	0x40bc1c97	5.87849
9	0xbe1fce6c	-0.15606087
10	0x3f80a9bc	1.0051799
11	0x3dbcdd90	0.09221947
12	0xbf34253e	-0.7036933
13	0x3f5df08e	0.8669518
14	0x3dc8b562	0.09800221
15	0x3fb774ae	1.4332483
16	0x3f191751	0.59801203
17	0xc08caf6c	-4.396414
18	0xc0a20b0e	-5.0638494
19	0xbd50077f	-0.0507884
20	0xbe2e81c0	-0.17041683
21	0x3f79e4a2	0.9761449
22	0x3fb23dee	1.392515
23	0x4080700f	4.013679
24	0x3d5b22b8	0.053499907
25	0x3f42810f	0.7597818
26	0xbd2972b1	-0.041369144
27	0x3eda3f06	0.42626208
28	0xbdaffa8d	-0.08592711
29	0x3ea2d72e	0.31804794
30	0xbef1862c	-0.47172678
31	0xbf6a5b6c	-0.9154575
32	0x40a942b9	5.289395
33	0x409904eb	4.7818503
34	0xbef1fdb9	-0.47263888
35	0x3f5c6f7a	0.861076
36	0xbf70ff8a	-0.9413992
37	0xbfa928c6	-1.3215568
38	0xc0c99055	-6.2988687
39	0xbd6e4410	-0.05817038
40	0xbfc8ca82	-1.56868
41	0xbc058a24	-0.008150611
42	0xbf2bbbac	-0.6708324
43	0xbef0784a	-0.46966773
44	0x3e607f02	0.2192345
45	0x3fba7767	1.4567689
46	0x3ebb7328	0.36611295
47	0xc0aadec3	-5.3396926
48	0xc0b9fee7	-5.812366
49	0x3f365288	0.7121968
50	0xbdc59a20	-0.09648538
51	0x3f73e1f0	0.9526663
52	0x3f9c8cb6	1.2230442
53	0x40856760	4.168869
54	0x3e093fbe	0.13403222
55	0x3f49c6f5	0.7881921
56	0x3dc9805c	0.09838936
57	0x3ebf9de6	0.37425154
58	0xbedea88f	-0.43487975
59	0xbc40e6d0	-0.01177378
60	0x3fb7a2f6	1.4346607
61	0x3f84c5ef	1.0372905
62	0xc0894afb	-4.290403
63	0xc0afd2ed	-5.494498
64	0x3f8d3b66	1.1033752
65	0x3e86e87f	0.26349255
66	0x3e94426d	0.2895693
67	0x3f24c4d1	0.6436282
68	0x406ee236	3.7325568
69	0xbdc00304	-0.09375575
70	0x3f1df4b3	0.61701506
71	0xbec56855	-0.38556162
72	0xbdc66b32	-0.09688415
73	0xbf4622d1	-0.77396876
74	0x3c30fbbc	0.010802206
75	0x3fa1ad1b	1.2630953
76	0x3e9b9c6f	0.30392787
77	0xc0a95093	-5.2910857
78	0xc0b06310	-5.5120926
79	0xbdd076c8	-0.10178906
80	0xbe8b1aa3	-0.2716876
81	0x3f2c6697	0.6734404
82	0x3f6b34b3	0.9187729
83	0x4073045b	3.7971408
84	0x3d1c24f0	0.038121164
85	0x3f331d39	0.69966465
86	0x3d151c6e	0.036404066
87	0x3f0cf2fd	0.5505827
88	0xbe27a7fd	-0.16372676
89	0x3dd84346	0.105597064
90	0xc0807a33	-4.014917
91	0x3ede3997	0.43403313
92	0x3d315b6d	0.04330008
93	0x408cc59d	4.3991227
94	0x40818dbe	4.0485525
95	0xc036f4a8	-2.8586826
96	0xbf07d779	-0.5306316
97	0x3e8d84dd	0.2764043
98	0x3fc0bdec	1.505796
99	0xbbc96f80	-0.006147325
100	0x3f48ff3c	0.78514457
101	0x3eab4b82	0.33456045
102	0x3e0d36fd	0.13790508
103	0x3ff09d68	1.8798037
104	0xbd6db9ef	-0.05803865
105	0xbe57062e	-0.20998451
106	0xbe81a52e	-0.25321335
107	0x3dc76490	0.09735978
108	0xbe56e30a	-0.20985046
109	0xbe5eb3e1	-0.21748306
110	0x3d8a1b00	0.06743431
111	0x3dedd388	0.11612612
112	0x3c8bbd20	0.017057955
113	0x3e37f44a	0.17964283
114	0x3c2cb7e0	0.010541886
115	0xbe4b6472	-0.19862536
116	0xbd8ea668	-0.06965333
117	0xbe4ab756	-0.197965
118	0xbe06f39a	-0.13178864
119	0xbe08ac5e	-0.13347003
120	0x3fc71bbf	1.5555342
121	0x3eee8be1	0.46591094
122	0xc096e050	-4.714882
123	0xc0b03256	-5.5061445
124	0x3f4b6604	0.7945254
125	0x3ceff339	0.029290782
126	0x3f403627	0.7508263
127	0x3f014e10	0.5050974
128	0x4053b627	3.3079927
129	0xbe45291f	-0.19253968
130	0x3f2b2dff	0.6686706
131	0xbed0f473	-0.408115
132	0x3df88476	0.1213464
133	0xbf9c5164	-1.2212338
134	0x3e081d3c	0.13292402
135	0x408a6c2f	4.325706
136	0x3f47b01a	0.78003085
137	0x3fd6a6f9	1.6769706
138	0x3f983c8c	1.1893477
139	0xbfcc30c0	-1.5952377
140	0x3f9ee474	1.2413468
141	0x3f9241df	1.1426352
142	0x3f81094c	1.0080962
143	0xc030f2ab	-2.7648113
144	0x3e512bde	0.2042689
145	0x3d697ff2	0.057006784
146	0xbf06144c	-0.5237472
147	0x3f85ba16	1.0447414
148	0x3d26d94d	0.040734578
149	0xbea403c4	-0.32034123
150	0xbf7a6c0d	-0.9782112
151	0x3eba6220	0.36402988
152	0x409510a0	4.6582794
153	0x40bcb6b1	5.897301
154	0xbe84737a	-0.25869352
155	0xbf2cf7a5	-0.67565376
156	0xbeb80e91	-0.35948613
157	0xbe9211a7	-0.28529093
158	0xc06944de	-3.6448283
159	0x3e8385e3	0.25688085
160	0x3e7d9cc1	0.24766828
161	0x3dc5c588	0.09656817
162	0x3dd2efbb	0.10299631
163	0x3c7edd9c	0.0155557655
164	0x3e48c3f7	0.19606005
165	0x3f98b8a3	1.1931347
166	0x3f463d92	0.774377
167	0xc08b688d	-4.3565125
168	0xc0a6a683	-5.207826
169	0x3d824cad	0.06362281
170	0x3d949910	0.07255757
171	0x3f8270a4	1.0190625
172	0x3fc087ff	1.5041503
173	0x4088fc36	4.2807875
174	0x3da5a25c	0.08087608
175	0x3f6216eb	0.8831622
176	0x3cee8efb	0.029120913
177	0x3e87369e	0.26408857
178	0x3dc75dd2	0.09734692
179	0x3e9f538e	0.31118435
180	0x3fa4e225	1.2881514
181	0x3f322125	0.69581825
182	0xc09e449f	-4.9458766
183	0xc0a41b5a	-5.128339
184	0x3e21e2e0	0.15809202
185	0x3b9c1bac	0.004764041
186	0x3f5aafdc	0.8542459
187	0x3fac4f31	1.3461667
188	0x4063f979	3.5621016
189	0xbdc1bff2	-0.09460439
190	0x3f26e186	0.6518787
191	0x3c756aa2	0.0149790365
192	0x3efb42d4	0.49074423
193	0xbe6e0e76	-0.23247704
194	0x3e84ea9b	0.2596024
195	0xbf0297b1	-0.5101271
196	0x3eb6e504	0.357216
197	0x40828775	4.0790353
198	0x40a2a1ae	5.0822363
199	0x3e2f018a	0.17090431
200	0xbfa4f9cd	-1.2888733
201	0xbf40ca81	-0.75308996
202	0xbf463698	-0.77427053
203	0xc0a74e26	-5.2282896
204	0x3dce7b54	0.10082117
205	0xbedc9834	-0.43084872
206	0x3dd768ea	0.10518058
207	0xbd2ba44b	-0.04190473
208	0xbef3ee62	-0.4764281
209	0x3e19e300	0.15028
210	0x3f88173b	1.0632089
211	0x3f6675b2	0.9002334
212	0xc085a0f5	-4.175898
213	0xc0a66ea0	-5.201004
214	0x3ea8d568	0.32975316
215	0x3ec9d213	0.39418086
216	0x3f21d627	0.63217396
217	0x3f0b16ef	0.5433187
218	0x4066ed69	3.6082404
219	0x3dca3e78	0.09875196
220	0x3f25c307	0.64750713
221	0xbf231fd9	-0.6372047
222	0x3ee6187b	0.44940552
223	0xbf626b58	-0.88445044
224	0x3c214f26	0.009845531
225	0x3f757132	0.9587585
226	0x3f27b537	0.65510887
227	0xc09b3aaf	-4.8509135
228	0xc0a7e101	-5.2462163
229	0x3f57b2b2	0.8425704
230	0xbfa16197	-1.2607907
231	0x3f104dd5	0.5636876
232	0x3f921aff	1.1414489
233	0x40830c78	4.095272
234	0xbe41a94f	-0.18912242
235	0x3f8134cb	1.0094236
236	0x3e18444a	0.148698
237	0xbe2f506c	-0.17120522
238	0xbe2ab45e	-0.16670367
239	0x3e77a940	0.24185658
240	0x3f989a2d	1.1922051
241	0x3f359e72	0.70944893
242	0xc09b608a	-4.8555346
243	0xc0a3259e	-5.098342
244	0x3ed0e8a2	0.40802485
245	0xbf2d3438	-0.67657804
246	0x3f6b62d0	0.9194765
247	0x3fa0db9c	1.256702
248	0x4072f575	3.7962315
249	0xbd8b4316	-0.06799905
250	0x3f32d84a	0.6986128
251	0x3c82eb6b	0.015981397
252	0x3e57034e	0.20997354
253	0xbed93e6d	-0.4243044
254	0x3dc5fe2c	0.0966762
255	0xbea24c17	-0.31698677

bias f4 [128]
0	0x40155e03	2.333863
1	0x4020980c	2.5092802
2	0xc04580f3	-3.0859954
3	0x40345beb	2.8181102
4	0x400c464f	2.1917913
5	0x40268ca7	2.6023347
6	0xbf1afe23	-0.6054403
7	0x3e32b87c	0.17453188
8	0x401c8e52	2.4461865
9	0x3fb1701a	1.3862336
10	0xbfb93831	-1.4470273
11	0x40280e6e	2.6258807
12	0x4025b12c	2.5889387
13	0xc003833c	-2.054885
14	0x40232fae	2.5497851
15	0x40353978	2.8316326
16	0x4023920f	2.5557897
17	0xbea32ddf	-0.31870934
18	0xc012fb6d	-2.2965958
19	0x3f7775ae	0.9666394
20	0x3ea3ff9f	0.3203096
21	0x3b20fd00	0.0024564862
22	0x403a2549	2.9085257
23	0xbfe388ce	-1.7776124
24	0x40252ac2	2.5807347
25	0xbe332e9b	-0.17498247
26	0x3cb72e30	0.022360891
27	0x3e44d198	0.19220579
28	0xc0195201	-2.3956301
29	0xc00e2226	-2.2208343
30	0xbf75e861	-0.9605771
31	0x402d3cd2	2.7068372
32	0xc000f68c	-2.015048
33	0x4025e49e	2.5920787
34	0x402664eb	2.5999095
35	0xc01db5cc	-2.464221
36	0xc005805e	-2.08596
37	0x401e4130	2.4727287
38	0x3f938944	1.1526265
39	0x3fb48625	1.4103438
40	0x4024c3eb	2.574458
41	0x401b3d35	2.4256108
42	0x4016b634	2.3548708
43	0xbff01653	-1.8756813
44	0x401632f2	2.3468595
45	0x4020dd7a	2.5135179
46	0x3e036aae	0.12833664
47	0x40264143	2.5977333
48	0xbfe8c79b	-1.8185915
49	0x3f930622	1.1486247
50	0xbba66d80	-0.0050789714
51	0x402f0466	2.7346435
52	0x40199524	2.3997278
53	0xc000c9b8	-2.012312
54	0xc00f163b	-2.2357318
55	0xbf00edaf	-0.50362676
56	0x402158f6	2.5210547
57	0xbfe07b70	-1.753767
58	0x3fbfb616	1.4977443
59	0x401d0be6	2.4538512
60	0x4033e194	2.8106432
61	0xbfd7f6e0	-1.6872215
62	0x401712e3	2.3605278
63	0xc030f620	-2.7650223
64	0x40270495	2.6096547
65	0x401f6f23	2.4911582
66	0x3facf179	1.3511192
67	0x3dd33531	0.1031288
68	0x4026039f	2.593971
69	0x40312544	2.7678995
70	0x402ed26c	2.7315931
71	0x3f53086e	0.8243474
72	0x401e79f5	2.4761937
73	0x3f93ca80	1.1546173
74	0x4031b59e	2.77671
75	0x403fd990	2.997654
76	0xbe684884	-0.22683913
77	0xbfea5b59	-1.8309127
78	0xc01c6710	-2.4437904
79	0x40201b1f	2.5016553
80	0xbff18eff	-1.8871764
81	0x402d78b2	2.7104917
82	0x401c74c6	2.4446273
83	0xbff88771	-1.9416333
84	0xbfe60c1a	-1.7972443
85	0x40359d4d	2.8377259
86	0x402d7eb4	2.7108583
87	0xbfcbfd12	-1.5936606
88	0x40366615	2.8499806
89	0xbdd53883	-0.104111694
90	0x3f8ce9ab	1.100881
91	0xbf9dbdcb	-1.2323545
92	0x400477bf	2.0698087
93	0xc003a5ff	-2.0570066
94	0xbe072ac0	-0.13199902
95	0x4017d16d	2.3721573
96	0x402c5423	2.6926353
97	0xbf04fb2d	-0.51945764
98	0x401b18d7	2.423391
99	0x3ff96d38	1.9486456
100	0xbfe0f0a2	-1.7573435
101	0xbe8968fd	-0.26837912
102	0x4036d5a6	2.85679
103	0x40255945	2.5835736
104	0x40138999	2.3052733
105	0xbd3c9700	-0.046042442
106	0xbfa5d6b6	-1.295615
107	0xbfd522ce	-1.6651247
108	0xc0017a1c	-2.023078
109	0xbec6c82f	-0.38824603
110	0x4010c9ec	2.2623243
111	0x40333b92	2.800511
112	0xbedffba5	-0.43746677
113	0x3e53a4a6	0.20668277
114	0x3e7d1724	0.24715859
115	0xbea6172f	-0.32439563
116	0xbeda52b5	-0.42641225
117	0xc006549f	-2.0989149
118	0x40277510	2.61652
119	0x3f9304f4	1.1485887
120	0x3e22760e	0.15865347
121	0x4026f134	2.6084719
122	0xbfa1d058	-1.2641706
123	0xbfd96216	-1.6983058
124	0x403936e5	2.8939755
125	0xc0172fbb	-2.3622882
126	0xbd688173	-0.056764077
127	0x4032ba36	2.7926154

weight f4 [128, 128]
0	0xbca8f017	-0.020622296
1	0x3d597b71	0.05309624
2	0xbc637f83	-0.013885382
3	0xbd4926f9	-0.049109433
4	0x3d09b334	0.033618167
5	0xbc88640d	-0.01664927
6	0x3cc295b8	0.023753032
7	0xbcaed5b0	-0.021342129
8	0xbc370fb8	-0.011173181
9	0x3d81e3fc	0.06342313
10	0xbd5ca8ba	-0.053871848
11	0xbdaa295f	-0.08308672
12	0xbd7e456c	-0.062077925
13	0x3cc45498	0.023966119
14	0x3cd98a49	0.026555197
15	0xbd16b0fe	-0.036789887
16	0x3c8ddcd4	0.017317213
17	0x3cf6a804	0.030109413
18	0x3d925615	0.07145325
19	0x3d2c0cf6	0.042004548
20	0xbdbf29f0	-0.09334171
21	0xbd3410f7	-0.04396149
22	0x3d2c7f06	0.042113326
23	0xbc04b9c5	-0.0081009315
24	0x3cebec8a	0.028799314
25	0xbc21a8f0	-0.009866938
26	0x3d9801f9	0.07422251
27	0x3cf36fa4	0.02971632
28	0xbd6bd9ca	-0.057580747
29	0xbb414220	-0.0029488876
30	0x3d0a38cc	0.033745572
31	0xbd37b940	-0.044854403
32	0x3ad1c859	0.0016005143
33	0xbd68ac83	-0.056805145
34	0xbdcd8109	-0.10034377
35	0x3c60b290	0.013714448
36	0xbd8b81b5	-0.06811849
37	0xbc4620c1	-0.01209277
38	0x3cb45b87	0.0220163
39	0x3c8e31fc	0.017357819
40	0xbda1beaf	-0.07897698
41	0xbc0d8875	-0.008638491
42	0xbd4f5821	-0.050621156
43	0x3d2d4ed6	0.042311512
44	0xbd717fe4	-0.058959857
45	0xbd7b8afc	-0.061411843
46	0x3d85b56d	0.06528745
47	0xbc8a2095	-0.01686124
48	0x3d9173e7	0.07102185
49	0xbd1a4566	-0.03766384
50	0xbd227007	-0.03965762
51	0xbdaf22cf	-0.08551561
52	0x3d4f7828	0.0506517
53	0x3d79dc83	0.061001312
54	0x3b089ddc	0.0020846045
55	0x3c5c68a9	0.013452687
56	0xbda9d8e7	-0.08293324
57	0xbd96f686	-0.07371239
58	0xbd17b45e	-0.037037246
59	0xbdbe3ba8	-0.09288722
60	0xbc034775	-0.008012642
61	0xbd4a00f1	-0.049317304
62	0xbdb96c68	-0.0905388
63	0xbc267cbf	-0.010161578
64	0x3d1427c5	0.03617074
65	0xbddd4f22	-0.10806109
66	0x3d6988d2	0.057015248
67	0x3d920675	0.07130138
68	0xbd8faf3d	-0.07015846
69	0xbc372fc0	-0.011180818
70	0x3d4fd200	0.05073738
71	0xbd80111b	-0.062532626
72	0xbdb4c118	-0.08825892
73	0xbd355588	-0.044271022
74	0x3c542da1	0.012950332
75	0xbdc805e9	-0.09766752
76	0x3d4ed288	0.050493747
77	0x3d09d274	0.03364797
78	0xbd7c1732	-0.06154556
79	0x3c5301a1	0.012878806
80	0xbd116dd6	-0.03550514
81	0x3d6fa73a	0.05850909
82	0x3d720e13	0.059095453
83	0xbd566ca2	-0.052349694
84	0xbdd27b42	-0.10277416
85	0xbd8227f5	-0.063552774
86	0xbdd79262	-0.10525967
87	0xbdc64259	-0.096806236
88	0xbdbb7d50	-0.09154761
89	0xbdb22db8	-0.087001264
90	0xbd10a61e	-0.03531467
91	0xbc909fde	-0.017654356
92	0xbd89e085	-0.06732277
93	0xbda28137	-0.07934802
94	0x3bec5e9a	0.007213426
95	0x3ce3c69a	0.027804662
96	0xbdd5ad3a	-0.10433431
97	0xbd843d8d	-0.064570524
98	0xbbd3f882	-0.0064688334
99	0xbd542f32	-0.05180282
100	0xbd9ba2ed	-0.07599435
101	0xbd40badf	-0.047053214
102	0x3d2ad08e	0.0417028
103	0x3d1c69d5	0.038186867
104	0xbd3f8eb8	-0.046766967
105	0xbda5867a	-0.0808229
106	0x3d9139c5	0.07091097
107	0x3d8d03a4	0.0688546
108	0xbd3fbcd0	-0.046810925
109	0xbdbf58d0	-0.093431115
110	0xbd353ee0	-0.044249415
111	0xbd7e43dc	-0.062076434
112	0xba327100	-0.00068069994
113	0x3d907377	0.07053273
114	0x3d881b64	0.06645849
115	0x3d970e4b	0.07375773
116	0x3b2ec37e	0.0026666815
117	0xbba2def7	-0.004970427
118	0x3d6361d2	0.05551321
119	0x3d957f86	0.07299714
120	0x3c7cd0e0	0.015430659
121	0xbda91d67	-0.08257561
122	0xbc8786f5	-0.016543845
123	0x3cadbcfe	0.021208283
124	0xbdcd84f1	-0.10035122
125	0xbd0382d5	-0.032107193
126	0x3d752193	0.059846472
127	0xbbea483b	-0.007149724
128	0xbe0567aa	-0.13027826
129	0xbc68089e	-0.014162211
130	0x3f6fcb23	0.9366934
131	0xbf158320	-0.58403206
132	0xbfc98e96	-1.5746639
133	0xbe9d6e41	-0.3074818
134	0x3e0a7e88	0.1352483
135	0xbc9a60ec	-0.018845044
136	0xbed35838	-0.41278243
137	0xc005cb9a	-2.0905519
138	0x3e3dda18	0.18540227
139	0x3d2a804f	0.04162627
140	0xbd99df25	-0.075132646
141	0x3ea3c27f	0.31984326
142	0xbff062a8	-1.8780107
143	0xbdb79188	-0.08963305
144	0xbe8dfcd6	-0.2773196
145	0x3acdcb40	0.0015700832
146	0x3ea26ded	0.31724492
147	0xbf6244c4	-0.8838618
148	0x40082084	2.1269846
149	0x3b1ccfc0	0.002392754
150	0xbd2d25f1	-0.042272512
151	0x3e814480	0.25247574
152	0xbd692c1d	-0.056926835
153	0xbd94575a	-0.072432235
154	0x3d85ff37	0.06542819
155	0x3cda4e62	0.026648704
156	0x3f7aeaef	0.9801473
157	0x3e986aa9	0.29768875
158	0x403b9715	2.9310963
159	0xbef60e09	-0.48057583
160	0x3e4ae79e	0.19814917
161	0xbb02c997	-0.0019956583
162	0xbe7560d9	-0.23962726
163	0x3f897b7c	1.074081
164	0x3ded95ff	0.11600875
165	0xbe93d13a	-0.28870565
166	0xbd3502f7	-0.04419228
167	0xbf8568dd	-1.0422627
168	0x3cae8af6	0.021306496
169	0xc00524b0	-2.0803642
170	0xbdaaa7da	-0.083327964
171	0x3ef0c0f1	0.47022203
172	0xbe26f4ba	-0.16304293
173	0xbf60d82f	-0.8782987
174	0x3d693c72	0.05694241
175	0xbc943667	-0.018092347
176	0x3e0399f1	0.12851693
177	0x3cf830bf	0.030296681
178	0x3d7ea3a6	0.062167786
179	0xbdc2f39c	-0.09519121
180	0xbe85d236	-0.2613694
181	0x3eb512c6	0.35365885
182	0x3ea59e56	0.32347363
183	0x4022dcdf	2.544731
184	0xbfab1d48	-1.3368311
185	0x3e6d2f58	0.23162591
186	0x3d05740e	0.03258138
187	0xbe73546f	-0.23762678
188	0xbe9990bb	-0.29993233
189	0x3f1c194c	0.609761
190	0x3bf43e1e	0.007453694
191	0x3f83c941	1.0295793
192	0xbea9257b	-0.33036408
193	0xbd125355	-0.035724003
194	0xbf9014b1	-1.1256315
195	0x3e4a82a0	0.19776392
196	0xbdc55f6d	-0.09637342
197	0x3d943155	0.07235972
198	0xbe751647	-0.2393428
199	0xbe2fffc9	-0.17187418
200	0xbe6abdfd	-0.22924037
201	0x3d341b0a	0.0439711
202	0xbe8fb511	-0.2806783
203	0xbf3c4065	-0.7353576
204	0xbcca9f89	-0.024734275
205	0x3fd14c86	1.6351478
206	0x3f06ca39	0.5265232
207	0xbbe5b37b	-0.007009921
208	0x3e8edb79	0.2790182
209	0xbe43b13d	-0.1911058
210	0xbe1e0de7	-0.15434991
211	0x3df8d292	0.12149538
212	0x3ea34790	0.31890535
213	0xbe8c52f0	-0.27407026
214	0xbf5df50d	-0.8670204
215	0x3ec30630	0.38090658
216	0xbe17d2e0	-0.14826536
217	0x3f15519e	0.5832766
218	0xbf938f7a	-1.152816
219	0x40506f15	3.25678
220	0xbf956705	-1.1672064
221	0x3f079152	0.52956116
222	0x3f1ea98d	0.61977464
223	0xbe8fe432	-0.28103787
224	0xbe846626	-0.25859183
225	0x3dfa46f3	0.12220564
226	0xbd8f7199	-0.07004089
227	0xbeddaf55	-0.4329783
228	0x3e3eb555	0.1862386
229	0xbd821b75	-0.06352893
230	0xbc085ba1	-0.008322627
231	0xbdc175de	-0.094463095
232	0xbeeecbc4	-0.46639836
233	0xbda77fc3	-0.081786655
234	0x3da1461b	0.078747
235	0x3ea1ecee	0.31626076
236	0x3e276f6f	0.16351102
237	0x3fb59301	1.4185487
238	0xbfa6b1ce	-1.3023012
239	0xbd37e2d3	-0.04489405
240	0xbc4b4357	-0.012406192
241	0xbd94a8eb	-0.07258781
242	0x3ff47c4f	1.9100436
243	0x3c260536	0.010133078
244	0x3de9420e	0.11389552
245	0x3ebcd4a4	0.36880982
246	0xbe55f04e	-0.2089245
247	0x3db2e8cf	0.08735811
248	0xbc96e9f4	-0.018422104
249	0xbddf834a	-0.10913713
250	0x405887b2	3.3832822
251	0x3e535707	0.20638667
252	0xbe12381e	-0.1427922
253	0x3fd9ee4a	1.7025845
254	0x3f65d56e	0.8977879
255	0xbf376140	-0.71632767

bias f4 [128]
0	0xbd0763cd	-0.03305416
1	0xbfeb13ba	-1.8365395
2	0x40196b8c	2.3971891
3	0x3c2a4860	0.010393232
4	0x401e4789	2.4731162
5	0xbfc46e24	-1.5346112
6	0x3e2f8e9e	0.17144248
7	0x40222cc6	2.5339828
8	0x401d4707	2.4574602
9	0xbff5f5e3	-1.9215664
10	0xbfe8faf2	-1.8201582
11	0x3d9cd8c5	0.07658533
12	0xbd41e0fc	-0.047333702
13	0x401aab31	2.4166987
14	0xbd20a20a	-0.039217032
15	0x401483f8	2.3205547
16	0xbfd20f38	-1.6410894
17	0xbfd5d98d	-1.6707016
18	0x3cd5e961	0.02611226
19	0x3ff5e4cd	1.921045
20	0x401c12a3	2.4386375
21	0x4014131b	2.313666
22	0xc0098b8e	-2.1491427
23	0x4014f7c1	2.3276217
24	0x3d4ea538	0.050450534
25	0x401a1aff	2.4078977
26	0x3fd83578	1.6891317
27	0x40147d1a	2.3201356
28	0xbfe4cff3	-1.7875961
29	0x40144f97	2.3173578
30	0x3d1795e5	0.037008185
31	0x401e6d1e	2.47541
32	0x40158e8d	2.3368256
33	0xbfde03d6	-1.7344921
34	0x3ffdbbed	1.9822975
35	0x401f6f47	2.4911668
36	0x401c3a5b	2.4410617
37	0xbfd774a4	-1.6832471
38	0x3d5dfae2	0.05419434
39	0x401cf339	2.4523451
40	0x401be2aa	2.4357095
41	0xbd25349f	-0.040333387
42	0x3cfecb3c	0.03110277
43	0xbfb04b68	-1.3773012
44	0x3f87a694	1.0597711
45	0xbfdc4bc3	-1.7210621
46	0xbda0141f	-0.07816338
47	0x3da14ef6	0.07876389
48	0xbccb8090	-0.024841577
49	0x4016784b	2.351092
50	0x401cf5fe	2.4525142
51	0x40167e59	2.3514616
52	0x401fa591	2.4944804
53	0x3fbf0f39	1.492652
54	0x3b934f5d	0.004495545
55	0x3c889d48	0.01667656
56	0xbe88113d	-0.26575652
57	0xbdb42fc8	-0.08798176
58	0x40200866	2.5005126
59	0x401b1968	2.4234257
60	0xbd77566c	-0.060385153
61	0xbd98c826	-0.0746005
62	0xbfc73f48	-1.5566187
63	0x4024cdd2	2.5750623
64	0xbcb092c8	-0.021554366
65	0x4015115e	2.329185
66	0xbc23616f	-0.00997196
67	0xbd8140b5	-0.0631117
68	0x401a4de5	2.4110043
69	0xbff6c49b	-1.9278749
70	0x40191e23	2.3924644
71	0x3e385a0b	0.18003099
72	0x39d8cae1	0.00041349887
73	0x401cc50f	2.4495275
74	0x3f9fa5f8	1.2472525
75	0x401bf3d3	2.4367568
76	0x4022d519	2.5442564
77	0x3da90b6f	0.08254134
78	0xbf4dd324	-0.804003
79	0xbfe10530	-1.7579708
80	0x40165d4e	2.3494449
81	0x3b373000	0.0027952194
82	0x3d818a24	0.06325176
83	0x4003d5d7	2.0599267
84	0xbd18fc7e	-0.03735017
85	0x3fa0e5c1	1.2570115
86	0xbf3be3ad	-0.7339428
87	0xbea4c53e	-0.32181734
88	0x40206a48	2.506487
89	0xbcabc387	-0.020967258
90	0xbba4d937	-0.005030777
91	0xbe1331ae	-0.1437442
92	0x401fa632	2.4945188
93	0xbc564ef2	-0.0130803455
94	0xbff57fd8	-1.917964
95	0x3cc16440	0.023607373
96	0x401804ec	2.3753004
97	0xbc90fa7e	-0.017697569
98	0xbce5c7a8	-0.028049305
99	0xc00140a6	-2.0195708
100	0xbdb013ff	-0.08597564
101	0xbfe6cfc3	-1.8032154
102	0xbf51338a	-0.8171927
103	0xbf5e582b	-0.86853284
104	0xc000286a	-2.0024667
105	0x4020532e	2.505077
106	0x401a69a7	2.4126985
107	0x40227e09	2.5389426
108	0xbd922e4e	-0.07137738
109	0xbfc2636c	-1.5186591
110	0x4020f919	2.5152037
111	0xbfdf867f	-1.746292
112	0xbbf605b4	-0.007508004
113	0xbd810a05	-0.06300739
114	0x40215ca1	2.5212786
115	0xbfdea433	-1.739386
116	0x3cd45191	0.0259178
117	0x3cf017bb	0.02930819
118	0x401bb29d	2.4327767
119	0xbda139df	-0.07872366
120	0xbcfaeebc	-0.030631416
121	0x40189243	2.383927
122	0xc0020b57	-2.0319421
123	0x3d3d8d6f	0.04627746
124	0xbfcbf1a2	-1.5933115
125	0xbf0e4b08	-0.5558324
126	0x401ca8ee	2.4478106
127	0xbbe7e163	-0.0070764287

weight f4 [1, 128]
0	0x3d80cabd	0.06288669
1	0xbfeb4b0c	-1.8382277
2	0x3fbfef11	1.4994832
3	0xbd9b5792	-0.07585062
4	0x40035bf7	2.052488
5	0xc02cbfaa	-2.6991982
6	0x3c87286c	0.016498767
7	0x3fa4d98c	1.287889
8	0x3fa669b9	1.3001014
9	0xc005a893	-2.088414
10	0xbfdb9837	-1.7155827
11	0xbd68fdc2	-0.056882627
12	0x3da2ea79	0.07954878
13	0x3fc6ec56	1.5540874
14	0x3dad0c93	0.08449664
15	0x3faaa8a1	1.3332711
16	0xbe63ffa4	-0.22265488
17	0xc0067ec5	-2.1014874
18	0x3c2f1bc6	0.010687774
19	0x402eacc7	2.7292955
20	0x3f826ab9	1.0188819
21	0x3faa515e	1.3306081
22	0xbfb18a16	-1.3870265
23	0x3fb37637	1.4020451
24	0x3ba7784e	0.005110777
25	0x3fb87512	1.4410727
26	0x4051b63a	3.2767472
27	0x3fc50572	1.5392287
28	0xbfe1e82d	-1.764898
29	0x4025d41e	2.5910716
30	0xbc99da5d	-0.018780882
31	0x3f9efc12	1.2420676
32	0x3fab0a05	1.3362433
33	0xc01b3cff	-2.425598
34	0x403a33c7	2.9094102
35	0x3f9458ec	1.1589637
36	0x3f99c30a	1.2012646
37	0xc038e81e	-2.8891673
38	0xbd755844	-0.05989863
39	0x3f98979a	1.1921265
40	0x3fb806e7	1.4377106
41	0xbd0ed2ec	-0.03486912
42	0x3d85ba15	0.06529633
43	0xbfc7b0f2	-1.5600874
44	0x3fb065d5	1.3781077
45	0xc031ec22	-2.7800374
46	0x3cc8aea9	0.024497347
47	0x3d160e7d	0.03663491
48	0x3d9e5d35	0.077326216
49	0x3fabed41	1.3431779
50	0x3fb52e05	1.4154669
51	0x3fac55a2	1.3463633
52	0x3fa993b0	1.3248196
53	0x40251ced	2.5798905
54	0xbd2d576e	-0.042319708
55	0xbda98fb4	-0.08279362
56	0xbc7a4e93	-0.015277523
57	0xbceb7e62	-0.028746787
58	0x40006ccf	2.0066411
59	0x3faf2fb1	1.3686429
60	0xbd22bdef	-0.039731916
61	0x3d061d46	0.03274276
62	0xc0a104ad	-5.031821
63	0x3fb18fa2	1.3871958
64	0xbce8223b	-0.028336635
65	0x3fd494c9	1.6607906
66	0xbc56c039	-0.013107353
67	0x3c98a36e	0.018632617
68	0x3f9a7a59	1.2068588
69	0xbfef2b40	-1.8685074
70	0x3fbed696	1.4909236
71	0x3b932f02	0.0044916878
72	0xbd628bc2	-0.055309065
73	0x3f97f3c1	1.1871263
74	0x404f4701	3.2387087
75	0x40175780	2.3647156
76	0x3f992340	1.1963882
77	0x3d859961	0.06523395
78	0xc058b89c	-3.3862677
79	0xc05bce34	-3.4344606
80	0x3fb404a5	1.4063917
81	0x3d9821fb	0.07428356
82	0x3d89be24	0.067257196
83	0x40207345	2.5070355
84	0x3ba7abdf	0.005116924
85	0x40371f77	2.8612955
86	0xc02dbe86	-2.7147536
87	0xbf2364c3	-0.63825625
88	0x3fa617ea	1.2976048
89	0x3d6fc1cb	0.058534425
90	0xbd9e0a3d	-0.077167965
91	0xbd470350	-0.048587143
92	0x3fac3c1a	1.3455842
93	0xbc485a48	-0.012228556
94	0xbfe2fe9f	-1.7733954
95	0xbda059a6	-0.07829599
96	0x3fc46e5a	1.5346177
97	0xbd577af2	-0.052607484
98	0x3d1bb17a	0.03801105
99	0xbfc3ecf9	-1.5306693
100	0xbcc0e039	-0.023544418
101	0xbfcf401c	-1.619144
102	0xc00dd1b4	-2.2159243
103	0xbf7e5d62	-0.9936124
104	0xc00216d1	-2.0326426
105	0x3fba967f	1.4577178
106	0x3fbbd09c	1.4673038
107	0x3fa1e969	1.2649356
108	0x3d7a26bb	0.061072093
109	0xc04324ec	-3.0491285
110	0x3f92bda0	1.1464119
111	0xc03d85cc	-2.9612913
112	0x3d2becee	0.041974
113	0xbd8c9fa4	-0.068663865
114	0x3fb622de	1.4229391
115	0xc06225da	-3.5335603
116	0xbd9a2f85	-0.07528595
117	0x3c3003cf	0.010743096
118	0x3fc4fe3d	1.5390087
119	0xbcdbdc09	-0.02683832
120	0x3d1cbbdd	0.038265098
121	0x3f9040d0	1.1269779
122	0xbfba53ae	-1.4556787
123	0xbd55c701	-0.052191738
124	0xc01cb053	-2.448262
125	0xbe528242	-0.20557502
126	0x3fb0b8e8	1.3806429
127	0x3bd1a9e2	0.0063984254

weight f4 [4, 128]
0	0xbdae2997	-0.085040264
1	0xbd6bf3ba	-0.057605483
2	0xbd6f2c3b	-0.05839179
3	0x3dad3789	0.08457858
4	0x3c8a71e1	0.016900005
5	0x3e010786	0.12600526
6	0x3aef6bdb	0.0018266396
7	0xbdfc9ff8	-0.12335199
8	0xbdfd0853	-0.12355103
9	0xbd09bc0a	-0.033626594
10	0xbe08e06b	-0.13366859
11	0xbcab3a07	-0.020901693
12	0xbd3a9afc	-0.04555796
13	0xbda5dabd	-0.08098362
14	0x3d2cbf3a	0.042174555
15	0xbdd70bd3	-0.10500302
16	0x3e9e4a43	0.30916032
17	0xbe69bcb3	-0.2282589
18	0x3db768c8	0.08955532
19	0x3ca3c331	0.019990535
20	0x3d1086b1	0.0352847
21	0xbce0efd7	-0.027458115
22	0xbe87a289	-0.26491192
23	0xbdf00656	-0.117199585
24	0xbca5f65e	-0.020259079
25	0xbdacce65	-0.08437804
26	0xbe37bfef	-0.1794431
27	0xbd0b79d9	-0.03405175
28	0xbcd31388	-0.02576615
29	0x3c5e841c	0.013581302
30	0xbd0e0a25	-0.034677643
31	0xbd75dafd	-0.060023297
32	0x3d4fc7e1	0.05072773
33	0x3bfcbd7a	0.007713017
34	0xbd41261c	-0.047155485
35	0xbdc9910f	-0.09842121
36	0xbdcb17ce	-0.0991665
37	0x3ce0e69b	0.027453711
38	0x3c5db668	0.013532259
39	0x3d261c66	0.040554427
40	0xbdf73ebb	-0.12072512
41	0xbd9ce6d6	-0.07661216
42	0xbdacfeed	-0.08447061
43	0xbd8173bc	-0.06320903
44	0xbfdbd509	-1.7174388
45	0x3ec5e071	0.38647798
46	0xbc4accd8	-0.01237794
47	0xbd56aa59	-0.05240855
48	0xb732e000	-1.0661781e-05
49	0x3d88151a	0.0664465
50	0xbd1d3b42	-0.03838659
51	0x3d2f12bd	0.04274248
52	0xbd9684a3	-0.07349517
53	0x3df2c2e0	0.11853576
54	0x3d362a07	0.044473674
55	0xbcc14371	-0.023591729
56	0x3cf7f693	0.030268943
57	0x3ce8e652	0.028430138
58	0x3c8b513e	0.017006513
59	0x3b28a343	0.0025732077
60	0x3d4a890e	0.04944711
61	0xbd35efcf	-0.044418152
62	0x3fdac54c	1.709146
63	0xbcb73c8d	-0.02236774
64	0xbd3c2d17	-0.04594144
65	0xbd052ea4	-0.032515183
66	0xbc66987a	-0.014074439
67	0x3d123eb5	0.035704333
68	0x3ced9e38	0.029006109
69	0x3dab6108	0.083681166
70	0xbd861d96	-0.06548612
71	0xbd0cb9bf	-0.03435683
72	0xbda49927	-0.08037024
73	0xbde8f471	-0.113747485
74	0xbe1a1efa	-0.15050879
75	0xbd254260	-0.040346503
76	0xbbda8a47	-0.006669316
77	0x3c5b17b8	0.013372354
78	0x3f490e95	0.78537875
79	0x3e8047d4	0.250548
80	0xbb8a04b4	-0.0042119864
81	0xbba302d0	-0.0049747005
82	0xbd1d2ded	-0.038373876
83	0xbd838ae0	-0.06422973
84	0xbc8a535c	-0.016885452
85	0x3d853256	0.065037414
86	0x3e09a6cc	0.13442534
87	0xbedea014	-0.43481505
88	0xbdeba686	-0.11506371
89	0xbd45ec68	-0.048321158
90	0xbd8f116d	-0.069857456
91	0x3d747fdb	0.059692245
92	0xbde2dfe9	-0.11077864
93	0x3cd10122	0.025513235
94	0xbdb33b98	-0.08751601
95	0x3b5caa49	0.0033670834
96	0xbdd9d3ef	-0.10636126
97	0xbd91b085	-0.071137466
98	0x3d11c2bc	0.035586104
99	0xbe869981	-0.2628899
100	0xbc999310	-0.018746883
101	0xbea56566	-0.32303923
102	0x3dbdbdb4	0.092646986
103	0x3ecd4d09	0.40097836
104	0xbd13ccba	-0.036083914
105	0xbd6bab92	-0.05753667
106	0xbd934e0e	-0.07192622
107	0x3ba17dcc	0.0049283262
108	0x3c94670e	0.018115547
109	0x3def66a0	0.11689496
110	0x3c1a3502	0.009412052
111	0x3e58c76b	0.21169822
112	0x3d0861b5	0.033296306
113	0xbd8a4ead	-0.067532875
114	0xbce8f854	-0.028438725
115	0x3f5624a6	0.8364967
116	0xbd743414	-0.059619978
117	0xbd2ff4f6	-0.042958222
118	0xbddb8cb4	-0.10720196
119	0x3d36d83f	0.044639822
120	0x3cd8b5ca	0.026453871
121	0x3cedf86e	0.029049125
122	0xbe98e557	-0.29862472
123	0xbd9982de	-0.07495664
124	0x3eb1c165	0.3471786
125	0x3e923267	0.2855408
126	0xbd91ae83	-0.071133636
127	0xbd54a9da	-0.051919796
128	0xbd6587d2	-0.05603773
129	0xbe22c0ea	-0.15893903
130	0x3d461620	0.048360944
131	0x3ba3f1d0	0.0050031915
132	0xbd3d7a34	-0.04625912
133	0x3ee86f0d	0.45397225
134	0x3d54adc2	0.05192352
135	0x3cecc57c	0.028902762
136	0xbb474f3a	-0.0030412213
137	0xbdfe22ab	-0.12408956
138	0xbd52a86d	-0.051430155
139	0x3d1c7fb6	0.038207732
140	0xbda6641d	-0.08124564
141	0xbdaa4dae	-0.083155975
142	0xbd30dfe1	-0.043182258
143	0xbe014bd1	-0.12626578
144	0x3c46224a	0.012093136
145	0xbe73a361	-0.23792793
146	0xbd1f719e	-0.038926713
147	0x3e6b3512	0.22969463
148	0xbc1a102d	-0.009403271
149	0xbdae596c	-0.085131496
150	0xbe950775	-0.29107252
151	0xbd847956	-0.064684555
152	0x3b64b8ca	0.0034900182
153	0xbdaebba6	-0.08531885
154	0x3dae9cc8	0.085259974
155	0xbdcfa156	-0.10138194
156	0xbd1abc0d	-0.037776995
157	0x3db8b238	0.090183675
158	0x3c6c6413	0.014428156
159	0xbc84c9f3	-0.016209578
160	0xbdb04746	-0.08607344
161	0x3e4dbba7	0.20091115
162	0xbeea3d87	-0.45750067
163	0xbcf5d155	-0.030007044
164	0xbdb15f73	-0.086607836
165	0x3e97165d	0.2950925
166	0xbd41b590	-0.047292292
167	0xbb2593d5	-0.0025265117
168	0xbc8af33d	-0.016961688
169	0xbd1a3755	-0.037650425
170	0x3cd621ec	0.026139222
171	0xbd7e42de	-0.06207549
172	0xc01d9e42	-2.4627843
173	0x3e8b8b2d	0.2725462
174	0x3c200546	0.009766882
175	0xbd8e1384	-0.06937316
176	0x3c3b8ba0	0.011446863
177	0x3d5819a0	0.052758813
178	0xbdcbf406	-0.09958653
179	0xbc58329b	-0.013195659
180	0x3c5db36c	0.013531547
181	0x3c8c35a0	0.017115414
182	0x3c2fd4ef	0.01073192
183	0xbd9a0013	-0.075195454
184	0x3d09d7ed	0.03365319
185	0xbd1f719e	-0.038926713
186	0x3cadca9a	0.021214772
187	0xbda685d3	-0.08130994
188	0x3d012924	0.031533375
189	0x3b06e900	0.0020585656
190	0x3fc73ca3	1.556538
191	0xbda638d0	-0.08116305
192	0xbda0173e	-0.07816933
193	0xbe28490d	-0.16434117
194	0x3d0bbb84	0.034114376
195	0xbd34b880	-0.044121265
196	0xbdef5648	-0.11686379
197	0x3e3155ee	0.17317936
198	0xbc278edb	-0.0102269305
199	0x3dbb6f49	0.09152085
200	0x3d5a7f9a	0.053344347
201	0xbc660a7a	-0.014040584
202	0x3d5c0274	0.053713277
203	0x3d11b240	0.035570383
204	0xbd209f92	-0.039214678
205	0xbd45ebc5	-0.04832055
206	0xbe26cfd3	-0.16290216
207	0x3eaf5222	0.3424235
208	0xbdb4d87a	-0.08830352
209	0x3d89a78d	0.06721411
210	0x3c35a6c8	0.011087127
211	0x3e826caa	0.2547353
212	0x3db05cdf	0.08611464
213	0x3e95e8f5	0.29279295
214	0x3f1fb592	0.6238643
215	0xbf14d823	-0.581423
216	0xbdde8971	-0.108660586
217	0x3d96cf75	0.07363788
218	0x3cc63a88	0.024197832
219	0xbd0bab1d	-0.034098733
220	0xbdb65b1b	-0.08904096
221	0x3cdfed71	0.0273349
222	0xbd14adb6	-0.036298476
223	0xbabd1c27	-0.0014427946
224	0x3cabe50d	0.020983243
225	0xbd578db1	-0.05262536
226	0xbcae6e48	-0.02129282
227	0xbe988a78	-0.29793143
228	0x3aea6640	0.0017883256
229	0xbe8b553c	-0.27213466
230	0xbdea4cdc	-0.11440441
231	0x3f41086c	0.75403476
232	0xbdfb9c40	-0.12285662
233	0xbdef1a97	-0.116749935
234	0x3a829984	0.0009963964
235	0xbd99aadf	-0.07503294
236	0xb996998d	-0.00028724634
237	0x3e51c689	0.20485891
238	0xbcdf29cf	-0.027241616
239	0x3e959225	0.29213062
240	0x3d942ece	0.0723549
241	0x3dbd75ff	0.092510216
242	0xbd422fd0	-0.04740888
243	0x3f0b1b03	0.5433809
244	0x3daff4f6	0.085916445
245	0xbc689832	-0.014196442
246	0xbe0ea090	-0.13928437
247	0x3cfcffa4	0.030883618
248	0x3d33f52f	0.043934997
249	0xbdc8aeb1	-0.09798945
250	0xbe5207c5	-0.20510776
251	0xbd838784	-0.06422332
252	0x3efdc5e9	0.49565056
253	0x3e7676e4	0.2406879
254	0xbbf01869	-0.0073271287
255	0xbd7c69a4	-0.061624184

bias f4 [4]
0	0xbfb87d43	-1.4413227
1	0xbfafe9c7	-1.3743218
2	0x3db35b09	0.08757598
3	0x3f6dbf42	0.9286996
