explainability/stages/final_1/cache_agent/2/D3QN_q_eval.pth (torch, 238173 bytes, 21 tensors)

weight f4 [128, 15]
000000 c7 d7 94 40 50 c8 c8 3f 2b fe 67 40 59 ef ce 3f
       4.65134 1.568613 3.6248882 1.6166793
000010 c3 d3 f7 bf ac 9c 2d 40 1e 6e a4 3f e4 d3 60 3f
       -1.93615 2.7126875 1.2846105 0.8782332
000020 0e 39 d1 3e 84 ca 66 3e dd bd 34 bf 26 11 02 bf
       0.40863842 0.22538191 -0.7060221 -0.50807416
000030 b1 c1 07 bf a9 e5 66 3f 44 eb d2 bd 40 0d 22 c0
       -0.53029925 0.90194184 -0.102987796 -2.5320587
000040 d1 e7 c4 be 90 1e 34 c0 7d 6c ca c0 b8 87 57 3e
       -0.38458112 -2.8143654 -6.325743 0.21047866
000050 2f 27 ff 3e 28 5a 6b 3f 04 49 5b 3f 99 fd e7 3e
       0.49834582 0.9193444 0.8565829 0.45310667
000060 bc b1 60 be 53 e9 13 3f c6 30 ca bb 96 19 b8 3f
       -0.219428 0.577779 -0.006170365 1.4382808
000070 31 9b f3 be fb e9 91 3e 0a ef 46 40 ec 8a 43 3f
       -0.4757934 0.28498825 3.1083398 0.7638385
000080 33 c9 5f 40 a9 16 d2 40 6d 7a 0d bf e1 b8 f4 be
       3.4966552 6.565266 -0.5526493 -0.477973
000090 a9 18 ea be 90 2f 03 bf 96 ec 58 bf a0 20 70 3e
       -0.4572194 -0.5124445 -0.84736 0.23449945
0000a0 74 cb 67 bf f8 3d 3b bd cb 84 0b c0 1c ac 6d 3f
       -0.9054482 -0.045713395 -2.17998 0.92840743
0000b0 48 d0 3c 3e 1c 29 2c c0 83 2d 44 bf 6c b6 51 c0
       0.18438828 -2.690009 -0.76631945 -3.2767591
0000c0 27 33 c9 c0 03 ab 4f 3e ba 7a 46 3f b8 f8 27 3f
       -6.287494 0.2028008 0.77531016 0.6561389
0000d0 ab da 5f 3f 81 c3 25 3f 74 03 39 be b4 de 64 3f
       0.87443036 0.6475144 -0.18067724 0.8940232
0000e0 e7 03 e7 3c 18 65 e7 3f f1 96 70 be cb 48 d2 3d
       0.028200103 1.8077726 -0.2349508 0.102677904
0000f0 c9 9f 39 40 c8 5e 53 3f 82 f5 69 40 61 1a db 40
       2.9003775 0.825665 3.6556096 6.84697
000100 d4 fa 4f bf 2a d3 3b bf ea dc 3c bf 6a d9 17 bf
       -0.8124211 -0.73369086 -0.7377459 -0.5931612
000110 0a c2 a3 bf 00 9a 8e bb e0 35 6c bf 5e 47 08 bc
       -1.2793591 -0.0043518543 -0.92269707 -0.0083177965
000120 b5 d3 0d c0 d9 2a 3d 3f 9e ef 02 3e ca 7a 62 c0
       -2.2160466 0.73893505 0.12786719 -3.5387444
000130 2d 55 d0 be 68 56 4d c0 b0 af ee c0 53 31 24 3d
       -0.40689984 -3.2083988 -7.458946 0.0400861
000140 a5 66 04 3f ba 02 b5 3e 60 cf e8 3e 7d 53 a6 3e
       0.51719123 0.35353643 0.45470715 0.32485572
000150 10 3d c9 bc 6d 45 33 3f 2e f9 d2 3d df fd f5 3f
       -0.02456525 0.7002781 0.103014335 1.92181
000160 83 dc 13 bf dc 56 56 bc 79 a6 da 3f 8b ed 58 3f
       -0.5775835 -0.013082232 1.7082053 0.8473746
000170 2d 40 4f bd da 0d 19 3f 68 9a 54 3f 6e 21 77 bf
       -0.050598312 0.5978676 0.83048105 -0.96535385
000180 5d 5f e4 3e 5e 95 4e 3e a8 1a 97 bf f2 a9 28 be
       0.44604006 0.20174167 -1.180501 -0.16471079
000190 7c 7d 0e 3f 77 de 2b bd 03 80 83 be 4a 32 b1 be
       0.55660224 -0.041960206 -0.25683603 -0.3460868
0001a0 24 df 6d bd bb c7 21 c0 e7 a5 de be 7a 19 2b c0
       -0.05807413 -2.5278156 -0.43485948 -2.67343
0001b0 92 f5 c4 c0 af 0a 0b 3e 50 b9 da 3e b8 01 6f 3f
       -6.154977 0.13578294 0.42719507 0.93362
0001c0 23 f8 53 3f d8 5c 73 3f 40 63 0d 3d 6d bc 68 3f
       0.828005 0.95063543 0.03451848 0.90912515
0001d0 31 4f da 3c fc b9 a4 3f 59 94 07 bf 08 94 7f 3e
       0.02664909 1.2869258 -0.52960736 0.24958813
0001e0 30 aa 4f 40 c0 87 ed 3e 38 ae 4e 40 2b b0 cd 40
       3.2447624 0.46392632 3.2293835 6.427755
0001f0 be 3e 42 bf 20 14 41 bf 73 25 1d bf bb aa e2 be
       -0.75876987 -0.75421333 -0.6138527 -0.44270882
000200 c4 16 37 bf 80 d1 07 3d 5f 62 4b bf d7 98 3c bd
       -0.7151911 0.03315878 -0.7944698 -0.046044197
000210 a3 56 f3 bf 56 a8 70 3f fc 43 87 3e 57 c2 66 be
       -1.9010814 0.9400686 0.26419055 -0.22535072
000220 ac 3c 39 be 10 1b 8d 3c 08 94 ff 3d f0 72 2f 3d
       -0.1808955 0.017224818 0.124794066 0.042834222
000230 ee fd c6 bd cc 3f 3f be 20 16 45 bd f8 33 03 3d
       -0.09716402 -0.1867668 -0.048116803 0.032031983
000240 e8 7f a1 bd c8 83 f0 bc c2 b9 3c be 90 ac e1 3d
       -0.07885724 -0.029359713 -0.18430236 0.11019242
000250 80 9e 97 3b 3f be 09 be 04 fb 3b c0 1d be 09 bf
       0.004627049 -0.1345148 -2.9371958 -0.53805715
000260 19 41 3b c0 53 1d cd c0 37 54 24 bd 54 79 25 3f
       -2.9258482 -6.4098296 -0.040119376 0.6463826
000270 5c 52 0c 3f 78 02 25 3f 37 ff 13 3f e8 13 bd bc
       0.5481317 0.6445689 0.578113 -0.023080781
000280 5b d7 5e 3f e4 93 ce 3d 1b 6c dc 3f 5a 63 b3 be
       0.87047356 0.10086802 1.7220491 -0.35036737
000290 07 3c 17 3e 9f 3c 3f c0 f2 8f a7 be 4b d5 4c c0
       0.14768992 -2.988075 -0.3272701 -3.2005184
0002a0 e3 e6 d3 c0 71 ed 09 3e 5b f9 24 3f 33 ce 6c 3f
       -6.6219344 0.13469483 0.64442986 0.92502135
0002b0 ee 84 1d 3f 11 3c 58 3f 48 63 6b 3e 48 af 73 3f
       0.6153096 0.84466654 0.22987092 0.9518933
0002c0 4a 77 f4 3d aa 4b ef 3f 3a e8 1d be fc 6b 41 3d
       0.11936815 1.8694966 -0.15420619 0.047222123
0002d0 17 77 63 40 ef ec 0e 3e 6c 52 25 40 91 2a e4 40
       3.5541437 0.1395757 2.5831556 7.130196
0002e0 8a 64 48 3f 21 dd e9 3c 2b 1b 15 3f 79 f1 9c 3e
       0.7827841 0.028547825 0.5824458 0.3065298
0002f0 1c 6e f8 3f a4 fc 9c bd fe c8 01 3f fd 96 21 bd
       1.9408603 -0.07665375 0.50697315 -0.039450634
000300 e6 60 a0 be 93 e5 d2 bd ac 64 e8 ba 23 67 22 40
       -0.31323928 -0.10297694 -0.0017730198 2.537545
000310 49 7f 85 3f c1 8d f2 3f f0 94 2c 3f 38 b5 bc bf
       1.0429469 1.894951 0.6741476 -1.4742804
000320 bf a1 d6 3f fa ec d4 3e cd 9c c8 3e 74 58 93 3f
       1.6768111 0.4158705 0.3918213 1.1511369
000330 41 48 6a be b4 0d 6c 3e 25 0d 26 3e 09 c6 89 bf
       -0.22879125 0.23052102 0.16215952 -1.076356
000340 8c e1 ce 3f a4 69 95 be 39 d3 c3 bf 60 f1 43 3f
       1.6162581 -0.2918216 -1.5298835 0.76540184
000350 b6 d4 04 3f 7d 24 e7 3e 50 89 97 3f 63 b4 3d 3f
       0.5188707 0.45145026 1.183878 0.74103373
000360 34 61 01 3f c8 c2 64 3f 46 fb 00 bf 60 47 5c 3c
       0.50538945 0.8935971 -0.5038341 0.0134447515
000370 c0 21 28 be d5 00 56 c0 12 a8 83 3f 5e 64 25 3e
       -0.16419125 -3.3438008 1.0285666 0.16151568
000380 6e 02 86 bf 3c 04 35 c0 e7 ae 1c bf e1 45 54 c0
       -1.0469491 -2.8283834 -0.6120438 -3.316765
000390 77 6b d9 c0 bd c3 07 3f a6 ee 27 3f a7 68 1e 3f
       -6.7943683 0.5303305 0.65598524 0.61878437
0003a0 eb 25 72 3e 56 e0 15 3f 20 65 2a 3d ff e5 1b 3f
       0.23647277 0.58545434 0.041600347 0.6089782
0003b0 3a 05 56 3d 1d ff b7 3f 79 b4 46 bf d0 f6 f1 3d
       0.05225108 1.4374729 -0.7761913 0.11814654
0003c0 48 a7 6a 40 e8 1c dc 3e 78 7a 4c 40 77 ed d6 40
       3.66646 0.42990804 3.194975 6.7164874
0003d0 37 e3 03 be fc cf 71 3d e6 b9 9c 3e f8 9e 5f 3e
       -0.12879644 0.05903624 0.3061058 0.21837986
0003e0 3d 5a 25 3f d4 9b bd bd 9b 89 35 3e 37 9e d8 3d
       0.6459082 -0.092582375 0.17728274 0.10577052
0003f0 1e 77 90 bf c8 f1 4c 3e bd de 0b 3c 34 7a 4e 3e
       -1.1286352 0.20014107 0.008536992 0.20163804

bias f4 [128]
000000 c5 05 b9 3f 8d c9 08 40 ed 16 21 c0 5a 2e 0b 40
       1.4454886 2.1373017 -2.5170243 2.174704
000010 53 84 14 c0 22 54 02 40 37 d7 c5 3e 60 d9 1f 40
       -2.3205764 2.036385 0.38640758 2.4976425
000020 da 2b 11 c0 9a d5 98 bd 31 ee 1a 40 2b 3d 1d 40
       -2.2683015 -0.07462616 2.420788 2.4568584
000030 06 7f 66 bf 32 87 48 3f 12 61 2f 3f 33 3a 01 40
       -0.9003757 0.7833129 0.6850749 2.0191772
000040 dd fd 77 bf ef ce 02 be 7c c9 e1 bf d2 d1 08 40
       -0.9687174 -0.12774251 -1.7639613 2.1378064
000050 96 5b 29 40 70 34 ce bd f7 4f 87 bf fb 2f fe bf
       2.646215 -0.100685954 -1.0571278 -1.9858392
000060 57 58 23 40 c0 4c c3 3d 42 37 31 40 44 c9 9c 3f
       2.5522668 0.09536123 2.7689977 1.2248921
000070 b7 e3 3d bf 63 aa ca bf 20 78 22 40 ee 7a 08 40
       -0.7417559 -1.5833248 2.5385818 2.132503
000080 d2 b9 f9 3f fa ec 05 40 24 ea 17 40 76 b7 a8 bf
       1.9509833 2.092589 2.3736658 -1.3180988
000090 95 5b 7a 3f 27 17 83 3e ce 54 87 bf 18 6c 90 3f
       0.97795993 0.256036 -1.0572755 1.1282988
0000a0 0d b6 80 be 53 f2 37 3f 68 0b eb 3f 54 73 83 3f
       -0.25138894 0.7185413 1.8362856 1.026957
0000b0 49 27 84 3e 75 0f a2 bf 06 d4 12 c0 b5 ec 23 40
       0.25811222 -1.2660967 -2.294191 2.5613225
0000c0 f6 7e 09 40 23 71 fe bf 71 2c 0b 40 90 b0 0b 40
       2.148374 -1.9878277 2.1745875 2.1826515
0000d0 ae 5e 21 40 4a 6d d8 be 73 70 13 40 3f e7 9b 39
       2.5214038 -0.4227088 2.3037384 0.00029736196
0000e0 8f 3e 9d bf 37 b8 0a 40 07 ef 10 40 fb 3b 03 40
       -1.2284716 2.1674936 2.264589 2.050536
0000f0 14 cb 05 c0 0e 5e ef 3f 18 74 01 40 48 b8 0c 40
       -2.09052 1.8700578 2.0227108 2.1987476
000100 b7 ac 0e 40 dd c4 1f 40 9e a0 07 40 31 4b fd bf
       2.2292917 2.4963906 2.1191783 -1.9788572
000110 2a 24 83 bf b6 a4 06 c0 8d e8 ae 3f 72 7a 09 40
       -1.0245411 -2.1038032 1.3664719 2.1480985
000120 0a 81 31 40 05 20 0a 40 39 8a cf 3f 8e 5b 07 c0
       2.773501 2.1582043 1.6214057 -2.114963
000130 e4 69 ab 3f 07 1c cc bf f3 23 1a 40 b3 81 1a 40
       1.339169 -1.5946053 2.4084442 2.4141662
000140 15 cd 2c be 0b 95 1d 40 a6 bd 34 3e 5a a6 24 3f
       -0.16875108 2.4622219 0.1765047 0.6431633
000150 7f 74 0e c0 58 d5 c5 3e 3e 4d 18 40 e6 ad 62 bf
       -2.2258604 0.3863933 2.3797145 -0.885466
000160 75 a9 01 c0 d5 db 06 c0 90 aa 23 bd ad a9 2d 40
       -2.0259678 -2.1071675 -0.039957583 2.7134812
000170 5c 2c 04 40 7e 65 43 3f 6e 7b 1b 40 9c 2a 32 40
       2.0652075 0.7632674 2.4294086 2.7838507
000180 f0 c1 1c 40 ed 63 a5 bf 36 b1 32 40 e5 81 1f 40
       2.449337 -1.292112 2.792066 2.4923031
000190 65 18 4f 3f e0 9f 14 40 70 03 23 40 d0 e8 30 3d
       0.808966 2.322258 2.5470848 0.043190777
0001a0 97 c3 e9 bf 30 b4 34 bf 49 04 15 40 f7 14 f8 bf
       -1.8262814 -0.70587444 2.3283865 -1.9381398
0001b0 5e 7f e6 3f 8f d4 0a be 9f d9 af bf 91 50 2b 3d
       1.8007619 -0.13557647 -1.3738288 0.04182488
0001c0 e8 7a 0d 40 98 22 0a 40 f1 a2 00 40 24 e1 d8 3d
       2.2106266 2.1583614 2.0099452 0.10589817
0001d0 77 58 1f 40 f5 03 38 be 01 71 92 3f e7 13 06 40
       2.4897745 -0.1797026 1.1440736 2.0949647
0001e0 dd d6 fc bf 57 b4 75 3f af 80 d4 bf ca 3e 90 bf
       -1.9753071 0.959783 -1.6601771 -1.1269162
0001f0 42 41 28 40 7a 86 14 bf bf 4d 1a 40 66 7b 80 bf
       2.628983 -0.58017695 2.4109952 -1.0037658

weight f4 [128, 128]
000000 8a 30 c0 3d e6 5e 21 3e 7a 24 23 bf 4c 47 1c 3f
       0.09384258 0.15758857 -0.63727534 0.6104629
000010 87 fc aa bf 7b b2 01 40 9e dc c2 3f 59 9e 34 3e
       -1.3358315 2.0265186 1.5223577 0.1763853
000020 a8 4a ce be 28 81 9c bd 5d 36 c6 3e 35 bc 33 3f
       -0.40291333 -0.07641822 0.3871335 0.70209056
000030 52 fd 41 c0 1a b7 b6 3e 41 2d 3f bf d1 e8 e8 3e
       -3.0310864 0.3568657 -0.74678427 0.45490125
000040 11 1e 00 c0 80 aa a6 3b 19 9b 6f c0 4d 24 13 3e
       -2.001835 0.005086243 -3.7438414 0.14369316
000050 7e 26 82 3f 92 d8 a7 bd d1 c8 81 c0 9a 61 c8 be
       1.0167997 -0.081956044 -4.0557637 -0.39136964
000060 dc f3 40 3f 28 46 62 3c d3 41 1b 40 48 5d f5 3e
       0.753721 0.013810672 2.4258926 0.4792273
000070 ea b7 22 c0 dc 21 bc be a2 fa ca 3f dc 7f 97 3e
       -2.5424752 -0.36744583 1.5857737 0.29589736
000080 37 dc 84 3d 5b ae 8c 3e 5d e5 18 3e e1 76 76 c0
       0.06487315 0.27476773 0.14931245 -3.8510058
000090 80 ea c5 3f fe e4 11 3d 63 3e 8f c0 a5 a9 76 3f
       1.5462189 0.035618775 -4.4763656 0.96352607
0000a0 a4 7e 9e 3c 0b 1c a9 3e d2 80 0a 3f 2b ea 0b 3e
       0.019347496 0.33029208 0.54102814 0.13663547
0000b0 19 8e 8f 3d 25 84 2f c0 b5 fa 31 bf d3 e9 7a 3e
       0.07009525 -2.7424405 -0.69523174 0.2450326
0000c0 37 08 44 3e 79 d1 c6 be 53 be c3 3e a8 bf e8 3e
       0.19143759 -0.3883169 0.38231143 0.45458722
0000d0 97 d2 1f 40 d0 4d eb bd fd 57 64 3d 56 a7 ef 3e
       2.4972284 -0.11489451 0.055747975 0.46807355
0000e0 b5 04 62 c0 8e d2 2a 3f e5 59 8b 3e 99 58 9d 3e
       -3.5315373 0.6672753 0.27217022 0.30731657
0000f0 04 82 dc be 5b e6 20 3e a2 32 0f 3f 6d 76 57 3e
       -0.43067944 0.15712874 0.55936635 0.2104127
000100 13 41 00 bf ab fb 60 3e 0c 72 dc 3d e9 59 b1 bf
       -0.50099295 0.21971004 0.1076394 -1.3855563
000110 5d bf a7 be 40 63 ae bf 1c cf d2 3d e9 e3 80 3f
       -0.32763186 -1.3624039 0.10293409 1.0069553
000120 63 6b 24 40 85 30 30 3f 7b 86 3b 3f 98 61 6f bf
       2.5690544 0.68824035 0.73252076 -0.9350829
000130 bb 1d 89 3e bb 75 0d bf 98 cd 58 3f 90 3c 57 3e
       0.26780495 -0.5525777 0.8468871 0.21019197
000140 02 ba 59 3d 68 77 38 3f 63 c0 94 3d 64 d3 1f 3f
       0.053155906 0.720572 0.07263257 0.6243193
000150 0f e2 8f bf 25 49 9e 3c 6b 32 02 3e f2 36 44 c0
       -1.1240863 0.019321987 0.12714545 -3.0658536
000160 81 a3 65 bf ca 5f b1 be 9c f8 f8 3e e9 ae 21 40
       -0.8970261 -0.34643394 0.48627174 2.5263007
000170 70 cb 80 3e 34 79 e3 3e 03 70 a7 3e 42 8a 16 40
       0.2515521 0.44428408 0.32702646 2.3521886
000180 9f 56 18 40 92 12 8f c0 87 dc 19 40 8b 9e 6d 3e
       2.380287 -4.471017 2.404085 0.2320501
000190 28 2a 86 3e fd ae e0 3d 35 e7 31 40 c5 2d 81 bd
       0.26204038 0.10970876 2.7797368 -0.06307558
0001a0 c8 c4 83 be d5 76 e2 be 74 4b 53 3f c3 6b 41 bf
       -0.2573607 -0.44231287 0.8253701 -0.75555056
0001b0 0d 98 d8 bf 16 ae bf 3e 1d ac 24 c0 d9 31 37 c0
       -1.6921402 0.37437505 -2.573005 -2.8624175
0001c0 de 3b 0e 3e 3b 2f ad 3d d9 5d 82 3e 7a 87 09 bd
       0.13890025 0.08456274 0.25462225 -0.033576466
0001d0 90 5c a6 3e c2 26 e3 3e ae 79 1d 3f 93 c6 84 3e
       0.32492495 0.44365507 0.61513793 0.2593275
0001e0 04 99 93 bf b3 77 d4 3e 08 fb 23 c0 29 6e d8 be
       -1.1531072 0.41497573 -2.5621967 -0.42271546
0001f0 55 ad af 3f ef 44 ea be 34 99 48 3e 51 2b 40 c0
       1.3724772 -0.45755717 0.19589692 -3.0026438
000200 f1 da ac 3f 3c 48 73 3e 56 62 b4 be 91 17 0c 3f
       1.3504316 0.23758024 -0.35231274 0.5472346
000210 07 80 53 bf 2f bb 3f 3f 65 7a be 3f 61 9b 81 3e
       -0.8261723 0.74894994 1.4881102 0.25313857
000220 1d eb 11 be 99 20 87 bd d4 e3 90 3e 11 cc d9 3e
       -0.14249845 -0.065980144 0.2829882 0.42538503
000230 59 b3 38 c0 83 b8 de 3d ba 0d ea bf 57 d2 c0 3e
       -2.8859465 0.108750366 -1.8285439 0.37660477
000240 0e 19 71 bf 40 8f 95 3b bd 53 67 c0 34 89 5b 3e
       -0.94178855 0.004564196 -3.614486 0.21439058
000250 8c 95 85 3f a8 b8 02 3c 87 16 57 c0 41 ed 07 be
       1.0436263 0.007978596 -3.36075 -0.13274099
000260 f7 e0 4b 3f e2 cd b0 bd 6c 97 16 40 fa 8d d1 3f
       0.79640144 -0.08633019 2.352992 1.6371453
000270 79 25 1f c0 af f9 ab bd ea cd eb 3f 22 a8 81 3e
       -2.4866621 -0.08397233 1.8422215 0.25323588
000280 13 e5 66 3e 29 9a ba 3e 31 9b 12 3e 03 18 55 c0
       0.22548322 0.3644574 0.14317013 -3.3295906
000290 9e 31 24 40 5a 36 6b 3d 63 fe 82 c0 4c 96 1d 3f
       2.5655284 0.05742488 -4.093553 0.6155746
0002a0 79 aa 98 3d 8c 02 4c 3c fd 2c 5a 3e d7 76 20 3e
       0.0745439 0.012451779 0.21306224 0.15670334
0002b0 e8 1a 76 bd d0 89 21 c0 72 1b a6 be 13 a3 3d 3e
       -0.060084254 -2.5240364 -0.32442814 0.18519239
0002c0 76 2f ca 3f 23 12 54 be eb 17 99 3e f7 98 75 3e
       1.5795734 -0.20710044 0.2990106 0.23984133
0002d0 09 06 31 40 ad 79 68 be f9 52 6f 3e 7c fd da 3d
       2.7659934 -0.22702666 0.23371495 0.106928796
0002e0 e5 0c 65 c0 2d 50 3d 3f 63 53 8c 3e aa ef 9e 3e
       -3.578912 0.73950464 0.2740737 0.31042224
0002f0 b7 32 5f be d6 24 69 3e f6 c8 f1 3e 03 4a bf 3e
       -0.2179669 0.22767958 0.47223634 0.37361154
000300 02 e5 be 3f cf 99 b8 3e 24 1a 7d 3e 08 dd 47 bf
       1.4913638 0.36054847 0.24717003 -0.7807164
000310 b1 5d ed bd 31 13 35 bf ea 37 95 3f f5 04 ea 3e
       -0.11590136 -0.7073241 1.1657689 0.45706907
000320 ca 74 23 40 ee e0 71 3f c2 7e 4e 3f 17 39 f3 be
       2.5540032 0.9448384 0.8066217 -0.47504494
000330 74 33 47 3e 20 67 00 be 23 e8 6e 3f 4e e5 a8 3e
       0.19453222 -0.12539339 0.9332296 0.32987446
000340 aa 8a 27 3d 34 87 3b 3f 98 49 67 3c b7 2f 71 3e
       0.040903725 0.7325318 0.014116667 0.23553358
000350 0f a9 34 bf 0f 8d 75 be 24 71 a8 3e 88 f1 33 c0
       -0.7057046 -0.23979591 0.3289882 -2.811617
000360 ac 1c e5 be d3 17 40 be a2 81 46 3e 4d ec 18 40
       -0.44748437 -0.18759088 0.19385388 2.3894227
000370 6e 62 da 3d ab d0 dc 3d b0 0d db 3e a7 c4 13 40
       0.10663305 0.10781988 0.4278388 2.3088777
000380 ff c7 12 40 91 b8 86 c0 d6 b6 22 40 fb 91 9b 3e
       2.2934568 -4.21003 2.5424094 0.30384812
000390 40 20 52 bd 22 f4 76 3e 0f f3 2a 40 fd cc 08 bd
       -0.051300287 0.24116567 2.6710851 -0.033398617
0003a0 dc 78 04 be 00 71 cf bd 33 0f 62 3f 18 83 9e be
       -0.12936729 -0.10128975 0.8830444 -0.30959392
0003b0 06 85 9c 3f 83 db 27 3e 17 21 1c c0 82 52 f6 bf
       1.2228096 0.16392331 -2.4395196 -1.9243929
0003c0 c4 ae 87 3e 43 38 e2 3d f3 f8 bb 3e 85 cd 12 bd
       0.26500523 0.11045887 0.3671337 -0.03584053
0003d0 b7 96 ac 3e 16 45 df 3d 3b 97 9f 3f 3d c5 c6 3e
       0.33708736 0.10901849 1.2468027 0.38822356
0003e0 bb 56 78 bf 3c e8 a7 bc 8f fd 11 c0 80 11 c1 bd
       -0.9700734 -0.02049648 -2.281101 -0.09427166
0003f0 bc 08 aa 3f 5b 2a 01 be 6e 55 a6 3e b2 a0 af bf
       1.3283916 -0.12613814 0.32487053 -1.3720915

bias f4 [128]
000000 06 f7 0c 40 a7 f5 0c 40 85 f4 a3 bf 12 23 b5 bd
       2.202577 2.2024934 -1.2808996 -0.0884458
000010 12 91 a5 bf 7c 75 03 40 74 fc ce bc f7 49 f0 bc
       -1.2934897 2.0540457 -0.025266863 -0.029332144
000020 59 bc e0 3f 44 d2 04 40 58 27 55 bf ab 65 e1 3c
       1.7557479 2.0753336 -0.8326316 0.0275143
000030 c5 aa 16 bd 17 21 01 40 fd 41 79 bf 24 c6 0e 40
       -0.036783952 2.0176446 -0.97366315 2.2308435
000040 da 40 16 40 e3 8d 4a bd a0 28 c6 bf 99 d4 03 40
       2.3477082 -0.04945172 -1.5481148 2.059851
000050 d8 08 4b bf 56 29 3f be d4 7f 07 40 d7 7b c8 bd
       -0.7931037 -0.18668112 2.117177 -0.097892456
000060 e5 76 01 40 21 37 fb 3f 11 e7 8b 3d 8e 1b a8 bf
       2.0228817 1.9626199 0.06831182 -1.3133409
000070 9f 49 99 bf 3f 3a 0d 40 b6 0c 10 40 f9 27 72 bd
       -1.1975592 2.20668 2.2507758 -0.059120152
000080 76 2c 1c 3b 3b 73 fb 3f eb 2d bc bf a9 32 1f bc
       0.0023830212 1.964454 -1.4701513 -0.009716668
000090 a6 73 83 3e 27 d9 04 40 35 9b 3d 3d 5d 57 05 40
       0.2567417 2.075754 0.046290595 2.0834572
0000a0 2c 6c 5d 3d 7c fc d6 3c 62 f2 03 40 c2 46 e2 3f
       0.05405824 0.02624344 2.0616689 1.7677844
0000b0 ac 2a ae bf 04 93 00 40 77 69 05 40 27 2e 09 3d
       -1.3606772 2.0089731 2.084562 0.03349128
0000c0 3e 19 8a bd 31 8d 8b bf 32 9b 88 bd d0 15 8b 3c
       -0.06743096 -1.0902463 -0.06670226 0.016978174
0000d0 bb 0f 08 40 bd 0b 01 3c 3b 3f 92 bf 42 ca 04 40
       2.12596 0.007876334 -1.1425546 2.0748448
0000e0 20 99 92 bf 31 51 04 40 84 0a af 3c 67 df 28 3d
       -1.145298 2.0674555 0.021367319 0.041228678
0000f0 bf 8b 3e bf ea 63 8f bf 84 7c 18 bd 65 fe 00 40
       -0.74431986 -1.1202366 -0.037228122 2.015527
000100 e3 85 b1 3f a3 c0 b4 bf a6 83 e8 3f 32 0d 03 bd
       1.3868984 -1.4121288 1.8165176 -0.031995006
000110 ac ef d5 bd 6d b6 74 bf 97 4b 05 40 d7 e3 b8 bf
       -0.104461044 -0.9559086 2.0827386 -1.4444531
000120 b8 46 ff 3f d3 59 dd bd e3 b3 04 40 fe 88 6e bf
       1.9943457 -0.10808148 2.0734794 -0.93177783
000130 50 09 08 40 e7 20 a4 bd f5 cd 06 40 74 cd 06 40
       2.1255684 -0.08014088 2.1063206 2.1062899
000140 ff 7a a0 3f bc 25 21 40 8a e6 00 40 80 9d bf bb
       1.2537535 2.5179281 2.014071 -0.005847633
000150 92 94 61 bf e1 66 63 bd 40 1c a8 bf 9e a1 ff 3f
       -0.88117325 -0.055518035 -1.3133621 1.9971197
000160 1f 35 02 40 60 91 0d 40 f1 a9 85 3d c6 55 08 40
       2.0344923 2.211998 0.065265544 2.1302352
000170 78 50 61 bd da ba 01 40 88 51 07 40 e0 73 83 bd
       -0.05500838 2.0270295 2.1143513 -0.06418586
000180 f2 3f b1 bd bc c2 8f bf 1c c7 86 bd eb 98 9a bd
       -0.08654775 -1.1231303 -0.06580946 -0.07548698
000190 ad 7e 0e 40 f1 70 85 bd 4e 7d 88 bf bf 83 1b bd
       2.2264817 -0.065156825 -1.066324 -0.03796744
0001a0 83 a7 19 40 8f 0b 52 3c 96 56 80 bf 79 81 da bd
       2.400849 0.012820139 -1.0026424 -0.10669226
0001b0 88 24 33 3c fa aa 0c 40 7b 38 0d 40 dd 88 06 40
       0.010934003 2.1979356 2.2065723 2.1021035
0001c0 79 d7 b9 be 50 24 07 40 4e a4 06 40 63 0e 26 be
       -0.36297205 2.1115913 2.1037784 -0.16216426
0001d0 ce 9a 22 3d cc 2d fe 3f ff 88 ff 3f cd ab b0 bf
       0.039698415 1.9857726 1.9963683 -1.380243
0001e0 cc 2e 05 40 25 28 b0 bd f2 5d 00 40 e9 12 ae bc
       2.0809813 -0.08601407 2.005734 -0.021249251
0001f0 32 01 aa bf ce 3e 5b bd 01 61 0c 40 b4 e1 5c 3f
       -1.3281615 -0.053526692 2.1934206 0.86281896

weight f4 [1, 128]
000000 eb cd 59 40 14 e2 b4 3f ba 68 e7 bf 5f 02 0c 3d
       3.4031932 1.4131494 -1.8078835 0.03418195
000010 0e 4b 30 c0 23 3e f1 3f 3d 1b 49 bd 06 96 55 3d
       -2.754581 1.8847088 -0.049098242 0.052145027
000020 70 d2 35 3e 7b f1 d3 3f 31 6e 8b c0 3b d7 45 3c
       0.17756057 1.6558069 -4.357201 0.012075241
000030 35 36 c1 bb 51 f6 f4 3f a1 66 8d c0 4d d3 c6 3f
       -0.0058963546 1.913767 -4.418778 1.5533234
000040 9e 21 4c 40 28 19 6f 3c f2 96 c8 bf 24 10 c6 3f
       3.1895518 0.0145934 -1.5671065 1.5473676
000050 07 f2 96 c0 f5 9c 40 bd 15 b9 ba 3f a5 05 45 bd
       -4.7170444 -0.047024686 1.4587733 -0.048101086
000060 73 f5 d6 3f e9 82 c0 3f a4 44 bb bc e1 89 bb bf
       1.6793655 1.5039951 -0.022859879 -1.4651452
000070 db a3 16 c0 aa 2e 57 40 11 a9 48 40 f0 90 c1 bc
       -2.353751 3.3622231 3.135319 -0.023628682
000080 93 c6 7f bd 54 2e db 3f db fc 12 c0 a6 90 00 bd
       -0.062445235 1.7123513 -2.296683 -0.031387947
000090 a4 b1 1f bf 3f c4 f1 3f 3f a8 4d 3c 20 51 e0 3f
       -0.62380433 1.8888015 0.01255232 1.7524757
0000a0 ec 2d b9 bc 4a dc 58 bd 0c 2d d5 3f 73 94 e0 3f
       -0.022604905 -0.05294446 1.6654372 1.7545303
0000b0 c5 eb b4 bf 81 20 ae 3f bd 08 bf 3f d6 48 b4 bc
       -1.4134451 1.360367 1.4924542 -0.022007387
0000c0 ef 53 a3 bd 64 e5 bd be b4 b4 c7 bc 80 c7 a6 3c
       -0.079749934 -0.37089074 -0.024378158 0.0203588
0000d0 5e 1e fd 3f c4 40 28 bd a8 76 08 c0 14 8f d5 3f
       1.9774892 -0.04107739 -2.1322422 1.6684289
0000e0 9a 3b da bf 1b 82 ca 3f 1a eb 42 bc 74 5d a1 3d
       -1.7049439 1.5820955 -0.011896873 0.07879153
0000f0 ac 21 58 c0 3e 79 2f c0 9b 98 1a bd f0 6e d0 3f
       -3.3770552 -2.741775 -0.037743192 1.6283855
000100 10 b6 6c 40 33 46 e8 bf 94 c0 4f 40 7b d8 12 3c
       3.6986122 -1.8146423 3.246129 0.008962746
000110 ed e6 b8 3d a2 9c 98 c0 89 73 d5 3f 42 a2 0d c0
       0.090284206 -4.76912 1.6675884 -2.2130284
000120 57 56 e6 3f 12 82 90 bd a7 56 d6 3f 47 98 54 c0
       1.7995099 -0.07056059 1.6745194 -3.3217943
000130 f0 28 c3 3f d3 7d cc bb 91 e2 bb 3f 9e 28 e8 3f
       1.5246868 -0.0062405854 1.4678518 1.8137395
000140 01 ca a5 3e 2b bc 47 40 5a 8a bd 3f f0 26 d9 3b
       0.3238068 3.1208599 1.4807847 0.006626956
000150 e1 14 97 c0 9b 33 d8 3c d6 49 b3 bf 4f 9e dc 3f
       -4.7212987 0.026391795 -1.4006908 1.7235812
000160 dc ae c4 3f 02 2b a8 3f 3b 68 93 3d 57 46 bf 3f
       1.5365863 1.3138125 0.07197615 1.4943341
000170 77 2a 55 bd b6 55 c5 3f fe e7 e4 3f 41 66 39 bd
       -0.05204245 1.5416782 1.7883298 -0.045263533
000180 76 e9 95 bd 10 7e 1b c0 80 bf 55 bd 6b 40 69 bd
       -0.0731992 -2.4295692 -0.05218458 -0.0569462
000190 81 07 c7 3f c4 99 2e bd 40 db 01 c0 75 7e 88 bd
       1.5549165 -0.04262711 -2.029007 -0.06664745
0001a0 09 7f 4f 40 a9 99 5f bd 87 e0 63 c0 93 93 4b 3d
       3.2421286 -0.0545899 -3.560579 0.049701285
0001b0 d6 8b 00 bd 71 13 a7 3f 93 cf 78 40 5d f2 c2 3f
       -0.031383358 1.3052808 3.8876693 1.5230213
0001c0 81 99 26 c0 42 07 c4 3f 41 ae d0 3f 3c b7 57 bd
       -2.6031191 1.5314715 1.6303178 -0.05266498
0001d0 02 04 1b 3c 5a a2 d4 3f f7 ba e3 3f 48 43 e4 bf
       0.009461405 1.6612046 1.7791432 -1.7833033
0001e0 9f 83 ed 3f 9f 23 2d bd 84 44 b2 3f 65 e9 9c bd
       1.8555793 -0.0422703 1.3927159 -0.07661704
0001f0 af 8d df bf e7 78 59 bd 7b ad 0b 3f f1 40 4a 3f
       -1.7465113 -0.053093817 0.54561585 0.7900534

weight f4 [4, 128]
000000 33 92 93 3d f4 2c b0 bd dd fe 19 3e c1 24 77 bc
       0.0720562 -0.08602324 0.15038629 -0.015084446
000010 b2 fa b8 bc 56 ab 0a 3d 16 48 0e bd c8 07 37 3c
       -0.022580478 0.033854805 -0.034736715 0.011171289
000020 c6 58 19 3d 9d d2 88 3b 00 b3 db 3e 06 81 6a bd
       0.037438177 0.0041754977 0.42910004 -0.057251953
000030 4b 67 91 bd 1d 2e 3a bd 57 16 ee 3e 4b 18 20 3d
       -0.0709978 -0.045454133 0.4650142 0.039085668
000040 b3 ea 02 3d b9 16 8f bd 8f 0b a8 3d 85 85 da 3c
       0.031962108 -0.06986756 0.082053296 0.026674995
000050 b2 ed 02 3f 4b 48 8e bd 10 a0 47 bc 01 b8 38 bd
       0.51143944 -0.069473825 -0.012184158 -0.045097355
000060 d1 99 dd bb 54 03 70 3d 18 34 5e 3c a5 18 39 bb
       -0.006762721 0.058596924 0.013562225 -0.002824345
000070 c2 f1 38 bd 51 70 31 3d 82 21 9a 3d 4c 87 1a bb
       -0.045152433 0.043320004 0.07525922 -0.0023579178
000080 fb 64 38 3d a4 7e a1 bd 52 2c 14 3e a9 eb 2f bd
       0.045018177 -0.07885483 0.14470032 -0.042949352
000090 b7 c5 f0 bd 91 61 4c bd 0f 9f 8d 3c ec b3 96 bd
       -0.11756461 -0.049897734 0.01728776 -0.07358536
0000a0 29 7d 9d 3d 0b 6a 4f 3d 9e 26 e8 3c b5 35 f2 3e
       0.07689888 0.05063824 0.028338727 0.473066
0000b0 db 6a 9f bd d9 30 4a 3d 18 a9 9e 3b 04 31 61 3d
       -0.07784053 0.04936299 0.004841935 0.054978386
0000c0 17 3a 6c 3c 47 38 1d bc 82 1a 0d 3d 3f 90 a7 bd
       0.014418147 -0.009595937 0.034449108 -0.0818181
0000d0 35 36 84 bd 33 59 64 3c aa f1 43 be 92 10 0f 3d
       -0.06455652 0.013937282 -0.19135156 0.034927912
0000e0 23 d3 5b 3e 31 6a c2 bc e4 f7 c1 3c 99 49 69 3d
       0.21467261 -0.023732277 0.023677774 0.056954954
0000f0 de dc 21 bf 28 3f 8d 3e b7 0c 98 3d 04 26 8f bc
       -0.6322764 0.27587247 0.074243 -0.017474182
000100 38 b8 ad bf 0e a3 9e 3d dd de c3 bf 8a 46 10 3d
       -1.3571844 0.07745944 -1.5302387 0.03522352
000110 cb 00 7f 3d 12 6e 03 3f a0 51 25 bd ff 5e 02 3e
       0.062256616 0.5133983 -0.040361047 0.1273155
000120 f5 64 09 3d 92 35 05 ba 29 14 d3 3c 8f 5b 29 3e
       0.033543546 -0.000508153 0.025766449 0.16538833
000130 d5 19 29 bd 83 b3 2e bd 6c 35 3c 3d f3 78 d6 3c
       -0.0412844 -0.042651664 0.045949385 0.02618072
000140 77 ba df bf 5b c1 c1 3d 09 43 ab 3d 50 96 bf bc
       -1.747878 0.09460708 0.08362395 -0.023387104
000150 3e 33 90 3f f8 ca 45 bd c4 24 4d bd a5 5f 25 bd
       1.1265638 -0.04828927 -0.05008389 -0.040374417
000160 c5 b8 1f 3d 5a 7d f3 bb 9a f1 fa bc ee b8 7a 3c
       0.03899457 -0.0074307146 -0.030632783 0.01530288
000170 1f d6 8c bc ba 6f 94 3d 58 6e 31 bd 10 a6 4e bc
       -0.017191945 0.07247873 -0.043318123 -0.012612835
000180 71 a0 4b bd 1d 24 4b 3f da 73 6f 3d 88 bf 3e 3d
       -0.049713556 0.7935198 0.058460094 0.046569377
000190 6c 26 4e bc 67 b9 0d 3b 77 e7 b1 be f3 1d a4 3d
       -0.012582403 0.00216254 -0.34746906 0.08013525
0001a0 e8 74 81 3d 68 9e d2 b9 19 60 35 3f 85 ba 73 bd
       0.06321126 -0.00040172343 0.7084976 -0.05950405
0001b0 5a 37 2a 3d 07 d4 62 3d 73 93 9a bd 80 93 3a bd
       0.041556694 0.055377986 -0.07547655 -0.045550823
0001c0 4b b5 77 be 49 53 1a 3c 1f 9a a8 3d 65 d8 69 bc
       -0.24190252 0.009419271 0.08232521 -0.014272784
0001d0 aa ee 39 3c 8d 30 97 bd 1a ff 81 bd c9 4e 3d 3e
       0.011348406 -0.07382307 -0.06347485 0.18487085
0001e0 03 ec 35 bd 20 da 07 3d 86 35 3f bd 62 e4 9f bc
       -0.04441453 0.033167005 -0.046681903 -0.019518081
0001f0 1a b9 97 3d 24 25 8b 3d 41 1c a6 bf 5e 2f bf 3e
       0.07408352 0.067941934 -1.2977372 0.37340826
000200 00 e3 5a 3d 03 b2 00 3e 92 b7 6e 3e 30 9f c6 bc
       0.05343914 0.12567906 0.23312214 -0.024245828
000210 bf 01 8e 3e 8d 4f 88 bd 26 08 7f 3d 14 f2 69 3d
       0.27735707 -0.06655798 0.06226363 0.05711563
000220 ae 3c cc 3e 7d a2 2d 3c ed 1b 9b 3d fd 6e 3e bb
       0.39890045 0.010597822 0.07573686 -0.0029057853
000230 92 06 90 3d 71 a9 40 bd db 49 f2 3d b9 8e d1 3d
       0.07032503 -0.047036592 0.11830493 0.102323
000240 b3 d9 c8 3d dd 30 a6 bd 34 5c b6 3d 96 54 bf bd
       0.09807148 -0.08114789 0.08904305 -0.09342305
000250 5e c5 01 3f d8 e9 77 bd 8c 92 4f 3d e1 e6 e2 3c
       0.50691783 -0.060525745 0.050676867 0.027697982
000260 0f 21 68 3c 89 53 de 3c 97 4a 8f 3d dc b2 fa 3d
       0.014168038 0.027139442 0.06996649 0.12241146
000270 d3 dc 1a 3b 57 e0 ae 3d 67 30 a9 3d c8 7e 44 bc
       0.0023630157 0.08538883 0.08261185 -0.011993118
000280 46 15 db 3d f7 25 44 bd 6e 53 be 3d b3 3e 4a 3c
       0.10697417 -0.04788777 0.09293257 0.01234405
000290 08 ee 36 be 29 72 1d be b2 f9 61 bd 7f 9b 17 bd
       -0.17864239 -0.1537558 -0.05516977 -0.037013527
0002a0 1e f7 a1 3d 2a 9d 7f 3d fd f4 70 3d 68 50 fb 3e
       0.07908462 0.062405743 0.05882739 0.49084783
0002b0 1e a5 89 ba dc 86 51 bc ea 3c 5f 3d 6f 6c ca bd
       -0.0010501479 -0.012788501 0.05450145 -0.09883963
0002c0 73 99 89 bd 3f 39 c5 3d fc 2d c2 bc 80 37 9d ba
       -0.06718721 0.096300595 -0.023703568 -0.001199469
0002d0 bf 7b a1 bd 9f ab be bc 7d d0 8c bd 01 2b 7c 3d
       -0.07884931 -0.023275195 -0.068757035 0.06156445
0002e0 47 31 1a 3d 11 10 cb 3c cc 6a 2f bd 00 d0 2e 3d
       0.03764465 0.024787934 -0.04282646 0.042678833
0002f0 21 65 2b be 67 50 ce 3e 59 5c 17 bd 5b 5d 0f 3d
       -0.16737796 0.40295717 -0.036953304 0.03500114
000300 83 7a d4 bf 16 55 25 3e b0 17 e3 bf f2 52 37 3d
       -1.6599888 0.16145739 -1.7741604 0.044756837
000310 2e a7 6e 3d c2 87 41 3f 4d ca b2 bd 5e 29 da 3d
       0.058264904 0.75597775 -0.08729992 0.106524214
000320 3e cd 99 bd a7 d4 8e 3d 3f 9f 9c bd 65 e6 ed bd
       -0.0750985 0.06974154 -0.07647561 -0.1161621
000330 50 2e dd 3c 13 8f 08 bd 19 60 42 bd dc 06 72 3d
       0.026999623 -0.03333957 -0.047454927 0.059088573
000340 41 03 c5 bf d5 74 22 3e 27 c0 86 bd 34 5b 83 bd
       -1.5391618 0.1586488 -0.06579619 -0.0641388
000350 02 3c 9c 3f 50 12 4d 3d aa 6d 96 3d 19 b6 1f bc
       1.2205813 0.050066292 0.073451355 -0.009748005
000360 22 b7 41 bc a6 6a 28 3d 60 4e 0e 3c 61 2c 0b bd
       -0.011823447 0.041117333 0.008685678 -0.03397787
000370 db 18 95 bd e0 f1 02 bd a0 a5 d1 bd ee 3e 9c bd
       -0.072801314 -0.03196895 -0.102366686 -0.076291904
000380 22 ad 7d bd 1a 59 47 3f 02 64 80 bd 2c e7 96 3b
       -0.06193269 0.77870333 -0.06269075 0.0046051946
000390 cb cf c7 bd 10 d1 85 3d 91 3a 75 be 33 fb 9f 3c
       -0.0975643 0.06534016 -0.23948123 0.01952896
0003a0 9c b2 92 bc 20 30 ab 3d 8d ac 05 3f 3b 7f 1c bb
       -0.017907433 0.083587885 0.52216417 -0.0023879546
0003b0 98 c1 38 3d 97 c1 b3 3d ae 22 a7 bd 6b 78 a8 ba
       0.0451065 0.08777159 -0.081609115 -0.001285327
0003c0 a6 37 30 bf 82 05 37 3d 30 04 97 3d 1a d4 54 3d
       -0.6883491 0.044682987 0.073738456 0.05196009
0003d0 f7 db f6 bc c3 ae 0c 3d d5 af c2 bc ff 62 8d 3d
       -0.030134184 0.034346353 -0.023765484 0.06903648
0003e0 9f b8 a5 bc a6 c2 c3 3a f8 95 22 3d 87 43 ab bd
       -0.020229636 0.0014935329 0.039693803 -0.08362489
0003f0 db c3 da 3d ef ef 01 bd 72 79 a6 bf 0b 67 ca 3e
       0.10681888 -0.03172296 -1.3005812 0.3953174

bias f4 [4]
000000 ef 04 a1 bf 70 8a 5b bf f0 b4 bb 3f f0 5a a3 bf
       -1.2579631 -0.85758114 1.4664593 -1.2762127

exp_avg f4 [128, 15]
000000 dc 6e 2a 41 54 19 e2 43 30 ea a2 43 0e f9 ca 43
       10.652065 452.19788 325.8296 405.94574
000010 de ae b0 42 3f 37 ec 43 de 23 cd 43 6d cc 29 45
       88.34154 472.4316 410.2802 2716.7766
000020 2f 96 a9 42 00 00 00 00 14 36 8c 45 85 8e 16 44
       84.79333 0.0 4486.76 602.22687
000030 26 6e d2 43 a6 d6 3d 42 18 58 40 45 fb 63 c5 c2
       420.86053 47.459618 3077.5059 -98.695274
000040 7e 76 e7 c3 d4 f6 2c 43 19 d1 bd c3 4c 47 c1 bf
       -462.92572 172.96417 -379.63358 -1.5099883
000050 10 f3 f1 c1 80 31 9c c3 f3 43 37 c6 70 07 10 c2
       -30.243683 -312.38672 -11728.987 -36.007263
000060 00 00 00 00 bd 38 bc c5 29 d5 26 47 6a 77 b5 c4
       0.0 -6023.0923 42709.16 -1451.7317
000070 3b d3 47 43 aa 12 7a c8 b1 2f 4f 43 fa 1d cd 44
       199.82512 -256074.66 207.1863 1640.9368
000080 d3 26 95 c3 09 45 9d 44 24 39 57 42 10 28 76 41
       -298.3033 1258.1573 53.8058 15.384781
000090 50 8b 51 44 3e 6d d5 46 95 d6 14 43 00 00 00 00
       838.17676 27318.621 148.83821 0.0
0000a0 84 67 9b 46 64 38 f7 45 2d 89 0e 45 38 97 2b c4
       19891.758 7911.049 2280.5735 -686.3628
0000b0 1c f1 19 49 f4 b9 4e c3 99 e7 6d c4 24 6b cc 43
       630545.75 -206.72638 -951.6187 408.83704
0000c0 1f 2a 45 c4 da e0 fc c0 54 9b ff 42 69 ff 13 c4
       -788.65814 -7.9024477 127.803375 -591.9908
0000d0 9d 76 c1 c6 c6 ea 98 c2 00 00 00 00 c9 9f 45 c6
       -24763.307 -76.45854 0.0 -12647.946
0000e0 73 46 aa 47 54 92 3f c5 05 e8 dc 43 4e 5d 07 c9
       87180.9 -3065.1455 441.81265 -554452.9
0000f0 a5 6a e2 43 85 9f 27 45 0a 99 1d c4 74 e5 15 45
       452.83316 2681.97 -630.39124 2398.3408
000100 05 2e da 42 0b 42 ef c3 cf 3f 25 45 ff a6 6b 47
       109.08988 -478.51596 2643.988 60326.996
000110 34 f5 ae 43 00 00 00 00 36 e4 3b 47 eb ef fb c7
       349.91565 0.0 48100.21 -128991.836
000120 06 14 f3 45 fe f7 e4 c3 c6 68 ae 49 78 58 05 c4
       7778.503 -457.93744 1.4287608e+06 -533.3823
000130 cd f1 d8 c4 48 fb a8 44 1c 8b c2 c4 e6 d9 c3 c2
       -1735.5563 1351.8525 -1556.3472 -97.92558
000140 86 7d 34 44 3c 07 ec c4 8c 66 63 c7 92 ca 1c c3
       721.9613 -1888.2261 -58214.547 -156.79129
000150 00 00 00 00 fd e0 f4 c6 f9 5e 2d 48 e3 7e 00 c6
       0.0 -31344.494 177531.89 -8223.722
000160 0f 54 45 44 4e 32 8f c9 f4 e9 2f c2 3e 37 32 44
       789.3134 -1.1730658e+06 -43.97847 712.86316
000170 68 a3 61 44 b5 f9 8c 44 fc 30 d6 c2 25 5b 62 44
       902.5532 1127.8033 -107.09567 905.42413
000180 cf 80 82 44 3b e8 e5 45 5b 30 bc 43 00 00 00 00
       1044.0253 7357.029 376.37778 0.0
000190 69 0c 03 47 8f c2 5a 46 92 8a a1 42 d5 35 86 43
       33548.41 14000.64 80.770645 268.42056
0001a0 6d 70 89 47 05 a1 d1 c2 78 14 07 c4 88 68 2c 43
       70368.85 -104.81449 -540.3198 172.40833
0001b0 82 67 dd c3 ec 83 86 3f 18 f5 df c1 af be a4 c3
       -442.80865 1.0509009 -27.994675 -329.48972
0001c0 ec 7b 4b c6 8e d4 28 c2 00 00 00 00 1c 9a cf c5
       -13022.98 -42.207573 0.0 -6643.2637
0001d0 ba 15 2d 47 2a af c2 c4 89 d5 70 43 47 5c 84 c8
       44309.727 -1557.4739 240.83412 -271074.22
0001e0 ee c3 0a 43 98 60 09 44 0b f0 91 c3 02 aa d4 43
       138.76535 549.5093 -291.87534 425.3282
0001f0 e2 6e f5 41 f6 be 59 c3 3a bb a7 43 a7 71 70 46
       30.679142 -217.74594 335.4627 15388.413
000200 cc 41 47 42 00 00 00 00 5f 48 02 46 97 24 c4 c6
       49.814255 0.0 8338.093 -25106.295
000210 1d 31 eb 44 d8 46 5b c3 8e 05 bf 48 00 00 00 00
       1881.5348 -219.27673 391212.44 0.0
000220 00 00 00 00 00 00 00 00 00 00 00 00 00 00 00 00
       0.0 0.0 0.0 0.0
000230 00 00 00 00 00 00 00 00 00 00 00 00 00 00 00 00
       0.0 0.0 0.0 0.0
000240 00 00 00 00 00 00 00 00 00 00 00 00 00 00 00 00
       0.0 0.0 0.0 0.0
000250 00 00 00 00 00 00 00 00 45 d7 02 c3 3e 82 1a c4
       0.0 0.0 -130.8409 -618.03503
000260 c2 29 73 43 08 7d 00 c4 64 a1 a7 c0 78 7d 3d 42
       243.16312 -513.9536 -5.238451 47.372528
000270 98 bd cd c3 81 d8 76 c6 b6 9d 48 c2 00 00 00 00
       -411.4812 -15798.126 -50.154015 0.0
000280 48 01 01 c6 5a 23 40 47 2b a2 f5 c4 dd fc 87 43
       -8256.32 49187.35 -1965.0677 271.9755
000290 1b f0 ab c8 d4 c4 63 c3 c1 e2 76 c4 d6 69 ea 43
       -352128.84 -227.76886 -987.543 468.82684
0002a0 80 52 4f c4 32 b1 7c c1 3c 8c 3f 43 b2 3a 29 c4
       -829.28906 -15.793261 191.54779 -676.9171
0002b0 e5 9d d0 c6 22 90 a3 c2 00 00 00 00 78 da 59 c6
       -26702.947 -81.78151 0.0 -13942.617
0002c0 97 ba a5 47 d8 42 55 c5 99 61 db 43 84 8b 17 c9
       84853.18 -3412.1777 438.76248 -620728.25
0002d0 56 0d c6 44 17 89 a7 45 be be 7d c5 22 00 8c 45
       1584.4167 5361.136 -4059.9214 4480.0166
0002e0 02 1f 04 44 67 1d 18 c5 7c 7d 92 45 4b 1a 26 48
       528.4845 -2433.8376 4687.6855 170089.17
0002f0 ec 97 e1 43 00 00 00 00 a4 2e b2 47 b4 19 9b c7
       451.1869 0.0 91229.28 -79411.41
000300 ca 3b b9 46 0e 59 08 c5 a0 0e 8b 4a 35 af c1 40
       23709.895 -2181.566 4.556624e+06 6.0526376
000310 41 ff b4 43 17 95 32 43 48 eb 9d 43 6b ca 0a 42
       361.99417 178.58238 315.83813 34.697674
000320 0c b9 8b 43 15 a0 8c 43 49 3e 46 45 8f 6f 0e 42
       279.44568 281.25064 3171.8928 35.608944
000330 00 00 00 00 f8 f9 95 45 5c 4d 98 47 fc 7c ba 42
       0.0 4799.246 77978.72 93.24411
000340 97 4f b2 c2 d4 f1 0c 47 82 c8 30 c1 44 27 a2 c2
       -89.15545 36081.83 -11.048952 -81.07669
000350 4f 52 90 c2 ff 70 86 c2 0e 72 01 c3 44 27 a2 c2
       -72.16076 -67.220695 -129.44553 -81.07669
000360 44 27 a2 c2 a4 3e 5f c4 c0 ed 05 c0 00 00 00 00
       -81.07669 -892.97876 -2.092636 0.0
000370 8e 96 1f c3 9c ae 0e be 98 b1 8a c3 9f 9e 43 c3
       -159.5881 -0.13933796 -277.38745 -195.61961
000380 ca 06 95 41 46 98 2b c3 2c 0f 30 c4 b6 57 af 43
       18.628315 -171.59482 -704.23706 350.68524
000390 20 fa 12 c4 d9 79 b7 c1 c4 23 cb 42 e4 bd 0a c4
       -587.9082 -22.934496 101.569855 -554.96704
0003a0 be ca 97 c6 6c d8 69 c2 00 00 00 00 1b a8 22 c6
       -19429.371 -58.46135 0.0 -10410.026
0003b0 d4 e7 6b 47 f3 7a 1f c5 1e 30 8c 43 57 7c e4 c8
       60391.83 -2551.6843 280.37592 -467938.72
0003c0 10 75 49 44 9d 59 06 45 5c 69 fd c4 d3 9a e9 44
       805.8291 2149.6008 -2027.2925 1868.8383
0003d0 8c f3 3a 43 03 af 9e c4 99 de 22 45 f1 ea 9d 47
       186.95135 -1269.4691 2605.9124 80853.88
0003e0 a4 89 42 43 00 00 00 00 dc 5f 30 47 e1 33 71 c8
       194.53766 0.0 45151.86 -246991.52
0003f0 ea cf 3c 46 b4 01 16 c4 c7 f3 0d 4a 00 00 00 00
       12083.979 -600.0266 2.3257458e+06 0.0

exp_avg_sq f4 [128, 15]
000000 8e 91 8a 46 13 72 f0 4a d4 a8 67 4a 25 ef e0 4a
       17736.777 7.8789215e+06 3.795509e+06 7.3706425e+06
000010 7d f2 05 49 24 4f f0 4a 86 73 f1 4a 77 ef 4f 4e
       548647.8 7.87445e+06 7.911875e+06 8.721443e+08
000020 cf 49 fa 47 00 00 00 00 7e 65 59 4e 0a 73 90 4d
       128147.62 0.0 9.118268e+08 3.029323e+08
000030 dc a2 34 4b 25 6b d4 46 16 da ce 50 91 5b b2 48
       1.1838172e+07 27189.572 2.7763192e+10 365276.53
000040 28 0b ac 4b f0 be bd 49 86 83 39 4b 3c 23 48 47
       2.2550096e+07 1.554398e+06 1.215783e+07 51235.234
000050 66 38 20 4b 52 d6 49 4c bf 28 d8 4f 7a 5c 58 48
       1.0500198e+07 5.291041e+07 7.253098e+09 221553.9
000060 00 00 00 00 45 23 13 50 c3 e1 b3 52 07 93 e5 4c
       0.0 9.874249e+09 3.862934e+11 1.20363064e+08
000070 3e 8a 8b 4a b6 0c d9 54 37 93 f2 49 7d 64 e9 4c
       4.572447e+06 7.457769e+12 1.9871749e+06 1.22364904e+08
000080 18 2a c7 4a d7 b2 62 4c 34 72 a4 47 f9 0c 4d 4c
       6.52622e+06 5.9427676e+07 84196.41 5.3752804e+07
000090 23 8a 80 4d 58 4a 08 51 c0 f0 85 49 00 00 00 00
       2.6956707e+08 3.6585177e+10 1.09724e+06 0.0
0000a0 79 39 3b 51 ae 51 e5 52 22 c0 fe 4d 94 28 ab 4b
       5.0257695e+10 4.9245893e+11 5.3425056e+08 2.2434088e+07
0000b0 9f bb 1c 56 1e 09 d9 49 0f d2 ca 4c b9 a2 db 4a
       4.308241e+13 1.7779558e+06 1.06336376e+08 7.1970205e+06
0000c0 2d f8 56 4c 00 5b 51 48 31 52 3e 4c 13 9f 6e 4d
       5.6352948e+07 214380.0 4.9891524e+07 2.5021266e+08
0000d0 16 f1 ff 50 a8 77 7e 49 00 00 00 00 f1 ad 2e 51
       3.435192e+10 1.0422985e+06 0.0 4.689016e+10
0000e0 44 ea be 53 b8 02 05 4e 68 47 a6 4b 92 a9 05 56
       1.6399482e+12 5.57887e+08 2.1794512e+07 3.6740836e+13
0000f0 9b da 02 4b 41 1d e9 4d e9 9b bd 4b ae 2a 58 4d
       8.575643e+06 4.8887606e+08 2.4852434e+07 2.2666723e+08
000100 ab 14 d1 48 4a c2 50 4d 51 8c 80 4e e6 65 09 52
       428197.34 2.1889962e+08 1.0783397e+09 1.4753002e+11
000110 de 58 81 4a 00 00 00 00 e6 92 3b 52 7f f8 a6 54
       4.238447e+06 0.0 2.0140586e+11 5.737069e+12
000120 0f d2 f4 4e b0 ec bc 4c 77 f5 2c 57 73 60 31 4b
       2.0537036e+09 9.905088e+07 1.9017026e+14 1.1624563e+07
000130 aa 6d 52 4e d3 07 59 4c 8d 1c de 4d 1f 89 93 49
       8.826006e+08 5.689326e+07 4.6580163e+08 1.2086119e+06
000140 c6 10 b3 4d 48 ab d9 4e 8d ae 5f 52 b6 53 f6 4a
       3.755276e+08 1.8259405e+09 2.4017655e+11 8.071643e+06
000150 00 00 00 00 19 39 9a 52 37 2c c1 54 d4 c1 5c 4f
       0.0 3.3119145e+11 6.637364e+12 3.7036902e+09
000160 0c 8b 03 4d c6 56 62 57 2d 36 d3 48 53 27 3a 4d
       1.37933e+08 2.4886232e+14 432561.4 1.9519621e+08
000170 06 5c cf 4b 24 76 ff 4c 77 7f d1 49 ff b7 b2 4c
       2.717902e+07 1.3393539e+08 1.7162069e+06 9.370009e+07
000180 77 b5 7a 4d 22 6f db 50 26 4c 0d 4a 00 00 00 00
       2.6288728e+08 2.9451948e+10 2.3150175e+06 0.0
000190 a9 a8 29 51 9e ac 79 51 68 88 19 4e cf 52 5f 4b
       4.5542445e+10 6.702143e+10 6.439634e+08 1.4635727e+07
0001a0 c7 4f 6d 54 17 58 d4 48 2b bb bb 4b ee 4e d1 49
       4.0769828e+12 434880.72 2.4606294e+07 1.7146538e+06
0001b0 da 6d 49 4b 70 25 72 47 cc 80 35 4b c7 ae 66 4c
       1.3200858e+07 61989.438 1.1894988e+07 6.0472092e+07
0001c0 72 04 fb 4f 78 0b 72 48 00 00 00 00 1d 73 2a 50
       8.422745e+09 247853.88 0.0 1.1438683e+10
0001d0 a1 ee d3 52 6c 41 06 4d f1 2f a7 4a 34 04 ff 54
       4.551208e+11 1.4077715e+08 5.4783925e+06 8.7622974e+12
0001e0 fb 05 4d 49 59 71 4d 4c 29 ab 43 4a 27 32 d1 4b
       839775.7 5.3855588e+07 3.2058342e+06 2.7419726e+07
0001f0 da 80 0c 47 f3 13 b7 4b ad 37 e3 4c aa af 6e 50
       35968.85 2.399639e+07 1.191274e+08 1.6017959e+10
000200 e6 7f f3 48 00 00 00 00 5c 46 a4 50 8a e7 92 52
       498687.2 0.0 2.2048596e+10 3.154749e+11
000210 a2 6f 69 4d a1 bd 16 4b 47 95 83 55 00 00 00 00
       2.4477546e+08 9.878945e+06 1.8084646e+13 0.0
000220 00 00 00 00 00 00 00 00 00 00 00 00 00 00 00 00
       0.0 0.0 0.0 0.0
000230 00 00 00 00 00 00 00 00 00 00 00 00 00 00 00 00
       0.0 0.0 0.0 0.0
000240 00 00 00 00 00 00 00 00 00 00 00 00 00 00 00 00
       0.0 0.0 0.0 0.0
000250 00 00 00 00 00 00 00 00 1f 4b 27 49 34 53 1e 4c
       0.0 0.0 685233.94 4.150395e+07
000260 4f 90 29 4a 6b db a7 4b 57 88 9c 47 9d 50 93 4b
       2.7781318e+06 2.2001366e+07 80144.68 1.9308858e+07
000270 1b 54 b9 4c 01 ae 46 50 b7 f6 c5 48 00 00 00 00
       9.716553e+07 1.3333169e+10 405429.72 0.0
000280 58 8f 87 50 c7 a7 0a 53 91 69 4e 4d fa 14 00 4b
       1.8194547e+10 5.955203e+11 2.1643906e+08 8.393978e+06
000290 2d 72 4d 55 0c b3 01 4a 5b 34 00 4d 0e 55 07 4b
       1.4118142e+13 2.124995e+06 1.3443218e+08 8.869134e+06
0002a0 63 46 87 4c ec af 64 48 a1 ae 69 4c 7d b8 91 4d
       7.092303e+07 234175.69 6.1258372e+07 3.0559837e+08
0002b0 da 92 1a 51 a5 75 9d 49 00 00 00 00 ea 9a 53 51
       4.1493045e+10 1.2899086e+06 0.0 5.680232e+10
0002c0 6a 82 c2 53 1b 16 1e 4e 6a f1 c3 4b a0 c6 21 56
       1.6708233e+12 6.630622e+08 2.5682644e+07 4.4468615e+13
0002d0 7b 6d bb 4c 63 42 d4 4f ec e7 d7 4d c2 e4 5d 4f
       9.826607e+07 7.122241e+09 4.527876e+08 3.7227566e+09
0002e0 92 79 db 4a ca 04 36 4f 5c a9 5e 50 42 26 e5 53
       7.191753e+06 3.0537672e+09 1.4942564e+10 1.9683787e+12
0002f0 75 1d 7b 4c 00 00 00 00 33 5e 1e 54 9f 82 5e 55
       6.5828308e+07 0.0 2.720741e+12 1.5290787e+13
000300 de 54 e2 50 bc 4e 87 4e 1e 25 f0 58 fe 03 a8 45
       3.0377701e+10 1.135042e+09 2.1123377e+15 5376.499
000310 c4 24 d0 49 5c 7d 64 49 3f 6d dc 49 36 5d fc 47
       1.7051125e+06 935893.75 1.8057359e+06 129210.42
000320 2d 36 d5 49 9b f0 0c 4a 80 f4 6c 4d 9e b9 e2 46
       1.7466296e+06 2.3091588e+06 2.484654e+08 29020.809
000330 00 00 00 00 ba 65 8a 4d be 4a 25 52 0a 27 eb 4a
       0.0 2.9024032e+08 1.774809e+11 7.705477e+06
000340 47 b6 99 48 fd a1 a9 50 41 8a c7 46 e1 97 b8 49
       314802.22 2.2767725e+10 25541.127 1.5121881e+06
000350 85 d3 b2 49 11 c9 a4 49 55 19 6b 49 07 98 b8 49
       1.4649446e+06 1.3499221e+06 962965.3 1.5121929e+06
000360 e1 97 b8 49 48 a5 05 4d fa 53 d3 44 00 00 00 00
       1.5121881e+06 1.401376e+08 1690.6243 0.0
000370 6e b4 37 4b fe 3f 68 3f d4 3f c1 4a a5 8c 16 48
       1.2039278e+07 0.90722644 6.332394e+06 154162.58
000380 7a 93 25 47 02 fd 83 49 36 0b 8c 4c 97 6a 90 4a
       42387.477 1.0812482e+06 7.342328e+07 4.7322355e+06
000390 0b 3c 14 4c ed 71 d9 47 65 c1 f6 4b ed ef 19 4d
       3.8858796e+07 111331.85 3.234273e+07 1.6141486e+08
0003a0 77 4e a1 50 3d e1 28 49 00 00 00 00 0e 57 dd 50
       2.1650192e+10 691731.8 0.0 2.970776e+10
0003b0 ea 02 47 53 11 4d a4 4d 31 bd 45 4b c7 f4 a5 55
       8.547474e+11 3.4456426e+08 1.2959025e+07 2.2808841e+13
0003c0 4f 34 a8 4b be 7a db 4e 5a 92 dd 4c b7 c8 67 4e
       2.2046878e+07 1.8411272e+09 1.1616738e+08 9.7217274e+08
0003d0 9d 8d f3 49 9e 08 33 4e 4c 54 56 4f 8c 15 d7 52
       1.9951876e+06 7.509216e+08 3.5958487e+09 4.6188973e+11
0003e0 d8 54 78 4b 00 00 00 00 47 ec 14 53 03 41 3e 55
       1.6274648e+07 0.0 6.3961924e+11 1.3074152e+13
0003f0 7d d7 cf 4f bb 97 71 4d ab c7 dd 57 00 00 00 00
       6.974012e+09 2.533283e+08 4.8769927e+14 0.0

exp_avg f4 [128]
000000 df 23 cd 43 fc 77 82 c4 b5 f1 14 45 c0 14 08 c5
       410.28024 -1043.7495 2383.1067 -2177.2969
000010 80 cf ae 45 42 00 a6 c5 02 ed 76 44 58 dc 8e c4
       5593.9375 -5312.032 987.70325 -1142.8857
000020 0c c0 a8 44 00 00 00 00 55 37 ae c4 e4 d1 13 c5
       1350.0015 0.0 -1393.7291 -2365.1182
000030 a5 a8 71 46 54 82 8b 43 44 27 a2 c2 65 59 da c4
       15466.161 279.0182 -81.07669 -1746.7936
000040 27 a7 e9 45 00 00 00 00 53 2b 52 46 52 a7 52 c4
       7476.894 0.0 13450.831 -842.6144
000050 8b 11 a8 c5 00 00 00 00 a4 3d b7 46 79 9c 88 44
       -5378.193 0.0 23454.82 1092.8898
000060 1b 4e 80 c5 00 00 00 00 d7 1e 24 c6 b3 92 b0 44
       -4105.763 0.0 -10503.71 1412.5844
000070 43 f6 2c 46 6e 38 96 44 f0 51 16 c6 75 d6 87 c4
       11069.565 1201.7634 -9620.484 -1086.7018
000080 c9 ca 2c c4 5a 9a e4 c4 5d 43 47 c4 75 4b 80 46
       -691.1685 -1828.8235 -797.05255 16421.729
000090 96 d1 e9 44 00 00 00 00 6c d5 e1 46 2c 8f 1c c4
       1870.5496 0.0 28906.71 -626.23706
0000a0 00 00 00 00 5b f1 38 43 f8 77 e0 c4 43 e6 6d 43
       0.0 184.9428 -1795.749 237.89946
0000b0 00 00 00 00 c0 11 55 46 f0 6c 05 45 47 f1 57 c4
       0.0 13636.4375 2134.8086 -863.76996
0000c0 9a e2 0f 44 f6 e6 99 44 5c c7 b6 c4 35 47 b2 c4
       575.54065 1231.2175 -1462.23 -1426.2252
0000d0 3f 2a 42 c6 53 a3 df 42 ac 95 3d c4 36 1c 09 43
       -12426.562 111.81899 -758.3386 137.1102
0000e0 48 5e 89 46 93 3d 7b c5 49 f2 64 c4 aa dd 9a c4
       17583.14 -4019.8484 -915.7857 -1238.927
0000f0 e5 6c a5 44 54 ba 36 c4 a6 1c 11 c5 6f 1c 96 c4
       1323.403 -730.9114 -2321.7905 -1200.8885
000100 ce 7a 9c 42 0d fa 81 c4 18 86 75 c4 3a c5 ba 45
       78.23985 -1039.8141 -982.0952 5976.6533
000110 2f ab b0 c1 2c d1 b3 45 a2 1f 8c 43 ce 87 42 c5
       -22.083586 5754.1465 280.24713 -3112.4878
000120 f4 33 38 c6 d1 fb 80 c5 44 3e 9d c5 a8 73 6b 45
       -11788.988 -4127.477 -5031.783 3767.2285
000130 46 52 aa 43 bb ea f4 c1 7d d8 81 c5 6c 5f 9d c4
       340.64276 -30.614614 -4155.061 -1258.9819
000140 04 00 00 00 a9 93 63 c5 00 00 00 00 2e ae b4 c3
       6e-45 -3641.2288 0.0 -361.36078
000150 bc 2c 9e 45 60 06 51 c4 2e 67 6e c4 b4 d4 6b 46
       5061.592 -836.0996 -953.6122 15093.176
000160 0d 4e 5e 45 75 01 83 44 64 f1 23 c2 4c 3a 34 c6
       3556.8782 1048.0455 -40.985733 -11534.574
000170 68 4e 5d c4 d9 b6 71 43 ed 57 ce c4 97 2f 35 c6
       -885.2251 241.71425 -1650.7477 -11595.897
000180 f1 59 39 c6 62 4a 8e 46 ed e8 35 c6 15 e6 a5 c4
       -11862.485 18213.191 -11642.231 -1327.1901
000190 54 ad 9f 42 fe 58 6b c4 c5 cb 3e c6 00 00 00 00
       79.83853 -941.3905 -12210.942 0.0
0001a0 12 14 74 44 42 32 d0 c1 ff d3 9c c5 e1 5f fa 44
       976.3136 -26.02454 -5018.4995 2002.9962
0001b0 ce 19 1d 44 13 d5 55 43 ff 8a 43 46 fb c1 a0 c3
       628.4032 213.83232 12514.749 -321.51547
0001c0 21 c1 65 c4 18 92 32 c4 45 bf 94 c4 00 00 00 00
       -919.01764 -714.2827 -1189.9772 0.0
0001d0 9a a9 8b c4 6a b6 58 43 1a 6e 29 43 48 9d c1 c4
       -1117.3 216.71255 169.43008 -1548.915
0001e0 90 f6 9f 45 b7 8d 08 43 ce 0e 4a 46 93 50 f9 c1
       5118.8203 136.55357 12931.701 -31.164343
0001f0 b0 fe dd c5 ce 14 d9 c1 bd 83 7d c4 54 16 31 46
       -7103.836 -27.135159 -1014.0584 11333.582
