models/maintainance_agent/1/D3QN_q_eval.pth (torch, 228957 bytes, 21 tensors)

weight f4 [128, 11]
0.06878283 0.07056562 -0.17082499 -0.29846108 0.04139872 0.07212219 -0.33149976 0.06391346
-0.19534394 -0.12729461 -0.27850497 0.1918452 -0.34437206 -0.2583085 -0.33793962 0.4507965
-0.37034455 0.24271758 -0.3229574 0.009655712 0.0353454 0.1704436 -0.08690123 0.2016658
-0.08904582 0.10384885 0.10418785 -0.10958151 0.2947805 -0.30346444 0.16412155 -0.041531593
0.08368835 -0.11800305 -0.23903483 -0.2527874 -0.047647074 -0.20046256 -0.1189112 0.14066511
0.01387527 0.102808066 0.3050799 -0.21742237 -0.11384854 -0.42417917 -0.051786035 0.0379197
0.123661436 -0.27076364 0.20999114 0.24166015 0.34052864 -0.16192093 0.044524938 -0.16916911
0.11538474 0.02045831 0.23487024 -0.41153058 0.24698833 -0.2385431 0.24276765 -0.062005866
0.13314633 -0.22622696 -0.16553715 0.11824748 0.15099725 0.14861453 0.2606907 -0.1860485
-0.14191015 -0.19029978 0.19832596 0.22471172 -0.24837339 0.0043679583 -0.29957423 -0.003587246
-0.278353 0.029847922 -0.10106365 0.10241237 -0.22335145 -0.023229145 0.017542366 0.2856294
-0.06710655 0.0063546784 0.285622 -0.15499394 -0.109096885 -0.17233871 0.13003291 -0.095035665
-0.2389656 0.10870883 -0.18553092 -0.18937176 0.13374981 -0.17873004 0.21915942 -0.1012871
0.24856189 -0.26424158 0.20776524 -0.24276897 -0.18292631 -0.16076891 0.21262589 -0.2744998
0.023272187 -0.36129206 0.2227605 -0.01564225 -0.24100693 0.23474811 0.19393338 -0.054597985
-0.1617976 0.25771075 0.14712721 -0.14865384 -0.29089132 0.13925838 0.36774918 0.0033078967
-0.09156164 0.24166138 -0.120188475 -0.10106717 0.17250144 0.38319516 0.13937366 -0.16866203
-0.17952663 0.049877044 0.046734113 0.082326785 0.10129729 0.2232893 -0.11030199 0.19827892
0.32140127 0.07692072 -0.08881892 0.051921114 0.1120238 0.2842646 -0.30046424 -0.04197904
0.270187 -0.114005476 0.13501358 0.2431578 0.22848886 0.0049801636 -0.13044095 0.32658175
0.19651622 0.29484457 -0.28443432 -0.11587867 0.016885668 -0.09083852 0.13377044 0.23602933
0.17752124 -0.34355697 0.25258747 -0.0013226203 0.15620804 -0.450024 -0.19074173 -0.23896977
0.08628071 0.34200144 -0.16922338 0.13135493 -0.06077882 0.21970508 0.23048282 0.26551512
-0.34322855 0.343274 -0.07640429 0.27373242 0.12329355 0.28297913 -0.07362973 0.06435372
-0.21415263 0.09421588 0.17122763 -0.08809776 -0.22608766 -0.05462405 0.27293378 0.123122506
-0.115153134 0.03539717 -0.08591017 0.343244 -0.30235568 -0.098257154 -0.009484636 -0.061024066
0.27987206 0.23787141 0.30090228 -0.06866254 0.1953971 -0.38291183 0.1034933 -0.14589351
0.29411352 0.09833805 0.074066475 0.19397822 -0.11471482 -0.2692961 -0.04279688 -0.1722817
0.30282456 -0.20926481 0.07508207 0.051705632 0.11547453 0.17976731 0.1371792 0.04197213
0.05159557 0.063040406 0.049165368 -0.063250974 -0.15218465 -0.29906428 -0.046572655 -0.08399084
-0.018241733 0.12476343 -0.20430563 -0.33862 -0.0650464 -0.472835 0.03461699 0.23519541
0.108041406 -0.20799217 0.09176478 0.14646344 -0.2559724 0.058849543 0.030982822 0.29438478
00000000: 03de 8c3d b584 903d bfec 2ebe e4cf 98be
00000010: b491 293d ccb4 933d 56ba a9be 0fe5 823d
00000020: 3e08 48be 8559 02be 3498 8ebe 1173 443e
00000030: 8951 b0be 0341 84be 6c06 adbe cdce e63e
00000040: cd9d bdbe f58a 783e ac5a a5be fe32 1e3c
00000050: 57c6 103d c488 2e3e 46f9 b1bd 7b81 4e3e
00000060: a85d b6bd b5ae d43d 7160 d53d 456c e0bd
00000070: 78ed 963e b15f 9bbe 7b0f 283e 081d 2abd
00000080: cc64 ab3d 95ab f1bd 8cc5 74be 5a6d 81be
00000090: 9429 43bd 0f46 4dbe b787 f3bd 840a 103e
000000a0: 1a55 633c 098d d23d 6f33 9c3e f8a3 5ebe
000000b0: 6c29 e9bd 032e d9be 981d 54bd b051 1b3d
000000c0: 3542 fd3d 88a1 8abe eb07 573e c275 773e
000000d0: c559 ae3e 9ace 25be c85f 363d ab3a 2dbe
000000e0: d64e ec3d 3098 a73c d381 703e 23b4 d2be
000000f0: 82ea 7c3e a444 74be 1598 783e ddf9 7dbd
00000100: 8357 083e 0aa8 67be 9282 29be bc2b f23d
00000110: 069f 1a3e 682e 183e 4079 853e 7f83 3ebe
00000120: e550 11be f2dd 42be f615 4b3e d41a 663e
00000130: 9855 7ebe 1721 8f3b cb61 99be 0018 6bbb
00000140: 4984 8ebe a183 f43c 75fa cebd 94bd d13d
00000150: 3eb6 64be 0c4b bebc 02b5 8f3c 043e 923e
00000160: 296f 89bd e83a d03b 0c3d 923e bbb6 1ebe
00000170: 306e dfbd 8f79 30be 5927 053e 0fa2 c2bd
00000180: 66b3 74be bca2 de3d d1fb 3dbe acea 41be
00000190: b6f5 083e 0205 37be 546b 603e 9c6f cfbd
000001a0: 0287 7e3e ac4a 87be 69c0 543e 6e98 78be
000001b0: 0951 3bbe 9ba0 24be 9aba 593e 3d8b 8cbe
000001c0: 50a5 be3c 46fb b8be 541b 643e 2d24 80bc
000001d0: 85ca 76be cf61 703e 7996 463e 23a2 5fbd
000001e0: 45ae 25be aaf2 833e 84a8 163e b638 18be
000001f0: b5ef 94be c099 0e3e 9f49 bc3e 4cc9 583b
00000200: ab84 bbbd 1576 773e 6025 f6bd 4efc cebd
00000210: 38a4 303e 2832 c43e f8b7 0e3e bdb5 2cbe
00000220: d4d5 37be df4b 4c3d 456c 3f3d f29a a83d
00000230: f474 cf3d f3a5 643e 02e6 e1bd a109 4b3e
00000240: b58e a43e 9c88 9d3d b2e6 b5bd 3cab 543d
00000250: bc6c e53d 218b 913e 73d6 99be 37f2 2bbd
00000260: f355 8a3e b47b e9bd 0041 0a3e 5cfe 783e
00000270: fcf8 693e a430 a33b 5092 05be b935 a73e
00000280: 8c3b 493e def5 963e 60a1 91be cc51 edbd
00000290: d053 8a3c 8c09 babd 1efb 083e acb1 713e
000002a0: 21c8 353e b3e6 afbe 2553 813e c65b adba
000002b0: 00f5 1f3e 8c69 e6be cd51 43be 7eb4 74be
000002c0: f1b3 b03d d01a af3e e548 2dbe e881 063e
000002d0: 36f3 78bd 5efa 603e b003 6c3e 99f1 873e
000002e0: a7bb afbe 9cc1 af3e da79 9cbd a826 8c3e
000002f0: 5481 fc3d a4e2 903e 2fcb 96bd e2cb 833d
00000300: d44a 5bbe 41f4 c03d 4c56 2f3e 996c b4bd
00000310: 8683 67be 78bd 5fbd fabd 8b3e a727 fc3d
00000320: 68d5 ebbd 9ffc 103d acf1 afbd adbd af3e
00000330: 5dce 9abe 0c3b c9bd 7265 1bbc 5ff4 79bd
00000340: 644b 8f3e 9094 733e dd0f 9a3e f29e 8cbd
00000350: 2d16 483e 050d c4be 4cf4 d33d 1c65 15be
00000360: 0c96 963e 7665 c93d 2ab0 973d 3aa2 463e
00000370: 9bef eabd 2ee1 89be c84b 2fbd 9d6a 30be
00000380: d20b 9b3e 8449 56be a1c4 993d 49c9 533d
00000390: e97d ec3d ec14 383e b478 0c3e f8ea 2b3d
000003a0: e055 533d 541b 813d a061 493d ba89 81bd
000003b0: 4bd6 1bbe f41e 99be f8c2 3ebd 6403 acbd
000003c0: b06f 95bc f883 ff3d 7f35 51be 9a5f adbe
000003d0: 0c37 85bd 6e17 f2be 8bca 0d3d 11d7 703e
000003e0: d044 dd3d e6fb 54be 2cef bb3d 83fa 153e
000003f0: d00e 83be 380c 713d b0cf fd3c 9ab9 963e

bias f4 [128]
-0.22834264 -0.05819497 -0.03615338 0.06667059 -0.0057745203 -0.17429021 -0.11922583 0.035926152
0.13388357 0.042927627 -0.30500305 -0.062555015 0.09900261 0.20479518 -0.0716565 0.028850053
0.182696 0.028256696 -0.022624016 -0.0008683709 0.013454591 -0.13101533 -0.33632562 -0.18004966
0.31434166 0.20658422 0.023931399 0.04507815 -0.008308497 -0.12791356 0.34585354 0.012204457
0.18830805 0.27925494 -0.017714342 -0.19195908 0.24141239 -0.18028536 -0.08177573 0.17259428
0.13905038 0.21927717 0.026190935 -0.017038811 -0.29729035 0.056833148 -0.20938669 -0.17878863
0.26151332 -0.32802084 -0.14454289 0.101799384 0.24491109 -0.1369283 -0.23128578 -0.01069203
-0.22886303 0.34834135 0.12510684 -0.21258141 -0.22757079 -0.18742669 0.23569943 -0.003585578
-0.052313443 0.35958534 -0.32604522 -0.31121412 0.011741815 0.1960625 0.059175946 -0.11995833
0.17589906 0.14431186 -0.27680868 -0.20213738 -0.11841293 0.099228255 -0.2708652 0.16869998
-0.16542971 -0.24422584 0.15650195 0.14003448 0.27601185 -0.1407901 -0.017294878 -0.01654628
0.0004712151 0.116834566 -0.11476743 0.1438131 0.25181863 -0.27607724 0.101537764 -0.15530899
0.0034394807 0.16548528 0.24546936 0.07466716 0.19299844 -0.08626403 0.34677282 -0.18568593
-0.0012088935 -0.05715792 0.012310326 -0.04447049 0.09375937 0.22962914 0.06098546 0.28912538
0.076610595 -0.009720569 -0.3537165 -0.04486668 -0.11432996 -0.20363586 0.06611711 -0.031024482
0.16168262 -0.1798585 -0.05508186 -0.1126572 -0.10684611 0.17038088 0.1484881 -0.12547319
00000000: a7d2 69be d95d 6ebd 9115 14bd 978a 883d
00000010: 3038 bdbb 2279 32be ac2c f4bd 4d27 133d
00000020: c618 093e e1d4 2f3d 5c29 9cbe d81c 80bd
00000030: e1c1 ca3d d4b5 513e a5c0 92bd f256 ec3c
00000040: a914 3b3e 967a e73c 0056 b9bc 62a3 63ba
00000050: a570 5c3c e228 06be df32 acbe f05e 38be
00000060: 64f1 a03e d08a 533e c80b c43c dea3 383d
00000070: 5d20 08bc c6fb 02be b713 b13e 34f5 473c
00000080: d3d3 403e 81fa 8e3e ab1d 91bc ec90 44be
00000090: cf34 773e ba9c 38be 097a a7bd 8ebc 303e
000000a0: 3963 0e3e 328a 603e 5f8e d63c fa94 8bbc
000000b0: 7136 98be e0c9 683d 7769 56be 5e14 37be
000000c0: 13e5 853e 59f2 a7be 0d03 14be 327c d03d
000000d0: f9c9 7a3e ef36 0cbe 2ed6 6cbe a02d 2fbc
000000e0: 125b 6abe cc59 b23e 021c 003e f1ae 59be
000000f0: 5108 69be c8ec 3fbe 315b 713e 04fc 6abb
00000100: 9f46 56bd 921b b83e 66ef a6be 7557 9fbe
00000110: be60 403c 9cc4 483e 7a62 723d b7ac f5bd
00000120: e21e 343e 7dc6 133e deb9 8dbe 1afd 4ebe
00000130: 7a82 f2bd 2f38 cb3d d8ae 8abe b0bf 2c3e
00000140: 6866 29be 5716 7abe 0c42 203e 3365 0f3e
00000150: 6d51 8d3e 482b 10be fdad 8dbc 108c 87bc
00000160: 6c0d f739 f646 ef3d 300b ebbd be43 133e
00000170: 5fee 803e ff59 8dbe 08f3 cf3d 5209 1fbe
00000180: e968 613b f974 293e 525c 7b3e 19eb 983d
00000190: 62a1 453e 32ab b0bd 358c b13e 7424 3ebe
000001a0: bc73 9eba 6c1e 6abd 40b1 493c b026 36bd
000001b0: ea04 c03d e723 6b3e e4cb 793d 3e08 943e
000001c0: 04e6 9c3d 0543 1fbc 541a b5be 20c6 37bd
000001d0: d325 eabd eb85 50be 6868 873d 0e27 febc
000001e0: 2190 253e d42c 38be 849d 61bd d1b8 e6bd
000001f0: 22d2 dabd 5378 2e3e 440d 183e 0b7c 00be

weight f4 [128, 128]
0.026738204 0.039014615 -0.02201552 -0.016467512 -0.05471533 0.013361998 -0.0050336197 -0.05254278
-0.046868622 0.0056580007 -0.075978234 -0.031183302 0.013711706 -0.06541932 0.07271447 -0.038489796
0.016586646 0.07485788 -0.08387758 -0.08104511 -0.023572765 -0.00025785714 -0.060779065 -0.049387928
0.08632321 -0.06734361 -0.030502107 0.07582653 0.041299395 0.030271724 0.06370815 0.01543539
-0.034185383 -0.0691301 0.06471247 -0.018259935 -0.06069258 -0.0243297 0.07095348 0.0855814
-0.06464824 0.035952955 0.059415527 -0.037390724 -0.06999341 0.061915092 0.033926614 0.048843153
-0.0043925047 -0.010512225 -0.049274586 -0.07889724 0.0017261952 0.06673511 0.059159704 0.06804446
-0.011651367 0.06628258 -0.033197016 0.0034542158 -0.005728461 -0.04713107 -0.039091222 0.058534957
-0.08017984 0.019733153 -0.037550524 -0.023749992 0.08777744 -0.031827096 0.0826725 -0.042071667
-0.0028140321 -0.019363001 -0.06702409 -0.013377219 0.049896754 -0.07910932 -0.0244281 -0.03400614
-0.08160241 -0.0021823645 -0.0788013 0.036169916 0.016754247 0.08226035 0.0008706376 0.08554814
0.0061848685 0.018903315 0.077430554 -0.048322406 0.07161676 0.051384516 0.0021112114 0.027810127
0.048545234 0.08244897 -0.024643324 -0.031986855 -0.07741285 0.025164284 -0.06880241 0.064776875
0.047831096 -0.017958395 0.042393096 0.076721184 -0.07528215 -0.08290822 0.050693296 0.08404759
-0.07737581 -0.0475826 0.038828857 -0.06624722 0.06026826 0.0054190233 0.018739544 0.026691526
-0.086823225 0.02636163 -0.013828635 -0.05341859 0.06033335 -0.078610376 0.033871546 0.066399254
0.06934295 -0.032870118 -0.020881273 0.06581671 -0.021545783 -0.075246856 0.06739371 0.0018899515
-0.05279292 0.04145179 0.06905403 0.059380215 0.043102134 -0.05119759 -0.010755616 0.024436027
-0.0410772 -0.034029767 -0.033297304 0.026603967 0.030962706 -0.02849479 -0.045331094 0.07319816
0.00267586 0.03149344 -0.057121824 0.065015055 -0.088880606 0.06535402 -0.034302533 0.044071183
-0.080388375 -0.075034186 -0.0076662377 -0.07547307 -0.04316444 -0.060323715 0.059867825 0.02209033
0.071366824 -0.007977243 0.038124286 -0.05996124 -0.08115875 0.032309152 -0.041438807 0.0025530169
0.015540191 0.057231717 -0.015710793 -0.043206103 -0.040524878 0.0116304755 0.05146449 0.07144956
-0.034699224 0.0054295002 -0.08108699 -0.052255318 0.050974928 0.059367172 -0.07114718 -0.05815059
0.050072454 -0.0004882233 0.07050317 -0.023668824 -0.03302989 0.030276908 0.027505688 0.053628452
-0.08432687 -0.067071006 -0.0048545985 -0.03220309 -0.061442606 -0.002107031 0.044273313 -0.061566804
-0.021889232 -0.005876813 -0.060044374 0.06950457 0.051354833 -0.05167835 -0.01386371 -0.06975019
0.040665723 0.037274763 0.07303492 -0.080490574 0.003725484 -0.006074667 0.02876331 -0.079257034
0.039699905 -0.03433718 0.038842645 -0.05671373 0.05113798 -0.078482024 -0.075083956 -0.0038981438
0.038572323 0.06836107 0.012082756 0.04613722 -0.036296908 -0.081884846 -0.087192304 -0.06745371
-0.085271984 0.060471036 0.037511595 -0.03501994 0.015155936 0.021590061 0.04809876 -0.026887443
-0.083145835 0.012565322 0.07094478 -0.022732895 0.014223434 0.034817714 0.02184827 -0.019337008
00000000: 140a db3c cacd 1f3d e459 b4bc e0e6 86bc
00000010: 2f1d 60bd 48ec 5a3c 10f1 a4bb 1937 57bd
00000020: 50f9 3fbd c066 b93b 7a9a 9bbd 2074 ffbc
00000030: 10a7 603c 90fa 85bd 53eb 943d 7aa7 1dbd
00000040: b8e0 873c 174f 993d 02c8 abbd fbfa a5bd
00000050: ac1b c1bc 0031 87b9 78f3 78bd ff4a 4abd
00000060: 39ca b03d 72eb 89bd 8edf f9bc f14a 9b3d
00000070: 8e29 293d 68fc f73c 6b79 823d b8e4 7c3c
00000080: f905 0cbd 1594 8dbd f987 843d dc95 95bc
00000090: c898 78bd 144f c7bc 0f50 913d 4d45 af3d
000000a0: 4c66 84bd 6843 133d b25d 733d 0427 19bd
000000b0: b458 8fbd ae9a 7d3d a2f6 0a3d c20f 483d
000000c0: 00ef 8fbb 783b 2cbc 26d4 49bd e094 a1bd
000000d0: 8041 e23a 6bac 883d 7251 723d e55a 8b3d
000000e0: 60e5 3ebc 29bf 873d 98f9 07bd 2060 623b
000000f0: d0b5 bbbb 820c 41bd 1e1e 20bd 5ac2 6f3d
00000100: 5435 a4bd 6ca7 a13c 94ce 19bd 588f c2bc
00000110: a9c4 b33d 215d 02bd 3350 a93d 5753 2cbd
00000120: a06b 38bb 289f 9ebc ed43 89bd 202c 5bbc
00000130: 8a60 4c3d 1104 a2bd 701d c8bc 064a 0bbd
00000140: 2a1f a7bd 0006 0fbb 9362 a1bd e826 143d
00000150: 3440 893c 1d78 a83d 803b 643a dd33 af3d
00000160: 70aa ca3b 20db 9a3c e993 9e3d b7ed 45bd
00000170: cfab 923d 9278 523d 405c 0a3b 10d2 e33c
00000180: 5ed7 463d 01db a83d cce0 c9bc a604 03bd
00000190: a18a 9ebd 5425 ce3c 47e8 8cbd bda9 843d
000001a0: 8aea 433d 7c1d 93bc 62a4 2d3d ff1f 9d3d
000001b0: 872d 9abd c9cb a9bd c6a3 4f3d 2521 ac3d
000001c0: 3577 9ebd f9e5 42bd 020b 1f3d 9fac 87bd
000001d0: dadb 763d 1092 b13b ac83 993c 30a8 da3c
000001e0: 60d0 b1bd 58f4 d73c 8091 62bc 74cd 5abd
000001f0: 1a20 773d 7afe a0bd e4bc 0a3d 55fc 873d
00000200: ad03 8e3d d1a2 06bd 340f abbc e9ca 863d
00000210: c880 b0bc 061b 9abd b705 8a3d 40b8 f73a
00000220: 643d 58bd 5ac9 293d 336c 8d3d ab38 733d
00000230: dd8b 303d 90b4 51bd 5338 30bc 102e c83c
00000240: 9140 28bd cc62 0bbd c162 08bd 90f0 d93c
00000250: 80a5 fd3c e86d e9bc 19ad 39bd ebe8 953d
00000260: 7b5d 2f3b 44ff 003d 93f8 69bd 9d26 853d
00000270: 0907 b6bd 54d8 853d d080 0cbd fc83 343d
00000280: a9a2 a4bd 86ab 99bd 1035 fbbb a091 9abd
00000290: 32cd 30bd 0016 77bd f737 753d c8f6 b43c
000002a0: c528 923d fbb2 02bc 3628 1c3d eb99 75bd
000002b0: 8f36 a6bd 9a56 043d bdbb 29bd 8450 273b
000002c0: 499c 7e3c ce6b 6a3d ecb3 80bc e2f8 30bd
000002d0: 6afd 25bd c08d 3e3c 6ecc 523d 2654 923d
000002e0: c620 0ebd f3e9 b13b f010 a6bd ac09 56bd
000002f0: 16cb 503d fe2a 733d 9db5 91bd 502f 6ebd
00000300: c618 4d3d 39f8 ffb9 f763 903d 1fe5 c1bc
00000310: 5a4a 07bd 4707 f83c 9c53 e13c 82a9 5b3d
00000320: 91b3 acbd 865c 89bd 5313 9fbb 63e7 03bd
00000330: 3eab 7bbd 1d16 0abb ef57 353d 792d 7cbd
00000340: 0c51 b3bc 4892 c0bb 17f1 75bd 6958 8e3d
00000350: 7259 523d adac 53bd 9d24 63bc 30d9 8ebd
00000360: 1a91 263d 6cad 183d 5593 953d 3ed8 a4bd
00000370: 4027 743b 000e c7bb 08a1 eb3c 8351 a2bd
00000380: 5e9c 223d 25a5 0cbd 7719 1f3d a84c 68bd
00000390: 0f76 513d 2fbb a0bd 9ec5 99bd 0078 7fbb
000003a0: 03fe 1d3d e300 8c3d c0f6 453c 62fa 3c3d
000003b0: 11ac 14bd 3eb3 a7bd e191 b2bd 2c25 8abd
000003c0: 14a3 aebd 7ab0 773d c2a5 193d 1271 0fbd
000003d0: 9a50 783c a4dd b03c 3503 453d 0e43 dcbc
000003e0: 5d48 aabd c8de 4d3c 7f4b 913d 563a babc
000003f0: 6809 693c 059d 0e3d 25fb b23c a568 9ebc

bias f4 [128]
0.000421606 -0.013186366 -0.044916235 -0.046076898 0.027058475 -0.03534218 0.030511532 -0.02935222
0.102440424 -0.004210855 0.014770808 0.12834018 0.0134983 -0.092757486 -0.019509971 0.053642012
-0.020824615 0.0010231883 0.06538464 0.021413114 -0.11702995 -0.0726243 0.026902085 -0.06892723
0.060234964 -0.16342789 0.07926031 -0.008665163 -0.03893396 -0.05078925 0.026321288 -0.122929774
0.08387579 0.047969595 -0.04893682 -0.09615879 -0.011954879 0.11100078 -0.042875186 0.06325775
-0.020624995 0.06230025 0.12369624 0.03506334 -0.06617604 0.09124605 -0.06924339 -0.006395151
0.03807763 -0.012451406 -0.07351572 -0.012108115 0.07847504 0.123453476 0.045423843 0.004185404
0.05833926 0.059646323 0.18903664 -0.0723444 -0.09430993 0.15149139 -0.017994436 0.062330775
0.110573746 -0.07935933 -0.02031526 -0.069942854 -0.030911885 0.0044880104 -0.074725434 0.04318437
0.002639952 -0.010474192 -0.064157255 -0.050945334 -0.1344139 -0.054297436 0.12905455 -0.14556156
0.010684303 0.026402682 0.07395582 0.10117007 0.022683693 -0.0016075263 0.033294737 -0.13126907
-0.036158685 0.078806624 0.13367167 0.078985915 -0.046934288 0.07634756 -0.072273344 -0.103612445
-0.039303992 -0.0616185 -0.06168872 -0.008907817 0.080002375 0.11472301 0.11130583 0.04993388
0.07826998 -0.030330768 0.10736881 0.1600442 0.037145086 -0.036255732 0.04643362 0.037935928
0.19339377 -0.015324688 0.12760614 0.01948599 -0.081694566 0.180624 -0.05694589 -0.042694334
0.06663045 0.04687261 -0.06819047 -0.009309055 -0.0056580845 0.119545884 0.03186988 -0.07207892
00000000: 000b dd39 a10b 58bc 16fa 37bd 21bb 3cbd
00000010: bca9 dd3c f6c2 10bd 52f3 f93c 1174 f0bc
00000020: 49cc d13d 36fb 89bb 4201 723c 9c6b 033e
00000030: f927 5d3c a3f7 bdbd 60d3 9fbc bab7 5b3d
00000040: 6298 aabc 811c 863a 62e8 853d 8e6a af3c
00000050: 66ad efbd 0dbc 94bd c361 dc3c b829 8dbd
00000060: f0b8 763d a459 27be 3b53 a23d 54f8 0dbc
00000070: 3779 1fbd 6308 50bd be9f d73c 9bc2 fbbd
00000080: 12c7 ab3d c47b 443d fa71 48bd e6ee c4bd
00000090: 66de 43bc 6054 e33d e49d 2fbd 478d 813d
000000a0: c0f5 a8bc 8c2e 7f3d 7454 fd3d 949e 0f3d
000000b0: 4e87 87bd 36df ba3d 7acf 8dbd 6a8e d1bb
000000c0: 4af7 1b3d fb00 4cbc 698f 96bd 1d61 46bc
000000d0: 86b7 a03d 2dd5 fc3d 5a0e 3a3d b725 893b
000000e0: 26f5 6e3d b44f 743d d292 413e 4d29 94bd
000000f0: 9125 c1bd 8f20 1b3e 1169 93bc 8e4e 7f3d
00000100: 7d74 e23d 2587 a2bd 306c a6bc 333e 8fbd
00000110: ec3a fdbc 2910 933b a609 99bd 18e2 303d
00000120: 0c03 2d3b f29b 2bbc e164 83bd 0eac 50bd
00000130: cca3 09be fd66 5ebd e026 043e 170e 15be
00000140: 370d 2f3c 704a d83c 2676 973d 4132 cf3d
00000150: 27d3 b93c a2b3 d2ba 1060 083d 666b 06be
00000160: 211b 14bd 5e65 a13d 3ae1 083e 5ec3 a13d
00000170: 2b3e 40bd 1c5c 9c3d 0c04 94bd c332 d4bd
00000180: 39fd 20bd ae63 7cbd 50ad 7cbd 18f2 11bc
00000190: 49d8 a33d e6f3 ea3d 50f4 e33d 7887 4c3d
000001a0: 034c a03d 3b78 f8bc 2ee4 db3d a0e2 233e
000001b0: 7225 183d e480 14bd 2e31 3e3d b462 1b3d
000001c0: 0409 463e 6614 7bbc 2fab 023e 15a1 9f3c
000001d0: 7b4f a7bd 7ff5 383e 1840 69bd 41e0 2ebd
000001e0: 8c75 883d 7efd 3f3d 72a7 8bbd 0285 18bc
000001f0: 7467 b9bb 79d4 f43d fe89 023d 1d9e 93bd

weight f4 [1, 128]
-0.072997496 -0.0007335331 -0.032892775 -0.110725485 0.066876285 0.034479216 0.03009927 0.016433412
0.09116184 0.031871058 0.05969615 0.080169626 -0.04681312 -0.07579491 -0.026049143 0.06855549
0.06701746 -0.015160363 0.13812272 0.06615209 -0.08090084 -0.10021231 0.05968904 -0.051508624
0.035725757 0.0071787895 0.09583466 -0.014141492 -0.07353952 0.0065882844 0.08279899 -0.13084935
0.085944265 0.0058250865 -0.09406468 -0.02583114 0.0026524735 0.027798548 -0.083992004 0.06391007
-0.00095335394 0.14715883 0.13759206 -0.093901016 0.052514315 0.07983011 -0.102904856 0.07836465
-0.029015616 -0.052185696 0.02262747 0.020784225 0.08196858 0.052744415 0.0074089393 -0.04908867
0.0711078 0.10655886 0.16368365 -0.0032441898 -0.11988071 0.1007351 -0.17635937 0.078542456
0.02999759 0.078111134 0.007773565 -0.056233343 -0.021129563 -0.07643765 -0.078004606 0.057966355
0.006016201 0.034419578 -0.04342368 -0.04863406 -0.055068012 -0.06759094 0.060695462 -0.03998859
0.13026667 -0.029133031 0.080652356 0.060013086 -0.018083822 -0.05993844 0.049960826 -0.100045234
-0.07058626 0.068660095 0.1327818 0.058923315 -0.038113724 0.0681127 -0.03801204 -0.08537996
-0.07475589 -0.01190018 -0.032969035 0.05139605 0.02733022 0.06188843 0.073475525 -0.008601322
0.04352628 0.030489817 0.09944629 0.040267773 0.018274114 -0.048717584 -0.08325288 0.014610315
0.107900865 -0.052702207 0.025652552 0.030115914 -0.09645504 0.13766111 -0.031969197 -0.10504113
-0.04583459 0.035398223 -0.095119275 0.019327633 0.01777732 0.1657291 0.100173466 0.05625629
00000000: b67f 95bd 934a 40ba 93ba 06bd 0bc4 e2bd
00000010: 6ff6 883d 143a 0d3d bf92 f63c 5d9f 863c
00000020: 0fb3 ba3d 3a8b 023d f383 743d f92f a43d
00000030: 1dbf 3fbd 5d3a 9bbd 0365 d5bc d266 8c3d
00000040: 7340 893d 2c63 78bc 0b70 0d3e bf7a 873d
00000050: 57af a5bd 1d3c cdbd 7f7c 743d b5fa 52bd
00000060: 2c55 123d 0d3c eb3b f644 c43d b7b1 67bc
00000070: e39b 96bd 89e2 d73b 8492 a93d 5ffd 05be
00000080: 8c03 b03d 5ee0 be3b fca4 c0bd d49b d3bc
00000090: 1fd5 2d3b c8b9 e33c 0004 acbd 48e3 823d
000000a0: 80ea 79ba ceb0 163e efe4 0c3e 2d4f c0bd
000000b0: 4019 573d f87d a33d c8bf d2bd a57d a03d
000000c0: 28b2 edbc abc0 55bd 3e5d b93c ae43 aa3c
000000d0: 25df a73d 870a 583d b0c6 f23b 3411 49bd
000000e0: f7a0 913d 883b da3d b09c 273e 799c 54bb
000000f0: 0584 f5bd 344e ce3d 8d97 34be deda a03d
00000100: 82bd f53c bbf8 9f3d 64b9 fe3b ef54 66bd
00000110: e817 adbc 588b 9cbd e1c0 9fbd 216e 6d3d
00000120: 8d23 c53b 8bfb 0c3d 07dd 31bd 8234 47bd
00000130: ff8e 61bd 1e6d 8abd ce9b 783d 13cb 23bd
00000140: a064 053e 65a8 eebc 102d a53d 48d0 753d
00000150: 8624 94bc 0282 75bd b9a3 4c3d 84e4 ccbd
00000160: 878f 90bd aa9d 8c3d f4f7 073e 9359 713d
00000170: 231d 1cbd ac7e 8b3d 83b2 1bbd b0db aebd
00000180: 9e19 99bd f9f8 42bc 8a0a 07bd aa84 523d
00000190: a0e3 df3c b97e 7d3d 567a 963d 8fec 0cbc
000001a0: 9d48 323d c8c5 f93c 7faa cb3d d2ef 243d
000001b0: 98b3 953c 178c 47bd 7c80 aabd 1a60 6f3c
000001c0: 21fb dc3d 45de 57bd 4d25 d23c a6b5 f63c
000001d0: 388a c5bd 09f7 0c3e 22f2 02bd ce1f d7bd
000001e0: 0dbd 3bbd bafd 103d e5cd c2bd fc54 9e3c
000001f0: bea1 913c e4b4 293e bf27 cd3d ff6c 663d

weight f4 [2, 128]
-0.014509715 -0.03732836 0.071589105 -0.043928567 0.042332016 -0.043537207 -0.012470476 0.043057527
0.10358009 0.071164966 -0.012642758 -0.04283096 0.07373438 0.010929725 0.030280858 -0.005623191
0.058362707 -0.08268177 0.12585431 -0.020721046 -0.024643961 -0.0062891445 0.10520538 -0.07144637
0.0013501919 -0.10305713 -0.04849266 -0.045334168 0.015049351 0.040039677 -0.01468308 -0.08780823
-0.014096446 0.09366324 -0.039565537 -0.10783774 0.03622824 0.06377269 -0.06926942 0.032966506
-0.06275514 0.074352294 0.12259949 -0.110678755 0.064666376 -0.028776897 -0.03220261 0.064285606
-0.076811284 -0.11309445 -0.061334178 0.018836573 -0.045978997 0.059160095 0.07721447 0.031247735
0.0044059623 0.08742721 0.001576166 0.061355148 -0.014316236 0.0496193 0.015948169 0.065435044
0.08999 0.08100889 -0.018004963 0.070416294 -0.05660314 -0.11220375 0.06909262 0.012370633
-0.06621624 -0.0626399 -0.04359113 -0.09890126 0.038468655 -0.06849521 -0.09413159 -0.097140945
0.06637682 -0.075733036 0.020379845 0.024034455 0.0689633 0.04495493 0.04790303 -0.12066674
0.00040706407 0.03411733 0.113095604 -0.036009498 0.09082943 0.08457448 0.04727424 0.039323755
-0.036485776 -0.045705188 0.031738188 0.08410523 -0.08094604 0.11269229 -0.051419675 -0.065524675
-0.028938415 -0.06782995 0.06687412 0.08304081 0.05224415 0.020710858 0.07508702 -0.08284586
0.0012377965 -0.06299456 -0.015476116 0.06720142 -0.108483985 0.12470407 0.07060408 0.03327365
-0.036026217 0.07569005 -0.12605049 0.02733109 0.060134 0.16356501 -0.03291395 -0.00047454983
0.073527254 -0.057534125 -0.06580295 0.06870544 0.06604398 -0.0076836706 -0.031355932 0.06546769
-0.04489757 -0.08708677 -0.08103004 -0.05369278 -0.03765746 -0.037086975 0.035338648 0.081701644
0.019379912 0.107410476 -0.05276194 -0.10096945 -0.06777654 -0.05085949 0.024530163 -0.029761845
0.06256423 0.13541943 -0.091574535 0.06869735 0.01918528 0.041523367 0.047757518 0.007527985
0.022680366 -0.009484721 0.022799883 0.080650985 0.017502056 0.0022188097 -0.07850546 -0.072963774
0.029701494 -0.06664937 0.027513428 0.029641902 -0.052628387 -0.017669495 0.017255247 0.07732115
0.07696901 -0.035780117 0.03553986 -0.055065233 -0.06620355 -0.0704499 -0.03678659 -0.018677335
-0.05765808 0.018674484 0.0021476457 0.050183367 0.1109786 0.060796913 -0.008524003 -0.079408616
0.034045674 0.043207757 0.07258098 -0.06539715 -0.06933215 0.07284168 0.06185846 0.07406963
0.07564628 -0.08693147 -0.0636868 -0.027089566 0.0928853 0.04605747 0.009679151 -0.03207072
-0.10191725 0.08555811 -0.089056924 0.056385305 -0.01130291 0.0705581 0.06694969 0.055990823
0.094974175 0.02839742 -0.024913438 -0.049604975 0.017001169 0.018645149 0.050932847 -0.050106328
0.07572841 -0.09119957 0.018292628 0.07650597 0.028093938 -0.002220228 0.006256458 -0.07754473
-0.054550935 -0.08122952 -0.045428954 0.015920391 0.05747556 -0.019455126 0.067912884 0.007891481
-0.1226381 0.01948655 0.0816181 0.031110791 0.10616197 -0.06336842 -0.08037199 0.011308701
0.05968044 -0.008581899 0.020433052 -0.10379224 -0.025356764 -0.1769269 -0.04700711 -0.047881417
00000000: 28ba 6dbc 9fe5 18bd 4f9d 923d 71ee 33bd
00000010: 5664 2d3d 1254 32bd f850 4cbc 175d 303d
00000020: cc21 d43d f0be 913d 9223 4fbc 846f 2fbd
00000030: 0d02 973d 9712 333c 900f f83c bf42 b8bb
00000040: bc0d 6f3d 0f55 a9bd f4df 003e 2fbf a9bc
00000050: 22e2 c9bc 2b15 cebb eb75 d73d 7952 92bd
00000060: ecf8 b03a 9e0f d3bd 3da0 46bd 52b0 39bd
00000070: 8e91 763c a500 243d 4d91 70bc cdd4 b3bd
00000080: c8f4 66bc 83d2 bf3d 790f 22bd 08da dcbd
00000090: 1064 143d 429b 823d 20dd 8dbd e307 073d
000000a0: c485 80bd 0446 983d 7115 fb3d 8bab e2bd
000000b0: ce6f 843d 87bd ebbc e2e6 03bd 2ca8 833d
000000c0: 3c4f 9dbd 109e e7bd 8c39 7bbd 284f 9a3c
000000d0: 7954 3cbd db51 723d 9f22 9e3d 40fb ff3c
000000e0: e45f 903b 090d b33d 5b97 ce3a 894f 7b3d
000000f0: a58e 6abc 9b3d 4b3d bca5 823c cf02 863d
00000100: ad4c b83d fde7 a53d 257f 93bc 6b36 903d
00000110: b2d8 67bd 14cb e5bd 6e80 8d3d 32ae 4a3c
00000120: 619c 87bd 5949 80bd 9d8c 32bd be8c cabd
00000130: 4f91 1d3d 3747 8cbd 10c8 c0bd d5f1 c6bd
00000140: 92f0 873d ec19 9bbd a2f3 a63c e8e3 c43c
00000150: a13c 8d3d a922 383d f835 443d 2020 f7bd
00000160: 376b d539 9dbe 0b3d ab9e e73d b27e 13bd
00000170: c804 ba3d 6335 ad3d a2a2 413d f211 213d
00000180: 1c72 15bd 5d35 3bbd e7ff 013d 5d3f ac3d
00000190: 0ac7 a5bd 37cb e63d 709d 52bd cd31 86bd
000001a0: 4110 edbc 6eea 8abd 4cf5 883d 4d11 aa3d
000001b0: f6fd 553d d1a9 a93c 39c7 993d 17ab a9bd
000001c0: 8f3d a23a 4b03 81bd 898f 7dbc e6a0 893d
000001d0: da2c debd d964 ff3d df98 903d f349 083d
000001e0: 3a90 13bd 6303 9b3d 6113 01be 73e5 df3c
000001f0: 124f 763d 967d 273e c7d0 06bd 00cd f8b9
00000200: 7595 963d e7a8 6bbd b2c3 86bd 70b5 8c3d
00000210: 1142 873d 4dc7 fbbb 146f 00bd ed13 863d
00000220: 84e6 37bd 8c5a b2bd 14f3 a5bd f6ec 5bbd
00000230: b53e 1abd 83e8 17bd 42bf 103d 3153 a73d
00000240: 9fc2 9e3c 06fa db3d e71c 58bd 12c9 cebd
00000250: 6dce 8abd 0a52 50bd 7bf3 c83c 1dcf f3bc
00000260: ad21 803d 64ab 0a3e 6e8b bbbd 32b1 8c3d
00000270: 732a 9d3c 6814 2a3d 639d 433d 51ad f63b
00000280: 2dcc b93c ce65 1bbc d2c6 ba3c 582c a53d
00000290: 7960 8f3c 7369 113b 78c7 a0bd 086e 95bd
000002a0: 8c50 f33c 777f 88bd d763 e13c 93d3 f23c
000002b0: dd90 57bd 9ebf 90bc e05a 8d3c 8d5a 9e3d
000002c0: eea1 9d3d 2c8e 12bd 3f92 113d 158c 61bd
000002d0: ba95 87bd 0a48 90bd 89ad 16bd 3601 99bc
000002e0: e12a 6cbd 3bfb 983c 84bf 0c3b 138d 4d3d
000002f0: c048 e33d 2f06 793d 43a8 0bbc fca0 a2bd
00000300: 7a73 0b3d 9efa 303d 56a5 943d f1ee 85bd
00000310: 04fe 8dbd 052e 953d 4c5f 7d3d d1b1 973d
00000320: 70ec 9a3d 2009 b2bd 3a6e 82bd f0ea ddbc
00000330: a63a be3d c2a6 3c3d 4d95 1e3c 965c 03bd
00000340: feb9 d0bd 1739 af3d 7a63 b6bd 47f4 663d
00000350: d72f 39bc c480 903d eb1c 893d a256 653d
00000360: d281 c23d b5a1 e83c 4417 ccbc 962e 4bbd
00000370: 0946 8b3c b6bd 983c f69e 503d 4b3c 4dbd
00000380: 7f17 9b3d d7c6 babd 6cda 953c 29af 9c3d
00000390: 4225 e63c 3f81 11bb f902 cd3b c5cf 9ebd
000003a0: cd70 5fbd aa5b a6bd b613 3abd 7b6b 823c
000003b0: 7e6b 6b3d 5b60 9fbc e915 8b3d 454b 013c
000003c0: af29 fbbd 42a2 9f3c 6427 a73d 0fdc fe3c
000003d0: 726b d93d 4dc7 81bd 129a a4bd 2148 393c
000003e0: 7a73 743d 189b 0cbc 3763 a73c 0791 d4bd
000003f0: fdb8 cfbc 532c 35be 878a 40bd 4e1f 44bd

bias f4 [2]
0.05580203 -0.08400058
00000000: ab90 643d 7f08 acbd

exp_avg f4 [128, 11]
-0.03126774 0.010430213 0.0 0.13861586 -0.1183979 0.080418855 -0.16482796 -0.5349144
-0.08300975 -0.0022015146 0.0 -0.019186174 0.004494212 0.0 0.058425568 -0.06290007
-0.09085004 -0.564294 -0.8944361 -0.01960634 0.02036636 0.0 0.02141943 -0.0020745
0.0 -0.03130674 0.045494206 0.15865728 0.8889128 1.1452576 0.011849797 -0.015478776
0.0 -0.0028556434 0.0016963483 0.0 0.02130409 -0.015736118 0.033511605 1.3443601
0.2040083 -0.014720047 -0.0044796513 0.0 -0.050213814 0.024114393 0.0 0.29883742
-0.2537822 0.281214 2.6470177 1.760368 -0.1270806 0.038246356 0.0 0.118964575
-0.06612211 0.0 -0.7944371 0.64982414 -0.97545373 -5.0059447 -6.269018 0.37249178
-0.014719801 0.0 0.0 0.0 0.0 0.0 0.0 0.0
0.0 0.0 0.0 0.0 0.0 -0.020190397 0.0015322753 0.0
0.022138568 -0.037345987 -0.20722461 1.4392734 -0.16345814 -0.01467637 0.006763912 0.0
-0.00018054829 -0.001253661 0.0 -0.01603527 0.012103195 -0.036547914 0.8005759 -0.106061816
0.0002702841 -0.02502788 0.0 0.05558427 -0.023251267 0.0 -0.27309617 0.23594308
-0.19506012 -0.730423 -1.277356 0.1408608 0.0490324 0.0 -0.08518829 0.034886125
0.0 0.42957392 -0.371163 0.32460266 2.0266848 3.0270092 -0.21583189 -0.022659134
0.0 -0.11083015 0.017772105 0.0 0.17032161 -0.18515575 -0.38044184 -2.9477613
-0.86737394 -0.2537145 -0.082795285 0.0 0.018264225 -0.006502223 0.0 -0.088672794
0.078519255 -0.053757187 -1.4350828 -0.43643728 0.040493153 -0.013041152 0.0 0.018141419
-0.0036780026 0.0 -0.052157458 0.05654994 0.059140578 0.6811745 1.087789 0.007195273
-0.05521491 0.0 0.082945004 -0.033025116 0.0 -0.403009 0.35507375 -0.22706665
0.9212326 -0.9124361 0.19262089 0.00014217477 0.0 0.13454024 -0.05932779 0.0
-0.73023987 0.63149893 -0.54572517 -3.3037152 -2.644127 0.3250126 -0.056004293 0.0
0.048115518 -0.018805057 0.0 -0.23119077 0.20668726 -0.11678268 1.8335626 0.17413354
0.102754384 -0.01728335 0.0 -0.062061857 0.02752194 0.0 0.33556458 -0.28974447
0.234305 1.9862444 1.290627 -0.15619634 0.010211554 0.0 -4.130724e-05 -3.3135117e-07
0.0 3.1263735e-06 -4.484809e-05 0.00013121999 3.126373e-09 0.0011595646 -5.8977093e-05 -3.9217462e-05
0.0 0.034575142 -0.01306706 0.0 -0.16253793 0.14271854 -0.087182604 0.39743185
-0.5252841 0.08205333 0.008242359 0.0 -0.13086298 0.049300514 0.0 0.6060631
-0.5444752 0.17594069 3.6419888 1.0934727 -0.27894622 0.03930778 0.0 0.0
0.0 0.0 0.0 0.0 0.0 0.0 0.0 0.0
0.0 0.0 -0.03145643 0.0057584564 0.0 0.072882265 -0.08514364 -0.19529411
-6.562836 -2.731778 -0.031028459 0.013889547 0.0 0.0 0.0 0.0
00000000: 9a12 00bd 7ce3 2a3c 0000 0000 51f1 0d3e
00000010: 997a f2bd a4b2 a43d a9c8 28be 26f0 08bf
00000020: 0401 aabd 4947 10bb 0000 0000 532c 9dbc
00000030: 2f44 933b 0000 0000 a64f 6f3d c0d1 80bd
00000040: 960f babd 9275 10bf c4f9 64bf 7a9d a0bc
00000050: 5ad7 a63c 0000 0000 cd77 af3c 56f4 07bb
00000060: 0000 0000 7f3b 00bd 2258 3a3d 0e77 223e
00000070: ca8f 633f cd97 923f a725 423c b19a 7dbc
00000080: 0000 0000 bf25 3bbb 0158 de3a 0000 0000
00000090: ea85 ae3c 08e9 80bc 7743 093d fe13 ac3f
000000a0: 8de7 503e 5a2c 71bc 0aca 92bb 0000 0000
000000b0: 00ad 4dbd 8c8b c53c 0000 0000 3801 993e
000000c0: beef 81be 48fb 8f3e bd68 2940 bd53 e13f
000000d0: 6b21 02be 36a8 1c3d 0000 0000 b3a3 f33d
000000e0: 076b 87bd 0000 0000 3b60 4bbf e05a 263f
000000f0: 56b7 79bf b330 a0c0 cc9b c8c0 3eb7 be3e
00000100: 522b 71bc 0000 0000 0000 0000 0000 0000
00000110: 0000 0000 0000 0000 0000 0000 0000 0000
00000120: 0000 0000 0000 0000 0000 0000 0000 0000
00000130: 0000 0000 5566 a5bc a1d6 c83a 0000 0000
00000140: f15b b53c 1bf8 18bd b032 54be 1c3a b83f
00000150: 9261 27be 2875 70bc cea3 dd3b 0000 0000
00000160: 9051 3db9 e251 a4ba 0000 0000 665c 83bc
00000170: 7b4c 463c 44b3 15bd 8bf2 4c3f f036 d9bd
00000180: ebb4 8d39 4507 cdbc 0000 0000 55ac 633d
00000190: 7179 bebc 0000 0000 43d3 8bbe 109b 713e
000001a0: d7bd 47be 00fd 3abf 6780 a3bf d03d 103e
000001b0: 33d6 483d 0000 0000 3377 aebd c1e4 0e3d
000001c0: 0000 0000 1df1 db3e 1409 bebe 5232 a63e
000001d0: 34b5 0140 85ba 4140 0903 5dbe a69f b9bc
000001e0: 0000 0000 ebfa e2bd ce96 913c 0000 0000
000001f0: ca68 2e3e 7899 3dbe 46c9 c2be 1fa8 3cc0
00000200: 380c 5ebf dee6 81be 9390 a9bd 0000 0000
00000210: db9e 953c 9a10 d5bb 0000 0000 159a b5bd
00000220: b4ce a03d 7f30 5cbd cbb0 b7bf b574 dfbe
00000230: 26dc 253d 8eaa 55bc 0000 0000 509d 943c
00000240: a50a 71bb 0000 0000 0fa3 55bd e9a0 673d
00000250: 643d 723d 7461 2e3f ac3c 8b3f 53c6 eb3b
00000260: 0829 62bd 0000 0000 12df a93d 5845 07bd
00000270: 0000 0000 3257 cebe 3acc b53e 2984 68be
00000280: e6d5 6b3f 6a95 69bf 693e 453e c014 1539
00000290: 0000 0000 ebc4 093e b201 73bd 0000 0000
000002a0: 00f1 3abf eaa9 213f a5b4 0bbf 1270 53c0
000002b0: 6039 29c0 0d68 a63e c264 65bd 0000 0000
000002c0: c714 453d 100d 9abc 0000 0000 46bd 6cbe
000002d0: d3a5 533e c22b efbd 2eb2 ea3f 1050 323e
000002e0: e470 d23d d095 8dbc 0000 0000 9334 7ebd
000002f0: b175 e13c 0000 0000 1fcf ab3e 6359 94be
00000300: a6ed 6f3e 423d fe3f 4433 a53f eff1 1fbe
00000310: 5d4e 273c 0000 0000 5041 2db8 8fe4 b1b4
00000320: 0000 0000 b0ce 5136 451b 3cb8 1998 0939
00000330: bcd7 5631 88fc 973a 2c5e 77b8 6e7d 24b8
00000340: 0000 0000 aa9e 0d3d 3917 56bc 0000 0000
00000350: 5870 26be cf24 123e cb8c b2bd 307c cb3e
00000360: 0579 06bf 940b a83d f60a 073c 0000 0000
00000370: f200 06be 56ef 493d 0000 0000 f426 1b3f
00000380: ba62 0bbf cc29 343e 5816 6940 eaf6 8b3f
00000390: 0ad2 8ebe 3201 213d 0000 0000 0000 0000
000003a0: 0000 0000 0000 0000 0000 0000 0000 0000
000003b0: 0000 0000 0000 0000 0000 0000 0000 0000
000003c0: 0000 0000 0000 0000 75d8 00bd 6fb1 bc3b
000003d0: 0000 0000 4c43 953d ca5f aebd 2efb 47be
000003e0: c102 d2c0 73d5 2ec0 652f febc fc90 633c
000003f0: 0000 0000 0000 0000 0000 0000 0000 0000

exp_avg_sq f4 [128, 11]
0.0022872463 0.00011673645 0.0 0.018822616 0.009320636 0.5541686 0.4806635 37.159702
0.0016990679 0.0016310686 0.0 0.0003743882 8.839054e-06 0.0 0.0013501858 0.0006376616
0.07279141 21.52657 3.8522806 7.573624e-05 0.0015729552 0.0 0.00023024341 2.6327605e-06
0.0 0.00045440384 0.00033321176 0.03448051 24.5735 12.068206 3.0855954e-05 0.00084867486
0.0 0.00045464028 2.1093834e-05 0.0 0.0030216 0.0010246914 0.1206128 9.838563
12.932337 7.685815e-05 0.0006177057 0.0 0.0020677033 0.00017767823 0.0 0.02844617
0.018516833 0.37384257 26.961372 37.147984 0.0024395012 0.0043507125 0.0 0.01640171
0.0011691625 0.0 0.17736785 0.119284496 2.6961703 55.097027 295.66376 0.021212673
0.013644833 0.0 0.0 0.0 0.0 0.0 0.0 0.0
0.0 0.0 0.0 0.0 0.0 0.00016834542 7.8952957e-07 0.0
0.000114898176 0.00015685293 0.023846006 16.434214 1.8172592 3.7551297e-05 0.00046099874 0.0
3.220365e-05 3.5103642e-07 0.0 5.6853125e-05 1.5238508e-05 0.0057443418 4.6275754 1.3895903
4.811529e-06 0.00021617376 0.0 0.0028424382 0.00013330118 0.0 0.019102536 0.009791975
0.620354 8.249186 54.646626 0.0022290777 0.0024239079 0.0 0.005394354 0.00036222205
0.0 0.056228958 0.038032815 0.9020441 11.496666 84.90175 0.006734177 0.0047998405
0.0 0.0076367417 0.00014976821 0.0 0.018240703 0.009295252 1.4808503 25.043776
20.603388 0.008796126 0.0046266345 0.0 0.0019553371 0.00013865982 0.0 0.02206377
0.010285359 0.56074595 31.386475 39.950703 0.0007934945 0.0034931987 0.0 0.00022973973
4.0145987e-06 0.0 0.00067698327 0.00039863534 0.03851851 20.835388 8.478799 3.353072e-05
0.0012615749 0.0 0.006884674 0.0006168648 0.0 0.09524499 0.05576384 1.5754937
45.392784 109.91926 0.006682593 0.008628565 0.0 0.013548613 0.0010975134 0.0
0.17053068 0.10811334 2.5882435 128.67389 242.8375 0.014971936 0.017797697 0.0
0.0021774382 0.00016879491 0.0 0.026200322 0.014803328 0.49661294 31.43672 40.31782
0.0016406532 0.0040387115 0.0 0.0033011802 0.00017399642 0.0 0.026632186 0.017641593
0.5591421 23.21658 64.839615 0.0031914804 0.003457507 0.0 4.7434496e-09 6.2152323e-13
0.0 5.696339e-11 5.067762e-09 1.524147e-07 5.6963396e-17 2.0544148e-06 3.9295007e-09 3.458228e-10
0.0 0.0006269881 4.9592665e-05 0.0 0.007898217 0.004785582 0.1308804 2.3086615
10.087401 0.0007976342 0.000587454 0.0 0.0072944374 0.0004075445 0.0 0.06311175
0.04799962 0.93668395 66.180435 136.538 0.008559267 0.007881641 0.0 0.0
0.0 0.0 0.0 0.0 0.0 0.0 0.0 0.0
0.0 0.0 0.0009887419 1.9051993e-05 0.0 0.0027524082 0.001182868 0.18822353
43.818195 7.2808747 0.0001945238 0.0038318965 0.0 0.0 0.0 0.0
00000000: a0e5 153b 68d0 f438 0000 0000 e331 9a3c
00000010: 95b5 183c fedd 0d3f 8719 f63e 89a3 1442
00000020: 42b3 de3a 95c9 d53a 0000 0000 8949 c439
00000030: 734b 1437 0000 0000 b8f8 b03a bf28 273a
00000040: aa13 953d 6a36 ac41 c48b 7640 96d4 9e38
00000050: 9e2b ce3a 0000 0000 7f6d 7139 7bae 3036
00000060: 0000 0000 0d3d ee39 edb2 ae39 6f3b 0d3d
00000070: 8796 c441 5f17 4141 546b 0138 9b79 5e3a
00000080: 0000 0000 c95c ee39 aaf2 b037 0000 0000
00000090: 0906 463b f04e 863a d803 f73d c16a 1d41
000000a0: daea 4e41 e82e a138 87ed 213a 0000 0000
000000b0: 4e82 073b 234f 3a39 0000 0000 f107 e93c
000000c0: 9db0 973c 4b68 bf3e e4b0 d741 8997 1442
000000d0: 0ae0 1f3b 6c90 8e3b 0000 0000 e15c 863c
000000e0: 953e 993a 0000 0000 eb9f 353e 6e4b f43d
000000f0: 0e8e 2c40 5b63 5c42 f6d4 9343 33c6 ad3c
00000100: 948e 5f3c 0000 0000 0000 0000 0000 0000
00000110: 0000 0000 0000 0000 0000 0000 0000 0000
00000120: 0000 0000 0000 0000 0000 0000 0000 0000
00000130: 0000 0000 e185 3039 0ff0 5335 0000 0000
00000140: 7df5 f038 e378 2439 b358 c33c 4579 8341
00000150: f39b e83f 6680 1d38 34b2 f139 0000 0000
00000160: 6812 0738 1476 bc34 0000 0000 9475 6e38
00000170: e5a8 7f37 083b bc3b 1915 9440 18de b13f
00000180: b872 a136 b4ac 6239 0000 0000 3348 3a3b
00000190: c3c6 0b39 0000 0000 ec7c 9c3c 856e 203c
000001a0: 85cf 1e3f aafc 0341 2596 5a42 b815 123b
000001b0: 6dda 1e3b 0000 0000 1fc3 b03b 9fe8 bd39
000001c0: 0000 0000 5650 663d 4cc8 1b3d 5dec 663f
000001d0: 58f2 3741 b2cd a942 5faa dc3b fb47 9d3b
000001e0: 0000 0000 a23d fa3b 190b 1d39 0000 0000
000001f0: 876d 953c 1d4b 183c 818c bd3f a759 c841
00000200: bdd3 a441 a01d 103c 069b 973b 0000 0000
00000210: 1d25 003b 3665 1139 0000 0000 14bf b43c
00000220: ec83 283c 0c8d 0f3f 8017 fb41 85cd 1f42
00000230: 8402 503a 26ee 643b 0000 0000 4ae6 7039
00000240: 24b5 8636 0000 0000 9477 313a eeff d039
00000250: 96c5 1d3d e0ae a641 29a9 0741 56a3 0c38
00000260: 6e5b a53a 0000 0000 d598 e13b 19b5 213a
00000270: 0000 0000 ce0f c33d a068 643d c7a9 c93f
00000280: 3692 3542 a9d6 db42 a7f9 da3b d35e 0d3c
00000290: 0000 0000 00fb 5d3c 70da 8f3a 0000 0000
000002a0: 989f 2e3e 876a dd3d c8a5 2540 84ac 0043
000002b0: 66d6 7243 da4c 753c 7acc 913c 0000 0000
000002c0: 5ab3 0e3b 8afe 3039 0000 0000 0fa2 d63c
000002d0: a889 723c 0d44 fe3e 677e fb41 7345 2142
000002e0: 300b d73a 2b57 843b 0000 0000 9d58 583b
000002f0: cf72 3639 0000 0000 be2b da3c 1a85 903c
00000300: f023 0f3f 8ebb b941 e2ad 8142 2828 513b
00000310: 5797 623b 0000 0000 d3fb a231 78f1 2e2b
00000320: 0000 0000 1387 7a2e 8220 ae31 6fa7 2334
00000330: 4159 8324 94de 0936 4104 8731 3b1e be2f
00000340: 0000 0000 765c 243a b801 5038 0000 0000
00000350: 8667 013c 5fd0 9c3b 8305 063e 1cc1 1340
00000360: ff65 2141 5318 513a 5fff 193a 0000 0000
00000370: 2d06 ef3b b2ab d539 0000 0000 bc40 813d
00000380: 409b 443d 85ca 6f3f 625c 8442 ba89 0843
00000390: 2b3c 0c3c 0022 013c 0000 0000 0000 0000
000003a0: 0000 0000 0000 0000 0000 0000 0000 0000
000003b0: 0000 0000 0000 0000 0000 0000 0000 0000
000003c0: 0000 0000 0000 0000 ac98 813a d8d1 9f37
000003d0: 0000 0000 bf61 343b 770a 9b3a abbd 403e
000003e0: d545 2f42 edfc e840 16f9 4b39 8e20 7b3b
000003f0: 0000 0000 0000 0000 0000 0000 0000 0000

exp_avg f4 [128]
0.020217985 -0.0044744993 0.014187463 0.005567973 0.04505527 -0.144613 0.0 -0.015207425
-0.0039320746 -0.037153147 0.058410995 -0.014834128 -0.010153552 0.0043924865 -0.04793524 -0.09874107
-0.024503503 0.04582007 -4.1721716e-05 -0.019819409 0.061588068 0.0 -0.012261381 0.0
0.14989257 0.011709077 -0.036412045 0.08070279 -0.036584124 -9.794042e-05 -0.023583906 -0.05200754
-0.092039295 -7.001072e-05 2.0568222e-19 0.0 -0.11089474 -0.052796986 -0.00010554791 0.0
0.03357728 -0.01563332 0.16890651 -0.095405236 0.01127655 0.0 -0.054789983 -7.89893e-05
-0.15555641 0.14149614 -0.0139991585 -0.08787758 -0.006798927 -0.016730666 0.0 -0.031187827
-5.5484475e-07 -0.083191454 -6.63263e-05 0.087179646 -0.052766 -0.000108993954 -0.086920425 0.00019108271
-9.4008516e-05 -0.09309196 -0.0076967827 -0.01473069 -0.004119595 0.20378838 -2.6670352e-05 -0.104247436
-0.019795593 -0.11390731 0.039158527 -0.018347705 0.0029464727 -0.00014212911 -3.0388159e-05 -7.798226e-05
0.0 0.05070723 -0.018604314 -4.502489e-05 -9.899302e-06 -0.07103051 0.24111924 0.0
-0.04544741 0.014880309 0.0 -0.1958901 -0.03540878 0.0 -5.2182363e-06 -2.8153206e-06
-0.09520438 -0.04714617 0.02553913 -0.0034900424 0.03928186 0.04650882 -8.2002865e-05 0.007339438
-0.10746365 0.0 0.0 0.0 -5.7518246e-06 -0.033876624 -0.06240966 -0.23790082
0.0 -0.08574702 0.007771143 0.0 -0.04803659 -0.011299692 -0.045561172 0.00350246
-0.06064171 0.008860422 0.014550978 0.06902833 0.0 -0.110962346 0.07938231 0.08199833
00000000: 30a0 a53c d29e 92bb 8872 683c 8b73 b63b
00000010: e08b 383d 6e15 14be 0000 0000 9028 79bc
00000020: a2d8 80bb e62d 18bd 5e40 6f3d d80a 73bc
00000030: 155b 26bc d9ee 8f3b be57 44bd c238 cabd
00000040: 92bb c8bc d3ad 3b3d 5afe 2eb8 505c a2bc
00000050: c543 7c3d 0000 0000 f6e3 48bc 0000 0000
00000060: 707d 193e 6ed7 3f3c cc24 15bd 8147 a53d
00000070: 3cd9 15bd 5d65 cdb8 0933 c1bc dc05 55bd
00000080: 197f bcbd b8d2 92b8 a3d3 7220 0000 0000
00000090: c81c e3bd a741 58bd 9a59 ddb8 0000 0000
000000a0: 5488 093d 7311 80bc d4f5 2c3e d263 c3bd
000000b0: 47c1 383c 0000 0000 766b 60bd 0fa7 a5b8
000000c0: 2e4a 1fbe 5de4 103e ba5c 65bc 29f9 b3bd
000000d0: 89c9 debb c00e 89bc 0000 0000 9d7d ffbc
000000e0: a4f0 14b5 4860 aabd a918 8bb8 3e8b b23d
000000f0: 2921 58bd af93 e4b8 5603 b2bd 605d 4839
00000100: 7026 c5b8 ffa6 bebd 4b35 fcbb fe58 71bc
00000110: abfd 86bb e7ad 503e 25ba dfb7 ae7f d5bd
00000120: 5e2a a2bc 3c48 e9bd b164 203d ed4d 96bc
00000130: 9c19 413b 7e08 15b9 13ea feb7 688a a3b8
00000140: 0000 0000 62b2 4f3d 1368 98bc 1cd9 3cb8
00000150: 2e15 26b7 7278 91bd f6e7 763e 0000 0000
00000160: 1027 3abd 8acc 733c 0000 0000 6a97 48be
00000170: cc08 11bd 0000 0000 4f18 afb6 d7ee 3cb6
00000180: 84fa c2bd 581c 41bd 7037 d13c 32b9 64bb
00000190: 04e6 203d 0880 3e3d f4f8 abb8 ab7f f03b
000001a0: e715 dcbd 0000 0000 0000 0000 0000 0000
000001b0: ccff c0b6 37c2 0abd 46a1 7fbd 469c 73be
000001c0: 0000 0000 229c afbd 13a5 fe3b 0000 0000
000001d0: 04c2 44bd 5822 39bc 5a9e 3abd 8789 653b
000001e0: 7163 78bd 4e2b 113c 3a67 6e3c ba5e 8d3d
000001f0: 0000 0000 3a40 e3bd 3193 a23d beee a73d

exp_avg_sq f4 [128]
0.0048527466 0.0006369059 0.0003019984 0.0010329098 0.0034449091 0.024407843 0.0 0.00020285268
5.172707e-05 0.0052186237 0.007840204 0.011622282 0.0047402433 0.00033598504 0.013956188 0.023316607
0.0044509904 0.00495774 4.9195052e-09 0.0011703293 0.008532784 0.0 0.0016579737 0.0
0.058774084 0.0006439697 0.0011910592 0.0071013668 0.015206335 4.442566e-09 0.00024041403 0.006530176
0.011511134 7.356278e-09 1.4434324e-08 0.0 0.056793842 0.0040692515 5.3972498e-09 0.0
0.0012657985 0.00026383778 0.03188227 0.008687758 0.001214467 0.0 0.0807471 1.0188874e-09
0.037317086 0.030095546 0.0018577721 0.015432331 0.0006102508 0.00039425268 0.0 0.00095010333
4.34143e-10 0.008792866 2.1959374e-09 0.012921014 0.008891308 5.0557953e-09 0.012919916 0.00089788996
2.9754745e-09 0.022390703 0.0022719284 0.0018280246 0.0016659958 0.14605877 3.5221996e-09 0.025496487
0.0019833073 0.023212567 0.0014435474 0.011752611 0.000111364585 8.65296e-09 1.6505117e-09 4.720705e-09
0.0 0.003603541 0.00082991086 3.6226713e-09 5.3305964e-11 0.008374333 0.2904333 0.0
0.030831875 0.0012310309 0.0 0.038152795 0.00452488 0.0 2.3496627e-09 1.7023044e-10
0.031582363 0.037620798 0.00093420985 0.00034271015 0.032586113 0.0024011177 3.0834137e-09 6.86199e-05
0.021005616 0.0 0.0 0.0 2.4939176e-10 0.0153555265 0.018291352 0.050303932
0.0 0.013527464 0.006809108 0.0 0.018745966 0.0023758942 0.109787315 2.8151344e-06
0.06625066 0.003216305 0.0011316779 0.004163505 0.0 0.028708512 0.036760688 0.016529158
00000000: ca03 9f3b 08f6 263a 8a55 9e39 b462 873a
00000010: fcc3 613b f5f2 c73c 0000 0000 dab4 5439
00000020: 85f5 5838 fd00 ab3b 3374 003c 626b 3e3c
00000030: 0b54 9b3b 2627 b039 7fa8 643c 7802 bf3c
00000040: 9dd9 913b 8a74 a23b 6d08 a931 bc65 993a
00000050: 17cd 0b3c 0000 0000 5e50 d93a 0000 0000
00000060: 18bd 703d 13d0 283a 511d 9c3a 95b2 e83b
00000070: fe23 793c 39a5 9831 a617 7c39 16fb d53b
00000080: 3299 3c3c 81c2 fc31 d4fa 7732 0000 0000
00000090: a9a0 683d 5b57 853b b672 b931 0000 0000
000000a0: 26e9 a53a b553 8a39 fc96 023d 1957 0e3c
000000b0: c02e 9f3a 0000 0000 bc5e a53d ea08 8c30
000000c0: cdd9 183d ef8a f63c 7d80 f33a e3d7 7c3c
000000d0: 3df9 1f3a b3b3 ce39 0000 0000 5b10 793a
000000e0: 32ac ee2f f40f 103c 57e7 1631 a9b2 533c
000000f0: d9ac 113c 3fb7 ad31 0eae 533c 6060 6b3a
00000100: 1a79 4c31 b56c b73c a2e4 143b 549a ef3a
00000110: 8b5d da3a 6e90 153e 310b 7231 02de d03c
00000120: 60fa 013b 4828 be3c 6a35 bd3a 068e 403c
00000130: 688c e938 1fa8 1432 38d8 e230 c333 a231
00000140: 0000 0000 6329 6c3b 608e 593a b5f2 7831
00000150: 2e71 6a2e 8034 093c acb3 943e 0000 0000
00000160: 2193 fc3c 8b5a a13a 0000 0000 1b46 1c3d
00000170: 7245 943b 0000 0000 b477 2131 9c2b 3b2f
00000180: 825c 013d 4418 1a3d c3e5 743a c7ad b339
00000190: 0479 053d 125c 1d3b fde3 5331 07e8 8f38
000001a0: f813 ac3c 0000 0000 0000 0000 0000 0000
000001b0: c51a 892f bf95 7b3c bfd7 953c 7f0b 4e3d
000001c0: 0000 0000 4ca2 5d3c f01e df3b 0000 0000
000001d0: 2491 993c e4b4 1b3b 2cd8 e03d a4eb 3c36
000001e0: 6dae 873d a5c8 523b cf54 943a 036e 883b
000001f0: 0000 0000 1d2e eb3c 6092 163d 2868 873c
