models/cache_agent/4/D3QN_q_eval.pth (torch, 238173 bytes, 21 tensors)

weight f4 [128, 15]
00000000: dcec 08c0 c08d c6be 1c0e 1cc0 74d8 92c0
00000010: fd75 2d3f aa64 0c3f 8e5b e13e 54fd 893f
00000020: 93b4 4340 e6f7 33be 0f03 1f3f 8ee5 eabe
00000030: 8fbc a23f c5fb 24bf a0e8 233d 13ac 00c0
00000040: ed60 c8be 5d37 20c0 a8e5 9ec0 b625 c83e
00000050: 36c7 093f e1ef 1fbf c49c 863f b2cf 5f40
00000060: 8c3f 86bd b164 8f3f 32ab 643e c4e2 8a3f
00000070: f8d7 93be e346 603d 4311 d9bf 96b6 15be
00000080: 1736 2bc0 8113 aac0 b146 b73c b6f2 c83e
00000090: 343b 81be a277 3c3f 9938 5140 e779 7abe
000000a0: 86b2 843f a5ca d5be 1752 563f 46e5 02bf
000000b0: 733d 323e 0350 09c0 a8fc 6abf 57aa 32c0
000000c0: 52ab abc0 a872 b33e c07a 6cbd 7e3c 14bf
000000d0: 0b66 323f df50 5a40 76c0 4d3e 13ea aa3e
000000e0: e4da 3c3e eb19 543f 8afe ebbe 3a54 8d3d
000000f0: 1be4 1a40 b942 ac3f a6fd 4d40 626f b940
00000100: 8db3 17be f25b d93c b554 253f 305c 953e
00000110: d9b2 13c0 f341 71be 6fac 353e c690 a13c
00000120: 16d2 093f 4e42 133f a856 22bc 6aa7 f5bf
00000130: e44e f0be 62dd 30c0 bcdb a0c0 132d c93e
00000140: 380b ee3e 8796 ffbe c064 903f dfe8 6b40
00000150: 9aad 22be 5ee1 573f 87eb d83c 2178 6e3f
00000160: 349d 97be e6c5 3e3d 5d18 d4bf 3d4c 8a3c
00000170: d0cd 07c0 03fb 90c0 388d 00be fce4 3c3f
00000180: 87bb ab3e b55b ac3f af30 2f40 a2b4 683e
00000190: 01f9 bb3f 246c 3f3d 8a56 dd3f 06b1 babe
000001a0: 5ff1 1d3f 239e ecbf f640 b6be f87d 3cc0
000001b0: 461d acc0 e3e4 c03e 93ac be3d 5240 33bf
000001c0: 89a3 893f 38b4 7940 38d2 2abe 4ea8 493f
000001d0: 3f73 c13c e47f 573f 6a71 1fbf c62b c43c
000001e0: d69c f7bf 9797 02bf 61bf 2cc0 456a a8c0
000001f0: f475 e83e 2b56 9d3d a7d5 75be dd99 9d3f
00000200: 0b0f 6840 30cb 393e 54f2 803f d1ca b83b
00000210: 566f 863f 0da6 0cbf eb40 023e fe50 f5bf
00000220: dccc 37bf 0ed6 12c0 b2ba a5c0 58a4 603d
00000230: ec06 183f 94e2 7ebd c19c 233f 3325 3e40
00000240: 44b4 8d3d 42db 123f 0395 04be 413b 293f
00000250: 6b31 99be c183 b33e 453f 1b40 7602 bd3f
00000260: 2feb 2740 3608 9740 a5de 93bf 3182 963e
00000270: e720 a43e 19b2 2abe b134 fcbf cc6d ae3d
00000280: 2549 323e 25fc c5be 7f20 76be e4fb 203f
00000290: d18a 473d ac73 26c0 468a d4be a278 71bf
000002a0: 5d03 74c0 8dbb ddbf de7b 0a40 a00f 02be
000002b0: c25f 6c3f 817b 633f 0891 ccbd 1b96 ff3e
000002c0: 0f47 ec3d 02eb 3e3f 7e67 e9be 4f7c 5d3f
000002d0: 7fcf 06c0 2d5e efbe 5498 1ec0 ac0b 9bc0
000002e0: 5a0b ba3d 6e52 bf3e 501b 7dbe a0d2 523f
000002f0: 1f29 4540 7064 8c3c bf69 933f 0b45 1d3d
00000300: 1754 853f f080 dfbe 4efc 873e dbde bc3e
00000310: 7ba4 2d3f 78da a0be 28a0 c83f b00f 4ebf
00000320: 5923 b5bd db08 1d3f 1444 f3be 2d08 f3bf
00000330: 4f98 4bbe 3ade adbe 120b 5d3e 833f 97bd
00000340: bf09 493d 2adf 77be 703a e7bf a446 abbe
00000350: 9214 3ac0 e3d0 a7c0 ea9d f83e 982e d93e
00000360: a3b7 9bbe 9df5 833f fb48 5640 1e6a 6f3e
00000370: 35c1 583f 3770 65bd bff6 913f ffd6 f9bd
00000380: 7edc a73d d071 763e a8a8 54bd b479 03be
00000390: 428f 47be 209e 463c a1f7 813e 2c23 78be
000003a0: c4b2 48bd 208b 57be 748c 56be b8b3 043d
000003b0: 6f59 61be 4c6e 0fbd 6ece 53be f0e6 43bd
000003c0: d277 f3bf 4998 11bf d727 26c0 7fc7 9dc0
000003d0: a6fe fe3e ad2c a93e 3061 e1be c8af 8e3f
000003e0: 639f 5e40 b4e9 ca3d 7bb6 513f 0827 6f3e
000003f0: 129a 973f e1d2 23bf 6a99 6d3e 63eb 113f
-2.1394567 -0.38780022 -2.4383612 -4.5889225 0.6775816 0.548411 0.44015163 1.0780435
3.0578964 -0.17575034 0.6211404 -0.4587826 1.2713794 -0.6444667 0.04001677 -2.0105026
-0.39136449 -2.503379 -4.965534 0.3909127 0.53819597 -0.624754 1.0516591 3.4970517
-0.06555089 1.1202604 0.22330931 1.0850453 -0.2887571 0.054755103 -1.6958393 -0.14620432
-2.6751764 -5.314881 0.022372575 0.39247674 -0.2524048 0.73620045 3.2690794 -0.24460565
1.0366981 -0.41756168 0.8371901 -0.51131094 0.17406254 -2.1455085 -0.9179177 -2.7916467
-5.364663 0.35048413 -0.05773425 -0.57904804 0.69686955 3.411186 0.2009295 0.3338171
0.18442875 0.8285205 -0.46092635 0.069008306 2.4201725 1.3457862 3.2186065 5.7948465
-0.14814587 0.0265331 0.6458238 0.29171896 -2.307791 -0.23560314 0.1774156 0.019722354
0.5383619 0.5752305 -0.009908356 -1.9191716 -0.4693519 -2.7635121 -5.026823 0.392922
0.46492934 -0.4991953 1.1280746 3.6860883 -0.15886536 0.8432826 0.026479496 0.9315205
-0.29612124 0.04657545 -1.6569935 0.016882056 -2.1219368 -4.530641 -0.1255387 0.737869
0.3354151 1.3465487 2.7373464 0.22725156 1.4685365 0.04673399 1.7292035 -0.36463183
0.6169643 -1.848576 -0.35596436 -2.9451885 -5.3785734 0.37674627 0.0931026 -0.7002002
1.0753032 3.9016247 -0.16681755 0.7877244 0.023614524 0.8417952 -0.6228243 0.023946654
-1.9344738 -0.5101256 -2.6991808 -5.2629724 0.4540249 0.07682451 -0.24007283 1.231258
3.6259181 0.18143916 1.0073953 0.005639412 1.0502727 -0.54940873 0.12720077 -1.9165342
-0.71796966 -2.2943149 -5.17904 0.05484423 0.5938556 -0.0622278 0.6391106 2.9710205
0.069191486 0.5736581 -0.12947468 0.6610604 -0.29920515 0.35061458 2.4257367 1.4766376
2.6237295 4.7197523 -1.1552321 0.29396203 0.32056352 -0.16669501 -1.970358 0.08517036
0.17410715 -0.38668934 -0.24035834 0.62884355 0.04871637 -2.60081 -0.41511744 -0.94324696
-3.8127053 -1.7322861 2.1638103 -0.12701273 0.92333615 0.88860327 -0.099886 0.4991921
0.11536991 0.74577343 -0.4558677 0.86517805 -2.1064146 -0.46751538 -2.4780474 -4.845175
0.090841964 0.37367576 -0.2471745 0.8235264 3.0806348 0.017137736 1.1516646 0.038395923
1.0416287 -0.4365306 0.2655968 0.36888775 0.678291 -0.31416678 1.5673876 -0.8049269
-0.08844633 0.6134164 -0.47512877 -1.898687 -0.1988232 -0.33958608 0.21586254 -0.07385161
0.04908156 -0.24206224 -1.8064709 -0.33452332 -2.9075055 -5.244249 0.4855798 0.4241836
-0.3041354 1.030933 3.3482044 0.23380324 0.8466981 -0.05601522 1.1403426 -0.121992104
0.081963524 0.24066854 -0.051918656 -0.12839395 -0.19488242 0.012122661 0.25384238 -0.24232167
-0.04899861 -0.21049166 -0.20952016 0.032397956 -0.22006772 -0.035017297 -0.20684215 -0.04782766
-1.9020941 -0.56872994 -2.5961816 -4.9306026 0.49803656 0.33041897 -0.4401946 1.1147394
3.4784782 0.099078566 0.8191907 0.23354733 1.1843894 -0.6399365 0.23203054 0.56999797

bias f4 [128]
00000000: 5879 f13f 538b f23f 8dff d23f 2a12 be3f
00000010: 3b37 28bf bdea e83f b713 0940 b082 fe3f
00000020: a456 e83f c7ba e33f 3a20 6fbf de4f a33f
00000030: 2e1a e63f 2215 23bf 5e8f f53f 40b6 4d3e
00000040: 85f2 ea3f 3dd1 39bf bb7d e83f 15d7 523f
00000050: 46e8 0440 6dea 2c3d b5ef 0840 a3b2 12c0
00000060: 309e 0840 1765 363f a46f 12be c57b 8cbe
00000070: 2b9a 51bf e05e 0640 102e 2abe b8f8 e6bc
00000080: 0778 923f e418 0140 3e08 f93f 4cdb 0940
00000090: 9927 1340 d9a9 863f 5fde f23f e247 6e3f
000000a0: 31cf 0340 dad5 f73f 2f1c 843e 405e efbf
000000b0: 242b d43f 813b d53f 9287 3ebf c928 b7bd
000000c0: 1861 cd3d 38d2 0240 f837 523d 9dcf 88be
000000d0: 4beb 0040 3fbe 0140 0d40 0340 2087 d13f
000000e0: 8c6c af3f 8710 c63f ca4b 0640 9180 39bf
000000f0: 1a7c d5be 62ae 0640 f9a8 ef3f ad40 c53f
00000100: 2c78 1e3f c4eb 7dbd 7a46 09bf d99b 2e3e
00000110: 54a1 19be 085c eebf d1be 943f f440 5fbe
00000120: 7bfe 7abe bee8 eb3f 0d2e 923f 3a97 0ec0
00000130: 5944 1440 c374 09c0 c5e8 f23f ea41 d93f
00000140: abd6 9d3d 4151 d13f 6695 813f 3db8 f83f
00000150: aa4d 633e b880 64be 43f4 6d3d a2a9 0d40
00000160: 2cce d23f ccc4 d53f ed02 b83f 899c ce3f
00000170: 54e0 e53f 190b c4bf 41e2 3cbe d8b8 86bf
00000180: b735 b53f c667 9c3e c00b a5bb d445 e83f
00000190: 75c1 e03f 42cf da3f e87e 0440 b650 05be
000001a0: 7f44 e83f 4dae fd3f 4fa7 0fc0 2708 2ebf
000001b0: dff1 ba3f 805f 2f3b 69b6 19bf e681 dc3f
000001c0: ab5a 1140 7b70 d43f 8851 f63d 98ac eb3f
000001d0: fdc0 ce3f 5317 0340 d4fe 193e 2cff 443e
000001e0: b568 4fbf 1d85 e83f 6d24 8bbf 1d6f 78be
000001f0: b824 f0bf 9fec 3dbf a7f4 dc3f 9408 ea3f
1.8865156 1.8948768 1.6484238 1.4849293 -0.65709275 1.8196636 2.1418283 1.9883633
1.8151441 1.7791375 -0.9340855 1.2758749 1.797674 -0.6370412 1.9184377 0.20089054
1.8355261 -0.725849 1.816337 0.8235944 2.0766768 0.042215753 2.1396306 -2.2921531
2.134655 0.71248 -0.143004 -0.2743818 -0.81875867 2.0995407 -0.16619134 -0.02819477
1.144288 2.0171442 1.945564 2.1540098 2.2992918 1.0520583 1.8974112 0.93078434
2.059521 1.9362137 0.25802752 -1.8700638 1.6575665 1.6658784 -0.74425614 -0.08943326
0.10028285 2.0440807 0.051322907 -0.26720896 2.0143611 2.0272367 2.0507843 1.6369362
1.3705001 1.5473794 2.0983758 -0.724618 -0.41696244 2.1043935 1.8723441 1.5410362
0.6190212 -0.06199242 -0.53623164 0.17051639 -0.15002948 -1.8621836 1.1620733 -0.21802121
-0.24511139 1.8430402 1.1420304 -2.2279801 2.3166716 -2.1477516 1.8977286 1.697324
0.0770696 1.6352922 1.0123718 1.9431225 0.22197595 -0.22314727 0.058094274 2.2134786
1.6469169 1.6700683 1.4375893 1.6141521 1.7959085 -1.5315887 -0.18445684 -1.052516
1.4157017 0.30547923 -0.005036801 1.814631 1.7559038 1.70945 2.0702457 -0.1301907
1.8145903 1.9818817 -2.2445867 -0.6798119 1.4605063 0.0026759803 -0.6004396 1.7227142
2.271159 1.6596826 0.120272696 1.8412046 1.6152645 2.0482986 0.15038615 0.19237965
-0.81019145 1.8165623 -1.0870491 -0.24261136 -1.8761206 -0.7418918 1.7262162 1.8283868

weight f4 [128, 128]
00000000: 29a5 62bd c997 223d bda2 afbd 6145 dcba
00000010: 25d3 8a3d ab27 553d d8fa 603d 7620 a3bd
00000020: 4499 ccbc 1ac4 9d3c 4490 883c 2e4c 253d
00000030: a0c0 84bd 6a87 d23c 05c0 9dbd 0050 c038
00000040: d9ce 95bd c1c8 9dbd 6e2d 0bbc c0a2 80bb
00000050: 322f b0bc 9bd5 8b3a 556a 8e3d 24c4 383d
00000060: 7207 783d 6a0c 1b3d 52f0 793d f39e 88bd
00000070: d43d 973c e92e 843d 5697 6b3d 08b4 10bc
00000080: 05f4 563d 8156 6a3d 17d6 6f3d 6a5c bc3c
00000090: d0a8 c83c 56e8 893d 4078 febc 726b a63c
000000a0: 68d3 59bb 969f 96bd d0ff 173c 1df7 473d
000000b0: fc9c adbd 297a b1bd 8167 033b 5af1 423d
000000c0: 71c8 a1bd a685 623d 06d3 8ebd 40aa 043c
000000d0: 9a9a 3dbd ae34 9ebd e518 8c3d 2a70 d63b
000000e0: 2fc4 3c3a 6c92 14bc 303c 493d 806a 59bd
000000f0: 363e 95bd 7c3e 24bc c626 84bd 7e02 993b
00000100: d6fd 91bc 7232 66bd 21db 28bd 08d4 7dbd
00000110: 0824 6bbd bb9a 523d 009d 9fbd c0e3 383b
00000120: 1739 0fbd a27a 8bbd dea4 fcbc cac7 583b
00000130: 61af 92bd b2eb d6bd 72df 093d 4509 753d
00000140: c0ea 9e3c eab7 b33c 306e 0d3d 84ef a6bc
00000150: 8054 c73c 0f64 883d 010c 993d 90d2 87bd
00000160: 4118 55bd 4db5 803d 584f 7a3d f1ce 94bd
00000170: 6cab 583b 9669 2cbd cad1 7dbd c598 78bd
00000180: e0a6 49bb e83e f83c 601b 8dbb 941d 233d
00000190: 27f7 a7bd 4754 14bd 96de 533d 5596 b2bd
000001a0: d2cb 18bd b941 373c 00e9 9abc 6be3 24bd
000001b0: 0f1d 6f3d 525e 5a3d 2267 6f3c 5f98 9dbd
000001c0: ba58 34bc 5aea 853d 29f0 2bbd 829f 59bd
000001d0: da9f 9ebd d082 77bd 34ce 6c3d 7a33 efbb
000001e0: 842c be3c abfb b7bd ef79 acbd 53a8 9dbd
000001f0: 8064 f53c 1ec7 c3bd 6d97 9e3c 0cf5 b4bd
00000200: 52a5 17bf f033 e8bd f6d0 5abe ebf9 17bd
00000210: 344e 2a40 5f72 6abe 45c5 0b3e 1623 9abe
00000220: 6b53 2d3c 036d 153e 6c5e c63f 6e18 5b3e
00000230: 7d43 953d e646 a53d be65 51be b73e 58bd
00000240: 3742 c03d c8c5 2bbe d943 23bf 2287 a6bf
00000250: 63e9 b1be 4c16 673e 0198 7abe 80e5 213f
00000260: 4352 54be b863 97bf e89e 32bc b6e7 e8bd
00000270: 53c6 dc3f 39ee 383e bec4 93bd bd8a 823d
00000280: 8bd2 d7be 2ceb ad3d 2e86 95bf 154d 7e3c
00000290: 0d01 02bf 2f53 eabe 8cec 50be 881e 1ebf
000002a0: 499d 99bd 3dc5 89bf 3dc4 823d 4951 013f
000002b0: 2084 2a3e 787f 92be b4b7 adbd 19ca 813b
000002c0: 5221 193d 8a9f bbbe c9d7 4dbd c8b8 88bd
000002d0: 1c43 033d 00b1 d93d 4194 2abf f3e7 313d
000002e0: af7d 03be c79a 573d 6fde 73be 8b2f c63c
000002f0: 5c9c 983b 0ba0 edbe 94d7 4e3e f501 a4bd
00000300: 7eac bbbe 36d0 133d 9372 a63c f845 efbe
00000310: f287 593d dd88 003f a4c2 8ebf 62ea d6bc
00000320: 72e0 3640 6330 4abf dfda 58bf 55b2 133f
00000330: 1b6b e1be 9423 453f 5187 f6be b638 613b
00000340: e004 5cbd 0f77 b43a c63c b2bf 404f f2bd
00000350: 5243 293d 7095 8f3b 6e38 7ebe f74b 6dbe
00000360: 9e67 b4be 654f 7e3d 3526 3e3e b75f 0b3e
00000370: 20b2 1abf ec35 ab3e 988b 64bd 9685 d63f
00000380: 80aa 21bf c108 febe a235 43bd bd47 8ebe
00000390: e5ed c0bd a3ba 62bd bb54 9fbe 16f6 683d
000003a0: 8f0a c43d fd72 d83d 6a17 133f 44cd 2940
000003b0: 7742 72bf ccb2 89bc 5723 b13f fa5f 063e
000003c0: d893 e9be 748a 8cbe 1713 9f3d 1823 943d
000003d0: ceb8 513d c8da 23be 45fe 3e40 abf1 1b3e
000003e0: e6ba 0340 6f43 13bf b72e 3bbb 2272 3840
000003f0: feac e83e 0ea9 343b 3b99 33be bfc3 8a3d
-0.05533329 0.039695535 -0.08575962 -0.0016805344 0.06778554 0.052039783 0.054926723 -0.07965176
-0.024975426 0.019258548 0.016670354 0.040355854 -0.06482053 0.025699336 -0.077026404 9.1701746e-05
-0.07314844 -0.077043064 -0.008494718 -0.0039256513 -0.02150688 0.0010668518 0.06953875 0.04510893
0.060553975 0.037853636 0.061020203 -0.06670942 0.0184621 0.0645426 0.057517372 -0.008831985
0.05247881 0.057211403 0.05855378 0.022993285 0.024494559 0.06733768 -0.031063199 0.020314906
-0.003323758 -0.07354657 0.009277299 0.04881965 -0.08477208 -0.08665878 0.0020050707 0.047593452
-0.07899559 0.05530324 -0.06973843 0.008097231 -0.046290018 -0.077248916 0.06840686 0.0065441327
0.00072008645 -0.009068113 0.049129665 -0.053080082 -0.072872564 -0.010024663 -0.06452708 0.0046694865
-0.017821234 -0.056200452 -0.041224603 -0.061969787 -0.05740741 0.051417094 -0.07793617 0.0028211921
-0.034966554 -0.068105 -0.030840334 0.0033078068 -0.07162357 -0.10494174 0.03366036 0.059823293
0.019399047 0.021938283 0.03452891 -0.020377882 0.024332285 0.0665971 0.07472993 -0.066319585
-0.052025083 0.062845804 0.061110824 -0.072660334 0.003306116 -0.042092882 -0.06196765 -0.060692567
-0.0030769631 0.030303434 -0.004306242 0.03982313 -0.082014374 -0.036213186 0.051725946 -0.0872008
-0.037303753 0.011185103 -0.018909931 -0.040255945 0.05837732 0.053312607 0.014611991 -0.07695078
-0.011007482 0.0653884 -0.04197708 -0.053130634 -0.07745333 -0.060427487 0.057813838 -0.0072998377
0.023214586 -0.08983549 -0.084216945 -0.07698121 0.029955149 -0.09559463 0.019359315 -0.088358015
-0.59236634 -0.11338031 -0.21368775 -0.037103575 2.6610231 -0.22895192 0.13649471 -0.30104893
0.01057897 0.14592366 1.5497565 0.21396038 0.07288263 0.080701634 -0.20448968 -0.052794185
0.093876295 -0.16774666 -0.637754 -1.3009989 -0.34748372 0.225671 -0.24472047 0.63240814
-0.20734505 -1.1827307 -0.010902144 -0.1137232 1.7248024 0.18059625 -0.0721526 0.063741185
-0.4215282 0.08492121 -1.1681573 0.0155213075 -0.50782853 -0.4576659 -0.20402735 -0.61765337
-0.07500703 -1.0763317 0.06385086 0.50514656 0.16651964 -0.28612876 -0.08482304 0.0039608595
0.037385292 -0.36645156 -0.050254617 -0.06675869 0.032046422 0.10629463 -0.6663247 0.043434095
-0.12840913 0.05263784 -0.2381532 0.024192592 0.0046573114 -0.46411166 0.20199424 -0.08008186
-0.3665504 0.036087237 0.020318305 -0.4673307 0.053108163 0.50208837 -1.115315 -0.02623481
2.857449 -0.7898008 -0.8470897 0.5769399 -0.44027027 0.7700741 -0.48150113 0.0034366078
-0.053715587 0.0013768392 -1.3924797 -0.11831522 0.041323967 0.004381828 -0.24826214 -0.2317351
-0.35235304 0.062087435 0.18569262 0.13610731 -0.6042805 0.33439577 -0.05579719 1.6759517
-0.6315079 -0.49616054 -0.04765857 -0.27789107 -0.09420375 -0.055353772 -0.31119332 0.05687531
0.095723264 0.10568807 0.574576 2.6531534 -0.9463267 -0.01680889 1.383891 0.1312255
-0.45620608 -0.2744938 0.07767313 0.07233256 0.051201634 -0.16001427 2.9842694 0.15228908
2.0582824 -0.5752477 -0.002856178 2.881966 0.45444483 0.0027566585 -0.17538922 0.06775617

bias f4 [128]
00000000: 0282 263d f0e4 72bf 8798 3ebf 2ea8 b9bc
00000010: 9d4b 5dbc f672 c93f f7a8 c73f ead3 d23f
00000020: 60f4 8fbf 8047 c83a 1e33 5bbf b892 83be
00000030: 790e 213d 35df cb3f 0f19 cf3f 10aa c43f
00000040: dbc2 c13f e574 d23f 0526 cd3f 5c8a b7bd
00000050: be7c 743e a1a2 3bbf 888f abbf c4b6 a03d
00000060: b7f1 cd3f eda3 18bd 1465 bd3f 2138 01bd
00000070: 7319 e03d 828e 5c3d e908 98bf c3c1 72bf
00000080: 1303 2dbd de47 7fbd 285b 5dbd d7c1 9fbf
00000090: c1c9 883d 070a cf3f 1b4b 4dbe aa2e 9a3d
000000a0: b5ff d13f a56b 363d 3c95 84bc 3823 d63f
000000b0: 97ef 7c3d 48b8 c3bc 3e86 4e3e 194d ac3d
000000c0: e8f3 74bc 69c8 85bf 5add 7fbf f0a7 e53f
000000d0: 51a5 d53f 0793 c83f f43b 95bd 3357 d4bb
000000e0: 64ff 68bf 1a1f b9bd 4018 5fbc fd72 4dbf
000000f0: af37 9abd ecc5 dc3f 8ab3 753d fbb5 dc3f
00000100: ba82 c23f 83be d53f 413d a83c 9db0 ae3c
00000110: 17b6 dd3f 6c05 053e 9331 54bf 0f91 25bd
00000120: 4f64 2fbf e1eb bdbd a2c4 64be 2ec1 9fbd
00000130: 8646 a2bd bb11 2cbc db05 d83f 5819 37bd
00000140: 5ab7 a7bd bce7 c73f 63f1 cc3f 68fb 0bbf
00000150: 5906 15bf 7c88 8bbd b737 943f 5ee4 a2bf
00000160: e6d0 54bf 4c71 14bd 3c0e 88bd bcad ecbd
00000170: 657d 0ebf ab00 ce3f 5a17 8fbd 94aa 5fbf
00000180: 0b6c 483d 1f95 c33f 46d1 0d3d d438 db3f
00000190: d63a ce3f 85a8 d13c d88d 1bbf bfea 833d
000001a0: 4310 09bd 2c8a 26bf 3436 d73f c282 a7bc
000001b0: 00f7 d03f 1abe 84bd bd68 cc3f 67f9 88bd
000001c0: 2d03 02bc d4bf 943d ae93 cd3f 279d c83f
000001d0: 217b 9fbd 9cf8 c33f 53e1 bf3f 6c64 cc3f
000001e0: 7192 d63e 8c43 a63c e932 b0bc 350e 8bbf
000001f0: 98c6 02bd e776 8d3d 9c87 1ebd 2724 33bf
0.04065133 -0.9488058 -0.7445149 -0.022663202 -0.013506797 1.5738208 1.5598439 1.6470921
-1.1246452 0.0015280098 -0.85624874 -0.25697875 0.039320443 1.5927492 1.6179522 1.5364399
1.513759 1.6441923 1.6027228 -0.08961937 0.2387571 -0.73295027 -1.3403177 0.0784736
1.608939 -0.037265707 1.4796472 -0.03154767 0.10942354 0.053846844 -1.1877719 -0.94826907
-0.04223926 -0.062324397 -0.05404201 -1.248103 0.066791065 1.6174935 -0.20048182 0.07528432
1.640616 0.04453625 -0.016184442 1.6729498 0.06175193 -0.023891583 0.20168397 0.08413143
-0.01495073 -1.0451785 -0.9994713 1.7941875 1.6691076 1.5669869 -0.07286826 -0.0064801215
-0.91014695 -0.09039135 -0.0136166215 -0.80253583 -0.07530152 1.7247901 0.059985675 1.7243036
1.5196145 1.6698765 0.02053702 0.02132445 1.7321194 0.1299035 -0.82888144 -0.04042154
-0.68512434 -0.09273506 -0.22340634 -0.07800518 -0.079236075 -0.010502274 1.6876787 -0.044701904
-0.081892684 1.5617595 1.6011165 -0.5468049 -0.5821281 -0.06813142 1.1579503 -1.2725942
-0.83131254 -0.03624086 -0.0664334 -0.11556575 -0.55660087 1.6093954 -0.06986876 -0.87369657
0.048931163 1.5279883 0.034623407 1.7126718 1.6111705 0.025593052 -0.6076331 0.06441259
-0.033462774 -0.65054584 1.6813416 -0.020448092 1.6325378 -0.064815715 1.5969464 -0.06688195
-0.0079353275 0.07263151 1.6060693 1.5672959 -0.07787157 1.5310245 1.4990638 1.5968146
0.419086 0.02029588 -0.02150865 -1.0863711 -0.031927675 0.069074444 -0.038703546 -0.6997704

weight f4 [1, 128]
00000000: bac4 97bd bb43 94bf bcc4 c7be ccb1 a7bb
00000010: b27b 6abd 7331 793f 8578 7d3f 36c5 bf3f
00000020: 1c68 b4bf 5488 e83c 5edc a8bf 644b 36be
00000030: a515 dbbd 87d6 b13f 4868 8a3f a351 1d3f
00000040: 5a36 863f c2da a53f 6f10 a63f 4347 79bd
00000050: 4508 2ebd 842f 02c0 5227 81bf 443b 36bd
00000060: ae97 863f 697f 07bd a2e8 6a3f 2475 81bd
00000070: 69bc 81be 0a29 18bc ae6e 69bf 7db8 0fbf
00000080: 412a a2bd 3aaf 19bd 34aa 723d c274 98bf
00000090: 7631 2b3d ff20 7a3f 9653 94be d08c f1bc
000000a0: ae47 9e3f c5f4 a2bd 4839 68bc 6252 823f
000000b0: 6544 21bd a8d9 16bc b87a 6bbe 480b 963c
000000c0: 137a 843d 321d 9cbf 8b43 bdbf 165e 8c3f
000000d0: 6ccf be3f efaf a73f e12c 61bd 7fd7 013d
000000e0: f9ca 06bf 5488 d0bc ca6a 663d 8cd9 0cbf
000000f0: 4e60 a6bd 1052 b33f 39a6 06bd 72f0 ad3f
00000100: 51ea 843f 3d08 0e40 d1e2 863b 615a be3b
00000110: f398 c93f 6342 ddbd 7cdf 78bf cb21 1f3d
00000120: 94a2 0ec0 54db 86bd 2f1f 8d3d cd20 d2bb
00000130: e235 3f3c 9aaf 5dbd d73b 993f 8a33 84bd
00000140: 7139 dfbb a97b 7d3f 6c33 873f 4923 16c0
00000150: d223 1ec0 d4fa 51bd 89eb 0540 746c 95bf
00000160: ef66 e6be a7b9 4fbd 29dd 92bd bba2 1ebc
00000170: d0b8 0cc0 15d9 b53f e76b a43d 7ff2 2dbf
00000180: 9d0b dfbc de8a 8c3f 9858 603d 237c b13f
00000190: ac96 703f 13ac 56bd dc31 27c0 c80b 8ebc
000001a0: ad64 59bd 1b6b 0dc0 2299 8a3f cf96 a0bd
000001b0: fbc4 763f ff82 5abd cb5f 833f f5c0 863d
000001c0: ba45 41bd e55e eabc 535a 803f 0010 833f
000001d0: ccaa 65bd f025 7b3f 9f5c 8d3f 8265 853f
000001e0: 73ae 0abd e1b2 01c0 24fa 8cbd 95c6 85bf
000001f0: a22b 95bb 720e 5a3d 38a6 7fbc 3c5e 08c0
-0.074105695 -1.158317 -0.39017284 -0.0051176306 -0.05724687 0.9734108 0.99012023 1.4982059
-1.4094272 0.028385319 -1.3192251 -0.17802197 -0.10697488 1.3893594 1.0813074 0.6145269
1.0485337 1.2957385 1.2973765 -0.060858976 -0.042488355 -2.0341501 -1.0090125 -0.044490114
1.0515039 -0.033080492 0.9176122 -0.06321171 -0.25339058 -0.009287128 -0.9118451 -0.5614088
-0.079182155 -0.037520625 0.05924435 -1.1910632 0.041795217 0.977066 -0.2897002 -0.02948609
1.2365625 -0.07956842 -0.014173813 1.0181391 -0.039371867 -0.009207167 -0.22996032 0.018315926
0.06468596 -1.219641 -1.4786237 1.0966213 1.490705 1.3100566 -0.05497444 0.031699654
-0.5265346 -0.025455631 0.056254186 -0.5501945 -0.081238374 1.4009418 -0.032873366 1.3589003
1.0384008 2.2192528 0.004116394 0.005809114 1.5749801 -0.10803678 -0.9721601 0.038850587
-2.228673 -0.06584802 0.068907134 -0.0064126016 0.0116705615 -0.054122545 1.1971387 -0.06455143
-0.0068122675 0.99016815 1.0562568 -2.3459036 -2.4709363 -0.0512646 2.092501 -1.1673722
-0.45000407 -0.05071416 -0.07171089 -0.009682353 -2.19878 1.4206873 0.08028393 -0.67948145
-0.027227217 1.0979879 0.05477199 1.3866009 0.9397991 -0.052410197 -2.6124182 -0.017339602
-0.053074528 -2.2096622 1.0827982 -0.078412645 0.9639432 -0.053347584 1.0263609 0.065797724
-0.047185637 -0.028609702 1.0027565 1.0239258 -0.056071088 0.98104763 1.1043891 1.0421603
-0.033857774 -2.026543 -0.06883648 -1.0451227 -0.0045523206 0.053236432 -0.0156035945 -2.1307516

weight f4 [4, 128]
00000000: 39cd 503d 6067 92be 050b 9ebd 0641 6e3d
00000010: 81f1 423d 6fa9 a43d 609c 5a3d 3c87 9dbd
00000020: 72cf 8a3e 62c9 17bd d211 4ebd b805 22bc
00000030: bbdd b93c 4086 debc a429 213c 2ad7 cdbd
00000040: f561 82bd ad77 5e3d 2355 7f3d ea02 e6bc
00000050: 0328 abbd 49a7 553e 95b9 8b3d 3876 89bc
00000060: e088 7b3b 9bd5 92bd 57b8 783d 1ddb c8bc
00000070: 15cb 5a3d 82ee c7bc b304 683d 608e a0bd
00000080: c98b fe3c ef54 a8bd 9cee a1bc c033 9d3d
00000090: d8ab 3cbc 0a9e 163d b1a3 ac3e ae59 cdba
000000a0: 440c 2dbd 76d2 69bd 9893 68bd c03a aa3c
000000b0: f0a1 8cbc 67d1 0fbd 6a07 463e c0a7 aabd
000000c0: e8e5 fc3c b932 b13d 236d 393c 2058 f13d
000000d0: 8b6d 5abd 9c19 533d 6e87 2c3d 8d10 c3bc
000000e0: 770d 78bd c147 a03d 0851 e73c 3db1 02be
000000f0: 1ed2 603d c48d aebd 1f14 103d 3e83 503d
00000100: 59e5 65bb f644 55bd 0624 ee3c b218 babd
00000110: aadc efbd 60ed bcbd 341b 33be 8e88 aabb
00000120: f1b9 233e 3764 bcbc c9e1 f33d 0c42 9abd
00000130: 15f1 9e3d 0ae7 34bd ff89 9a3d 5ade 6a3c
00000140: ad7b 863d 8170 32bd 34ae 89bc d0ed 9abe
00000150: a782 843d 6021 b6bd ae55 a2be 16be 373e
00000160: 389f 88bc cf53 b1bc 4044 793d 9bd0 38bd
00000170: 5aa2 a6be 3127 85bd 47cd 9d3d ff4c debd
00000180: 61d5 2c3d a680 433d ea08 9e3d 89da eebc
00000190: 85fe 513d 44e1 7b3d ec2d d23c 203e 8c3b
000001a0: fad6 973d 816c fd3d 359d 7ebd b762 b63d
000001b0: e765 cfbc b58b af3c 05f1 633d 4ed3 763b
000001c0: 7a3e 80bd c82f 853d dfdd e3bc 725c c33d
000001d0: c634 9dbd ffaf e9bc 37b5 82bd c8e8 af3c
000001e0: d340 48bd 06b9 1cbe ab28 86bd 0d39 813c
000001f0: 21a4 1b3d a8da 0bbc 78d8 483c b746 2c3e
00000200: 71fe a0bd 54f1 933d 6acd 2bbd 716f c3bb
00000210: d7ce 7e3d ecb0 9a3d f7dc 603c 1ef1 96bd
00000220: ded1 2b3e b388 943d 2320 9dbd 7761 49be
00000230: 48ab 0cbe f66c c0bb 6033 a2bb 919b 79be
00000240: d31c 803d 4d12 7a3c 56ea 1c3d f14e 26bd
00000250: 6b67 33bd b1ae 33bd 546b 163e a757 2e3d
00000260: fba2 c4bb a38e 843d 8e1e 363c 3f20 d6bc
00000270: 7171 103d d451 89bd 79b7 183e 4219 d9bd
00000280: 4f6d 19be 775b 173d ad0e 48bc fb0c 103e
00000290: e0e9 72bd 5089 f9bc 88f6 503d 29b3 75bd
000002a0: f6a3 8fbd 8903 50bd 2079 fb3b 0317 8a3d
000002b0: 75d2 023d 1021 9c3c 1b06 453c da80 3fbd
000002c0: 44fc b33c 795b e13d 8810 083d 7a18 45bd
000002d0: 47c8 debd fe7f c2bc 734b 863d 9917 36bc
000002e0: 31cd eabd 2c18 df3c a2de 5abd da91 efbd
000002f0: 2d5e 8a3d d16c 523d 639e 9c37 b369 c73c
00000300: 637e febc 0be3 11be 8093 02bc 3673 38bc
00000310: 4bba 98bd 6c3b 76bd 1434 0fbe c37d b2bd
00000320: 11a5 093e 0f2b 4fbd 4085 5f3e 2671 533c
00000330: 97d7 07bc e653 8a3c 07b8 7dbd 8770 343d
00000340: 5adb 853d ac2f 0abd 0cf0 7cbd 7c77 b0bd
00000350: ea63 ea3c 4bf8 a2bd 116f dcbe 5463 133e
00000360: fcb0 eabd f7a9 a53c fb4d 22bc 9bcc 0cbd
00000370: 2754 aa3d 2540 b63c f11b af3d 8ee2 093d
00000380: 7586 233d 5ea8 2d3d 5303 28ba 71c4 b93c
00000390: b525 893d 8041 653d 65e5 b63d 602d 4cbd
000003a0: 6ec3 b9bd 914a 053e 4a45 1cbd 9ace 5a3d
000003b0: 2028 acbc 1b93 5bbd 778f bc3d 9af6 82bd
000003c0: 7bb1 33bd 72cd 7b3d 9c0e cd3d d79f 903c
000003d0: e303 99bd ccb9 5cbd 039f bc3d 50e0 3c3d
000003e0: 6f78 5fbb 4e7d 4ebd c6ac 863d 3e49 283e
000003f0: 31c0 2cbc b8ed 003d 8e43 793d df42 f0bc
0.050976966 -0.28594494 -0.077169456 0.05816748 0.047593597 0.080401294 0.053371787 -0.076918095
0.27111393 -0.037057288 -0.050309964 -0.009889059 0.022688737 -0.027163625 0.009836588 -0.10050805
-0.0636634 0.05431335 0.062337052 -0.028077561 -0.08357241 0.20864595 0.06822506 -0.016780004
0.0038381144 -0.07169648 0.060722675 -0.024518544 0.05341633 -0.024405722 0.056645107 -0.07839656
0.031072514 -0.08219325 -0.019767098 0.07675886 -0.01151558 0.03677181 0.33718637 -0.0015666985
-0.042248026 -0.057085477 -0.05678138 0.020779967 -0.017167062 -0.03511181 0.19338766 -0.08332777
0.030871347 0.08652253 0.011317524 0.11784387 -0.053327125 0.051538095 0.042121343 -0.023811603
-0.060559716 0.07826186 0.02823688 -0.12762924 0.054887883 -0.085231334 0.03517544 0.050906412
-0.0035079329 -0.05206772 0.029069912 -0.090867415 -0.1171201 -0.09224963 -0.17490846 -0.005204267
0.159889 -0.022997005 0.119082995 -0.07532129 0.077608265 -0.04416565 0.07545852 0.014335239
0.06566558 -0.043564323 -0.0168067 -0.30259562 0.064702325 -0.088930845 -0.31705993 0.17943606
-0.016677484 -0.021646408 0.060856104 -0.045120817 -0.3254574 -0.06501616 0.07705169 -0.108545296
0.04219568 0.04773011 0.07716544 -0.02915694 0.05126812 0.061494127 0.025656663 0.004279867
0.074140504 0.12374211 -0.062161643 0.08905547 -0.025317146 0.021428922 0.055649776 0.0037662569
-0.062619165 0.06503254 -0.027815757 0.09539117 -0.07676081 -0.028526304 -0.0638222 0.021473303
-0.048889946 -0.15304956 -0.065507255 0.015774274 0.037998322 -0.008536018 0.012258641 0.1682385
-0.07861031 0.07223764 -0.041943945 -0.0059642126 0.062208977 0.075532764 0.013724557 -0.07370208
0.16779277 0.07252636 -0.07672145 -0.19666086 -0.13737214 -0.005872364 -0.004949972 -0.2437575
0.06255498 0.015263152 0.038309418 -0.04060263 -0.0437998 -0.04386777 0.1468938 0.04256406
-0.006000874 0.06472518 0.011115683 -0.026138423 0.035264436 -0.067050606 0.1491374 -0.10600521
-0.14983104 0.036952462 -0.01221053 0.14067452 -0.05930507 -0.030460984 0.05101636 -0.059985314
-0.07013695 -0.05078462 0.0076743513 0.067426704 0.03193899 0.019058734 0.012025381 -0.04675374
0.021970876 0.11003775 0.03321889 -0.048119046 -0.108780436 -0.023742672 0.065573595 -0.011114025
-0.114649184 0.027233206 -0.053434975 -0.11697741 0.06756244 0.051373307 1.8670404e-05 0.024342394
-0.031066125 -0.14246766 -0.007969737 -0.011257937 -0.074574076 -0.060115263 -0.1398471 -0.087153934
0.13441874 -0.050578173 0.21828175 0.012905395 -0.008291147 0.016885709 -0.06194308 0.044052627
0.065359786 -0.03373687 -0.061752364 -0.0861654 0.028612096 -0.079575144 -0.43053487 0.1439336
-0.11459538 0.020222647 -0.009906287 -0.034374814 0.08316832 0.022247383 0.08550251 0.033663325
0.03992315 0.042396896 -0.0006409187 0.022676678 0.06696645 0.05597067 0.08930472 -0.04984796
-0.090704784 0.13016726 -0.038152017 0.053419687 -0.021015227 -0.053607088 0.09207051 -0.06394692
-0.04387043 0.061475225 0.10012552 0.017654343 -0.074714445 -0.053888127 0.092100166 0.04611236
-0.0034098884 -0.05041247 0.06575923 0.1643419 -0.010543869 0.031476706 0.06085544 -0.029328762

bias f4 [4]
00000000: f610 82bf c5dc 57bf b9cf 8e3f e6a0 be3c
-1.0161426 -0.8432124 1.1157142 0.023270082

exp_avg f4 [128, 15]
00000000: 1e50 cdc3 052b 0e44 bc0c ea43 509d bac3
00000010: 5342 0a42 a324 be44 e439 61c4 f9d6 32c5
00000020: 9595 cfc1 0000 0000 45c3 72c5 6e9e 40c6
00000030: e439 e1c4 2952 59c2 de5e 69c7 54cd d3c2
00000040: b122 3143 9c7f 8043 40b4 45c1 9b85 aa40
00000050: 7d42 1744 8255 3bc3 1073 c942 07bc aac0
00000060: 0000 0000 8413 06c3 69c9 9644 8255 bbc3
00000070: 4020 5642 40e8 61c5 9db4 16c3 fc5b 6c43
00000080: 4e1b b443 752d eac1 bc31 aac0 19a6 4e44
00000090: de90 8ac3 4072 9f42 1dd0 03c1 0000 0000
000000a0: 56b5 aec3 c08e afc3 de90 0ac4 cc36 5c42
000000b0: c6df 1ac6 aa93 b9c2 6c84 1743 29b3 5f43
000000c0: 0658 3cc1 a044 aa3f 7af6 0344 5a36 24c3
000000d0: 905c 8e42 802d 95c0 0000 0000 0467 10c3
000000e0: ec9c 7244 5a36 a4c3 ce6e 3d42 00d9 4ec5
000000f0: 2239 9b44 8756 05c5 e524 3fc5 a072 c442
00000100: d9c6 bdc2 a708 e1c5 0ca6 0745 9c00 d7c4
00000110: ea66 7742 0000 0000 f047 4944 7cd0 42c6
00000120: 0ca6 8745 e38c 16c4 c2f3 95c7 bfe8 4bc3
00000130: 69df ab43 7c69 fb43 46ab a1c1 d3fc 0d41
00000140: b463 9144 ca97 b3c3 7c36 4f43 094a 23c1
00000150: 0000 0000 1831 6fc3 30f7 b244 ca97 33c4
00000160: 1edf d642 c0c2 dac5 9a6a 75c1 7aa9 7e41
00000170: 958c b741 009b 15c1 ecc5 89bf fcde 8f42
00000180: 6089 edc1 cbb2 87c2 83b0 4abf 0000 0000
00000190: b98c b7c2 9d0f 8bc3 6089 6dc2 f593 cc40
000001a0: e8d6 74c4 863f 86c3 a8bd e643 1f88 2844
000001b0: 9876 a2c1 70d2 5141 1f79 c044 a43e ebc3
000001c0: a891 a543 961d 56c1 0000 0000 30a1 81c3
000001d0: ec32 f444 a43e 6bc4 44f2 0e43 fc95 0ac6
000001e0: c810 08c3 03c4 6043 bdc8 a343 c5fd 8ac1
000001f0: 7a54 ad40 0a39 4044 9220 71c3 a003 d642
00000200: 6115 dbc0 0000 0000 d42f 39c3 f8ec 0944
00000210: 9220 f1c3 018b 8b42 88d4 99c5 23c3 11c2
00000220: a5c2 4742 bcfb 8842 8659 63c1 44bf 7d3f
00000230: 232b 3d43 53aa 87c2 084e 72c2 ace3 f0bf
00000240: 0000 0000 e7d0 0dc3 3883 6c44 53aa 07c3
00000250: 047f 4741 bc89 f5c4 7cc2 8e44 6d55 adc4
00000260: d21b 92c4 f43b 8544 01af 3942 6657 89c5
00000270: 381d 1d45 772f c445 1a5e 9a42 0000 0000
00000280: d1db 1746 093a 0f47 381d 9d45 2db4 22c3
00000290: 7ae6 5248 4509 99c0 e80e 12be 9c21 1dc0
000002a0: 602b ffc0 35be 95be f1bc 4e41 491f 2fc1
000002b0: b722 9fc2 3a97 7dbe 0000 0000 21c1 9ac2
000002c0: be4c 4fc3 491f afc1 4855 383e 1f9d 10c4
000002d0: b011 47c2 a1fb 9842 d2d3 db42 a917 36c1
000002e0: cae8 cd3f 8b5e 8843 8af4 b3c2 907d 06c1
000002f0: 840d 22c0 0000 0000 10c5 d7c2 a0b1 c942
00000300: 8af4 33c3 b53a b841 0074 ffc4 dea8 f4be
00000310: efd5 32c0 8023 fcbf 0c2a 06c0 0400 0000
00000320: 72b3 07c0 72b3 07c0 2e10 8bc1 1fb2 9ebd
00000330: 0000 0000 f14c a7c1 c5f0 f243 72b3 87c0
00000340: 907d dac0 1023 d3c3 5cba 2fc3 be3a 9b43
00000350: 5b9d e243 90fc ecc0 e02e ca40 2226 7f44
00000360: aa84 98c3 365a 8c43 8a63 0bc1 0000 0000
00000370: b005 e2c2 e80a 0546 aa84 18c4 76d1 c242
00000380: a095 84c5 0000 0000 0000 0000 0000 0000
00000390: 0000 0000 0000 0000 0000 0000 0000 0000
000003a0: 0000 0000 0000 0000 0000 0000 0000 0000
000003b0: 0000 0000 0000 0000 0000 0000 0000 0000
000003c0: 1027 49c2 aff6 a242 89a1 ed42 00ee f9c0
000003d0: 68a9 b83f 8390 8b43 a0d9 b2c2 8061 7a41
000003e0: 918b 20c0 0000 0000 802c acc2 88de 0c43
000003f0: a0d9 32c3 9dda d141 1868 e4c4 8a64 37c0
-410.62592 568.6722 468.0995 -373.229 34.56477 1521.1449 -900.90454 -2861.4358
-25.948038 0.0 -3884.2043 -12327.607 -1801.8091 -54.330235 -59742.867 -105.90103
177.13551 256.99695 -12.356506 5.3288093 605.0389 -187.33401 100.72473 -5.3354526
0.0 -134.07623 1206.2941 -374.66803 53.531494 -3614.5156 -150.70552 236.35931
360.21332 -29.272196 -5.318571 826.5953 -277.13177 79.723145 -8.238309 0.0
-349.4167 -351.11523 -554.26355 55.053513 -9911.943 -92.78841 151.51727 223.69984
-11.77149 1.3302193 527.8512 -164.21231 71.180786 -4.661804 0.0 -144.4024
970.4519 -328.42462 47.358208 -3309.5625 1241.7854 -2133.408 -3058.306 98.22388
-94.888374 -7201.0815 2170.378 -1720.019 61.850502 0.0 805.124 -12468.121
4340.756 -602.20135 -76775.516 -203.90916 343.7454 502.8241 -20.20863 8.874225
1163.1157 -359.18585 207.21283 -10.205575 0.0 -239.19177 1431.7246 -718.3717
107.435776 -7000.3438 -15.338526 15.916376 22.943644 -9.350342 -1.0763526 71.93552
-29.692078 -67.849205 -0.79175586 0.0 -91.77485 -278.12198 -59.384155 6.393061
-979.3579 -268.49628 461.4817 674.1269 -20.307907 13.113876 1539.785 -470.48938
331.13794 -13.382223 0.0 -259.25928 1953.5913 -940.97876 142.94635 -8869.496
-136.06555 224.76567 327.56827 -17.37391 5.416562 768.89124 -241.12723 107.00708
-6.8463597 0.0 -185.18683 551.70264 -482.25446 69.77149 -4922.5664 -36.440563
49.940083 68.49167 -14.209356 0.99119973 189.1685 -67.832664 -60.576202 -1.881948
0.0 -141.81602 946.0503 -135.66533 12.46851 -1964.3042 1142.0776 -1386.6696
-1168.8694 1065.8735 46.420902 -4394.925 2513.8262 6277.933 77.18379 0.0
9718.954 36666.035 5027.6523 -162.70381 215961.9 -4.7823815 -0.14263499 -2.4551764
-7.974045 -0.2924668 12.921128 -10.945138 -79.5678 -0.2476472 0.0 -77.377205
-207.29977 -21.890276 0.18001282 -578.455 -49.767273 76.49146 109.91371 -11.380776
1.6086667 272.73862 -89.977615 -8.405655 -2.532075 0.0 -107.88489 100.846924
-179.95523 23.028666 -2043.625 -0.47785085 -2.7943075 -1.9698334 -2.0963163 6e-45
-2.1203275 -2.1203275 -17.3829 -0.07748818 0.0 -20.912569 485.881 -4.240655
-6.8278275 -422.27393 -175.72797 310.45892 453.22934 -7.4058304 6.318222 1020.5958
-305.03644 280.70477 -8.711802 0.0 -113.01111 8514.727 -610.0729 97.4091
-4242.703 0.0 0.0 0.0 0.0 0.0 0.0 0.0
0.0 0.0 0.0 0.0 0.0 0.0 0.0 0.0
-50.288147 81.481804 118.8155 -7.8103027 1.4426699 279.129 -89.42505 15.648804
-2.5085185 0.0 -86.086914 140.86926 -178.8501 26.231745 -1827.2529 -2.8655114

exp_avg_sq f4 [128, 15]
00000000: 1bf3 5b4a df7f 7f4b eec0 474a a01b 2d4b
00000010: b679 d647 b60e 9e4b 026c 064c 75b0 594f
00000020: 453a 8d47 0000 0000 0441 924f b7ed 3450
00000030: 71ca 194d 0bc7 694a 538e c954 aaaf 0649
00000040: 4c70 354a 2694 7549 a09c 0d4a 37c8 df46
00000050: 1ef4 564a eefa a14a a17e 0e4e 141c 1d46
00000060: 0000 0000 db9d 384e d868 d751 735c c74b
00000070: 6784 5449 55b7 8b53 ed59 7b49 6851 a14a
00000080: c4c7 da49 8f6a 7f4a 1a0f 5d47 d648 c54a
00000090: 014e 174b 4de5 814e 7908 9346 0000 0000
000000a0: 8d66 a94e c260 a450 6944 344c 2eba b549
000000b0: a4d5 fc53 7680 c848 8c1c 044a dab8 3649
000000c0: 7039 d349 4f49 a646 1ef5 1f4a 5a4b 6e4a
000000d0: 0108 d24d 87d7 e445 0000 0000 8dfa 074e
000000e0: 60ad b151 c5e7 924b c6c7 1b49 e79c 4d53
000000f0: 5f43 8c4c 68c1 9b4d ce94 034d 0da6 9c4d
00000100: 91fa 6b4a 2f67 e64d 56d9 204e 9d76 8b51
00000110: da1e 9849 0000 0000 64cc b351 c8ee a155
00000120: 357a 424f 2019 db4c 65b7 d456 5f93 fc49
00000130: de0a 2b4b f6fc 694a 89b8 054b db8f d647
00000140: badb 494b 6f5d 984b 79dd 054f 81e0 1247
00000150: 0000 0000 eb53 2d4f ce76 fe52 905a bb4c
00000160: c1ba 484a 1be3 8354 4fa7 d245 5d69 3347
00000170: de93 3d46 13f4 ca46 1344 ad43 0048 3947
00000180: 22e8 9647 9444 094b 218c 9b43 0000 0000
00000190: 0c7d 304b fbd1 cc4e e336 c248 ce01 6b46
000001a0: 83b7 4e50 68c6 5d4a fb41 944b ee2b ce4a
000001b0: 1aee 6b4b 95a1 3c48 eff3 b04b 9acc 044c
000001c0: 8038 694f 2547 7847 0000 0000 49f1 964f
000001d0: b76f 6953 5b1a 234d 4e3c ae4a 5823 e754
000001e0: 46c2 5b49 c410 964a 9f68 ca49 a6be 674a
000001f0: ce7a 3847 ede1 af4a 276a 054b 5d7b 6a4e
00000200: b49a 8446 0000 0000 10cd 974e eabe 7252
00000210: 4a28 244c 9078 b049 d04a e553 ea66 4047
00000220: f727 7548 b123 a147 399e 4048 28ac 0245
00000230: 2df0 9a48 68d7 e048 730a 4c4c 4be9 9144
00000240: 0000 0000 a854 844c b934 574f 055d 0f4a
00000250: aaf2 9747 2325 b651 3e96 f44b 5a66 0c4d
00000260: ceb1 ea4b 62f7 c44c 8c65 ad49 57bf 314d
00000270: d505 944d f445 ee50 39c6 1449 0000 0000
00000280: 8202 2151 1266 de51 be35 a94e 6024 f54b
00000290: 2a66 6756 509a 3e43 40c0 5645 10f6 2544
000002a0: b4fa c043 14f2 b741 ec88 3045 aebc 5245
000002b0: 488a 1a49 6a51 8542 0000 0000 f48b 4349
000002c0: 3e51 7b4d e70f d846 8a97 e344 9953 724d
000002d0: afba d547 10ef 1149 788d 4048 8739 de48
000002e0: 3092 ad45 2f16 2c49 7380 8249 ef8d e64c
000002f0: d421 1045 0000 0000 3134 154d bfd3 ce50
00000300: 039c a14a a216 2e48 4302 5a52 17d3 9043
00000310: 9103 7345 6150 1e45 d390 5445 7b47 0242
00000320: bc51 5945 428d 8545 6c27 e748 bc8c 1042
00000330: 0000 0000 bb14 e548 a2f0 5350 5ab3 dd46
00000340: 734e 4745 c4fa db4e fc83 bf49 0287 004b
00000350: 3f5f 304a 8529 ca4a d5ab a547 0e84 184b
00000360: d111 674b 0e89 ca4e c5ec e046 0000 0000
00000370: db69 034f 5c17 7251 2853 8d4c 9fee 144a
00000380: cbbc 4454 0000 0000 0000 0000 0000 0000
00000390: 0000 0000 0000 0000 0000 0000 0000 0000
000003a0: 0000 0000 0000 0000 0000 0000 0000 0000
000003b0: 0000 0000 0000 0000 0000 0000 0000 0000
000003c0: c09c e647 e01c 2049 94ce 5548 3184 f248
000003d0: d4c8 c245 5858 3949 5d97 8d49 f05d f94c
000003e0: b6b2 1645 0000 0000 ff5c 214d 748e f850
000003f0: 24b7 ae4a ce80 3d48 a0ec 6f52 6a47 7443
3.6036548e+06 1.6744415e+07 3.2727635e+06 1.13448e+07 109811.42 2.0716908e+07 3.5237896e+07 3.6522202e+09
72308.54 0.0 4.907469e+09 1.2141911e+10 1.6126133e+08 3.8302108e+06 6.92541e+12 551674.6
2.972691e+06 1.0058904e+06 2.320168e+06 28644.107 3.5217995e+06 5.307767e+06 5.9766586e+08 10055.02
0.0 7.7433824e+08 1.1564712e+11 2.6130662e+07 870470.44 1.2001525e+12 1.0295348e+06 5.286068e+06
1.7922485e+06 4.1847398e+06 56591.1 6.464619e+06 9.915905e+06 1.0896442e+09 18820.236 0.0
1.4210351e+09 2.2062436e+10 4.7255972e+07 1.4887098e+06 2.1718321e+12 410627.7 2.164515e+06 748429.6
1.73035e+06 21284.654 2.6207435e+06 3.9042145e+06 4.404675e+08 7322.941 0.0 5.7033606e+08
9.5389745e+10 1.9255178e+07 638076.4 8.831007e+11 7.3538296e+07 3.2664294e+08 1.3797296e+08 3.28516e+08
3.8662762e+06 4.8319024e+08 6.746495e+08 7.487381e+10 1.2461712e+06 0.0 9.652853e+10 2.2255866e+13
3.2627889e+09 1.1487053e+08 1.1694207e+14 2.0690999e+06 1.1209438e+07 3.8336615e+06 8.763529e+06 109855.71
1.3228986e+07 1.9970782e+07 2.2458842e+09 37600.504 0.0 2.907958e+09 5.4645745e+11 9.822733e+07
3.2887522e+06 4.5316073e+12 6740.9136 45929.363 12132.967 25978.037 346.53183 47432.0
77264.266 8.995988e+06 311.09476 0.0 1.1566348e+07 1.7181567e+09 397751.1 15040.451
1.3872532e+10 3.633562e+06 1.9432438e+07 6.755831e+06 1.5461914e+07 193158.33 2.3193566e+07 3.481252e+07
3.912794e+09 63559.145 0.0 5.0647905e+09 1.00260164e+12 1.7102584e+08 5.709351e+06 7.9418433e+12
900132.4 4.917346e+06 1.6581319e+06 3.7969055e+06 47226.805 5.7633185e+06 8.743463e+06 9.834883e+08
16973.352 0.0 1.2733993e+09 2.6064627e+11 4.303287e+07 1.44565e+06 1.9696053e+12 49254.914
251039.86 82503.38 197240.89 2090.7598 317313.4 460475.25 5.3488076e+07 1167.2904
0.0 6.937939e+07 3.6105567e+09 2.3488652e+06 77797.33 9.778839e+10 3.2058492e+07 1.4721987e+08
3.0761884e+07 1.0326709e+08 1.4204655e+06 1.8638168e+08 3.1042627e+08 3.1980495e+10 609379.56 0.0
4.322074e+10 1.193994e+11 1.4194358e+09 3.2131264e+07 6.3606494e+13 190.60278 3436.0156 663.8447
385.95862 22.993202 2824.5576 3371.7925 632996.5 66.65901 0.0 800959.25
2.6352534e+08 27655.951 1820.7356 2.5409781e+08 109429.37 597745.0 197173.88 455116.22
5554.2734 704866.94 1.0690704e+06 1.2087692e+08 2306.1143 0.0 1.564516e+08 2.7759868e+10
5.2956175e+06 178266.53 2.340852e+11 289.64914 3888.223 2533.0237 3401.0515 32.569805
3477.1084 4273.657 473403.38 36.137436 0.0 469157.84 1.4223051e+10 28377.676
3188.903 1.8453222e+09 1.5688955e+06 8.42317e+06 2.8896798e+06 6.6244505e+06 84823.664 9.995278e+06
1.5143377e+07 1.6989898e+09 28790.385 0.0 2.2047526e+09 6.4985874e+10 7.409491e+07 2.4401038e+06
3.379924e+12 0.0 0.0 0.0 0.0 0.0 0.0 0.0
0.0 0.0 0.0 0.0 0.0 0.0 0.0 0.0
118073.5 655822.0 218938.31 496673.53 6233.1035 759173.5 1.1599156e+06 1.307401e+08
2411.1694 0.0 1.6920165e+08 3.3360683e+10 5.725074e+06 194051.22 2.5761677e+11 244.27896

exp_avg f4 [128]
00000000: e339 61c4 8255 3bc3 df90 8ac3 5d36 24c3
00000010: 0ea6 0745 ca97 b3c3 5f89 edc1 aa3e ebc3
00000020: 9420 71c3 53aa 87c2 391d 1d45 4a1f 2fc1
00000030: 8af4 b3c2 72b3 07c0 a884 98c3 0000 0000
00000040: 9cd9 b2c2 518a c0c0 c4aa 3dc4 5d2e 4ac1
00000050: 4575 c7c3 a3d4 dbc1 9ae2 86c3 5c39 c743
00000060: f880 b7c3 f595 84c1 0000 0000 2292 cfc0
00000070: ca4a c044 0e1d b5c2 0000 0000 0000 0000
00000080: 3a7c a3c1 37fe 98c2 008c 85c4 e150 75c3
00000090: 6742 2ac4 3a00 91c2 b691 b6c3 34c1 94c0
000000a0: de1c 31c3 280b 8bc4 0000 0000 0abb 6843
000000b0: b42f bbc2 bc26 8dc3 718c ffbf ba7c b2c0
000000c0: 0000 0000 561d c0c3 0000 0000 0400 0000
000000d0: 200f 08c3 26eb ebc2 adc5 52c4 e287 02c3
000000e0: b0a9 1cc3 6b6d 03c3 149e 7ec3 8a0d febf
000000f0: 2447 35c1 030d 32c4 72a5 92c2 ccb8 50c3
00000100: 3cd7 c140 0000 0000 a729 7dc0 4687 0642
00000110: 0000 0000 2212 8943 a893 09c2 0000 0000
00000120: d2ef 0445 f824 5cc4 7d83 9ec2 9ea6 f843
00000130: c23a 2bc4 1838 fe43 2b0a 13c4 989a f5c2
00000140: 0400 0000 b609 50c3 1ce2 a9c1 7688 59c3
00000150: 0400 0000 0000 0000 0400 0000 cebf 0fc4
00000160: 6c3d 93c3 509c cfc2 9264 b6c2 4cd7 07c3
00000170: c366 0fc4 b3e1 1643 0000 0000 4411 1c45
00000180: 5836 51c1 9a01 4c42 0000 0000 5a00 92c3
00000190: 469c 11c3 6805 6ec3 5a51 eac3 0000 0000
000001a0: 385c 06c3 0e3c cbc2 488c c143 1c4e 0944
000001b0: 805a c6c0 0000 0000 305d c444 0280 a0c2
000001c0: 2ad6 13c4 3eab d0c3 0000 0000 7f0d d0c2
000001d0: 1a12 22c3 924f 3fc3 b485 7744 1b08 24c1
000001e0: 4a3f 0545 9663 3cc4 da59 c4bf f1ae 64c3
000001f0: 1c27 9043 ff6e f6bf 70bf 69c3 c64e c5c2
-900.9045 -187.33401 -277.1318 -164.21236 2170.3784 -359.18585 -29.692076 -470.48956
-241.12726 -67.832664 2513.8264 -10.945139 -89.977615 -2.1203275 -305.03638 0.0
-89.42502 -6.0168843 -758.6682 -12.636319 -398.91617 -27.478827 -269.77032 398.44812
-367.00757 -16.573221 0.0 -6.4865885 1538.3372 -90.55675 0.0 0.0
-20.435658 -76.49651 -1068.375 -245.31593 -681.03754 -72.50044 -365.13837 -4.6485844
-177.11276 -1112.3486 0.0 232.73062 -93.59317 -282.3026 -1.9964734 -5.5777254
0.0 -384.2292 0.0 6e-45 -136.05908 -117.959274 -843.0887 -130.53079
-156.66284 -131.42741 -254.6175 -1.9847882 -11.329868 -712.2033 -73.323135 -208.72186
6.0575237 0.0 -3.9556673 33.632103 0.0 274.14166 -34.394196 0.0
2126.9888 -880.57764 -79.25681 497.3017 -684.9181 508.43823 -588.1589 -122.80194
6e-45 -208.03793 -21.235405 -217.53305 6e-45 0.0 6e-45 -574.99695
-294.47986 -103.8053 -91.19643 -135.841 -573.60565 150.88164 0.0 2497.079
-13.0757675 51.001564 0.0 -292.00275 -145.61044 -238.02112 -468.63556 0.0
-134.36023 -101.617294 387.09595 549.22046 -6.1985474 0.0 1570.9121 -80.250015
-591.3463 -417.33783 0.0 -104.02636 -162.07071 -191.31082 990.0891 -10.251979
2131.9556 -753.556 -1.533992 -228.68336 288.30554 -1.9252623 -233.7478 -98.653854

exp_avg_sq f4 [128]
00000000: f5ef 084c 747c b14a 2319 224b 1fb8 824a
00000010: 5729 2d4e 60c6 a64b 7ba9 a547 bf65 114c
00000020: f7f4 114b 717e fb48 b1a3 964d ae8d a545
00000030: a202 8f49 8cc8 9145 2c36 7c4b 0000 0000
00000040: f5de 9a49 e33b 5c45 8384 bc4c 8a5a 4e47
00000050: b9f6 d74b 69d1 8247 8f15 394b 9edb 924c
00000060: ba86 9d4b 1498 9747 0000 0000 db3d bf45
00000070: 2779 684d 1fef 8b49 0000 0000 0000 0000
00000080: fea2 704a a577 4749 ee38 594d 29a5 244b
00000090: c672 8b4c 2bc6 dc48 4688 ab4b 7c5b 2947
000000a0: 75f8 834a 6023 554d 0000 0000 5f6d 094c
000000b0: 8f85 9449 bcb7 494b 6d8d 8545 7101 1a46
000000c0: 0000 0000 fee1 bd4b 0000 0000 3bad aa37
000000d0: 977c 2a4a ae8e 014a f87b 244c 558c 2b4a
000000e0: a139 824a e52d 1f4a e3f0 254b 48eb 6045
000000f0: 2dee de45 fac7 a44b 24d7 2249 3617 d54a
00000100: 34ba b945 0000 0000 343d ae45 0c40 c148
00000110: 0000 0000 2608 144c 49ac 6c48 0000 0000
00000120: 006b 964d 0913 f54c b0a6 194a 3a30 e34b
00000130: 3a1b f44b 7e8c 914c 4f1f 534c d582 134a
00000140: 2f79 a138 376d db4a 6b68 c947 bd8b fe4a
00000150: 5c28 c02e 0000 0000 61c6 2f39 24b5 f14b
00000160: 495f 774b bb98 c949 ff72 8a49 b4d4 2b4a
00000170: 436c 554c 2255 864a 0000 0000 770c 964d
00000180: 45e1 bb48 565f 1549 0000 0000 eac7 794b
00000190: a31f 4d4a 2aff ec4a 3b42 7c4b 0000 0000
000001a0: 7e87 294a de29 b649 f004 2b4c d6f8 844d
000001b0: 1529 b147 0000 0000 0d8d be4d fc2b 5a49
000001c0: ce95 e84b 4ba8 ec4b 0000 0000 0a16 9749
000001d0: 999a 814a f83f ba4a 68d2 544c 05ec 9847
000001e0: 8a26 944d 4985 e04b 517f 2e45 2b12 2c4d
000001f0: 4a06 fc4b e62f 9c45 3f41 0b4b a22d ab49
3.58973e+07 5.815866e+06 1.0623267e+07 4.2834075e+06 7.262919e+08 2.185952e+07 84818.96 3.8115068e+07
9.565431e+06 515059.53 3.1591376e+08 5297.71 1.1715402e+06 4665.0684 1.652894e+07 0.0
1.2687026e+06 3523.743 9.883753e+07 52826.54 2.8306802e+07 66978.82 1.2129679e+07 7.699582e+07
2.0647284e+07 77616.16 0.0 6119.732 2.4376587e+08 1.1463399e+06 0.0 0.0
3.9425915e+06 817018.3 2.2777418e+08 1.0790185e+07 7.311109e+07 452145.34 2.2483084e+07 43355.484
4.3244105e+06 2.2349158e+08 0.0 3.6025724e+07 1.2166899e+06 1.3219772e+07 4273.678 9856.36
0.0 2.4888316e+07 0.0 2.0346246e-05 2.7932538e+06 2.1226675e+06 4.311856e+07 2.8106452e+06
4.2672165e+06 2.6079932e+06 1.0875107e+07 3598.705 7133.772 2.1598196e+07 666994.25 6.982555e+06
5943.2754 0.0 5575.6504 395776.38 0.0 3.8805656e+07 242353.14 0.0
3.1544934e+08 1.28489544e+08 2.51742e+06 2.9778036e+07 3.1995508e+07 7.630949e+07 5.5344444e+07 2.4168212e+06
7.6996505e-05 7.1901715e+06 103120.836 8.3409585e+06 8.7383184e-11 0.0 0.00016763202 3.1681096e+07
1.6211785e+07 1.6514794e+06 1.1341759e+06 2.815277e+06 5.5947532e+07 4.401809e+06 0.0 3.146749e+08
384778.16 611829.4 0.0 1.6369642e+07 3.3607448e+06 7.765909e+06 1.6532027e+07 0.0
2.7775675e+06 1.4922838e+06 4.483168e+07 2.7886253e+08 90706.164 0.0 3.9961437e+08 893631.75
3.0485404e+07 3.1019158e+07 0.0 1.2376972e+06 4.2468605e+06 6.103036e+06 5.5789984e+07 78296.04
3.106942e+08 2.942837e+07 2791.9573 1.8042949e+08 3.3033364e+07 4997.9873 9.126207e+06 1.4022922e+06
