models/cache_agent/4/D3QN_q_eval.pth (torch, 238173 bytes, 21 tensors)

weight f4 [128, 15]
00000000: 84e2 05c0 076a c03d 11a7 2040 ab28 1f40
00000010: 4f07 9d3d 6e88 3f3e bc70 3b3d a2db 233e
00000020: ac14 0e40 80a6 e33b b77b 403f 3437 4dbd
00000030: a6b4 54be 7495 933e 2b67 c3bc ca21 93bf
00000040: 064b 283f f7e7 fc3f 4e56 9a3f 32b3 a8be
00000050: 5206 0d3e 5524 353f 9e7a 2e3f 7e30 1f40
00000060: 5e4a b3bd 3416 693f efef 693d 2f83 403e
00000070: 5402 273f 208d f1bd f298 ef3e 3201 0f3d
00000080: 2914 af3e 3284 b33e 9626 2f3e e9b4 3b3e
00000090: 6b2e 093f 8521 063f 98c7 e53d 09b4 82be
000000a0: 31d5 bbbd 01c3 6abe 38f0 c43e 6813 a5be
000000b0: 42bb ffbd 1921 d73f 56ff c23e 08c3 2ec0
000000c0: 73dd 20c0 1680 d5bc 3504 19bf fc3f 213f
000000d0: 97e6 1b3f 8d9b 0ec0 bc8b 39be bf1a 3f3f
000000e0: e775 123e 2df8 a33f e33f 403f a860 7fbc
000000f0: 005b a73c c646 773e d48c c43d 3c7b 4b3e
00000100: a67f ccbd 2c90 76be 88de 3e3d d62c 4bbe
00000110: faa3 f3bd 0ef7 493e 3a3c 5f3e c43b f9bd
00000120: 1c64 5fbd 889e 8c3d 5034 19bd 400e 083e
00000130: 933e 1d3d 0902 583e bb2c 2e3d af0f cdbc
00000140: 98fc 57be 561f 9bbc f7c7 debe 407c 1cbd
00000150: e015 073e d48a d5bc 3766 793e 8921 d0be
00000160: bc54 73be 6dd4 56be ee2b c53f 3134 f03d
00000170: eaf1 11c0 1c96 03c0 2fd5 4b3e 448b 85be
00000180: eea4 4a3e 3d2f 853e a7f9 08c0 02b3 04be
00000190: 08b3 80bc 041f c23d 3350 843f aa5c c83e
000001a0: da8a 563e 4051 b1bf 19ca 053f 420c 0140
000001b0: 16dc 813f 3129 50bf 9206 003e 6f29 273f
000001c0: d39b 483f 8ea2 3540 0602 283e 18fe 213f
000001d0: b189 16bd 8e2a 903e 601b 6d3f ae3e f8bd
000001e0: 7df9 cf3f 55df b7bd 02d2 30c0 ac86 1dc0
000001f0: dc7b debe 0ec9 14bf 9ba9 e13e 4acf 893e
00000200: 1b35 11c0 14c6 78bd b043 e33e e112 4ebe
00000210: 1bc2 9b3f 4ba6 fb3e 5c2d df3d cb02 de3f
00000220: 1311 963d 6ad0 36c0 8e7e 21c0 3ac7 30be
00000230: 4098 77bf 0b75 283f c2f6 0e3f e63b 13c0
00000240: 42b6 7d3e a997 473e 55f8 30be b295 983f
00000250: 2188 e63e 4dd2 af3d 53f5 c73f 0944 ec3d
00000260: a747 32c0 1d50 1ac0 65c7 583d 5e80 6ebf
00000270: bca3 433f b225 453f e893 04c0 6269 2cbe
00000280: 68f9 233f 6621 213d 18b5 b23f 57d8 203f
00000290: 10be 97bc cd46 1840 7ea0 433f a930 42c0
000002a0: 7b3f 2bc0 7ea7 1ebf d4db 6bbf 6c0e 173f
000002b0: 9f89 c93e 43ea 0dc0 284d dd3d 12da 813e
000002c0: 3246 e9be 311d 8f3f 331c 733e b6d7 b53c
000002d0: ab0b c03f 3abe a83e 53a6 2dc0 31d5 0ec0
000002e0: 6965 033e 842c 43bf ee8a 3b3f b1a0 043f
000002f0: e4a1 02c0 6a05 073e 4f0e 093f 100c d33c
00000300: e135 903f 8741 1d3f 075b 05bc d4eb 96be
00000310: c8d9 b4be 8705 8a3e f771 32be 3d1e 3ebe
00000320: 54ed 42be a5b5 733d 58da bdbd b70a 223f
00000330: 94dc 373e 14f3 debd 49d6 3d3e efab 6fbe
00000340: 458c c03d 3094 41be 44ea c63f 3a09 8f3e
00000350: 1501 37c0 3f60 1fc0 b4c5 5abd 39a7 0cbf
00000360: 2e22 d43e c41b fa3e f4e4 07c0 402f b43d
00000370: 7e19 6c3d e89a 7dbe d76a 6c3f fbfc 193f
00000380: 2731 343e 0503 c73f 31f2 213e a4a2 26c0
00000390: 9826 0cc0 d9a7 ad3d deac 68bf 8de0 1f3f
000003a0: 53b6 0e3f 7229 d0bf 5055 4c3d 89cb cd3e
000003b0: ccd2 a43d 90c4 953f c58e e83e 830a 023e
000003c0: c2da b63f 5e9a 2d3e a9df fcbf 3ba5 02c0
000003d0: 718f 003f 8aa4 0abe f0ac 7c3e 05ec b63d
000003e0: 01fd cdbf 80d9 ccbd e7b4 8b3e 3f8a 8c3d
000003f0: 3a48 893f 1eda bb3e 31c0 573e 009c 983f
-2.0919504 0.09395223 2.510197 2.4868572 0.0766741 0.18704388 0.04576181 0.16001752
2.2200117 0.0069473386 0.75188774 -0.050101474 -0.20772037 0.2882496 -0.023852905 -1.1494687
0.65739477 1.975829 1.2057588 -0.32949215 0.13771942 0.70758563 0.6815585 2.4873347
-0.08754419 0.91049504 0.057113584 0.18800043 0.6523793 -0.117944956 0.46796376 0.03491325
0.34195068 0.35061795 0.17104563 0.1833073 0.53586453 0.52394897 0.1121971 -0.2552798
-0.091715224 -0.2292595 0.38464522 -0.32241368 -0.124868885 1.6806976 0.3808543 -2.7306538
-2.5135162 -0.026062053 -0.59772044 0.6298826 0.6089873 -2.228244 -0.1811971 0.74650186
0.14302789 1.2810112 0.75097483 -0.0155870095 0.020429134 0.24148092 0.09597173 0.19871229
-0.099852845 -0.24078435 0.04659894 -0.19841322 -0.118965104 0.1972315 0.21800318 -0.121696025
-0.05453883 0.06866175 -0.037403405 0.13286686 0.038389754 0.21094526 0.042523127 -0.025031893
-0.2109245 -0.01893584 -0.43511936 -0.03820443 0.13191938 -0.026067175 0.24355398 -0.40650585
-0.23762792 -0.20979472 1.5404031 0.11728705 -2.2803903 -2.056037 0.19905542 -0.26082814
0.19789478 0.26012602 -2.1402376 -0.12958911 -0.015710369 0.09478572 1.0336975 0.39133197
0.20951405 -1.385292 0.522615 2.0163732 1.014529 -0.81312853 0.12502506 0.652976
0.7836277 2.8380466 0.16407022 0.6327834 -0.036752407 0.28157467 0.92619896 -0.1212133
1.6248013 -0.08978144 -2.7628179 -2.4613447 -0.43453872 -0.58119285 0.4407471 0.26915962
-2.2688663 -0.060735777 0.4438758 -0.20124389 1.2168611 0.4915031 0.108973235 1.7344602
0.073274754 -2.8564706 -2.5233493 -0.17263499 -0.9671669 0.65803593 0.5584527 -2.300531
0.24776557 0.19491448 -0.17282231 1.1920683 0.45025733 0.085850336 1.5621742 0.11536414
-2.7856233 -2.4111397 0.052924532 -0.9316462 0.76421714 0.77010643 -2.0715275 -0.16837075
0.6405244 0.03933849 1.3961515 0.6283011 -0.018523246 2.3793213 0.76416767 -3.03422
-2.6757495 -0.6197432 -0.92132306 0.5900638 0.3936281 -2.2174232 0.10805732 0.25361687
-0.45561367 1.1180784 0.23741226 0.022197586 1.5003561 0.3295763 -2.7132766 -2.2317622
0.12831654 -0.762398 0.73258865 0.51807696 -2.041131 0.13185659 0.5353746 0.025762588
1.1266443 0.6142811 -0.008139378 -0.29476798 -0.35322404 0.26957342 -0.17426287 -0.18566222
-0.19035846 0.0594994 -0.092701614 0.632976 0.17955238 -0.10886207 0.18538775 -0.23405431
0.09401754 -0.18904185 1.5540242 0.27936727 -2.859441 -2.4902494 -0.0534112 -0.5494266
0.41432327 0.48849308 -2.1233492 0.08798075 0.0576415 -0.24766123 0.92350525 0.6015164
0.17596875 1.5547796 0.15815045 -2.6036768 -2.1898556 0.0847928 -0.90888774 0.6245201
0.55746955 -1.6262648 0.049886048 0.40194348 0.08048019 1.1700611 0.45421425 0.12699322
1.428551 0.16953418 -1.9755756 -2.0413349 0.50218874 -0.13539329 0.24675345 0.08931736
-1.6092836 -0.10002422 0.27286455 0.06862306 1.0725167 0.36689848 0.21069409 1.1922607

bias f4 [128]
00000000: 2f2d 9bbe a9ba 483f 076e 753e b0c3 8b3f
00000010: 1cec 60be 4b06 42bd 724f 823e 0605 0c3f
00000020: 904f 3b3f a4b2 533f 98a5 6f3f d11e 4a3f
00000030: 04d3 653f b746 a7be 21f7 3c3f 6449 f63e
00000040: 0349 2d3f eeb6 93bd ce0b ebbb 814b 913e
00000050: b972 033f d2b4 50be 539a 843f 011e 523f
00000060: c660 463f 1464 193f 2dce 3b3f 72e4 4b3f
00000070: 8ad7 e83e 8bca 32be 720e 273f 63ed 0d3f
00000080: feeb 65be aba8 1fbf 8abf 8d3e baa8 4a3e
00000090: c608 a1be 4c0d 893d b9eb 773f ddf1 3fbe
000000a0: f6b8 0a3f a260 213f 27d2 373f 1df5 0dbe
000000b0: 08b9 b2bd 5c8f f03e 9577 433f d86b 693e
000000c0: 5619 263f cba5 123f 5c0b ebbd 9ffb 613f
000000d0: bc11 5f3f a1a0 26bd bf41 a03e 798f 4c3f
000000e0: d89d b23e 7ef8 683f d439 c5be ae28 403f
000000f0: 908c 453f 3b2e a63e ec80 813f cf46 8a3e
00000100: 1aca 553f 9856 263f 8b7d f93e a82e 413f
00000110: 1e39 bc3e b6c2 833b eab0 e0bd 4c70 17be
00000120: f884 653f daaa b1be b296 483f b457 2a3f
00000130: 8abb 203e 1bf5 3c3f 3bdf e23c f493 683f
00000140: fed1 c93e 1933 c1bd 57fa 8a3f c5ae 663e
00000150: ca38 9cbe 5061 d83c f578 8b3f d22c 8a3e
00000160: 6622 bdbe a472 0dbe a0f1 003f 6868 263d
00000170: 1f26 173f cf71 153f fbcd d13e 4ddd 193e
00000180: 22d5 583f 5153 323d e9e9 5f3f cc2d acbe
00000190: 7dd7 b83e 9595 45be 6959 353f a266 1fbf
000001a0: 5703 8d3e 1560 4f3f e2e6 dd3e eed9 0dbf
000001b0: 1470 9b3e 22d2 503f 0aef 093f 645c 433f
000001c0: 8002 0cbe 94e1 de3d 8ddc 143f bf6a 823f
000001d0: cbb8 313f c428 ea3e c241 fe3e 6940 603f
000001e0: d5ed 443f e7ec d13e 0790 453f 6edf 093f
000001f0: 2f8b 053f b670 3e3f 4c0e 823f 62e6 ad3e
-0.3030791 0.7840982 0.23967753 1.0919094 -0.21965069 -0.047369283 0.25451237 0.54695165
0.7316828 0.8269446 0.9361205 0.7895327 0.8977511 -0.3267114 0.7381459 0.48102868
0.6768953 -0.072126254 -0.007173038 0.28377917 0.5134693 -0.20381477 1.0359596 0.8207703
0.77491415 0.5991833 0.73361474 0.79645455 0.45476943 -0.17460077 0.65256417 0.5544035
-0.22453305 -0.6236674 0.27685195 0.19790927 -0.31452006 0.06691989 0.9684406 -0.18744607
0.5418848 0.63038075 0.7180504 -0.13863035 -0.08726698 0.46984375 0.7635434 0.22795045
0.6488241 0.5728423 -0.11476776 0.8827457 0.87136436 -0.04068053 0.3130016 0.7990642
0.3488605 0.9100417 -0.38520682 0.7506207 0.77167606 0.32457146 1.0117469 0.27007148
0.8351151 0.6497588 0.48728594 0.75461817 0.36762327 0.004021014 -0.10971244 -0.14788932
0.8965602 -0.34700662 0.7835494 0.66540074 0.1569654 0.738115 0.027694335 0.9085076
0.39418024 -0.09433574 1.0857648 0.22527607 -0.30512077 0.02641359 1.0896288 0.2698732
-0.36940306 -0.13813263 0.5036869 0.040626913 0.59042543 0.58376783 0.40977463 0.15025826
0.84700215 0.043536488 0.87466294 -0.3362869 0.36101905 -0.19295342 0.70839554 -0.6226598
0.2754161 0.81005985 0.43340212 -0.5541066 0.30358946 0.8157064 0.5388037 0.7631285
-0.13672829 0.10882869 0.58149034 1.0188826 0.69422597 0.45734227 0.49659544 0.8759828
0.769254 0.41001055 0.77172893 0.5385655 0.521655 0.74390733 1.0160613 0.3396483

weight f4 [128, 128]
00000000: 5095 13bd c0ac 323b 1369 afbd 50f3 813c
00000010: 8469 d93c 8ec4 19bd 35e7 1bbd 998a 963d
00000020: c86b 953c 4eb0 a8bd cae2 95bd b8ee bd3c
00000030: 6f8c ae3d 6290 533d 603d 313c 5601 0fbd
00000040: 066b 4e3d 244b dc3c b263 2e3d 8007 33bd
00000050: 8547 8e3d 30fd 5fbd 830e 1dbd 176e 92bd
00000060: 80fe dcba cb2f 64bd 4045 eaba 97f6 a7bd
00000070: fa71 4b3d dcec a3bd 6d3f 18bd fab6 4a3d
00000080: a40f 8cbd bf56 833d 5e21 a3bd 7c78 84bc
00000090: 734a 56bd 4f1c 67bd 181b 6dbc 3634 a8bd
000000a0: 66b5 69bd 0024 dcba d85b bfbc ce36 253d
000000b0: a8e0 c33c cce8 023d 48b4 39bc 3efb aabd
000000c0: 12e9 303d ad6e 30bd 50d6 d03b 9a8c 3ebd
000000d0: 9859 6c3c 4bf6 b43d a54b 93bd e0f5 a5bb
000000e0: 6cca 65bd 556f 973d 8b7d 8cbd 7867 43bc
000000f0: e0cc 293b bc6f b2bc e68c 6ebd 2638 0f3d
00000100: f376 873d 16cd a6bd 6b4c 0cbd bc43 0a3d
00000110: 162b 3d3d eed9 493d 93ef b43d 9b0d b4bd
00000120: 00b0 7fbc 3824 27bc 9217 a4bd d827 95bd
00000130: d803 8fbd 307f 81bd 5205 7bbd 6dd5 9b3d
00000140: 6a88 9dbd 3883 4f3c 7028 b3bb a411 f3bc
00000150: 8f2b 913d 7800 733c 7000 803c 528b aebd
00000160: aacf 3cbd cd2c 9fbd 204d 6dbd 4661 733d
00000170: 8e10 1a3d dd4e 873d 8c27 cb3c dc42 a0bc
00000180: 2172 923d e725 833d f237 93bd d037 a13b
00000190: 7a49 7cbd 7d5e 883d 8097 833c f05c d63b
000001a0: 6a73 1b3d 2e74 173d c6ce 383d 7618 193d
000001b0: 66c1 9abd f02a 95bb f880 4ebc f61e b3bd
000001c0: 9e10 493d 98b5 71bc c8be 4dbd 4628 4f3d
000001d0: ce2f eabc 0c24 cdbc f7ab 5ebd c9e2 81bd
000001e0: 400f 3f3c cce5 96bc 42ca 593d 4d6b 16bd
000001f0: 9eb2 98bd f232 033d 2620 72bd 6955 30bd
00000200: 2da8 d7bf b8d8 27bf 33d1 323f 87ba cd3e
00000210: dd4a a23d 5c30 1bbe 92d6 f23d 409c afbf
00000220: 17d8 943e 22b4 683e 42fc 113f 75a0 c33e
00000230: 49f6 9b3e af65 a0bd aecb 123e 0a7b 463d
00000240: 4696 e53d 6895 ce3c 1e50 15be 3d29 7e3d
00000250: d120 bf3e b61d 56bd 735b 633f 5dee 183f
00000260: 54ee c73d c0b8 d1bb ecff e23c 3ef8 c13d
00000270: cae8 303f 8930 1f3c c3d3 3c3d 6e41 6f3e
00000280: f073 fa3c ed13 f2be 81f0 f63e 5c74 a43c
00000290: 6c25 96bc 5510 07be 9ed7 8c3f bdf1 debc
000002a0: 215f 013f ee01 6d3e 5891 ac3e 60cf 523c
000002b0: 118a b8bd a7f9 483e 63de fb3d 312f 843d
000002c0: 9baf ca3e b789 993e eec5 09be 6fc5 143f
000002d0: ce6a 3a3f 9476 b9bd 2657 8e3d 0286 e03e
000002e0: 00d4 b13d 4eb1 bf3f baa2 b8bc af27 e63d
000002f0: 258f 793f 7932 cfbf b03b f23e f3f7 55bf
00000300: 08ad 9d3e fcd0 403f f780 573e 1db8 0c3e
00000310: 2fb3 d93d ae87 06bf c150 4abe 1fe7 aabd
00000320: ed19 b93f 15bf a9bc 6b49 aa3e fe5c 2a3e
00000330: 7091 0b3c 5885 133e 9460 413c a60d 503f
00000340: dc88 533f 46e0 7d3c 1096 923f 729e 07c0
00000350: 114d 9bbd 0d8d ac3d 96d6 173f ce30 0b3e
00000360: afe6 6fbe b828 40bc 7026 8f3e 9802 67bd
00000370: 9ac9 393e 0b80 2f3f ad62 9cbf 9c1a a5be
00000380: 0eff ff3c a26a 89bd 51fe 023f 138c bfbd
00000390: ef69 1f3e 23f2 0cbe e078 4d3e b559 8cbe
000003a0: eed6 db3d 8caf 5d3e ebaa d53e ee99 8bbe
000003b0: a07f 0a3f 2284 9a3e 8b30 e23d 0ab1 d53d
000003c0: 6f0b 33bd 336e 8d3d 186a 913e f753 913f
000003d0: 48d0 1d3f 796a b33e 9ede 6d3e 93ec 753e
000003e0: 6155 393f aa50 f03e 74f4 153f 15cc f13e
000003f0: 2977 773f b29f 2a3e 35e4 b13e 5a37 b8bc
-0.036031067 0.0027263612 -0.08564963 0.01586309 0.026539572 -0.037540965 -0.038062293 0.07350654
0.01823987 -0.082367525 -0.07318647 0.023185119 0.08522879 0.051651366 0.010817856 -0.034913383
0.050395034 0.026891299 0.042575546 -0.043708324 0.06947235 -0.054684818 -0.038343918 -0.07149904
-0.0016860515 -0.05570964 -0.0017873421 -0.0820133 0.049669243 -0.08004162 -0.037169863 0.049490906
-0.06838921 0.0641303 -0.07965349 -0.016170733 -0.052317094 -0.05642348 -0.014471792 -0.082130834
-0.05705776 -0.0016795397 -0.023359224 0.04033547 0.023910835 0.031960294 -0.011334486 -0.08348702
0.043191023 -0.0430743 0.0063732043 -0.046520807 0.014425658 0.08836039 -0.071921624 -0.005064711
-0.056101248 0.07394282 -0.06859883 -0.011926524 0.0025909469 -0.021781795 -0.05823984 0.034965657
0.06614485 -0.08144586 -0.034252565 0.033756003 0.046183668 0.0492801 0.08834758 -0.087916575
-0.0156059265 -0.010201506 -0.08012308 -0.0728299 -0.06983155 -0.06323087 -0.06128437 0.07609067
-0.076920345 0.012665562 -0.005467467 -0.029671498 0.07088386 0.014831655 0.015625209 -0.08522667
-0.04609648 -0.07772217 -0.05793488 0.05941894 0.037613444 0.06606839 0.02479913 -0.019563131
0.071506746 0.06403714 -0.07188405 0.0049199834 -0.06159351 0.06658647 0.016063452 0.0065418407
0.037951864 0.036976032 0.04511907 0.037376843 -0.07556419 -0.0045522377 -0.012603991 -0.0874614
0.049088113 -0.014752768 -0.05023077 0.050575517 -0.028587248 -0.025041603 -0.054363217 -0.06342084
0.011661351 -0.018420123 0.053171404 -0.036723424 -0.074559435 0.032031007 -0.05911269 -0.043050203
-1.6848198 -0.6556506 0.6985046 0.40181372 0.07924435 -0.15155166 0.11857332 -1.3719559
0.29071113 0.22724965 0.5702554 0.38208356 0.30461338 -0.078318946 0.1433551 0.048457183
0.11210303 0.025217727 -0.14581344 0.062051047 0.37329724 -0.05227443 0.88811415 0.59738714
0.09762254 -0.0064001977 0.027709924 0.094711766 0.6910521 0.0097161615 0.04610039 0.23364803
0.030572861 -0.47280827 0.48230365 0.020075016 -0.018328391 -0.13189824 1.1003301 -0.02721488
0.5053578 0.23145267 0.33704638 0.012866825 -0.09010709 0.19626485 0.12298276 0.064543135
0.395871 0.2998788 -0.1345441 0.5811376 0.7281922 -0.0905582 0.06950216 0.4385224
0.08683014 1.4975984 -0.022538532 0.11238038 0.97484046 -1.6187278 0.47311163 -0.83581465
0.30796075 0.75318885 0.2104529 0.13742109 0.1062988 -0.5255078 -0.19757368 -0.08344864
1.4461037 -0.020720998 0.33259138 0.16637036 0.008518562 0.14406335 0.011802811 0.81270826
0.82630706 0.0154953655 1.1452045 -2.1190457 -0.075830586 0.08425341 0.5931181 0.13592836
-0.23427843 -0.011728458 0.27959013 -0.056398958 0.18143311 0.68554753 -1.2217613 -0.32246864
0.03124955 -0.06709792 0.51169306 -0.09352889 0.15567754 -0.13764243 0.20065641 -0.2741219
0.10734354 0.21648997 0.41731963 -0.27265877 0.5410099 0.30178934 0.11044415 0.10434158
-0.043712076 0.069057845 0.28401256 1.1353749 0.61645937 0.3504217 0.23229453 0.24016027
0.723959 0.46936542 0.5857613 0.47226015 0.966662 0.16662481 0.3474442 -0.022487331

bias f4 [128]
00000000: 807a 07bb e69b 013f 6d22 033f 055f 0e3f
00000010: 2f38 6b3b 81ac 043f a269 9abc 5984 2fbc
00000020: fce1 053f 9bde 3a3f 5669 b13b 42f8 213f
00000030: b854 2b3e c939 ef3e 36ee 1fbd bd9d 26bd
00000040: b1a8 dc3e 93c0 933d 9dcb 8fbd 9701 61bd
00000050: 65a4 263b d67e 163f 2554 9a3d eca3 4cbd
00000060: 0a21 723d f096 043f c63b 5b3d 19ea cbbd
00000070: 3133 2cbd e578 29bd 31f9 d73e f125 d03e
00000080: 2e8f 9cbd a183 03bd a2f9 b33e 4f1e 2a3f
00000090: b356 283d 0de8 ae3e f9b1 27bd d7f2 20be
000000a0: dcc6 f439 50e1 de3e 48ed 093f e52a 593e
000000b0: a1ff e73e c39b 31bd 9e9b 233f 5490 08bc
000000c0: a94e 813d d8fc ee3e e37c ca3c 1695 c03e
000000d0: bb45 ed3e 9ab7 86bc ee53 b9bd 7070 3f3f
000000e0: 9efa a83e 4e26 b0bd c5a7 f6bc ffef ec3e
000000f0: 9498 083f ac8d 4ebd 44f6 c23d 3ed9 293f
00000100: cdc3 753e 3b3f 32bc 28b1 013c 1dda cb3e
00000110: 0de1 fb3e 83a2 6c3d 22f9 07bd ce90 1d3f
00000120: b395 e13e d10b 023f 00dc 9b3b 5bb7 90bd
00000130: 22ce 56bd 816a 183f 530d 3a3f cc4e 63bd
00000140: 86a5 103f bd8e 1dbd bdb9 293e 1207 9d3d
00000150: ba9d 183d 1811 bd3e b035 c6bd 1e75 d63e
00000160: 3560 ef3e 014a c4bd 941a e4bc 72bc 6bbd
00000170: 8e27 353f 5ea9 6abd 5c49 82be d739 e13e
00000180: d6a9 a7bd 803a 683e a702 253f 7200 e13e
00000190: 2c62 d43e 93bc e0bc 4fe4 b3bd 2d81 883d
000001a0: 9f5c 2d3d 06c2 1f3f ef29 d13c 60e5 49bd
000001b0: de70 343d 486f ed3e 9636 1d3f 81d8 413e
000001c0: 7180 8b3d b7b9 083e fd11 1ebd b004 9f3b
000001d0: d289 aebd 1909 773d f0ae 203d 553f 733d
000001e0: 8493 aa3d eed4 8bbd cb4c f13e 688a 82be
000001f0: a1d4 423e a54f 473d 92d2 b83e 8d01 d2bd
-0.002067238 0.5062851 0.51224405 0.5561374 0.0035891642 0.5182572 -0.018849198 -0.0107127065
0.5229795 0.7299592 0.0054141684 0.63269436 0.16731536 0.46723774 -0.039045535 -0.040677775
0.4309745 0.07214465 -0.07021258 -0.054933157 0.0025427577 0.58787286 0.075355805 -0.049961016
0.05911354 0.5179281 0.0535238 -0.0995676 -0.042041007 -0.04137506 0.42182305 0.40653947
-0.07644497 -0.032107953 0.35151392 0.664525 0.041098308 0.34161416 -0.040941212 -0.15717636
0.00046687468 0.43531275 0.5387769 0.21207769 0.45312217 -0.043361437 0.6390933 -0.008335192
0.06313831 0.4667728 0.024717754 0.37613744 0.46342263 -0.01644497 -0.090492114 0.7478094
0.33003706 -0.08601056 -0.030109296 0.46276852 0.53357816 -0.050428078 0.09519628 0.6634711
0.24000473 -0.010879333 0.0079157725 0.39814845 0.49195138 0.05777217 -0.033196576 0.6154908
0.44059524 0.5079928 0.0047564507 -0.07066222 -0.052442677 0.5953751 0.7267658 -0.05549507
0.5650257 -0.038466204 0.1657476 0.07667364 0.037259795 0.36927104 -0.09678209 0.41886228
0.46753088 -0.095844276 -0.027844705 -0.057552762 0.7076348 -0.057290427 -0.25446594 0.4398944
-0.081866905 0.22678566 0.6445717 0.43945652 0.4148115 -0.02743367 -0.08783781 0.06665263
0.04232466 0.6240543 0.02553269 -0.049291015 0.04405295 0.46373963 0.61411417 0.18930246
0.06811608 0.13352095 -0.038591374 0.0048528537 -0.08522381 0.06031141 0.039229333 0.05938657
0.083289176 -0.068277225 0.471289 -0.2549622 0.19026424 0.04865994 0.36098152 -0.10254202

weight f4 [1, 128]
00000000: 4028 35bd df83 3a3f 3f82 3d3f 3909 223f
00000010: 182b 1ebd f8f1 433f 7df7 c5be c344 9e3c
00000020: 1e5e 4e3f ec7d 413f f6fd 36bd 9a9f 0c3f
00000030: e45b 50bf 6d7d 2b3f 3a4b 4bbd 809a 5fbd
00000040: 9eb3 493f f0fc 743d c10d 19bf e73c 43bd
00000050: 9c80 5abc 581e 393f 2d4d 8dbc dee3 02bd
00000060: b7d2 b1bd c923 3a3f 5ae7 fdbc d7d1 e0bc
00000070: 94a0 91bd b7a1 21bd fb50 273f 2343 2a3f
00000080: 9479 73bb 3052 f5bb dc1a 9ebf 7f67 033f
00000090: 51c2 1bbd b957 363f 718d 8bbd 9200 59bd
000000a0: 0d76 a2bd 4126 443f e940 0b3f 6825 63bf
000000b0: df30 243f cb79 e3be 2079 2f3f cd4b bbbc
000000c0: 7235 3cbf 4213 5f3f e8c6 b53c 577e 3c3f
000000d0: fa54 4c3f c3ce 85bd eecf 9a3c b86b 0c3f
000000e0: 30d6 abbf 2201 59bd be2a 3ebd dafb 513f
000000f0: 3233 363f f1cc 80bd 2b03 f63e 6f5f 323f
00000100: 13c3 9ebf 5fa8 e2bc 7557 8bbd 2c06 253f
00000110: ea48 3d3f ee36 97bd b48d c8bc 1f13 3b3f
00000120: 24cc 433f 617a 443f 180d 7cbd a71e 06be
00000130: 53c9 febc 105f 373f 3f5d 2f3f 9ccc e2bc
00000140: ac3e 443f 688f 8b3d f783 42bf 7b09 bfbe
00000150: 223d 63bd f9e8 413f 7aa6 58bf 316b 163f
00000160: 5983 523f 2f94 5cbe 6077 51bd 5631 81bc
00000170: 5e22 483f adf1 0dbc d678 a23c f331 073f
00000180: 344f 873d c04d 2dbf 7a0a 183f 58d8 493f
00000190: 8ee1 4b3f 05e7 673a 64f8 3bbe 1077 28bf
000001a0: 16fb 28bd 52a4 393f 3763 493b fcc2 8dbd
000001b0: 497f 8b3d 0c4e 4e3f 2c81 5e3f dcbd 94bf
000001c0: 27f2 af3d 2e10 17bf 88a7 323d 9e2b 483d
000001d0: 53a8 81bc 207a 4bbc 51d6 7bbd 46c4 913e
000001e0: f4eb 6ebd 1c98 483d d3e1 533f d000 8bbe
000001f0: c52e 67bf dd11 cdbc 6c96 473f 9896 e7bc
-0.04422784 0.7285747 0.74026865 0.6329532 -0.038615316 0.7654109 -0.3866538 0.019319898
0.8061236 0.75582767 -0.04467579 0.5493103 -0.81390214 0.6698826 -0.04963229 -0.054590702
0.787897 0.059811532 -0.5978661 -0.047665503 -0.013336327 0.72311926 -0.017248714 -0.031955592
-0.08682769 0.72710854 -0.030994106 -0.02744381 -0.07110706 -0.039460864 0.6535794 0.6650869
-0.0037151324 -0.007486604 -1.2351947 0.513298 -0.03802711 0.71227604 -0.06814087 -0.05297906
-0.07932673 0.7662087 0.5439592 -0.8872895 0.6413707 -0.44428858 0.685442 -0.022863293
-0.7351905 0.8713876 0.022189572 0.7363028 0.79817164 -0.06533577 0.018897977 0.54851866
-1.342474 -0.052979596 -0.04642748 0.8202492 0.7117187 -0.062890895 0.48049292 0.6967687
-1.2403282 -0.027668176 -0.068037905 0.6446254 0.73939383 -0.07383524 -0.024481632 0.7307605
0.7648337 0.76749235 -0.061535925 -0.1309763 -0.031101858 0.7162943 0.6850166 -0.027685456
0.7665813 0.06814462 -0.7598261 -0.3731192 -0.055478223 0.75746113 -0.84629023 0.5875731
0.8223167 -0.21540903 -0.051139235 -0.015770596 0.7817744 -0.008663577 0.01983301 0.5281059
0.06606904 -0.6769676 0.59390986 0.7884574 0.79641044 0.0008846375 -0.18356472 -0.65806675
-0.04125508 0.7251636 0.0030729303 -0.06921956 0.06811387 0.8058784 0.8691585 -1.162044
0.08591109 -0.59009063 0.0436168 0.04886972 -0.015827334 -0.012419254 -0.061483685 0.28470057
-0.05833049 0.048973188 0.82766455 -0.27149057 -0.9030574 -0.025032932 0.779639 -0.02827005

weight f4 [4, 128]
00000000: f974 19bd c8c7 8fbd 6c5b 363d e3f7 b13d
00000010: 8c87 c9bc b2dd 6abc aaf6 403b 6962 86bd
00000020: 0fc8 783c 90ff 89bd da9b 3fbd ea16 8c3d
00000030: 2235 89be cbd0 4c3d 1b8d 16bc 7421 bebd
00000040: 7b51 083d 0399 b53d 877d c83d 2cc4 16bd
00000050: da57 c93d 507c 48bd 5436 90bd 1aac 153d
00000060: 0d32 b43d 504f a8bd 199d 053d 9462 cc3b
00000070: e2c4 55bd dfc2 18bd b129 183d f39c 95bd
00000080: 8fcf 383c 2076 5cbd 9538 083e f518 6f3d
00000090: 4d01 4b3c 71ec 78bd fccc 0fbd 97ef 82be
000000a0: 288f c0bc 4622 5b3d 93aa 91bd 45f8 63be
000000b0: b74c be3c 7778 b33d 1a38 a8bb 0bf6 823d
000000c0: 14d5 993e 8b19 05be 7e0d 43bd e495 e6bc
000000d0: 96de b3bd a452 9c3d 010d 93ba 698c 953c
000000e0: 1234 d03d 2b0e 91bc 3114 923d 405d 13bd
000000f0: 2fe0 3bbd 9d95 8fbc 6a8e 96be 6f05 c0bb
00000100: 7c03 3e3e 5081 a33b a0cb d5bd 8a10 313d
00000110: 5e7c 3a3d 65fb 3cbd 1476 9f3c 2dfa 963d
00000120: e330 9d3b b149 f6bd c072 973a 74e0 5fbd
00000130: 5999 db39 80f0 a0bd e859 cb3d 3568 a03c
00000140: dc8f bebd f386 b0bd a710 d8bc 55cf be3a
00000150: 6a67 6d3d dbfd e4bd 5d01 383e 6e94 c0bd
00000160: 8859 9fbc a90d 46bd 232e 2b3d 4f01 c73c
00000170: 14c7 9e3d f5de 053c 2fc7 bdbd 8ac9 423c
00000180: 128c 873d d45f 2cbe 0e7a a43d 690f 5ebd
00000190: 495c 83bd 12ea 933d 53f3 c8bc 67e7 72bd
000001a0: a377 b63d 1416 0e3d 042e 3e3b c216 9d3d
000001b0: 8cf2 acbc 8392 873d e744 f8bc 0e5d 713e
000001c0: e4dc 88bd af93 9abd 4c57 2abd 047f b43c
000001d0: 256d 25bd 60e0 be38 ded9 ae3d fe92 c9be
000001e0: cb99 96bd fc14 2ebc 269a 1ebe 68bb 95be
000001f0: cbd6 0c3d 3dff 843d fcf8 c2bd ac42 4d3d
00000200: b0b2 b23c 7e17 603d c6f6 51bd bb08 763d
00000210: e61d a5bd ce3a ec39 844b 933e 518a a93d
00000220: 603e dcbd 25ae d63c b881 413d 458a 19b9
00000230: 3a0d 24be 652e e0bd bdd8 64bd 05ca cebd
00000240: c4bc 2d3d cf55 7cbd 076f 433e 7ac4 823d
00000250: 34ce 6abe 023b e43c 1930 083c f913 b2bd
00000260: 069f 50bd 93a6 dfbc fdb1 9f3c bb5d 47bd
00000270: 2633 90bd cfcc 31bd 4cd3 753d 82aa 3b3d
00000280: 5fd7 fabb 203e 193b 136d d53c 8a3a c23d
00000290: aaee 8fbd df80 99bd d885 b2bc 02c2 6bbe
000002a0: 5a92 93bd d480 67bd ad9b bf3d eadd ecbd
000002b0: 7b5a 5cbc cb7b 6b3e 4697 5abd 4d61 413d
000002c0: 09f4 98bc 3c78 e9bd 1592 54bd 2c8d 9fbd
000002d0: caca 723d a280 48bd f3bd 8bbb b6a1 8b3d
000002e0: 881c 583e 84ec 823d a0b1 873c 3ba3 f0bd
000002f0: 641d 263d b493 f3bc 81b5 d3be d665 2c3d
00000300: 8694 623e 1ac7 cdbd 39b7 81bc b18f d23c
00000310: 6389 5b3d 2696 8b3d 2b4d 99bc 18b6 7cbd
00000320: 7e06 6e3c f694 a4bb d22e 6c3d 807f a13d
00000330: d427 81bc 58ee 8d3d 8112 043b 46d0 f93c
00000340: 62d5 433c 4278 18bd 083e 03bd 5237 a6bd
00000350: 27f2 adbd 32f1 533d 1e9b 7b3e 37ab f03c
00000360: 43ed fabd 3eeb 873d c19d 86bb d591 e63c
00000370: 33ab 823c c34a 99bd f04d e7bc 4168 51bd
00000380: 48b0 cbbc e6af 99be 366a 8f3d 4c07 e93c
00000390: 9c57 c13c bd58 3fbd 57cf 503d da6d fc3c
000003a0: d7cd 513d dfd1 383d 89ab ddbc 422c 873c
000003b0: 585e 513c d763 7cbd 2b66 15bd d3fa 1a3e
000003c0: a020 aebb 8f16 62be c7eb 84bd 09b1 2cbd
000003d0: ed67 60bc dcba e3bc 857a 38bd e4d2 65be
000003e0: 5d7e 42bc e712 913c 9c77 5ebc 5e2e 33be
000003f0: 7e19 803c a831 533c 99d4 c2bb 0842 613d
-0.03746507 -0.07020527 0.04452078 0.08689859 -0.024600767 -0.014335083 0.0029443898 -0.06561739
0.015184416 -0.06738198 -0.04677949 0.06840308 -0.2679835 0.050003808 -0.009188916 -0.092837244
0.03328083 0.08867075 0.097895674 -0.036808178 0.098312095 -0.04894668 -0.07041612 0.036541082
0.08798609 -0.08218253 0.032620523 0.0062373374 -0.052189715 -0.03729522 0.037149135 -0.07305326
0.011279955 -0.05382359 0.13302834 0.05837341 0.012390447 -0.060772363 -0.035107598 -0.25573418
-0.023505762 0.053499483 -0.071126126 -0.22262676 0.02322994 0.08763211 -0.005133641 0.06394585
0.30045378 -0.12998025 -0.04762029 -0.028147645 -0.08782689 0.0763295 -0.0011219085 0.01825543
0.101661816 -0.017706951 0.071327575 -0.035977602 -0.045868095 -0.017527396 -0.29405528 -0.0058600227
0.18556017 0.0049897805 -0.10439229 0.043228664 0.045528762 -0.046138186 0.019465484 0.07371936
0.0047970875 -0.12025774 0.0011554584 -0.054657415 0.00041885188 -0.07858372 0.09929258 0.01958094
-0.09304783 -0.086194895 -0.026375128 0.0014557639 0.05795995 -0.111812316 0.1796927 -0.09403311
-0.019451872 -0.04835287 0.041792046 0.024292616 0.07752815 0.008170833 -0.09266507 0.011888871
0.06618513 -0.1683343 0.080310926 -0.054213915 -0.06414086 0.0722238 -0.024530089 -0.059302714
0.08909538 0.034689024 0.0029019127 0.07670356 -0.02111175 0.06619742 -0.030306293 0.23570654
-0.066827565 -0.075477 -0.04158716 0.022033222 -0.04038729 9.101699e-05 0.085376486 -0.3936996
-0.073535524 -0.01062512 -0.1548849 -0.29244542 0.03438453 0.06493995 -0.09520146 0.05011241
0.02181372 0.054709904 -0.051260732 0.06006692 -0.08062343 0.0004505724 0.2876855 0.08278335
-0.107540846 0.026206085 0.04724285 -0.00014642726 -0.1602067 -0.10946349 -0.05587076 -0.10097126
0.04241635 -0.06160527 0.19085322 0.06385131 -0.22930223 0.027860168 0.008312249 -0.08695216
-0.050932907 -0.027301108 0.019494051 -0.048673373 -0.07041006 -0.04340821 0.06001596 0.045816906
-0.0076550688 0.0023382977 0.026052987 0.09483822 -0.070279434 -0.07495283 -0.021792337 -0.23023227
-0.07205649 -0.056519344 0.09355865 -0.11565764 -0.013449307 0.22996442 -0.05336692 0.047211934
-0.018671053 -0.11399886 -0.051897127 -0.07790598 0.059275426 -0.0489508 -0.004264587 0.06817953
0.21104634 0.06392768 0.01656419 -0.11749884 0.040555373 -0.029733516 -0.41349414 0.042089306
0.2212697 -0.10047741 -0.015834438 0.025703283 0.05359782 0.06815748 -0.018713554 -0.061697096
0.014527915 -0.0050226403 0.05766184 0.07885647 -0.015766062 0.06930226 0.002015263 0.03049482
0.01195273 -0.03722406 -0.03204158 -0.0811602 -0.084934525 0.051743694 0.24570891 0.029378517
-0.12252285 0.06636666 -0.004108161 0.02814571 0.015950775 -0.07484963 -0.028235406 -0.051124815
-0.02486433 -0.30017012 0.0700268 0.028445862 0.023601346 -0.046715487 0.050978985 0.0308141
0.051221695 0.045122024 -0.027059333 0.016500596 0.012778841 -0.061618652 -0.036474388 0.15134744
-0.005313948 -0.22078918 -0.064902835 -0.04216102 -0.013696653 -0.027799062 -0.04503872 -0.2244373
-0.011870948 0.017709209 -0.013578322 -0.17498156 0.015637156 0.012890257 -0.005945754 0.054994613

bias f4 [4]
00000000: 9b06 923e 322e 093e d18c 05be 0e33 86be
0.28520665 0.13396528 -0.13041998 -0.26210827

exp_avg f4 [128, 15]
00000000: ec7f 0b42 fe8a 1fc4 fb7d 18c5 2c4a c7c5
00000010: dd7d 90c2 1527 f1c4 37ff afc4 fc5c 8bc6
00000020: 5aaa 4243 0000 0000 b4d5 40c6 bed0 19c6
00000030: 700b d243 01bd ddc3 3b69 0ec8 d6ad 8041
00000040: 9316 9dc3 c1a5 6dc4 822a 16c5 f3a5 68c2
00000050: dcf3 4ec4 3dce ebc3 7ea0 c5c5 982b 9742
00000060: 0000 0000 d741 84c5 3161 9a47 3850 7843
00000070: 8852 28c3 3407 1dc7 d765 1abf 8ef9 34c0
00000080: ba8a 41c1 89d4 50c1 dc9b 3bc0 65f2 4dc1
00000090: 65f2 4dc1 2bba 89c2 609d 69c0 0000 0000
000000a0: 24ae 5bc1 1ceb 7c41 65f2 cdc1 0ffe a929
000000b0: ea85 c242 d5c4 08c1 dc27 b842 6ba8 c843
000000c0: b866 8344 8064 0f41 d1f2 9e43 c953 3b43
000000d0: ecd0 0445 ac90 29c2 0000 0000 f8dd a844
000000e0: 6a5a 33c7 b933 4bc3 5483 7742 184a 7946
000000f0: 0000 0000 0000 0000 0000 0000 0000 0000
00000100: 0000 0000 0000 0000 0000 0000 0000 0000
00000110: 0000 0000 0000 0000 0000 0000 0000 0000
00000120: 0000 0000 0000 0000 0000 0000 16fd 273e
00000130: 001d 84c0 0018 583b 4003 90be 9c7d 23bf
00000140: b04c 97bf fe8b 4f40 2259 2e42 40f6 c63c
00000150: 0000 0000 2998 c341 c30f df45 5a95 c240
00000160: bd7a 903f 2670 3844 90b0 75bf fd9d d441
00000170: 15bd 7c42 d43e 1a43 2db3 9d40 0819 6442
00000180: 7f36 b041 814e e143 d0e1 c7c0 0000 0000
00000190: cffe 8143 c9ed 8ac5 bf95 82c1 81e0 cd40
000001a0: 4724 2e45 0d89 d741 6ebb f8c3 3399 eec4
000001b0: d054 9dc5 d8d8 06c3 d644 c2c4 fbfb 51c4
000001c0: 3e35 68c6 c4a3 0c43 0000 0000 1c5d 2dc6
000001d0: 268a 17c6 c0e6 8e43 befb c6c3 26bb c0c7
000001e0: 3839 91c0 180c 1242 9a4e 9443 7a53 3b44
000001f0: 709e 8240 b4eb 6243 3efb 0c43 da31 cc44
00000200: aa4e 81c1 0000 0000 1e4c 9444 79be 5844
00000210: 0a26 99c2 1d2c 85c2 ea88 7146 ce4f 92c0
00000220: b371 5942 cd21 ba43 ce92 6a44 b26f 81c1
00000230: a7b0 9243 cd95 4043 f09d 1045 332a a7c1
00000240: 0000 0000 c098 c944 c44a 3e45 145c 62c2
00000250: a419 4ec2 3734 a146 b8b6 57c1 b20f 2843
00000260: 871e 2944 b2fa dc44 53f4 9341 65ec 0644
00000270: 8dcb a443 b14d 6f45 a2bc 85c2 0000 0000
00000280: 6242 1b45 8601 91c7 8b16 94c3 ec5b d542
00000290: d5a1 e146 96ca 93c0 f0c1 3ec3 33b6 8443
000002a0: 1396 7444 8e60 73c2 8648 a742 2cce 5e43
000002b0: 2e60 6345 f014 d6c1 0000 0000 c64b 1045
000002c0: c67f 25c4 806f 7140 4c11 3643 5d48 cf46
000002d0: 5e4b 12c1 f2ea e942 f0e4 e543 e599 9544
000002e0: c1c6 5041 1606 b943 20be 5943 1893 2345
000002f0: 6e92 39c2 0000 0000 eee8 d144 1c5d 44c7
00000300: 8ddb 4ac3 8e20 8e42 d8ce 9846 4267 d83e
00000310: 2760 22c0 7875 5e40 fec4 0440 54b4 b63f
00000320: a41e bb3f 7b76 ea40 6ec1 b742 521d bc3f
00000330: 0000 0000 3ff5 9842 a2b9 1f46 9cf5 8c41
00000340: cc41 67c0 9f1b c044 3e14 33c0 6155 0242
00000350: 7235 4543 763d f643 2e2b 17c0 6811 1b43
00000360: a158 b242 387f 9644 c271 46c1 0000 0000
00000370: 98b1 4144 4a14 8f43 769b 33c2 dc02 25c2
00000380: 74d3 2146 ba07 08c0 aeee cc41 c6e3 c442
00000390: 0c11 7e43 fe08 5040 141e a042 495f 0f42
000003a0: bde9 0744 5784 35c1 0000 0000 37bc 9f43
000003b0: fdc9 23c6 46ad 50c2 3d4c 3141 5bce 6845
000003c0: 6ed0 7dbf 3ff8 a141 b36d 5242 9c98 0143
000003d0: 690b 6340 33ec 3a42 b5e1 2341 d428 b043
000003e0: dbf8 cac0 0000 0000 fc71 4443 fe31 85c5
000003f0: e3f7 b2c1 3895 3240 629c 0245 3ab8 c83c
34.874924 -638.17175 -2439.8738 -6377.2715 -72.24583 -1929.2213 -1407.9755 -17838.492
194.66544 0.0 -12341.426 -9844.186 420.08936 -443.4766 -145828.92 16.08488
-314.17636 -950.5899 -2402.6567 -58.16206 -827.8103 -471.61124 -6324.0615 75.585144
0.0 -4232.23 79042.38 248.31335 -168.32239 -40199.203 -0.60311645 -2.8277316
-12.096369 -13.051888 -2.931388 -12.871678 -12.871678 -68.86361 -3.6502304 0.0
-13.730015 15.8074 -25.743357 7.54918e-14 97.26155 -8.548055 92.07785 401.31577
1051.21 8.962036 317.897 187.32729 2125.0576 -42.39128 0.0 1350.9365
-45914.414 -203.20204 61.87825 15954.523 0.0 0.0 0.0 0.0
0.0 0.0 0.0 0.0 0.0 0.0 0.0 0.0
0.0 0.0 0.0 0.16405138 -4.12854 0.003297329 -0.2812748 -0.6386354
-1.1820278 3.2429194 43.587044 0.024287343 0.0 24.449297 7137.97 6.0807314
1.1287457 737.7523 -0.9597254 26.577143 63.18465 154.24542 4.928122 57.024445
22.02661 450.6133 -6.246315 0.0 259.9907 -4445.723 -16.323118 6.4336553
2786.2673 26.94192 -497.4643 -1908.7875 -5034.6016 -134.84705 -1554.1511 -839.9372
-14861.311 140.63971 0.0 -11095.277 -9698.537 285.80273 -397.96674 -98678.3
-4.5382347 36.51181 296.61407 749.3043 4.0818405 226.92072 140.98141 1633.5579
-16.16341 0.0 1186.3787 866.97614 -76.574295 -66.58616 15458.229 -4.572242
54.361034 372.26407 938.2938 -16.179539 293.3801 192.58516 2313.871 -20.895605
0.0 1612.7734 3044.6729 -56.58992 -51.52504 20634.107 -13.482109 168.06131
676.477 1767.8342 18.494299 539.69366 329.59024 3828.8557 -66.86842 0.0
2484.149 -74243.05 -296.17612 106.679535 28880.916 -4.6184797 -190.75757 265.42343
978.3449 -60.84429 83.64165 222.80536 3638.0112 -26.760223 0.0 2308.7358
-661.99646 3.7724304 182.06757 26532.182 -9.1434 116.95888 459.78857 1196.8092
13.048524 370.04755 217.74268 2617.1934 -46.392998 0.0 1679.279 -50269.11
-202.85762 71.06358 19559.422 0.4226628 -2.5371187 3.4759197 2.0745234 1.4273782
1.4618726 7.326963 91.87779 1.4696448 0.0 76.479 10222.408 17.619926
-3.613391 1536.8632 -2.7981105 32.583378 197.20877 492.48016 -2.3620105 155.068
89.1731 1203.9756 -12.402773 0.0 774.7749 286.1585 -44.901817 -41.252792
10356.863 -2.1254716 25.616543 98.44487 254.06659 3.2505488 80.05875 35.843052
543.65216 -11.34481 0.0 319.47043 -10482.497 -52.169212 11.081113 3724.8972
-0.99146163 20.246214 52.60713 129.59613 3.5475714 46.730663 10.242604 352.31897
-6.342878 0.0 196.44525 -4262.249 -22.371038 2.7903576 2089.774 0.024501909

exp_avg_sq f4 [128, 15]
00000000: 9962 5346 8c0e a04a 56b7 3f4a 68bd 344b
00000010: 4e45 f148 991b eb4a 5537 0a4b 7274 664e
00000020: ba21 fd48 0000 0000 38c9 8c4e ca54 b650
00000030: 7aa9 444c ddd1 de49 ccee 0652 ec25 c744
00000040: eb76 3849 2314 ef48 feff d649 39df 8647
00000050: 5dd4 8d49 7f2c a249 e156 084d 710a 9e47
00000060: 0000 0000 2a6f 244d 5992 9151 2748 c04a
00000070: 6d00 8748 e07e 6550 6db9 2f40 db4a ca43
00000080: 778f af43 703e 2444 559d 2f42 6671 3744
00000090: 14ac 4444 48c2 c947 7beb 0042 0000 0000
000000a0: 3f3e aa47 904a 0c47 3e4e db45 6078 6942
000000b0: accd 1d4a fab8 9a44 8aff 2948 c14c f247
000000c0: 4766 bb48 8f36 6b46 5ed2 8148 a6b9 9948
000000d0: 80ef fa4b 5329 5f46 0000 0000 39fb 184c
000000e0: f7c3 b350 d5bb 0b4a 4c4b 9147 407d 9e50
000000f0: 0000 0000 0000 0000 0000 0000 0000 0000
00000100: 0000 0000 0000 0000 0000 0000 0000 0000
00000110: 0000 0000 0000 0000 0000 0000 0000 0000
00000120: 0000 0000 0000 0000 0000 0000 2a15 453e
00000130: 2f22 b341 aeab 6442 c1fe c942 71f1 5b40
00000140: 9f0e dd42 9f16 e242 3578 1d46 9d84 e840
00000150: 0000 0000 35a7 3546 bc7b c74d 30b5 f943
00000160: 0d7c 9141 05e2 074a 88f3 2e41 06e7 5945
00000170: 18b5 0e45 1f14 ef45 59ca 8343 3442 a745
00000180: 627e be45 8fac 2349 aa9a ac43 0000 0000
00000190: 19f9 4349 77d5 604d 10e3 0547 4365 a944
000001a0: 3677 0b4d 6018 ce45 db87 4d4a 29d1 e549
000001b0: 6a09 da4a 4798 5d48 be21 904a 6b57 aa4a
000001c0: a008 164e ad23 9f48 0000 0000 956a 334e
000001d0: d00f 5650 b059 ce4b 4900 9349 d357 6351
000001e0: 6bda a743 89a0 7a47 77ff 1c47 6f14 0b48
000001f0: 3aae b845 f33f a947 acf8 ca47 7e89 294b
00000200: 9c6d 9945 0000 0000 e9c7 554b 5f95 324d
00000210: c13a 2b49 f5ff bf46 cb84 a34f 5758 0244
00000220: 4e34 c247 acd8 6e47 22c4 5448 f8b1 1846
00000230: 7481 0148 e4f3 1b48 7bc4 824b 3a20 e945
00000240: 0000 0000 bff4 a34b 1bf5 8b4d d5f5 8349
00000250: e554 1447 048b fe4f d7cf 3245 b058 df48
00000260: 9fca 9c48 5abd 7b49 374c 1e47 c4cd 2a49
00000270: 86b6 4a49 ebed a54c fbd2 1a47 0000 0000
00000280: 5ee3 c94c 7672 6651 8334 ae4a d236 3a48
00000290: 1467 2c51 5d9c 2344 126f 4948 e863 8c47
000002a0: df48 a348 6774 8446 e4a4 4248 0da4 8948
000002b0: 294f e84b a1ed 5546 0000 0000 5388 164c
000002c0: 92c4 e24b b31c f949 875c a946 5bfe 0d50
000002d0: 10e2 9044 5074 3a48 baf2 0148 e715 d448
000002e0: 70be 8646 3fcf 8d48 1be9 a948 2178 0b4c
000002f0: eb64 8646 0000 0000 52e4 294c b028 c750
00000300: c18d 0b4a 3b73 9847 b294 8f50 f7b4 313f
00000310: 2965 5b43 1da5 5e43 0f25 dd43 7738 e441
00000320: 1511 f843 ea9c 0144 a005 4947 805c 1442
00000330: 0000 0000 bdf4 5947 e0fc 3c4e b4ac 0e45
00000340: 7f88 fd42 f20c dd4a 803d db42 e213 d146
00000350: e5ad 7846 62dd 6647 3cd8 1d45 c29b 0847
00000360: 2385 2447 13d4 8c4a c199 0645 0000 0000
00000370: 6995 b04a a648 704c bb03 7e48 539b 1746
00000380: 3c27 c44e b509 6042 f148 1046 b51d c945
00000390: 7879 a046 3855 4b44 e451 5946 5d16 8146
000003a0: c1f4 d549 fae5 4b44 0000 0000 8c32 024a
000003b0: 83b3 8f4e eb26 d847 9dbd 6b45 2619 5f4e
000003c0: 924f 0841 706d 1945 7cca c244 c2ac a145
000003d0: 135d 3943 48ec 6445 0d3e 8545 9e71 e648
000003e0: 3586 6f43 0000 0000 55dc 0a49 2272 344d
000003f0: f7de c446 f0df 6f44 d8b1 df4c 6bf4 b03e
13528.649 5.244742e+06 3.1410775e+06 1.1844968e+07 494122.44 7.7040125e+06 9.058133e+06 9.6659776e+08
518413.8 0.0 1.1809987e+09 2.447208e+10 5.155377e+07 1.8253396e+06 1.4488299e+11 1593.185
755566.7 489633.1 1.7612798e+06 69054.445 1.1618676e+06 1.3285279e+06 1.4296219e+08 80916.88
0.0 1.724218e+08 7.8153196e+10 6.3006915e+06 276483.4 1.5401189e+10 2.7456925 404.5848
351.12082 656.9756 43.903645 733.77185 786.6887 103300.56 32.22996 0.0
87164.49 35914.562 7017.7803 58.367554 2.585451e+06 1237.7805 174078.16 124057.51
383794.22 15053.64 265874.94 314829.2 3.2890624e+07 14282.331 0.0 4.010314e+07
2.4127715e+10 2.2893972e+06 74390.59 2.1272068e+10 0.0 0.0 0.0 0.0
0.0 0.0 0.0 0.0 0.0 0.0 0.0 0.0
0.0 0.0 0.0 0.19246355 22.391691 57.167656 100.99757 3.4366114
110.52856 113.04418 10078.052 7.266188 0.0 11625.802 4.1834688e+08 499.41553
18.185572 2.2263052e+06 10.934456 3486.439 2283.3184 7650.515 263.58084 5352.2754
6095.798 670408.94 345.2083 0.0 802705.56 2.3575538e+08 34275.062 1355.1644
1.4624035e+08 6595.047 3.3674148e+06 1.8826611e+06 7.144629e+06 226913.11 4.722911e+06 5.5817495e+06
6.292869e+08 325917.4 0.0 7.5252666e+08 1.4365442e+10 2.7046752e+07 1.2042331e+06 6.102694e+10
335.7064 64160.535 40191.465 142417.73 5909.7783 86655.9 103921.34 1.1110782e+07
4909.701 0.0 1.4010345e+07 1.8725835e+08 701356.06 24575.979 5.486778e+09 521.3803
99432.61 61144.67 217872.53 9772.492 132613.81 159695.56 1.7139958e+07 7460.0283
0.0 2.1490046e+07 2.9351203e+08 1.0810186e+06 37972.895 8.541047e+09 2860.99 457413.5
321108.97 1.0311256e+06 40524.215 699612.25 830312.4 8.6994776e+07 39634.98 0.0
1.0584754e+08 6.1860176e+10 5.7083535e+06 190683.28 4.6278984e+10 654.4432 206268.28 71879.81
334406.97 16954.201 199315.56 281888.4 3.0449234e+07 13691.407 0.0 3.9461196e+07
2.9722916e+07 2.0407264e+06 21678.264 9.529028e+09 1159.0645 190929.25 133066.9 434351.22
17247.219 290425.97 347976.84 3.6561028e+07 17202.459 0.0 4.4536136e+07 2.673066e+10
2.2864482e+06 78054.46 1.9271094e+10 0.69416755 219.39516 222.64497 442.28952 28.52757
496.13345 518.4518 51461.625 37.090332 0.0 55796.74 7.9267226e+08 2282.794
126.766594 7.243385e+06 109.62012 26761.941 15915.474 59101.383 2525.5146 34971.758
42117.137 4.6146655e+06 2153.6096 0.0 5.7862925e+06 6.298895e+07 260110.92 9702.831
1.6454528e+09 56.00948 9234.235 6435.7134 20540.734 813.33154 13908.473 16523.182
1.7527281e+06 815.5934 0.0 2.133155e+06 1.2054532e+09 110669.836 3771.8508 9.357418e+08
8.519426 2454.8398 1558.3276 5173.5947 185.36357 3662.7676 4263.7563 471948.94
239.52425 0.0 568773.3 1.8921117e+08 25199.482 959.499 1.1728045e+08 0.34561476

exp_avg f4 [128]
00000000: 640b 5243 6250 f842 65f2 4dc1 c033 cbc2
00000010: 0000 0000 5a95 4240 bf95 02c1 c4e6 0e43
00000020: 0a26 19c2 0c5c e2c1 8c16 14c3 006d f13f
00000030: 7fdb cac2 9ef5 0c41 769b b3c1 46ad d0c1
00000040: dff7 32c1 6e97 f63f 455b f540 6346 7941
00000050: fee4 91c2 0000 0000 ee47 f7c2 56c8 c3c2
00000060: c84f cbc1 8a56 41c1 0d9d 91c1 44d0 0bc2
00000070: 364b 0d41 f056 7f3f 1a87 46c1 d659 8fc2
00000080: 0000 0000 fc26 1043 2922 3fc1 0000 0000
00000090: ae20 8c40 6a2f e940 2e61 0fc3 eb16 ad40
000000a0: 60b3 1cc2 4490 81c2 04c9 f0c1 0000 0000
000000b0: b152 cf40 dcb4 7ac1 22a6 8fc1 0000 0000
000000c0: 5192 e7c2 4ca0 b6c2 3cf1 b941 8e14 45c3
000000d0: c9e6 05c3 62e2 8540 8cee 58c1 2fbc e3c2
000000e0: e709 8cc1 e479 dcc1 0e0d 9640 beb2 e3c1
000000f0: 9e8c 04c3 8436 0d43 8a77 d4c2 e9c7 5943
00000100: 3f32 48c2 0d54 86c1 b813 3ac2 a878 adc1
00000110: f875 b6c1 f407 0ec3 e04b c541 0000 0000
00000120: 6b07 0bc2 1b1f d140 c649 2bc2 0064 393d
00000130: 0000 0000 b424 41c2 1733 4641 7605 c2c2
00000140: e5f3 9bc1 e84c b508 daf9 37c3 e84b 7fc3
00000150: 2180 ec40 0000 0000 0497 89c2 10db 89c1
00000160: 1caa 0842 0000 0000 7a83 22c2 8f0c d440
00000170: 14c0 cac1 445a c9c2 52b9 2543 6c93 eb41
00000180: a4f6 95c1 0400 0000 d45e e6c2 1011 ca08
00000190: ca98 45c1 0122 9940 4073 52c2 4ee2 9f42
000001a0: a0ca 2a3f 30ff e4c1 6046 d2c0 203c 7940
000001b0: a9ec 50c1 58d6 38c2 ac3e 95c1 7e02 07c2
000001c0: 0000 0000 0000 0000 e217 30c3 00a1 2cc3
000001d0: 7071 cfc2 f06f 2dc2 f674 3cc2 e4a6 8dc2
000001e0: b950 28c3 d508 c5c2 72ae e0c2 9001 e9c1
000001f0: 10a5 49c2 d83c 41c1 8415 2bc2 cd52 2ec1
210.0445 124.157 -12.871678 -101.601074 0.0 3.0403657 -8.161559 142.90143
-38.287148 -28.294945 -148.08807 1.8861389 -101.4287 8.809965 -22.450909 -26.084606
-11.185515 1.9264963 7.6673913 15.579684 -72.94725 0.0 -123.64049 -97.89128
-25.413956 -12.083628 -18.201685 -34.953384 8.830862 0.9974203 -12.407984 -71.67546
0.0 144.15228 -11.94584 0.0 4.378989 7.287038 -143.37961 5.4090476
-39.17517 -64.78177 -30.098152 0.0 6.478844 -15.669155 -17.95612 0.0
-115.785774 -91.31308 23.24279 -197.08029 -133.9015 4.1838846 -13.558239 -113.867546
-17.504835 -27.559517 4.6890936 -28.462276 -132.54929 141.21295 -106.233475 217.7809
-50.04907 -16.79104 -46.519257 -21.683914 -22.807602 -142.03107 24.662048 0.0
-34.757244 6.535047 -42.822044 0.045261383 0.0 -48.285843 12.387473 -97.010666
-19.49409 1.0911622e-33 -183.97598 -255.29651 7.3906407 0.0 -68.79495 -17.231964
34.166122 0.0 -40.628395 6.626533 -25.343788 -100.6763 165.7239 29.446983
-18.74543 6e-45 -115.18521 1.2161444e-33 -12.349802 4.785401 -52.61255 79.942
0.6671543 -28.624603 -6.5710907 3.8942947 -13.057778 -46.20932 -18.655602 -33.752434
0.0 0.0 -176.09329 -172.6289 -103.72156 -43.359314 -47.11422 -70.82596
-168.31532 -98.51725 -112.34071 -29.125763 -50.411194 -12.077354 -42.77101 -10.895215

exp_avg_sq f4 [128]
00000000: 4ce1 0b4b 0362 a449 14ac 4444 ac21 9c48
00000010: 0000 0000 0859 e242 ab6a c245 c25d ae4a
00000020: d02b d247 7c68 2148 4b52 4d49 add8 8c48
00000030: 24dd ac48 fb49 0344 3fe9 2c47 b37c 8446
00000040: 6f55 8a45 a51d b543 8632 cc43 9a3c 1546
00000050: 52c4 b948 0000 0000 79f9 9149 6de5 6849
00000060: d02b af47 e51c b346 94b7 c446 1111 c546
00000070: 1a2f d744 eab6 fa43 198c 5e46 a0e6 1348
00000080: 0000 0000 d08a 2c49 ca11 a542 0000 0000
00000090: 8782 8e43 f43b 2245 6419 164a 183c 5b43
000000a0: b17f 8848 0597 1048 cfb3 6d48 0000 0000
000000b0: ba86 6443 508a 9347 25dc 3747 0000 0000
000000c0: fe18 f948 5469 5348 e20a c747 12c6 fd48
000000d0: d59c 6449 0624 cb43 e90d fb46 a27e de48
000000e0: 762c be45 304a f644 9236 2143 9b96 8747
000000f0: 945c fb49 4b69 004b 6679 c648 4cb4 cf49
00000100: 21c7 3748 5a52 a843 4644 af47 7f1b 4547
00000110: c574 2f46 299f fa48 f66d 5b46 0000 0000
00000120: d634 0645 07f8 6143 bca4 2548 aa4a f646
00000130: 0000 0000 cbac 8e47 dc9d cd45 2980 ab49
00000140: 31e3 df43 8617 4d3f 2d2e 3e4a 1cf9 1c4b
00000150: 497c 6e43 0000 0000 ad82 0e49 d55a 7e45
00000160: f1c2 8247 0000 0000 c902 fa47 77f8 6a43
00000170: fb3a e447 bb15 7849 90ed a34a 07be b648
00000180: c44c ac45 93d5 823e 4a6c 2949 0d12 ad3f
00000190: 539a ec46 23b8 2043 44ad 9f47 4d38 3f48
000001a0: 0b1d 1a46 0f9e 6d47 21ad c241 0e1d 3044
000001b0: 1c70 fc42 9f6a c447 7807 0246 740d 2a47
000001c0: 0000 0000 0000 0000 0e9e 1b48 9c9b 2f4a
000001d0: e4da 4549 ee0e af48 5cf9 5348 ccff 3348
000001e0: aa03 9f49 da34 0749 68f7 0d49 9dd7 d048
000001f0: ae09 c849 3cdd 2047 3816 7748 65ed be45
9.16718e+06 1.3466244e+06 786.6887 319757.38 0.0 113.17389 6221.3335 5.713633e+06
107607.625 165281.94 840996.7 288453.4 354025.12 525.15594 44265.246 16958.35
4426.679 362.2316 408.3947 9551.15 380450.56 0.0 1.1958231e+06 953942.8
89687.625 22926.447 25179.79 25224.533 1721.4719 501.42902 14243.024 151450.5
0.0 706733.0 82.534744 0.0 285.01974 2595.747 2.459225e+06 219.23474
279549.53 148060.08 243407.23 0.0 228.52628 75540.625 47068.145 0.0
510151.94 216485.31 101909.766 519728.56 936397.3 406.28143 32134.955 455669.06
6085.5576 1970.3184 161.21317 69421.21 2.0591545e+06 8.415563e+06 406475.2 1.7015135e+06
188188.52 336.64337 89736.55 50459.496 11229.192 513273.28 14043.49 0.0
2147.3022 225.96886 169618.94 31525.332 0.0 73049.586 6579.7324 1.4049331e+06
447.77493 0.8011402 3.1159152e+06 1.0287388e+07 238.48549 0.0 583722.8 4069.677
66949.88 0.0 128005.57 234.97057 116853.96 1.0161557e+06 5.371592e+06 374256.22
5513.5957 0.2555357 693956.6 1.3521134 30285.162 160.71928 81754.53 195809.2
9863.261 60830.06 24.334536 704.454 126.21896 100565.24 8321.867 43533.453
0.0 0.0 159352.22 2.877159e+06 810414.25 358519.44 217061.44 184319.19
1.3026452e+06 553805.6 581494.5 427708.9 1.6387098e+06 41181.234 253016.88 6109.6743

exp_avg f4 [128, 128]
00000000: 0000 0000 0000 0000 0000 0000 0000 0000
00000010: 0000 0000 0000 0000 0000 0000 0000 0000
00000020: 0000 0000 0000 0000 0000 0000 0000 0000
00000030: 0000 0000 0000 0000 0000 0000 0000 0000
00000040: 0000 0000 0000 0000 0000 0000 0000 0000
00000050: 0000 0000 0000 0000 0000 0000 0000 0000
00000060: 0000 0000 0000 0000 0000 0000 0000 0000
00000070: 0000 0000 0000 0000 0000 0000 0000 0000
00000080: 0000 0000 0000 0000 0000 0000 0000 0000
00000090: 0000 0000 0000 0000 0000 0000 0000 0000
000000a0: 0000 0000 0000 0000 0000 0000 0000 0000
000000b0: 0000 0000 0000 0000 0000 0000 0000 0000
000000c0: 0000 0000 0000 0000 0000 0000 0000 0000
000000d0: 0000 0000 0000 0000 0000 0000 0000 0000
000000e0: 0000 0000 0000 0000 0000 0000 0000 0000
000000f0: 0000 0000 0000 0000 0000 0000 0000 0000
00000100: 0000 0000 0000 0000 0000 0000 0000 0000
00000110: 0000 0000 0000 0000 0000 0000 0000 0000
00000120: 0000 0000 0000 0000 0000 0000 0000 0000
00000130: 0000 0000 0000 0000 0000 0000 0000 0000
00000140: 0000 0000 0000 0000 0000 0000 0000 0000
00000150: 0000 0000 0000 0000 0000 0000 0000 0000
00000160: 0000 0000 0000 0000 0000 0000 0000 0000
00000170: 0000 0000 0000 0000 0000 0000 0000 0000
00000180: 0000 0000 0000 0000 0000 0000 0000 0000
00000190: 0000 0000 0000 0000 0000 0000 0000 0000
000001a0: 0000 0000 0000 0000 0000 0000 0000 0000
000001b0: 0000 0000 0000 0000 0000 0000 0000 0000
000001c0: 0000 0000 0000 0000 0000 0000 0000 0000
000001d0: 0000 0000 0000 0000 0000 0000 0000 0000
000001e0: 0000 0000 0000 0000 0000 0000 0000 0000
000001f0: 0000 0000 0000 0000 0000 0000 0000 0000
00000200: 17e1 8743 20ee 2d41 df89 66c0 d01f 00c4
00000210: 0000 0000 c1c0 2cc4 68a9 5fc3 6796 1f43
00000220: b0cb 7cc2 339a a4c2 a4c9 4fc3 5db0 08c2
00000230: e2dc 33c3 0e17 01c4 c07b 1f40 9cbc 56c3
00000240: 07df 0ac3 33aa d2c3 999c 2ec4 ac4d 8a43
00000250: 2cec 18c4 0000 0000 9501 cec2 7132 fcc2
00000260: a036 57c2 f165 8542 52fe 0043 c028 dfc3
00000270: e2e0 65c0 b6ca 0ec4 840a 8a42 7413 0cc3
00000280: 0000 0000 4c60 95c3 2af1 86c0 0000 0000
00000290: 7161 fec3 eada 0f44 ccdb 13c3 e404 bfc3
000002a0: 6a88 9bc1 8ecb 05c4 8efe fcc2 0000 0000
000002b0: 9773 21c4 a6f7 4dc2 9bd1 8bc2 0000 0000
000002c0: a697 cdc3 a7f7 05c4 1673 76c3 2832 c5c1
000002d0: 8e13 38c2 24a7 03c4 30da dfc0 2956 bbc3
000002e0: 22c2 a1c3 b862 e1c0 0355 18c4 7c9c 31c2
000002f0: 65ca 08c3 bf5c a343 b211 00c4 70ed 5dc1
00000300: 679c acc3 2c72 cdc0 2467 f7c3 f818 96c1
00000310: 1ffd 76c2 ba36 be42 8720 dfc3 0000 0000
00000320: 7088 d8c0 cd74 ebc3 fe7f 79c2 a8fb 0fc2
00000330: 0000 0000 02fb 50c2 44aa 1f44 6319 1bc3
00000340: 03c0 8cc0 09ef c685 7915 a9c2 ccd5 9b43
00000350: 4638 f9c3 0000 0000 98b3 a5c2 2fe5 6bc4
00000360: a810 ee42 0000 0000 48b0 54c2 5a2b 12c4
00000370: 246f 74c2 a8ab 2dc3 d7de 4543 022f 26c3
00000380: 6308 05c3 0400 0080 7ba2 b3c2 3203 7a84
00000390: d825 2141 66fc 07c4 0ba0 c9c2 0098 2140
000003a0: 26fa 0543 90e6 c2c1 fea0 5ec0 9064 b1c0
000003b0: a2e0 80c0 f2c8 3dc2 7a9a 11c3 3bd0 61c3
000003c0: 0000 0000 0000 0000 4625 4fc2 03ad f7c2
000003d0: e8e4 2ac3 3614 f4c2 6d67 97c2 47f2 e2c3
000003e0: 5a96 6cc3 7176 6cc3 48bd 60c1 c111 bec2
000003f0: 5c1e 69c3 a073 b941 b3ea 9fc2 8a43 a3c3
0.0 0.0 0.0 0.0 0.0 0.0 0.0 0.0
0.0 0.0 0.0 0.0 0.0 0.0 0.0 0.0
0.0 0.0 0.0 0.0 0.0 0.0 0.0 0.0
0.0 0.0 0.0 0.0 0.0 0.0 0.0 0.0
0.0 0.0 0.0 0.0 0.0 0.0 0.0 0.0
0.0 0.0 0.0 0.0 0.0 0.0 0.0 0.0
0.0 0.0 0.0 0.0 0.0 0.0 0.0 0.0
0.0 0.0 0.0 0.0 0.0 0.0 0.0 0.0
0.0 0.0 0.0 0.0 0.0 0.0 0.0 0.0
0.0 0.0 0.0 0.0 0.0 0.0 0.0 0.0
0.0 0.0 0.0 0.0 0.0 0.0 0.0 0.0
0.0 0.0 0.0 0.0 0.0 0.0 0.0 0.0
0.0 0.0 0.0 0.0 0.0 0.0 0.0 0.0
0.0 0.0 0.0 0.0 0.0 0.0 0.0 0.0
0.0 0.0 0.0 0.0 0.0 0.0 0.0 0.0
0.0 0.0 0.0 0.0 0.0 0.0 0.0 0.0
271.7585 10.870636 -3.602165 -512.4971 0.0 -691.0118 -223.66174 159.58751
-63.198914 -82.30117 -207.78766 -34.17223 -179.86282 -516.3602 2.491928 -214.73676
-138.8712 -421.32968 -698.44684 276.6068 -611.6902 0.0 -103.00309 -126.09852
-53.803345 66.699104 128.99344 -446.31836 -3.5918508 -571.16736 69.02054 -140.07599
0.0 -298.75232 -4.216939 0.0 -508.76126 575.42053 -147.85858 -382.0382
-19.441608 -535.18054 -126.49718 0.0 -645.8061 -51.491844 -69.909386 0.0
-411.18475 -535.86957 -246.44955 -24.64949 -46.019096 -526.6116 -6.995384 -374.67313
-323.51666 -7.0433006 -609.3283 -44.402817 -136.7906 326.72458 -512.2765 -13.870468
-345.2219 -6.420187 -494.8058 -18.762192 -61.74719 95.10689 -446.25412 0.0
-6.766655 -470.9125 -62.374992 -35.995758 0.0 -52.245125 638.6604 -155.09917
-4.398439 -1.8707638e-35 -84.54194 311.6703 -498.43964 0.0 -82.85077 -943.581
119.03253 0.0 -53.17215 -584.67737 -61.108536 -173.67053 197.87047 -166.18362
-133.03276 -6e-45 -89.817345 -2.9388826e-36 10.071739 -543.9437 -100.812584 2.5249023
133.97714 -24.36258 -3.4785762 -5.5435257 -4.027421 -47.446236 -145.60342 -225.8134
0.0 0.0 -51.7864 -123.83791 -170.89417 -122.039474 -75.702 -453.8928
-236.58731 -236.46266 -14.046211 -95.034676 -233.11859 23.181458 -79.9584 -326.52765
