explainability/stages/final_2/maintainance_agent/2/D3QN_q_target.pth (torch, 77199 bytes, 7 tensors)

weight f4 [128, 11]
00000000: c80b d840 af06 f5bf 29e7 9440 40e5 ce3f
00000010: b172 6a40 af14 c13e cc70 543a 476c 353e
00000020: 40bd c8c0 50ca d03e 3458 aabf ce71 5241
00000030: 502b a83f d016 31c0 bc1b 1140 299d 3fc0
00000040: d368 a03f 2d8e 37bd d7cb 89bf 2328 ee40
00000050: 04db c63f f515 0ebf a66c 223e 1345 60be
00000060: 0007 6a3b f053 fbbc 1c87 273e 11eb 08be
00000070: 7af7 83be 0d90 91be 9c79 6abe 3334 e8bd
00000080: e02c 72be 76ef 0a41 1188 f6bf d58c 9440
00000090: 8cc0 893f 907d 7940 0aec 243e 3636 fdbb
000000a0: a5e6 ed3d 52a4 b5c0 443f 81be fc19 2bc0
000000b0: ffe2 2bc1 9362 0340 ea7f c7c0 06cf a2bf
000000c0: ac9b 3bc0 76af 85be e49d 283d d9ed c43d
000000d0: 205e 6f40 1175 f0be b7be 1b40 34b4 ad3f
000000e0: 6a8a 6a40 10e9 3ec0 b154 1140 9abb 0b40
000000f0: 2af8 e13f 50c5 793c 3df7 dfbd ec08 0f41
00000100: 16b9 36c0 0fdc 2f40 c6df 77c0 2f9a f83f
00000110: edec 0140 f49d 94bf ecd2 23bf b847 cd3e
00000120: bcca 463e 0d0f 88be 6e76 29c1 336b e33f
00000130: a5af 8f3f 5700 463e 3e11 8340 463b 24bf
00000140: 2b46 ac40 121b ccc0 f6f6 4bbd 5708 443c
00000150: c5c5 9c3c 7505 1ec1 e6cc 2b3e d0b1 2940
00000160: e808 0cc2 90a7 b63f 13bc f0bf 85ad f13f
00000170: 4f7a 6840 9d86 b33e f670 ac3c cd89 b8bb
00000180: d423 02bf ccfe 833d e604 53c0 1c53 5c40
00000190: 30df c13e 6c94 37c0 879e 0e40 0a07 6a40
000001a0: fc0a 573d 1894 133c 8def 2fba 25f5 21c1
000001b0: d081 3f3f 7a5e a83f 4f44 a140 ff0d c7bf
000001c0: dec3 543f 0959 9d3f b60b 6740 81a3 0fbf
000001d0: e494 31bb 6d7f 3c3d 30a2 f4c0 55b7 db3d
000001e0: 0ef5 ddbf e610 c340 4723 a1bf e033 5e3c
000001f0: cc91 7abf 2f1b bb40 e6e6 813f e5d3 293d
00000200: 7c9f 45c0 f373 1c40 c834 0a3e 98d3 5ec0
00000210: 7c3b 1941 7e28 06c0 5786 5e40 36b8 a63f
00000220: 497a 8f40 d5a2 c03d 238c 96bb d361 3b3d
00000230: e3aa a6c0 f0af 49be 4d50 16c0 6644 1f40
00000240: 8382 6140 b853 093f 5903 2240 06b3 2dc0
00000250: 149e 7e3f a7a0 5f3d e228 1cbf 9a6b 4140
00000260: 4bf8 4b3e 6aa8 653f 8a59 2340 9c16 ea3e
00000270: d3ea 8abf 504d 8340 1995 0bc0 ad07 e43d
00000280: bc4a a73c 4f2b 103d f82d c7c0 309c 05bf
00000290: fde2 5b40 906a 7841 dfd8 1a41 2691 3abf
000002a0: aab8 a4bf 37e9 83c0 9955 40bd 9f86 c03b
000002b0: a08a 9c3a 5a91 bf40 f50e 83bd 6188 c83e
000002c0: 4259 0abe 0066 373c 30e4 7cbe 085c 493d
000002d0: 903a 803e 7bbd 56be e6d0 77be f2cc e1bd
000002e0: d835 e43d 7163 09be 9050 7e3d db73 db3f
000002f0: 1bca 6c40 e88d 713f 4420 5c40 665f 5140
00000300: c55c 0f3f 2cee a23c 939c 23bb a399 32c1
00000310: 9250 5e3f c3f2 8d40 782a f240 ba00 b3c0
00000320: 216c 6640 1f75 0dc0 109b 9740 6573 863e
00000330: 992b 08bf 6a59 fabc 28b6 83c0 e02f 8c3f
00000340: 7fe0 1141 c079 9ebd f4f7 7f3e 8167 ce3d
00000350: c0c2 d53c 801b b1bd ee72 68be 2a9b 8fbd
00000360: ca8d 95be cfab 10be 803b 4f3d b433 64bd
00000370: 8286 6641 418a 14c0 5bd1 2cc0 e0a1 4fc0
00000380: 853a 44c0 44a1 823d d17f 95ba 221c 8339
00000390: f6ba c240 aa84 2f3d 708f 2bc0 94e4 ed40
000003a0: de5a 1ac0 36e1 9640 0104 fe3f 4c50 8340
000003b0: 7e25 1a3f 77c7 a3ba aada 6d3e d5eb bbc0
000003c0: e7f5 c63e 7168 e9bf 6a00 0c41 cfc8 863f
000003d0: 3ad8 0841 e82d 8040 25ab 4cc0 4861 943e
000003e0: d0ab 953d ce9f 7f3c 7242 50c0 ec0c 5dbd
000003f0: ae38 c6c0 8e8c 16c1 4282 c03f caf3 b8c0
6.751438 -1.9142665 4.653218 1.6163712 3.6632502 0.37711093 0.0008103966 0.17717086
-6.273102 0.40779352 -1.3308167 13.152784 1.3138218 -2.7670174 2.2673178 -2.9939673
1.253199 -0.044813324 -1.0765332 7.4423995 1.5535588 -0.55502254 0.15861759 -0.2190135
0.0035709739 -0.030679673 0.16360134 -0.1337092 -0.25774747 -0.28430215 -0.22897953 -0.11338081
-0.23649931 8.683462 -1.9260274 4.6421914 1.0761886 3.8982887 0.16105667 -0.0077274097
0.116162576 -5.6763086 -0.2524358 -2.673461 -10.742919 2.0528915 -6.2343645 -1.2719429
-2.9313765 -0.2611043 0.0411662 0.09615678 3.74012 -0.46964315 2.4335153 1.3570619
3.6646981 -2.982975 2.2707942 2.1833253 1.7653859 0.015244797 -0.10935829 8.939678
-2.8550467 2.7478063 -3.873033 1.9422053 2.0300858 -1.1610703 -0.63993716 0.4009378
0.19413275 -0.26573983 -10.5914135 1.776709 1.1225477 0.19336067 4.0958548 -0.64152944
5.3835654 -6.3783045 -0.049796067 0.011964879 0.019137273 -9.876332 0.16777381 2.6514778
-35.008698 1.4269886 -1.8807396 1.8881079 3.6324651 0.3506364 0.021049958 -0.0056316615
-0.5083592 0.06445083 -3.297174 3.4425726 0.3786559 -2.868434 2.2284257 3.6566796
0.05250071 0.009007476 -0.0006711416 -10.12235 0.74807453 1.3153832 5.0395885 -1.5551146
0.8311137 1.2292796 3.6100898 -0.5610886 -0.0027096802 0.04601996 -7.6447983 0.10728327
-1.734041 6.095813 -1.2588891 0.013562173 -0.9787872 5.8470683 1.014859 0.041461844
-3.0878592 2.444577 0.13496697 -3.4816647 9.577023 -2.0962214 3.4769495 1.3024967
4.4836774 0.09406058 -0.0045943423 0.04574759 -5.20836 -0.19696021 -2.3486512 2.4885497
3.5235908 0.5364337 2.5314543 -2.7140517 0.9945996 0.05459657 -0.6099988 3.0221925
0.19918935 0.89710104 2.55234 0.45720375 -1.0852913 4.1031876 -2.1809752 0.111342765
0.020421378 0.035197552 -6.2243614 -0.5219145 3.4357293 15.526016 9.677947 -0.7287773
-1.2868855 -4.1222186 -0.046956632 0.005875423 0.0011943169 5.986493 -0.06399337 0.3916655
-0.13510612 0.011193752 -0.24696422 0.049160033 0.2504468 -0.20970719 -0.24200782 -0.11025418
0.111430824 -0.1341684 0.06208855 1.7144731 3.6998355 0.94357157 3.4394693 3.2714477
0.5600093 0.01988896 -0.0024965152 -11.162509 0.8684169 4.435884 7.567684 -5.5938387
3.6003497 -2.2102735 4.7376785 0.26259914 -0.53191525 -0.030560214 -4.115986 1.095211
9.117309 -0.07738066 0.2499693 0.100783356 0.02609384 -0.08647823 -0.22700092 -0.07012017
-0.2920974 -0.1412804 0.050593853 -0.05571337 14.407839 -2.3209383 -2.700278 -3.244255
-3.0660717 0.06378415 -0.001140589 0.00025007228 6.0853224 0.042851128 -2.6806297 7.4341526
-2.411796 4.7149916 1.9844972 4.103552 0.6021346 -0.0012495358 0.23227945 -5.872538
0.38859484 -1.8234998 8.750101 1.0530032 8.55279 4.005604 -3.1979458 0.2898047
0.07308161 0.015602065 -3.2540555 -0.0539674 -6.194419 -9.409315 1.5039752 -5.7797594

bias f4 [128]
00000000: 6b4f 4e40 95b1 a23f 73ec 143e f30b 3c40
00000010: f803 14c0 0b70 0040 0bd9 903e fb7c 1a40
00000020: 7677 863f d22a 5940 e70a 2340 4f85 2f40
00000030: 55fb 3840 605e 0340 ec8c 4240 e5c7 70c0
00000040: 64f1 653e affe 6640 5327 0840 6d76 76be
00000050: bd29 86c0 8fce 6540 c253 2b40 d1ce 2fc0
00000060: f897 5ec0 d7bc d640 c028 ef3d 9b36 4040
00000070: a742 b13f 1ecb 2d40 e29a 20c0 5094 43c0
00000080: 4def 5f40 0075 0a40 e6b1 7b3f d750 1dc0
00000090: 60c9 7640 b9d7 1ec0 4bf0 34c0 ee52 4740
000000a0: 9194 09c0 99a5 5240 a8a1 833f 8c52 3c40
000000b0: 84eb 45c0 d2c1 5440 77ef 1b3f 742a 8c3d
000000c0: 2660 17c0 4da7 02c0 03d0 7940 a378 25c0
000000d0: cc1f ec3e 33d9 4040 ba94 4940 843d 1540
000000e0: b593 2f40 ca8f 8f40 0cc7 3140 7f62 0ac0
000000f0: 1208 41be 8f81 8a40 324c 2b40 cf7b 05c0
00000100: fb2a 5140 5022 2fc0 57bb a5be c497 9c40
00000110: 0dd6 6fc0 1391 d5bf 73e0 1340 4669 20c0
00000120: e777 42c0 4e64 6440 a370 1c40 ba3e bd40
00000130: 0c1d 33c0 de2f 5640 9091 743f 1756 24c0
00000140: fd7c 2f40 b491 a73f e780 4640 2125 4040
00000150: 3357 3140 f1b3 9640 058d 53c0 0db5 05c0
00000160: 270d 4b40 fcc4 ecbf 525e 4c40 069b 16c0
00000170: 6b16 c4be d819 ea40 208d 03c0 618d 843f
00000180: ea08 cfbd fee2 b0bf d355 6240 f0ec 3840
00000190: 7a85 3a3f a057 4d3e afa6 2b40 51e9 3f40
000001a0: fcec 48bf 3e71 8bbf 1915 d0be 4829 3d40
000001b0: 6ff6 3e40 9abd 2fc0 0565 8fc0 1ead 0e40
000001c0: 1371 2a40 db81 4ac0 98fe a1bf e2a8 8ac0
000001d0: 601e ed3f 3405 c640 a389 42c0 049f 63c0
000001e0: dddb 4240 114e 8040 4596 3c40 4ba9 20c0
000001f0: 24a3 71bf 98e6 2640 0932 063e 5ca6 3940
3.2235973 1.2710444 0.14543323 2.9382293 -2.3127422 2.0068386 0.2829059 2.4138782
1.0505207 3.3932385 2.5475404 2.7425115 2.89034 2.0526352 3.0398512 -3.7622006
0.22455364 3.6092947 2.1274002 -0.24068613 -4.192595 3.5907323 2.6769872 -2.746998
-3.4780254 6.7105517 0.11677694 3.0033329 1.3848466 2.7155223 -2.5094533 -3.0559273
3.4989808 2.163391 0.98318326 -2.458059 3.856041 -2.4819167 -2.8271663 3.1144366
-2.1496928 3.2913573 1.0283709 2.9425383 -3.0924997 3.3243299 0.6091227 0.06844035
-2.3652434 -2.0414612 3.903321 -2.585488 0.4611801 3.0132568 3.1497025 2.3318796
2.7433903 4.4863024 2.7777739 -2.1622617 -0.18850735 4.3283153 2.6765256 -2.0856817
3.2682483 -2.7364693 -0.3236949 4.893526 -3.7474396 -1.6684898 2.3105743 -2.5064254
-3.0385683 3.568622 2.4443748 5.913907 -2.7986479 3.3466716 0.9553461 -2.5677545
2.7420037 1.309134 3.1016176 3.0022662 2.7709472 4.7094655 -3.3054821 -2.0891755
3.1726778 -1.8497615 3.1932569 -2.3532119 -0.38298354 7.3156548 -2.0554886 1.0355645
-0.10109122 -1.3819273 3.5364883 2.8894615 0.7285992 0.20052958 2.6820486 2.9986155
-0.7848661 -1.0893934 -0.40641096 2.9556446 2.983791 -2.7459474 -4.4810815 2.2293162
2.6631515 -3.1641757 -1.2655821 -4.3331156 1.8524895 6.188135 -3.0396507 -3.5565805
3.0446694 4.0095296 2.9466717 -2.5103328 -0.9438956 2.6078243 0.13105024 2.9007788

weight f4 [128, 128]
00000000: 4690 7a3e 9b8f 1cbf 8646 92bb ccf1 823e
00000010: cd7b 47bd ab74 aebe 119c 663f 2823 1940
00000020: f1ed 8cc0 592c d23e 12b7 0b3e b127 4f3f
00000030: 9e7a e23e f2b6 2bc0 5dea b73f fc52 03c1
00000040: 6c02 7cbd d242 983e f66b c13b 8ccd a4bc
00000050: 923e 13c1 df17 7a3e 83b9 6a3f 97be 53bd
00000060: 3319 73be f408 b23e 4c8e 8c3d eb67 a33e
00000070: 00ee ff3e d799 853e f3d9 08be 89c3 77bd
00000080: 81dd 7ac0 1771 cd3c 5586 ac3e 6bfa 6cbd
00000090: 2d86 a0be 7384 2dbd 9e8e c1bd 5605 d23f
000000a0: 1740 d4bb 5408 143e 26c1 aebf 049e da3e
000000b0: 4772 1fbe 6a8a ad3e e1ab 59bf b0cf 8bbc
000000c0: 3d9b 3dbf b6d9 a6bd 40bc a6bf 86de 7e3c
000000d0: e52c fbbb 24fa a03e 4a49 903e cd87 443e
000000e0: 62df 233e 6ba5 73be d553 a63e bb8f 993d
000000f0: 6096 b1bd 5112 53bf 465c 173f 4236 833c
00000100: d05f 843e 5306 9cbd 385b 9a3f 838e a03f
00000110: cb9d 8cbe b6ac aabf e8e0 493e 18e1 1abf
00000120: 22a7 09be 456b 273b fb77 843f 667b d23e
00000130: 6aa4 aabd c877 a63e f779 cbbe 68fc e8bb
00000140: 7839 da3d a3e8 f2be 43b9 6d3e 740c 4e3f
00000150: 532d 7b3e 0435 2c40 24f5 8dc0 3e3f 2dbf
00000160: 751a 153f 6ebe dcbd 2af8 923e f84d 093e
00000170: bb90 a8bf 2090 6cba 9009 70bf 54d2 9b3e
00000180: 52d4 483d f11a 6ebf 2a5a da3e 24bd 223f
00000190: 7636 bec0 d1e8 d93c abd5 593e 987a 813e
000001a0: e5c6 dfbe 2bb1 b5bf 6576 1e3e 10af 543e
000001b0: f5e3 553e 6074 91be 6593 ab3b 8676 423f
000001c0: 3df6 b63e 8a05 9cbe ed09 d43d ff4b ffbe
000001d0: 7468 233e 97c9 293f 53da bd3c 937e 83bf
000001e0: 0e66 283f 8e3e f7bf c3ec 413e 5af0 2bbf
000001f0: 5c8c 77c0 ec5d fc3e 3ef1 23bf f40a 8c3e
00000200: 19bb 733e 1b37 21bf 0716 83bd 7cde 093f
00000210: 7b39 b2be e877 a2be 5be7 97be 71e5 a53f
00000220: 2c4f 29c1 1002 fa3e e25a 023f e322 f43d
00000230: 7076 db3f 709d 043d f418 993f a8f8 74c1
00000240: eef6 3f3d e743 8fb9 402f 79bd d89d bcbc
00000250: ca88 71c1 35cd 613e d9e6 0340 d0b7 20bf
00000260: 37f0 0dc0 da99 0f40 a06d c23c ab78 a53e
00000270: 6242 7e3f 53be d93e ff8c 15be 462a 50bf
00000280: 0a36 0bc1 4e42 343e 386c 4c3f a4ed 81be
00000290: 03cd c53f 5104 2ebe bfab 01bf abf4 0f40
000002a0: 65c7 9ebe fb7e 303e 4f40 a8be 0e87 7c3f
000002b0: c3b1 24bf 28eb b73e 78bd 32bf 6b5a a93d
000002c0: 8cb4 65bf 01c3 45bd ce16 09be 0956 67be
000002d0: ef67 82bf 749a 7d3f f905 9f3e 209b 9b3e
000002e0: daab 023f c4e2 c7bc 3096 e43e c188 7bbf
000002f0: 40f0 d43a 7bb3 45c1 0954 ce3e 2265 0f3d
00000300: a476 2f3e 3a18 66be efda 1a40 d732 553f
00000310: a569 aabe 3a81 13bf 5ba0 00bd 07c8 cabf
00000320: e54c 1cbf 822b 8ebc 00dc 0a40 85db aa3f
00000330: 1164 87bf 618f 353f 418b 41bf 245f b4be
00000340: 67b9 4b3e a5a7 8cbe 5245 753e 5739 963f
00000350: 41ff 2d3e f81c 0d40 4f21 08c1 d620 bcbf
00000360: db64 e33e 2f77 1ebf 469d 9f3e c434 58bf
00000370: 73aa 4f3f 5169 e0bf e4bf 46bf e47c e9be
00000380: 578a ad3d e7b9 acbf 1cea 4b3f 9722 a43f
00000390: caea e4bf 1491 8a3c bc59 373f 8bed 043e
000003a0: 64d4 67bf d862 b2be ad2c 6cbf 9201 083e
000003b0: 2970 8e3e 1cd4 9ebf 4fc2 8abe be7b d93f
000003c0: 17c2 883e 9bbd 33be f5d2 4fbf e35a d1bf
000003d0: 2987 a43e 42c0 cfbf 3c9d 71be cfa1 f2c0
000003e0: 168f e93f 0ae7 f2c0 c532 0d3e 938d 30c0
000003f0: 52cb f6c0 1d18 973d 369d ae3d 5739 c23e
0.24469098 -0.61156625 -0.0044639735 0.255751 -0.04870205 -0.34073386 0.9008189 2.3927708
-4.4040456 0.4104946 0.13644055 0.8091994 0.44234174 -2.683041 1.4368397 -8.20776
-0.061525747 0.2973848 0.0059027625 -0.020117544 -9.202776 0.24423169 0.9168932 -0.051695433
-0.23740081 0.34772456 0.068630785 0.3191522 0.49986267 0.26093933 -0.13364391 -0.06048921
-3.9197695 0.02507834 0.33696237 -0.057856005 -0.31352368 -0.04236264 -0.0945103 1.6407878
-0.0064773667 0.14456302 -1.3652694 0.4269868 -0.15570937 0.33894664 -0.8502789 -0.017066807
-0.74065 -0.08146994 -1.3026199 0.015555983 -0.007665264 0.31440842 0.28180915 0.19192429
0.16003183 -0.2379357 0.32485834 0.074981175 -0.0867126 -0.82449824 0.59125173 0.016017083
0.2585435 -0.07618394 1.2059088 1.2543491 -0.27464136 -1.3333957 0.19714701 -0.60499716
-0.13442662 0.0025546115 1.0349115 0.4110977 -0.08332141 0.3251326 -0.3974149 -0.0071101673
0.106554925 -0.47443113 0.23215203 0.8048775 0.24529009 2.6907358 -4.4361744 -0.67674625
0.58243495 -0.10778509 0.2870496 0.13408649 -1.3169168 -0.0009024162 -0.9376459 0.30433905
0.04903061 -0.9300986 0.42646915 0.63569856 -5.944148 0.026600273 0.21272914 0.25288844
-0.43706432 -1.4194692 0.15474851 0.20769906 0.2088774 -0.284091 0.0052360767 0.759621
0.3573474 -0.30472976 0.10353456 -0.49862668 0.15957814 0.66323227 0.023175394 -1.0273002
0.65780723 -1.9315965 0.18937974 -0.6716362 -3.8679419 0.49290407 -0.6403998 0.27352107
0.23801841 -0.6297471 -0.06400686 0.5385511 -0.3480948 -0.31732106 -0.29668698 1.2960645
-10.581829 0.488297 0.50919926 0.119207166 1.7145519 0.032376707 1.196074 -15.310707
0.04686635 -0.00027325677 -0.060836077 -0.023024485 -15.095896 0.22050937 2.0609648 -0.62780476
-2.2177866 2.2437654 0.023733914 0.32318625 0.9932004 0.42528018 -0.14604567 -0.81314504
-8.700693 0.17603418 0.7985263 -0.25376618 1.545319 -0.16993834 -0.5065269 2.2493083
-0.310115 0.17235939 -0.32861564 0.9864358 -0.6433374 0.35921597 -0.69820356 0.08269199
-0.8972862 -0.048281673 -0.13387606 -0.22591414 -1.0187968 0.990638 0.31059244 0.30391788
0.51043475 -0.024400122 0.44645834 -0.98255545 0.0016245916 -12.356318 0.4029849 0.035008557
0.17135102 -0.22470179 2.4196126 0.832807 -0.33283725 -0.5761906 -0.031402927 -1.5842294
-0.6105483 -0.01735473 2.1696777 1.3348242 -1.0577413 0.70921904 -0.7560311 -0.35228837
0.19894944 -0.27471653 0.23952225 1.1736249 0.16991903 2.204893 -8.508132 -1.4697521
0.44412884 -0.6190061 0.31174678 -0.84455514 0.8111946 -1.753214 -0.7763655 -0.45603096
0.08473652 -1.3494233 0.796541 1.2823056 -1.7884152 0.016914882 0.716213 0.1298124
-0.9055846 -0.34841037 -0.9225567 0.13281849 0.27819946 -1.2408481 -0.2710137 1.6990888
0.2671058 -0.17552797 -0.8118127 -1.6355861 0.3213437 -1.6230547 -0.23595136 -7.582252
1.8246791 -7.590703 0.13788898 -2.758641 -7.7123194 0.07377646 0.08526079 0.37934372

bias f4 [128]
00000000: 6f5f 3d40 cff8 2640 c6c1 0ec0 0352 3f40
00000010: e57a 8fbd 1021 3940 ddac 923c 2302 213f
00000020: 3fc6 20bd 0bc7 3440 2106 8fbf c5e3 c3bf
00000030: 0211 08c0 98e4 3640 9243 3840 95f3 1fc0
00000040: ec4a 2e40 01ef cebf 112f 97bf 0228 4a40
00000050: 263f e3bf b52a 1741 b143 3e40 ce5c 1240
00000060: 2c7d 25c0 b687 a33d cdf6 3640 514e 3240
00000070: b595 a33f d763 2a40 7089 3640 96fd 3440
00000080: 0ff7 01c0 f375 943e 5358 efbb 4190 3b40
00000090: 9969 7b3f 7a04 d5bd 1562 3b40 816a 09c0
000000a0: e54e 0ebd ac35 4540 884a 3a40 ac88 01c0
000000b0: 5261 83c0 d460 3a40 ec45 debf 9114 f740
000000c0: 342a a8bf 591a 553b a179 dd3e 883c b5bb
000000d0: 1962 48bb f9d7 09c0 589e 1ac0 0230 1fc0
000000e0: cd03 3840 fd8e 23c0 6f29 3540 7127 4140
000000f0: 82dd 0bc0 7ceb 13c0 9108 0fc0 6135 4540
00000100: d97e fd3e 2db5 01c0 d3e7 6ebd 18f7 c43c
00000110: ddbe 5b40 ae5b 3d40 8964 3940 e778 a0bc
00000120: fc2c 02bf 1163 2d40 b54b 3c40 02af 3740
00000130: 6d12 07c0 65b3 7bbf 8f10 3740 3aff 3840
00000140: c0ab 14bc 977b 03bf e78d a9bd c92e 2e40
00000150: c310 2840 987d cd40 cb15 2bc0 0297 ddbd
00000160: 79a8 c2bc a89e 1340 b486 063d bc03 3640
00000170: e71f f63f 9370 17c0 e1aa 10c0 0488 2f40
00000180: 442f 4840 763d a63c b196 49bd 8f76 883e
00000190: e0a5 0740 db5b 7a3d 9e41 3540 4ea5 18c0
000001a0: 101d ca3c dc2c 863c 4400 73bc bc46 1f40
000001b0: 692f d13f 03be 3340 b530 1640 acca 933f
000001c0: 8526 0fbe 1270 d1bd 5a7b 3940 b5a7 0dbd
000001d0: 46dd 3d40 2628 433d 7e45 91bd 0879 18c0
000001e0: ed0c 163d 8cea 3e40 b7d9 a6bb da24 2ebd
000001f0: c01a 04c0 436d e5bd cbd8 3140 f062 3740
2.9589498 2.608936 -2.230577 2.9893806 -0.07005862 2.892643 0.017904693 0.62893885
-0.039251562 2.8246486 -1.1173745 -1.5303885 -2.126038 2.8577023 2.8791242 -2.499242
2.7233229 -1.6166688 -1.1811239 3.158692 -1.7753646 9.4479265 2.9728816 2.2869143
-2.585765 0.07984869 2.8588135 2.78603 1.2780062 2.6623437 2.8521385 2.8279777
-2.0307043 0.28996238 -0.0073042302 2.9306796 0.98208004 -0.104012445 2.9278615 -2.1471255
-0.03474321 3.0814009 2.910799 -2.0239668 -4.10563 2.91216 -1.7365088 7.7212605
-1.3137879 0.0032516925 0.43256858 -0.0055308975 -0.003057605 -2.153807 -2.4159145 -2.4873052
2.875232 -2.5556023 2.830654 3.0180323 -2.1853948 -2.3112478 -2.2348979 3.081383
0.4951084 -2.026683 -0.058326554 0.024043605 3.4335244 2.9587207 2.8967612 -0.0195889
-0.5084989 2.7091715 2.9421208 2.8700566 -2.1104996 -0.9832061 2.8603857 2.8905778
-0.0090741515 -0.5136046 -0.08279019 2.7216055 2.626023 6.4215813 -2.6732051 -0.10819818
-0.023761975 2.3065586 0.032843307 2.843978 1.9228486 -2.366246 -2.2604296 2.7426767
3.1278849 0.020292979 -0.049215976 0.26652953 2.1194992 0.061122756 2.83213 -2.3850894
0.024672061 0.016378812 -0.014831606 2.4886923 1.6342593 2.8084724 2.3467228 1.1546226
-0.13979538 -0.10226454 2.8981538 -0.034583766 2.9666305 0.04764571 -0.07093333 -2.3823872
0.03663342 2.9830656 -0.0050918716 -0.042515613 -2.0641327 -0.11202481 2.778857 2.8654137

weight f4 [1, 128]
00000000: 1809 a53f 5753 5d41 6d64 c6bf 5cf6 8f3f
00000010: 28e1 31bc 67b0 833f b718 29bd 08a5 e6be
00000020: 4e53 293a 6ef2 8e41 c0ba bebe a7a2 d7be
00000030: 60dc 6ebf b946 683f c9db 8d3f 973f c9bf
00000040: feb5 423f 72fc 56bf 9be0 9ebe 52fa b83f
00000050: fbdd 39bf 5830 d140 2f63 d03f 644d 6440
00000060: 6439 bdbf 30e0 433d 41ab 713f f5f1 963f
00000070: 84f2 7b3e 25ca a83f 24b9 4e3f 782d a33f
00000080: f329 92bf 4146 723f d68a 23bd 4adf b13f
00000090: bdf8 943f 3978 493c 95bb 6d3f 9a05 d7bf
000000a0: 40c2 c2bc fe50 b13f f256 7e3f 6124 a8bf
000000b0: 2b3c 993e 6967 823f 8741 dac0 1984 a640
000000c0: 26fd a93f 2889 483d c1a9 7ebf df61 2b3c
000000d0: 7605 27bd 1143 c9bf f5bc e5bf ff3d d7bf
000000e0: 7a5e 5a3f 216c bebf 2b79 8d3f 81a6 b03f
000000f0: 58e8 c4bf 0127 e0bf 7131 c7bf 7a9a 3941
00000100: 7d9f 873f f7e9 b1bf 79d1 50bd 8a05 6cbd
00000110: 7c81 3041 50b6 973f 99fc 8c3f e623 2abb
00000120: 93e9 a9be ec55 1041 befa 96bf ea1f ac3f
00000130: a7b3 30bf f2cb 2ebf 58b0 8a3f 0040 5e3f
00000140: f07c 04bc 83bd 823e 9f9c 35bd e035 5441
00000150: 44c9 5041 e6d5 6740 e7de 06c0 f9f4 c83b
00000160: 72a5 6bbd b553 7e40 56be 903b a756 5e41
00000170: feee a6bf 82c3 2ebf 856f e7bf e652 4a41
00000180: 1637 ae3f 8e60 2c3b 2d91 1abd 9309 953f
00000190: 5b5f 8041 48d4 3c3d ec88 b33f 8ec6 e6bf
000001a0: 79a5 4fbd 8627 ac3c a91d 5cbd 6a73 8841
000001b0: 331e 163f e4d9 613f 20cf 2a41 8570 9abe
000001c0: 3b0e fcbb a161 433d c1b0 3b41 7ef9 253d
000001d0: f513 cc3f cafa 68bd c4e1 8ebd 4746 9ebf
000001e0: 3a41 67bd eb1f bf3f 4a7a 643d 80ce 6d3c
000001f0: da35 bfbf b988 40bd d2a0 b93f 1221 5c3f
1.28934 13.832847 -1.5499398 1.1247058 -0.010856904 1.0288209 -0.041283336 -0.45047784
0.0006459252 17.868374 -0.37251854 -0.4211628 -0.93305016 0.90732914 1.1082698 -1.5722531
0.7605895 -0.8397895 -0.31030735 1.4451392 -0.7260434 6.5371513 1.6280268 3.5672235
-1.4783139 0.047821224 0.9440194 1.179259 0.24604231 1.318669 0.8075125 1.2748251
-1.1419052 0.9463845 -0.039927326 1.3896267 1.1638409 0.01229673 0.9286435 -1.6798584
-0.023774266 1.3852842 0.9935142 -1.3136102 0.29928717 1.0187808 -6.820499 5.203625
1.328038 0.048958927 -0.99477774 0.010460346 -0.040776692 -1.5723592 -1.794829 -1.6815795
0.8530041 -1.4876748 1.1052603 1.3800813 -1.5383406 -1.7511903 -1.5561963 11.600214
1.0595547 -1.3899525 -0.05098102 -0.05762247 11.031612 1.1852512 1.1014587 -0.0025961339
-0.33186015 9.020977 -1.179527 1.3447239 -0.6902413 -0.68279946 1.0835066 0.86816406
-0.008086428 0.2553521 -0.04433882 13.263153 13.049137 3.6224303 -2.1073549 0.0061327186
-0.057530828 3.973859 0.004417221 13.896155 -1.3041685 -0.6826707 -1.8080908 12.645239
1.3610561 0.0026302668 -0.037736107 1.1643547 16.04656 0.046100885 1.402616 -1.8029344
-0.050694916 0.02101494 -0.053739224 17.056355 0.5863983 0.882231 10.675568 -0.3016397
-0.007692126 0.047700528 11.730653 0.040521137 1.594359 -0.056879796 -0.06976655 -1.2365197
-0.05645869 1.4931616 0.055780686 0.0145145655 -1.4938309 -0.04700539 1.4502203 0.8598796

weight f4 [2, 128]
00000000: 23fa aa3e 1577 1941 664b efbd 4d2d 443e
00000010: 3c70 0d3d c8e4 cf3e 2380 f2bc 3af0 a43f
00000020: a609 253d 4bcf 9c40 eda5 8ebf 1be2 9bbf
00000030: 18d4 e5bf ba89 4c3e 1343 8c3e 74fd 93bd
00000040: cf7b f13e 9d26 69bf 54f5 90bf ad9d ee3e
00000050: c867 63bf 7216 01c1 6dde f33e 23bb 7c40
00000060: d33f febd 38d3 3e3d a0b0 a83e 2328 713e
00000070: 8c90 20bf a990 4bbc b364 ad3e 9f8f 543e
00000080: d61a 3ebf b786 81c0 3674 a0bc 33c8 d93e
00000090: c18c a4bf 2824 44bd 33b6 163e 0397 b5bf
000000a0: 87ba b9bc b7c3 e63e cc1a 093e 9df4 c1be
000000b0: 3343 debe f1c2 253e df23 c9bf 8228 36c1
000000c0: bcae babf ec92 083c 0c65 ed40 841d 843d
000000d0: e461 0fbc 2754 80be af8c 813c 9c2a 77bd
000000e0: 25d7 493e 02ea 8f3d 0fd9 993e 9ef2 ce3e
000000f0: 4117 03bd 55df e6bd cf79 f6be 238c 8d40
00000100: 667d 87be 7a91 cdbe 35e4 053d a67a 27bc
00000110: 03d2 19c0 462a 923e db76 a73e b45c 8dbd
00000120: 048b 2440 8da5 6ac0 8bc6 c0c0 90f5 8a3e
00000130: 9fa7 8f3f 0b39 b5bf fe3a cb3e 1ad4 843e
00000140: 8898 8abd d5cb 3ebf 8f4d abbb 23e3 7141
00000150: 3d56 db40 4873 1fc1 cabf 69be c72b 243d
00000160: de5d 9b3c 35ef b03f f01c 3d3d 12ab d4c0
00000170: e641 3c40 4615 583f c727 20bf 9633 8141
00000180: d8d1 8a3e 892c c03d 987b 4abd 2abe 9bbf
00000190: 8f27 3041 78be 4fbd 4684 6b3e e2a1 d3bd
000001a0: 9b9b 7f3d f38e f53b 7f04 a03b f06b ebbe
000001b0: 2d73 81c0 56b0 b83e 356f 8741 f69a a93f
000001c0: 5147 c43b cff9 39bd a35c 64be 0d42 963d
000001d0: 61a9 1d3f 89fb a53d b260 d2bc 495e 11c0
000001e0: ecbb 7d3d a048 f93e 5826 3a3c b226 5cbd
000001f0: d2d1 a53e ec67 0bbd 2c88 3a3e 5a15 923e
00000200: dfec 67be 8284 19c1 33e7 e53d 1ba7 8cbe
00000210: 2565 833d 8eee d8be 612d 533d 3ce6 a7bf
00000220: 21f7 5abc 2e98 9ac0 15fa 913f 5b3a 9d3f
00000230: a3fa ea3f 2202 57be 1b03 89be 46e5 0f3e
00000240: 2092 fcbe 8c42 683f 0e46 893f abae e7be
00000250: b069 4f3f ca57 ff40 2ebd ebbe 5892 7bc0
00000260: 2914 733e ce63 803d 8b89 a0be beaf 26be
00000270: 91b4 273f 58dd b6bd bfa8 89be 7628 8abe
00000280: d5d5 403f 7161 8440 2407 823d 47f5 10bf
00000290: 4ec7 a53f ca68 693b 82f3 64be 4fdb a63f
000002a0: 2a34 52bc b75b d2be 630a 6dbe 63c8 fb3e
000002b0: 69f6 f73e 479f 55be d899 bc3f 9782 3541
000002c0: 49a5 bc3f 8853 46bd ad1b efc0 c1f6 4c3d
000002d0: c8d6 463d ffe7 203e e966 073d bc88 1b3e
000002e0: fc06 38be 5090 c5bd be6d 6fbe 381c adbe
000002f0: fff6 d43d c102 6f3e 7a6f e93e 93eb 8cc0
00000300: 6073 323e 9ac0 e33e bd7d 113d 9855 c83d
00000310: f019 1c40 4616 5ebe 4843 30be 75ac 87bc
00000320: d9e9 25c0 d6df 6f40 212d bf40 32f0 b5be
00000330: 435f 90bf 4660 af3f cebf 9ebe 591a 93be
00000340: 0027 49bc 4698 1f3f 25e7 97bd b8c2 71c1
00000350: 3370 dac0 a7bd 1f41 5831 983e 7dee 123d
00000360: e975 df3c 3b6c afbf f0cf 34b9 7f71 d440
00000370: 3f64 3ac0 d78a 68bf 019f 0a3f a936 81c1
00000380: 32a6 a2be d036 4d3d c144 d93c 19d0 9b3f
00000390: 5172 31c1 9a57 693d b205 84be d693 853d
000003a0: af89 2e3c 9869 343c 57e0 b43c b49c f23e
000003b0: fb49 8040 a828 abbe cc44 87c1 8919 a8bf
000003c0: 3e7f 17bd 261d 283d 64f7 b53d 0826 bf3b
000003d0: 197a 08bf f0bf c0bc 667f 21bd 6569 1140
000003e0: f001 35bd 2a57 d0be 25de 0cbb d974 9c3d
000003f0: e954 43be 0874 cb3c 5bf1 4fbe a330 9cbe
0.33393964 9.591573 -0.11684303 0.19157906 0.034530863 0.40604234 -0.029602116 1.2885811
0.040292405 4.9003043 -1.1144387 -1.2178377 -1.7955351 0.19974414 0.27394924 -0.07226077
0.4716477 -0.91074544 -1.1324868 0.46604672 -0.8883023 -8.06798 0.47630635 3.948922
-0.12414517 0.046588153 0.32947254 0.23550467 -0.6272056 -0.012424626 0.3386589 0.20757912
-0.742597 -4.0476947 -0.019586664 0.42535552 -1.2855455 -0.047886044 0.14717941 -1.418671
-0.022671951 0.45071194 0.13389128 -0.37881938 -0.43410644 0.16187645 -1.5714072 -11.38489
-1.4584575 0.00833581 7.418585 0.06450942 -0.008751366 -0.25064203 0.015814153 -0.06034337
0.19710977 0.07027055 0.30048415 0.40419477 -0.0320046 -0.11273066 -0.48139808 4.4233565
-0.2646286 -0.40150052 0.03268834 -0.010222113 -2.403443 0.28547877 0.32707867 -0.06902447
2.5709848 -3.6663544 -6.024236 0.27140474 1.1223029 -1.4158033 0.39693445 0.2594307
-0.06767374 -0.74529773 -0.0052277516 15.117953 6.854277 -9.965645 -0.22827068 0.04008081
0.018965658 1.3823 0.046170175 -6.6458826 2.9415221 0.8440746 -0.62560695 16.150188
0.27113223 0.093834944 -0.049434274 -1.2167408 11.009658 -0.050718755 0.22999677 -0.10333611
0.062404256 0.0074938475 0.0048833485 -0.45980787 -4.0453095 0.36072034 16.9293 1.3250415
0.005989947 -0.04540425 -0.22300963 0.07336817 0.61586577 0.08104617 -0.025680874 -2.2713797
0.061946794 0.4868822 0.011361681 -0.05374784 0.32386643 -0.034034654 0.18216008 0.28531915
-0.22648953 -9.594851 0.112257384 -0.2747124 0.06415776 -0.42369503 0.05155695 -1.3117137
-0.013364584 -4.8310766 1.1404444 1.2283434 1.8357738 -0.20996907 -0.26760182 0.14052305
-0.49330235 0.9072654 1.0724504 -0.4525045 0.8102064 7.9794664 -0.4604277 -3.930807
0.23738159 0.06269036 -0.31354937 -0.16277978 0.655099 -0.08928937 -0.26886556 -0.26983994
0.7532628 4.1368947 0.06349018 -0.56624264 1.2951448 0.0035615438 -0.22358516 1.3035678
-0.01282982 -0.41085598 -0.23148493 0.4917632 0.48430184 -0.2086154 1.4734449 11.344382
1.4737941 -0.048419505 -7.4721284 0.05004001 0.048544675 0.157135 0.033057127 0.15188879
-0.17971414 -0.09646666 -0.23381707 -0.33810592 0.10398673 0.23340894 0.45592862 -4.4037566
0.17426825 0.4448288 0.035520304 0.09781951 2.439083 -0.21688184 -0.17213166 -0.016561726
-2.592398 3.7480369 5.974259 -0.35534817 -1.1279072 1.3701255 -0.3100571 -0.2873104
-0.012277365 0.62341726 -0.07417134 -15.110039 -6.826196 9.983802 0.29725146 0.03587197
0.027277904 -1.3704904 -0.000172436 6.6388545 -2.9123685 -0.9083685 0.5414887 -16.15169
-0.31767422 0.0501011 0.026522042 1.2172881 -11.090409 0.05696831 -0.25785595 0.06522338
0.0106529435 0.011011504 0.02207963 0.4738518 4.009031 -0.33429456 -16.908592 -1.3132793
-0.036986582 0.041043423 0.08885077 0.005833391 -0.53311306 -0.023529023 -0.039428137 2.2720578
-0.0441913 -0.406915 -0.0021494713 0.076394744 -0.1907536 0.024835601 -0.20306914 -0.30505857

bias f4 [2]
00000000: 4030 a93f 4b92 a5bf
1.321785 -1.293527
