models/cache_agent/6/D3QN_q_eval.pth (torch, 238173 bytes, 21 tensors)

weight f4 [128, 15]
0.651689 0.86250865 0.9213533 0.93161994 0.98913294 0.945475 0.71210223 1.0462393
0.7220977 -0.21525347 1.0492357 -0.24002516 1.1607494 -0.07832387 -0.34735966 -2.1555576
0.043013547 -3.1300533 -1.40831 0.33695424 -0.6819336 0.583762 0.63661695 1.5355991
0.009157509 0.063754946 0.11971134 0.5629487 0.63637614 0.1747056 -0.60302925 -0.7101495
0.013221439 -1.0202826 0.22304547 -0.89447653 -0.8451177 -1.032892 -1.1074651 -0.23814683
-0.7221138 0.12253899 -0.5395781 -0.70763564 -0.15367736 -2.3726685 -0.12523371 -2.9336028
-1.3275917 0.42819074 -0.7567906 0.8342976 1.0316737 1.696918 -0.00045496225 0.34164566
-0.23809156 0.3507531 0.025784409 0.23578137 -0.67370415 -0.8879098 -0.36913273 -0.8161631
0.0898381 -0.75231993 -0.75533783 -1.0448012 -1.31518 -0.06547798 -0.6653278 0.16936533
-0.88779014 -0.89160967 -0.36296105 -2.4034517 -0.28662223 -3.18977 -1.1279778 -0.13089785
-0.9220446 0.57038736 1.0784781 2.1202471 -0.024262264 0.48491532 0.047229446 0.41580465
0.2284061 0.06743834 -1.9703919 0.050202906 -2.795301 -0.99798113 0.4933787 -0.58815473
0.8647143 0.7117185 1.6361281 -0.087040916 0.59295726 -0.1913932 0.7468151 0.27903953
0.080159456 -2.2822514 -0.49485213 -3.287059 -1.5593492 -0.26967558 -0.6587678 0.63033235
1.0469346 1.8936731 -0.061155826 0.5274078 0.029087067 0.82272434 0.41813394 -0.023611723
-0.17250592 0.024068743 0.011205047 0.11575329 0.24846193 0.17840958 -0.25449345 -0.2463869
0.18042079 -0.18561995 -0.17235777 -0.05548057 -0.11329435 -0.112473935 -0.2006577 -2.2933633
-0.48499835 -3.0815513 -1.4197487 0.25696608 -0.6032539 0.61115146 0.66020054 1.663888
0.23077568 0.19519551 -0.031082563 0.38984048 0.5782478 0.101033 -2.6137862 -0.6852126
-3.0637734 -1.5302987 0.18549603 -0.9885686 0.48375168 0.84432805 1.8531904 0.24607715
0.15208976 0.21744706 0.51224685 0.70333797 0.07231463 -2.273933 -0.3528695 -3.1348927
-1.2977755 -0.33621195 -0.80283856 0.5579724 0.9368025 1.94931 -0.10444896 0.1447909
0.28399345 0.4279237 0.21477523 -0.0223695 -0.94658 -0.3480697 -0.2998479 -0.33861116
0.2533184 0.4729735 0.079596855 -0.23013459 1.023777 0.24234429 0.10506657 0.20599982
0.55870134 0.092435844 -0.121370636 -2.349751 -0.7771263 -2.8848062 -1.572361 0.063288726
-0.76477677 0.77503276 1.0526106 2.2242086 -0.050186157 0.060300626 0.17920761 0.64498055
0.35776955 -0.021289088 -2.5182624 -0.6749046 -2.7946002 -1.3973801 -0.26563448 -0.4829483
0.7717834 0.97805566 2.0903456 0.060006946 0.066295825 0.23626174 0.33203763 0.41436067
-0.02164779 2.2268744 0.43559676 2.4176884 1.9387773 -0.15108207 0.85530126 0.2757373
0.074547485 -0.3820936 -0.1665817 0.80576557 -0.07193555 0.6158386 0.06915751 -0.024130737
-0.0128824115 0.063565046 -0.004161358 -0.05292216 0.012841582 -0.0936773 0.14215258 -0.10451612
0.06918833 -0.014535442 -0.0304109 -0.15633813 -0.0620486 0.1360127 -0.12256737 -2.38967
00000000: 17d5 263f 5ecd 5c3f cfdd 6b3f a57e 6e3f
00000010: d137 7d3f a60a 723f 554c 363f 2beb 853f
00000020: 65db 383f 686b 5cbe 5b4d 863f 28c9 75be
00000030: 7093 943f 4468 a0bd 20d9 b1be a8f4 09c0
00000040: f92e 303d cb52 48c0 8143 b4bf 4485 ac3e
00000050: 3393 2ebf 6d71 153f 54f9 223f 838e c43f
00000060: 6009 163c f491 823d 382b f53d 681d 103f
00000070: 8ce9 223f 06e6 323e 2060 1abf 5ccc 35bf
00000080: bc9e 583c 9f98 82bf 0866 643e 6afc 64bf
00000090: a259 58bf ce35 84bf 6bc1 8dbf c3dc 73be
000000a0: 73dc 38bf b9f5 fa3d ca21 0abf 9c27 35bf
000000b0: 995d 1dbe cdd9 17c0 443d 00be 26c0 3bc0
000000c0: 86ee a9bf d13b db3e 07bd 41bf 8794 553f
000000d0: e20d 843f 9c34 d93f 0088 eeb9 2eec ae3e
000000e0: 46ce 73be e995 b33e d339 d33c ac70 713e
000000f0: e077 2cbf 0f4e 63bf f7fe bcbe 11f0 50bf
00000100: 0afd b73d 0a98 40bf d25d 41bf 0cbc 85bf
00000110: d157 a8bf 5219 86bd ec52 2abf 1b6e 2d3e
00000120: 3746 63bf 8840 64bf 08d6 b9be 27d2 19c0
00000130: 26c0 92be 3125 4cc0 9461 90bf 160a 06be
00000140: 1d0b 6cbf e804 123f 920b 8a3f 21b2 0740
00000150: a8c1 c6bc d246 f83e aa73 413d 59e4 d43e
00000160: 4ae3 693e 1d1d 8a3d cd35 fcbf 90a1 4d3d
00000170: 36e6 32c0 b17b 7fbf 229c fc3e 4f91 16bf
00000180: eb5d 5d3f 2f33 363f a56c d13f 8242 b2bd
00000190: 0ccc 173f 94fc 43be 462f 3f3f 45de 8e3e
000001a0: a42a a43d 6810 12c0 425d fdbe 2d5f 52c0
000001b0: c198 c7bf eb12 8abe 02a5 28bf 765d 213f
000001c0: f401 863f e163 f23f 887e 7abd 3304 073f
000001d0: 0048 ee3c 109e 523f a715 d63e 5f6d c1bc
000001e0: 64a5 30be d02b c53c 6095 373c 1010 ed3d
000001f0: ce6c 7e3e 00b1 363e f74c 82be d94c 7cbe
00000200: 3ac0 383e 2813 3ebe 8e7e 30be 983f 63bd
00000210: de06 e8bd bc58 e6bd 3679 4dbe 77c6 12c0
00000220: b451 f8be 2338 45c0 53ba b5bf 0f91 833e
00000230: d96e 1abf 6c74 1c3f e702 293f 48fa d43f
00000240: 7650 6c3e 55e1 473e dca0 febc 2c99 c73e
00000250: 0c08 143f 64ea ce3d 4648 27c0 186a 2fbf
00000260: dd14 44c0 d4e0 c3bf acf2 3d3e d512 7dbf
00000270: 4dae f73e e225 583f 5835 ed3f a6fb 7b3e
00000280: 6bbd 1b3e 71aa 5e3e 9c22 033f f50d 343f
00000290: b119 943d 1e88 11c0 50ab b4be 15a2 48c0
000002a0: 821d a6bf f923 acbe d486 4dbf 47d7 0e3f
000002b0: 4ad2 6f3f fd82 f93f 56e9 d5bd 1144 143e
000002c0: 9767 913e d118 db3e 0aee 5b3e 3e40 b7bc
000002d0: 1153 72bf 3136 b2be aa85 99be 715e adbe
000002e0: f3b2 813e 9529 f23e ad03 a33d 67a8 6bbe
000002f0: 200b 833f 1a29 783e 242d d73d 9ef1 523e
00000300: 0d07 0f3f 014f bd3d 2b91 f8bd 5262 16c0
00000310: c0f1 46bf aaa0 38c0 2043 c9bf 859d 813d
00000320: 69c8 43bf 8c68 463f f2bb 863f 6f59 0e40
00000330: 0090 4dbd cafd 763d 3382 373e 721d 253f
00000340: 922d b73e 7466 aebc 362b 21c0 8cc6 2cbf
00000350: bbda 32c0 5add b2bf 3e01 88be 0045 f7be
00000360: 9993 453f db61 7a3f 39c8 0540 d8c9 753d
00000370: 1bc6 873d 99ee 713e d600 aa3e 1527 d43e
00000380: b556 b1bc 1c85 0e40 8a06 df3e 68bb 1a40
00000390: db29 f83f 42b5 1abe 06f5 5a3f 702d 8d3e
000003a0: 5aac 983d c6a1 c3be 6594 2abe a746 4e3f
000003b0: f252 93bd 99a7 1d3f 74a2 8d3d d3ad c5bc
000003c0: c010 53bc 642e 823d 005c 88bb e8c4 58bd
000003d0: 8065 523c e2d9 bfbd 7290 113e 8c0c d6bd
000003e0: 9cb2 8d3d 1026 6ebc 4820 f9bc 1a17 20be
000003f0: ac26 7ebd ea46 0b3e 9a04 fbbd 5af0 18c0

bias f4 [128]
1.1617138 0.7540736 -0.92202294 0.7276073 -0.83081305 0.6980213 0.8148137 0.9438426
-0.04724756 0.8126818 0.48282483 0.5724549 0.38437417 0.53474295 0.73754686 0.118195824
-0.112418786 0.7624776 -0.73495775 0.7146418 -0.70798004 -0.76363033 0.38971838 0.41681215
-0.596701 0.7436874 0.45005876 0.12198937 0.57335514 0.3853051 0.69048697 0.37981272
-1.0679405 0.55933785 0.61083406 -0.91925937 0.7045706 0.3076404 -0.4803729 0.88677156
0.6194027 -0.19108619 0.7065888 0.066219464 0.7222099 0.32440123 -0.7681404 -0.94558907
0.4924056 0.4433058 -0.12285486 0.23677962 0.17342669 1.0663201 1.2283175 0.007651625
-0.9047525 0.5009401 0.5108221 0.10323313 0.37144935 0.6801441 0.8015914 0.72078055
0.7432393 0.85189456 -0.68239856 0.702703 0.4494403 0.4186224 0.43009093 0.4683271
0.022018595 0.56341124 0.81504 0.9041139 -0.08735306 -0.9308669 -0.9635297 0.8668003
0.97649366 0.51911753 0.5255362 0.6682841 0.087649465 0.19847229 0.80067205 -0.09935403
-0.99090976 0.15156592 -0.80630463 0.7213629 -0.8448096 0.8617949 0.2726187 0.69019336
-1.1091287 0.694758 0.46105546 0.58266026 1.0208656 -1.2736039 0.7082682 0.6183267
0.43156645 -0.7201784 -0.12913257 0.15359676 0.06297899 0.85001993 0.3371149 0.44921413
0.56731933 0.8547369 0.52016777 -0.81420106 0.6490511 0.6264591 0.83282614 -0.55715024
0.9054307 0.73875415 0.61920625 -0.018580984 0.5926477 0.7459084 0.57173663 -0.88666606
00000000: 0ab3 943f f80a 413f b209 6cbf 7944 3a3f
00000010: 2ab0 54bf 86b1 323f a197 503f ab9f 713f
00000020: a886 41bd ea0b 503f d134 f73e 688c 123f
00000030: b1cc c43e eae4 083f dfcf 3c3f a710 f23d
00000040: d23b e6bd bb31 433f 3126 3cbf c4f2 363f
00000050: 2e3e 35bf 477d 43bf 2b89 c73e 6768 d53e
00000060: 66c1 18bf 4c62 3e3f 1a6e e63e 90d5 f93d
00000070: 67c7 123f b646 c53e c1c3 303f d076 c23e
00000080: 46b2 88bf c430 0f3f 9f5f 1c3f 9554 6bbf
00000090: bd5e 343f 0b83 9d3e 70f3 f5be 7603 633f
000000a0: 2d91 1e3f 19ac 43be 01e3 343f 129e 873d
000000b0: bfe2 383f eb17 a63e d9a4 44bf 2012 72bf
000000c0: 961c fc3e faf8 e23e 549b fbbd 5b76 723e
000000d0: c496 313e 2d7d 883f 8239 9d3f 7cba fa3b
000000e0: dc9d 67bf 9c3d 003f 3dc5 023f e46b d33d
000000f0: 9c2e be3e ec1d 2e3f 1835 4d3f 1385 383f
00000100: ee44 3e3f c315 5a3f acb1 2ebf 58e4 333f
00000110: 0a1d e63e ad55 d63e e134 dc3e 92c8 ef3e
00000120: 5760 b43c b83b 103f 76a6 503f 0274 673f
00000130: 29e6 b2bd 4b4d 6ebf e2a9 76bf a0e6 5d3f
00000140: 7dfb 793f e3e4 043f 8a89 063f ab14 2b3f
00000150: 9081 b33d 523c 4b3e d8f8 4c3f 207a cbbd
00000160: 43ac 7dbf 1934 1b3e fb69 4ebf 3dab 383f
00000170: 7145 58bf 979e 5c3f ae94 8b3e 83b0 303f
00000180: eef7 8dbf a9db 313f 760f ec3e 3929 153f
00000190: b9ab 823f 7405 a3bf 1151 353f a94a 1e3f
000001a0: 47f6 dc3e 9d5d 38bf 543b 04be 7848 1d3e
000001b0: 21fb 803d e89a 593f 539a ac3e 65ff e53e
000001c0: d73b 113f 0ad0 5a3f b729 053f 7b6f 50bf
000001d0: 3628 263f a05f 203f 1834 553f 66a1 0ebf
000001e0: 4eca 673f fe1e 3d3f 4d84 1e3f 2637 98bc
000001f0: c2b7 173f daf3 3e3f 555d 123f 8cfc 62bf

weight f4 [128, 128]
1.2742262 0.19807762 -0.6644278 0.19146423 -0.2277619 0.36627546 0.38537604 1.1475793
0.02322939 0.27076158 0.1659625 0.3899302 0.023343993 0.62255055 0.47563756 -1.9132707
-0.010503754 0.21467757 -0.50961584 0.48568597 -0.44658163 -0.32834145 -0.7404392 -1.0255684
-0.25887516 0.18704985 0.25475684 0.04826352 0.5179381 0.09478358 0.159267 -0.15819933
-0.86804813 0.36092737 0.31850958 -0.5735418 0.15005037 0.1312233 -0.4381149 0.23077513
0.19669688 -0.22968636 0.24666278 -1.8597862 0.08373399 0.48145062 -0.46043763 -0.37724403
0.22119707 0.11490435 -0.054016758 -1.7777216 0.044991724 1.3295412 1.275248 0.02844583
-0.79093313 1.3158745 0.24790771 0.06272327 0.18572956 0.49146417 0.5065421 0.2369627
0.17687127 0.5134841 -0.8260246 0.25894386 0.25718674 0.15582336 0.28040984 0.16567431
0.16283032 0.2947197 0.14326486 0.29477164 -0.9512038 -0.7377359 -1.0197287 0.46366182
0.52474517 0.29785046 -1.6874671 0.07195132 0.05263024 0.6560731 0.2022896 0.06968788
-0.28534207 -1.6475939 -0.4948771 0.22492868 -0.4549776 0.5028059 -1.6502864 0.23023681
-0.7673851 0.0304484 0.28084308 0.36601776 1.3523352 -0.65043026 0.24024224 0.2158983
0.13864477 -0.84190786 -0.082260005 -2.0989957 -1.8163332 0.09850044 -0.2059834 -1.6486682
0.18330173 1.2244266 0.62013024 -0.17224345 0.14126411 0.5535231 0.1368028 -0.7228224
1.1887856 0.09888925 0.31811786 -1.3854535 0.34860584 0.42701536 0.24338007 -0.8134145
1.4937494 0.16271017 -0.2471144 0.19755664 -0.11543647 0.21897197 0.43049368 1.1777518
-0.0058282316 0.22095777 0.23269594 0.37614942 0.04039198 0.58191735 0.32685363 -1.6091553
-0.031218328 0.16645275 -0.16253626 0.48757496 -0.4046674 -0.21470095 -0.6368079 -0.93045384
-0.3108235 0.14848596 0.2503838 0.0069818054 0.43117228 0.055407245 0.19179183 -0.18064217
-0.8175816 0.18983766 0.445212 -0.48168218 0.072374605 0.09039604 -0.38272962 0.21765305
0.17043395 -0.21097732 0.27083296 -1.554896 0.21030894 0.34776402 -0.28841457 -0.42152026
0.20954837 0.22405958 -0.028548978 -1.600686 0.00269036 1.4143562 1.4941407 0.2165513
-0.56592983 1.011899 0.36369696 -0.042522334 0.21698046 0.5014743 0.39010733 0.1677864
0.22291955 0.3938116 -0.64891326 -0.096893884 0.20105591 0.13690484 0.34353605 0.12186104
0.17184836 0.24241582 0.19262376 0.3109669 -0.80967915 -0.4703348 -0.69815356 0.4481326
0.55942327 0.35050642 -1.5593392 0.18911779 0.030606851 0.7131716 0.19175693 -0.018406622
-0.21125264 -1.4970275 -0.22693275 0.31069943 -0.4620598 0.50247455 -1.4385571 0.18261021
-0.49262342 0.11898822 0.23157968 0.49713606 1.5299417 -0.59110665 0.17437313 0.22634149
0.20997275 -0.86763364 -0.022113048 -1.764313 -1.6262141 0.071466625 -0.29420045 -1.6264486
0.21499671 1.3701446 0.51867825 -0.09039505 0.19259305 0.42928582 0.11950464 -0.4896502
1.2792482 0.15525952 0.28324264 -1.3643702 0.4312445 0.57686484 0.30915964 -0.6298083
00000000: d819 a33f dcd4 4a3e f117 2abf 330f 443e
00000010: 6a3a 69be 7588 bb3e 0250 c53e e1e3 923f
00000020: 904b be3c 43a1 8a3e 13f2 293e eea4 c73e
00000030: e73b bf3c 795f 1f3f c486 f33e 0ee6 f4bf
00000040: f017 2cbc 70d4 5b3e 2f76 02bf d5ab f83e
00000050: 59a6 e4be 5f1c a8be 6c8d 3dbf d345 83bf
00000060: 498b 84be ff89 3f3e 7d6f 823e f8af 453d
00000070: 9797 043f e51d c23d e316 233e 01ff 21be
00000080: 6738 5ebf 79cb b83e b013 a33e a3d3 12bf
00000090: cea6 193e 675f 063e 9950 e0be 5150 6c3e
000000a0: e86a 493e e732 6bbe 2b95 7c3e 790d eebf
000000b0: ba7c ab3d b280 f63e 7bbe ebbe 2126 c1be
000000c0: 7c81 623e f952 eb3d ad40 5dbd 628c e3bf
000000d0: 3e49 383d 682e aa3f 543b a33f 3b07 e93c
000000e0: 987a 4abf 936e a83f 85db 7d3e 0f75 803d
000000f0: e42f 3e3e 31a1 fb3e beac 013f 5aa6 723e
00000100: be1d 353e b273 033f 5976 53bf 4a94 843e
00000110: fbad 833e 2990 1f3e e191 8f3e 87a6 293e
00000120: febc 263e 80e5 963e 06b4 123e 4fec 963e
00000130: 1882 73bf 43dc 3cbf 7886 82bf 1565 ed3e
00000140: b355 063f db7f 983e ecfe d7bf 375b 933d
00000150: ce92 573d 68f4 273f 0125 4f3e 85b8 8e3d
00000160: 5b18 92be 5be4 d2bf 8860 fdbe b453 663e
00000170: d3f2 e8be e3b7 003f 963c d3bf 33c3 6b3e
00000180: 5a73 44bf ec6e f93c aaca 8f3e ae66 bb3e
00000190: 5219 ad3f 9982 26bf 1002 763e 7214 5d3e
000001a0: e5f8 0d3e 4687 57bf ef77 a8bd f255 06c0
000001b0: 9b7d e8bf 99ba c93d 50ed 52be 8f07 d3bf
000001c0: 73b3 3b3e 03ba 9c3f dbc0 1e3f 9660 30be
000001d0: 8aa7 103e b1b3 0d3f 0916 0c3e e40a 39bf
000001e0: 202a 983f 7286 ca3d 58e0 a23e 8a56 b1bf
000001f0: 777c b23e c2a1 da3e a038 793e ef3b 50bf
00000200: 2e33 bf3f 7f9d 263e 8f0b 7dbe 4a4c 4a3e
00000210: f569 ecbd 303a 603e ab69 dc3e 92c0 963f
00000220: c0fa bebb c142 623e d847 6e3e a896 c03e
00000230: 1072 253d 89f8 143f 5c59 a73e cdf8 cdbf
00000240: 94bd ffbc 9772 2a3e e86f 26be 6da3 f93e
00000250: 9130 cfbe 91da 5bbe d805 23bf 3932 6ebf
00000260: 4224 9fbe b40c 183e 4e32 803e a1c7 e43b
00000270: 9dc2 dc3e b5f2 623d 1465 443e 43fa 38be
00000280: 074d 51bf ce64 423e d4f2 e33e 0c9f f6be
00000290: 2339 943d 8f21 b93d 23f5 c3be 71e0 5e3e
000002a0: 3d86 2e3e 700a 58be 9eaa 8a3e d506 c7bf
000002b0: 3a5b 573e 200e b23e 13ab 93be 81d1 d7be
000002c0: d993 563e e06f 653e 8cdf e9bc 47e3 ccbf
000002d0: c050 303b a009 b53f 0140 bf3f a0bf 5d3e
000002e0: c7e0 10bf e885 813f 7d36 ba3e e62b 2ebd
000002f0: 2030 5e3e 9f60 003f 26bc c73e 33d0 2b3e
00000300: 0645 643e ada1 c93e 2e1f 26bf 4d70 c6bd
00000310: 9ae1 4d3e c830 0c3e f5e3 af3e 4892 f93d
00000320: 04f9 2f3e da3b 783e 2a3f 453e 0e37 9f3e
00000330: 2247 4fbf b9cf f0be 31ba 32bf a371 e53e
00000340: 5d36 0f3f 9475 b33e 6d98 c7bf 18a8 413e
00000350: 38bb fa3c 6a92 363f ee5b 443e 7cc9 96bc
00000360: 9d52 58be 999e bfbf 0f61 68be ff13 9f3e
00000370: 1a93 ecbe 2ca2 003f a422 b8bf 2cfe 3a3e
00000380: 2339 fcbe 19b0 f33d 3923 6d3e 9e88 fe3e
00000390: 21d5 c33f c452 17bf df8e 323e 10c6 673e
000003a0: 1903 573e 3d1d 5ebf 6c26 b5bc 02d5 e1bf
000003b0: c927 d0bf 185d 923d 71a1 96be 782f d0bf
000003c0: 1928 5c3e e660 af3f 19c8 043f 0a21 b9bd
000003d0: 1d37 453e 5acb db3e d9be f43d 6eb3 fabe
000003e0: 68be a33f 5afc 1e3e 2e05 913e afa3 aebf
000003f0: 14cc dc3e 6aad 133f 2c4a 9e3e 1e3b 21bf

bias f4 [128]
0.6018781 0.7037149 0.7088387 -0.18647015 -0.34256896 -0.42872024 0.06232532 -0.07752531
-0.16572572 0.50589657 0.4152642 0.032959368 0.5111037 -0.006121032 -0.37780207 -0.34315568
0.50201917 0.5815838 0.57174355 0.7632948 -0.46118882 0.5055214 0.49164978 0.47663227
-0.053706747 0.081969865 0.033884924 -0.04384439 0.39082456 0.5827631 -0.021036103 -0.03659118
-0.016013442 -0.3881589 0.068790264 0.002941399 0.66660506 0.0028213398 0.48363703 0.47958967
-0.03167534 0.048657767 -0.05048392 0.29299507 0.06984985 0.6057462 0.62700284 0.42791873
0.5693261 0.51776445 -0.03461722 -0.016441416 -0.46009004 -0.023645498 0.5769745 -0.08992021
0.014506346 0.55972296 -0.47703233 -0.004116876 0.41243687 -0.45330343 -0.02401742 0.0383875
0.017447617 0.57376623 0.6485394 -0.40826058 -0.04580007 -0.01606155 0.53426504 0.5908207
0.036575083 -0.46345243 -0.0741003 0.015323266 0.45022768 -0.02977597 0.617389 -0.05485688
0.05023464 -0.4938419 -0.01019159 -0.03277751 0.5639299 -0.0872985 -0.052273214 0.6080335
0.08412755 0.3670157 0.37209204 -0.016405094 -0.12149347 0.18247628 0.46480185 -0.03873141
-0.02620162 -0.53889316 -0.40183 0.53443253 -0.05530767 0.60764676 -0.6482584 0.027844504
0.040212367 0.57568383 0.4737973 0.67028534 -0.04366473 -0.4370398 -0.009762815 0.46512458
0.16066362 0.6736157 0.031374924 0.6027447 -0.41881552 -0.013169177 0.48449725 0.4887546
0.53571993 -0.542119 -0.03924538 -0.070002116 0.022869699 0.057567216 0.4498071 -0.085930616
00000000: af14 1a3f a926 343f 7476 353f 08f2 3ebe
00000010: 3365 afbe 3881 dbbe d648 7f3d 97c5 9ebd
00000020: 01b4 29be 7082 013f 829d d43e 6700 073d
00000030: b1d7 023f f092 c8bb 466f c1be 1ab2 afbe
00000040: 5484 003f ade2 143f c95d 123f 4a67 433f
00000050: f120 ecbe da69 013f 85b9 fb3e 2509 f43e
00000060: 9bfb 5bbd d1df a73d ebca 0a3d 2d96 33bd
00000070: 281a c83e f62f 153f e853 acbc a2e0 15bd
00000080: 9f2e 83bc c3bc c6be e9e1 8c3d 7dc4 403b
00000090: a1a6 2a3f 3ae6 383b 469f f73e c78c f53e
000000a0: 00be 01bd 5e4d 473d 3ac8 4ebd 7303 963e
000000b0: 700d 8f3d 2f12 1b3f 4283 203f 2a18 db3e
000000c0: 5bbf 113f 368c 043f c9ca 0dbd 26b0 86bc
000000d0: ec90 ebbe 34b4 c1bc 9ab4 133f 1628 b8bd
000000e0: 06ac 6d3c 014a 0f3f 953d f4be dce6 86bb
000000f0: ed2a d33e 6317 e8be 2ec0 c4bc 363c 1d3d
00000100: 4eee 8e3c 58e2 123f ae06 263f 8807 d1be
00000110: db98 3bbd 8393 83bc 98c5 083f 0740 173f
00000120: c1cf 153d a349 edbe e6c1 97bd 700e 7b3c
00000130: 3e84 e63e bcec f3bc 350d 1e3f 9cb1 60bd
00000140: d6c2 4d3d d8d8 fcbe a0fa 26bc b641 06bd
00000150: b65d 103f 8ec9 b2bd 701c 56bd 15a8 1b3f
00000160: 114b ac3d 7be9 bb3e d982 be3e fa63 86bc
00000170: 92d1 f8bd 10db 3a3e 82fa ed3e d4a4 1ebd
00000180: c8a4 d6bc e7f4 09bf a9bc cdbe 92d0 083f
00000190: 4c8a 62bd bd8e 1b3f 43f4 25bf 281a e43c
000001a0: b9b5 243d 0460 133f 8f95 f23e d297 2b3f
000001b0: cad9 32bd aec3 dfbe 37f4 1fbc cf24 ee3e
000001c0: 0185 243e 1472 2c3f fe82 003d 7a4d 1a3f
000001d0: fd6e d6be 88c3 57bc 0610 f83e 0b3e fa3e
000001e0: f124 093f 50c8 0abf c3bf 20bd 455d 8fbd
000001f0: 3c59 bb3c 9acb 6b3d 1e4d e63e 64fc afbd

weight f4 [1, 128]
0.5543191 0.46774614 0.5899963 -0.32443634 -1.4921036 -0.2045119 0.05156722 -1.6464374
-0.13107431 0.6956046 0.5598705 0.02746688 0.6004478 -0.05666551 -1.5135614 -0.108302735
0.63509595 0.6201326 0.63227105 0.9379246 -0.3647171 0.59443915 0.6731556 0.6424195
-0.0059929863 -0.03763619 -0.038985047 -0.04480661 -0.89286137 0.6326601 -1.539188 -0.5966575
0.041709047 -1.5727438 0.02869835 -1.4675786 0.6426277 -0.009821153 0.68744946 0.6352227
0.07327043 -0.041717354 -0.072397806 -0.20041078 -0.018637124 0.533832 0.64947516 0.58325446
0.5862034 0.6901047 -0.01419466 -0.05933001 -0.20004593 0.056842785 0.6046678 0.00042834895
-0.070634805 0.7598844 -0.101999424 0.055739045 0.6996926 -0.1607582 -0.009694672 0.05632814
-0.0077181566 0.6744082 0.62330925 -0.1272292 0.06554105 -0.045226853 0.68273187 0.6208851
0.0026287555 -0.12209306 0.08089892 0.08069912 0.6136418 -0.010018252 0.5684854 -0.07449585
-0.067964815 -0.2175325 0.069085844 -0.007858913 0.65415245 0.025996512 0.020989785 0.6290742
0.028508015 0.6978301 0.72916037 -1.0966609 0.027820885 -0.28632712 0.56118876 -0.021637091
-0.027453393 -0.16126537 -0.09677123 0.6906253 0.0486461 0.55781746 -0.36065853 0.038093057
-0.038280074 0.6015185 0.6348202 0.67527443 -0.031794872 -0.3140048 -0.058238145 0.7357299
0.66546357 0.66200227 -0.0021505042 0.6489274 -1.8395566 0.07866067 0.70678395 0.5590325
0.7264831 -0.20181347 -0.05903869 0.03135506 0.029868796 0.003967218 0.58033204 -0.0316685
00000000: dbe7 0d3f 6c7c ef3e ff09 173f 851c a6be
00000010: 40fd bebf 916b 51be 2638 533d 76be d2bf
00000020: 5838 06be 2513 323f ac53 0f3f 3902 e13c
00000030: f2b6 193f 181a 68bd 61bc c1bf d3cd ddbd
00000040: a695 223f 03c1 1e3f 84dc 213f d41b 703f
00000050: 33bc babe 2a2d 183f ed53 2c3f 9b75 243f
00000060: d060 c4bb 6828 1abd c9ae 1fbd 2387 37bd
00000070: 9092 64bf 03f6 213f 1d04 c5bf 8cbe 18bf
00000080: 1bd7 2a3d ab4f c9bf cd18 eb3c 9ed9 bbbf
00000090: 4083 243f e7e8 20bc b0fc 2f3f f49d 223f
000000a0: cf0e 963d d1df 2abd 4d45 94bd 7c38 4dbe
000000b0: e2ac 98bc 37a9 083f 0144 263f 2a50 153f
000000c0: 6d11 163f b4aa 303f b890 68bc 0604 73bd
000000d0: d7d8 4cbe fbd3 683d 82cb 1a3f 0694 e039
000000e0: fba8 90bd c987 423f 13e5 d0bd a04e 643d
000000f0: 0e1f 333f cc9d 24be 67d6 1ebc 56b8 663d
00000100: 97e8 fcbb 04a6 2c3f 3291 1f3f 5f48 02be
00000110: 633a 863d cb3f 39bd 84c7 2e3f 53f2 1e3f
00000120: 3347 2c3b ed0b fabd 55ae a53d 9545 a53d
00000130: a117 1d3f 9823 24bc 4288 113f 4891 98bd
00000140: 2331 8bbd d7c0 5ebe e17c 8d3d acc2 00bc
00000150: 8976 273f a3f6 d43c c5f2 ab3c 020b 213f
00000160: a489 e93c fea4 323f 41aa 3a3f 625f 8cbf
00000170: a0e8 e33c 7899 92be 11aa 0f3f 4540 b1bc
00000180: f0e5 e0bc c022 25be ff2f c6bd d2cc 303f
00000190: 2241 473d 20cd 0e3f 3ca8 b8be 7707 1c3d
000001a0: 91cb 1cbd 1efd 193f 9483 223f c9de 2c3f
000001b0: 573b 02bd 3dc5 a0be 1f8b 6ebd cb58 3c3f
000001c0: d25b 2a3f fb78 293f 79ef 0cbb 1b20 263f
000001d0: 9776 ebbf d818 a13d cbef 343f c11c 0f3f
000001e0: ccfa 393f 31a8 4ebe 8ed2 71bd 2a6e 003d
000001f0: 68af f43c 70ff 813b a490 143f d4b6 01bd

weight f4 [4, 128]
0.06482091 0.042524904 0.002658032 -0.17985147 0.1909597 -0.21204641 -0.029158633 0.3259972
-0.12997827 0.044695903 0.07468635 0.029076733 0.004215417 0.0028603193 0.23259203 0.054001328
-0.032975696 -0.022654269 0.03595611 0.024793446 0.04930662 -0.027078774 6.199823e-05 -0.021991745
-0.05424746 0.003585821 -0.052362744 -0.04942117 -0.31873244 -0.07748395 0.28041178 0.07232015
0.05411045 0.29102826 -0.056923244 0.36684895 0.045381952 0.025879845 0.0061730095 -0.07405374
0.052148454 0.05721832 -0.073501214 -0.048977286 0.053441737 -0.05452128 -0.033522572 0.05732375
-0.051460877 0.011092008 -0.045099255 -0.09641332 0.11909071 0.0038486014 0.052786414 0.047448285
0.007619049 -0.1069492 -0.15226518 -0.03858065 -0.07211546 -0.053604867 -0.045683105 0.06050741
-0.0326239 -0.06300491 -0.08572695 -0.07001941 0.07921181 -0.07634522 0.07394579 -0.048649583
-0.02725542 -0.13221344 -0.06952244 -0.06915971 0.050832808 0.029420197 0.017277556 0.011859965
-0.03653279 0.10427741 -0.0648227 -0.071940556 0.00037790692 0.03991547 -0.040656123 -0.025010202
-0.023177803 0.02203778 -0.097951785 0.17769252 -0.09260603 -0.77683735 0.015982471 -0.048895285
-0.016030438 0.018745847 0.07649459 -0.033025745 -0.047354057 -0.08537568 0.043846212 0.085364014
-0.014189756 0.07364055 0.06736143 -0.076628976 0.02107802 -0.074959956 -0.036404125 -0.04021648
0.064581 -0.06489547 0.057863265 -0.051281944 0.3533767 -0.0692913 -0.06265952 0.04438709
-0.027603667 0.011166328 0.007135129 0.06858098 -0.053698402 -0.046053134 0.041084867 -0.043956827
-0.028728276 -0.081855506 -0.05588292 -0.14719604 0.09807735 0.007953339 0.07989391 0.24627966
-0.05311364 -0.05198353 0.06592141 0.05791158 0.081549235 -0.0007981724 0.13558862 0.069646314
0.06365811 0.06579857 -0.05434478 -0.15464798 0.08042503 0.14373781 -0.044532195 0.08175643
0.06504621 -0.068790115 0.065274745 0.020870384 -0.18153492 -0.062388424 0.17940708 -0.17851779
0.027205849 0.2228274 0.013235299 0.1861459 -0.09125564 0.07850502 -0.031336192 -0.054295406
-0.042710464 -0.022967363 -0.05699912 -0.22694837 -0.0046814512 0.020120045 0.012405238 0.08319414
0.029393407 -0.027652035 -0.017270356 0.04700766 0.08098577 -0.024947625 -0.016693575 0.09151915
-0.01811847 -0.08330947 -0.0968932 0.020107847 -0.096725166 -0.058811396 -0.085420795 -0.03213181
-0.004028861 -0.10512847 -0.11421917 0.011855607 0.043172915 -0.039472543 0.02268501 0.01634337
0.030665902 -0.22413446 0.016840465 0.066481106 -0.08297901 -0.05060472 0.015667692 0.03603095
-0.07581028 -0.07108511 -0.087323055 -0.04191036 0.061151054 0.09130456 0.05687719 -0.002437224
-0.012638345 0.054242738 -0.06409133 0.007389455 -0.23065993 -0.30169708 0.015564848 -0.0007754383
0.03786508 -0.020577328 0.05297493 0.015055395 0.027722003 0.05774479 -0.039346114 -0.0068844236
-0.06553422 0.07510947 -0.02412661 -0.09866155 -0.09784723 0.013657587 -0.0028651895 -0.08009518
0.78126323 0.023161544 0.024131997 0.06745924 0.27464536 0.032163683 0.029128239 -0.078772746
-0.11410692 0.026889706 -0.02653772 -0.023026694 -0.010526396 0.06308582 0.02405061 0.041207116
00000000: d3c0 843d 982e 2e3d 6132 2e3b fc2a 38be
00000010: f18a 433e b222 59be 16de eebc 1be9 a63e
00000020: 0619 05be 0d13 373d 28f5 983d 5432 ee3c
00000030: 7b21 8a3b 3274 3b3b 9b2c 6e3e 7f30 5d3d
00000040: 8611 07bd 7295 b9bc b746 133d a01b cb3c
00000050: bdf5 493d 4ed4 ddbc 0c05 8238 0828 b4bc
00000060: 9632 5ebd 1800 6b3b 517a 56bd da6d 4abd
00000070: e630 a3be e8af 9ebd 2292 8f3e 961c 943d
00000080: eba2 5d3d a801 953e 5928 69bd a0d3 bb3e
00000090: 6de2 393d f801 d43c f546 ca3b 7da9 97bd
000000a0: 9e99 553d c25d 6a3d ce87 96bd 689c 48bd
000000b0: b9e5 5a3d b551 5fbd f74e 09bd 4fcc 6a3d
000000c0: a4c8 52bd 41bb 353c ffb9 38bd 5974 c5bd
000000d0: d5e5 f33d d138 7c3b 9136 583d 2259 423d
000000e0: 37a9 f93b 2f08 dbbd 67eb 1bbe be06 1ebd
000000f0: 45b1 93bd c790 5bbd 351e 3bbd 9ed6 773d
00000100: a3a0 05bd b808 81bd 9c91 afbd 5666 8fbd
00000110: cd39 a23d e25a 9cbd e470 973d c944 47bd
00000120: c246 dfbc f662 07be c861 8ebd 9ba3 8dbd
00000130: 1036 503d a002 f13c a989 8d3c 4c50 423c
00000140: 68a3 15bd 658f d53d c4c1 84bd 9255 93bd
00000150: cf21 c639 677e 233d 0987 26bd 32e2 ccbc
00000160: 60df bdbc 9388 b43c f29a c8bd 07f5 353e
00000170: 3ba8 bdbd d0de 46bf aced 823c 6c46 48bd
00000180: 4452 83bc e490 993c 32a9 9c3d 0146 07bd
00000190: 54f6 41bd 72d9 aebd 1698 333d 54d3 ae3d
000001a0: 267c 68bc dbd0 963d caf4 893d a7ef 9cbd
000001b0: d0ab ac3c 9b84 99bd 7e1c 15bd 09ba 24bd
000001c0: 0b43 843d ebe7 84bd 0802 6d3d 040d 52bd
000001d0: caed b43e 99e8 8dbd a253 80bd 3dcf 353d
000001e0: 1621 e2bc f9f2 363c cdcd e93b 2f74 8c3d
000001f0: dbf2 5bbd 36a2 3cbd 9b48 283d 130c 34bd
00000200: 9057 ebbc dca3 a7bd 7de5 64bd 8fba 16be
00000210: c7dc c83d b94e 023c 6b9f a33d bc30 7c3e
00000220: b08d 59bd afec 54bd ce01 873d b134 6d3d
00000230: 4903 a73d 713c 51ba bed7 0a3e baa2 8e3d
00000240: 2f5f 823d 67c1 863d a298 5ebd 0a5c 1ebe
00000250: e1b5 a43d 0130 133e 6467 36bd ea6f a73d
00000260: f336 853d d5e1 8cbd c4ae 853d 5ef8 aa3c
00000270: 4ae4 39be 018b 7fbd 7db6 373e 5ecd 36be
00000280: cdde de3c de2c 643e ded8 583c 089d 3e3e
00000290: 3de4 babd 3dc7 a03d 615a 00bd dc64 5ebd
000002a0: 2bf1 2ebd 0d26 bcbc e977 69bd 2765 68be
000002b0: dc66 99bb cbd2 a43c 573f 4b3c b061 aa3d
000002c0: 71ca f03c 8586 e2bc 907a 8dbc 1b8b 403d
000002d0: dedb a53d f65e ccbc f7c0 88bc 646e bb3d
000002e0: 306d 94bc 289e aabd f16f c6bd 36b9 a43c
000002f0: d817 c6bd 38e4 70bd 19f1 aebd a59c 03bd
00000300: 8904 84bb 984d d7bd bdeb e9bd 053e 423c
00000310: 15d6 303d f6ad 21bd ead5 b93c 88e2 853c
00000320: 0f37 fb3c 8183 65be 04f5 893c 3f27 883d
00000330: e6f0 a9bd e546 4fbd 8859 803c 3095 133d
00000340: 6c42 9bbd 1295 91bd 6ed6 b2bd 33aa 2bbd
00000350: 8779 7a3d e3fd ba3d 0ef8 683d d5b9 1fbb
00000360: 1011 4fbc a22d 5e3d 5142 83bd 3e23 f23b
00000370: 1e32 6cbe 0a78 9abe b403 7f3c c946 4bba
00000380: 6a18 1b3d c991 a8bc 3dfc 583d e7aa 763c
00000390: 4119 e33c cd85 6c3d 6429 21bd bb96 e1bb
000003a0: ce36 86bd fed2 993d 2ba5 c5bc 110f cabd
000003b0: 2164 c8bd 12c4 5f3c e7c5 3bbb f108 a4bd
000003c0: de00 483f 47bd bd3c 77b0 c53c 1228 8a3d
000003d0: 519e 8c3e 11be 033d 589e ee3c 9b53 a1bd
000003e0: e4b0 e9bd cd47 dc3c a265 d9bc 7aa2 bcbc
000003f0: e876 2cbc 2333 813d c905 c53c cbc8 283d

bias f4 [4]
-0.114611484 -0.4066981 0.018041363 0.6234167
00000000: 6db9 eabd bc3a d0be 7bcb 933c 3d98 1f3f

exp_avg f4 [128, 15]
-1.7043175 10.173994 -56.35904 -87.169075 57.131035 -228.06117 -97.56155 -1415.6227
-3.7273765 0.0 -1749.3677 -1470.354 -411.828 -40.866295 -7527.499 2.6650474
-10.713871 -4.5018744 -13.194734 1.2984679 -58.359287 -21.006598 -337.54395 3.3118973
0.0 -262.32877 -2049.6897 -119.02738 -22.619232 -3388.0432 -0.0030479217 2.6927948
0.55064577 2.3123367 -1.2713673 2.7211654 2.6746354 16.133566 0.83370733 0.0
20.93007 -1602.4558 1.928645 -1.2048988 -236.58286 4.4182916 -11.321919 -8.442396
-13.98578 1.1515875 -92.85422 -25.72836 -492.7005 6.5497165 0.0 -348.7199
-3263.364 -167.52298 -30.059095 -4954.878 0.0073611587 0.8292538 0.28502163 0.790945
-0.5464206 0.9231219 0.90791583 5.736259 0.26883414 0.0 6.6564555 -539.36115
0.5446419 -0.4554996 18.75061 8.568506 -30.107407 -15.871738 -41.35117 7.673644
-194.0654 -67.70253 -1098.842 11.598256 0.0 -860.4271 -5690.5635 -362.3349
-70.6359 -12114.055 13.194621 -8.328992 0.0007324219 3.402111 12.093965 -216.0253
-26.06897 -902.18085 19.269432 0.0 -471.86646 -1042.8364 -377.6378 -37.11048
-4318.004 33.967133 -124.31055 -76.0461 -180.25345 33.40918 -811.7562 -290.1078
-4599.683 48.884598 0.0 -3683.389 -23532.963 -1485.0784 -290.02356 -59546.43
0.0 0.0 0.0 0.0 0.0 0.0 0.0 0.0
0.0 0.0 0.0 0.0 0.0 0.0 0.0 5.6277695
-16.71882 -10.471011 -25.371675 2.8972826 -127.02663 -42.266605 -727.9221 8.5274935
0.0 -559.1135 -5686.6973 -242.9278 -47.28949 -7623.997 4.9784756 -18.289484
-8.560483 -24.057024 3.763781 -111.047134 -39.142944 -630.62213 6.6231575 0.0
-490.6148 -3368.0154 -213.72203 -41.502716 -6913.061 10.03097 -39.595337 -20.56353
-55.23434 11.866242 -238.80014 -87.69524 -1369.5057 14.145995 0.0 -1093.7544
-7684.298 -454.69595 -89.82479 -17648.77 -0.0559772 -1.0606492 -1.4976496 -4.407557
1.4260284 -4.7232733 -5.194021 -51.29403 -0.23889206 0.0 -66.5143 -546.0736
-12.381056 -6.0790358 -800.9486 16.601189 -60.595734 -31.327961 -83.856674 20.861324
-385.22433 -136.66536 -2197.9106 23.67864 0.0 -1719.7006 -11588.262 -717.1428
-140.25871 -28386.578 11.180307 -41.711407 -20.515253 -56.833897 14.932633 -258.24722
-92.02697 -1466.6299 15.754774 0.0 -1153.9213 -7693.9395 -486.67313 -95.79561
-18503.021 -65.012566 54.537285 53.83362 -97.62631 -60.559547 1025.4617 15.921417
3180.486 -102.602585 0.0 1329.1127 89.08887 1729.1174 206.40526 -10017.402
0.0 0.0 0.0 0.0 0.0 0.0 0.0 0.0
0.0 0.0 0.0 0.0 0.0 0.0 0.0 3.390543
00000000: 1327 dabf aec8 2241 a86f 61c2 9156 aec2
00000010: 2e86 6442 a90f 64c3 831f c3c2 edf3 b0c4
00000020: 568d 6ec0 0000 0000 c4ab dac4 54cb b7c4
00000030: fce9 cdc3 1677 23c2 fe3b ebc5 2390 2a40
00000040: 046c 2bc1 5b0f 90c0 a11d 53c1 3234 a63f
00000050: e96f 69c2 830d a8c1 a0c5 a8c3 20f6 5340
00000060: 0000 0000 152a 83c3 091b 00c5 050e eec2
00000070: 30f4 b4c1 b1c0 53c5 a4bf 47bb c056 2c40
00000080: 1ff7 0c3f 53fd 1340 2abc a2bf 9327 2e40
00000090: 3a2d 2b40 8b11 8141 d86d 553f 0000 0000
000000a0: c970 a741 964e c8c4 d7dd f63f 203a 9abf
000000b0: 3695 6cc3 a562 8d40 9526 35c1 0e14 07c1
000000c0: c1c5 5fc1 3867 933f 5cb5 b9c2 aed3 cdc1
000000d0: aa59 f6c3 4797 d140 0000 0000 265c aec3
000000e0: d3f5 4bc5 e285 27c3 0779 f0c1 06d7 9ac5
000000f0: e035 f13b fa49 543f 5bee 913e 5f7b 4a3f
00000100: 38e2 0bbf b851 6c3f 2c6d 683f 6f8f b740
00000110: a1a4 893e 0000 0000 af01 d540 1dd7 06c4
00000120: a76d 0b3f 3e37 e9be 4001 9641 9a18 0941
00000130: f8db f0c1 a4f2 7dc1 9967 25c2 7e8e f540
00000140: be10 42c3 b267 87c2 f25a 89c4 7592 3941
00000150: 0000 0000 561b 57c4 82d4 b1c5 de2a b5c3
00000160: 9545 8dc2 3848 3dc6 2b1d 5341 8d43 05c1
00000170: 0000 403a 30bc 5940 e180 4141 7a06 58c3
00000180: 408d d0c1 938b 61c4 cc27 9a41 0000 0000
00000190: e8ee ebc3 c45a 82c4 a3d1 bcc3 2271 14c2
000001a0: 08f0 86c5 58de 0742 009f f8c2 9a17 98c2
000001b0: e240 34c3 00a3 0542 66f0 4ac4 cc0d 91c3
000001c0: 77bd 8fc5 d489 4342 0000 0000 3936 66c5
000001d0: edd9 b7c6 82a2 b9c4 0403 91c3 6e9a 68c7
000001e0: 0000 0000 0000 0000 0000 0000 0000 0000
000001f0: 0000 0000 0000 0000 0000 0000 0000 0000
00000200: 0000 0000 0000 0000 0000 0000 0000 0000
00000210: 0000 0000 0000 0000 0000 0000 b016 b440
00000220: 25c0 85c1 4389 27c1 31f9 cac1 146d 3940
00000230: a20d fec2 0111 29c2 04fb 35c4 9d70 0841
00000240: 0000 0000 44c7 0bc4 94b5 b1c5 84ed 72c3
00000250: 7028 3dc2 fa3f eec5 ac4f 9f40 dd50 92c1
00000260: bdf7 08c1 c974 c0c1 cae1 7040 2218 dec2
00000270: 6092 1cc2 d1a7 1dc4 e8f0 d340 0000 0000
00000280: b24e f5c3 3f80 52c5 d7b8 55c3 c802 26c2
00000290: 7d08 d8c5 da7e 2041 a061 1ec2 1c82 a4c1
000002a0: f7ef 5cc2 21dc 3d41 d6cc 6ec3 f663 afc2
000002b0: 2f30 abc4 ff55 6241 0000 0000 24b8 88c4
000002c0: 6222 f0c5 1559 e3c3 4ba6 b3c2 8ae1 89c6
000002d0: 5948 65bd 5ac3 87bf fbb2 bfbf b50a 8dc0
000002e0: 1988 b63f 0e25 97c0 6c35 a6c0 162d 4dc2
000002f0: 1fa0 74be 0000 0000 5207 85c2 b684 08c4
00000300: ce18 46c1 7687 c2c0 b63c 48c4 3ccf 8441
00000310: 0862 72c2 aa9f fac1 9eb6 a7c2 fee3 a641
00000320: b79c c0c3 55aa 08c3 925e 09c5 db6d bd41
00000330: 0000 0000 6bf6 d6c4 0c11 35c6 2449 33c4
00000340: 3b42 0cc3 28c5 ddc6 8ae2 3241 7bd8 26c2
00000350: 3d1f a4c1 e955 63c2 11ec 6e41 a51f 81c3
00000360: cf0d b8c2 2854 b7c4 8e13 7c41 0000 0000
00000370: 7b3d 90c4 846f f0c5 2956 f3c3 5a97 bfc2
00000380: 0b8e 90c6 6f06 82c2 2e26 5a42 a055 5742
00000390: ac40 c3c2 fa3c 72c2 c62e 8044 20be 7e41
000003a0: c7c7 4645 8634 cdc2 0000 0000 9b23 a644
000003b0: 802d b242 c223 d844 bf67 4e43 9c85 1cc6
000003c0: 0000 0000 0000 0000 0000 0000 0000 0000
000003d0: 0000 0000 0000 0000 0000 0000 0000 0000
000003e0: 0000 0000 0000 0000 0000 0000 0000 0000
000003f0: 0000 0000 0000 0000 0000 0000 a8fe 5840

exp_avg_sq f4 [128, 15]
98.10013 30943.33 31818.885 95428.11 15263.066 84803.39 111900.914 1.1623383e+07
3404.823 0.0 1.6397045e+07 9.486167e+06 1.6769071e+06 47330.08 4.1025434e+08 197.44212
5660.4746 21372.455 35718.727 645.303 37379.926 40397.785 4.232693e+06 94.225464
0.0 5.4600035e+06 2.5513781e+08 144679.47 4638.295 2.140443e+09 0.8972763 138.80437
142.48845 238.16998 42.144096 261.4682 261.66992 28504.912 3.873875 0.0
30938.082 3.056842e+08 818.2093 104.32033 1.907033e+07 473.4239 13824.075 52409.21
89601.016 1594.7975 93595.33 101523.484 1.0633283e+07 252.3639 0.0 1.373151e+07
2.264081e+08 380188.22 12335.382 5.378283e+09 0.025882844 10.420018 5.639828 12.849657
1.8107603 14.501977 14.494818 1349.8767 0.439765 0.0 1754.784 2.1480656e+07
53.326668 5.517936 492359.84 2036.999 59718.184 225808.22 379875.97 6581.038
399284.88 429590.1 4.514254e+07 987.58124 0.0 5.80293e+07 3.2876628e+09 1.5400469e+06
50845.438 2.3047223e+10 3768.9297 109567.83 414029.22 711677.75 12759.916 741258.2
807257.94 8.42225e+07 2040.2068 0.0 1.09662616e+08 1.1989279e+09 3.0334738e+06 94158.76
4.3089076e+10 34179.79 1.00941575e+06 3.8275878e+06 6.4484805e+06 109177.97 6.7933355e+06 7.291341e+06
7.674838e+08 16777.87 0.0 9.858146e+08 5.7706643e+10 2.6159594e+07 866740.7 3.895273e+11
0.0 0.0 0.0 0.0 0.0 0.0 0.0 0.0
0.0 0.0 0.0 0.0 0.0 0.0 0.0 845.2364
24743.232 93825.76 159044.73 2751.326 166610.28 179998.89 1.8931772e+07 432.30423
0.0 2.4330146e+07 7.2778886e+08 662130.9 21652.42 9.617741e+09 680.8251 19660.408
74741.64 125280.63 2146.154 131714.62 141643.47 1.4862674e+07 325.7281 0.0
1.9155806e+07 9.824084e+08 505959.3 16501.076 7.570757e+09 2997.1628 88482.02 336547.28
565729.8 9145.651 595424.1 639563.5 6.775829e+07 1473.1569 0.0 8.665394e+07
4.68383e+09 2.2808278e+06 75253.99 3.3676837e+10 0.30240774 20.800617 47.68659 84.43507
10.14135 92.76682 96.70849 11200.061 0.21555328 0.0 12238.996 1.1390667e+07
527.125 49.72571 4.837402e+06 7611.6343 227914.12 864650.56 1.4604712e+06 23683.443
1.5370918e+06 1.6510162e+06 1.7534562e+08 3859.7122 0.0 2.235818e+08 1.2537312e+10 5.9485075e+06
197298.72 8.693092e+10 3505.6082 103858.88 395073.78 664922.5 10645.941 699742.8
751709.94 7.9762696e+07 1740.7378 0.0 1.0182137e+08 5.7472256e+09 2.6892982e+06 89197.484
3.952315e+10 88307.01 2.5557522e+06 9.93214e+06 1.6740049e+07 273688.66 1.7620966e+07 1.895758e+07
1.9826784e+09 51310.895 0.0 2.5984082e+09 1.8394675e+10 7.17989e+07 2.060578e+06 9.408977e+11
0.0 0.0 0.0 0.0 0.0 0.0 0.0 0.0
0.0 0.0 0.0 0.0 0.0 0.0 0.0 330.14746
00000000: 4433 c442 a9be f146 c595 f846 0e62 ba47
00000010: 447c 6e46 b2a1 a547 758e da47 d75b 314b
00000020: 2bcd 5445 0000 0000 f532 7a4b 57bf 104b
00000030: 59b3 cc49 14e2 3847 e09f c34d 2f71 4543
00000040: cce3 b045 e9f8 a646 ba86 0b47 6453 2144
00000050: ed03 1247 c9cd 1d47 ea2b 814a 7073 bc42
00000060: 0000 0000 47a0 a64a 8151 734d de49 0d48
00000070: 5cf2 9045 2329 ff4e e6b3 653f ebcd 0a43
00000080: 0b7d 0e43 842b 6e43 8e93 2842 eebb 8243
00000090: c0d5 8243 d3b1 de46 91ed 7740 0000 0000
000000a0: 2ab4 f146 f7c2 914d 658d 4c44 02a4 d042
000000b0: bd7e 914b 42b6 ec43 4d00 5846 36b9 4c47
000000c0: 8200 af47 8559 c744 aacd b647 be49 c647
000000d0: 4340 224b 295d 7c43 0000 0000 b686 514b
000000e0: 6aeb 574d 87a3 b948 87bd 4046 0b49 a04f
000000f0: 4208 d43c 65b8 2641 7979 b440 3298 4d41
00000100: fec6 e73f 1908 6841 c6ea 6741 0ebc a844
00000110: e128 e13e 0000 0000 1759 db44 68e2 a34b
00000120: 824e 5542 ef92 b040 fb68 f048 f89f fe44
00000130: 2f46 6947 0e84 5c48 7f7c b948 4ea8 cd45
00000140: 9cf6 c248 c3c2 d148 8334 2c4c 33e5 7644
00000150: 0000 0000 3d5d 5d4c c1f5 434f 77fe bb49
00000160: 709d 4647 17b7 ab50 e08e 6b45 eaff d547
00000170: a729 ca48 dcbf 2d49 aa5f 4746 a3f8 3449
00000180: 9f15 4549 44a4 a04c 9e06 ff44 0000 0000
00000190: 332a d14c 60ec 8e4e 0726 394a 61e7 b747
000001a0: f284 2051 ca83 0547 7c70 7649 0f9e 694a
000001b0: c1ca c44a fc3c d547 ef50 cf4a 9a83 de4a
000001c0: 7efb 364e bd13 8346 0000 0000 5909 6b4e
000001d0: 58f9 5651 f594 c74b 4b9b 5349 4663 b552
000001e0: 0000 0000 0000 0000 0000 0000 0000 0000
000001f0: 0000 0000 0000 0000 0000 0000 0000 0000
00000200: 0000 0000 0000 0000 0000 0000 0000 0000
00000210: 0000 0000 0000 0000 0000 0000 214f 5344
00000220: 774e c146 e140 b747 2f51 1b48 37f5 2b45
00000230: 92b4 2248 b9c7 2f48 1e70 904b f126 d843
00000240: 0000 0000 d19f b94b b584 2d4e 2ea7 2149
00000250: d728 a946 c550 0f50 ce34 2a44 d198 9946
00000260: d2fa 9147 51b0 f447 7722 0645 a8a0 0048
00000270: de52 0a48 52c9 624b 32dd a243 0000 0000
00000280: af25 924b 7339 6a4e ea0c f748 27ea 8046
00000290: 4ba0 e14f 9b52 3b45 03d1 ac47 6954 a448
000002a0: 1d1e 0a49 9be6 0e46 025e 1149 b824 1c49
000002b0: 1a3d 814c 0525 b844 0000 0000 7e47 a54c
000002c0: c996 8b4f ef35 0b4a fffa 9247 78e9 fa50
000002d0: 30d5 9a3e aa67 a641 11bf 3e42 c1de a842
000002e0: f842 2241 9d88 b942 bf6a c142 3e00 2f46
000002f0: 00ba 5c3e 0000 0000 fc3b 3f46 cbce 2d4b
00000300: 00c8 0344 21e7 4642 34a0 934a 13dd ed45
00000310: 8892 5e48 a918 5349 ba47 b249 e306 b946
00000320: 1ea2 bb49 428a c949 fd38 274d 653b 7145
00000330: 0000 0000 6639 554d 0dd2 3a50 b788 b54a
00000340: aeac 4048 e5eb a151 bb19 5b45 71d9 ca47
00000350: 39e8 c048 a855 2249 c457 2646 edd5 2a49
00000360: df85 3749 a122 984c 9c97 d944 0000 0000
00000370: 7735 c24c da47 ab4f 4924 244a be36 ae47
00000380: 373c 1351 8179 ac47 a1fd 1b4a 6c8d 174b
00000390: d16e 7f4b 15a3 8548 f36f 864b 86a2 904b
000003a0: 8b5a ec4e e56e 4847 0000 0000 90e0 1a4f
000003b0: 0f0d 8950 0ef2 884c 1089 fb49 e011 5b53
000003c0: 0000 0000 0000 0000 0000 0000 0000 0000
000003d0: 0000 0000 0000 0000 0000 0000 0000 0000
000003e0: 0000 0000 0000 0000 0000 0000 0000 0000
000003f0: 0000 0000 0000 0000 0000 0000 e012 a543

exp_avg f4 [128]
-97.56153 -21.006601 2.6746354 -25.728376 0.90791583 -67.70251 -26.068977 -290.1079
0.0 -42.26658 -39.142937 -87.695244 -5.194021 -136.66539 -92.026985 15.921524
0.0 -27.709475 1.9936242 -89.71952 87.42836 1.9983599 81.758575 59.206123
34.020046 -44.04788 -29.329388 -6.2903824 -120.880974 -18.98155 -19.173635 -2.4157917
114.30484 -56.280155 -50.42492 78.15209 -15.91461 -6.479376 66.26169 -43.709152
-19.20084 76.38328 -35.1678 300.1262 -19.495916 -59.571526 2.098705 64.82272
-19.651546 -25.618092 0.0 406.23553 0.0 -136.76717 -60.279152 -2.0737262
0.64419526 -42.949837 -44.46016 0.0 -32.681816 -110.86218 -114.05128 -25.253584
-27.664227 -72.1194 5.6755385 -29.498432 -33.43776 -44.360737 -36.5024 -36.234074
-2.2164438 -46.113083 -25.851841 -60.67227 62.244743 4.332586 5.9695 -117.96674
-109.84474 -58.75354 -66.832214 -20.316256 0.0 -46.66329 -22.314014 0.0
1.3373634 211.30911 2.2908163 -56.658577 74.51245 -76.44679 446.3036 -22.523773
3.4169722 -14.027107 -61.220985 -97.22815 -102.66583 83.48976 -30.914661 -23.67803
-42.74627 274.39478 0.0 517.6841 448.08957 -20.099098 -6.559376 418.18683
-39.19168 -71.60501 -136.72519 1.1994902 -28.802656 -113.01598 -26.962452 180.83972
-68.51628 -28.360025 -57.953533 44.04564 -100.94929 -26.130394 -46.408062 4.973367
00000000: 811f c3c2 850d a8c1 3a2d 2b40 b7d3 cdc1
00000010: 2c6d 683f af67 87c2 448d d0c1 d00d 91c3
00000020: 0000 0000 fa10 29c2 5e92 1cc2 f763 afc2
00000030: 6c35 a6c0 57aa 08c3 d10d b8c2 90be 7e41
00000040: 0000 0000 01ad ddc1 142f ff3f 6570 b3c2
00000050: 52db ae42 42ca ff3f 6484 a342 12d3 6c42
00000060: 8714 0842 0731 30c2 96a2 eac1 d04a c9c0
00000070: 0fc3 f1c2 37da 97c1 9b63 99c1 559c 1ac0
00000080: 149c e442 e11e 61c2 1eb3 49c2 df4d 9c42
00000090: 3ea2 7ec1 0c57 cfc0 fc85 8442 2cd6 2ec2
000000a0: 529b 99c1 3dc4 9842 d4ab 0cc2 2710 9643
000000b0: a3f7 9bc1 3e49 6ec2 2f51 0640 3ca5 8142
000000c0: 5e36 9dc1 daf1 ccc1 0000 0000 261e cb43
000000d0: 0000 0000 65c4 08c3 da1d 71c2 eeb7 04c0
000000e0: fbe9 243f a2cc 2bc2 34d7 31c2 0000 0000
000000f0: 2eba 02c2 70b9 ddc2 411a e4c2 5707 cac1
00000100: 5650 ddc1 223d 90c2 039e b540 cafc ebc1
00000110: 44c0 05c2 6571 31c2 7502 12c2 b1ef 10c2
00000120: 37da 0dc0 cc73 38c2 92d0 cec1 68b0 72c2
00000130: 9efa 7842 8ba4 8a40 2506 bf40 f9ee ebc2
00000140: 82b0 dbc2 a003 6bc2 18aa 85c2 b187 a2c1
00000150: 0000 0000 35a7 3ac2 1a83 b2c1 0000 0000
00000160: b92e ab3f 224f 5343 bc9c 1240 62a2 62c2
00000170: 6006 9542 c2e4 98c2 dc26 df43 b030 b4c1
00000180: acaf 5a40 086f 60c1 4ae2 74c2 d074 c2c2
00000190: e854 cdc2 c2fa a642 3a51 f7c1 9b6c bdc1
000001a0: 2efc 2ac2 8832 8943 0000 0000 c86b 0144
000001b0: 770b e043 f4ca a0c1 68e6 d1c0 ea17 d143
000001c0: 48c4 1cc2 c435 8fc2 a6b9 08c3 e588 993f
000001d0: d76b e6c1 2f08 e2c2 1ab3 d7c1 f8d6 3443
000001e0: 5608 89c2 55e1 e2c1 6bd0 67c2 bc2e 3042
000001f0: 09e6 c9c2 0c0b d1c1 dba1 39c2 d325 9f40

exp_avg_sq f4 [128]
111900.914 40397.797 261.66992 101523.49 14.494818 429590.12 807258.06 7.2913405e+06
0.0 179998.86 141643.45 639563.4 96.70849 1.6510162e+06 751709.94 1.895758e+07
0.0 69790.49 73.323555 1.1798415e+06 425457.9 50.36829 434509.75 5.8488755e+06
24962.273 178977.44 84419.06 96.5785 1.3314169e+06 28811.541 32221.557 403.49716
202763.61 11570.039 642073.44 572343.75 23413.7 3001.6387 1.3111571e+06 161700.58
31617.742 530159.0 187736.53 2.1699166e+07 35216.414 649621.06 110.81046 80769.125
37384.92 63382.938 0.0 1.806008e+07 0.0 1.1659829e+06 74891.625 193.87659
1788.0768 6.4050355e+06 276262.66 0.0 96565.81 1.1339176e+06 1.1882908e+06 84795.43
73700.73 1.1184304e+06 850.33105 529333.6 111427.11 178244.05 251981.97 136160.05
182.8453 195046.7 61557.258 611986.0 3.9311838e+06 563.0361 937.6792 1.3184981e+06
1.7618085e+06 555935.6 1.5857464e+07 36705.1 0.0 97338.63 43071.305 0.0
40.27262 2.0158888e+07 87.07151 324495.47 114954.305 1.0630165e+06 2.0513436e+07 51314.176
430.13074 16901.086 346318.16 872715.6 114929.08 120852.83 87518.1 54870.65
167986.06 2.760738e+06 0.0 2.7912968e+07 2.2042558e+07 35764.156 247020.73 2.0902842e+07
259826.19 77666.88 1.6095809e+06 32.653046 71891.83 1.1796829e+06 108831.336 1.4699622e+06
59688.26 71139.125 307350.03 1.1512522e+07 846578.6 948698.56 395496.97 660.6683
00000000: 758e da47 cccd 1d47 c0d5 8243 bf49 c647
00000010: c6ea 6741 c4c2 d148 a115 4549 9983 de4a
00000020: 0000 0000 b7c7 2f48 dd52 0a48 b624 1c49
00000030: bf6a c142 428a c949 df85 3749 86a2 904b
00000040: 0000 0000 3f4f 8847 a9a5 9242 0c06 9049
00000050: 3dbe cf48 2179 4942 b829 d448 577e b24a
00000060: 8c04 c346 5cc8 2e48 88e1 a447 3128 c142
00000070: c786 a249 1517 e146 1dbb fb46 a3bf c943
00000080: e702 4648 28c8 3446 97c1 1c49 7cbb 0b49
00000090: 66eb b646 389a 3b45 a90d a049 25e9 1d48
000000a0: 7c03 f746 f06e 0149 2256 3748 2f8d a54b
000000b0: 6a90 0947 5199 1e49 f59e dd42 90c0 9d47
000000c0: ec08 1247 f096 7747 0000 0000 98c9 894b
000000d0: 0000 0000 f754 8e49 d045 9247 68e0 4143
000000e0: 7582 df44 5777 c34a d5e4 8648 0000 0000
000000f0: e89a bc47 ed6a 8a49 160e 9149 b79d a547
00000100: 5df2 8f47 f386 8849 3095 5444 5a3b 0149
00000110: 8ea1 d947 0311 2e48 7e13 7648 03f8 0448
00000120: 66d8 3643 ad79 3e48 4275 7047 2069 1549
00000130: bff0 6f4a 4fc2 0c44 786b 6a44 11f3 a049
00000140: 8410 d749 fab9 0749 38f7 714b 1a61 0f47
00000150: 0000 0000 511d be47 4e3f 2847 0000 0000
00000160: 2a17 2142 d4cc 994b 9d24 ae42 ef71 9e48
00000170: 2785 e047 44c3 8149 4e81 9c4b 2d72 4847
00000180: bc10 d743 2c0a 8446 c519 a948 ba10 5549
00000190: 8a78 e047 6a0a ec47 0def aa47 a656 5647
000001a0: 840c 2448 8880 284a 0000 0000 84f5 d44b
000001b0: df2b a84b 28b4 0b47 2f3b 7148 dd79 9f4b
000001c0: 8cbc 7d48 71b1 9747 677b c449 b89c 0242
000001d0: ea69 8c47 1701 9049 ab8f d447 5270 b349
000001e0: 4328 6947 90f1 8a47 c112 9648 caaa 2f4b
000001f0: 2aaf 4e49 a99d 6749 1f1d c148 c52a 2544
