models/cache_agent/1/D3QN_q_target.pth (torch, 80271 bytes, 7 tensors)

weight f4 [128, 15]
000000 2b db dd be 78 01 60 3d cc f3 6a c0 88 ee 84 c0
       -0.43331274 0.0546889 -3.6711302 -4.1541176
000010 ec 00 2a 40 85 56 14 c0 1e 1b 7c 3c 21 7c e4 3f
       2.6563063 -2.3177807 0.015387325 1.7850381
000020 56 da ab 40 6c ce 1f be e2 0b 81 3f c1 84 be 3d
       5.3704023 -0.15606087 1.0081751 0.093026645
000030 94 44 21 bf cf 3c 6d 3f f0 e9 c1 3d 51 bc e2 3f
       -0.62995267 0.9267091 0.09468448 1.771372
000040 e7 1d 4a 3f 88 b7 85 c0 72 c4 a0 c0 a1 a8 90 be
       0.7895188 -4.1786537 -5.02398 -0.28253654
000050 d4 40 9e bd 5d a8 50 3f f1 0d ad 3f 70 c0 5c 40
       -0.07727209 0.815069 1.351988 3.4492455
000060 b8 22 5b 3d 44 f7 43 3f 74 f8 5a bd e0 36 00 3f
       0.053499907 0.7654917 -0.0534596 0.5008373
000070 c5 23 34 bd 61 99 9e 3e c1 0a 40 bf 91 84 93 bf
       -0.043979425 0.30976394 -0.7501641 -1.1524831
000080 12 7b 9b 40 31 f0 92 40 c6 db 91 bd d3 6c 32 3f
       4.858773 4.5918202 -0.071219966 0.696973
000090 22 38 58 bf de 01 ab bf 96 f7 bd c0 10 44 6e bd
       -0.8446065 -1.3359945 -5.936473 -0.05817038
0000a0 c2 35 ca bf 68 fb b7 bc 3b ec 50 bf c0 46 5e bf
       -1.5797656 -0.022458747 -0.8161046 -0.86826706
0000b0 67 63 67 3e 3a 9c e0 3f a0 35 06 3f be 64 a2 c0
       0.22596513 1.7547677 0.52425575 -5.0747976
0000c0 bc a4 b7 c0 e4 8a fa 3e 34 2e f8 3a 8b a5 4e 3f
       -5.738859 0.4893409 0.0018934668 0.8072135
0000d0 89 cc 98 3f d4 eb 6b 40 be 3f 09 3e b5 c6 4a 3f
       1.1937419 3.6862688 0.13403222 0.7920945
0000e0 f5 b8 cb 3d d2 7e e3 3e de 3f c4 be a1 bf 5a bc
       0.09947387 0.44432694 -0.38329977 -0.013351352
0000f0 13 04 dc 3f e3 80 9b 3f 19 85 75 c0 8c 4b ac c0
       1.7188743 1.2148708 -3.8362486 -5.384222
000100 fe b1 66 3f 85 91 e3 3e b8 27 37 3e cd de 22 3f
       0.90115345 0.4444696 0.17886245 0.63621217
000110 ee 59 55 40 04 03 c0 bd f1 3f 24 3f b0 34 e7 be
       3.3336139 -0.09375575 0.64160067 -0.45157385
000120 bc 6d 17 3b 2e 21 2d bf c9 66 26 3c b0 32 c9 3f
       0.0023106178 -0.67628753 0.010156342 1.5718594
000130 63 2c f3 3e 10 37 a1 c0 0e 3f ae c0 fe fb a1 be
       0.47494802 -5.0379715 -5.445197 -0.31637567
000140 57 e5 31 be d3 56 06 3f ab 28 63 3f b1 ee 52 40
       -0.17372642 0.52476233 0.8873393 3.2958186
000150 f0 24 1c 3d c7 3d 34 3f 0d da 11 3d 29 a7 1f 3f
       0.038121164 0.70406765 0.03560834 0.6236444
000160 9e 3d ec bd 19 20 d1 3d 8a 2e 91 c0 f9 d3 78 3e
       -0.1153519 0.102112 -4.536931 0.24299611
000170 4b a7 42 3d 15 6a 8c 40 31 87 86 40 11 d8 3e c0
       0.047522824 4.3879495 4.204003 -2.9819376
000180 10 d6 c0 be fc 43 af 3e f0 0a 0b 40 80 6f c9 bb
       -0.37663317 0.34231555 2.1725426 -0.006147325
000190 4f f2 39 3f d3 41 b4 3e 7d f0 9c 3d a1 20 03 40
       0.7263536 0.3520647 0.07663057 2.0488665
0001a0 e7 04 75 bd 2e 06 57 be 2e a5 81 be 90 64 c7 3d
       -0.05981913 -0.20998451 -0.25321335 0.09735978
0001b0 0a e3 56 be e1 b3 5e be 00 1b 8a 3d 88 d3 ed 3d
       -0.20985046 -0.21748306 0.06743431 0.11612612
0001c0 20 bd 8b 3c 4a f4 37 3e e0 b7 2c 3c 72 64 4b be
       0.017057955 0.17964283 0.010541886 -0.19862536
0001d0 68 a6 8e bd 56 b7 4a be 9a f3 06 be 5e ac 08 be
       -0.06965333 -0.197965 -0.13178864 -0.13347003
0001e0 f3 04 ed 3f 0e f2 17 3f cd 46 90 c0 c9 48 b0 c0
       1.8517135 0.5935372 -4.5086427 -5.508885
0001f0 d9 c7 ee 3e 9b 80 b0 3d 0c fa 13 3f 4b d8 dc 3e
       0.46636847 0.086182795 0.57803416 0.43133768
000200 f3 b1 36 40 1f 29 45 be 8e f7 28 3f 50 d0 ee be
       2.8546112 -0.19253968 0.6600274 -0.46643305
000210 f9 09 28 3e 46 82 97 bf 6a 9d eb 3d 61 bc 86 40
       0.16410054 -1.1836631 0.11504634 4.2104955
000220 c4 26 29 3f 0f 37 c1 3f d1 83 86 3f 74 6e 9d bf
       0.66074777 1.5094928 1.0508977 -1.2299333
000230 40 42 88 3f 16 ed 82 3f 27 17 53 3f 07 4e 25 c0
       1.0645218 1.0228603 0.824572 -2.5828874
000240 de 2b 51 3e 05 a1 d6 3d 36 98 90 be 01 5e 52 3f
       0.2042689 0.10479931 -0.28241128 0.8217469
000250 30 b8 75 3e e1 2c 95 be cb c8 9e bf 88 01 6d 3e
       0.23996043 -0.29135802 -1.2405027 0.23145115
000260 af 97 8b 40 ee 9a b9 40 08 3e 72 bd f3 02 47 bf
       4.362266 5.8001623 -0.05914119 -0.77738875
000270 15 3a 65 be 71 48 85 be 1f df 4e c0 e3 85 83 3e
       -0.22385438 -0.2603183 -3.2323682 0.25688085
000280 0e 0a 7c 3e bc 0f c3 3d ed 51 1f 3d 09 40 20 bd
       0.2461321 0.095244855 0.03889649 -0.03912357
000290 68 ef 46 3e 0c 56 c4 3f 53 d6 78 3f 0d 6b 84 c0
       0.19427264 1.533876 0.9720203 -4.1380677
0002a0 88 34 a5 c0 72 e5 20 be df ea 31 3e 7b 69 5c 3f
       -5.1626625 -0.15712526 0.17374752 0.8609845
0002b0 13 b5 bb 3f 9d 44 6e 40 5c a2 a5 3d d4 00 64 3f
       1.4664634 3.7229378 0.08087608 0.89063764
0002c0 dc 1c d3 3c da 72 af 3e 6b 5f 08 3e 30 21 9b 3e
       0.025770597 0.34267312 0.13317649 0.30298758
0002d0 77 c9 ce 3f 47 e7 60 3f b7 f2 96 c0 45 7d a2 c0
       1.6155232 0.878529 -4.7171283 -5.0777917
0002e0 8c 3e 87 bd 10 d2 c9 3d f4 c6 32 3f cb 8a a7 3f
       -0.06603727 0.09854519 0.6983483 1.3089231
0002f0 af 97 41 40 f2 bf c1 bd b0 4d 28 3f 87 25 4b 3c
       3.024883 -0.09460439 0.6574354 0.012399084
000300 a5 86 10 3f fd a1 47 be 38 9c 81 3e 02 5e 5f bf
       0.5645545 -0.19495387 0.25314498 -0.8725282
000310 d9 c8 18 3e 61 9c 73 40 86 92 9f 40 f1 6e 24 3f
       0.14920367 3.8064196 4.986636 0.64231783
000320 71 b3 b0 bf 97 f7 21 bf 49 e1 42 bf aa 15 96 c0
       -1.3804761 -0.6326842 -0.7612501 -4.6901445
000330 54 7b ce 3d f2 84 e9 be 3c d6 df 3d 7e f8 1a be
       0.10082117 -0.45609242 0.10929534 -0.15133855
000340 08 cc 00 bf 86 5f 1a 3e 0e d7 ae 3f 9d 49 8e 3f
       -0.50311327 0.15075502 1.365938 1.1116215
000350 f4 ea 69 c0 e3 9c a1 c0 f5 e1 70 3e ef 95 22 3f
       -3.6549654 -5.050401 0.23523696 0.6351003
000360 7c b8 09 3f 79 c8 0d 3f a8 65 4c 40 78 3e ca 3d
       0.53797126 0.5538402 3.1937046 0.09875196
000370 1a ec 2e 3f c4 49 2f bf 2f 9a 12 3f 67 c7 57 bf
       0.6832901 -0.6847193 0.57266515 -0.8428864
000380 07 3e 8f 3c e0 59 a3 3f 31 e6 55 3f 1e 41 93 c0
       0.017485632 1.2761803 0.8355437 -4.601699
000390 a0 f4 a5 c0 97 55 1c 3f 4f f3 94 bf 13 1d d3 3e
       -5.1861115 0.610681 -1.1636752 0.4123312
0003a0 cd 0d 8e 3f 6e f0 64 40 4f a9 41 be 0b e0 81 3f
       1.1097962 3.5771747 -0.18912242 1.0146497
0003b0 c3 38 18 3e df 35 c2 bd c9 ad ed bd 88 fc 72 3e
       0.14865403 -0.09482931 -0.116054125 0.23729146
0003c0 15 71 c0 3f 45 ab 61 3f 04 69 93 c0 40 2f a1 c0
       1.503451 0.8815196 -4.6065693 -5.037018
0003d0 29 31 3c 3e bc fc 15 bf dd c5 44 3f 7b ae 9c 3f
       0.18378128 -0.5858877 0.76864415 1.2240747
0003e0 a5 84 52 40 16 43 8b bd 87 f2 33 3f 47 1c 7e 3c
       3.289346 -0.06799905 0.7029194 0.0155096715
0003f0 04 e1 90 3e 8c 17 c0 be 2e 73 bd 3d 17 4c a2 be
       0.28296673 -0.37517965 0.092504844 -0.31698677

bias f4 [128]
000000 01 bc 0b 40 3a 5f 16 40 2f 51 3f c0 ea 1c 2b 40
       2.1833498 2.3495622 -2.98933 2.6736398
000010 4e 3d 05 40 17 1a 1d 40 d2 f9 e6 be 7c b8 32 3e
       2.0818667 2.4547174 -0.45112473 0.17453188
000020 ce a6 11 40 96 1b a2 3f d0 f4 a7 bf 43 05 1e 40
       2.275806 1.2664669 -1.3121586 2.4690711
000030 3c cb 1b 40 a6 b1 f7 bf 1c 2b 1d 40 4c 9c 2b 40
       2.4342794 -1.9351089 2.4557562 2.6814146
000040 24 fd 19 40 df 2d a3 be d4 d5 0c c0 d9 65 5a 3f
       2.4060755 -0.31870934 -2.200551 0.8531166
000050 72 93 df 3e 00 fd 20 3b 66 28 30 40 05 53 d2 bf
       0.4366718 0.0024564862 2.7524657 -1.6431586
000060 47 2c 1b 40 87 08 2d be 30 2e b7 3c 3e 52 4e 3e
       2.4245775 -0.16897784 0.022360891 0.2014856
000070 49 4f 14 c0 04 d7 07 c0 83 74 55 bf 1f a6 23 40
       -2.3173392 -2.1224985 -0.8338091 2.5570142
000080 8e d8 f1 bf 87 f7 1b 40 ff 38 1e 40 54 cd 18 c0
       -1.8894212 2.4369829 2.4722288 -2.3875322
000090 e2 71 fb bf 46 cc 14 40 d7 03 66 3f c6 14 96 3f
       -1.9644129 2.3249679 0.8984961 1.172509
0000a0 55 e9 1a 40 ff d4 13 40 da b5 0c 40 73 b5 de bf
       2.4204915 2.3098752 2.1985993 -1.7399124
0000b0 41 cd 0c 40 b5 9d 17 40 ae 6a 03 3e 38 04 1c 40
       2.2000277 2.3690007 0.12833664 2.4377575
0000c0 d9 fa d4 bf 20 e2 80 3f 80 6d a6 bb 10 f2 24 40
       -1.6639053 1.0069008 -0.0050789714 2.5772743
0000d0 ae 12 10 40 3d 67 f0 bf 87 d8 06 c0 49 58 c2 be
       2.25114 -1.8781506 -2.1069658 -0.3795798
0000e0 7b 60 19 40 3d 5d c9 bf 06 77 a8 3f cc 98 13 40
       2.3965137 -1.5731579 1.3161323 2.306201
0000f0 8b 0e 2a 40 aa 2b c4 bf 2d 17 0d 40 95 d3 2b c0
       2.6571376 -1.5325825 2.2045395 -2.684789
000100 f9 34 1d 40 38 b6 15 40 a6 e4 8d 3f 31 35 d3 3d
       2.4563582 2.3392467 1.1085403 0.1031288
000110 82 0e 1c 40 df b2 26 40 cd 87 25 40 6e 8b 33 3f
       2.4383855 2.6046674 2.5864136 0.7013463
000120 1d 2b 15 40 f0 8f 7b 3f 76 e6 27 40 71 5a 36 40
       2.3307564 0.98266506 2.6234412 2.84927
000130 84 48 68 be 07 8a d8 bf e9 86 14 c0 a4 eb 15 40
       -0.22683913 -1.6917123 -2.3207343 2.3425074
000140 63 3e e4 bf 76 b4 23 40 69 dd 12 40 98 29 eb bf
       -1.7831539 2.5578895 2.2947638 -1.8372068
000150 ff 16 d3 bf 64 34 2c 40 df 21 24 40 8a 81 b9 bf
       -1.6491393 2.6906977 2.5645673 -1.4492657
000160 a5 70 2c 40 27 24 c6 bd 44 ec 7d 3f 60 95 8d bf
       2.6943753 -0.09674864 0.9918864 -1.1061211
000170 fb 48 e0 3f 53 c5 f5 bf c1 56 8d 3b cb 4c 0e 40
       1.7522272 -1.9200844 0.0043133204 2.223437
000180 27 6f 24 40 d1 56 be be 8f 59 11 40 c3 de cb 3f
       2.5692842 -0.3717561 2.2710912 1.5927356
000190 ae 34 d6 bf fd 68 89 be 75 10 2d 40 23 e0 1b 40
       -1.6734827 -0.26837912 2.7041295 2.4355552
0001a0 a2 38 0a 40 00 97 3c bd dc fe 9a bf ff 16 c4 bf
       2.1597066 -0.046042442 -1.2109027 -1.5319518
0001b0 61 28 f1 bf eb 17 94 be 06 98 0a 40 55 3d 29 40
       -1.8840448 -0.28924498 2.1655288 2.6443684
0001c0 f6 2d e9 be a6 a4 53 3e f0 d3 b8 3e 2f 17 a6 be
       -0.45542878 0.20668277 0.36099195 -0.32439563
0001d0 50 aa a5 be a0 11 fd bf 1a d4 1d 40 11 a4 80 3f
       -0.323565 -1.9771004 2.4660707 1.0050069
0001e0 0e 76 22 3e 47 e9 1c 40 46 65 91 bf e2 dd c7 bf
       0.15865347 2.451738 -1.1359031 -1.5614588
0001f0 b0 56 2f 40 9e bf 11 c0 19 ff 69 3d 7f 9d 29 40
       2.739666 -2.2773204 0.057128046 2.6502378

weight f4 [128, 128]
000000 17 f0 a8 bc 71 7b 59 3d 83 7f 63 bc f9 26 49 bd
       -0.020622296 0.05309624 -0.013885382 -0.049109433
000010 34 b3 09 3d 0d 64 88 bc b8 95 c2 3c b0 d5 ae bc
       0.033618167 -0.01664927 0.023753032 -0.021342129
000020 b8 0f 37 bc fc e3 81 3d ba a8 5c bd 5f 29 aa bd
       -0.011173181 0.06342313 -0.053871848 -0.08308672
000030 6c 45 7e bd 98 54 c4 3c 49 8a d9 3c fe b0 16 bd
       -0.062077925 0.023966119 0.026555197 -0.036789887
000040 d4 dc 8d 3c 04 a8 f6 3c 15 56 92 3d f6 0c 2c 3d
       0.017317213 0.030109413 0.07145325 0.042004548
000050 f0 29 bf bd f7 10 34 bd 06 7f 2c 3d c5 b9 04 bc
       -0.09334171 -0.04396149 0.042113326 -0.0081009315
000060 8a ec eb 3c f0 a8 21 bc f9 01 98 3d a4 6f f3 3c
       0.028799314 -0.009866938 0.07422251 0.02971632
000070 ca d9 6b bd 20 42 41 bb cc 38 0a 3d 40 b9 37 bd
       -0.057580747 -0.0029488876 0.033745572 -0.044854403
000080 59 c8 d1 3a 83 ac 68 bd 09 81 cd bd 90 b2 60 3c
       0.0016005143 -0.056805145 -0.10034377 0.013714448
000090 b5 81 8b bd c1 20 46 bc 87 5b b4 3c fc 31 8e 3c
       -0.06811849 -0.01209277 0.0220163 0.017357819
0000a0 af be a1 bd 75 88 0d bc 21 58 4f bd d6 4e 2d 3d
       -0.07897698 -0.008638491 -0.050621156 0.042311512
0000b0 e4 7f 71 bd fc 8a 7b bd 6d b5 85 3d 95 20 8a bc
       -0.058959857 -0.061411843 0.06528745 -0.01686124
0000c0 e7 73 91 3d 66 45 1a bd 07 70 22 bd cf 22 af bd
       0.07102185 -0.03766384 -0.03965762 -0.08551561
0000d0 28 78 4f 3d 83 dc 79 3d dc 9d 08 3b a9 68 5c 3c
       0.0506517 0.061001312 0.0020846045 0.013452687
0000e0 e7 d8 a9 bd 86 f6 96 bd 5e b4 17 bd a8 3b be bd
       -0.08293324 -0.07371239 -0.037037246 -0.09288722
0000f0 75 47 03 bc f1 00 4a bd 68 6c b9 bd bf 7c 26 bc
       -0.008012642 -0.049317304 -0.0905388 -0.010161578
000100 c5 27 14 3d 22 4f dd bd d2 88 69 3d 75 06 92 3d
       0.03617074 -0.10806109 0.057015248 0.07130138
000110 3d af 8f bd c0 2f 37 bc 00 d2 4f 3d 1b 11 80 bd
       -0.07015846 -0.011180818 0.05073738 -0.062532626
000120 18 c1 b4 bd 88 55 35 bd a1 2d 54 3c e9 05 c8 bd
       -0.08825892 -0.044271022 0.012950332 -0.09766752
000130 88 d2 4e 3d 74 d2 09 3d 32 17 7c bd a1 01 53 3c
       0.050493747 0.03364797 -0.06154556 0.012878806
000140 d6 6d 11 bd 3a a7 6f 3d 13 0e 72 3d a2 6c 56 bd
       -0.03550514 0.05850909 0.059095453 -0.052349694
000150 42 7b d2 bd f5 27 82 bd 62 92 d7 bd 59 42 c6 bd
       -0.10277416 -0.063552774 -0.10525967 -0.096806236
000160 50 7d bb bd b8 2d b2 bd 1e a6 10 bd de 9f 90 bc
       -0.09154761 -0.087001264 -0.03531467 -0.017654356
000170 85 e0 89 bd 37 81 a2 bd 9a 5e ec 3b 9a c6 e3 3c
       -0.06732277 -0.07934802 0.007213426 0.027804662
000180 3a ad d5 bd 8d 3d 84 bd 82 f8 d3 bb 32 2f 54 bd
       -0.10433431 -0.064570524 -0.0064688334 -0.05180282
000190 ed a2 9b bd df ba 40 bd 8e d0 2a 3d d5 69 1c 3d
       -0.07599435 -0.047053214 0.0417028 0.038186867
0001a0 b8 8e 3f bd 7a 86 a5 bd c5 39 91 3d a4 03 8d 3d
       -0.046766967 -0.0808229 0.07091097 0.0688546
0001b0 d0 bc 3f bd d0 58 bf bd e0 3e 35 bd dc 43 7e bd
       -0.046810925 -0.093431115 -0.044249415 -0.062076434
0001c0 00 71 32 ba 77 73 90 3d 64 1b 88 3d 4b 0e 97 3d
       -0.00068069994 0.07053273 0.06645849 0.07375773
0001d0 7e c3 2e 3b f7 de a2 bb d2 61 63 3d 86 7f 95 3d
       0.0026666815 -0.004970427 0.05551321 0.07299714
0001e0 e0 d0 7c 3c 67 1d a9 bd f5 86 87 bc fe bc ad 3c
       0.015430659 -0.08257561 -0.016543845 0.021208283
0001f0 f1 84 cd bd d5 82 03 bd 93 21 75 3d 3b 48 ea bb
       -0.10035122 -0.032107193 0.059846472 -0.007149724
000200 24 e7 e8 bd 82 41 15 bc 05 f5 65 3f 46 b7 0b bf
       -0.113722116 -0.009109857 0.89826995 -0.5457653
000210 68 0e bb bf 62 88 92 be d3 f0 08 3e ec 60 9a bc
       -1.4613771 -0.28619677 0.13373117 -0.018845044
000220 4d a5 b7 be 59 67 06 c0 61 f0 26 3e ef ec 39 3d
       -0.35868302 -2.1000578 0.16302635 0.045391973
000230 1e 20 8d bd 94 b4 95 3e 79 24 e5 bf 26 3f ac bd
       -0.068908915 0.29239333 -1.7901756 -0.08410482
000240 34 3d 81 be 40 cb cd 3a 73 33 94 3e bd 93 6c bf
       -0.25242007 0.0015700832 0.28945503 -0.9241293
000250 63 74 06 40 c0 cf 1c 3b 81 42 07 bd 71 1e 70 3e
       2.1008537 0.002392754 -0.033022407 0.23449112
000260 4a 05 51 bd f7 9f a0 bd 37 ff 85 3d a8 fc b9 3c
       -0.051030435 -0.07843011 0.06542819 0.022703484
000270 b9 e3 6d 3f 18 05 8b 3e f9 c7 35 40 90 f9 e8 be
       0.929256 0.27152324 2.8403304 -0.455029
000280 dd f2 3b 3e 6f e0 7d 3a d9 5d 44 be ed c7 83 3f
       0.18354364 0.00096846273 -0.19176425 1.0295388
000290 fc 15 d5 3d 9d cd 87 be be 4e f5 bc d4 54 38 bf
       0.10404584 -0.26524058 -0.029944774 -0.7200444
0002a0 ca d3 d1 3c dc ef f9 bf 2a 3d 9e bd 61 17 e2 3e
       0.025613684 -1.9526324 -0.0772651 0.44158462
0002b0 66 ce 1b be b6 ff 4e bf 72 3c 69 3d 76 b5 4c bc
       -0.15215454 -0.80858934 0.05694241 -0.0124944355
0002c0 f5 0d de 3d 8a 87 17 3d a6 a3 7e 3d bd ce b8 bd
       0.10842506 0.036994494 0.062167786 -0.09023807
0002d0 e7 c9 79 be 06 b2 a6 3e ed c0 96 3e 7a f3 1c 40
       -0.24393426 0.32557696 0.29444066 2.4523606
0002e0 81 d9 a1 bf ad ad 47 3e 4e 43 54 3d c4 8a 62 be
       -1.2644502 0.19499846 0.051822 -0.22123247
0002f0 5b 7c 91 be 6f eb 0f 3f ea 5a 58 3c 7f a0 7a 3f
       -0.28415188 0.5621862 0.013205269 0.9790115
000300 96 39 a1 be ac 7c 00 bd 0b 6a 8e bf a0 82 4a 3e
       -0.31489247 -0.031368896 -1.1126112 0.19776392
000310 e7 a8 b4 bd 6c 0f 99 3d b6 c7 62 be 1e 1c e4 bd
       -0.08821278 0.074736446 -0.22146496 -0.111381754
000320 22 d7 3e be 2f cd a4 bc 43 29 87 be 25 28 32 bf
       -0.18636754 -0.02011737 -0.26398668 -0.69592506
000330 89 9f ca bc d3 0a c9 3f 0b 23 fa 3e 4c 86 08 bb
       -0.024734275 1.5706428 0.4885486 -0.0020832
000340 4b 3e 86 3e 2a da 37 be f6 28 12 be df 3f dc 3d
       0.262194 -0.17954317 -0.14273438 0.1075437
000350 c4 dc 94 3e 8f e9 82 be dc 46 4f bf d8 0b b8 3e
       0.2907468 -0.25568816 -0.809675 0.35946536
000360 37 c3 0d be 75 06 17 3f 1e 22 9a bf 98 88 4a 40
       -0.13844 0.5899423 -1.2041662 3.164587
000370 da 1b 92 bf da b0 fd 3e ac 7a 19 3f 1e ae 87 be
       -1.141475 0.4954899 0.5995281 -0.26500028
000380 47 0d 5b be 55 2a f9 3d f3 51 80 bd 1c 49 c8 be
       -0.21391784 0.12166277 -0.062656306 -0.39118278
000390 81 1d 2c 3e 75 1b 82 bd e8 04 b9 ba 1c 97 a4 bd
       0.1680813 -0.06352893 -0.0014115842 -0.08036634
0003a0 b1 31 dc be c3 7f a7 bd 3f 9e 2b 3d 73 c6 93 3e
       -0.43006662 -0.081786655 0.041898962 0.28862342
0003b0 af 7d 15 3e a7 19 a5 3f 96 21 9e bf 77 d0 1b bd
       0.14598726 1.2898453 -1.2354 -0.038040604
0003c0 8c 4e d2 bc eb a8 94 bd e5 13 f8 3f 36 05 26 3c
       -0.02567222 -0.07258781 1.9381071 0.010133078
0003d0 4f d8 d9 3d 8a f6 ae 3e be 14 44 be a7 81 b9 3d
       0.10636961 0.3417247 -0.19148538 0.09057932
0003e0 f4 e9 96 bc 20 ad ca bd 5f 0a 52 40 35 d9 43 3e
       -0.018422104 -0.09896302 3.281883 0.19125827
0003f0 96 95 0c be b0 76 d0 3f ed 62 50 3f 33 2b 2e bf
       -0.13728938 1.628622 0.8140095 -0.68034667

bias f4 [128]
000000 cd 63 07 bd dd 3c dd bf 2a 9e 0f 40 60 48 2a 3c
       -0.03305416 -1.7284199 2.2440286 0.010393232
000010 ce 76 14 40 2d 6c b4 bf 9e 8e 2f 3e 76 07 18 40
       2.3197513 -1.4095513 0.17144248 2.3754554
000020 01 1b 13 40 62 d1 e8 bf bc 4a dd bf c5 d8 9c 3d
       2.2985232 -1.8188899 -1.7288432 0.07658533
000030 fc e0 41 bd 3c f0 10 40 0a a2 20 bd 28 b5 0a 40
       -0.047333702 2.2646627 -0.039217032 2.167307
000040 28 11 c8 bf 60 91 c5 bf 61 e9 d5 3c 74 08 e2 3f
       -1.5630236 -1.543499 0.02611226 1.765883
000050 eb 37 12 40 b1 40 0a 40 80 55 02 c0 18 10 0b 40
       2.284663 2.1601985 -2.0364685 2.1728573
000060 38 a5 4e 3d 6b 58 10 40 46 7b c4 3f c8 c1 0a 40
       0.050450534 2.2553966 1.535012 2.1680775
000070 9e 45 d7 bf 39 86 0a 40 e5 95 17 3d 41 48 14 40
       -1.681812 2.1644423 0.037008185 2.31691
000080 b8 ac 0b 40 13 f9 ce bf f6 4e ea 3f 06 03 16 40
       2.182417 -1.6169761 1.8305347 2.3439345
000090 63 23 12 40 39 26 c9 bf e2 fa 5d 3d 9c 1a 13 40
       2.2834098 -1.571479 0.05419434 2.298499
0000a0 27 ed 11 40 9f 34 25 bd 3c cb fe 3c ae e3 a2 bf
       2.2800996 -0.040333387 0.03110277 -1.2725732
0000b0 86 21 5a 3f b4 16 cd bf 1f 14 a0 bd f6 4e a1 3d
       0.852074 -1.6022553 -0.07816338 0.07876389
0000c0 90 80 cb bc 15 93 0c 40 43 2f 13 40 7d 9f 0c 40
       -0.024841577 2.1964772 2.2997596 2.1972344
0000d0 dd 71 15 40 77 8b ab 3f 5d 4f 93 3b 48 9d 88 3c
       2.3350747 1.3401936 0.004495545 0.01667656
0000e0 3d 11 88 be c8 2f b4 bd 2a 36 16 40 af 4d 11 40
       -0.26575652 -0.08798176 2.347056 2.2703664
0000f0 6c 56 77 bd 26 c8 98 bd e4 0c b7 bf 5b 0e 1b 40
       -0.060385153 -0.0746005 -1.4300809 2.4227512
000100 c8 92 b0 bc 80 55 0b 40 6f 61 23 bc b5 40 81 bd
       -0.021554366 2.1770935 -0.00997196 -0.0631117
000110 4f 72 10 40 36 34 ea bf f9 46 0f 40 21 9b 48 3e
       2.2569768 -1.8297184 2.2387068 0.19590427
000120 e1 ca d8 39 4c 92 12 40 f7 d5 8f 3f 85 35 12 40
       0.00041349887 2.2901793 1.1237172 2.2845166
000130 3a 01 19 40 6f 0b a9 3d c0 44 3b bf d3 0f d2 bf
       2.3906999 0.08254134 -0.7315178 -1.6411079
000140 55 8b 0c 40 00 30 37 3b 24 8a 81 3d e8 68 f4 3f
       2.1960042 0.0027952194 0.06325176 1.9094515
000150 7e fc 18 bd 0c 86 89 3f 70 75 1b bf f0 fd 51 be
       -0.03735017 1.0744033 -0.6072607 -0.20507026
000160 c4 46 16 40 87 c3 ab bc 37 d9 a4 bb ae 31 13 be
       2.3480692 -0.020967258 -0.005030777 -0.1437442
000170 84 7f 15 40 f2 4e 56 bc 00 29 ea bf 40 64 c1 3c
       2.335908 -0.0130803455 -1.8293762 0.023607373
000180 77 cd 0d 40 7e fa 90 bc a8 c7 e5 bc 18 81 f3 bf
       2.2156656 -0.017697569 -0.028049305 -1.9023771
000190 ff 13 b0 bd df 6f d9 bf b8 6c 34 bf aa ba 3d bf
       -0.08597564 -1.6987265 -0.7047839 -0.7411295
0001a0 bd 4b f2 bf 1e 88 16 40 3a 73 10 40 24 bf 18 40
       -1.8929363 2.352058 2.2570329 2.3866663
0001b0 4e 2e 92 bd 7c 04 b3 bf f3 1a 17 40 a1 d4 cc bf
       -0.07137738 -1.3985744 2.3610198 -1.6002389
0001c0 b4 05 f6 bb 05 0a 81 bd 25 82 17 40 92 14 cf bf
       -0.007508004 -0.06300739 2.3673184 -1.6178153
0001d0 91 51 d4 3c bb 17 f0 3c b2 de 11 40 df 39 a1 bd
       0.0259178 0.02930819 2.2792172 -0.07872366
0001e0 bc ee fa bc a2 b8 0e 40 ae 3b f4 bf 6f 8d 3d 3d
       -0.030631416 2.230019 -1.9080713 0.04627746
0001f0 33 fc ba bf b0 e2 1e bf ff 6f 12 40 63 e1 e7 bb
       -1.4608215 -0.6206465 2.2880857 -0.0070764287

weight f4 [1, 128]
000000 bd ca 80 3d fc 55 d4 bf 3d 78 b7 3f 92 57 9b bd
       0.06288669 -1.658874 1.4333569 -0.07585062
000010 1d 8e fb 3f 8e 2e 21 c0 6c 28 87 3c f0 99 9c 3f
       1.9652745 -2.5184665 0.016498767 1.2234478
000020 6c 2a 9e 3f b5 1f f5 bf 94 75 c6 bf c2 fd 68 bd
       1.2356696 -1.9150301 -1.5504632 -0.056882627
000030 79 ea a2 3d f4 75 bc 3f 93 0c ad 3d 59 26 a2 3f
       0.07954878 1.4723496 0.08449664 1.2667953
000040 d0 18 5e be 8b 0d ec bf c6 1b 2f 3c 7c ce 28 40
       -0.21689153 -1.8441633 0.010687774 2.6376028
000050 0a 98 76 3f 49 3d a2 3f 02 f7 99 bf 9c f8 aa 3f
       0.96325743 1.2674953 -1.2028506 1.335712
000060 4e 78 a7 3b 46 30 b0 3f 72 e5 4a 40 37 1e bb 3f
       0.005110777 1.3764732 3.1702542 1.4618596
000070 de 78 cc bf 00 06 20 40 5d da 99 bc d1 32 97 3f
       -1.5974386 2.5003662 -0.018780882 1.1812383
000080 fc f4 a2 3f a6 a4 0f c0 c3 34 34 40 73 5c 8b 3f
       1.2731013 -2.2444243 2.8157203 1.0887588
000090 e1 09 92 3f e5 6f 27 c0 44 58 75 bd a4 09 91 3f
       1.1409265 -2.6162045 -0.05989863 1.1331067
0000a0 31 84 af 3f ec d2 0e bd 15 ba 85 3d 28 ab b3 bf
       1.3712217 -0.03486912 0.06529633 -1.4036608
0000b0 40 5b 96 3f b2 c1 26 c0 a9 ae c8 3c 7d 0e 16 3d
       1.1746597 -2.6055722 0.024497347 0.03663491
0000c0 35 5d 9e 3d 49 18 a4 3f 95 e1 ac 3f 92 16 a4 3f
       0.077326216 1.2819911 1.3506342 1.2819388
0000d0 45 45 a1 3f 82 5c 1d 40 6e 57 2d bd b4 8f a9 bd
       1.2599264 2.4587712 -0.042319708 -0.08279362
0000e0 93 4e 7a bc 62 7e eb bc 3a 0c f7 3f 5d ce a6 3f
       -0.015277523 -0.028746787 1.9300606 1.3031727
0000f0 ef bd 22 bd 46 1d 06 3d 18 27 98 c0 85 17 a9 3f
       -0.039731916 0.03274276 -4.754772 1.3210303
000100 3b 22 e8 bc 71 b8 c9 3f 39 c0 56 bc 6e a3 98 3c
       -0.028336635 1.5759412 -0.013107353 0.018632617
000110 7b b5 92 3f 79 d1 d9 bf 6b 46 b6 3f c7 69 a2 3c
       1.1461633 -1.7017051 1.424024 0.01982583
000120 c2 8b 62 bd da e7 8f 3f 94 ab 46 40 92 a2 11 40
       -0.055309065 1.124263 3.1042223 2.2755475
000130 99 70 91 3f 61 99 85 3d 77 b9 50 c0 01 3f 4c c0
       1.1362487 0.06523395 -3.2613199 -3.1913455
000140 ab 18 ab 3f fb 21 98 3d 24 be 89 3d ca 96 1a 40
       1.3366903 0.07428356 0.067257196 2.4154534
000150 df ab a7 3b 55 6a 2e 40 c3 7a 21 c0 57 ee 0d bf
       0.005116924 2.72524 -2.5231178 -0.554418
000160 f0 dd 9d 3f cb c1 6f 3d 3d 0a 9e bd 50 03 47 bd
       1.2333355 0.058534425 -0.077167965 -0.048587143
000170 07 f3 a3 3f 48 5a 48 bc 3a 23 ce bf a6 59 a0 bd
       1.2808541 -0.012228556 -1.61045 -0.07829599
000180 6a b7 bb 3f f2 7a 57 bd 7a b1 1b 3d d1 4e aa bf
       1.4665349 -0.052607484 0.03801105 -1.3305303
000190 39 e0 c0 bc b8 02 b7 bf 33 1f 03 c0 86 0c 59 bf
       -0.023544418 -1.4297705 -2.0487792 -0.84784734
0001a0 1b d3 eb bf 76 08 b2 3f 67 47 b3 3f 95 24 9a 3f
       -1.8423799 1.3908832 1.4006165 1.2042414
0001b0 bb 26 7a 3d f3 6a 32 c0 4e 44 8b 3f 61 fa 2d c0
       0.061072093 -2.7877777 1.088022 -2.718407
0001c0 ee ec 2b 3d a4 9f 8c bd eb cd ad 3f d9 35 51 c0
       0.041974 -0.068663865 1.3578466 -3.2689116
0001d0 85 2f 9a bd cf 03 30 3c f8 ef bb 3f 09 dc db bc
       -0.07528595 0.010743096 1.4682608 -0.02683832
0001e0 dd bb 1c 3d 51 ba 88 3f 76 a2 a0 bf 01 c7 55 bd
       0.038265098 1.0681859 -1.2549579 -0.052191738
0001f0 fe 40 11 c0 43 ee 55 be 5a 2e a8 3f e2 a9 d1 3b
       -2.2695918 -0.20891671 1.3139145 0.0063984254

weight f4 [4, 128]
000000 97 29 ae bd 80 38 86 bd 6b a3 59 bd 89 37 ad 3d
       -0.085040264 -0.06553745 -0.053134363 0.08457858
000010 d1 d5 24 3c b9 94 ec 3d db 6b ef 3a 33 79 f5 bd
       0.010060743 0.11551804 0.0018266396 -0.119860075
000020 49 8a f3 bd f8 c9 14 bd d3 8a 0f be 07 3a ab bc
       -0.1189161 -0.036325425 -0.14017801 -0.020901693
000030 fc 9a 3a bd 4f 6e a7 bd 3a bf 2c 3d d4 6e cd bd
       -0.04555796 -0.081753366 0.042174555 -0.100309044
000040 22 32 9c 3e 84 34 5e be c8 68 b7 3d 32 ac 4b 3c
       0.30506998 -0.2169972 0.08955532 0.012431191
000050 4c c8 07 3d c4 c1 da bc 77 1d 80 be 4b 6d e2 bd
       0.033150002 -0.026703723 -0.2502248 -0.11056002
000060 5e f6 a5 bc f4 7b a2 bd a7 5b 40 be 1f c1 f5 bc
       -0.020259079 -0.079337984 -0.18784963 -0.029999314
000070 fc b7 09 bd b4 2c 03 3c 25 0a 0e bd 19 3f 6e bd
       -0.033622727 0.0080062635 -0.034677643 -0.058165643
000080 e0 37 58 3d 30 8e f2 3a ef d7 4d bd 8f 9f cd bd
       0.05278766 0.001850551 -0.05025476 -0.10040199
000090 c8 b5 c4 bd 6b 9e 5e 3d 68 b6 5d 3c d8 7e 26 3d
       -0.096049845 0.054350298 0.013532259 0.04064831
0000a0 e9 cc e8 bd d6 e6 9c bd ed fe ac bd fe 90 26 bc
       -0.113672085 -0.07661216 -0.08447061 -0.010166405
0000b0 eb bd bf bf ad c4 be 3e d8 cc 4a bc 59 aa 56 bd
       -1.4979833 0.37259427 -0.01237794 -0.05240855
0000c0 00 e0 32 b7 18 de 89 3d 39 74 0c bd 5e c1 36 3d
       -1.0661781e-05 0.06731814 -0.034290526 0.044618003
0000d0 72 83 8c bd 52 d0 f3 3d 07 2a 36 3d 71 43 c1 bc
       -0.06861009 0.11904968 0.044473674 -0.023591729
0000e0 93 f6 f7 3c 52 e6 e8 3c cb c7 89 3c eb 66 a9 3b
       0.030268943 0.028430138 0.016818902 0.0051697395
0000f0 0e 89 4a 3d cf ef 35 bd a4 a8 de 3f e7 89 9c bc
       0.04944711 -0.044418152 1.7395215 -0.019108726
000100 17 2d 3c bd ca 5b 11 bd 7a 98 66 bc b5 3e 12 3d
       -0.04594144 -0.035487927 -0.014074439 0.035704333
000110 b8 25 d9 3c fd df 69 3d bc aa 75 bd 80 c4 4b bd
       0.026507244 0.057098377 -0.059977278 -0.049747944
000120 27 99 a4 bd 5d ff e1 bd f9 f8 28 be d8 e1 3a bd
       -0.08037024 -0.11035035 -0.16501226 -0.045625538
000130 dc c2 6d bb b8 17 5b 3c fb e0 44 3f 8d f3 77 3e
       -0.0036279475 0.013372354 0.7690579 0.24214001
000140 ce 76 dd ba d0 02 a3 bb ed 2d 1d bd b5 7c 9e bd
       -0.0016896368 -0.0049747005 -0.038373876 -0.0773863
000150 5c 53 8a bc c7 33 01 3d 16 85 2f 3e 50 21 d6 be
       -0.016885452 0.03154352 0.17140612 -0.4182229
000160 00 1b e3 bd 68 ec 45 bd 6d 11 8f bd db 7f 74 3d
       -0.11089134 -0.048321158 -0.069857456 0.059692245
000170 cb b6 da bd 22 01 d1 3c 50 da c3 bd 49 aa 5c 3b
       -0.10679396 0.025513235 -0.09563124 0.0033670834
000180 9a 7c c9 bd 85 b0 91 bd bc c2 11 3d 6b 25 78 be
       -0.09838219 -0.071137466 0.035586104 -0.24233024
000190 10 93 99 bc f6 88 99 be f5 ea c2 3d 81 35 cd 3e
       -0.018746883 -0.29987305 0.09517471 0.40079883
0001a0 e0 5d 35 bd 2f 53 5e bd 51 07 88 bd 91 c7 b3 3b
       -0.04427898 -0.05427855 -0.066420205 0.0054864367
0001b0 0e 67 94 3c c2 62 16 3e 08 fa 23 3c 26 6c 47 3e
       0.018115547 0.1468611 0.010008343 0.19474849
0001c0 b5 61 08 3d ad 4e 8a bd ba ab ca bc fe 73 5c 3f
       0.033296306 -0.067532875 -0.024740089 0.8611449
0001d0 14 34 74 bd f6 f4 2f bd a9 8c d2 bd 3f d8 36 3d
       -0.059619978 -0.042958222 -0.10280735 0.044639822
0001e0 ca b5 d8 3c 2b 55 ea 3c 83 a0 93 be de 82 99 bd
       0.026453871 0.028605064 -0.28833398 -0.07495664
0001f0 96 d9 a5 3e a7 ea b3 3e 87 50 8a bd da a9 54 bd
       0.32392567 0.35139963 -0.067536406 -0.051919796
000200 d2 87 65 bd b0 69 ff bd f4 e0 2c 3d d0 f1 a3 3b
       -0.05603773 -0.1247133 0.04220672 0.0050031915
000210 47 b2 69 bd b9 de f7 3e c2 ad 54 3d 05 2f b1 3c
       -0.057054784 0.4841211 0.05192352 0.021628866
000220 34 78 24 bc 50 e4 ac bd 4e fa 74 bc b6 7f 1c 3d
       -0.010038424 -0.08441985 -0.014952255 0.038207732
000230 1d 64 a6 bd 12 fc b5 bd e1 df 30 bd 2f ce 06 be
       -0.08124564 -0.08885969 -0.043182258 -0.1316459
000240 19 87 4d 3c 41 fe 32 be 9e 71 1f bd f9 c5 77 3e
       0.012544417 -0.17479803 -0.038926713 0.24196614
000250 79 66 8c bc 45 93 bd bd 44 72 73 be 72 84 8e bd
       -0.017138707 -0.09256605 -0.23774058 -0.06958856
000260 ca b8 64 3b fa 02 b8 bd 4c 12 d6 3d 35 89 d9 bd
       0.0034900182 -0.08984943 0.104527086 -0.10621873
000270 dc b7 a5 bb 85 a9 9e 3d 13 64 6c 3c 04 c7 bf bc
       -0.005057318 0.07747177 0.014428156 -0.023410328
000280 2c 8a bb bd 66 07 74 3e 60 29 e6 be 39 83 29 bd
       -0.091572136 0.23830947 -0.44953442 -0.04138491
000290 b1 a2 bc bd 3e aa b2 3e 90 b5 41 bd 54 8c 29 bc
       -0.092107184 0.3489551 -0.047292292 -0.010348398
0002a0 6e e9 af bc 55 37 1a bd ec 21 d6 3c ce 60 0c 3c
       -0.021473613 -0.037650425 0.026139222 0.008568002
0002b0 91 8b ef bf ce 4f 9a 3e 46 05 20 3c 84 13 8e bd
       -1.8714467 0.3013901 0.009766882 -0.06937316
0002c0 a0 8b 3b 3c 21 01 3e 3d 1d ad d4 bd 12 bf aa bc
       0.011446863 0.046387795 -0.10384581 -0.020843063
0002d0 f5 d3 d9 3b 07 96 88 3d ef d4 2f 3c 13 00 9a bd
       0.0066475817 0.066692404 0.01073192 -0.075195454
0002e0 ed d7 09 3d 9e 71 1f bd 5f cd c1 3b ae 76 b5 bd
       0.03365319 -0.038926713 0.0059143747 -0.08860527
0002f0 24 29 01 3d 00 e9 06 3b d0 71 cc 3f 7f a6 b1 bd
       0.031533375 0.0020585656 1.5972233 -0.08674335
000300 3e 17 a0 bd 3a 6d 2c be 84 bb 0b 3d 80 b8 34 bd
       -0.07816933 -0.16838542 0.034114376 -0.044121265
000310 34 34 ff bd f2 40 47 3e 36 12 80 bc dd f3 9b 3d
       -0.12461129 0.19458368 -0.015633684 0.076148726
000320 9a 7f 5a 3d 27 d1 b0 bc 7a 9a de 3d a5 ec c3 3c
       0.053344347 -0.021584107 0.10869308 0.023916552
000330 7d 02 38 bd c5 eb 45 bd a2 bf 2f be 73 38 cc 3e
       -0.044924248 -0.04832055 -0.17162946 0.39886817
000340 04 9a c2 bd 8d a7 89 3d c8 a6 35 3c 49 56 84 3e
       -0.095020324 0.06721411 0.011087127 0.2584708
000350 df 5c b0 3d 12 60 ab 3e 3d 21 2d 3f d7 f8 07 bf
       0.08611464 0.33471733 0.6762884 -0.53114074
000360 07 66 ec bd 75 cf 96 3d 88 3a c6 3c 1d ab 0b bd
       -0.11542898 0.07363788 0.024197832 -0.034098733
000370 4c e6 c4 bd 71 ed df 3c 69 83 9f ba 27 1c bd ba
       -0.09614238 0.0273349 -0.0012169901 -0.0014427946
000380 f6 03 7b 3c b1 8d 57 bd 48 6e ae bc 7f 8f 75 be
       0.015320769 -0.05262536 -0.02129282 -0.2398052
000390 40 66 ea 3a ce f4 5d be d5 cf f0 bd 51 e2 42 3f
       0.0017883256 -0.21675417 -0.11758391 0.7612658
0003a0 5d 06 af bd bc 84 fc bd 12 00 9a bb a1 5c a7 bd
       -0.085461356 -0.123300046 -0.0046997154 -0.081719644
0003b0 8d 99 96 b9 d4 83 80 3e 7c fa 0d bd c5 fe ac 3e
       -0.00028724634 0.25100577 -0.03466271 0.33788124
0003c0 ce 2e 94 3d ff 75 bd 3d 86 8a 54 bd 99 11 16 3f
       0.0723549 0.092510216 -0.05188992 0.586206
0003d0 f6 f4 af 3d 32 98 68 bc 3a c6 15 be a4 ff fc 3c
       0.085916445 -0.014196442 -0.14626399 0.030883618
0003e0 2f f5 33 3d 01 f0 d6 bd 7b 94 1d be 84 87 83 bd
       0.043934997 -0.10494996 -0.15388672 -0.06422332
0003f0 eb 7c 04 3f 3d 4f 7a 3e d0 f1 83 bc a4 69 7c bd
       0.5175311 0.2444429 -0.016106516 -0.061624184

bias f4 [4]
000000 ba e0 aa bf 32 47 9d bf 29 d2 f9 3d f7 eb 51 3f
       -1.3349831 -1.2287352 0.12198288 0.8200068
