models/cache_agent/1/D3QN_q_eval.pth (torch, 238109 bytes, 21 tensors)

weight f4 [128, 15]
00000000: 50b5 7bbe d816 05be 0f3f 1bbe feb0 69be
00000010: 7f53 803e 80c4 45be 7049 8dbe d15a ebbd
00000020: e975 ecbd ce1a 87bd 0173 5dbe 7107 763e
00000030: c8e1 f8bd d819 8a3c 71d5 253d 928e 54bb
00000040: 5b33 45be 17e7 363e 86a2 583e 5c31 0a3e
00000050: d445 243e 734a 1d3e a37e 963d f57f 6f3e
00000060: 0865 393d 3cd4 24be 308b ba3d af91 8f3e
00000070: d142 823e 2f74 403e fc7f 35bd a0ed 5d3d
00000080: c06a ae3c 328b 433e d4ef 1fbd c09a 2e3c
00000090: 3223 6e3e cb2b 80be e097 ab3d a2f1 9bbd
000000a0: 5495 c43d 7447 74bd da1a 243e 40d1 ff3c
000000b0: 88df 7dbe 6d88 38be 0e63 b8b8 e072 263b
000000c0: b274 45bd d4a7 103e 9e56 e4b9 23cc 3bbc
000000d0: b622 a23d bf41 2d3e 44b5 09be 4ba6 5bbe
000000e0: 6340 2f3e d9e1 e43d 72cc 1f3e f5e5 2bbd
000000f0: af10 92bd 16a0 fa3d 93d2 80bc 834e 863c
00000100: 6c17 29be 756b 053e c488 233e 6c2a 733e
00000110: 1b4f 293e e0b6 93bd 5e8c 4f3e b7f0 cc3c
00000120: 31be 293e 416a 08be f219 cebb 7b1b 8cbd
00000130: f9f9 7c3e e2b5 453e ed3e 2b3e c2d6 723e
00000140: 5594 583e 1db4 e1bd 2dde 933e aa7e 02be
00000150: f043 ff3d 9530 44be 98ae d73d 2a3f 103e
00000160: e0ef 3f3e d41d ad3d a2c7 693e 8055 3f3d
00000170: e8f7 6b3e 206f a63c b13a 7cbe c6f2 7f3e
00000180: 326c c3bd 8f6a 13be 9492 d93d 80e3 24bc
00000190: 4a3c 303e 82d6 58be 8bea 6fbe e8fd b0bd
000001a0: 9967 4bbe 7c0e 3cbe 86cd 363e cfd5 4b3c
000001b0: 1599 c1ba 2067 6e3d c85c 7f3e 6869 37be
000001c0: 31cc 87bc b68c b63d b3aa 803e 16bb 963e
000001d0: 9f0e 35be 34f1 a13c 549e 643e 9aa1 013e
000001e0: c8b8 44be a81b 873e f5cf 833d f6cc 053e
000001f0: a386 7cbe ea24 a73d 2e8f 46be af17 fc3d
00000200: 7ace f43c caad e5bd 2f19 09be f28f 643e
00000210: 96e5 663e e56d dfbd fed8 0f3e 2456 3dbe
00000220: 055a 903e 40ce 23bd b158 8ebd 30f9 f33d
00000230: 3da4 903d 1a8a 4abe 7f00 7a3e 1a8a 773e
00000240: a61c 6e3e f135 03be a454 a6b9 b55f 623d
00000250: aec3 a13e bd2c 81bd 2ae5 4dbe ea21 c6bd
00000260: 7c69 83be d054 ae3d 1ce7 443e 00ff 39bd
00000270: c00f 90bb 8894 f4bc 8063 8ebb eaff 51be
00000280: 0ce6 a0bd ca5c 64be 9033 953d a041 a03c
00000290: a863 b6bd 8685 79bd 4fc7 05be d96a 1dbd
000002a0: 55d8 033e 68b2 c4bc 9fde 26bd 34be af3d
000002b0: 7dd9 0bbe 4873 213e 34c5 66bd 08ff b13d
000002c0: 8036 1fbe 884d f7bd 90e6 043d 23f1 96bb
000002d0: 98b7 2cbe 59c1 673e 7aeb 473e 27db 19be
000002e0: 2864 80be 01d9 18be e51f dd3d 94ee 763e
000002f0: 2d29 17be dc59 fd3d b255 97bd 7a1a ffbd
00000300: 0de4 85bd 00e1 283d 6fdf 2dbe 67ba 1f3d
00000310: a92e b4bd 6c6c db3d fe8c 863e 80d1 773d
00000320: d7e6 0cbe 1618 913e 2366 09be c917 71bd
00000330: 76b9 abbd 89f1 0d3e 8358 123c 6290 893e
00000340: f91b 58be 7545 923d f498 7fbe 83c0 46be
00000350: b159 6dbd abcd 683e f277 5a3e cae1 683e
00000360: fde1 2c3e 4bcf 293e 6891 83be 3892 c53d
00000370: e1dd 62be 0805 4a3e 9871 b03c 49a3 803e
00000380: 1330 74be e625 0fbe a392 503e 1b55 74bd
00000390: 11ea 853c daf1 013e 29eb 643e 9cb4 963e
000003a0: e300 e4bd 8ebc 083d c0d7 623c 02a3 933e
000003b0: 6404 30be 9e90 843e 83a5 2ebe 589b ee3d
000003c0: 0721 8dbe 5d1d 5b3d 2fd8 4a3d e899 49be
000003d0: b6b3 3b3e 43cb 6bbe 4787 9fbd 9170 75be
000003e0: 4d28 77be 0026 79be 60f1 88bc 821e d23d
000003f0: aa28 9dbe ed7b 56be d27c 91bc edf5 3dbe
-0.24580884 -0.12996995 -0.15160774 -0.22821423 0.25063702 -0.1931324 -0.2759509 -0.11491931
-0.11545927 -0.065969095 -0.21625902 0.24026276 -0.12152439 0.016858026 0.040486757 -0.0032433611
-0.19257872 0.17861591 0.21155748 0.13495392 0.16042262 0.15360431 0.07348373 0.23388655
0.045262367 -0.16096586 0.09108579 0.28040835 0.25441602 0.1879432 -0.04431151 0.054181695
0.021291137 0.19096068 -0.039047077 0.010657012 0.23255613 -0.2503341 0.08378577 -0.07614447
0.095987946 -0.059638456 0.16025868 0.031227708 -0.24792302 -0.18020792 -8.792254e-05 0.002539806
-0.048206992 0.14126521 -0.00043552084 -0.011462244 0.07916777 0.16919611 -0.13448054 -0.21450154
0.17114405 0.111758895 0.15605333 -0.04196735 -0.071320884 0.12237565 -0.01572541 0.01639486
-0.16512841 0.13029273 0.1597014 0.23746651 0.16534083 -0.07212615 0.2026839 0.025017126
0.16576459 -0.13321783 -0.006289714 -0.06841179 0.24704732 0.19307664 0.16723223 0.23714736
0.21150334 -0.11020682 0.28880444 -0.12743631 0.1246413 -0.19159158 0.10531348 0.14086595
0.18743849 0.08452955 0.2283006 0.0467124 0.23043787 0.02031666 -0.24631764 0.24994954
-0.09542121 -0.14396118 0.10623661 -0.010064006 0.17210498 -0.21175578 -0.23429315 -0.08642179
-0.19863738 -0.183649 0.17851838 0.012441113 -0.0014770353 0.058203816 0.24937737 -0.17911303
-0.016576858 0.08913557 0.25130233 0.2943961 -0.17681359 0.019768335 0.22326022 0.12659302
-0.19211113 0.26388288 0.06436149 0.13066468 -0.24660735 0.08161338 -0.19390556 0.12309205
0.029883612 -0.11214788 -0.13388513 0.22320536 0.22548518 -0.109096326 0.1404762 -0.18489891
0.2819368 -0.039991617 -0.0695051 0.11912763 0.07062576 -0.19779244 0.24414252 0.24173775
0.23253116 -0.12813546 -0.0003172505 0.055267055 0.31594604 -0.06307361 -0.2010695 -0.09674437
-0.25666416 0.085122705 0.19228786 -0.045409203 -0.004396409 -0.029855981 -0.0043453574 -0.2050778
-0.07856378 -0.22301021 0.072852254 0.019562542 -0.08905727 -0.060918353 -0.13064311 -0.038431976
0.12875493 -0.024010852 -0.04073965 0.085812 -0.13657184 0.15766633 -0.05634041 0.086912215
-0.15548134 -0.12075335 0.032446444 -0.0046063825 -0.1686691 0.2263235 0.19523421 -0.15025006
-0.25076413 -0.1492653 0.10797099 0.24114448 -0.14761801 0.12370655 -0.07389392 -0.12456222
-0.06537638 0.0412302 -0.16979764 0.038996127 -0.08797962 0.10714039 0.26279444 0.06050253
-0.13759933 0.2833869 -0.13417868 -0.058860574 -0.08384983 0.1386167 0.008932236 0.26867968
-0.2110442 0.07142154 -0.2496069 -0.19409375 -0.057946865 0.22734706 0.21334818 0.22742382
0.16883083 0.16582982 -0.25696874 0.0964703 -0.22154953 0.19728482 0.02153854 0.25124577
-0.23846464 -0.13979301 0.20368437 -0.059651475 0.016346963 0.12689915 0.22355331 0.2943467
-0.11132982 0.033382945 0.013845384 0.28835303 -0.17189175 0.25891584 -0.17055325 0.11650723
-0.2756426 0.0534948 0.049522575 -0.19687617 0.18330273 -0.23026757 -0.07789474 -0.23968722
-0.24136467 -0.24330902 -0.01671666 0.10259725 -0.30695087 -0.20945711 -0.017759714 -0.18550844

bias f4 [128]
00000000: 4e5b 0b3e d2ef 61be 9443 47be 7676 853d
00000010: 6512 683e f6bc 6cbd 5417 b33d 769a 16bd
00000020: e118 033e 445e 1d3e e06f c43c 7974 46be
00000030: ef45 5d3e d5ba 6d3d 7c52 6ebe 16e0 1dbd
00000040: 140b 00be 7d22 bf3d f881 463e 4e6b 943d
00000050: 3335 043e 642e 8b3e 28cb 0e3e b77c 52be
00000060: 8f4c 363e 2b29 49be e80d 04be fcd0 853d
00000070: 99b1 a23d 0af4 04bd db8a 62be d1bb 5fbe
00000080: ddaf 6bbd 8542 133e af2d 543e c379 5cbc
00000090: 242b 503d 1bfe 0bbe 9894 383e f91e 70bd
000000a0: f41b d2bd 630f 413e e08d 8b3c 8e43 16be
000000b0: 575d 4fbe 9b00 04be 6359 67bc bac7 333e
000000c0: ae82 aebd f0ed 9e3d c64f bd3d 33b4 7d3e
000000d0: f489 4cbd ef1b 15be f10a 7d3e d48f 19be
000000e0: 0760 53bd ff61 5a3d 5ebf 8d3d 022f fcbb
000000f0: e22f d33d fa22 583e 5d99 143d 9e07 01be
00000100: 11a7 5cbd cb41 d5bd f2ab fbbd d34e 53bd
00000110: 5c84 51bd c289 90bc 700e 16be 6ce2 14be
00000120: f4f3 b3bc 5c46 e2bd c4cf 26be b5ff ffbd
00000130: ae31 edbd 095a 993d 3546 5b3e 8616 233d
00000140: a65a 773e 31d0 223d 64d6 183e d7d7 0d3e
00000150: c7d5 fabd 789a 2ebe e46f 853e d873 943a
00000160: 0e99 863e c23c 6ebe 882c 073d 2857 883a
00000170: 2950 f9bd 9daf 2abe 7543 553e 82f4 283e
00000180: eeb1 39be 1f5e bc3d 5714 1d3c 2112 03bd
00000190: 7004 813d d342 233d 7278 debc e0d9 263e
000001a0: ce3d 35be f1f9 383e 3d63 14be 063e b7bc
000001b0: 1f2b 5d3e 92de b8bd 0167 0b3e 6ad4 1b3e
000001c0: e622 1cbe 543f 7bbe ae36 383e e113 bb3d
000001d0: 22fd 133e 4b01 1a3e ac9d 66bd 9c33 4e3e
000001e0: c1c4 6abe 92dc 193e dac3 2f3e f7cc fe3d
000001f0: e504 9a3d 8ade ed3d 0661 cabd ec97 43be
0.13609049 -0.2206414 -0.19459373 0.06516735 0.22663267 -0.057797395 0.08744684 -0.0367684
0.1280246 0.1536799 0.023979127 -0.19380368 0.21608709 0.058039505 -0.23273653 -0.038543783
-0.12504226 0.0933275 0.19385517 0.07247029 0.12910919 0.2718383 0.13944685 -0.20555387
0.17802642 -0.1964461 -0.1289593 0.06534001 0.0794403 -0.032459296 -0.22123282 -0.2184899
-0.057540763 0.14380844 0.20720552 -0.013456765 0.050822392 -0.13671152 0.18025434 -0.058623288
-0.10259238 0.18853526 0.017035425 -0.14674208 -0.2025045 -0.12890856 -0.014120433 0.17556658
-0.08521019 0.07760227 0.09243731 0.24775772 -0.04993625 -0.14561437 0.24711205 -0.14996272
-0.05160525 0.053316113 0.06921266 -0.0076960335 0.10311867 0.21107092 0.03627907 -0.12600562
-0.053870264 -0.1041294 -0.12288655 -0.051588845 -0.05115162 -0.017643813 -0.14653945 -0.14539498
-0.021966912 -0.11048576 -0.16290194 -0.12499944 -0.11581741 0.07487876 0.214135 0.039816402
0.24155673 0.039749328 0.14925534 0.13851868 -0.12247806 -0.17051113 0.26061928 0.0011326028
0.26288646 -0.23265365 0.033001453 0.0010401951 -0.121734925 -0.16668554 0.20826514 0.16499522
-0.18134281 0.0919764 0.009587369 -0.03199971 0.062996745 0.03985865 -0.027157042 0.1629405
-0.17699358 0.18064095 -0.14490981 -0.022368442 0.2159848 -0.09026827 0.13613512 0.15217748
-0.15247688 -0.24535877 0.17989609 0.09134651 0.14452031 0.15039556 -0.05630271 0.20136875
-0.22926618 0.15025547 0.17164555 0.12441438 0.07520465 0.116147116 -0.09881787 -0.19100922

weight f4 [128, 128]
00000000: 3e10 b9bd d6f1 18bc bbd0 883d 5fee ab3d
00000010: 6dc2 583d e1d6 833d f391 873d 0e1d a73c
00000020: 4523 c83c 25ff 043e d425 d23c 6e35 5a3d
00000030: 6550 da3d c0a1 a7bd 94e0 d73d 0a4f 403d
00000040: aed9 3ebd 95d9 86bc 66fa b63c 0e7f 833d
00000050: e452 98bb a205 10bd 4d8e 55bd b0bf 8e3b
00000060: 0ee7 263d daf7 85bd 6082 1abc c835 053e
00000070: 7bd2 7fbd a2c9 923d 0464 dfbc 2769 b4bd
00000080: 28ce 7b3d 6fb3 a03d 6416 eebc 3b6d a33b
00000090: 6e48 743c 9d05 04bd b842 9bbd 4191 99bd
000000a0: 79f2 203d 3df0 853a 256f 40bd 6bdf 85bd
000000b0: 88b2 b0bc 975a 463c af55 04bd 803a 78bb
000000c0: d3c3 603d 85cb 92bd a704 63bb 59aa 9b3b
000000d0: c0ad 413b f29e 733d 7ab2 bbbc a13f 863d
000000e0: d8c6 01bd 3d17 28bd 6eb0 ac3d 8984 8a3d
000000f0: 02ea e03d 5d9a dc3c da29 f3bc c592 c33d
00000100: 9182 0dbc 25f2 f8bb 3f24 5ebd 7133 5abd
00000110: 27d3 6abd ee33 e73c 8c1c 943d 17a8 823d
00000120: 0661 3c3c 0887 b6bc a219 91bd eb95 78bd
00000130: 1695 783d 7be9 1fbd 5746 4e3d d8ee 973c
00000140: 9b3d 853d 9772 8abd 4c93 a5bc b0af 923d
00000150: 2969 f6bb e899 e9bc 6c03 c7bc 60f0 23bd
00000160: 5e4b 90bd f5ef 8f3d 8792 c03b f912 a9bd
00000170: 62c4 823d 3eb7 b3bc 47ab 76bd b804 19bd
00000180: fe12 5abc 70fd fd3c 3d26 b4bd c5c8 45bd
00000190: 984e 0a3c 71ce 76bc 197b ec3c 44b9 f2bc
000001a0: 3655 4e3d 8143 0bbd be61 983d 9a63 e33c
000001b0: 897f 883c 7a8f 86bd a4d2 d13d 46c4 85bc
000001c0: 261f c73c 33d7 743c 94f6 8fbc 880c 43bd
000001d0: 9445 8cbc 730c 8d3d ee48 8fbd 9e73 d0bc
000001e0: a041 b0bb 9a6e debb 7e62 d33a 3fdc 57bc
000001f0: 8638 be3c 6baf 9a3d 502b 553c 7f35 903d
00000200: c99f 6f3d 3bb6 3fbc d980 873d a709 b3bd
00000210: 2513 a23d fa35 0d3d cfb5 963d 492b 333d
00000220: e9ab 8f3c 58b3 7c3c 8012 98bc 6525 21bd
00000230: a9b2 01be 1950 7e3c accc 59bd b03b 03bd
00000240: 9fee cc3c f100 d53d 721b 0f3c 4284 b4bd
00000250: dc0f 0e3d b3c9 b0ba d06a 84bd 1d5c 1dbd
00000260: 0321 26bd 7ee0 ebbc fc5e 9fbc d200 c1bd
00000270: 1a50 d2bc d6b7 f6bc 34dc 29bc 48f5 fd3c
00000280: a09c 94bd cc60 2dbd 134c 093d 4476 bd3d
00000290: 95bc 213d 8a12 ff3c c017 ad3d 30ca b13c
000002a0: 6ea1 c3bc 0d44 b43d 572c 7ebd 831b 293d
000002b0: 4429 ad3b d8bf cdbc e929 bc3c 4042 f7bb
000002c0: 5135 0cbc 501b 1a3d 3ee9 d03d ef00 37bd
000002d0: 16f8 403d 4abe 1a3d cbab d4bc e1ac 86bd
000002e0: 252b ef3c 209e ba3d 4ad0 fdbc dfcf ec3d
000002f0: 2185 a23c 3fa9 98bd da8b 693d 49e2 62bc
00000300: 8eb5 c1bc e76a c1bc 2ac9 743d 0e0c 963d
00000310: a05f 33bd 30a9 ad3d c324 cdbc c190 803d
00000320: 18e6 133e d570 a4bd 7086 e8bc 1053 d9bc
00000330: e3ab 413d 6055 0e3d be37 f3bc fd5e 873d
00000340: 7b62 1bbe a91b c03d 775c 35bd 9824 bf3d
00000350: 3885 70bd fba9 053d 1632 36ba 4951 30bd
00000360: d010 4d3d 70e5 c2bb 63b3 45bd a468 d23d
00000370: 7784 643c ac7e 23bd ad03 25bd 146e 87bc
00000380: f887 8a3b 374f d23d f27d 5a3d 4ea4 cfbc
00000390: 7b80 8d3d d5d5 79bd 65b4 e03b 892a 3e3d
000003a0: 4bd3 f3bc af2b c33d d50c 65bd bce0 d13d
000003b0: 38bc a23d 272f afbc 2032 f6bd 3709 c93d
000003c0: 3a66 f13a 0182 163d aedf 503d 91e7 5fbd
000003d0: 2bcc dfbc 8d30 653d b501 87bc 015e 4fbd
000003e0: c2b2 123d fdba a53d fee2 033d 09c9 853d
000003f0: 3e51 e83d 9f1e 5e3d 4bc5 a2bd e34d ea3d
-0.09036301 -0.009335002 0.06680437 0.08395075 0.052919794 0.06437469 0.066196345 0.020399597
0.02443088 0.12987955 0.025652803 0.05327361 0.10659865 -0.08185148 0.10540882 0.046950378
-0.046594314 -0.016461173 0.022336196 0.06420718 -0.004648553 -0.035161622 -0.05213766 0.004356347
0.040747695 -0.065414146 -0.009430498 0.13008797 -0.06245659 0.07167365 -0.02726937 -0.08809119
0.061475903 0.07846724 -0.029063411 0.0049873865 0.014909847 -0.032231916 -0.07581085 -0.07498408
0.03929374 0.0010218691 -0.046980996 -0.06536754 -0.021569505 0.012106559 -0.032308277 -0.0037876666
0.054874253 -0.071677245 -0.0034640224 0.0047505316 0.0029553026 0.059477754 -0.022912253 0.06555105
-0.031683773 -0.041037787 0.08432089 0.0676356 0.109821334 0.026929075 -0.029683042 0.095494784
-0.0086370865 -0.0075972253 -0.054233786 -0.053271715 -0.057330277 0.028223004 0.072320074 0.06379717
0.011497742 -0.022281185 -0.07084967 -0.060689848 0.060689054 -0.039041024 0.05036005 0.018546507
0.06505891 -0.067601375 -0.020211838 0.07162416 -0.0075198603 -0.028515771 -0.024293624 -0.04002416
-0.07045625 0.0702819 0.0058768424 -0.08255572 0.06385113 -0.021937963 -0.060221937 -0.037358016
-0.013310192 0.031004637 -0.08796356 -0.048287172 0.00844159 -0.015063868 0.028867291 -0.029629357
0.050374232 -0.033999924 0.07440518 0.027757455 0.016662376 -0.06570335 0.10245255 -0.016328942
0.024306845 0.014943886 -0.017573632 -0.047619373 -0.017123021 0.0688714 -0.06996332 -0.025445756
-0.005378917 -0.006788087 0.0016127375 -0.013175069 0.023220312 0.075529896 0.013010815 0.070414536
0.058501992 -0.011701162 0.066163726 -0.087420754 0.07913808 0.034475304 0.07358896 0.04374245
0.017538028 0.015423618 -0.018563509 -0.039342303 -0.1266581 0.015522026 -0.053173706 -0.032039344
0.025016127 0.1040057 0.008734571 -0.08814289 0.034683093 -0.0013487845 -0.06465685 -0.038417924
-0.040558826 -0.02879357 -0.019454472 -0.094239846 -0.025672961 -0.030116957 -0.010367442 0.031000748
-0.07256436 -0.04232864 0.033519816 0.09251073 0.039486486 0.03113677 0.084517956 0.021702856
-0.023880687 0.08802042 -0.062054005 0.041286003 0.0052844603 -0.025115892 0.022969203 -0.0075457394
-0.0085576335 0.037623703 0.102007374 -0.044678625 0.047111593 0.03777913 -0.025960824 -0.06575943
0.029195378 0.09112191 -0.030983109 0.11563086 0.019838871 -0.07454156 0.05701814 -0.013847896
-0.023646142 -0.023610545 0.059762157 0.07326518 -0.043792367 0.084795356 -0.025041943 0.062776096
0.14443243 -0.080293335 -0.028384417 -0.026528865 0.047283065 0.03474939 -0.029689666 0.066099145
-0.15174286 0.09380276 -0.044277634 0.093331516 -0.058720797 0.03263281 -0.00069502124 -0.04304627
0.05006486 -0.0059477612 -0.04826678 0.10273865 0.013947598 -0.039915726 -0.04028671 -0.016531982
0.0042276345 0.10269015 0.053342767 -0.025346901 0.06909271 -0.06099494 0.006857442 0.046427283
-0.029763838 0.09529816 -0.05592044 0.10247943 0.07946056 -0.021384789 -0.12021279 0.09816211
0.0018417307 0.036745075 0.050994568 -0.0546642 -0.027319035 0.055954505 -0.016480306 -0.05062676
0.035815008 0.08092306 0.0321989 0.06532485 0.11343621 0.05422842 -0.07947787 0.11440637

bias f4 [128]
00000000: 32d7 f9ba ee15 16bd 8226 4f3d f967 ca3d
00000010: 0795 a53b 10c7 85bc dc32 bb3c 6ae4 ca3c
00000020: 4d06 86bd 7cad dc3c a8dd 893d 30c8 2f3c
00000030: 615a 7fbd af22 8f3d 74df c33d 98a7 7cbd
00000040: 75d6 003e 2230 18bd 3086 c9bb b2a9 233d
00000050: 57ee 733d 3a09 f2bc 4bfd 10bd 03b8 c63c
00000060: 6539 b7bd 1bf0 953d 4e0f f2bc 9f48 e43d
00000070: 66bc 37bd 311f 05bd cb5b ba3d 3af1 573d
00000080: d806 1e3d 9bf2 843d 5f5e 49bd d06b 13bc
00000090: bfac 873d a1a7 003d 0149 a83d 1973 3e3d
000000a0: 881d 16bd c709 653d aa97 4a3b 00c6 6bbd
000000b0: 7df7 a13d 9027 043c 597f 3c3d 9092 17bd
000000c0: 0632 693d 7ba7 1bbc 7aaf 6e3c bcd6 323d
000000d0: 131e c73c 5a45 debb 0622 63bd 0ec0 88bd
000000e0: 78c9 0abd 790b 80bd b1d6 9f3c 82ea 23ba
000000f0: b473 13bd 27b0 783d 57fd de3d e63d ebbd
00000100: 83db f83d e77e ad3d ea8a 763d 2162 0d3d
00000110: f648 50bc 6769 913d 700d 13bd 4e9d af3b
00000120: 9fde e03c c83f 4bbd 205a f63c 5f2b 323d
00000130: 89b6 b9bd 26a3 fbbc 046f dd3c d062 bfbc
00000140: cb9d f93d 1bee fdbc 1a1e 33bd 985e 543d
00000150: 1500 933d 461b f0bc a81b 6dbd 6a0c 353d
00000160: 9198 d23c 90f1 46bd bef0 e23d 70a9 55bd
00000170: 82a4 bc3d c7c3 5e3d 6aa7 7d3d 3fef 90bc
00000180: 72d0 69bd 1e57 97bd 3b55 993d c320 b5bd
00000190: 3577 21bd a0c2 af3c e6a6 edbc a883 ff3c
000001a0: 7d4c 753d 103d 04bc 6b48 8f3c f612 8d3b
000001b0: c928 2e3c ad2b 13bd ba5d 453d 0428 213d
000001c0: d391 bdbd 0ea1 123c 088d acbb b2dc e03c
000001d0: 3e5c 353d 3050 f4bb 8dea 63bd f6d2 df3b
000001e0: 3f04 423d 2e0b 8dbd 0a68 a1bd 3d39 e33c
000001f0: ee59 523d cc29 36bd 26c1 863d 38a8 d33c
-0.0019061326 -0.036642008 0.050573833 0.098831125 0.005053166 -0.016330272 0.0228514 0.02476712
-0.065441705 0.026938193 0.06731731 0.010728881 -0.06234205 0.06989037 0.09564105 -0.061683267
0.12581809 -0.037155278 -0.0061500296 0.039956756 0.05955347 -0.029545415 -0.03539781 0.024257666
-0.08946494 0.07321187 -0.029548313 0.11146664 -0.044857405 -0.03250045 0.09099539 0.052720286
0.038580745 0.06491586 -0.049162265 -0.0089978725 0.066247456 0.031409863 0.082170494 0.046496484
-0.036649257 0.055917528 0.0030913153 -0.057561874 0.07908533 0.008066073 0.046019886 -0.037005007
0.05693247 -0.00950038 0.014568204 0.043661818 0.024306333 -0.0067831697 -0.05545237 -0.066772565
-0.03388354 -0.06252188 0.019511553 -0.0006252901 -0.035999015 0.060714867 0.108881645 -0.114864156
0.121512435 0.0847147 0.060191073 0.03451741 -0.012712708 0.07100182 -0.035901487 0.0053593284
0.027449904 -0.049621373 0.030072272 0.043498393 -0.09068019 -0.030717444 0.027030475 -0.023362547
0.121883 -0.030997327 -0.04372988 0.051848024 0.0717775 -0.02930988 -0.057887703 0.044201292
0.025707515 -0.048570216 0.11081074 -0.05216354 0.09211065 0.054385927 0.061927237 -0.017692206
-0.057083555 -0.07389663 0.074869595 -0.088441394 -0.039420325 0.02145511 -0.029010247 0.031190708
0.059887398 -0.008071199 0.017490586 0.004305239 0.010629841 -0.035930324 0.048185088 0.039344802
-0.092563294 0.008949531 -0.0052658357 0.027448986 0.044277422 -0.007455848 -0.055643607 0.0068305684
0.04736733 -0.06886898 -0.07881172 0.027737254 0.051355295 -0.044473454 0.06579809 0.025837049

weight f4 [1, 128]
00000000: b890 21be 76df 5f3d 09ce d23c a961 b23d
00000010: c357 3cbd 97e2 d0bc 4c3b c53c a145 593d
00000020: 606b 4abd 79a1 bcbd 4edc 96bd 3c51 1fbd
00000030: b796 3a3c f17d b4bd 0bfd 8f3d 4e94 063c
00000040: 0b73 d43d 199e d13c 0257 a7bd c7a5 bb3d
00000050: 421a b03c 32a8 5cbd e5d6 8e3d 460f a3bd
00000060: a59c a3bd 58c6 3dbd 2ec8 793d 2e6a 893d
00000070: c279 533d 3025 b0bd 5179 d13d 409c aabd
00000080: 7a06 8b3d f7e7 a6bd 5448 09bd b239 843d
00000090: 5fad b33d b54b 893d 0716 bc3d a8c1 493d
000000a0: b844 f93c f057 29bd e66e 39bd 0dcc 27bd
000000b0: 4a9c acbd bcef 93bd 6db4 e03d c7dd c63d
000000c0: bcb0 863d c3a1 673d 1aac a3bc 0d9f 87bc
000000d0: 92b3 a3bc 4369 2dbd a3e8 a1bd 3145 abbc
000000e0: 648a 01bc a8ad 90bd 2bdc 103d f2f8 9ebd
000000f0: 0cf9 7f3d 8f58 f0bb 444e d33d f66c 9dbc
00000100: 4723 9f3d b607 623d e1f8 d83d 8d74 e63d
00000110: ca83 623c 263e 163d 3226 64bd f677 8ebc
00000120: 00bf 5b3d 00d0 66bd fcc1 81bd 15b9 38bd
00000130: b80d 2bbd f590 353d 8caf e53d 0030 6e3b
00000140: 25c2 993d 59d9 453d 9185 d23c ca92 8b3d
00000150: b740 3c3d eedd 4abd bcc6 1dbd 43d9 6fbd
00000160: ea81 d7bd c0dd c13a b87c 7a3d 7f7e 993d
00000170: c3b7 a83d c384 ccbd 48d9 93bd 7fab 43bd
00000180: bd25 97b9 a4be 2bbc f72b 4ebd d5b7 33bd
00000190: 8258 c53d eac2 e4bc 9a2d 313d 8cf3 2bbd
000001a0: f006 86bd 6901 103e 9b4c b5bd d19b 8a3c
000001b0: 61c8 be3c 60a6 223b 918d e03d 4926 943d
000001c0: 78d8 bcbd 4b7c 593d 5794 82bd c83e b7bc
000001d0: deb8 963d 9d04 833d 2610 89bd a570 37bd
000001e0: 14f1 8e3c 755f 823d c4f8 863d b7b0 42bd
000001f0: 009f 82bb 8f75 40bd 36b4 813d 70f9 913c
-0.15777862 0.05465647 0.02573301 0.087100334 -0.045982134 -0.025498671 0.024076127 0.05304492
-0.049418807 -0.09210486 -0.073662385 -0.03889583 0.011388472 -0.08813084 0.07030686 0.0082140695
0.10373505 0.025588082 -0.08170892 0.09162479 0.021496896 -0.05387134 0.06974582 -0.079618976
-0.07988862 -0.046331733 0.06098192 0.06709705 0.05162979 -0.08600843 0.102282174 -0.083305836
0.06788345 -0.081497125 -0.033516243 0.06456317 0.08773302 0.06703893 0.09183889 0.04925695
0.030428275 -0.04134363 -0.045271777 -0.040966082 -0.08428247 -0.0722346 0.109719135 0.097102694
0.06576678 0.056550752 -0.019979525 -0.016555334 -0.019983087 -0.042336714 -0.079057 -0.020907016
-0.00790653 -0.07064372 0.03536622 -0.07762326 0.06249337 -0.0073347758 0.10317662 -0.019216996
0.077704005 0.055183135 0.10594345 0.11252699 0.013825366 0.036680363 -0.05570049 -0.017391186
0.05364895 -0.056350708 -0.06335828 -0.045098383 -0.04176113 0.044327695 0.112151235 0.0036344528
0.07507733 0.048302982 0.025698455 0.06815107 0.045960154 -0.049528055 -0.038519606 -0.058556806
-0.10522826 0.0014790818 0.061154097 0.0749483 0.08238175 -0.0998626 -0.072191775 -0.047770973
-0.00028829082 -0.010482464 -0.050334897 -0.043876488 0.09636022 -0.027924974 0.04325638 -0.04198031
-0.06544292 0.14063038 -0.08852502 0.016920002 0.023288907 0.0024818406 0.10964502 0.07233865
-0.09220976 0.05309705 -0.0637595 -0.022368804 0.07359479 0.06397364 -0.06692533 -0.04478516
0.01744894 0.06365863 0.06590417 -0.04753181 -0.0039862394 -0.046987113 0.06333201 0.017819136

weight f4 [4, 128]
00000000: 62a8 ac3d 880c 923d 653c 03bd eb6a bfbd
00000010: 1930 9cbc 0d6c 91bd dd39 9e3d 61a7 923d
00000020: dcaf 863d 44c0 a6bd 7030 3fbd e056 9dbd
00000030: 7bcc 423d 3cab 523c 36d7 403d a174 183d
00000040: 6d17 823d e8d4 1ebc 9746 0bbd 68ff 8abb
00000050: 0dda 323d d92e a43d cfa0 adbd affa 623d
00000060: aaa5 ee3c 97d0 f1bc 3c1f 063d 1bdb 9bbc
00000070: f820 4cbd 3062 da3d 1166 16bd 1d1f a03d
00000080: f522 5fbc 64a4 8cbc bf59 62bd 4af9 ffbb
00000090: dd4f aabd fa6f 3d3d 1592 97bc 53e1 9cbd
000000a0: 6954 b2bd 2d8c 88bd fa15 3d3d a0eb 783d
000000b0: e24d 083d 35eb 3ebd 1597 05bd b4df eabc
000000c0: da54 8e3d 089b 5fbd d7fa 81bd 3a5e b5bd
000000d0: 086d aebd 8191 613d a63b a1bd f859 7dbb
000000e0: bdde a2bd c186 0f3d 3040 a9bd d2ed a0bd
000000f0: c4c5 fb3c ecd1 883d 6433 51bd d712 71bc
00000100: 59b4 9abd 988d 173c 6b53 f83c 3554 e2bb
00000110: 4db3 463d e0bc a6bc 7b34 2cbd 0282 64bb
00000120: 91bc 923d 406a 203d 3ddf 3ebd 37fb a6bc
00000130: 6672 a63d 257a 9bbc 99ff 3fbd 5057 b4bc
00000140: 7827 543d 8e72 103d dfc4 a0bd 3442 2fbd
00000150: 1cab 8e3d 6aef 31bd 35da acbd 318a 33bd
00000160: f271 3e3d 42c9 1abd 573d 453d e638 edbb
00000170: 68af c0bd e1b8 ef3c d845 4dbd 0044 86bd
00000180: 1301 87bd 7332 4a3c 1868 64bd b577 713d
00000190: 6ef7 07bd 0fdb 8a3d 14e3 0a3d ebe2 8abc
000001a0: ee80 ab3c c8dc c13d 6164 753b 36f9 fcbc
000001b0: 2f75 2a3d 4070 debb 74de 4b3d 8b53 b83c
000001c0: 499e ddbc c2a6 b8bd 1345 63bc 1535 49bd
000001d0: cb19 1ebd bed8 7b3d 42f2 abbd a26b 9f3c
000001e0: 0461 083d 8527 183d 3bd3 2b3d c832 613c
000001f0: 6844 d73c d26d 3d3c 2d80 82bd 7a4b 75bd
00000200: f170 c3bd 3647 713d 11f5 34bd 86b2 03bd
00000210: 19e7 8b3d 482a 55bb e891 1a3c 11f5 943d
00000220: b767 b9bd 4dd1 ac3c 847f 023d 9342 77bd
00000230: ab67 473d e9de 5ebd 44dd a33b 7009 273d
00000240: 49a7 bebd 44aa 8dbd bae9 3c3d a465 5f3c
00000250: 1931 99bd 6e66 8dbd 2129 713d e7fd 813d
00000260: 7837 8b3d a901 8dbc 701f c3bc add1 cb3c
00000270: b88a 77bd 0b63 143d 7326 dd3b c75a 9b3d
00000280: a3d3 c13c 049c 5bbd 7c44 8e3d d76c 7ebc
00000290: 50f0 56bd 04ff abbb 52dd 983c 06a7 203d
000002a0: b54f 03bd 67e1 73bc 5f0a 993d efa0 4a3d
000002b0: 5ef0 073d 8c67 8cbc d254 9e3d 250f 93bd
000002c0: 1754 873d 4941 12bd 862e aebc 8187 56bd
000002d0: 4f97 6bbc 34ac 00bd b16f b2bd e5a6 c9ba
000002e0: ed95 543d 0d5c 1e3c 794f 10bd 5f0b acbc
000002f0: c193 d3bc 839c 2ebc 4a90 603d 1028 5bbd
00000300: 8420 eebc 5dc0 9a3d f961 9b3b c1e4 6ebd
00000310: 2292 af3d cecd 433d 49f1 b6bd caa9 8dbd
00000320: 041a 423d 666c 183c 3681 553d d4d4 523c
00000330: a025 683d 2ea6 593c e34f ab3c 24e6 a2bd
00000340: ea50 58bd aeff f9ba 6643 14bd d9d5 713d
00000350: ee98 18bd b3ad 523d a097 90bd 0a75 063c
00000360: 8b5a 25be fe3f 283d 23c2 8dbd 4e64 7c3d
00000370: c39e be3c b28e 0ebe b339 00bd dbb9 df3b
00000380: f4b8 b6bd a04e a63d ee00 603d d785 a5bd
00000390: a18d 8fbd 9a96 0d3d 613d 023d 7694 683d
000003a0: df1e af3c cb1e e33c 4de4 beb9 6828 3f3d
000003b0: f63c 893d 676c 49bd f0c5 903d 85d4 9c3d
000003c0: 8032 2f3d 571e 77bd 5efd d1bc 0326 bebd
000003d0: 323f 8ebd 262a 163d c879 313c aded 15bb
000003e0: cd19 9dbd 01ca 87bd a2eb 5a3d ad36 ac3d
000003f0: 93cb 9abd 8eda 5d3d 64d1 b1bd 91d8 b0bd
0.08430554 0.071312964 -0.03204002 -0.09346565 -0.019065903 -0.07100687 0.0772588 0.07160831
0.06576511 -0.081421405 -0.046677053 -0.07682586 0.04755829 0.012858208 0.04708024 0.0372206
0.06352124 -0.0096943155 -0.034002867 -0.0042418726 0.04366498 0.08016748 -0.084779374 0.05541485
0.02913173 -0.029518409 0.03274463 -0.019025376 -0.04983613 0.10663259 -0.03671843 0.078184344
-0.013619174 -0.017168231 -0.05526137 -0.0078117 -0.08316014 0.046249367 -0.018502275 -0.07660165
-0.08707506 -0.066673614 0.046163537 0.060771585 0.0332774 -0.04661103 -0.032614786 -0.028671123
0.06949778 -0.05459121 -0.06346672 -0.08855863 -0.0851689 0.055070404 -0.07872705 -0.0038658362
-0.0795264 0.03504062 -0.08264196 -0.078578606 0.03073395 0.066806644 -0.0510744 -0.014713964
-0.0755393 0.009250067 0.030313214 -0.006907011 0.04851084 -0.020353734 -0.042042237 -0.003486753
0.071648724 0.039163828 -0.046599615 -0.02038346 0.081272885 -0.018979141 -0.046874616 -0.02201429
0.051795453 0.035265498 -0.0785005 -0.042787746 0.0696623 -0.043441214 -0.08440057 -0.04383296
0.046495385 -0.03778959 0.0481542 -0.007239449 -0.09408456 0.029262962 -0.050115436 -0.06555939
-0.06592002 0.01234113 -0.055763334 0.058952052 -0.03319495 0.06780063 0.033907965 -0.016953906
0.020935502 0.09465939 0.0037443864 -0.030880552 0.04161566 -0.0067882836 0.049772695 0.022500774
-0.027053015 -0.090161815 -0.013871449 -0.04912289 -0.038598817 0.061486 -0.083958164 0.019460503
0.033295646 0.037147064 0.041949492 0.013745017 0.026277736 0.011561828 -0.06372104 -0.059886433
-0.09543026 0.058905803 -0.044179026 -0.032152675 0.06831188 -0.0032526422 0.009434201 0.07273305
-0.09052985 0.021095896 0.03185989 -0.060366224 0.04868285 -0.054411802 0.005000742 0.040780485
-0.09309251 -0.06917241 0.046121337 0.013635073 -0.07480068 -0.069043025 0.058877114 0.06347256
0.06797689 -0.017212706 -0.023818702 0.024880255 -0.060435027 0.036227267 0.0067489683 0.07585674
0.023660487 -0.053615585 0.06946656 -0.015528879 -0.052475274 -0.005248906 0.018660221 0.039221786
-0.032058436 -0.014885283 0.07472681 0.049469884 0.033188216 -0.017139219 0.07731022 -0.07180623
0.06607836 -0.035706792 -0.021262418 -0.05237532 -0.0143793365 -0.031414226 -0.0871271 -0.0015384821
0.051900793 0.009665501 -0.03523204 -0.021001516 -0.02582729 -0.0106574325 0.054825105 -0.053505003
-0.029068239 0.07556222 0.004741904 -0.058323625 0.085727945 0.047803693 -0.0893274 -0.0691715
0.04738809 0.009303188 0.05212518 0.012868125 0.056676507 0.013284249 0.020912116 -0.07954052
-0.05281154 -0.0019073391 -0.03619709 0.05904183 -0.03725522 0.051435184 -0.0706017 0.008206615
-0.1614782 0.041076653 -0.06921794 0.061619096 0.023269063 -0.13921621 -0.031305026 0.0068275756
-0.08921996 0.08120465 0.054688387 -0.080821685 -0.070094354 0.034567453 0.031796817 0.05678221
0.021377025 0.027724644 -0.0003640972 0.046669394 0.067010805 -0.049175646 0.070690036 0.076577224
0.04277277 -0.06033167 -0.02563351 -0.09284594 -0.06945647 0.03666129 0.010832258 -0.0022877262
-0.07670937 -0.06630326 0.053447373 0.08408866 -0.0755836 0.054163508 -0.08682516 -0.08635057

bias f4 [4]
00000000: 0967 293c 94ca a2bd 80b7 9cbd 692b 96bc
0.010339507 -0.07948795 -0.07652187 -0.018331246

exp_avg f4 [128, 15]
00000000: acc2 ba3b 311d 3f3e 6de2 043e 0139 383e
00000010: 0000 0000 311d 3f3e 311d 3f3e d28b d43f
00000020: 40ef 7a3c 0000 0000 4cda 0d40 849d 723f
00000030: e755 0f3f d724 023d 489c ffc0 6b08 28bc
00000040: e7f2 31be 2a56 d9bd 180f 28be 0000 0000
00000050: e7f2 31be e7f2 31be 0027 8fbf db1c 383d
00000060: 0000 0000 fb79 f3bf bd17 e9c0 3076 05bf
00000070: 4c01 9f3b f79e e6c0 0000 0000 0000 0000
00000080: 0000 0000 0000 0000 0000 0000 0000 0000
00000090: 0000 0000 0000 0000 0000 0000 0000 0000
000000a0: 0000 0000 0000 0000 0000 0000 0000 0000
000000b0: 0000 0000 257d 55ba 7602 ddbc a2f7 aabc
000000c0: ac32 d2bc 0000 0000 7602 ddbc 7602 ddbc
000000d0: 6726 75be 6ce1 4fbb 0000 0000 8e7f 78be
000000e0: cd94 94c0 d7c1 a5bd 0f19 05bc 91b6 19bf
000000f0: da6e c7bd c092 1bc0 0c9a ccbf 71aa 15c0
00000100: 0000 0000 c092 1bc0 c092 1bc0 2097 a5c1
00000110: 4a04 133d 0000 0000 e21b e1c1 c537 2dc2
00000120: 1e5c e9c0 8468 44be a9c0 a641 78d1 d1bc
00000130: 5362 1bbf db6a c7be 23dd 15bf 0000 0000
00000140: 5362 1bbf 5362 1bbf e5ec a9c0 13bf ad3c
00000150: 0000 0000 2062 e0c0 b5b9 9ac1 8113 e9bf
00000160: 826b 82bd 0898 b940 0000 0000 0000 0000
00000170: 0000 0000 0000 0000 0000 0000 0000 0000
00000180: 0000 0000 0000 0000 0000 0000 0000 0000
00000190: 0000 0000 0000 0000 0000 0000 0000 0000
000001a0: 0000 0000 b354 8cbc ec20 65be d7ef 88bd
000001b0: 4a9c 5abe 0000 0000 ec20 65be ec20 65be
000001c0: 524a 9abf 1a2c 313e 0000 0000 4c7d 1cc0
000001d0: 0044 5841 b2d8 2bbf b797 fdbd 8e24 2d42
000001e0: 4f18 d1bc 3e3f 0ebf 97f0 afbe e47f 08bf
000001f0: 0000 0000 3e3f 0ebf 3e3f 0ebf 3dd9 8ec0
00000200: b5b1 773d 0000 0000 4537 cfc0 403c 88c1
00000210: df5e d5bf 30be cfbb 3007 ae3f 54d9 baba
00000220: 3973 9bbd b8c0 8bbd 010c 94bd 0000 0000
00000230: 3973 9bbd 3973 9bbd 3f7d f3be 1cd1 90bd
00000240: 0000 0000 5377 4ebf 4cdc 87bd d62c 69be
00000250: 8957 e6bc bde0 d53e 0000 0000 0000 0000
00000260: 0000 0000 0000 0000 0000 0000 0000 0000
00000270: 0000 0000 0000 0000 0000 0000 0000 0000
00000280: 0000 0000 0000 0000 0000 0000 0000 0000
00000290: 0000 0000 5116 7e30 fc0c 3932 3126 fa31
000002a0: fa57 3332 0000 0000 fc0c 3932 fc0c 3932
000002b0: 1f0f b033 001f d030 0000 0000 ac77 2e34
000002c0: 0000 0000 bcc9 0a33 0000 0000 9058 0336
000002d0: 6901 28bb f100 0cbc ca67 0abc 5d8d 0abc
000002e0: 0000 0000 f100 0cbc f100 0cbc 570c 98bd
000002f0: 2951 a3b9 0000 0000 e06d d1bc 50c6 dbb6
00000300: 6a01 d2bc 0000 0000 225d 0fb7 13a2 99bc
00000310: ca0c d2be fa5e 84be b152 c9be 0000 0000
00000320: ca0c d2be ca0c d2be 5431 4fc0 bf71 4e3d
00000330: 0000 0000 1cb1 99c0 5a24 31c1 9889 9dbf
00000340: 49e4 623c cc17 1dc0 4024 d63b d290 3f3e
00000350: 0825 1a3e 4dce 383e 0000 0000 d290 3f3e
00000360: d290 3f3e 3873 cf3f 7ffd 053d 0000 0000
00000370: 6c3f 1840 8160 8440 9dac 0f3f e0d2 85bd
00000380: 7947 da40 4e97 19bc b6a4 f4bd eaa7 86bc
00000390: 7ed5 eabd 0000 0000 b6a4 f4bd b6a4 f4bd
000003a0: 26b4 2fbf 9ebc 0e3e 0000 0000 71a0 adbf
000003b0: 0edb 9641 8c7b b7be 203b 43bd 9ff2 2742
000003c0: bef3 5a3b 8d7e 4f3e c0cf 1a3e 28e9 463e
000003d0: 0000 0000 8d7e 4f3e 8d7e 4f3e f368 dd3f
000003e0: 056f 373d 0000 0000 b765 1b40 481b 2640
000003f0: e99e 1b3f 58bb 39bc 54fb f43e dda9 babc
0.005699476 0.1866348 0.12977 0.17990495 0.0 0.1866348 0.1866348 1.660517
0.015315831 0.0 2.2164488 0.947716 0.5599045 0.031773414 -7.9878273 -0.010255913
-0.17377816 -0.106121376 -0.16412008 0.0 -0.17377816 -0.17377816 -1.1183777 0.044949394
0.0 -1.90216 -7.2841477 -0.52133465 0.0048524495 -7.206905 0.0 0.0
0.0 0.0 0.0 0.0 0.0 0.0 0.0 0.0
0.0 0.0 0.0 0.0 0.0 -0.0008143953 -0.026978713 -0.020870034
-0.025658928 0.0 -0.026978713 -0.026978713 -0.2394043 -0.0031720055 0.0 -0.24267408
-4.643164 -0.08093613 -0.00812365 -0.600442 -0.0973794 -2.430832 -1.5984511 -2.338528
0.0 -2.430832 -2.430832 -20.698792 0.035892762 0.0 -28.138615 -43.304462
-7.292495 -0.19180495 20.844072 -0.025612578 -0.60696906 -0.38948712 -0.5854055 0.0
-0.60696906 -0.60696906 -5.310168 0.021209275 0.0 -7.011978 -19.340677 -1.8209077
-0.06368162 5.7998085 0.0 0.0 0.0 0.0 0.0 0.0
0.0 0.0 0.0 0.0 0.0 0.0 0.0 0.0
0.0 -0.017130231 -0.2237584 -0.06686371 -0.21348682 0.0 -0.2237584 -0.2237584
-1.2053931 0.1730198 0.0 -2.4451475 13.516602 -0.67127526 -0.12382453 43.285698
-0.025524287 -0.5556525 -0.34363243 -0.53320146 0.0 -0.5556525 -0.5556525 -4.4640183
0.06047221 0.0 -6.475497 -17.029419 -1.6669577 -0.006339811 1.3595943 -0.0014255443
-0.07590336 -0.068238676 -0.07228852 0.0 -0.07590336 -0.07590336 -0.47556493 -0.070711344
0.0 -0.80650824 -0.06633815 -0.2277101 -0.028117912 0.41773024 0.0 0.0
0.0 0.0 0.0 0.0 0.0 0.0 0.0 0.0
0.0 0.0 0.0 0.0 0.0 9.2436375e-10 1.077137e-08 7.2802995e-09
1.0439175e-08 0.0 1.077137e-08 1.077137e-08 8.198389e-08 1.5142803e-09 0.0 1.6248549e-07
0.0 3.2314105e-08 0.0 1.9572071e-06 -0.0025635606 -0.008545146 -0.008447597 -0.008456555
0.0 -0.008545146 -0.008545146 -0.07424229 -0.00031150252 0.0 -0.025565088 -6.549795e-06
-0.02563544 0.0 -8.545148e-06 -0.01875404 -0.41025382 -0.2585371 -0.393209 0.0
-0.41025382 -0.41025382 -3.2373857 0.050401445 0.0 -4.80287 -11.071375 -1.2307615
0.013848373 -2.4545774 0.006535083 0.18707588 0.15053189 0.18047448 0.0 0.18707588
0.18707588 1.6207037 0.032712456 0.0 2.378871 4.1367803 0.5612276 -0.06534362
6.8212247 -0.009374453 -0.119454786 -0.01643749 -0.11466502 0.0 -0.119454786 -0.119454786
-0.6863426 0.13939139 0.0 -1.3564588 18.85696 -0.35836446 -0.047663808 41.986935
0.0033409442 0.20263119 0.15118313 0.1942488 0.0 0.20263119 0.20263119 1.7297653
0.04478361 0.0 2.4280832 2.595415 0.6078935 -0.01133617 0.47847998 -0.022786075

exp_avg_sq f4 [128, 15]
00000000: 1d42 c438 acc8 313d 0a46 cb3c 85a0 263d
00000010: 0000 0000 acc8 313d acc8 313d a96e 8140
00000020: cb13 193b 0000 0000 0493 a740 9d4c b844
00000030: b701 c83e bd29 b23b f104 3a44 65c7 a538
00000040: 6a49 243d 9e97 b43c bc32 193d 0000 0000
00000050: 6a49 243d 6a49 243d f61f 6240 c98d 0b3b
00000060: 0000 0000 a462 9440 ab27 6e44 9bd2 b83e
00000070: f818 993b 78e1 1744 0000 0000 0000 0000
00000080: 0000 0000 0000 0000 0000 0000 0000 0000
00000090: 0000 0000 0000 0000 0000 0000 0000 0000
000000a0: 0000 0000 0000 0000 0000 0000 0000 0000
000000b0: 0000 0000 d279 5536 9310 013b c9c7 973a
000000c0: 768a f13a 0000 0000 9310 013b 9310 013b
000000d0: 8f5d 433e 1c83 f338 0000 0000 bbdb 713e
000000e0: ac66 2a43 a232 913c 817e a639 ac4d dd41
000000f0: 6c32 8a3a 46a4 353f 3c5f b33e 7685 293f
00000100: 0000 0000 46a4 353f 46a4 353f 0582 6642
00000110: af05 933c 0000 0000 0f86 b842 34ec 9445
00000120: c658 cc40 e7ca 5b3c 5d5a ec44 f296 f639
00000130: 2e84 8d3e 91d8 153e 6eff 843e 0000 0000
00000140: 2e84 8d3e 2e84 8d3e fdd7 cc41 d5de 5d3c
00000150: 0000 0000 efee 0742 24a1 1945 aa34 1f40
00000160: b226 073c effa 2145 0000 0000 0000 0000
00000170: 0000 0000 0000 0000 0000 0000 0000 0000
00000180: 0000 0000 0000 0000 0000 0000 0000 0000
00000190: 0000 0000 0000 0000 0000 0000 0000 0000
000001a0: 0000 0000 7ab4 9439 102a 293e 88c2 ab3d
000001b0: b5a8 1e3e 0000 0000 102a 293e 102a 293e
000001c0: e9b8 6a41 2f3c 193c 0000 0000 9719 9a41
000001d0: f73e ec42 524f be3f 29e5 0b3c 10ac d744
000001e0: f215 af3a 48d7 3b3f 58ad cb3e bf69 303f
000001f0: 0000 0000 48d7 3b3f 48d7 3b3f 8fc8 8742
00000200: b465 283d 0000 0000 640f b142 e5be b345
00000210: 3252 d340 aa15 0c3d 3d09 1046 e367 d535
00000220: d1ea cf3a 0fe7 7c3a 88fa c63a 0000 0000
00000230: d1ea cf3a d1ea cf3a 3f92 8e3e a349 9339
00000240: 0000 0000 0f59 2f3e 88d3 e742 2ce8 693c
00000250: 5a18 5538 b7eb 2340 0000 0000 0000 0000
00000260: 0000 0000 0000 0000 0000 0000 0000 0000
00000270: 0000 0000 0000 0000 0000 0000 0000 0000
00000280: 0000 0000 0000 0000 0000 0000 0000 0000
00000290: 0000 0000 3404 f532 e33e 8e36 6b0a 0236
000002a0: 8c3c 8536 0000 0000 e33e 8e36 e33e 8e36
000002b0: 07ac 8939 43e9 bd33 0000 0000 3075 633a
000002c0: 0000 0000 c106 2038 0000 0000 d7c5 2c3e
000002d0: 02da 9e35 fa2a 8937 8fe0 7937 88b5 8437
000002e0: 0000 0000 fa2a 8937 fa2a 8937 8e63 dd3a
000002f0: 7c24 ad32 0000 0000 37bb 0c39 b578 a42c
00000300: 5c50 1a39 0000 0000 b8d4 8f2d 93c9 0239
00000310: 6197 913d 497f 193d d51d 883d 0000 0000
00000320: 6197 913d 6197 913d 7f63 ca40 a52a 353b
00000330: 0000 0000 c1fc 0f41 91e8 2d44 50ca 233f
00000340: 4d66 a03b d2bb 4244 df46 3837 03ff f43b
00000350: f55a 973b b0a6 e43b 0000 0000 03ff f43b
00000360: 03ff f43b 196c 223f 49a1 bd39 0000 0000
00000370: b1f2 923f 1550 9243 71cf 893d 3d54 853a
00000380: 0248 3642 b76d 1739 f18f 9f3d 939f 233d
00000390: a600 963d 0000 0000 f18f 9f3d f18f 9f3d
000003a0: c02e ec40 9910 823b 0000 0000 22d0 1241
000003b0: 3e1a ca42 f381 333f 21f0 613b 7ccb 7444
000003c0: 2727 7a37 dd47 333c 1295 ca3b d5de 263c
000003d0: 0000 0000 dd47 333c dd47 333c 6cdd 693f
000003e0: 9532 1d3a 0000 0000 0f7f bf3f e574 ab43
000003f0: e2b0 c93d c0d9 893a 7117 0443 e0c9 ae39
9.358323e-05 0.043404266 0.02481367 0.040680427 0.0 0.043404266 0.043404266 4.0447583
0.0023357745 0.0 5.2366962 1474.3942 0.39063808 0.0054371045 744.0772 7.904953e-05
0.040109076 0.022044953 0.0374019 0.0 0.040109076 0.040109076 3.5332007 0.0021294227
0.0 4.637041 952.6198 0.3609818 0.004672166 607.52295 0.0 0.0
0.0 0.0 0.0 0.0 0.0 0.0 0.0 0.0
0.0 0.0 0.0 0.0 0.0 3.1810382e-06 0.0019693717 0.0011579926
0.0018428105 0.0 0.0019693717 0.0019693717 0.19078659 0.00011611564 0.0 0.23618977
170.40106 0.017724339 0.0003175624 27.662926 0.0010543591 0.70953786 0.35033596 0.6621927
0.0 0.70953786 0.70953786 57.626972 0.017947046 0.0 92.26183 4765.5254
6.3858366 0.013415075 1890.8239 0.0004703324 0.27639908 0.14633395 0.25976127 0.0
0.27639908 0.27639908 25.605463 0.013541897 0.0 33.983334 2458.0713 2.4875894
0.008248972 2591.6833 0.0 0.0 0.0 0.0 0.0 0.0
0.0 0.0 0.0 0.0 0.0 0.0 0.0 0.0
0.0 0.00028363225 0.16519952 0.08386713 0.15494044 0.0 0.16519952 0.16519952
14.670144 0.009352728 0.0 19.262495 118.12298 1.4867957 0.008538523 1725.377
0.0013357981 0.7337537 0.39780688 0.68911356 0.0 0.7337537 0.7337537 67.891716
0.041112617 0.0 88.53006 5751.862 6.6037836 0.034200348 9218.31 1.5899972e-06
0.0015862827 0.00096474675 0.0015180865 0.0 0.0015862827 0.0015862827 0.27845952 0.00028092889
0.0 0.17123817 115.91315 0.0142765455 5.0805837e-05 2.561262 0.0 0.0
0.0 0.0 0.0 0.0 0.0 0.0 0.0 0.0
0.0 0.0 0.0 0.0 0.0 2.8523665e-08 4.2392508e-06 1.9377574e-06
3.9707575e-06 0.0 4.2392508e-06 4.2392508e-06 0.00026258847 8.8434284e-08 0.0 0.0008676825
0.0 3.8153263e-05 0.0 0.16872345 1.1835366e-06 1.6351685e-05 1.4893841e-05 1.5820158e-05
0.0 1.6351685e-05 1.6351685e-05 0.0016890632 2.0156442e-08 0.0 0.00013421183 4.6745615e-12
0.0001471652 0.0 1.6351684e-11 0.00012472858 0.07108951 0.037474904 0.06646315 0.0
0.07108951 0.07108951 6.3246455 0.0027643826 0.0 8.9992075 695.63385 0.6398058
0.0048950077 778.9347 1.0983756e-05 0.007476689 0.004618997 0.0069778785 0.0 0.007476689
0.007476689 0.63446194 0.00036169056 0.0 1.1480314 292.62564 0.067290194 0.00101722
45.57032 0.00014441354 0.077911265 0.039947104 0.073243424 0.0 0.077911265 0.077911265
7.380707 0.0039692638 0.0 9.175814 101.051254 0.7012016 0.0034475403 979.17944
1.4910277e-05 0.0109424265 0.0061823213 0.010184963 0.0 0.0109424265 0.0109424265 0.9135349
0.0005996612 0.0 1.496065 342.91324 0.09848191 0.0010517165 132.09157 0.00033338275

exp_avg f4 [128]
00000000: 321d 3f3e e9f2 31be 0000 0000 7602 ddbc
00000010: c092 1bc0 5262 1bbf 0000 0000 ea20 65be
00000020: 3e3f 0ebf 3c73 9bbd 0000 0000 fc0c 3932
00000030: f200 0cbc cb0c d2be d190 3f3e b6a4 f4bd
00000040: 8d7e 4f3e 29af 00bf 28b7 ec3c 7aff fd3d
00000050: 9d72 853d f711 b7bf 08ae acbd bbc7 07bd
00000060: 2e72 7fbe 6ff8 39bd 0000 0000 4054 35bd
00000070: 7ce0 7d3e e42e 59bc 60e1 dcbd 0000 0000
00000080: 8e43 afbd debe 52bf c71a 99be 22a4 b1bb
00000090: 70d3 6ebf 7ce7 d53e 6e5f 84bf 882a 6bbf
000000a0: c03d 7e3c 2d39 a3be 0000 0000 9709 05bf
000000b0: 4da4 8dbf f3be 923d 36d5 e2bc 0000 0000
000000c0: 7e16 64be c932 52bf 9cf9 c63c 0846 a5be
000000d0: 0000 0000 4de5 b6be e8d7 9bbe 0000 0000
000000e0: 62bd 9cba c8d1 353e 9633 80bf 733a 56be
000000f0: b729 89bf 6a6e 5abc 0a1a 7ebd 2a00 3abc
00000100: 5744 73bf c9ff 13bc 0000 0000 aa01 56be
00000110: 9ee1 83be 0642 443d 7221 9d3b c7b0 88bf
00000120: 2d40 f7bf 0000 0000 1348 abbe d7c1 cabe
00000130: 42f1 123e c2f9 86bf 730f d13c 4c17 80bf
00000140: a98d efbd 778a abbe 0000 0000 9b07 d2be
00000150: 2ff5 09be 8ead 033e 7f19 28bf d65f 02bc
00000160: 06b0 17bf 0000 0000 0b7c 72bf 07a0 d3be
00000170: 00c4 4dbc e404 433e 2abb 1dbf 0000 0000
00000180: cfea 483e a8fa 9ebe ec83 dbbe 663e 40be
00000190: 0000 0000 8960 e9bd 1c8c 49bf 3452 c7bd
000001a0: 3eb5 073d 1e80 3f36 b29e 48bf 8a4e 0ebe
000001b0: 2a9c 973d c6d9 e8be 24a7 5abb c856 cbbe
000001c0: be8a be3b 1ef7 9cbc 31c0 e6be 8cfd f1be
000001d0: 959f 5fbf b678 03ba e7ad abbd ceae 823c
000001e0: 0000 0000 8dbb 27bb bd83 1f3e 9a83 9a3d
000001f0: 9ec0 32bf fbc2 fe3c 0000 0000 3f97 72bf
0.18663481 -0.17377819 0.0 -0.026978713 -2.430832 -0.606969 0.0 -0.22375837
-0.5556525 -0.075903386 0.0 1.077137e-08 -0.008545147 -0.41025385 0.18707587 -0.119454786
0.20263119 -0.50267273 0.02889593 0.12402244 0.065160014 -1.4302357 -0.08431631 -0.033149462
-0.249459 -0.04540294 0.0 -0.0442698 0.24792665 -0.0132558085 -0.10785174 0.0
-0.08557807 -0.8232249 -0.29903242 -0.0054211775 -0.9329138 0.4177817 -1.0341623 -0.9186177
0.015517652 -0.3187956 0.0 -0.5196776 -1.1065766 0.07165327 -0.027689558 0.0
-0.22274205 -0.8210874 0.024288945 -0.32279992 0.0 -0.35721818 -0.3043816 0.0
-0.0011958296 0.17755806 -1.0015743 -0.20920734 -1.0715855 -0.013331989 -0.06203655 -0.011352578
-0.95026153 -0.009033152 0.0 -0.20899072 -0.2575807 0.047914527 0.0047952468 -1.0678948
-1.931646 0.0 -0.33453426 -0.39601013 0.14349845 -1.054497 0.025520062 -1.000711
-0.116969414 -0.33504078 0.0 -0.41021428 -0.13472436 0.12859175 -0.65663904 -0.007957419
-0.59252965 0.0 -0.94720525 -0.4133303 -0.012558937 0.19044834 -0.61613715 0.0
0.19620822 -0.3105061 -0.42874086 -0.18773803 0.0 -0.11395366 -0.78729415 -0.09732476
0.03313183 2.8535792e-06 -0.7836715 -0.13897148 0.07402833 -0.45478648 -0.0033363784 -0.39714646
0.005814879 -0.019160803 -0.45068505 -0.47263753 -0.8735288 -0.0005015241 -0.083827786 0.015952494
0.0 -0.0025593967 0.15577598 0.07544632 -0.6982516 0.031098833 0.0 -0.94762033

exp_avg_sq f4 [128]
00000000: acc8 313d 6a49 243d 0000 0000 9310 013b
00000010: 46a4 353f 2e84 8d3e 0000 0000 112a 293e
00000020: 49d7 3b3f d0ea cf3a 0000 0000 e33e 8e36
00000030: fa2a 8937 6197 913d 03ff f43b f18f 9f3d
00000040: dc47 333c a54e 593e 9796 013b 922e 953b
00000050: 0a4b a73c b0f6 be3f 4f1a 403c 6dd6 193d
00000060: f673 5f3d de4e f43c 0000 0000 4de5 e73a
00000070: 1fd3 cc3c 19a7 ca37 672f 093d 0000 0000
00000080: 913a 423a 727b bf3e 7f12 293d 658a b33c
00000090: d952 3b3f 46e1 2e3d 9b76 2c3f d2af 173f
000000a0: 11ab 3e3d 9b9d 6c3e 0000 0000 044e cf3e
000000b0: f19d 7d3f 9434 af3a 67f3 503d 0000 0000
000000c0: 9a1d a43d b7b5 423f 58b3 c33b d355 c43d
000000d0: 0000 0000 b790 8a3e a252 d63c 0000 0000
000000e0: 4a4c c139 d250 913c 14e7 b93e 89fa b73d
000000f0: b03a 543f 6c83 ca38 79f5 853c 458c 2c3b
00000100: 5b75 4b3f 9c40 c137 0000 0000 ec92 8b3d
00000110: 3ba8 df3d 73e3 653c 5eef 7d38 046c 073f
00000120: fa6b 0d3f 0000 0000 eeb9 2e3e 4a2b 0a3e
00000130: c65d 9e3b 5386 1a3f ec21 903b 395b a73f
00000140: 659a fe39 be87 5c3e 0000 0000 09b7 d63d
00000150: 27af 103d d1a3 d33b 1334 0d3f 910a 8537
00000160: 601a e23e 0000 0000 62e6 813e 8478 eb3d
00000170: 99fa 2a38 c416 f53b 88c5 803e 0000 0000
00000180: 5c44 203c 663d 853e b661 2f3e 69d1 0a3e
00000190: 0000 0000 c526 703c 04cf 263f 563f e93c
000001a0: 4c97 3e3a 8d51 c33c 017e 213f 262a 283d
000001b0: 2766 733d d2ab e73d 053b 7c37 cd60 b23e
000001c0: 2a66 9539 0619 bb3d dc21 383e ac67 6e3e
000001d0: e0fd ca3e af62 b538 0f92 553d 462d a83c
000001e0: 0000 0000 fb94 3d37 327b c53b 5aaf 933b
000001f0: ac7e c73e e33b a53b 0000 0000 4667 003f
0.043404266 0.040109076 0.0 0.0019693717 0.70953786 0.27639908 0.0 0.16519953
0.73375374 0.0015862826 0.0 4.2392508e-06 1.6351685e-05 0.07108951 0.007476689 0.077911265
0.010942426 0.21221407 0.0019773596 0.0045526708 0.020421524 1.4919033 0.011725022 0.037558008
0.05455395 0.029822763 0.0 0.0017692238 0.025003014 2.4158087e-05 0.033492472 0.0
0.000740924 0.3739887 0.041277405 0.021916578 0.7317329 0.042695306 0.6736848 0.59252656
0.04654986 0.23106997 0.0 0.4048921 0.99069124 0.001336711 0.051013377 0.0
0.080134585 0.76058525 0.005972307 0.09586682 0.0 0.27063534 0.02616245 0.0
0.00036868668 0.017738733 0.3630911 0.08983333 0.8290205 9.65659e-05 0.016352402 0.0026328724
0.79475945 2.3037479e-05 0.0 0.068151325 0.10920759 0.014031279 6.054283e-05 0.52899194
0.55242884 0.0 0.17063114 0.13493076 0.004832956 0.6036121 0.004398575 1.3074714
0.00048561688 0.21536157 0.0 0.1048413 0.03532329 0.0064587374 0.55157584 1.5859756e-05
0.44160748 0.0 0.2537108 0.11497596 4.0764546e-05 0.0074795205 0.25150704 0.0
0.009781923 0.26023406 0.17127118 0.13556446 0.0 0.014657681 0.6515963 0.028472584
0.000727047 0.023842597 0.6308289 0.04105582 0.059423592 0.11312069 1.5034112e-05 0.34839478
0.00028495613 0.09135632 0.17981666 0.23281735 0.39646816 8.649134e-05 0.052141245 0.0205294
0.0 1.1299965e-05 0.006026649 0.0045069875 0.3896383 0.0050425394 0.0 0.5015758
