models/cache_agent/5/D3QN_q_target.pth (torch, 80271 bytes, 7 tensors)

weight f4 [128, 15]
000000 65 9a 05 3f 32 7e 16 c0 1b 66 e6 c0 64 db 04 c1
       0.5218871 -2.3514524 -7.199964 -8.303562
000010 df 45 92 3f 4b d2 72 3f 45 8d 4d 3f 40 33 df 3f
       1.1427573 0.9485213 0.80293685 1.7437515
000020 59 cf 09 c0 38 ec 0e be 06 38 a4 3f a7 6a 6a 3e
       -2.1532805 -0.13957298 1.2829597 0.22892247
000030 d2 fb 38 40 9a db f3 3e 4a 1e a9 3c 63 05 07 c0
       2.89037 0.4762848 0.020644326 -2.1097038
000040 54 71 06 3f ee 27 5a bf f2 8a 81 3f fc 43 a7 bd
       0.52516675 -0.8521718 1.0120528 -0.08167264
000050 be 19 aa bf c8 82 96 3e 3e d9 4a 3f 7e f5 4f 40
       -1.3289106 0.29396653 0.79237735 3.2493587
000060 8f ca 61 be 6c bf c6 3e da 78 99 3d ca 5c ff 3e
       -0.22049926 0.38817918 0.07493754 0.4987548
000070 fe 0b b0 3f 45 5b c4 be 25 3c 92 bd 8b f0 51 c0
       1.375366 -0.38350883 -0.07140378 -3.2803066
000080 13 7a 00 c1 5b 5c 09 c1 2e 2d 5c 3c 27 d6 43 3e
       -8.029803 -8.585048 0.013438506 0.19124661
000090 cc 7c 73 bf d7 1d bf 3e ee 4e 88 c0 00 e0 a4 ba
       -0.951123 0.37327453 -4.259635 -0.0012578964
0000a0 b3 46 c9 3e 2d 42 5c 3e d1 15 d4 3f 29 9b 40 bf
       0.39311752 0.21509619 1.6569158 -0.75236756
0000b0 75 d8 8d 3b 3f 9f a9 3e e5 b9 1a c0 0e e4 de c0
       0.004328782 0.33129308 -2.417596 -6.9653387
0000c0 12 df 05 c1 c7 b0 9c 3f 55 b4 9a 3f 80 98 54 3f
       -8.366961 1.2241448 1.2086283 0.83045197
0000d0 b0 2b d8 3f 1a e7 06 c0 ac 6f 58 be 1e c8 b7 3f
       1.6888332 -2.1078553 -0.2113635 1.4357946
0000e0 dc 21 15 3d 00 a2 32 40 5c f4 26 3f 6c 48 a0 3e
       0.036409244 2.7911377 0.6521661 0.31305254
0000f0 1b c5 b4 bf 7b 4c f6 3e 63 20 c3 be d3 e8 83 3f
       -1.4122652 0.48105225 -0.38110647 1.0305427
000100 a2 f2 d4 be 3e c6 3f bf 56 fb 9f 3e 87 c7 69 3f
       -0.41591364 -0.7491187 0.31246442 0.9132008
000110 8c f5 63 40 00 6f 32 bb 61 40 3a 3f 6e e9 37 bc
       3.561862 -0.0027226806 0.72754484 -0.011225088
000120 2c 59 a6 3e b2 e1 a9 3f 34 64 82 be 75 b4 8c bf
       0.32489908 1.3272002 -0.25467074 -1.0992571
000130 ba 3b 6f 3f dc 2f b9 3d 33 75 a8 3f ba eb 57 3e
       0.9345051 0.090423316 1.3160766 0.21086016
000140 7a 4d 8a bf 97 b9 9e 3e db 36 7f 3f 2b 63 61 40
       -1.0804894 0.3100097 0.9969308 3.5216777
000150 61 71 81 be 4c cd dd 3e ba cd ff bb aa 60 02 3f
       -0.25281814 0.43320692 -0.007806507 0.5092875
000160 fa bf c7 3f 55 89 67 be 6f 18 2b be 49 8c 48 be
       1.5605462 -0.22610982 -0.1670854 -0.19584765
000170 15 36 15 3e fb ea 6b be 02 3d 53 be 37 2d 30 3d
       0.14571412 -0.23038857 -0.20628741 0.04301187
000180 20 4f 44 3e 16 a6 93 be b1 2c 4a bd ec 5c 62 3e
       0.19170809 -0.2883765 -0.049359027 0.2210576
000190 0d 89 06 be 48 db bf ba d6 39 a4 3d dd 14 8a be
       -0.13138218 -0.0014637494 0.08018844 -0.26969042
0001a0 7e 0f 9a be 7b b5 0c c0 a5 64 9e 3f 97 10 4d bf
       -0.30089945 -2.1985767 1.2374464 -0.8010344
0001b0 91 f9 ae 3f e2 d8 8d 3f a1 61 d4 bf 62 66 75 3e
       1.3669912 1.1081812 -1.6592294 0.23964837
0001c0 32 03 fd 3e 86 23 70 40 dc 4e 37 3e 4d 8b e6 3c
       0.494165 3.7521682 0.17901176 0.028142596
0001d0 a5 22 96 bb a4 16 91 3e e3 62 50 3f 20 56 ba bd
       -0.0045817667 0.28337586 0.8140089 -0.09098458
0001e0 c9 87 da 3e 50 f5 95 bf 45 98 e7 c0 ef 19 ef c0
       0.4268172 -1.1715488 -7.2373376 -7.4719157
0001f0 3e de 8c bf a8 e5 90 c0 cb 21 37 c0 3e a7 3d 3d
       -1.1005323 -4.528034 -2.8614376 0.046302073
000200 a8 f5 67 bf b6 ee 1d be af 49 1e bf 7d 72 95 3e
       -0.90609217 -0.15423092 -0.6183118 0.2918891
000210 53 ed 2a 3e 3c 3a cd bf 11 e9 88 ba 0b d7 31 bf
       0.16692095 -1.6033397 -0.0010445436 -0.69468755
000220 96 ae 0d 40 df 3b ed 40 c3 7d f9 40 bd 53 dc bf
       2.2137809 7.4135585 7.796602 -1.7213055
000230 08 c8 3e bf e3 b4 f7 bd 7f f7 a5 bf d3 d2 12 40
       -0.74523973 -0.12095048 -1.2966155 2.2941177
000240 f2 40 14 3e 8c 0c 89 bf 2d d1 81 bd 35 51 38 c0
       0.144779 -1.0706954 -0.06338725 -2.8799565
000250 31 4a 23 bf 81 b9 11 3e 96 08 ce bf a2 cf 2a 3f
       -0.6378508 0.1423092 -1.609637 0.6672307
000260 ac 56 06 bf 74 f6 5c 3f a2 15 83 be 0a 62 6a bf
       -0.52476 0.8631356 -0.25602442 -0.91555846
000270 b5 ba 9d 3e a6 81 59 3f 29 08 5b 40 38 2a a9 bc
       0.3080651 0.8496345 3.422373 -0.020650014
000280 4b fb 2e 3f 07 c8 a9 bb 11 68 82 3e ce 0f 85 3f
       0.6835219 -0.005181316 0.2547002 1.0395448
000290 fe 5c 73 be ee 7f 9a 3f fb 70 43 3f c7 b5 e8 3f
       -0.23765942 1.2070291 0.7634427 1.8180474
0002a0 bc a5 48 40 e0 8c 36 40 9d 72 aa 3e 56 ae 09 3f
       3.1351156 2.8523483 0.33290568 0.5378164
0002b0 6d 3b 03 3f 16 ce 26 3f fe d3 6e 3e 68 40 07 bf
       0.5126255 0.6515821 0.23323056 -0.5283265
0002c0 6d a6 8b 3e ae 63 0d 3f 6a 80 81 3f 9e 24 15 be
       0.2727541 0.55230224 1.0117314 -0.1456475
0002d0 2b d8 ad 3e 4b 5c a6 bf bd ed cd c0 28 d5 c9 c0
       0.33953986 -1.2996916 -6.435271 -6.30727
0002e0 8a 61 e7 bf 5e 7f 51 c0 1e f8 f1 bf f2 c3 b4 3e
       -1.8076642 -3.2733989 -1.8903844 0.35305744
0002f0 f7 c3 41 bf d8 25 44 3d a1 5e ae bd b5 46 d5 3e
       -0.75689644 0.047887653 -0.08514143 0.41655508
000300 2b c2 f5 3e 90 e2 2e bf 93 e7 90 bc d5 13 ae bf
       0.479997 -0.68314457 -0.017688548 -1.3599802
000310 45 8f 3e c0 96 06 c9 c0 23 40 f6 c0 1a 5f 48 bf
       -2.9774945 -6.282054 -7.695329 -0.78270113
000320 33 dc af 3f 94 87 3c bf 0d 79 70 3f 12 ac 7b c0
       1.3739074 -0.73644376 0.9393471 -3.9323773
000330 b8 94 20 3e 8f 23 0a 3f 27 b3 a7 3e 74 ce ef 3f
       0.15681732 0.5396051 0.3275387 1.873488
000340 d7 e5 b0 bf c0 46 96 bb 83 70 b9 3e 09 5b 58 3f
       -1.3820142 -0.004586071 0.36218652 0.8451391
000350 80 68 b0 3f 78 f6 3e 40 4b 4d 52 40 81 fb e5 3e
       1.3781891 2.9837933 3.2859676 0.44918445
000360 b7 1e 67 3e fe c6 27 3f b5 77 13 3f 8e 2c 46 be
       0.2257031 0.65538013 0.57604533 -0.19352934
000370 d7 20 32 bf 00 17 ab 3e 07 09 c1 3e 95 92 50 3f
       -0.6958136 0.33415985 0.377022 0.81473666
000380 a3 a8 30 be 45 68 60 3e de 13 18 c0 ac 53 de c0
       -0.1725183 0.21914776 -2.3762126 -6.947714
000390 07 bc fa c0 b0 17 8a 3f d4 76 9a 3f 46 a3 82 3f
       -7.8354526 1.0788479 1.2067513 1.0206077
0003a0 2e 56 f1 3f e8 57 fc bf f0 7c 1f 3d 51 a6 c7 3f
       1.8854425 -1.9714327 0.03893751 1.5597631
0003b0 1b 6a 41 be 43 e2 4b 40 9c 1f 30 3f b1 6f 94 3e
       -0.18888132 3.185685 0.6879823 0.28991464
0003c0 1a 21 2e 3f be 1f 12 c0 e5 1c ee c0 00 b2 03 c1
       0.6801926 -2.2831874 -7.441027 -8.230957
0003d0 c5 99 c8 3f ab 6e a3 3f 23 a2 af 3f df ed e6 3f
       1.5671927 1.2768148 1.3721355 1.8041342
0003e0 3f dd 0f c0 ce 4c bb bd ff eb b0 3f 86 03 af be
       -2.2478788 -0.09145509 1.382202 -0.34182376
0003f0 ce 8b 55 40 f7 96 95 3f cc 9d 80 3d bf ec 94 3e
       3.336658 1.1686696 0.06280097 0.29086873

bias f4 [128]
000000 3d 78 31 40 15 c4 67 3e 4a 7d ed 3f ef 8c 4a 40
       2.7729638 0.22633393 1.855386 3.164852
000010 03 80 d8 3e ab e9 b9 3e 8b 0a 67 be 33 05 ef 3e
       0.42285165 0.36311087 -0.22562616 0.46683654
000020 8f e7 3f 3e 28 a9 2c c0 d8 de 25 3f 71 46 25 3e
       0.18740676 -2.6978245 0.6479316 0.16140153
000030 5f e8 54 3f a4 20 f6 3f 58 69 fe bd 99 be 47 40
       0.8316707 1.9228711 -0.124224365 3.1210082
000040 7f cb 42 40 7d a7 aa 3d 32 90 3a 40 ad d9 1f c0
       3.0436704 0.08332727 2.915051 -2.4976609
000050 d5 e4 20 c0 f0 76 5c 40 8d a3 9a 3f 02 6e 22 be
       -2.5139668 3.4447594 1.2081162 -0.15862277
000060 12 be 98 bf 00 43 db bb 41 16 1c c0 1d 7f 14 3f
       -1.1933005 -0.0066913366 -2.4388583 0.5800646
000070 5b 46 2e 3d 40 69 74 bf c9 cf ae ba 56 e4 d7 3e
       0.042547565 -0.954731 -0.0013337071 0.42166394
000080 ea 1f 25 c0 2a 38 81 bf 5e e7 24 c0 3e f6 82 3e
       -2.5800729 -1.0095265 -2.5766215 0.25578493
000090 91 f2 e5 3e a1 d7 04 bf 7d 3a 51 40 4e 4c 53 40
       0.44911626 -0.51891524 3.2691948 3.3015323
0000a0 b5 86 21 be e1 85 22 c0 2b f3 36 c0 e3 90 41 3e
       -0.15774043 -2.5394213 -2.8585918 0.18902926
0000b0 14 ff af bf 32 ab 97 be c9 87 58 40 82 2e 4c 40
       -1.3749719 -0.296228 3.3832877 3.1903386
0000c0 85 b1 50 40 14 c4 4a 40 cb 69 db 3c b4 c4 e0 bd
       3.260835 3.1682177 0.026783844 -0.10975018
0000d0 e2 86 d2 bd aa 2d 35 c0 0e 8f 46 40 16 a9 1a c0
       -0.10279633 -2.830912 3.1024814 -2.4165702
0000e0 d2 3b 3d 40 ee 2f 58 be 70 cb 4c 40 c4 67 3b c0
       2.9567761 -0.21112034 3.1999168 -2.9282084
0000f0 2d 26 26 c0 7d 4c a6 3e bc b9 44 bd a8 de 2f 40
       -2.59608 0.3248023 -0.048028693 2.7479649
000100 f4 fc 96 3f a4 f3 c1 bf 4e 87 0c 3e 73 97 3d 40
       1.1795945 -1.5152478 0.1372349 2.9623687
000110 ca a2 0f be 11 d0 45 40 b5 fc 02 3f 59 0a e9 3e
       -0.14026943 3.0908244 0.5116685 0.45515707
000120 68 22 0a be b7 1f 84 be 01 9a 4a 40 24 4f 43 40
       -0.13489687 -0.25805447 3.1656497 3.0517054
000130 ca 49 93 3f 73 c6 a1 3e 68 6f 45 3e 77 c5 41 40
       1.1506894 0.31596717 0.1928078 3.0276773
000140 a7 b2 43 40 8f 32 ee bd 73 d1 6c 3d 3d 4b 0f be
       3.057779 -0.11630737 0.057816934 -0.13993545
000150 7a ea 1b c0 34 52 af 3e 4e 69 3d 40 e7 bb 2a 40
       -2.4361863 0.34242404 2.9595523 2.6677186
000160 f4 3e 54 40 99 e1 d2 3c 9b 96 2d c0 be ee 13 be
       3.3163424 0.025742339 -2.7123172 -0.14446542
000170 35 ad 5c 40 1d c0 ab 3e 74 8e d2 be 69 95 47 40
       3.4480717 0.33545008 -0.41124308 3.1184943
000180 b8 9a 51 40 cc 6e 13 bd d9 27 21 c0 d9 fe 3e 40
       3.2750683 -0.035994336 -2.518057 2.9843047
000190 5f 4b 46 40 c4 1a fe 3c 09 5a 3a 40 08 fe 3a 40
       3.0983503 0.031018622 2.9117453 2.9217548
0001a0 80 4e 3c 40 88 43 1b 3d 10 45 4e 40 bc 3a 53 3e
       2.9422913 0.0379062 3.2229652 0.20627874
0001b0 44 76 1d c0 70 44 62 3d f4 42 1f c0 f1 70 41 40
       -2.4603434 0.05524105 -2.4884615 3.0225184
0001c0 49 6f 1a be 3d 82 39 40 47 be e0 3e f9 5b 64 be
       -0.15081514 2.898574 0.4389517 -0.2230071
0001d0 8c 5f 13 c0 35 6e 10 c0 84 df 88 3e c7 7c 55 40
       -2.3027067 -2.2567265 0.2673303 3.3357408
0001e0 1f cf 45 40 84 16 b4 3e 0e e3 1c c0 c9 ec 27 bf
       3.0907667 0.35173428 -2.4513583 -0.6559568
0001f0 08 b9 91 3d 86 fc 63 40 1f 75 2d be 4a eb 24 c0
       0.0711537 3.5622878 -0.1693921 -2.576861

weight f4 [128, 128]
000000 da 87 19 3f ef 6e c7 3d 65 22 29 3f 96 30 86 3e
       0.5997292 0.09737956 0.66068107 0.26208943
000010 0c 3e 7e bf c8 c1 34 bf 6a ea d6 3b 64 ce 90 bf
       -0.99313426 -0.70608187 0.006558706 -1.1312985
000020 9f 6e c2 3e 2e d2 14 bf 9b 7c 7b be 2d c1 d6 3d
       0.37975022 -0.5813321 -0.24559252 0.10486064
000030 4d 98 ac 3e 07 c0 d5 3e 3a c7 9f 3b ee 84 9d 3e
       0.33709946 0.41748068 0.0048760446 0.3076548
000040 da 07 86 3f ae e7 05 bc dc b3 f8 3e f0 de aa be
       1.0471146 -0.0081729125 0.48574722 -0.33373213
000050 08 06 fa bd 77 50 b1 3e f4 58 9a 3e 6e eb 85 3e
       -0.122081816 0.34631702 0.3014599 0.2615618
000060 b2 37 3f c0 df b9 9b 3d 08 90 26 be 19 28 0b bf
       -2.9877744 0.076038115 -0.16265881 -0.5435806
000070 7d a1 5a bf 89 40 ed 3b c3 91 16 bf 7f 92 89 bf
       -0.8540266 0.007240359 -0.58816165 -1.0747832
000080 31 79 e5 be f4 12 e3 bf eb e9 03 bf de a9 47 bf
       -0.44819024 -1.7740159 -0.51528805 -0.7799357
000090 91 5f b0 be 97 d8 be bc 91 71 9c 3f cf f6 be 3e
       -0.3444791 -0.023296637 1.2222158 0.37297675
0000a0 36 14 13 bd 42 91 77 be 06 f9 6c be a7 dc 29 bf
       -0.035907947 -0.24176505 -0.2314187 -0.66352314
0000b0 3f c7 1a c0 47 f3 1f 3d 87 ca b6 3e cc 20 ab 3e
       -2.418411 0.039050367 0.3570139 0.3342346
0000c0 dd c0 96 3e 4e bf e6 3e 11 a8 19 3e 60 1d 13 3b
       0.29444018 0.4506783 0.15005518 0.0022447929
0000d0 22 20 49 bd cd ca 2d bf 89 13 ed 3e e0 d5 e6 be
       -0.04910291 -0.67887574 0.46303967 -0.4508505
0000e0 6b 7b d5 3e 52 71 4a 3d 81 10 dd 3f e3 2b 00 bf
       0.41695723 0.049424477 1.7270662 -0.50066966
0000f0 ca 89 0d bf 20 be 2d bf d0 e7 ec 3d 77 54 33 3f
       -0.55288374 -0.6786823 0.11567652 0.7005076
000100 28 b1 8b 3e ad 15 0a c0 a4 9e 73 bd 7a 88 43 3f
       0.27283597 -2.157573 -0.059477463 0.7638012
000110 21 58 4b 3c 99 03 b1 3e a1 36 80 bf 27 4d 08 bf
       0.012411148 0.34573057 -1.0016671 -0.53242725
000120 8c 64 51 bc 53 88 87 3d 3b 6b c7 3e ad 3a cf 3e
       -0.01278032 0.06617799 0.38948998 0.40474454
000130 00 1f 94 3e cf 17 94 bf f3 b3 f3 bc d4 d0 a5 3e
       0.289299 -1.1569766 -0.029748892 0.32385886
000140 b1 6a a1 3e 84 0d f4 3b dc 4e 93 3c d5 69 03 3d
       0.31526712 0.0074479003 0.017981939 0.03208335
000150 13 0b af be 54 9f 91 bf 3d 1d c8 3e da 05 36 3f
       -0.34188136 -1.1376748 0.39084807 0.7110268
000160 a4 e0 bb 3e 5a d6 d7 3d 1b 72 ce be a1 eb 45 3d
       0.36694825 0.10538931 -0.4032143 0.048320416
000170 51 18 53 3e 69 ed ca be 5f d2 c0 3d fe 8b 69 3e
       0.20614745 -0.39634255 0.09415125 0.22807309
000180 ed 17 99 3e c6 1f a8 bd af 0f b2 be c8 37 ca 3e
       0.29901066 -0.08209185 -0.3477759 0.39495683
000190 1c 47 c5 3f 57 f5 7a bf f1 66 d8 3e 92 10 94 3e
       1.5412326 -0.9803061 0.42266038 0.28918892
0001a0 64 30 08 3f ba dd 24 3f 02 47 e1 3e 17 af 00 bd
       0.5319884 0.6440083 0.43999487 -0.03141698
0001b0 4e 1c 05 bf d4 2e 8f bc 78 2d 99 be 70 c0 94 3e
       -0.51996315 -0.017478384 -0.29917502 0.29053068
0001c0 11 11 b2 3d a2 81 7d 3e 06 cf 2b bf 7a 31 7a 3d
       0.086946614 0.24756482 -0.6711277 0.06108234
0001d0 c0 fe 1d bf 5c ed 69 bd 2d af 7a bf ee 31 7d 3e
       -0.6171684 -0.05711113 -0.9792355 0.24726078
0001e0 8c e0 b4 3e a9 69 9b be 67 94 22 be 3f 1f cb bd
       0.35327566 -0.3035405 -0.15876924 -0.09918069
0001f0 a7 57 83 3d 50 9a 9e 3f bc c0 71 bd 25 47 64 be
       0.06413203 1.2390842 -0.059021696 -0.22292764
000200 fd d3 8c bd 80 9e c9 3c c5 3b 19 3d a5 c6 12 3c
       -0.06876371 0.024611712 0.037410516 0.008958493
000210 4b 78 83 3d 28 93 8b bd 83 e0 70 3d f5 43 0e bd
       0.064194284 -0.06815177 0.05880786 -0.034732778
000220 41 15 4a bc 60 5d b2 bc 68 11 b7 bc 46 94 9d bd
       -0.012334169 -0.02177304 -0.022347167 -0.076942965
000230 3d a7 88 bd 31 58 c9 bc cd b0 0f bd 3a 19 5d bd
       -0.06672523 -0.024578186 -0.03508072 -0.053979136
000240 e3 e2 6d bd 74 02 82 3c 0e 95 9d bc 06 73 ae 3c
       -0.058077704 0.01587031 -0.019236114 0.021295082
000250 bc e0 8d 3d b8 36 bd bc 6b 9b 78 3c 27 f8 a9 bc
       0.0692763 -0.023097381 0.015173773 -0.020748211
000260 d0 61 1e 3c 50 df 0b 3c 2f 3c a4 bd 6d 6a 1f bd
       0.009666875 0.008537129 -0.080192916 -0.038919855
000270 b6 28 77 bd 7e 2b 26 3d 9e 19 a7 bd 48 03 56 bc
       -0.06034156 0.04056882 -0.08159183 -0.013062306
000280 66 ae 15 b9 a0 cf 32 3c bd 24 8b bd fc b2 a4 3c
       -0.00014274716 0.0109137595 -0.06794117 0.020104878
000290 0e 4c 7a 3d ec 37 7a bc ca d3 6c 3d d3 6e 65 bd
       0.061107688 -0.015272122 0.057819165 -0.056013893
0002a0 fe 0b a5 3d dd 0d 87 bb 2c cc 0c 3c fd 9d 90 bd
       0.08058928 -0.0041215257 0.0085936 -0.07061384
0002b0 e6 ec 10 bd 47 1e a0 bd de 58 00 3d 8c 83 89 3d
       -0.035382174 -0.07818275 0.03133475 0.06714544
0002c0 d8 a3 bc bc 86 30 1e bd d2 b7 5d bd d8 c3 1e bc
       -0.023027346 -0.038620494 -0.054130383 -0.0096902475
0002d0 c5 fc 9b 3d 4f 15 ab bd c0 71 45 3c a4 61 0e 3d
       0.07616571 -0.08353674 0.012051046 0.034761086
0002e0 1e 69 16 bc 01 3c 4f bd e6 3f 1d bb e9 2b ca bc
       -0.009180335 -0.050594334 -0.0023994385 -0.024679141
0002f0 92 f8 e6 3c 20 43 30 bd d7 ce a0 bc e2 9f 5b bd
       0.0281947 -0.043032765 -0.019629879 -0.053619273
000300 67 73 a3 bc 76 76 0f 3d 46 3b 09 3d 5f ab a5 bc
       -0.019952489 0.035025083 0.033503793 -0.020223318
000310 ef 10 a6 bd 83 2f e8 bb be 5f 3a bd a0 2d 68 bc
       -0.081086986 -0.007085742 -0.045501463 -0.014171034
000320 50 16 48 3c 38 21 31 bc 8a 34 80 3c a2 75 e1 3c
       0.012212351 -0.010811143 0.015650053 0.027521912
000330 07 12 3a 3b 0a e5 de bc 04 70 89 3c 9c 4d 0c 3b
       0.0028392093 -0.027208824 0.016777046 0.0021408563
000340 78 a1 bf bd 60 e7 4d 3d 58 93 20 3c d0 21 c4 3c
       -0.093569696 0.050269485 0.0098007545 0.023941904
000350 e6 75 94 bd 6a 2c b2 bd 63 a4 6d bd cb be 63 bd
       -0.0724905 -0.086998776 -0.0580181 -0.055601876
000360 fe 23 21 3d 10 56 b4 bd 05 c2 8c bd d6 6a a0 3d
       0.039340965 -0.088054776 -0.06872944 0.07832877
000370 64 44 7d bd 90 37 a5 3c cb ef 78 3c 90 ec b6 bd
       -0.0618328 0.020168096 0.01519389 -0.089318395
000380 f4 55 8b 3d 4d 25 9c 3d b6 81 a4 3d ad c2 98 3d
       0.06803504 0.07624302 0.08032553 0.074590065
000390 6c 27 03 3d c0 5d aa bc fe ed 29 3d 9e 92 a6 3c
       0.032020018 -0.020796657 0.041486733 0.020333584
0003a0 d8 29 48 3d a7 fd a6 bd 90 94 34 bd f5 a7 a6 3d
       0.04886803 -0.08153849 -0.044086993 0.08137504
0003b0 cd a0 9a 3d c0 49 49 bb 5c da 80 3d 7b 0e 64 bd
       0.075502016 -0.0030714124 0.06291649 -0.055677872
0003c0 e7 c8 a8 bd 90 85 43 3b 09 02 a2 3d b8 87 13 bc
       -0.08241444 0.0029834248 0.079105444 -0.009004526
0003d0 f6 7f 9d bd da c1 69 3d 8e c1 a2 bd 3f b2 34 3d
       -0.07690422 0.057069637 -0.07947074 0.0441153
0003e0 2f 49 26 bd e6 79 57 3d ad b0 9b 3d 60 ec 48 3d
       -0.040597137 0.052606486 0.076020576 0.04905355
0003f0 ee 49 37 3d c5 35 9a 3d 98 73 fc 3c bf 8e 23 bc
       0.04474824 0.07529787 0.030816838 -0.009982764

bias f4 [128]
000000 66 b4 2e 40 ab 29 73 3d 6f 67 73 bd 1d 1b a2 3d
       2.7297606 0.05936591 -0.059424814 0.07915328
000010 78 47 00 c0 1f f3 47 40 f2 fb 67 3d 5b fc 20 40
       -2.004362 3.124214 0.05663676 2.5154026
000020 c0 ac 03 c0 5a 97 02 c0 33 9e 3f 40 4f 84 e3 bf
       -2.0574188 -2.0404878 2.9940307 -1.7774752
000030 9f c8 30 40 a0 1b 35 40 c6 2c a8 3d 81 cd 30 40
       2.762245 2.829811 0.08211665 2.762543
000040 14 8c 32 40 6e f1 24 3d 8f d6 34 40 43 f8 39 bd
       2.7897997 0.040269308 2.8255956 -0.045402776
000050 0b b3 3d 40 86 b6 29 3d 6b 21 28 40 4b 47 34 40
       2.964053 0.041433834 2.6270397 2.8168514
000060 35 48 86 bd 2f f4 8d bf 8d 22 ef be f0 aa d8 3c
       -0.06556741 -1.1090144 -0.46706048 0.026448697
000070 0c 87 a1 bc 61 95 39 40 a0 1f 3f 3c 71 c9 cc ba
       -0.019717716 2.8997424 0.011665255 -0.0015623999
000080 ef f7 a5 bc e0 02 3f bd e0 f7 53 3b 73 57 39 40
       -0.020259826 -0.0466336 0.003234379 2.8959625
000090 e5 59 e6 bd f0 01 34 40 4e df 8f bf 23 f7 3d 40
       -0.11247615 2.8126183 -1.1240022 2.968209
0000a0 a7 c4 3b 40 39 45 ff bf d0 8c da 3d 81 62 53 3c
       2.9338777 -1.9943 0.10671389 0.012901903
0000b0 78 e5 3c 3d 0e c8 21 3d 12 dc d8 bb 57 12 37 40
       0.046117276 0.039497428 -0.0066180313 2.8604944
0000c0 c1 0b 00 c0 64 84 3c be 7f a4 32 40 05 99 a0 bf
       -2.0007174 -0.18409878 2.79129 -1.2546698
0000d0 22 3f 68 3d a2 57 00 40 c5 6f f0 bf 4b 43 2a 40
       0.056700833 2.0053487 -1.8784109 2.6603572
0000e0 66 a7 ef bf 44 84 62 bf 4b f7 7d 3c 9c 2f 35 40
       -1.8722961 -0.8848307 0.015500854 2.8310308
0000f0 98 a6 15 3d 2b db 31 40 5b 40 37 40 95 bf 20 40
       0.03653583 2.779002 2.863303 2.5116932
000100 5e 6b 1f bd a2 77 29 40 aa 48 59 bc a7 3f b5 3c
       -0.038920753 2.6479268 -0.013261953 0.022125078
000110 93 c2 3f 40 7e fe 32 40 5a d9 35 40 6e 9c 30 40
       2.9962509 2.796783 2.841391 2.7595477
000120 0f dd 2f bd 8c a0 f1 bf b7 e9 2d 40 aa 71 f3 bf
       -0.042935427 -1.887712 2.7173898 -1.9019063
000130 15 db 1f 3d 0c 91 f3 bf ce 84 00 40 ad e1 97 3d
       0.039027292 -1.902864 2.0081058 0.07416091
000140 21 40 53 3d 8f e9 aa bd 3c 65 c8 3f 65 b5 46 40
       0.05157483 -0.08345329 1.5655894 3.1048214
000150 2f 26 99 bf 15 0f 8f bd 52 fd 3a 40 58 be 29 40
       -1.1964778 -0.069852985 2.9217114 2.6522427
000160 ff 4d 2e 40 63 a2 37 40 e7 c9 f9 bf a4 e2 05 3c
       2.7235105 2.8692863 -1.9514741 0.008171711
000170 47 b8 33 40 aa ab 6e 3d 86 a4 ac 3c 08 8f ba bd
       2.8081224 0.05826918 0.021074545 -0.09109312
000180 59 98 40 bc aa ff ec bf a7 08 f2 bf 3e ef ee bf
       -0.0117550725 -1.8515522 -1.890889 -1.8666761
000190 c4 6f fb bf 48 93 2e 40 34 cc f0 bc f3 3e 39 40
       -1.9643483 2.7277393 -0.029394247 2.894467
0001a0 9c bd 0c bd d3 3e 30 40 97 d9 f2 bf 7f ad f2 bf
       -0.034360513 2.7538345 -1.8972653 -1.8959197
0001b0 96 6e 82 bd f8 40 25 40 84 9f 4c bd b0 f0 35 40
       -0.06368749 2.5820904 -0.049956813 2.8428154
0001c0 57 9a 35 40 04 19 8b 3b dd 10 40 40 16 67 f0 bf
       2.8375452 0.0042449255 3.0010293 -1.8781459
0001d0 78 4d 45 40 3b f6 83 3d 23 07 69 3d b7 f3 aa bc
       3.0828533 0.06443449 0.05689157 -0.020868165
0001e0 32 45 8f bd c6 5b 39 40 4e 6e 98 bd 98 ce fb bf
       -0.0699562 2.8962264 -0.07442914 -1.9672422
0001f0 e8 1e 30 40 b5 1c 2f 40 3e b9 27 40 93 7e f2 3c
       2.7518864 2.7361271 2.6206813 0.02960137

weight f4 [1, 128]
000000 8b 26 8f 3f 73 94 72 bd 24 2f 3b 3d af d6 99 3d
       1.1183637 -0.059223603 0.045699254 0.07511651
000010 b4 c7 1d c0 18 42 14 40 6d 6c 84 3c 45 fa 38 3f
       -2.465314 2.316534 0.016164983 0.7225688
000020 71 ee e6 bf d9 64 ed bf 3f 53 94 3f f0 ba 04 c0
       -1.8041517 -1.8546401 1.1587905 -2.0739098
000030 96 75 ae 3f 0f 17 93 3f 87 1c 32 bd 4c 0e 9c 3f
       1.3629634 1.1491412 -0.043484237 1.2191863
000040 22 c7 8c 3f 18 36 47 3d cb 06 a2 3f a2 81 05 3d
       1.099827 0.048635572 1.2658323 0.03259433
000050 84 97 05 40 31 92 d0 3c f5 76 9b 3f 48 15 a6 3f
       2.0873728 0.025460334 1.2145678 1.2975245
000060 ae 73 a1 3c bd 8f 93 bf 56 19 49 bc 78 76 7f bd
       0.01970848 -1.152824 -0.012274107 -0.06236884
000070 ec 3f 53 bd fc 15 a1 3f 86 2a 7c 3d 5e 98 a4 3d
       -0.051574633 1.2584834 0.06156399 0.08036874
000080 d1 7f 5e bc 21 aa 52 3d d1 c8 33 bd a2 d8 83 3f
       -0.0135802785 0.05143178 -0.043892685 1.0300486
000090 c3 01 8d bf 00 6e 84 3f 83 3a 41 bf ad 05 55 3f
       -1.1016163 1.0346069 -0.75479907 0.83211786
0000a0 93 38 b0 3f f8 1d 08 c0 12 cc 59 3f 1f f5 a0 bd
       1.3767265 -2.1268291 0.8507701 -0.07859253
0000b0 30 f9 43 3d 44 7d 8c 3d d1 f3 53 3d bc bf 8d 3f
       0.047845066 0.0685983 0.051746193 1.1074138
0000c0 13 b5 f5 bf fe a2 71 bf ed 5b a2 3f 5d 1a d7 ba
       -1.9195884 -0.9438933 1.2684304 -0.0016411055
0000d0 1a e3 58 3c 06 13 49 3f fa 30 f9 bf 90 bb a2 3f
       0.013237739 0.7854465 -1.9468071 1.271349
0000e0 05 80 05 c0 36 b1 2b c0 c6 37 a2 bd 84 bb 94 3f
       -2.0859387 -2.682691 -0.07920794 1.1619725
0000f0 e2 41 00 bd ea 99 90 3f 53 d1 92 3f 02 66 20 3f
       -0.03131283 1.1296971 1.1470131 0.6265565
000100 a9 60 d5 3b f1 7d 9c 3f 24 c3 84 3d 72 61 6e bd
       0.006511767 1.2225934 0.064825326 -0.0581984
000110 c5 34 07 40 f5 63 51 40 5f 63 94 3f d0 77 60 3f
       2.1125958 3.271726 1.1592826 0.8768282
000120 f7 c9 fb 3b 1f ed fa bf 2d 90 94 3f 44 d3 00 c0
       0.007683988 -1.9603614 1.1606499 -2.0128946
000130 15 e7 9d 3d c7 16 ef bf 52 f0 16 40 3d 52 12 3d
       0.07710091 -1.8678826 2.358418 0.03572296
000140 3c 9c 8e bc 65 62 11 bd 4b 61 8f 3f f0 21 04 40
       -0.017408483 -0.035494227 1.1201566 2.0645714
000150 1c 96 a4 bf 2c 94 8d 3d fc 3a 87 3f b8 f6 94 3f
       -1.285831 0.06913027 1.0564876 1.1637793
000160 98 0d 7a 3f 00 61 95 3f 87 09 da bf 67 4f 29 bd
       0.9767699 1.1670227 -1.7034158 -0.04133549
000170 5e d3 bf 3f bd 3b 1c bd 95 7a 14 3d bf 49 3b bd
       1.4986379 -0.03814291 0.036249716 -0.045724627
000180 94 89 05 bd 56 dd fb bf 88 23 f1 bf 85 d5 ef bf
       -0.032601908 -1.9676921 -1.8838968 -1.8737036
000190 e6 51 fe bf 76 42 99 3f 07 ad 35 3d 89 ef 81 3f
       -1.9868743 1.1973407 0.044354465 1.0151225
0001a0 50 5d 6b bc ef ff 97 3f 76 10 0e c0 fc aa 0d c0
       -0.014365509 1.187498 -2.2197547 -2.213561
0001b0 a5 cb a9 3d d1 a5 7d 3f 6d ab 89 bf e7 02 68 3f
       0.08290795 0.9908114 -1.075544 0.9062943
0001c0 50 1a 9e 3f bc 29 86 bc 89 c6 0f 40 4c b9 e7 bf
       1.235178 -0.016377322 2.2464926 -1.8103423
0001d0 44 8e 0e 40 1d 8a 91 bd 5d 54 0e bd 8e 09 15 bd
       2.2274332 -0.07106421 -0.034748424 -0.036386065
0001e0 3a 61 75 3d c1 fe 9f 3f 8f 5c b5 bc f3 95 f7 bf
       0.059907176 1.249962 -0.022138862 -1.9342636
0001f0 d5 33 91 3f 37 c0 7e 3f b7 05 86 3f 3a 34 e5 bc
       1.1343943 0.99512047 1.0470494 -0.027979005

weight f4 [4, 128]
000000 87 7c 0c bd 8d 30 82 3d 06 51 9f bd 14 50 c6 3c
       -0.034298446 0.063569166 -0.07779126 0.024208106
000010 49 0c 19 3d b9 de 69 3d 67 ed b0 3c 40 a6 22 3e
       0.03736523 0.05709717 0.021597577 0.15883732
000020 54 20 f2 3b 8d c5 a5 3c 56 be cb 3d 68 1f 2c be
       0.0073891077 0.020235801 0.09948413 -0.16808856
000030 af 8b 58 bb 0e 1c 90 bc 08 0b b7 bd bf 82 a0 bc
       -0.0033042242 -0.017591503 -0.08937651 -0.019593595
000040 84 5d 90 bb 3b 4d 7e bd 2b 7e ec bc 10 83 02 bc
       -0.004405679 -0.06208537 -0.028868755 -0.007965818
000050 88 35 4a 3c ab 14 ea 3c d5 f8 02 bd b5 a9 ac 3c
       0.012341864 0.028574308 -0.031975586 0.021077016
000060 05 f7 98 bd 38 90 24 3f 19 32 96 bd 7f 08 9a 3d
       -0.0746899 0.6428256 -0.07333774 0.07521152
000070 3a 21 49 bd 39 ff 1a 3d d5 50 9e 3d 3e 15 98 3d
       -0.049103953 0.037841056 0.07730261 0.074259266
000080 62 cc de 3b 7a 7b ef 3c 1e 97 7b bd 6d 0d b5 bd
       0.0067992667 0.029233683 -0.061423413 -0.088404514
000090 98 2b bb bd 86 1f 3e bd 43 f3 69 3f ab e8 b5 3d
       -0.09139174 -0.04641678 0.9138681 0.088822685
0000a0 89 a5 3f bd 5e e1 30 3d aa 6e 94 3d 74 2f 07 bd
       -0.046788726 0.043183677 0.0724767 -0.03300424
0000b0 db 70 ea bc 7c e2 7b 3d a4 65 85 bd 75 59 59 3d
       -0.028618267 0.06149529 -0.06513527 0.05306383
0000c0 0e 23 d4 3d 20 a7 b3 3f 22 de 7d 3d d2 e9 89 3e
       0.10358249 1.4035378 0.06197942 0.26936203
0000d0 23 fc ee bc a0 4d 68 be 53 f0 72 3c ca a9 2b 3c
       -0.029172963 -0.22685862 0.014827806 0.010477493
0000e0 60 c2 64 3d 12 e2 19 40 bd c0 8a bd 35 c4 e8 bc
       0.055849433 2.4044232 -0.06775043 -0.028413871
0000f0 b3 b8 6d bc a3 73 bb bd 97 92 74 bc f7 ad 76 bb
       -0.014509368 -0.09152915 -0.014927528 -0.0037640312
000100 5f aa ba 3d fa 92 c7 bd bd 8e 0a 3d f5 3d 8f bc
       0.09114527 -0.097448304 0.033827532 -0.017485598
000110 65 36 c0 3c c3 36 a8 be 95 04 1e 3b fc d6 98 3d
       0.023463437 -0.3285428 0.0024111618 0.0746288
000120 da 22 0c bc f2 61 85 3d 96 73 d9 bd 37 e6 82 3d
       -0.008553231 0.06512822 -0.106177494 0.06391566
000130 31 c8 c7 3c 22 4a 27 3d 00 17 00 bf a2 9a 5f 3c
       0.02438745 0.040842183 -0.50035095 0.013647707
000140 98 2d 3e bd 89 46 5d 3d 64 6b 14 bf 17 70 c0 3c
       -0.0464302 0.054022346 -0.57976365 0.023490949
000150 43 b6 ad be b0 14 35 3c bc 6b 07 b8 cb f0 32 bd
       -0.33928117 0.011052296 -3.2286844e-05 -0.04368667
000160 66 a9 99 3d bd 29 81 bd b4 df ab bc c1 a0 d2 ba
       0.07503013 -0.06306789 -0.020980693 -0.0016069637
000170 54 a3 f0 3d 48 04 b5 bd a2 26 6a bb db f3 69 bd
       0.11749902 -0.08838707 -0.0035728593 -0.057117324
000180 df 4d bf bd cb 59 92 3d 09 b0 2b bd 1a 13 8e bd
       -0.093410246 0.07146033 -0.041915927 -0.06937237
000190 c0 f8 af 3c 72 9a a6 3d 87 9a 36 3c 4b 29 2f bd
       0.021480918 0.08134927 0.011145241 -0.04276399
0001a0 74 88 b1 bd e1 e0 8d 3d d7 57 33 be 3f 03 44 bd
       -0.086686045 0.06927658 -0.17513977 -0.04785466
0001b0 c0 20 45 3b d9 b4 b0 3a 53 a0 a6 3f ff 9f f8 3c
       0.0030079335 0.0013481631 1.3017677 0.03034973
0001c0 67 88 c5 bd 16 6c a5 bd c1 1f 9f ba 08 ca e5 bd
       -0.09645157 -0.080772564 -0.0012140201 -0.11220175
0001d0 48 11 11 3e c0 a4 dd bb fc d5 64 bd 1c 58 84 3d
       0.14166749 -0.0067640245 -0.055868134 0.06462118
0001e0 1a 3a 7e 3d 64 29 4e 3d 45 ef 92 3c 46 32 01 bd
       0.06206713 0.050332442 0.017936358 -0.031542085
0001f0 8c f6 12 3c 32 0a 74 bd 98 93 5d bd 0f 2d a6 bd
       0.008969914 -0.059580036 -0.054095834 -0.08114063
000200 f7 9a 3b bc 73 ad f2 3b 13 2f 61 3c 3b bd 3f bd
       -0.011450521 0.0074059307 0.0137441335 -0.046811324
000210 fe 50 6d 3d d0 94 80 bd cd fc 93 bd da 25 53 3d
       0.05793857 -0.06278384 -0.07225952 0.05154977
000220 31 c5 ea bd d6 f8 06 be ce 3a 83 3c 9c a1 8f 3d
       -0.114633925 -0.13180861 0.016019251 0.070132464
000230 d8 b6 0c bd 42 0e 86 bb c4 25 73 bd 08 bf e5 bd
       -0.03435406 -0.004091055 -0.059362188 -0.11218077
000240 9e f4 d1 bc 91 6d c7 3d 1d 81 1b be 80 f1 44 3c
       -0.025629338 0.09737695 -0.15185972 0.012020469
000250 32 c1 40 3a fa 3b 6b bd ed 95 3e bd 24 20 1d bd
       0.0007353007 -0.057430245 -0.0465297 -0.03836073
000260 96 e1 a0 bd 5a d5 c1 3f 72 93 a5 3e e2 bb 34 3d
       -0.07855527 1.5143235 0.32339054 0.04412449
000270 a3 64 68 3d 05 96 84 bd 45 17 85 3d e9 a6 db 3c
       0.0567366 -0.064739265 0.06498579 0.026812987
000280 ee 3e 16 3d 98 31 4e bd 99 67 9c 3d 4f 81 d9 3c
       0.03668111 -0.050340265 0.07636947 0.026550917
000290 c0 71 75 3d dd 93 37 bc fa 67 cd 3f 9c 92 55 3d
       0.059922934 -0.011204687 1.6047356 0.05214177
0002a0 76 76 b9 bc 96 ed 5c bd b0 02 0f 3f e2 0c 67 bd
       -0.022639494 -0.053937517 0.55863476 -0.05640877
0002b0 09 be c7 bd 2d 81 0c 3d 69 3e 49 bd 99 e7 26 bd
       -0.09753043 0.03430288 -0.049131785 -0.040748212
0002c0 dd 3e 4f 3d db 61 3c 3f 2d df c8 bc de 77 05 3e
       0.05059706 0.73586816 -0.024520481 0.13034007
0002d0 0b b0 73 bd ae e6 74 be bd e5 56 bd ed 68 ae bd
       -0.05949406 -0.23916122 -0.05246519 -0.08516107
0002e0 af 98 41 3c 1c 43 19 40 aa be 6f 3d fe 78 96 bd
       0.011816188 2.394721 0.05853144 -0.07347296
0002f0 40 05 dc 3c d1 d5 60 3d 22 be 0d 3c 1d fe 6c 3e
       0.026857972 0.05489141 0.008651288 0.23143812
000300 9d 7d 1d bd 86 3f 5c ba be e6 a5 3c de 1e 19 bc
       -0.038449872 -0.00084018 0.020251628 -0.009345738
000310 8a 0e 79 bd 39 b5 8e bd fb 0e 9e bd 45 b3 4d 3d
       -0.06080488 -0.06968159 -0.07717701 0.050219793
000320 e5 02 78 3c 85 21 f7 3c 60 3d 7d bd 63 68 16 3d
       0.015137409 0.03016735 -0.06182611 0.036720645
000330 ab d1 70 bd db 49 6f 3b 8d c6 ab bf 9d 32 04 bc
       -0.058793705 0.0036512527 -1.3419968 -0.008068708
000340 f8 33 b2 bd 3c ec 89 3b 64 b7 19 bf 34 c4 13 bc
       -0.087013185 0.0042090695 -0.60045457 -0.009018946
000350 56 b4 18 3f b7 0a a3 3d 6e d9 b7 3c ae d9 11 3d
       0.5965017 0.07961028 0.022442546 0.035607986
000360 f5 fb d5 bd 70 73 24 3c 28 d5 de bd 20 94 45 3d
       -0.104484476 0.010037288 -0.108805 0.048236966
000370 3d 63 29 3e 95 c1 1d 3d 44 f7 80 bd 25 dc 9d bd
       0.16541763 0.038514692 -0.06297162 -0.07708005
000380 2c 75 f5 3c 29 fe 6e bd ea e4 4d bc 86 c6 34 be
       0.029963098 -0.058347855 -0.012566784 -0.17653856
000390 93 80 a6 bd ac 0a 70 bc ef 80 24 bc cf 75 74 3d
       -0.08129992 -0.014650982 -0.010040506 0.059682664
0003a0 1d 1a 73 bd 07 f6 87 3c ff 0f e0 3d 10 cf 3d 3d
       -0.059351075 0.016596807 0.10940551 0.04634005
0003b0 54 9f ae bd ec 09 81 bd 75 de 28 3f 2f 2b 97 3c
       -0.08526483 -0.063007206 0.6596444 0.018453209
0003c0 4e b8 b3 bd 1a 59 d6 3c 61 4b df bd 8a 42 e4 bb
       -0.08775388 0.026165534 -0.10903049 -0.00696594
0003d0 a6 8b 52 bd fa d0 11 3d ea 37 9b bd 05 f3 88 3c
       -0.05140271 0.035599686 -0.07579024 0.016717443
0003e0 00 86 87 3b 0c 1d 84 bc 2f 2b 2b 3d 8f 0b a8 bd
       0.004135847 -0.016127132 0.04178923 -0.082053296
0003f0 06 64 57 bb 67 c9 a8 bd 2b be a0 bd 63 63 63 3b
       -0.0032866015 -0.082415394 -0.07848772 0.003469669

bias f4 [4]
000000 b3 06 f2 bf 18 af 93 bf bd 95 a0 bf 06 bd d0 3f
       -1.8908294 -1.1537809 -1.2545696 1.6307685
