models/cache_agent/5/D3QN_q_target.pth (torch, 80271 bytes, 7 tensors)

weight f4 [128, 15]
00000000: ae87 453e 8346 343e 6dc8 1c3f 4fe8 053f
00000010: 2fe7 a7bd 393e 323f fd51 f33e e1bd 0d3f
00000020: 52cd 403e f0ed 1d3e 17b5 8d3e 1c94 47be
00000030: f95c 113e 4634 933c ef56 05be 9b63 3a40
00000040: 5507 88bd d202 8ebf e719 b7bf 93c0 673e
00000050: fe01 f5bc a148 ba3f 92f8 963f fb35 53c0
00000060: 5ad0 3a3e fc14 9f3e 4d46 163c fe71 a53f
00000070: 81f2 4a3f 51e3 f1bb 6da6 2a40 6168 9dbe
00000080: db0f 7fbf 681f 9bbf 9c4f 883e f4bb 883e
00000090: 32f7 763f 9c92 5c3f 302b 4ac0 d4a3 953d
000000a0: 3a4d e83d da7b 2cbc c054 ab3f ef3e 363f
000000b0: 50aa fd3d 2688 2e40 509d 0cbf 8ea7 8abf
000000c0: 1607 92bf c7bc a83e dd89 233f 0c27 873f
000000d0: c01e 883f d174 4cc0 aa57 073e 7e85 53be
000000e0: 70b8 f43d 62f8 963f 7f1a 313f 1fda 7f3e
000000f0: 3a13 bd3d 7abe 1a3f 1f99 cc3e 2e6b 023f
00000100: 9dd1 29bf 8512 d43e 9e46 c53e f310 343e
00000110: b214 bb3e 62ce 503e 9216 503e a7f6 af3d
00000120: a480 bdbd 5fd0 fbbe 626b a2be 99be 1940
00000130: c6e2 003e 59ea aabf 845a b4bf 6634 223e
00000140: 70d7 d8be 8a3c 733f 92e7 893f 46d1 0fc0
00000150: 5064 ecbd 1efd aa3d 6b2d 2ebe aa56 a23f
00000160: e128 b73e 567e dd3b 684f 1e40 1b59 43bd
00000170: a69f ccbf e082 29bf 37e8 2e3f 6592 bc3e
00000180: d7cb b83f 878a f53e 717b 9cbe 3cfc d2bd
00000190: 0cd9 533e 3f0d cd3d fd93 af3f f090 8a3f
000001a0: a279 5c3e d5ed 06be 7d10 1e3e 28ea 3cbe
000001b0: a278 6d3e 10f9 c0bc eb3d 80be a11d df3b
000001c0: 0df2 01bb 5e7e 203e 7ac7 6d3e 7e4c 94bd
000001d0: 271d 16be 25be 89bd 706a afbd ce72 11be
000001e0: dcc6 973d 6f97 793e 2141 403f 405c 583f
000001f0: eb54 373f 4b0d 083d 4f8b 323f 998b 823e
00000200: a0ac 1940 86f9 503e f5ab 5f3e 1217 253e
00000210: 8596 7c3e 3c2a 2f3f 908f 56be 69a5 20c0
00000220: ade5 88be 0f6d e13f 5e04 a73f 9e17 78be
00000230: 6e13 2d3f a99a 79bf c311 3bbe 1c66 df3f
00000240: 2cfc 8e3d b433 9bbe 1b90 10bf 7041 1abf
00000250: 6508 60be 59a6 6c3d 85a2 1b40 4aad f7be
00000260: 88e7 5dbf ff4d 9fbf e4b1 a33e 5cef 903e
00000270: 0d41 803f f1af 763f c3a8 35c0 ecc6 15bd
00000280: e21c 81bd 058b 10be 9e15 813f ae37 233f
00000290: d251 003e 0a43 d0bd 16b8 fbbd b136 403e
000002a0: 70e2 713d 3095 213d 0ece 7e3e 3a69 023e
000002b0: 40cf c63c 9470 30be 0082 8e3a 367c 5dbe
000002c0: 9700 74be 3e04 dabd 1434 4abe 6067 0bbd
000002d0: c994 2540 895f 0cbf 5ff0 86bf dc73 8cbf
000002e0: b49e bc3e 12b1 973e a12b 443f 6ad5 9e3f
000002f0: 1697 57c0 409b 923d 82d7 463d 5c7b 143e
00000300: d362 6d3f 23e4 683f 82a7 413e 1a89 0f40
00000310: 6e98 bf3f 5351 8ac0 6056 efbe f45d 103e
00000320: 83d5 8ac0 b51d 823f bb25 7fbf 4c5b 1440
00000330: 704e 91bd 1e6a 033f 56f7 0b3e 4c32 203f
00000340: 197e 3c3e e2e7 033e cb65 2e40 79c5 63be
00000350: d4e2 9cbf 9349 cfbf 88bc 9e3e e137 f33d
00000360: 457a 8b3f 7236 7b3f 83b0 43c0 7c92 663e
00000370: 8a76 823c 1dd0 60bc af03 903f 690c 073f
00000380: a9d9 383e d167 2640 fb61 44be ef08 94bf
00000390: 0392 abbf ba38 253e 0282 983a a45a 533f
000003a0: 40c6 8c3f 36d5 53c0 00db ce3a a4ae 5cbe
000003b0: ec96 d5bc 8444 6d3f bd9e 3b3f 124d 333e
000003c0: c7f6 2fbf 3921 0cbf f8c2 3c3f 5071 64be
000003d0: d1d3 303e 8376 bdbd b448 1abf 3af7 6abf
000003e0: 0079 633f 7138 6bbe bc53 36bf d6e2 ab3e
000003f0: 6ff2 47bf 1cc5 0fbe 69f2 26be 6ef7 de3e
0.19290039 0.17605023 0.61243325 0.523076 -0.08198392 0.69626194 0.4752349 0.5536786
0.18828323 0.15422797 0.27677223 -0.19490093 0.14195623 0.017969262 -0.13021444 2.9123294
-0.066420235 -1.1094611 -1.430478 0.22632055 -0.029908177 1.4553415 1.1794608 -3.3001697
0.18243542 0.31070697 0.009172034 1.2925413 0.7927628 -0.0073818346 2.6664078 -0.30743697
-0.9963357 -1.211896 0.26623237 0.26705897 0.9647094 0.8616121 -3.158886 0.07306638
0.11342855 -0.010527575 1.3385239 0.7118978 0.12386 2.7270598 -0.5492754 -1.0832384
-1.1408412 0.32956526 0.6388224 1.0558791 1.0634384 -3.19463 0.13217035 -0.20656392
0.11949241 1.179455 0.69181055 0.2498555 0.09232183 0.60446894 0.39960572 0.50944793
-0.6633547 0.4142038 0.3853044 0.1758459 0.36539227 0.20391229 0.2032111 0.08591967
-0.09253052 -0.49182412 -0.31722552 2.4022582 0.12586507 -1.3352767 -1.4090123 0.15840301
-0.42351866 0.9501425 1.0773795 -2.247148 -0.115425706 0.083490595 -0.17009513 1.2682698
0.35773376 0.006759445 2.4735966 -0.0476924 -1.5986221 -0.66215324 0.6832308 0.3683044
1.4437207 0.4795725 -0.30562928 -0.10302016 0.20688266 0.10012292 1.3717037 1.0825481
0.21530774 -0.13176663 0.15435977 -0.18448699 0.23190549 -0.023556262 -0.2504724 0.006808952
-0.0019828111 0.15673205 0.23220626 -0.07241152 -0.14659558 -0.0672572 -0.08565223 -0.14203951
0.07410976 0.24374174 0.7509938 0.8451576 0.7161395 0.033215802 0.6974382 0.2549713
2.4011612 0.20407686 0.2184294 0.16122082 0.24666794 0.6842382 -0.20953202 -2.5100958
-0.2673773 1.7611407 1.3048208 -0.24227759 0.6760777 -0.9750162 -0.18268494 1.7453036
0.06981692 -0.30312884 -0.5646989 -0.602561 -0.21878202 0.05777583 2.4317944 -0.48374397
-0.86681414 -1.2445678 0.31971657 0.28307617 1.0019852 0.96362215 -2.8384254 -0.03656666
-0.06304337 -0.14115532 1.0084722 0.63756835 0.12531212 -0.10169037 -0.12290971 0.18770863
0.05905384 0.039448917 0.24883291 0.12735453 0.024268746 -0.17230445 0.0010872483 -0.21629414
-0.2382835 -0.106453404 -0.19746429 -0.034034133 2.5872061 -0.54833275 -1.0542105 -1.0972857
0.3683983 0.2962728 0.7662907 1.2408879 -3.3685966 0.07158518 0.048545368 0.14500183
0.9272892 0.9097311 0.18911555 2.242743 1.4968393 -4.3224273 -0.46745586 0.1409834
-4.3385634 1.0165316 -0.9966695 2.3180723 -0.07095039 0.51333797 0.1366857 0.62576747
0.18407477 0.12881425 2.724963 -0.22243299 -1.2256722 -1.6194328 0.31003213 0.118758924
1.0896689 0.9812995 -3.0576484 0.22516817 0.015925664 -0.013721493 1.1251124 0.5275331
0.18051781 2.6000865 -0.19178002 -1.1565226 -1.3403934 0.1613492 0.0011635425 0.8256018
1.0998001 -3.3098884 0.001578182 -0.21550995 -0.026072942 0.9268267 0.7328909 0.17509869
-0.6873593 -0.54738194 0.73735 -0.2230885 0.17268302 -0.0925112 -0.60267186 -0.9178349
0.88856506 -0.2297075 -0.7122152 0.335715 -0.781043 -0.14040035 -0.1630341 0.4354815

bias f4 [128]
00000000: ef55 723e 6e95 a93f 421e 923f 1e45 4b3f
00000010: 9fce 533e 7a8c 503f a0e0 c33f cbe1 f23b
00000020: eb46 343f 48e8 ffbe 7f37 803f fb86 3cbe
00000030: 018c 853f eaa8 853f e3fb 4f3f 8cc3 893f
00000040: 64fa 77be 1500 213f 1289 51bd 370a 813f
00000050: 42d0 913f e946 fa3e 2982 f03d 4acc 203e
00000060: ae1e 683f 4a76 82bf 01c7 9f3f 828c 653f
00000070: 4be5 85bf e39c 47be c765 6b3f cce3 e1bd
00000080: 5b1e 0c3e 433f 46bf fde6 5b3e 6fa1 a9bd
00000090: 3679 51bf 42e4 943f 1ef3 18bd 1b01 833f
000000a0: a6ee 15bf fed9 7c3f 370e 84bf 8b87 603f
000000b0: dbdb 723f 7eb3 773f a229 f0be 3215 d23e
000000c0: f671 d03e f284 873f c474 783f 8435 623e
000000d0: 83b2 e73e b81d 8c3f f82e 67bf df6a da3d
000000e0: 26ba 843f 9432 6c3f 30d8 543e 3120 f3bd
000000f0: b764 703f d4cb 683f f96b 3bbf c832 053e
00000100: 0366 e43f ba62 92bf 69f8 373f 5a2e 613f
00000110: df19 753e 77ad 033f c589 1a3e 385c c83d
00000120: a05e 2a3f 6496 83be 7d74 813f e4c7 13bf
00000130: 4690 593f ecdb 6d3f 9885 f23c ae96 853f
00000140: 6fed 223e fc8f f6bc c5e2 8f3f c0b6 8ebc
00000150: cdd1 9d3f 6023 323c f84e 893f 6c72 de3e
00000160: 3568 c83f f710 823e eea0 733f c5e0 70be
00000170: d218 ffbe 58a6 b33f e76c 93bf 6f8c 01bf
00000180: 6f15 7f3e faa3 883f 06aa 553f 5e2c 11bf
00000190: 2c01 bbbe e3ee 823f 34cb 6f3e 7c14 7a3f
000001a0: 090d bb3d 84d5 613e 9bf5 fc3d bd3f 77bf
000001b0: 3e7d 793f f2bd 0a3e 5652 6f3f 80b3 003f
000001c0: 01d2 443f 5bb0 2ebf dcd6 65bf 9f77 0e3f
000001d0: 338b 7ebf e675 943e 0040 873e 0574 683f
000001e0: 7b7a 803f 8b84 3dbf cc16 7b3f f2b4 563f
000001f0: d17b 8e3e 5fbb 823e de5c b33e 7f65 983f
0.23665594 1.3248727 1.1415484 0.7940234 0.20684288 0.8146435 1.5302925 0.0074121705
0.7042071 -0.49981904 1.0016936 -0.18410866 1.0433351 1.0442173 0.81243724 1.0762801
-0.2421661 0.6289075 -0.05115611 1.0081242 1.139168 0.48882225 0.11743576 0.1570293
0.90671813 -1.0192349 1.2482606 0.8966752 -1.04606 -0.19493441 0.91952175 -0.11029777
0.13683455 -0.7744028 0.21474834 -0.08282744 -0.8182558 1.1632159 -0.03734123 1.0234712
-0.58567274 0.9877013 -1.0316838 0.8770682 0.9486672 0.9675826 -0.46906763 0.41031796
0.40711945 1.0587447 0.9705317 0.22090727 0.4525338 1.094657 -0.90306044 0.10664915
1.0369308 0.92264676 0.20785594 -0.118713744 0.9390368 0.9093602 -0.7321163 0.13007653
1.7843632 -1.1436379 0.7186342 0.8796135 0.2393565 0.5143656 0.15091617 0.09783214
0.66550636 -0.25700676 1.0113674 -0.57726884 0.8498577 0.929137 0.029604718 1.0436609
0.15910886 -0.030097954 1.124108 -0.017421126 1.2329651 0.010872692 1.0727224 0.43446672
1.5656801 0.25403568 0.95167434 -0.23523243 -0.49823624 1.4035139 -1.1517609 -0.5060491
0.2491052 1.0675042 0.8346256 -0.56708324 -0.36524332 1.0229152 0.2341736 0.97687507
0.09133346 0.22054106 0.12351533 -0.9658163 0.9745673 0.13549021 0.9348501 0.50273895
0.7688294 -0.6823785 -0.89780974 0.5565128 -0.9943115 0.289962 0.26416016 0.9080203
1.0037378 -0.7403037 0.9808166 0.8386985 0.2782884 0.25533578 0.3503179 1.1905974

weight f4 [128, 128]
00000000: ea5d 04bf 385f 5a3f 53a0 633d f5ff 493e
00000010: 2e25 b9be b470 f53e da3b 093e a409 733d
00000020: c77b 0cbe 50f7 0bbf 8074 523e f2ae 6e3d
00000030: 2938 003e f8b3 1fbe 26e4 2f3e 1820 6d3d
00000040: 9e22 51bd debe e7bc 09dc 42be b2e4 c23d
00000050: 1274 ce3e 7af6 363f d681 513b 8293 09bd
00000060: 16a4 5a3e 2e66 85be e1e7 c13d a33c 0e3e
00000070: 00bd 25be 1922 02be 6de3 1b3e 24bf 74bc
00000080: 24d1 f1be 619d 2c3d 64d4 a7be 7648 80bd
00000090: e389 31bd 0da0 a1bb 9c80 77bd 43e5 b43e
000000a0: 1728 b5be 72a2 023e f83e e7bd 3ca0 233e
000000b0: c3f5 a63e 8a68 1c3e e439 fbbd 917c debe
000000c0: b1c0 81bc 3af8 123e a8a3 393e e0aa 023c
000000d0: 050b 933c 86e8 763e ba3d f6be be55 b0bd
000000e0: ad3f 313e e452 093e 1fda dcbe 5b3a c2bd
000000f0: f53c e83d 4026 fd3d 0e34 96be c3be 12be
00000100: a462 fabd d1c4 c1bd 18e4 47bd 16ee bc3d
00000110: bdcf 31bf f8ee b03d 8e70 1fbf 3ea9 15bf
00000120: 0241 333e bca3 87bd ae8f d63d 184b 68bc
00000130: cdec ca3c f37f 5fbe b4cd 24bf 54fd f1bc
00000140: c317 bbbc f229 f7bc c9a4 ba3e 40bf ad3c
00000150: a7bb 943e 3658 8dbd 3fb3 e33d ea34 cabd
00000160: 22a9 0640 ec9c 0ebf aadd a93d 5517 27bd
00000170: 19f9 e8bc 0833 9c3e f9d5 27be 4d97 aebc
00000180: c2f5 f4bd 6d1c 383e 7d0d 463e a469 79be
00000190: 4316 d2bd db7b a33e 2f16 f0bc d563 5e3e
000001a0: 48dd 05bf 9fda 14bf 8d60 65bd e885 88be
000001b0: 60d1 403e a48c 153d 84b6 a33d e072 d3bd
000001c0: 5260 8cbf 6c9f 893d 28a0 a4bd 3942 d83d
000001d0: bebd 6bbe e54d 0ebf db84 dbbe 63ef 0b3e
000001e0: 13d4 1b3e 699f bbbe 88fd c83e 1da6 803e
000001f0: e408 9bbe 4098 0dbf 1a02 c9be 016e 523d
00000200: 8db4 e7be 7308 503f c538 643e 44ac fc3d
00000210: 915e e2bd bced e43e 2739 0a3e 6592 893d
00000220: 5f71 e5bd 2b3e 0abf 0ce4 4e3e 5aa2 3c3d
00000230: f0fa 4b3e bf3c d4bb 149c f33d c974 3a3e
00000240: bc66 dcbd debf abbc f0c9 b5bd e997 483e
00000250: 4e1d eb3e 02ae 4a3f 8dbd fdbc 4cc0 64bd
00000260: 950c 5a3d 356c 00be 3f93 653e 51c0 113e
00000270: e387 4abe 4b1e b9bd db17 8b3d a741 bd3b
00000280: fe66 d0be a553 8abd 968d d9be 2d87 8b3d
00000290: 0cf8 10bd f2c1 50bc cfb0 a8bd 8587 b23e
000002a0: ddf3 debe db76 803d d2d0 573d da27 a73d
000002b0: 9897 a23e 5875 4f3e 5cac c73c a197 b9be
000002c0: c2d3 543d 68f5 553e b5e6 3f3e 2384 84bd
000002d0: ef9d 753c b376 6d3e 7cc1 d2be 13b6 833c
000002e0: a976 8d3d c39d 353e 3353 8cbe a2f0 c1bc
000002f0: 60aa 183e 7527 f73d 89b2 79be 06fa d3bb
00000300: 6c6f e03c c4ab 36be 83e1 d7bd 297a 1f3e
00000310: 9be5 13bf 6d6b fc3c 4ba5 f1be 61db efbe
00000320: a8fe 573e 718a 00be 5d9c 373e a479 02be
00000330: 1197 f23d 63a1 4ebb 57f2 14bf c636 ffbd
00000340: 0212 db3b ac3d 35bd 10e1 863e f994 b03d
00000350: 3917 9f3e d86a 9ebd f5e6 323e f495 c0bd
00000360: 23aa 0240 f1f4 d7be bee5 523d 5669 94bd
00000370: b4b4 4abc fb70 c73e e4a9 06be 6c53 20bd
00000380: b1a9 66be 4493 a23e bc3d 873d d5e3 72be
00000390: 3ede 5e3c 9a4a a93e 2e44 9abd d270 cb3d
000003a0: bb3d eabe 8987 17bf 6ab9 84bd 128f 26be
000003b0: 2537 373e aebc 1c3d eac1 d23d b886 0bbe
000003c0: 1906 8abf 776d fe3c df6c a7bd 8e9e 143e
000003d0: 4330 83be ebd7 03bf faa1 c8be 3ea9 283e
000003e0: 5724 f23d 52fa 8cbe 1098 b43e 3627 043e
000003f0: 944b 09be 2280 00bf 3dba b8be ebcc 143e
-0.517058 0.8530154 0.05557282 0.19726546 -0.36161178 0.47937548 0.13401738 0.059335366
-0.13719092 -0.54674244 0.20552254 0.05827231 0.12521423 -0.15595996 0.17176875 0.057891935
-0.051058404 -0.028289255 -0.19029249 0.095162764 0.4032293 0.71469843 0.0031968257 -0.03358794
0.21351656 -0.2605452 0.094680555 0.13890319 -0.16185379 -0.1270832 0.15223475 -0.01493815
-0.47229874 0.042142276 -0.3277923 -0.06263821 -0.04334439 -0.0049324096 -0.060425386 0.35331163
-0.3538215 0.1275728 -0.11291307 0.15979093 0.32609376 0.15274253 -0.12266901 -0.43454412
-0.015838953 0.14352503 0.18128836 0.00797531 0.01794959 0.24112138 -0.4809397 -0.08610104
0.17309447 0.13410527 -0.43135163 -0.09483787 0.11339752 0.12360811 -0.2933659 -0.14330582
-0.122258455 -0.09461368 -0.04880151 0.09225099 -0.6945761 0.0863933 -0.6228112 -0.5846137
0.17505267 -0.06623027 0.104766235 -0.01417806 0.024771119 -0.21826153 -0.6437638 -0.029539742
-0.022838479 -0.030171368 0.36453846 0.02120936 0.29049417 -0.069015905 0.11118173 -0.09873374
2.104073 -0.55708194 0.08294232 -0.040793736 -0.028439092 0.30507684 -0.16390218 -0.02131238
-0.11960937 0.17979594 0.19341083 -0.24356705 -0.10258152 0.31930432 -0.029307453 0.2171777
-0.52290773 -0.5814609 -0.05600028 -0.26664662 0.1882987 0.03651108 0.079937965 -0.10324645
-1.0966895 0.067198604 -0.0803836 0.10559506 -0.230216 -0.5558761 -0.42874798 0.13665538
0.15217619 -0.36645058 0.3925593 0.25126734 -0.3028022 -0.5531044 -0.39259416 0.05137444
-0.45254937 0.8126289 0.22287281 0.123375446 -0.11053193 0.44712627 0.13498364 0.06717376
-0.112032644 -0.5400111 0.2020418 0.046053268 0.19919944 -0.006476968 0.11895004 0.18208613
-0.107617825 -0.020965513 -0.08876407 0.19589199 0.45920795 0.79171765 -0.030974174 -0.05584745
0.053234655 -0.12541278 0.22419451 0.14233519 -0.19778399 -0.09038981 0.067916594 0.0057756486
-0.40703577 -0.06754235 -0.42490834 0.06812892 -0.035392806 -0.012741553 -0.082368486 0.34869018
-0.43545428 0.0627267 0.05268938 0.08161898 0.31756282 0.20259607 0.02437418 -0.36248496
0.05195976 0.20894396 0.18740351 -0.064705156 0.014991268 0.23189811 -0.41163242 0.01607803
0.06907398 0.17735963 -0.27407226 -0.023674313 0.14908743 0.12068073 -0.24384512 -0.006469014
0.02739688 -0.17838961 -0.1054106 0.15573944 -0.57772225 0.030812943 -0.4719642 -0.4684706
0.21093237 -0.12552811 0.17930742 -0.12741715 0.1184522 -0.00315293 -0.5818228 -0.12461619
0.0066854963 -0.044248268 0.26343584 0.08622164 0.31072405 -0.077352226 0.17470916 -0.09403601
2.0416343 -0.42179063 0.05148863 -0.07246654 -0.012372185 0.38953385 -0.13150746 -0.039142057
-0.2252567 0.3175298 0.06603572 -0.23719724 0.013602791 0.3306473 -0.075325355 0.09933628
-0.45750222 -0.59191185 -0.064806774 -0.16265514 0.1789213 0.038265876 0.102908924 -0.1362561
-1.0783111 0.031058056 -0.081750624 0.14513609 -0.25622758 -0.5150134 -0.39186078 0.16470811
0.118233375 -0.2753473 0.35272264 0.12905583 -0.13407737 -0.50195515 -0.3607959 0.14531295

bias f4 [128]
00000000: 4f6d 433f 446f 653f 5397 28bf 85c0 dfbe
00000010: 0268 50bd ac02 863d c02a 3cbd b81a 4a3f
00000020: 8457 143e 6cdf 8e3d be09 a83e 6b88 2a3f
00000030: b2d4 453f 8cdc 4c3f a581 3b3f c9c0 c1be
00000040: c405 70bd 1546 8abd 6cab 4b3f 5247 0dbe
00000050: 3d64 463f ad72 0ebf f336 733d d8e8 7a3f
00000060: 87df 1dbf a66f 433f 4b55 66bc e28f f2bc
00000070: 4cee 3e3f 7a64 fbbe c54b 8ebc b72a 26bd
00000080: e570 a43e 2464 7fbd b4cd f53c ee83 173d
00000090: fec3 433d f317 c53c 30f0 b8bd 3dec 5dbe
000000a0: 71d4 5f3d bcdc 7a3f 4378 413f 042b 3f3f
000000b0: 0e4e 8b3f 0c47 513f f0b9 1d3f 14cc 7cbd
000000c0: f880 683f 0bb1 403f d4ae 3b3f f7ab 553f
000000d0: 0e83 283f 4b78 823f fa74 e3be d129 083f
000000e0: 5d4a 18bd 0ac6 283f e62d 3f3d b03c 993b
000000f0: 1344 0dbf 2b5c 4f3f 4c43 5c3f b858 533f
00000100: 57cb 9a3d f50e 493f d4b1 463f d5d2 973d
00000110: 19a0 90be 03bb 26bf 175e 273f fe54 9dbd
00000120: e838 7e3f d684 243d 92aa 6b3f c3c6 753b
00000130: 0f90 5d3f 3ec7 573f c24d 263f 2d50 3d3e
00000140: 4b28 61bd de6c b9be e024 293f a742 4e3f
00000150: b6a4 4f3f 37bf b93c 854b 0d3b e004 3b3f
00000160: 0407 8e3d 0028 433a 7d0c 173f 8d31 893f
00000170: 176b ba3c 2215 14bf 4e73 2c3d 9051 e8be
00000180: 1348 3a3f a1d4 cdbc 326a dfbc 8624 20bb
00000190: 6b7f 3b3f 8af0 e23c 009c 433f bc92 3d3f
000001a0: 557e 0abd 30d5 f93b 18ae cc3a 4a08 3f3f
000001b0: 773a 323f 7449 8b3c 4374 543e 38f5 433d
000001c0: a998 4e3f 0b35 62bd 78bf 9fbe e1cc d1be
000001d0: f4db 4f3f fc83 393f 3a19 5dbc 02d9 03bf
000001e0: 5d85 ebbe 17a4 78be 7a68 06bf f7cd 593f
000001f0: 3e86 da3e cb15 cabe 8706 5d3f d8e2 1b3f
0.76338667 0.896229 -0.658559 -0.43701568 -0.05088044 0.06543478 -0.045939207 0.7894702
0.1448651 0.06976208 0.32819933 0.6661441 0.7727767 0.8002403 0.73244697 -0.37842396
-0.05859925 -0.06751648 0.79558444 -0.13796738 0.774967 -0.5564373 0.059378576 0.9801154
-0.616692 0.76342237 -0.014058421 -0.029609624 0.7458236 -0.49100095 -0.017370114 -0.04056808
0.32117382 -0.06235136 0.030005313 0.036991052 0.047794335 0.024059271 -0.09030187 -0.21672149
0.05464596 0.97993064 0.7557413 0.7467501 1.0883195 0.81749034 0.61611843 -0.06171806
0.9082179 0.75270146 0.7331364 0.8346552 0.65824974 1.019296 -0.44425184 0.53188807
-0.037180293 0.65927184 0.04667463 0.004676424 -0.55182 0.8100001 0.86040187 0.8255725
0.07558315 0.7853845 0.77615094 0.0741326 -0.28247145 -0.6512911 0.65377945 -0.076822266
0.9930558 0.040165745 0.92057145 0.0037502504 0.8654794 0.84288394 0.649624 0.18487616
-0.054970067 -0.36215872 0.6607189 0.80570453 0.81110704 0.022674186 0.0021559906 0.73054314
0.06934932 0.000744462 0.5900343 1.0718247 0.022756143 -0.57844746 0.04210215 -0.45374727
0.72766227 -0.025125803 -0.027272318 -0.0024435832 0.732413 0.027702589 0.7640991 0.74052024
-0.033811886 0.007624291 0.0015615849 0.74622023 0.6962046 0.017002799 0.20747475 0.04784128
0.8070169 -0.055226367 -0.31200767 -0.40976623 0.81194997 0.7246702 -0.013494784 -0.51503
-0.46000186 -0.24281345 -0.5250317 0.850799 0.42680544 -0.39469752 0.86338085 0.6089301

weight f4 [1, 128]
00000000: b604 fe3e f755 de3e 8445 373e f542 57be
00000010: 7c76 8dbc fc29 073d 4412 89bd e85d 263f
00000020: 4006 10bf 9dd9 96bd d83f a2bf 20fc 2b3f
00000030: ed46 003f 12ae 0b3f 4bd4 143f 3af7 8b3e
00000040: 307d 473b e083 4fbd e3a8 023f 8ec9 33be
00000050: b039 003f d920 063f fac5 6d3d f0d3 d63f
00000060: dcbb 9b3e f727 053f 184e 43bd 57fc 7cbd
00000070: 28a5 443f c2f3 d1bb 754b 933d 2cbe 86bd
00000080: db06 03be b7a5 373c d223 243d 02cc d03c
00000090: 6880 0f3d 9c35 27be e10f 5a3d 116c 20be
000000a0: 6d70 943e 42c2 e93f d6f1 3e3f 222f bb3e
000000b0: e227 cf3f d13c db3e 20c8 0c3f 4c59 8f3d
000000c0: 8875 be3f f3dd 133f c080 083f 56b3 063f
000000d0: 2854 ad3e ceb9 de3f 83f5 7bbe 119d d13e
000000e0: e5da 183d a189 e33e 778a 9bbd 03d0 b4bd
000000f0: 5e1d 363f e18c de3e 48e2 0940 23e6 0c3f
00000100: 59ea 66bd 9302 103f 61ed 293f 65a7 12bd
00000110: d7f9 c93d cc1e d33e 754a f63e 6206 66bc
00000120: 68d5 f23e d6f6 2abc d374 083f 5125 593e
00000130: cae2 f23e a74f 143f 32a8 e23e b257 d3be
00000140: e941 573d e4dd 6dbe 7d03 073f b984 0f3f
00000150: ede8 ee3e a269 63bd 49a2 553d ea01 f73e
00000160: 7247 6a3d 460e 5e3d 8b96 f23e 9ecb dd3f
00000170: de6c 25bd b605 113f fe37 26bc e012 90be
00000180: be52 193f 6cf1 723a 1c07 05bc ff40 313b
00000190: fab3 1f3f fdbd 183d 0ae6 90bc 0cd5 be3e
000001a0: dfb5 36bc a1a0 aa3d 9f9c 35bb 166a e63e
000001b0: 1127 073f 0deb 17bd b8ef 57bd 4c23 ddbd
000001c0: 070a fd3e 3f68 383d baf8 863f 27f9 85be
000001d0: 6833 303f 7501 b43e 24b0 833d e1df 8b3e
000001e0: d2bd 8abe dc49 aebe 9ba9 90be 430d 63be
000001f0: c592 05be f291 c8be 74ab ba3e 1fc3 053f
0.4961297 0.4342496 0.17897612 -0.21021636 -0.017268412 0.032999024 -0.06692937 0.6498704
-0.56259537 -0.07365725 -1.2675734 0.6718159 0.50108224 0.54562485 0.58136433 0.27337056
0.0030439608 -0.050662875 0.5103895 -0.17557356 0.50088024 0.5239387 0.058050133 1.6783428
0.30416763 0.52014107 -0.047681898 -0.061764088 0.7681451 -0.006407232 0.07192127 -0.06579241
-0.12795584 0.011208943 0.040073223 0.025487904 0.035034567 -0.16329044 0.0532378 -0.15666224
0.28992024 1.8262408 0.7458776 0.36559397 1.6184046 0.42819837 0.54992867 0.06999454
1.4879618 0.5776054 0.53321457 0.52617395 0.3385327 1.7400453 -0.24605374 0.40940145
0.03731813 0.4444094 -0.075947694 -0.088287376 0.7113856 0.43466857 2.154436 0.5503866
-0.056375835 0.5625393 0.66377836 -0.03580417 0.09862106 0.41234434 0.4810368 -0.014039608
0.4742844 -0.010434827 0.5330326 0.21205641 0.4743865 0.5793404 0.44268948 -0.41277844
0.05255309 -0.23229176 0.527397 0.56061894 0.46662083 -0.05552066 0.05215672 0.48243648
0.05719704 0.05421283 0.4738048 1.7327764 -0.040387027 0.5664934 -0.0101451855 -0.281394
0.5989188 0.0009267542 -0.008119371 0.0027046797 0.62384 0.037290562 -0.017687816 0.37271917
-0.01115176 0.08331419 -0.0027711762 0.45002812 0.52793986 -0.037089396 -0.052718848 -0.10797748
0.49421713 0.04502129 1.0544655 -0.2616665 0.6882844 0.35157362 0.064300805 0.27319244
-0.27097946 -0.34040725 -0.282544 -0.22173028 -0.1304427 -0.39173847 0.36458933 0.52250856

weight f4 [4, 128]
00000000: 4fe9 593d dd1c 2a3d 2461 abbe 3026 05be
00000010: dcd0 0cbd c0b2 4fbd b8f4 473d bd02 3eba
00000020: de45 72be e5c9 1fbd 22de 183f fa28 57bd
00000030: 23c7 b83d c4da 84bd 2935 72bc 4052 9dbe
00000040: aa50 603d ff40 b13c 30a3 4d3c d935 1dbe
00000050: 5037 ad3b 9985 22bf 5192 ddbc 0715 013d
00000060: 8462 fdbe 15a7 9b3d b516 88bd 116f ab3d
00000070: 4f95 843d c5fe 433d 1140 403c 0190 da3c
00000080: 0721 a5bb e51b 0a3c d97f 813d 1c06 01bd
00000090: 4ee5 56bd 2403 f1bd f7eb 24bd 4ff1 413d
000000a0: 7113 493c 5a47 c5bd 3212 0f3d a103 aebc
000000b0: 7a2b eebd 120d 53bc f08e 473d 9358 70bd
000000c0: aa7e 1dbc 5857 343d 6e15 8e3d d4cc fa3b
000000d0: 42c8 bd3c a9e1 d7bd a1c9 aebd 8877 ad3d
000000e0: 0eaa a6bc fd44 08bd e45c b23c c0f1 05bd
000000f0: 089a 34bf a868 9c3d d2e0 8bbd d9a5 f03d
00000100: 2ab2 51bd 1ff2 9dba 4d5e 48bc 4de7 883d
00000110: ff4d 253e 2421 39bf b672 a33d 8810 b43d
00000120: 71ed cf3d b502 9cbd 0b25 523d 5074 c33e
00000130: e935 633d a977 d83c bf31 e73d f115 ae3e
00000140: 1a4f 80bd 2cfe 3cbc 23e3 29bd a817 e23d
00000150: c417 b93d a907 cfbc 6906 ca3a 1cde 023c
00000160: 07d5 a63c ee42 a1bd d833 4bbc 7cfc bebd
00000170: de58 20bd dc4f 32bf 4a06 ef3c f50b 7abd
00000180: f04c 113d 4e0d a43c 3a96 dd3d d195 52bd
00000190: a99f da3d 3639 ae3d c46b 103e 27dd 96bc
000001a0: 1751 b6bc c49e 7cbc 5aaf 6a3d 880a a03d
000001b0: ed81 4b3b 45dd 95bd 0995 fd3e ee32 033c
000001c0: 23e2 e63d 2256 603d 9b5c fc3c f690 82bd
000001d0: a537 2abd a56d 31bd ad1d 8e3d 8304 d0be
000001e0: 722b 6c3b b561 6ebd 5284 c2bc a9df 8c3e
000001f0: 048e 033d a4b0 26bd 0268 3d3d 8638 2b3b
00000200: 3a4e bd3c db43 c73d 9dfd 99be 7a2a dfbc
00000210: 2ca6 0a3d 2f9c 2d3d e41d 79bd 8728 6d3c
00000220: f7ce 64bd 66a7 92bd 7276 2e3d adf5 37bd
00000230: e964 ff3d be6c 4e3d d738 c9bb 8cbf bfbe
00000240: fee3 1a3d 533e ebbc cbfa b03d 1eae 0fbe
00000250: ef0d cd3d a6ec 41bf b6a0 a3bd 0287 3cbe
00000260: b174 15bf 38d2 863d e9df 45bd 974b abbd
00000270: bc19 01bc 594f 77bc 146c 8cbc 5eef a23d
00000280: 784c 47bd bb75 f13c 6424 fa3c 4ce7 883d
00000290: c6ec 293d 5d25 b0bd 7046 b43b c044 87bd
000002a0: e604 2bbe e2d1 8cbd 718b 373d 29c1 303d
000002b0: 7a72 f0bc 12ac e83c d4da 6abd d7ae b63c
000002c0: 83d6 c53c eec3 efbb fde4 5f3d 0b6c 403d
000002d0: af53 073d c729 05be 25a9 2cbd d9df 05bd
000002e0: 6616 a63d a082 03bc bf59 8b3d 20ad 17bb
000002f0: 2752 0abf 1fad 963d c1d5 663d 475f c63d
00000300: 0bd6 39bd b131 4d3d 611a 883d 562c a03d
00000310: 625a 4cbd 0e21 3dbf f50c 7abb 89b7 df39
00000320: d937 c43d 472d 2abd 5d5b 0a3e a1d7 8ebe
00000330: 5489 a33d 9ba4 9c3d d848 84bd 3f6a 0b3e
00000340: 0b5a 603d 00c9 06bd 049f df3d a10b 35bc
00000350: 1074 7c3d da61 00bd 0cea fa3c 561e b73d
00000360: 7823 bbbd d31f 4dbd 91b0 35bd 1798 f6bd
00000370: b643 a63d fb7a 31bf c50a 04bd 2666 67bd
00000380: fab7 a4bc abb4 f9bc 77ba a63c bf8d b83c
00000390: 8480 9f3d ba28 69bd 45c0 e73d 4808 5e3d
000003a0: 89a3 5a3c e237 193d 2e5a 9fbb dc28 57bc
000003b0: 7eb3 cbbc 4f0f acbc 0a4e 85bd 3d79 cb3d
000003c0: 87f8 ea3c 4620 a8bc 8436 47be ea34 193c
000003d0: da3f e9bb 88d2 ccbc 5745 393d 73c7 f5be
000003e0: 5ff4 86bd c8d7 153c ff82 19bd cf72 9b3e
000003f0: 48b7 c83d 1a61 04be 2519 a73d e847 8d3d
0.053201016 0.041531432 -0.3347255 -0.13002849 -0.03437887 -0.05070758 0.048817366 -0.0007248333
-0.23659465 -0.0390109 0.5971395 -0.052529313 0.09022357 -0.06487039 -0.014783182 -0.30726814
0.054764427 0.021637438 0.012551114 -0.15352573 0.005286135 -0.63485104 -0.027047308 0.031514194
-0.49489224 0.07600228 -0.06644956 0.083707936 0.06473791 0.04785039 0.011734025 0.026679995
-0.0050393376 0.008429502 0.06323213 -0.031499967 -0.052464776 -0.11768177 -0.040264096 0.04734927
0.012272702 -0.0963275 0.03492946 -0.021241965 -0.11629386 -0.012881534 0.0487203 -0.05867822
-0.009612719 0.04402861 0.06937681 0.007653812 0.02316678 -0.10541088 -0.085345514 0.084700644
-0.02034476 -0.033268917 0.02177281 -0.032701254 -0.70547533 0.07637149 -0.068299904 0.11750383
-0.0511953 -0.0012050307 -0.012229514 0.06684742 0.16143034 -0.72316194 0.07980864 0.087922156
0.1015271 -0.07617704 0.05130486 0.38174677 0.055471335 0.026424246 0.11288785 0.34001115
-0.062650874 -0.011535209 -0.04147638 0.11039668 0.09037736 -0.025272207 0.0015413287 0.007987525
0.020365251 -0.07874094 -0.012402497 -0.09325501 -0.03914725 -0.69653106 0.029177804 -0.06104656
0.035473764 0.020025875 0.10819669 -0.051412407 0.10674984 0.08507006 0.1410361 -0.018416
-0.022255464 -0.015418712 0.057296135 0.07814509 0.0031052784 -0.073175944 0.49527767 0.008007748
0.11273601 0.054769643 0.030805876 -0.06375305 -0.041556973 -0.043317456 0.06939254 -0.40628442
0.0036036638 -0.05819865 -0.023744736 0.2751439 0.03211786 -0.0406958 0.046241768 0.002612622
0.02310859 0.09729739 -0.30076304 -0.027241934 0.03384988 0.042385276 -0.06081952 0.0144749945
-0.05586144 -0.07160835 0.042593427 -0.04491203 0.12470419 0.050396673 -0.006140809 -0.37450826
0.037815087 -0.028716242 0.08641585 -0.14031264 0.10012423 -0.7575172 -0.079896376 -0.18410876
-0.5838118 0.06583065 -0.04830924 -0.08364027 -0.007879671 -0.015094602 -0.01714138 0.07955812
-0.04865691 0.029475084 0.03053493 0.066847414 0.04148557 -0.086008765 0.005501561 -0.0660491
-0.16701087 -0.068759695 0.044810716 0.043152962 -0.029351462 0.028402362 -0.057337597 0.022300167
0.024150139 -0.007317058 0.05466174 0.046978038 0.03303879 -0.13004218 -0.042153496 -0.03268418
0.08109741 -0.008026749 0.06804227 -0.0023143962 -0.54031605 0.07357239 0.056356195 0.096861415
-0.045370143 0.050096218 0.066456564 0.078209564 -0.049890883 -0.7387856 -0.0038154696 0.0004267062
0.095809646 -0.041547086 0.13511415 -0.27898887 0.07985178 0.076485835 -0.06459206 0.13614748
0.05477337 -0.032906532 0.10919002 -0.011050136 0.061634123 -0.03134332 0.03062918 0.08941333
-0.091376245 -0.050079178 -0.04435784 -0.120407276 0.081183836 -0.6932828 -0.032236833 -0.0564939
-0.020107258 -0.030481657 0.020352585 0.022528527 0.07788184 -0.056923606 0.113159694 0.054207116
0.013344654 0.03740681 -0.004863045 -0.0131323 -0.024865862 -0.021003393 -0.065090254 0.09935234
0.02868296 -0.020523202 -0.1945439 0.009350995 -0.0071182074 -0.025002733 0.045232143 -0.4800373
-0.06589579 0.009145685 -0.037478443 0.3036103 0.09800583 -0.12927666 0.08159093 0.06898481

bias f4 [4]
00000000: 3d08 52bd 7c6d 713f aadb 53bf f85f e33e
-0.051277388 0.94307685 -0.82757056 0.44409156
