models/cache_agent/5/D3QN_q_eval.pth (torch, 238173 bytes, 21 tensors)

weight f4 [128, 15]
0.5137003 -2.356605 -7.2161403 -8.323938 1.1457441 0.96338373 0.8018526 1.7444601
-2.1797295 -0.13957298 1.2801256 0.2295117 2.904801 0.47562337 0.020601885 -2.1050458
0.48412028 -0.8644311 1.0221746 -0.065767966 -1.3234375 0.30428618 0.81430423 3.2296376
-0.22049926 0.39007095 0.07757097 0.5062176 1.3794745 -0.38999894 -0.08059831 -3.2867994
-8.047011 -8.604385 0.01448223 0.2080456 -0.9518539 0.37425712 -4.2939997 -0.0012578964
0.3899662 0.21565926 1.6700355 -0.75436604 0.0043367045 0.32175896 -2.422964 -6.980898
-8.38606 1.2275593 1.2266867 0.82983667 1.6901363 -2.1333156 -0.2113635 1.4332467
0.03704351 2.8043494 0.65054417 0.31306398 -1.4175161 0.4240017 -0.41041395 1.0331578
-0.4288829 -0.7462829 0.3137875 0.9202021 3.56768 -0.0027226806 0.7236461 -0.015002615
0.3250518 1.3456675 -0.26388898 -1.1017475 0.8835562 0.08270566 1.3337001 0.20230246
-1.0605929 0.3223524 1.0125259 3.54904 -0.25281814 0.44219282 -0.01414909 0.52025
1.5853245 -0.22512375 -0.16708644 -0.1958501 0.1457115 -0.23038991 -0.20628843 0.04301136
0.19170496 -0.2883783 -0.04935925 0.2210576 -0.13138206 -0.0014637697 0.08018706 -0.2696946
-0.30090487 -2.2071128 1.1948657 -0.8336271 1.3764358 1.1082844 -1.6599256 0.24412435
0.50025594 3.7756011 0.17901176 0.030345539 -0.009566734 0.2866556 0.82888836 -0.087659284
0.42263663 -1.161864 -7.240712 -7.4796424 -1.0887907 -4.5240498 -2.8516464 0.050931353
-0.8948586 -0.15423092 -0.61581516 0.29249778 0.16882724 -1.603355 -0.000903528 -0.68736935
2.2201653 7.4303913 7.8169894 -1.726795 -0.7593823 -0.11991348 -1.2964108 2.3169498
0.144779 -1.067641 -0.063364305 -2.8955543 -0.63705 0.1422237 -1.6128443 0.6198134
-0.540119 0.87453645 -0.27383772 -0.9013076 0.31548482 0.8640477 3.4251685 -0.020650014
0.683321 -0.0059637562 0.2612125 1.0571531 -0.23878038 1.2175831 0.76146305 1.8430803
3.1718984 2.8620405 0.3655377 0.55546176 0.5314526 0.72587013 0.23323056 -0.5038909
0.27407157 0.57463574 1.0091871 -0.14422967 0.32895413 -1.2973981 -6.4331713 -6.3066077
-1.8093051 -3.2619214 -1.8844795 0.35197714 -0.7842475 0.047887653 -0.08868503 0.41755134
0.47311684 -0.67996824 -0.01816001 -1.3691664 -2.9820342 -6.295207 -7.711147 -0.7793716
1.3944651 -0.73544323 0.94115144 -3.949048 0.15681732 0.5379864 0.32812914 1.8875059
-1.3843255 -0.0043143346 0.37294698 0.84154016 1.4020973 3.017581 3.3041239 0.47900146
0.24166897 0.67351735 0.6378471 -0.19352934 -0.67341995 0.33561814 0.3985924 0.81487024
-0.17135498 0.21026081 -2.3816023 -6.9638023 -7.8567195 1.082847 1.2230359 1.0191982
1.8862793 -2.0003335 0.03893751 1.556781 -0.18831119 3.1999633 0.68768686 0.2900739
0.67286986 -2.2889085 -7.4637284 -8.253844 1.569434 1.2914331 1.3701884 1.8042772
-2.2786257 -0.09145509 1.3788385 -0.340254 3.3513894 1.1687647 0.06293503 0.2990005
00000000: dd81 033f 9ed2 16c0 9fea e6c0 da2e 05c1
00000010: bea7 923f 51a0 763f 3646 4d3f 784a df3f
00000020: b080 0bc0 38ec 0ebe 28db a33f 1d05 6b3e
00000030: 42e8 3940 e884 f33e 49c5 a83c 12b9 06c0
00000040: 9dde f73e 5b4b 5dbf 9ed6 823f 5bb1 86bd
00000050: 6666 a9bf 66cb 9b3e 3e76 503f 62b2 4e40
00000060: 8fca 61be 61b7 c73e 87dd 9e3d 7a97 013f
00000070: 9f92 b03f f1ad c7be ba10 a5bd ec5a 52c0
00000080: 8fc0 00c1 90ab 09c1 e046 6d3c e809 553e
00000090: b2ac 73bf a19e bf3e 7268 89c0 00e0 a4ba
000000a0: a6a9 c73e c8d5 5c3e b9c3 d53f 221e 41bf
000000b0: ea1a 8e3b 97bd a43e d811 1bc0 8463 dfc0
000000c0: 4d2d 06c1 aa20 9d3f 1204 9d3f 2d70 543f
000000d0: 6356 d83f 3e88 08c0 ac6f 58be a174 b73f
000000e0: efba 173d 767a 3340 108a 263f ec49 a03e
000000f0: 2b71 b5bf c016 d93e c721 d2be 843e 843f
00000100: 8a96 dbbe 650c 3fbf c1a8 a03e 5d92 6b3f
00000110: de54 6440 006f 32bb df40 393f 87cd 75bc
00000120: 316d a63e d53e ac3f 751c 87be 1006 8dbf
00000130: bd30 623f 9661 a93d afb6 aa3f 6028 4f3e
00000140: 82c1 87bf 600b a53e 739a 813f 7923 6340
00000150: 6171 81be 1967 e23e 96d1 67bc 1b2f 053f
00000160: eaeb ca3f d786 66be b518 2bbe ee8c 48be
00000170: 6535 153e 55eb 6bbe 463d 53be ae2c 303d
00000180: 4e4e 443e 52a6 93be ed2c 4abd ec5c 623e
00000190: 0589 06be f6db bfba 1d39 a43d 6915 8abe
000001a0: 3410 9abe 5641 0dc0 5cf1 983f 9668 55bf
000001b0: 0c2f b03f 43dc 8d3f 7178 d4bf bcfb 793e
000001c0: c610 003f 73a3 7140 dc4e 373e 3597 f83c
000001d0: cabd 1cbc 86c4 923e 0732 543f b686 b3bd
000001e0: d463 d83e f6b7 94bf eab3 e7c0 3b59 efc0
000001f0: 7e5d 8bbf 04c5 90c0 6081 36c0 659d 503d
00000200: 7415 65bf b6ee 1dbe 10a6 1dbf 45c2 953e
00000210: 0ce1 2c3e bd3a cdbf bdda 6cba 70f7 2fbf
00000220: 3017 0e40 c4c5 ed40 c724 fa40 9e07 ddbf
00000230: e166 42bf 3395 f5bd caf0 a5bf e848 1440
00000240: f240 143e 76a8 88bf 25c5 81bd c350 39c0
00000250: b515 23bf 17a3 113e af71 cebf 17ac 1e3f
00000260: 3d45 0abf 9fe1 5f3f 7534 8cbe 18bc 66bf
00000270: 3a87 a13e 3b32 5d3f f635 5b40 382a a9bc
00000280: 20ee 2e3f 9d6b c3bb a5bd 853e cb50 873f
00000290: d882 74be c3d9 9b3f 3eef 423f 0eea eb3f
000002a0: 6200 4b40 ac2b 3740 c227 bb3e be32 0e3f
000002b0: 470d 083f a0d2 393f fed3 6e3e fefe 00bf
000002c0: 1c53 8c3e 541b 133f 0b2d 813f f1b0 13be
000002d0: ad6c a83e 2411 a6bf 8adc cdc0 bbcf c9c0
000002e0: 4f97 e7bf 52c3 50c0 a036 f1bf 5936 b43e
000002f0: 72c4 48bf d825 443d 7fa0 b5bd 4ac9 d53e
00000300: 5f3c f23e 6612 2ebf 4dc4 94bc d840 afbf
00000310: a6d9 3ec0 5672 c9c0 b7c1 f6c0 e684 47bf
00000320: d57d b23f 0246 3cbf 4def 703f 34bd 7cc0
00000330: b894 203e 7ab9 093f 8b00 a83e cb99 f13f
00000340: 9431 b1bf 435f 8dbb e8f2 be3e 2d6f 573f
00000350: ed77 b33f 0c20 4140 c476 5340 ae3f f53e
00000360: 1278 773e a26b 2c3f f349 233f 8e2c 46be
00000370: 4065 2cbf 24d6 ab3e 4e14 cc3e 569b 503f
00000380: ae77 2fbe 9c4e 573e 2c6c 18c0 78d7 dec0
00000390: 3f6a fbc0 bb9a 8a3f 718c 9c3f 1675 823f
000003a0: 9a71 f13f 7705 00c0 f07c 1f3d 9a44 c73f
000003b0: a6d4 40be 33cc 4c40 3f0c 303f 9184 943e
000003c0: 3341 2c3f 7a7d 12c0 ddd6 eec0 bf0f 04c1
000003d0: 37e3 c83f ae4d a53f 5562 af3f 8ef2 e63f
000003e0: 01d5 11c0 ce4c bbbd c87d b03f c635 aebe
000003f0: 2a7d 5640 159a 953f 15e4 803d 9816 993e

bias f4 [128]
2.7779734 0.23665348 1.8605105 3.170458 0.42417458 0.37545365 -0.22562686 0.47131246
0.19286665 -2.7019782 0.6553513 0.1834993 0.83360916 1.9293755 -0.103226624 3.1261241
3.0483062 0.089549236 2.9205747 -2.5031788 -2.518927 3.450276 1.2575749 -0.15445033
-1.1993654 -0.0066913366 -2.4434774 0.5888871 0.04031837 -0.96137655 0.004152906 0.42596045
-2.5840185 -1.015966 -2.5805583 0.26406667 0.45662567 -0.5251583 3.2739072 3.3068676
-0.13999616 -2.5442133 -2.8632262 0.20018606 -1.3810713 -0.28324687 3.3888361 3.195837
3.266591 3.172922 0.024328455 -0.10970885 -0.10279633 -2.8349884 3.108068 -2.4210093
2.9620612 -0.19212593 3.2055125 -2.9323764 -2.5996451 0.3408466 -0.048114315 2.753064
1.2267693 -1.5215831 0.1372349 2.9676762 -0.121851884 3.096102 0.5102226 0.45840687
-0.11165421 -0.25805447 3.1711676 3.0569506 1.1532358 0.31686646 0.19280638 3.0333445
3.0632834 -0.102728784 0.057816893 -0.13993704 -2.441029 0.35108978 2.9649863 2.6727302
3.3218217 0.025741998 -2.7167983 -0.14446747 3.4538324 0.33468926 -0.39368334 3.124318
3.280872 -0.035994336 -2.522608 2.9894018 3.1022213 0.029254762 2.916891 2.9274018
2.947356 0.03870201 3.2283633 0.20627874 -2.4634864 0.05524105 -2.4929495 3.0285459
-0.15081514 2.9038866 0.45394632 -0.14856102 -2.307497 -2.2622335 0.2632083 3.3415647
3.0965693 0.35754728 -2.4559422 -0.6631071 0.0711537 3.5660348 -0.16939208 -2.5816646
00000000: 51ca 3140 4a55 723e 3525 ee3f c9e8 4a40
00000010: 692d d93e 763b c03e ba0a 67be de4f f13e
00000020: d67e 453e 36ed 2cc0 1ac5 273f 3ee7 3b3e
00000030: 6967 553f c7f5 f63f 7b68 d3bd 6b12 4840
00000040: 7317 4340 9765 b73d b2ea 3a40 1534 20c0
00000050: 1a36 21c0 52d1 5c40 37f8 a03f 3a28 1ebe
00000060: ce84 99bf 0043 dbbb ef61 1cc0 4ec1 163f
00000070: e024 253d c61c 76bf 1a15 883b 7d17 da3e
00000080: 8f60 25c0 2d0b 82bf de27 25c0 bf33 873e
00000090: d7ca e93e c670 06bf b287 5140 b8a3 5340
000000a0: 275b 0fbe 64d4 22c0 193f 37c0 93fd 4c3e
000000b0: f2c6 b0bf bc05 91be b1e2 5840 9888 4c40
000000c0: d40f 5140 2711 4b40 784c c73c 09af e0bd
000000d0: e286 d2bd 7370 35c0 96ea 4640 d1f1 1ac0
000000e0: 6992 3d40 a9bc 44be 1e27 4d40 0eac 3bc0
000000f0: 9660 26c0 7283 ae3e 8413 45bd 3332 3040
00000100: c706 9d3f 3cc3 c2bf 4e87 0c3e 68ee 3d40
00000110: 7b8d f9bd 8926 4640 f39d 023f 4eb4 ea3e
00000120: f6aa e4bd b71f 84be 69f4 4a40 14a5 4340
00000130: 3b9d 933f 523c a23e 096f 453e 5122 4240
00000140: d60c 4440 7863 d2bd 68d1 6c3d a84b 0fbe
00000150: d239 1cc0 0ac2 b33e 56c2 3d40 030e 2b40
00000160: ba98 5440 e2e0 d23c 06e0 2dc0 48ef 13be
00000170: 970b 5d40 645c ab3e dd90 c9be d3f4 4740
00000180: cff9 5140 cc6e 13bd 6972 21c0 5c52 3f40
00000190: cb8a 4640 afa7 ef3c 58ae 3a40 8d5a 3b40
000001a0: 7ba1 3c40 0086 1e3d 819d 4e40 bc3a 533e
000001b0: c3a9 1dc0 7044 623d 7c8c 1fc0 b2d3 4140
000001c0: 496f 1abe 47d9 3940 a76b e83e 6120 18be
000001d0: 08ae 13c0 6fc8 10c0 3dc3 863e 32dc 5540
000001e0: 312e 4640 7010 b73e 282e 1dc0 63c1 29bf
000001f0: 08b9 913d ea39 6440 1e75 2dbe fe39 25c0

weight f4 [128, 128]
0.60163593 0.10410018 0.66292316 0.26250705 -1.002284 -0.70894396 0.0065587605 -1.1319976
0.38042766 -0.5828671 -0.24796589 0.10601788 0.33795786 0.41923514 0.0060188198 0.308359
1.0488749 -0.007052711 0.48671007 -0.3342254 -0.12239383 0.34705406 0.3092976 0.26213804
-2.9944282 0.076038115 -0.16330522 -0.54616636 -0.8648176 0.008588769 -0.59354085 -1.0815945
-0.4494211 -1.778704 -0.51663065 -0.7829001 -0.34915227 -0.022400117 1.2239947 0.3736987
-0.035101067 -0.24222371 -0.23190142 -0.65766543 -2.423531 0.040196322 0.3577366 0.33490518
0.29524973 0.4515282 0.15120251 0.124198444 -0.04910291 -0.6806804 0.46443874 -0.451037
0.41811088 0.050546177 1.7299165 -0.5022829 -0.5545962 -0.6828156 0.116835065 0.70243955
0.2805362 -2.16223 -0.059477463 0.76538837 0.013560701 0.3464511 -1.0458708 -0.53530705
-0.011990859 0.06617799 0.39044958 0.40574282 0.29015163 -1.1596752 -0.029748773 0.32452437
0.31592855 0.0085884305 0.017981939 0.032084025 -0.34323812 -1.1466361 0.39139283 0.7128362
0.3676565 0.10539019 -0.40353665 0.048320636 0.2066122 -0.3995754 0.095259964 0.22843094
0.29966164 -0.08209185 -0.3480799 0.39597642 1.5430578 -0.98638594 0.42350745 0.28981003
0.53301436 0.6461775 0.4409828 -0.03141698 -0.5207635 -0.017478384 -0.299927 0.2910737
0.086946614 0.24804361 -0.67483443 0.19481549 -0.6184714 -0.0574484 -0.9843318 0.24796863
0.35407746 -0.30489933 -0.15919878 -0.10021588 0.06413203 1.2408807 -0.059021667 -0.223505
-0.06876414 0.024611402 0.037410002 0.008958468 0.064194284 -0.06815177 0.058807798 -0.034732763
-0.012334187 -0.021773364 -0.022347167 -0.07694371 -0.066726 -0.024578523 -0.035080843 -0.053979576
-0.058077704 0.015870294 -0.019236106 0.02129506 0.06927564 -0.023097634 0.01517366 -0.020748265
0.009666875 0.008537129 -0.08019401 -0.038919855 -0.06034156 0.040568322 -0.08159183 -0.013062306
-0.0001427495 0.0109137595 -0.06794224 0.020104878 0.061107688 -0.015272147 0.057818875 -0.0560142
0.080588445 -0.0041215466 0.008593466 -0.07061384 -0.035382174 -0.078182735 0.031334233 0.06714487
-0.023027387 -0.038621113 -0.054130364 -0.0096902475 0.07616571 -0.08353701 0.012050914 0.03476098
-0.009180435 -0.050594408 -0.0023994388 -0.0246792 0.028194448 -0.043032765 -0.019630037 -0.053619646
-0.019952685 0.035025083 0.033503793 -0.020223621 -0.08108711 -0.007085745 -0.045501463 -0.014171034
0.012212265 -0.010811143 0.015649881 0.027521733 0.0028391795 -0.027208824 0.016777027 0.0021408435
-0.0935708 0.05026894 0.0098007545 0.02394157 -0.07249091 -0.086998776 -0.05801833 -0.055602435
0.039340246 -0.088055775 -0.06873021 0.07832812 -0.06183341 0.020168096 0.015193797 -0.08931936
0.0680346 0.07624302 0.08032535 0.07458889 0.032019783 -0.020796657 0.041486375 0.020333504
0.04886754 -0.0815398 -0.04408736 0.08137504 0.07550055 -0.0030714124 0.06291499 -0.05567845
-0.08241444 0.002983416 0.079105444 -0.009004526 -0.07690564 0.057069506 -0.07947074 0.04411525
-0.040597793 0.052606486 0.07601984 0.0490531 0.04474824 0.07529656 0.030816838 -0.009982808
00000000: d004 1a3f 7a32 d53d 55b5 293f 5367 863e
00000010: d84a 80bf 5a7d 35bf dfea d63b 4ce5 90bf
00000020: 6ac7 c23e c736 15bf c5ea 7dbe e71f d93d
00000030: d008 ad3e fda5 d63e 8539 c53b 3be1 9d3e
00000040: 8841 863f 6e1a e7bb 1032 f93e 971f abbe
00000050: 9ea9 fabd 12b1 b13e 415c 9e3e f536 863e
00000060: b6a4 3fc0 dfb9 9b3d 7c39 27be 8fd1 0bbf
00000070: b064 5dbf e8b7 0c3c 4bf2 17bf b071 8abf
00000080: 861a e6be 93ac e3bf e841 04bf 246c 48bf
00000090: 16c4 b2be 7380 b7bc dcab 9c3f 7055 bf3e
000000a0: 23c6 0fbd 7e09 78be 9177 6dbe c35c 28bf
000000b0: 221b 1bc0 e6a4 243d 4029 b73e b178 ab3e
000000c0: f92a 973e b42e e73e d5d4 1a3e c15b fe3d
000000d0: 2220 49bd 1241 2ebf eaca ed3e 52ee e6be
000000e0: a112 d63e 8209 4f3d e76d dd3f 9d95 00bf
000000f0: 04fa 0dbf 01cd 2ebf 3947 ef3d 14d3 333f
00000100: 71a2 8f3e fa61 0ac0 a49e 73bd 7ef0 433f
00000110: b42d 5e3c 0a62 b13e 18df 85bf e209 09bf
00000120: 4f75 44bc 5388 873d 02e9 c73e 86bd cf3e
00000130: c18e 943e 3d70 94bf b3b3 f3bc 0f28 a63e
00000140: 63c1 a13e 7db6 0c3c dc4e 933c 8a6a 033d
00000150: e8bc afbe f9c4 92bf a464 c83e 6f7c 363f
00000160: 793d bc3e d0d6 d73d 5b9c cebe dceb 453d
00000170: 2692 533e 2695 ccbe a817 c33d cde9 693e
00000180: 406d 993e c61f a8bd 8737 b2be 6cbd ca3e
00000190: eb82 c53f ca83 7cbf f8d5 d83e fb61 943e
000001a0: a173 083f e36b 253f 7fc8 e13e 17af 00bd
000001b0: c250 05bf d42e 8fbc 0890 99be 9d07 953e
000001c0: 1111 b23d 25ff 7d3e f3c1 2cbf b67d 473e
000001d0: 2454 1ebf 034f 6bbd 2bfd 7bbf 7deb 7d3e
000001e0: a449 b53e c41b 9cbe 0105 23be fc3d cdbd
000001f0: a757 833d 2ed5 9e3f b4c0 71bd 7fde 64be
00000200: 37d4 8cbd da9d c93c 3b3b 193d 8ac6 123c
00000210: 4b78 833d 2893 8bbd 72e0 703d f143 0ebd
00000220: 5415 4abc 0e5e b2bc 6811 b7bc aa94 9dbd
00000230: a4a7 88bd e658 c9bc eeb0 0fbd b019 5dbd
00000240: e3e2 6dbd 6b02 823c 0a95 9dbc fa72 ae3c
00000250: 63e0 8d3d 4037 bdbc f19a 783c 44f8 a9bc
00000260: d061 1e3c 50df 0b3c c23c a4bd 6d6a 1fbd
00000270: b628 77bd f82a 263d 9e19 a7bd 4803 56bc
00000280: 07af 15b9 a0cf 323c 4d25 8bbd fcb2 a43c
00000290: 0e4c 7a3d 0738 7abc 7cd3 6c3d 256f 65bd
000002a0: 8e0b a53d 0a0e 87bb 9ccb 0c3c fd9d 90bd
000002b0: e6ec 10bd 451e a0bd 5358 003d 4083 893d
000002c0: eea3 bcbc 2c31 1ebd cdb7 5dbd d8c3 1ebc
000002d0: c5fc 9b3d 7415 abbd 3271 453c 8861 0e3d
000002e0: 8969 16bc 153c 4fbd e73f 1dbb 092c cabc
000002f0: 0bf8 e63c 2043 30bd 2ccf a0bc 46a0 5bbd
00000300: d073 a3bc 7676 0f3d 463b 093d 02ac a5bc
00000310: 0011 a6bd 8a2f e8bb be5f 3abd a02d 68bc
00000320: f415 483c 3821 31bc 2e34 803c 4275 e13c
00000330: 8711 3a3b 0ae5 debc fa6f 893c 654d 0c3b
00000340: 0ca2 bfbd cee6 4d3d 5893 203c 1d21 c43c
00000350: 1d76 94bd 6a2c b2bd a1a4 6dbd 61bf 63bd
00000360: 3d23 213d 9656 b4bd 6dc2 8cbd 7e6a a03d
00000370: 0845 7dbd 9037 a53c 67ef 783c 12ed b6bd
00000380: b955 8b3d 4d25 9c3d 9e81 a43d 0fc2 983d
00000390: 2d27 033d c05d aabc 9eed 293d 7392 a63c
000003a0: 5429 483d 57fe a6bd f394 34bd f5a7 a63d
000003b0: 08a0 9a3d c049 49bb 93d9 803d 160f 64bd
000003c0: e7c8 a8bd 6a85 433b 0902 a23d b887 13bc
000003d0: b480 9dbd b7c1 693d 8ec1 a2bd 31b2 343d
000003e0: df49 26bd e679 573d 4ab0 9b3d e7eb 483d
000003f0: ee49 373d 1535 9a3d 9873 fc3c ee8e 23bc

bias f4 [128]
2.7355561 0.059365578 -0.0594594 0.07915328 -2.0079467 3.1306715 0.05663613 2.5192437
-2.0619104 -2.0422504 2.9994338 -1.7811215 2.76627 2.8349972 0.08211616 2.7674525
2.7945051 0.040269136 2.8299708 -0.045402776 2.9688063 0.041433133 2.632767 2.8201313
-0.065568484 -1.1251028 -0.44524586 0.026448697 -0.019717716 2.9039009 0.011665255 -0.0015624142
-0.020260079 -0.046634264 0.003234379 2.9014966 -0.08999526 2.817882 -1.1422601 2.973008
2.9400713 -1.9971718 0.06396917 0.01290176 0.0461173 0.039496653 -0.006618047 2.8655689
-2.005187 -0.24231654 2.7956533 -1.2491415 0.056700755 2.0131223 -1.8818076 2.6661284
-1.8767263 -0.90172595 0.015500812 2.8368528 0.03653583 2.7844474 2.8680851 2.515149
-0.038920872 2.6533742 -0.013262095 0.022124862 3.0021846 2.8028755 2.8471682 2.7651296
-0.046383325 -1.8921183 2.72216 -1.9065754 0.039026637 -1.9071951 2.02524 0.07416041
0.05157444 -0.083453655 1.5738989 3.1111221 -1.204589 -0.06985297 2.9269469 2.6577861
2.72964 2.8750787 -1.9560704 0.008171541 2.8121257 0.058268484 0.021074241 -0.09109316
-0.011755144 -1.8557764 -1.8952848 -1.870879 -1.9667151 2.7322838 -0.029394237 2.9002068
-0.034360513 2.7604294 -1.9021125 -1.8998708 -0.06368749 2.588297 -0.111266114 2.848454
2.8431666 0.0042448733 3.0057368 -1.8826528 3.0894504 0.06443449 0.056891568 -0.020868296
-0.0699562 2.9017715 -0.07442938 -1.9715248 2.7577064 2.7424016 2.626422 0.029601336
00000000: 5a13 2f40 5229 733d b38b 73bd 1d1b a23d
00000010: 3382 00c0 ec5c 4840 49fb 673d 4a3b 2140
00000020: 57f6 03c0 3bb4 02c0 b9f6 3f40 cafb e3bf
00000030: 910a 3140 9870 3540 842c a83d f11d 3140
00000040: 2cd9 3240 40f1 243d 3e1e 3540 43f8 39bd
00000050: ec00 3e40 cab5 293d 417f 2840 087d 3440
00000060: c548 86bd 5e03 90bf 44f7 e3be f0aa d83c
00000070: 0c87 a1bc 83d9 3940 a01f 3f3c ecc9 ccba
00000080: 77f8 a5bc 9203 3fbd e0f7 533b 1fb2 3940
00000090: 6f4f b8bd 2e58 3440 9435 92bf c345 3e40
000000a0: 212a 3c40 53a3 ffbf 4502 833d e761 533c
000000b0: 7ee5 3c3d 3ec7 213d 34dc d8bb 7b65 3740
000000c0: fc54 00c0 d421 78be fceb 3240 dee3 9fbf
000000d0: 0d3f 683d ffd6 0040 12df f0bf d9a1 2a40
000000e0: 9138 f0bf 83d7 66bf 1ef7 7d3c ff8e 3540
000000f0: 98a6 153d 6334 3240 b58e 3740 34f8 2040
00000100: 7e6b 1fbd e2d0 2940 4249 59bc 333f b53c
00000110: cb23 4040 5062 3340 0138 3640 e2f7 3040
00000120: 71fc 3dbd ef30 f2bf df37 2e40 aa0a f4bf
00000130: 65da 1f3d f81e f4bf 889d 0140 6ae1 973d
00000140: b83f 533d c0e9 aabd 8575 c93f a01c 4740
00000150: f92f 9abf 130f 8fbd 1953 3b40 2b19 2a40
00000160: 6cb2 2e40 4a01 3840 8460 fabf ede1 053c
00000170: def9 3340 efaa 6e3d e3a3 ac3c 0d8f babd
00000180: a698 40bc 158a edbf b198 f2bf f778 efbf
00000190: 52bd fbbf bddd 2e40 2fcc f0bc fd9c 3940
000001a0: 9cbd 0cbd e0aa 3040 6c78 f3bf f72e f3bf
000001b0: 966e 82bd a8a6 2540 7ddf e3bd 124d 3640
000001c0: 71f6 3540 9418 8b3b fe5d 4040 c4fa f0bf
000001d0: 8eb9 4540 3bf6 833d 2207 693d fdf3 aabc
000001e0: 3245 8fbd a0b6 3940 6e6e 98bd ed5a fcbf
000001f0: 437e 3040 8283 2f40 4c17 2840 807e f23c

weight f4 [1, 128]
1.1210204 -0.059223272 0.0456649 0.07511651 -2.4696035 2.321705 0.016165197 0.7245986
-1.807978 -1.8585072 1.1617526 -2.0782566 1.3664795 1.1519914 -0.04348369 1.2225525
1.1025372 0.048634868 1.2693442 0.03259433 2.0920546 0.025460046 1.2174088 1.3007276
0.019708406 -1.1624041 -0.012141238 -0.06236884 -0.051574633 1.2619492 0.06156399 0.08036775
-0.0135801295 0.05143136 -0.043892685 1.0326053 -1.147837 1.0372263 -0.76290435 0.8343802
1.3799086 -2.1309032 0.8541394 -0.07859266 0.047844946 0.068596885 0.05174546 1.1100458
-1.9233905 -0.96703786 1.2716784 -0.0016146493 0.0132378945 0.78862727 -1.9507856 1.2741182
-2.0898983 -2.7097583 -0.079207756 1.1646984 -0.03131283 1.1322939 1.1496547 0.6286474
0.0065116747 1.2254041 0.06482382 -0.058197837 2.1172488 3.278901 1.1619877 0.8793745
0.011132075 -1.9641846 1.1634367 -2.0169091 0.07709984 -1.8716643 2.3676817 0.035722833
-0.017408442 -0.035493836 1.1244674 2.0694232 -1.2946393 0.06912926 1.0590308 1.1665732
0.97946286 1.169802 -1.7071162 -0.041335687 1.5020418 -0.03814257 0.036249578 -0.045724012
-0.032601655 -1.9713902 -1.8878764 -1.8774402 -1.9908627 1.2006027 0.04435417 1.0176424
-0.014365509 1.1906592 -2.2238138 -2.2176547 0.08290795 0.9934713 -1.0969516 0.90877074
1.237944 -0.016377002 2.251209 -1.8142071 2.2325706 -0.07106421 -0.034748413 -0.03638622
0.059907176 1.2530178 -0.022138575 -1.9380636 1.1370946 0.99786866 1.0497527 -0.027978657
00000000: 997d 8f3f 1a94 72bd 1e0b 3b3d afd6 993d
00000010: fc0d 1ec0 d196 1440 e06c 843c 4b7f 393f
00000020: d36b e7bf 90e3 edbf 4fb4 943f 2802 05c0
00000030: cde8 ae3f 7474 933f f41b 32bd 9a7c 9c3f
00000040: f01f 8d3f 5b35 473d df79 a23f a281 053d
00000050: 39e4 0540 9691 d03c 0dd4 9b3f 3e7e a63f
00000060: 8673 a13c a8c9 94bf 0bec 46bc 7876 7fbd
00000070: ec3f 53bd 8d87 a13f 862a 7c3d d997 a43d
00000080: 317f 5ebc b1a9 523d d1c8 33bd 692c 843f
00000090: 53ec 92bf d5c3 843f b34d 43bf f199 553f
000000a0: d8a0 b03f b860 08c0 e1a8 5a3f 30f5 a0bd
000000b0: 10f9 433d 867c 8c3d 0cf3 533d fb15 8e3f
000000c0: a931 f6bf cb8f 77bf 5cc6 a23f a4a2 d3ba
000000d0: c1e3 583c 7ae3 493f 58b3 f9bf 4e16 a33f
000000e0: e5c0 05c0 ae6c 2dc0 ad37 a2bd d614 953f
000000f0: e241 00bd 02ef 903f e327 933f 09ef 203f
00000100: e35f d53b 0bda 9c3f 5ac2 843d db60 6ebd
00000110: 0181 0740 84d9 5140 03bc 943f b01e 613f
00000120: 4f63 363c 676a fbbf 7eeb 943f 0a15 01c0
00000130: 85e6 9d3d b292 efbf 1988 1740 1b52 123d
00000140: 269c 8ebc fc61 11bd 8cee 8f3f 6e71 0440
00000150: beb6 a5bf a493 8d3d 528e 873f 4552 953f
00000160: 14be 7a3f 12bc 953f c982 dabf 9c4f 29bd
00000170: e842 c03f 623b 1cbd 707a 143d 1a49 3bbd
00000180: 5089 05bd 8456 fcbf efa5 f1bf f64f f0bf
00000190: 97d4 febf 59ad 993f b8ac 353d 1b42 823f
000001a0: 505d 6bbc 8567 983f f752 0ec0 0eee 0dc0
000001b0: a5cb a93d 2354 7e3f e968 8cbf 33a5 683f
000001c0: f374 9e3f 1029 86bc cf13 1040 f037 e8bf
000001d0: 70e2 0e40 1d8a 91bd 5a54 0ebd b809 15bd
000001e0: 3a61 753d e362 a03f f55b b5bc 7812 f8bf
000001f0: 518c 913f 5274 7f3f 4c5e 863f 7f33 e5bc

weight f4 [4, 128]
-0.036537267 0.06357034 -0.07782524 0.024208106 0.0342414 0.05545114 0.021597233 0.15609823
0.0044839755 0.017150749 0.09681395 -0.17112157 -0.0055506025 -0.019718867 -0.089377165 -0.021867786
-0.006597199 -0.062084973 -0.031099867 -0.007965818 0.010325463 0.028574623 -0.033981428 0.01863054
-0.074689515 0.6331933 -0.07331895 0.07521152 -0.049103953 0.035612457 0.07730261 0.07426065
0.0067993077 0.02923357 -0.061423413 -0.09081259 -0.17038193 -0.0486732 0.9035881 0.086297326
-0.049524516 0.039966922 0.06929709 -0.03300393 -0.028618356 0.061495874 -0.065134846 0.050799716
0.10090765 1.3549238 0.05961242 0.2703064 -0.029173275 -0.2275145 0.011752862 0.008158061
0.052765235 2.3484154 -0.0677506 -0.030645983 -0.014509365 -0.09389851 -0.017181156 -0.0068588867
0.09114476 -0.09948673 0.033827696 -0.01748591 0.02158911 -0.33169413 8.622142e-05 0.07254294
-0.005105081 0.06222627 -0.10828127 0.06079676 0.02438772 0.037944455 -0.49736276 0.013647822
-0.046430446 0.05402198 -0.5804171 0.02179078 -0.3443876 0.011052414 -0.0023931589 -0.045793295
0.07310585 -0.06527962 -0.023715405 -0.0016069391 0.11467111 -0.08838718 -0.00357282 -0.057117596
-0.09341001 0.06864856 -0.045025308 -0.07214785 0.018412631 0.0790419 0.011145164 -0.045031365
-0.086686045 0.066656224 -0.1781776 -0.05079481 0.0030079335 -0.000856989 1.2430778 0.027944414
-0.09875743 -0.080771364 -0.0032508736 -0.115127385 0.14002235 -0.0067640245 -0.055868134 0.064620964
0.06206713 0.04766429 0.017936094 -0.034526426 0.006679062 -0.06177967 -0.056135707 -0.08114066
-0.0121333115 0.0074059 0.013778655 -0.046811324 0.056089636 -0.06427219 -0.07225937 0.050096713
-0.11504651 -0.13278951 0.01384485 0.068383284 -0.03613702 -0.004606955 -0.0593624 -0.11373543
-0.026297057 0.097377025 -0.15370953 0.012020469 -0.00089400745 -0.057429615 -0.04689971 -0.04009184
-0.07855462 1.504125 0.3273743 0.04412449 0.056736596 -0.066494115 0.06498579 0.02681295
0.03668141 -0.05033949 0.07636947 0.025664061 -0.008301962 -0.011896349 1.5910095 0.051049314
-0.024692625 -0.05510122 0.5562473 -0.056407973 -0.09753139 0.034303464 -0.049132116 -0.041487426
0.05047295 0.6828897 -0.026138399 0.13505156 -0.059493337 -0.23745815 -0.053398702 -0.0859196
0.011038239 2.3128827 0.05853065 -0.07414112 0.026857972 0.05400202 0.00793545 0.22991124
-0.03844958 -0.0012528354 0.020251537 -0.009345736 -0.062262405 -0.07081045 -0.077991456 0.04977792
0.011689355 0.029546494 -0.0623258 0.03578993 -0.058793508 0.003043876 -1.3319055 -0.008068807
-0.087014146 0.004208989 -0.59911734 -0.010524373 0.59332675 0.07961083 0.021579688 0.035102006
-0.1045541 0.009415553 -0.108902164 0.048236724 0.16293603 0.038513955 -0.062971376 -0.07707947
0.029963298 -0.058619574 -0.01340037 -0.17671421 -0.08235627 -0.016288118 -0.010040519 0.058932427
-0.059351075 0.014586938 0.10823545 0.044994734 -0.08526483 -0.06359871 0.59754646 0.017463295
-0.08853725 0.026165595 -0.11071762 -0.007431036 -0.05290344 0.035599686 -0.07579024 0.016717605
0.004135847 -0.01836312 0.041789506 -0.08255771 -0.004038457 -0.08304232 -0.078826584 0.0034697023
00000000: 1aa8 15bd 2b31 823d d762 9fbd 1450 c63c
00000010: b640 0c3d bc20 633d aeec b03c 37d8 1f3e
00000020: 50ee 923b ba7f 8c3c 6446 c63d 7e3a 2fbe
00000030: d4e1 b5bb 7689 a1bc 600b b7bd 1224 b3bc
00000040: 512d d8bb d04c 7ebd 26c5 febc 1083 02bc
00000050: 212c 293c 5415 ea3c 1c30 0bbd 139f 983c
00000060: d1f6 98bd f518 223f 3f28 96bd 7f08 9a3d
00000070: 3a21 49bd 5ede 113d d550 9e3d f815 983d
00000080: bacc de3b 3d7b ef3c 1e97 7bbd f4fb b9bd
00000090: 9a78 2ebe 8d5d 47bd 8d51 673f a7bc b03d
000000a0: 38da 4abd 5bb4 233d a2eb 8d3d 212f 07bd
000000b0: 0b71 eabc 19e3 7b3d 6b65 85bd 5d13 503d
000000c0: aca8 ce3d 256e ad3f 272c 743d 9a65 8a3e
000000d0: cbfc eebc 90f9 68be 138f 403c 63a9 053c
000000e0: 5c20 583d 704c 1640 d4c0 8abd 490d fbbc
000000f0: b0b8 6dbc dd4d c0bd 7fbf 8cbc 83c0 e0bb
00000100: 1baa ba3d b3bf cbbd e98e 0a3d 9c3e 8fbc
00000110: a5db b03c d0d3 a9be c6d1 b438 6591 943d
00000120: 8648 a7bb f9e0 7e3d 92c2 ddbd 0606 793d
00000130: c1c8 c73c a56b 1b3d 55a6 febe 1d9b 5f3c
00000140: da2d 3ebd 2746 5d3d 3796 14bf 9482 b23c
00000150: 9253 b0be 2f15 353c 8bd6 1cbb c091 3bbd
00000160: 85b8 953d 52b1 85bd cf46 c2bc ee9f d2ba
00000170: b0d8 ea3d 5604 b5bd f925 6abb 24f4 69bd
00000180: bf4d bfbd 9e97 8c3d 756c 38bd 41c2 93bd
00000190: 16d6 963c b8e0 a13d 359a 363c cf72 38bd
000001a0: 7488 b1bd 0f83 883d 3074 36be 380e 50bd
000001b0: c020 453b 8fa7 60ba 2c1d 9f3f afeb e43c
000001c0: 5641 cabd 756b a5bd 9c0c 55bb e8c7 ebbd
000001d0: 0562 0f3e c0a4 ddbb fcd5 64bd ff57 843d
000001e0: 1a3a 7e3d a13b 433d b7ee 923c 956b 0dbd
000001f0: 08dc da3b ae0c 7dbd 8eee 65bd 132d a6bd
00000200: ccca 46bc 31ad f23b debf 613c 3bbd 3fbd
00000210: 3fbe 653d 23a1 83bd b8fc 93bd 3632 4d3d
00000220: 819d ebbd f9f9 07be 82d5 623c 890c 8c3d
00000230: 6904 14bd f1f5 96bb fd25 73bd 1fee e8bd
00000240: ed6c d7bc 9b6d c73d 0866 1dbe 80f1 443c
00000250: d35b 6aba 513b 6bbd e919 40bd 5737 24bd
00000260: 3fe1 a0bd 2b87 c03f 9b9d a73e e2bb 343d
00000270: a264 683d 112e 88bd 4517 853d d5a6 db3c
00000280: 3f3f 163d c830 4ebd 9967 9c3d 703d d23c
00000290: f404 08bc e7e8 42bc 33a6 cb3f 1619 513d
000002a0: 3048 cabc d1b1 61bd 3966 0e3f 0c0c 67bd
000002b0: 8abe c7bd ca81 0c3d c23e 49bd b8ee 29bd
000002c0: b9bc 4e3d dcd1 2e3f 3220 d6bc f54a 0a3e
000002d0: 49af 73bd 3b28 73be 99b8 5abd 9ef6 afbd
000002e0: bbd9 343c 4506 1440 d6bd 6f3d 4dd7 97bd
000002f0: 4005 dc3c 3931 5d3d b103 023c da6d 6b3e
00000300: 4f7d 1dbd 2e36 a4ba 8de6 a53c dc1e 19bc
00000310: dd06 7fbd 1205 91bd fcb9 9fbd efe3 4b3d
00000320: b584 3f3c 7d0b f23c 5749 7fbd 7698 123d
00000330: 76d1 70bd c47b 473b e17b aabf 0833 04bc
00000340: 7934 b2bd 8feb 893b c15f 19bf 6b6e 2cbc
00000350: 43e4 173f 010b a33d e3c7 b03c 1fc7 0f3d
00000360: 7620 d6bd b143 1a3c 1908 dfbd df93 453d
00000370: b4d8 263e cfc0 1d3d 23f7 80bd d7db 9dbd
00000380: 9775 f53c 141b 70bd 3a8d 5bbc 92f4 34be
00000390: 67aa a8bd a96e 85bc fd80 24bc 2163 713d
000003a0: 1d1a 73bd 0dfe 6e3c 8caa dd3d 664c 383d
000003b0: 549f aebd 0a40 82bd cef8 183f 2f0f 8f3c
000003c0: 0553 b5bd 3b59 d63c ebbf e2bd 0c80 f3bb
000003d0: 47b1 58bd fad0 113d ea37 9bbd 5cf3 883c
000003e0: 0086 873b 416e 96bc 792b 2b3d 0414 a9bd
000003f0: 0855 84bb 1812 aabd d56f a1bd f263 633b

bias f4 [4]
-1.9045367 -1.1633359 -1.2707527 1.6448412
00000000: dcc7 f3bf 31e8 94bf 06a8 a2bf 288a d23f

exp_avg f4 [128, 15]
25.368649 -1273.1699 522.2975 1220.6022 266.2188 1248.6378 1254.2583 12442.262
189.1311 0.0 17086.625 -92371.836 2450.3877 -15.488652 230672.4 1.758728
977.9955 541.6081 474.70847 -25.97858 484.52032 483.99887 -122.35623 454.5029
0.0 7799.52 -63653.24 967.63043 0.22846363 17236.502 37.90786 162.66788
1305.1373 1986.8756 344.7663 1999.0574 2009.1001 13429.855 918.378 0.0
37298.918 -75602.98 3947.5854 -18.865112 262757.56 5.2218504 -454.3388 70.746414
257.90686 53.29551 265.57266 266.89557 2976.1543 14.781292 0.0 3889.365
-25530.006 522.08453 -3.5899208 50930.69 5.3057866 1890.585 519.6606 -10.675331
49.560894 -51.6506 -47.93942 -4257.328 273.26257 0.0 1924.948 52481.086
-95.632195 1.2174841 10019.653 0.21285987 1643.8104 244.38321 -311.05597 27.829636
-359.9906 -357.99765 -6975.1143 143.80783 0.0 -1957.6296 30157.527 -715.7704
0.91899 -12630.09 6e-45 6e-45 6e-45 6e-45 6e-45 6e-45
6e-45 6e-45 6e-45 0.0 6e-45 6e-45 6e-45 6e-45
6e-45 3.3454077 2192.0767 340.80655 -482.7218 -5.406456 -555.2988 -552.34265
-9262.65 93.09543 0.0 -3941.1387 57565.863 -1104.2324 1.9424441 -24204.434
-12.111876 -271.0339 -384.14444 -514.1076 -2.3206663 -526.9879 -530.691 -6637.5005
-61.613247 0.0 -5665.922 -87658.25 -1043.5577 -4.4111996 14344.681 -13.943442
-296.13742 -390.77512 -514.8205 -179.05309 -492.6234 -501.17517 -4950.301 -100.2349
0.0 -5369.5005 -27215.787 -950.35095 11.532465 -112642.06 -5.0423408 973.5674
96.94399 -282.29782 124.657265 -310.39603 -308.11316 -6236.5586 155.98645 0.0
-1271.5559 -24153.928 -616.1173 0.77247983 -13899.776 -6.3995414 243.95445 -76.90007
-219.74817 62.093727 -224.656 -225.07843 -1735.6167 -37.758003 0.0 -2882.391
-8882.988 -452.9077 0.30659515 -12140.777 -6.8361297 -27.878897 -75.98995 111.23274
197.90399 118.2019 114.70532 -1775.0718 285.38486 0.0 1563.3822 -31507.857
264.90018 -4.256944 24879.791 27.903599 -1422.7874 315.99368 1007.7132 166.12756
1013.0649 1021.467 11954.873 -20.916752 0.0 13027.211 -27474.363 1984.4817
-16.555233 240641.0 3.0850425 354.31955 264.10684 268.40054 48.37267 276.03842
275.5553 2706.084 115.88311 0.0 2950.331 586.1929 548.9042 -0.07109125
14145.836 8.343884 -536.33765 166.03131 421.73026 78.02153 433.8017 435.9543
4669.0 49.88429 0.0 6055.7476 -6341.1167 854.256 -4.7972403 73132.664
49.01237 -1011.92926 1278.5475 2309.6868 333.24387 2355.017 2363.0 26191.893
328.8994 0.0 29498.287 80313.49 4657.8506 -13.405179 256342.0 5.9573836
00000000: fef2 ca41 7025 9fc4 0a93 0244 4593 9844
00000010: 021c 8543 6914 9c44 44c8 9c44 0c69 4246
00000020: 9021 3d43 0000 0000 407d 8546 eb69 b4c7
00000030: 3426 1945 85d1 77c1 1a44 6148 001e e13f
00000040: b67f 7444 eb66 0744 af5a ed43 22d4 cfc1
00000050: 9a42 f243 dbff f143 64b6 f4c2 5f40 e343
00000060: 0000 0000 29bc f345 3da5 78c7 59e8 7144
00000070: 5ff2 693e 01a9 8646 a6a1 1742 faaa 2243
00000080: 6524 a344 055c f844 1662 ac43 d6e1 f944
00000090: 3423 fb44 6cd7 5146 3198 6544 0000 0000
000000a0: ebb2 1147 7da9 93c7 5eb9 7645 c0eb 96c1
000000b0: b24c 8048 6619 a740 5e2b e3c3 2a7e 8d42
000000c0: 14f4 8043 9a2e 5542 4dc9 8443 a272 8543
000000d0: 7802 3a45 2c80 6c41 0000 0000 d715 7345
000000e0: 0374 c7c6 6985 0244 43c1 65c0 b1f2 4647
000000f0: 01c9 a940 b852 ec44 47ea 0144 28ce 2ac1
00000100: 5b3e 4642 379a 4ec2 f7c1 3fc2 a00a 85c5
00000110: 9ca1 8843 0000 0000 569e f044 1601 4d47
00000120: af43 bfc2 85d6 9b3f 9d8e 1c46 f0f7 593e
00000130: ef79 cd44 1a62 7443 2a87 9bc3 18a3 de41
00000140: ccfe b3c3 b3ff b2c3 eaf8 d9c5 cece 0f43
00000150: 0000 0000 26b4 f4c4 0e9b eb46 4ef1 32c4
00000160: ee42 6b3f 5c58 45c6 0400 0000 0400 0000
00000170: 0400 0000 0400 0000 0400 0000 0400 0000
00000180: 0400 0000 0400 0000 0400 0000 0000 0000
00000190: 0400 0000 0400 0000 0400 0000 0400 0000
000001a0: 0400 0000 291b 5640 3a01 0945 3d67 aa43
000001b0: 645c f1c3 b001 adc0 20d3 0ac4 ee15 0ac4
000001c0: 9aba 10c6 dc30 ba42 0000 0000 3852 76c5
000001d0: dddd 6047 7007 8ac4 02a2 f83f de18 bdc6
000001e0: 3eca 41c1 5784 87c3 7d12 c0c3 e386 00c4
000001f0: cc85 14c0 3abf 03c4 39ac 04c4 016c cfc5
00000200: f773 76c2 0000 0000 600f b1c5 2035 abc7
00000210: d971 82c4 8c28 8dc0 b922 6046 5718 5fc1
00000220: 9711 94c3 3763 c3c3 83b4 00c4 970d 33c3
00000230: cc4f f6c3 6c96 fac3 68b2 9ac5 4578 c8c2
00000240: 0000 0000 01cc a7c5 939f d4c6 7696 6dc4
00000250: fa84 3841 0801 dcc7 db5a a1c0 5064 7344
00000260: 53e3 c142 1f26 8dc3 8550 f942 b132 9bc3
00000270: 7c0e 9ac3 78e4 c2c5 88fc 1b43 0000 0000
00000280: caf1 9ec4 dbb3 bcc6 8207 1ac4 3dc1 453f
00000290: 1b2f 59c6 0bc9 ccc0 57f4 7343 d6cc 99c2
000002a0: 88bf 5bc3 fa5f 7842 f0a7 60c3 1414 61c3
000002b0: bcf3 d8c4 3208 17c2 0000 0000 4226 34c5
000002c0: f4cb 0ac6 3074 e2c3 0afa 9c3e 1cb3 3dc6
000002d0: 93c1 dac0 fb07 dfc1 dbfa 97c2 2a77 de42
000002e0: 6ce7 4543 5f67 ec42 2069 e542 4ce2 ddc4
000002f0: 43b1 8e43 0000 0000 3b6c c344 b727 f6c6
00000300: 3973 8443 e338 88c0 955f c246 923a df41
00000310: 32d9 b1c4 31ff 9d43 a5ed 7b44 a820 2643
00000320: 2744 7d44 e35d 7f44 7ecb 3a46 8255 a7c1
00000330: 0000 0000 d88c 4b46 baa4 d6c6 6a0f f844
00000340: 1e71 84c1 4000 6b48 5671 4540 e728 b143
00000350: ad0d 8443 4533 8643 9d7d 4142 eb04 8a43
00000360: 14c7 8943 5821 2945 27c4 e742 0000 0000
00000370: 4c65 3845 588c 1244 de39 0944 4a98 91bd
00000380: 5807 5d46 8d80 0541 9c15 06c4 0408 2643
00000390: 79dd d243 060b 9c42 9ee6 d843 27fa d943
000003a0: 00e8 9145 8389 4742 0000 0000 fb3d bd45
000003b0: ef28 c6c5 6290 5544 fe82 99c0 55d6 8e47
000003c0: ab0c 4442 79fb 7cc4 85d1 9f44 fd5a 1045
000003d0: 379f a643 4630 1345 00b0 1345 c99f cc46
000003e0: 2073 a443 0000 0000 9374 e646 bfdc 9c47
000003f0: ce8e 9145 9d7b 56c1 8055 7a48 e3a2 be40

exp_avg_sq f4 [128, 15]
1.3880467e+07 2.9238304e+08 2.358287e+07 9.719367e+07 9.23103e+06 9.048061e+07 4.6691818e+08 7.167632e+10
674047.0 0.0 9.984475e+10 4.6547123e+13 2.5717166e+09 9.637605e+07 4.7658722e+14 725.7911
93518.016 57577.676 114315.516 31172.383 93414.47 152140.88 1.7012464e+07 11585.378
0.0 1.882361e+07 2.1697503e+12 667460.8 40786.96 1.680164e+10 3.1348758e+07 6.5931014e+08
4.931052e+07 2.1320394e+08 2.0609648e+07 1.9901686e+08 1.0639775e+09 1.638301e+11 1.5359935e+06 0.0
2.2850496e+11 6.3175186e+13 5.792443e+09 2.1295493e+08 1.0667897e+15 751320.75 1.6075226e+07 1.2403509e+06
5.1809795e+06 505591.1 4.9150545e+06 2.5569448e+07 3.9358136e+09 38100.773 0.0 5.480598e+09
2.236026e+12 1.4112166e+08 5.229191e+06 2.5177778e+13 2992.874 400713.38 161705.23 406494.16
170610.4 294172.03 759533.1 8.386381e+07 34561.63 0.0 1.0300055e+08 4.2688455e+10
3.1084648e+06 92322.22 2.2721034e+09 2489.186 336110.38 139571.56 374915.47 152715.39
274196.12 678298.9 7.628643e+07 30473.926 0.0 8.92961e+07 1.4071023e+10 2.7793308e+06
83070.35 2.061014e+09 1.7440072e-12 2.3046416e-10 1.6347543e-10 2.262427e-10 1.7647019e-10 1.7031339e-10
2.3063862e-10 2.4737634e-08 3.9947359e-13 0.0 2.4652858e-08 0.018393237 1.1700315e-09 2.1117111e-10
5.2349584e-05 5975.288 837125.8 255701.67 816894.6 438518.66 469487.1 1.6058638e+06
1.839535e+08 55125.23 0.0 2.0353058e+08 1.0825466e+11 6.575801e+06 195660.97 7.0195937e+09
1.5833602e+06 2.9031132e+07 1.3460452e+07 1.9534368e+07 1.8257926e+06 2.3629872e+07 4.0459824e+07 5.2873953e+09
42121.816 0.0 7.509293e+09 1.877659e+13 3.263836e+08 2.8698752e+07 5.3091894e+13 1.0695749e+07
2.1758131e+08 1.681302e+07 7.079736e+07 6.914387e+06 6.780742e+07 3.494922e+08 5.395195e+10 476983.94
0.0 7.547765e+10 3.2474163e+12 1.9380646e+09 7.158531e+07 3.8059896e+14 782.84796 153999.17
60961.363 174017.64 77886.78 123017.94 343311.72 3.8489972e+07 14565.036 0.0
4.7437744e+07 4.0432886e+10 1.3940726e+06 43979.047 1.0954167e+09 11576.8955 227346.73 142391.9
242384.2 9673.7 227060.86 360419.66 4.1891004e+07 6041.1953 0.0 4.7000556e+07
1.4219615e+11 2.164988e+06 196004.95 1.3792598e+11 1.3250764e+06 2.6953552e+07 9.86519e+06 1.4822748e+07
1.5276566e+06 1.8476852e+07 3.510998e+07 5.150561e+09 48083.844 0.0 7.1746324e+09 1.5317737e+13
2.8827875e+08 2.304212e+07 3.60566e+13 2.3034476e+07 4.8435562e+08 3.473972e+07 1.5320022e+08 1.4959975e+07
1.4581304e+08 7.832737e+08 1.21142256e+11 1.1163992e+06 0.0 1.688791e+11 3.1960454e+13 4.263777e+09
1.5529155e+08 7.6740315e+14 6062.631 118564.4 79669.6 133571.02 4952.835 127638.734
196619.66 2.2572084e+07 5161.323 0.0 2.5749874e+07 7.484637e+10 1.1755625e+06 103442.48
6.998783e+10 1.2285306e+06 2.6004802e+07 1.9695026e+06 8.3781775e+06 808118.9 7.918871e+06 4.1465364e+07
6.3782774e+09 62104.375 0.0 8.913108e+09 2.6990215e+11 2.2903602e+08 8.437401e+06 4.138732e+13
1.7279102e+07 3.6070358e+08 2.1308666e+07 1.0822853e+08 1.1403721e+07 1.02913736e+08 5.78598e+08 9.0131e+10
856849.5 0.0 1.2647445e+11 1.0467733e+12 3.177577e+09 1.1166576e+08 6.0096364e+14 6218.7915
00000000: 93cc 534b 4a6b 8b4d 4bec b34b d961 b94c
00000010: b6da 0c4b fc93 ac4c d9a4 de4d ef81 8551
00000020: f08f 2449 0000 0000 b0f9 b951 6356 2956
00000030: 4849 194f 9ed2 b74c 0eba d857 a172 3544
00000040: 02a7 b647 ade9 6047 c245 df47 c488 f346
00000050: 3c73 b647 3893 1448 78cb 814b 8305 3546
00000060: 0000 0000 dd9c 8f4b 9997 fc53 4df4 2249
00000070: f652 1f47 2c5d 7a50 0b2c ef4b 1931 1d4e
00000080: ce1a 3c4c be53 4b4d 383d 9d4b 1acc 3d4d
00000090: 08ac 7d4e 2494 1852 cc7f bb49 0000 0000
000000a0: d4cf 5452 7ad4 6556 d5a0 ac4f f316 4b4d
000000b0: 558f 7258 8c6d 3749 da49 754b f768 9749
000000c0: 671c 9e4a e3de f648 ddfe 954a 5414 c34b
000000d0: c097 6a4f c6d4 1447 0000 0000 a555 a34f
000000e0: 6227 0254 8895 064d 0e95 9f4a 4431 b755
000000f0: fc0d 3b45 2ca9 c348 4fea 1d48 c57b c648
00000100: 9a9c 2648 81a3 8f48 d26e 3949 20f5 9f4c
00000110: a101 0747 0000 0000 3d75 c44c e206 1f51
00000120: c3b9 3d4a 1c51 b447 8c6d 074f fa92 1b45
00000130: cc1d a448 e44c 0848 6f10 b748 d922 1548
00000140: 84e2 8548 ae99 2549 3c81 914c da13 ee46
00000150: 0000 0000 9c51 aa4c b1ac 5150 0ba3 294a
00000160: 2d3f a247 28b1 f54e 7b72 f52b e565 7d2f
00000170: 3ebe 332f a9c1 782f f107 422f f542 3b2f
00000180: 0097 7d2f a27e d432 36e2 e02a 0000 0000
00000190: 35c4 d332 6aad 963c d3ce a030 622f 682f
000001a0: f091 5b38 4eba ba45 5d60 4c49 6bb5 7948
000001b0: ea6f 4749 d51e d648 e33d e548 3e07 c449
000001c0: 866e 2f4d 3b55 5747 0000 0000 151a 424d
000001d0: d8a3 c951 72ad c84a 3e13 3f48 4033 d14f
000001e0: 0248 c149 6e7d dd4b e463 4d4b 1009 954b
000001f0: 05e0 de49 1848 b44b 8c57 1a4c a093 9d4f
00000200: d189 2447 0000 0000 5ccb df4f 209e 8855
00000210: c0a1 9b4d 40f4 da4b ae25 4156 4534 234b
00000220: 7080 4f4d ee45 804b 0609 874c a602 d34a
00000230: 1855 814c 9fa6 a64d 97fc 4851 fee6 e848
00000240: 0000 0000 8c96 8c51 4606 3d54 0a09 e74e
00000250: c489 884c 8d13 ad57 45b6 4344 cb63 1648
00000260: 5d21 6e47 69f0 2948 641f 9847 f844 f047
00000270: f7a1 a748 ddd3 124c 2594 6346 0000 0000
00000280: ecf5 344c ce9f 1651 c52c aa49 0ccb 2b47
00000290: 7795 824e 95e3 3446 af04 5e48 fa0d 0b48
000002a0: 0db4 6c48 cd26 1746 37bd 5d48 75fc af48
000002b0: 2fcd 1f4c 90c9 bc45 0000 0000 fb4a 334c
000002c0: 346e 0452 f023 044a 3d69 3f48 1e74 0052
000002d0: a3c0 a149 a8a3 cd4b e687 164b 5c2d 624b
000002e0: 457b ba49 9af7 8c4b 17ef 054c a97f 994f
000002f0: d8d3 3b47 0000 0000 1ad2 d54f 04e7 5e55
00000300: 4776 894d 24cc af4b 532c 0356 36bd af4b
00000310: 71f5 e64d 8285 044c 661a 124d 6745 644b
00000320: e30e 0b4d 3cbf 3a4e 21a5 e151 7a47 8849
00000330: 0000 0000 ea47 1d52 fc8a e855 1324 7e4f
00000340: fa18 144d be7c 2e58 0c75 bd45 3392 e747
00000350: cd9a 9b47 c170 0248 aec6 9a45 5e4b f947
00000360: ea02 4048 1a36 ac4b 964a a145 0000 0000
00000370: b974 c44b 8869 8b51 5480 8f49 3d09 ca47
00000380: cc5c 8251 95f7 9549 a166 c64b f56a f049
00000390: 83ae ff4a 6e4b 4549 2eaa f14a 852d 1e4c
000003a0: 6516 be4f 6098 7247 0000 0000 cfd0 0450
000003b0: b05d 7b52 ff6c 5a4d 99be 004b f290 1656
000003c0: 3fd4 834b 33ff ab4d 7d92 a24b f66d ce4c
000003d0: c901 2e4b d94a c44c d2f2 094e cfe1 a751
000003e0: 1831 5149 0000 0000 b893 eb51 8db8 7353
000003f0: fa65 3d4f 4cfc d44c b0a4 0858 5556 c245

exp_avg f4 [128]
1253.8693 483.99884 2009.5073 266.72995 -47.939087 -357.9977 6e-45 -552.3426
-524.21594 -503.2599 -308.11316 -226.16809 125.70155 1022.1719 274.72495 435.6259
2362.4534 417.18427 541.5906 -454.29498 -604.4579 387.22827 122.54178 -145.01239
-3601.6978 0.0 -406.0271 -287.71823 -52.357292 2.7376807 -226.90256 -321.6864
-984.41895 -1848.8226 -951.5776 -292.38092 -337.5569 88.8735 2459.4565 475.7721
-569.88995 -579.99585 -619.27893 -308.28348 -2797.4968 300.29248 375.1517 379.01965
422.4574 972.63104 70.650215 -8.593981 0.0 -598.5938 713.4567 -126.443954
610.3441 153.96426 2445.2693 -478.10892 -1988.4972 -366.07068 22.893044 1208.7372
216.80833 -2132.147 0.0 1061.1238 -73.6079 422.64548 -758.65765 -541.45905
-769.8246 0.0 496.2709 562.04376 196.62648 -301.39594 6e-45 334.36575
375.02182 400.60736 0.0 6e-45 -1020.9576 -434.81207 377.28696 1528.1445
392.90744 6e-45 -237.60172 6e-45 241.09863 -456.51956 196.53752 247.08441
221.4213 0.0 -300.064 508.28052 4656.8423 -371.8255 536.1487 327.88205
729.36774 159.51617 502.4372 0.0 -595.9898 0.0 -693.0311 182.50714
0.0 318.8811 -437.28085 -13.140788 -1231.7623 35.946014 -30.147705 293.79636
383.35544 -339.3819 -526.80164 -839.11774 0.0 3412.4956 0.0 -578.44977
00000000: d1bb 9c44 daff f143 3c30 fb44 6f5d 8543
00000010: a0c1 3fc2 b5ff b2c3 0400 0000 ed15 0ac4
00000020: d20d 03c4 44a1 fbc3 7c0e 9ac3 082b 62c3
00000030: 3267 fb42 008b 7f44 cb5c 8943 1dd0 d943
00000040: 41a7 1345 9697 d043 cc65 0744 c225 e3c3
00000050: 4e1d 17c4 389d c143 6415 f542 2c03 11c3
00000060: 2a1b 61c5 0000 0000 7803 cbc3 efdb 8fc3
00000070: de6d 51c2 2936 2f40 0ee7 62c3 dcd7 a0c3
00000080: d01a 76c4 531a e7c4 f7e4 6dc4 c230 92c3
00000090: 48c7 a8c3 3bbf b142 4eb7 1945 d4e2 ed43
000000a0: f578 0ec4 bcff 10c4 dad1 1ac4 4924 9ac3
000000b0: f3d7 2ec5 7025 9643 6b93 bb43 8482 bd43
000000c0: 8c3a d343 6328 7344 e94c 8d42 f280 09c1
000000d0: 0000 0000 01a6 15c4 3b5d 3244 4ee3 fcc2
000000e0: 0696 1844 daf6 1943 4fd4 1845 f10d efc3
000000f0: e98f f8c4 0c09 b7c3 f424 b741 9717 9744
00000100: efce 5843 5a42 05c5 0000 0000 f6a3 8444
00000110: 3f37 93c2 9f52 d343 17aa 3dc4 615d 07c4
00000120: c674 40c4 0000 0000 ad22 f843 cd82 0c44
00000130: 61a0 4443 aeb2 96c3 0400 0000 d12e a743
00000140: cb82 bb43 be4d c843 0000 0000 0400 0000
00000150: 493d 7fc4 f267 d9c3 bba4 bc43 a004 bf44
00000160: 2774 c443 0400 0000 0a9a 6dc3 0400 0000
00000170: 4019 7143 8142 e4c3 9b89 4443 9c15 7743
00000180: da6b 5d43 0000 0000 3108 96c3 e823 fe43
00000190: bd86 9145 aae9 b9c3 8409 0644 e7f0 a343
000001a0: 8957 3644 2484 1f43 f637 fb43 0000 0000
000001b0: 59ff 14c4 0000 0000 fe41 2dc4 d481 3643
000001c0: 0000 0000 c870 9f43 f3a3 dac3 ab40 52c1
000001d0: 65f8 99c4 b8c8 0f42 802e f1c1 efe5 9243
000001e0: 7fad bf43 e2b0 a9c3 4eb3 03c4 89c7 51c4
000001f0: 0000 0000 ee47 5545 0000 0000 c99c 10c4

exp_avg_sq f4 [128]
6.828971e+08 152140.86 1.5566102e+09 3.7382776e+07 759533.0 678298.9 2.3063862e-10 1.6058639e+06
5.199494e+07 5.155237e+08 343311.75 392176.34 4.9074896e+07 1.1493398e+09 213859.69 6.0749696e+07
8.574383e+08 199680.28 1.327462e+08 2.5030059e+08 1.3198544e+08 5.6499804e+07 774348.94 2.2975598e+07
1.3787006e+10 0.0 1.1863757e+08 468923.8 763613.94 1616.2504 420685.88 928308.5
4.866632e+08 5.1241994e+09 4.7362592e+08 610153.25 399268.8 111943.055 1.2760541e+09 8.415235e+07
1.615813e+06 1.9279904e+08 1.6186589e+08 569115.6 8.3901716e+09 304007.0 5.227378e+07 5.437025e+07
7.289509e+07 1.1696089e+08 472846.44 22.788755 0.0 6.228474e+08 2.3091013e+08 5.0156026e+08
1.8092386e+08 163470.2 3.4400842e+09 5.0509574e+08 5.07576e+08 548424.5 437134.03 6.555094e+08
792140.8 6.3175895e+09 0.0 4.5199107e+08 345410.03 7.569139e+07 581571.8 730066.94
1.7239224e+06 0.0 9.54568e+07 1.4105027e+08 6.2006788e+07 1.003586e+06 1.3005248e-18 3.7667492e+07
4.887932e+07 210343.03 0.0 1.0964058e-12 4.2324742e+08 1.0970459e+06 6.3720064e+07 1.0482867e+09
6.2793656e+07 6.8008527e-10 3.6484573e+08 1.5880872e-10 3.2713508e+07 870884.44 202916.19 2.910304e+07
3.1123416e+07 0.0 5.920274e+08 1.07702936e+08 2.008892e+09 1.04078125e+06 9.184561e+07 4.2159316e+07
2.128376e+08 8.674618e+08 1.19228504e+08 0.0 7.0039443e+08 0.0 1.9449422e+08 2.3719794e+07
0.0 3.9786904e+07 616994.75 1425.9364 9.185389e+08 3.4865532e+07 1.2586064e+06 3.8587396e+07
6.79968e+07 466958.66 1.7340662e+08 1.00524634e+09 0.0 1.189986e+09 0.0 1.7193186e+08
00000000: bbd0 224e 3793 1448 f98f b94e 9e9a 0e4c
00000010: d06e 3949 ae99 2549 0097 7d2f 3f07 c449
00000020: 4f58 464c 24d2 f54d f8a1 a748 0b7e bf48
00000030: b434 3b4c 1103 894e ecd8 5048 e0bd 674c
00000040: e16d 4c4e 1200 4348 7b31 fd4c 8bb4 6e4d
00000050: 04be fb4c 9787 574c cf0c 3d49 374a af4b
00000060: 4171 4d50 0000 0000 8048 e24c 7af7 e448
00000070: df6d 3a49 0308 ca44 bc69 cd48 48a3 6249
00000080: 210f e84d 8ab6 984f aad7 e14d 94f6 1449
00000090: 9af4 c248 87a3 da47 151e 984e 0482 a04c
000000a0: 283e c549 14de 374d 0a5e 1a4d baf1 0a49
000000b0: ee0b fa4f e070 9448 9d68 474c f267 4f4c
000000c0: 4e09 8b4c cf15 df4c cee1 e648 5f4f b641
000000d0: 0000 0000 977f 144e 8b36 5c4d 9e29 ef4d
000000e0: dd8a 2c4d 8da3 1f48 850b 4d4f 32d9 f04d
000000f0: f607 f24d 88e4 0549 c171 d548 1e49 1c4e
00000100: cd64 4149 6247 bc4f 0000 0000 b186 d74d
00000110: 41a8 a848 b05e 904c 3dfc 0d49 2f3d 3249
00000120: 9370 d249 0000 0000 c411 b64c 1a84 064d
00000130: 8189 6c4c 2004 7549 70ec bf21 a9b0 0f4c
00000140: b675 3a4c c269 4d48 0000 0000 2f4e 9a2b
00000150: f2d1 c94d afea 8549 a012 734c 58ee 794e
00000160: ee89 6f4c bff0 3a30 d5f8 ad4d ae9c 2e2f
00000170: 9295 f94b 479e 5449 0c29 4648 e009 de4b
00000180: ec73 ed4b 0000 0000 7c26 0d4e 536d cd4c
00000190: 857a ef4e d418 7e49 7d2e af4c 35d3 204c
000001a0: 4efa 4a4d abd1 4e4e 0b69 e34c 0000 0000
000001b0: affc 264e 0000 0000 f17b 394d b9f7 b44b
000001c0: 0000 0000 66c6 174c 2ca2 1649 f73d b244
000001d0: 2aff 5a4e 5f00 054c 73a3 9949 0133 134c
000001e0: 90b1 814c d501 e448 9a5f 254d 5eab 6f4e
000001f0: 0000 0000 7edb 8d4e 0000 0000 8df7 234d
