explainability/stages/final_3/maintainance_agent/6/D3QN_q_target.pth (torch, 77199 bytes, 7 tensors)

weight f4 [128, 11]
000000 af b2 c2 3f ed 37 63 c1 8d 40 90 c0 d9 fc aa 40
       1.521078 -14.201154 -4.5078797 5.343365
000010 b9 41 47 40 1b 29 b3 be e5 60 26 be e4 b4 61 bb
       3.1133864 -0.34992298 -0.162479 -0.0034440095
000020 38 87 f8 bf f0 d2 89 3f 25 02 b8 40 54 2a c4 40
       -1.9416265 1.0767498 5.750262 6.130167
000030 50 15 85 c1 b8 d3 1a c0 7f 0e 96 3f f9 22 91 40
       -16.635406 -2.4191723 1.1723174 4.535519
000040 d9 d9 fa be 46 92 cc 3b 8b 31 1a 3d a4 ca c9 c0
       -0.4899433 0.006243023 0.037644904 -6.3059864
000050 c5 06 f9 3e 42 40 c3 3f 48 da 72 c1 ab 41 0c c1
       0.48637977 1.5253985 -15.178291 -8.766032
000060 5c 7a 83 bf 60 fe 3e 40 40 52 cf 3f b7 6a 36 bf
       -1.0271716 2.9842758 1.6196976 -0.71256584
000070 65 53 37 bb 98 f8 17 3e a7 9a 15 40 b9 9e ec 3e
       -0.002797329 0.14840925 2.3375642 0.46214846
000080 4b 77 05 41 af 98 61 c1 c9 ea d9 c0 e1 50 12 3f
       8.341624 -14.099776 -6.8099103 0.5715466
000090 ac 0a 68 40 a3 83 f8 3f 10 0e aa 3d a6 a5 2e 3d
       3.6256514 1.9415172 0.083034635 0.042638443
0000a0 30 24 44 3d 97 1f 10 40 e0 35 ed 3d 18 88 51 40
       0.047886074 2.251928 0.115825415 3.2739315
0000b0 ff 52 44 41 ea 09 2c c1 9f 35 97 c0 1d 48 6f bc
       12.270263 -10.75242 -4.7252955 -0.0146045955
0000c0 1e d2 68 40 5e a7 20 bd 2f 52 7f 3e e0 d4 a8 3d
       3.6378245 -0.039222114 0.24933694 0.08243728
0000d0 b8 e6 93 c0 0a e6 e2 be 79 d8 2a c0 2a 02 e3 40
       -4.621914 -0.4431613 -2.6694624 7.094014
0000e0 ce c0 9e 40 da 1d d3 40 4a f8 88 c0 37 ee 96 3f
       4.9610357 6.597394 -4.2803087 1.1791447
0000f0 bc 86 16 3e e4 56 89 bd 2a b4 c9 bc 7a 6c e9 bf
       0.14699835 -0.06706026 -0.024622042 -1.823623
000100 24 4d 23 c0 ab f9 ae c0 dd 14 23 40 05 e6 95 40
       -2.5515833 -5.467977 2.5481484 4.6843286
000110 86 27 c9 c0 13 8b 8b c0 3a e1 cd 3f 86 6a 6b 3f
       -6.2860746 -4.360727 1.6084359 0.91959417
000120 22 1f ff 3b 35 69 f7 3d f1 1a a2 40 08 40 63 3f
       0.0077856937 0.120806135 5.0657887 0.8876958
000130 85 a1 94 3f 2e 26 42 c1 97 11 68 41 f8 8a 6a bf
       1.1611792 -12.134321 14.504294 -0.916183
000140 ee ac 1d 40 1a 47 88 c0 bd 5c a8 bf 54 98 ed bb
       2.4636798 -4.2586794 -1.3153301 -0.007250825
000150 1c 47 52 3e 1e a1 3a 3f cc 24 d3 be b9 c8 a2 40
       0.20534939 0.72902095 -0.4123901 5.0870023
000160 62 cd 8c 41 21 99 dd 40 1b 4c 24 3c ca e4 56 40
       17.600285 6.9249425 0.010027911 3.3577142
000170 63 e6 ca c0 22 5c 57 3e 23 3a cf 3d a9 d0 b1 bc
       -6.3406234 0.2103124 0.101185106 -0.021705942
000180 5f bd 05 41 85 78 18 c0 41 a6 a4 be d1 aa f9 40
       8.358733 -2.382356 -0.32158092 7.8021016
000190 6c 0a 86 c1 22 ad de c0 da 71 6e c0 25 dd 8c 40
       -16.755089 -6.9586344 -3.725699 4.401995
0001a0 c3 bf 8d be 12 e6 8a bd 49 85 88 bc 4d f2 a8 c0
       -0.27685365 -0.06782164 -0.016665118 -5.2795777
0001b0 bd 13 6f b9 1d f5 55 bf b6 1f 6f c1 cc bd f4 c0
       -0.00022800169 -0.8357714 -14.945242 -7.6481686
0001c0 57 15 0d 3e b7 9f 28 40 ba 3a 20 40 8b b9 0c 3f
       0.13777672 2.6347482 2.5035844 0.54970616
0001d0 cd 82 57 3d bd fe 0b 3d 99 31 e7 3f 69 d1 9f 3e
       0.052614976 0.034178484 1.8062011 0.31214455
0001e0 54 3f 0d bd 06 c8 e3 c0 ad 1d 83 41 bf ce 89 bf
       -0.034484223 -7.118167 16.38949 -1.0766219
0001f0 74 32 98 be e6 48 9b c0 53 e6 74 bf 07 8f 4c 3e
       -0.29725993 -4.8526487 -0.95663947 0.19976436
000200 e8 ea ba 3e 5f 9f 94 40 db dc 1f 3e 40 1b ae 40
       0.36507344 4.6444545 0.15611593 5.4408264
000210 81 39 25 c1 7d e5 92 c1 ce c3 10 c0 fb 0b be 3f
       -10.326539 -18.362055 -2.261951 1.4847406
000220 85 d7 86 40 ef 21 9b 3f 5e bd 68 bf af 44 9c bd
       4.2138085 1.2119731 -0.9091395 -0.07630288
000230 fa 01 17 c0 98 b8 d8 3d 57 53 e1 3f 62 4e 20 c0
       -2.3594956 0.105820835 1.7603558 -2.504784
000240 7d 65 5c 41 d0 82 45 c0 3d ba a4 bf 44 9b d3 c0
       13.774777 -3.0861092 -1.2869335 -6.6127033
000250 29 37 f1 be 03 59 83 3e 2d 93 b7 3e 5d 82 db 40
       -0.47112396 0.25653848 0.35854474 6.8596635
000260 36 f3 99 3f f3 84 d8 bf f7 f6 ad c0 53 1b 39 41
       1.2027347 -1.6915573 -5.436397 11.569171
000270 aa 3d d9 c0 de f9 2a bf c2 30 01 c0 1d 5c 9d 3f
       -6.7887774 -0.6678752 -2.018601 1.2293736
000280 04 23 c1 3e 22 8b 07 bb b7 83 a0 40 3c 7f 40 bf
       0.37722027 -0.0020682295 5.0160785 -0.75194144
000290 ef b7 68 40 a4 d5 7a c1 95 c2 db c0 5c 7d fe 3e
       3.6362264 -15.677158 -6.8675027 0.49705017
0002a0 17 10 9a 40 cf 79 55 3f 3e ae bf 3d 5c f1 d8 3c
       4.814464 0.8338899 0.09359406 0.026482277
0002b0 29 2d a3 bb 0b 58 ae be 8d 93 81 3e 5f d3 45 40
       -0.0049797487 -0.34051546 0.25307885 3.091026
0002c0 3e 87 21 41 0c 18 18 c0 ca 23 9a 40 26 9e 85 3c
       10.095518 -2.3764677 4.816869 0.016310763
0002d0 a6 76 4b 3f 46 6e 8b 3f b4 25 70 bf dd 91 00 be
       0.7947792 1.0893028 -0.9380753 -0.12555642
0002e0 36 89 4c c0 3c e8 58 3e 09 34 a0 c0 f0 55 91 c1
       -3.1958747 0.2118234 -5.006352 -18.166962
0002f0 cd 93 0f 41 4e 10 89 c0 57 1d 19 3f ec af e7 bf
       8.973584 -4.2832403 0.59810394 -1.8100562
000300 b9 b7 33 3f 3a 84 ae bd 36 76 00 bc 52 79 a2 40
       0.70202214 -0.08521314 -0.007840684 5.0773096
000310 74 21 bd 3f 01 47 66 40 76 d1 cb 40 c8 90 49 c1
       1.4775834 3.5980837 6.369319 -12.597847
000320 f2 bd 82 40 39 4c 54 40 ae f5 5e 40 ba 0e 9d 3e
       4.0856867 3.3171523 3.483745 0.30675298
000330 94 67 f6 3b f2 bd 81 3e 77 16 ca c0 4d 8a 88 3e
       0.0075196717 0.2534023 -6.3152423 0.26668015
000340 df 13 74 3e 99 71 a4 41 f3 e4 d6 40 70 05 9d 3f
       0.23835705 20.555468 6.715448 1.2267284
000350 5e c0 3e 40 c9 2f bf c0 6e e8 4f bd 1b e7 0f 3c
       2.9804912 -5.974583 -0.05075877 0.008783127
000360 68 3e 01 bc b5 24 8c 40 6d c8 8f be a0 91 51 40
       -0.007888414 4.379481 -0.280826 3.2745132
000370 3e cc 1f bf f2 e6 5e bf 78 62 3d c0 72 d2 d7 3e
       -0.62421024 -0.87071145 -2.959135 0.42152745
000380 3c 18 8b be bc 19 78 bf c3 57 f3 3d f9 c8 c7 be
       -0.27166927 -0.9691427 0.118819736 -0.39020517
000390 4d 1e 84 bf cd cc 1b bf 18 f9 b3 3f f6 29 87 40
       -1.0321747 -0.60859376 1.4060392 4.223872
0003a0 93 0b e9 40 f5 5b 93 c0 af 22 26 c0 24 c5 b3 bf
       7.282663 -4.604975 -2.595867 -1.4044538
0003b0 a1 27 89 3f 65 a0 e3 3d 28 1b 87 bd f2 af dc 40
       1.0715219 0.11114577 -0.065969765 6.8964777
0003c0 3f 3d 1d 3f 6c 9f c9 bf 88 c5 18 c1 ff 45 91 c1
       0.6142158 -1.5751777 -9.548225 -18.159178
0003d0 30 6c b5 c0 91 a4 db c0 59 59 91 40 90 af 28 3f
       -5.6694565 -6.8638387 4.5421567 0.6589289
0003e0 6d 90 b1 be 41 1d c0 bd 09 51 52 40 71 99 96 bd
       -0.346805 -0.0938058 3.286196 -0.073534854
0003f0 d5 70 a3 3e e4 d6 26 41 2c f3 0a 41 2c d3 0f bf
       0.31922022 10.427464 8.684368 -0.561816

bias f4 [128]
000000 68 5d 48 40 93 86 4f 40 80 fe 1a 40 08 25 38 40
       3.130701 3.2425888 2.4217834 2.8772602
000010 8e 6e c5 3f 37 25 ec 3f e8 3e 11 bf 3b ad 5b c0
       1.5424364 1.8448857 -0.5673661 -3.4324481
000020 ed 9f 3e c0 b8 61 57 40 18 5f 45 40 bf 31 70 c0
       -2.978511 3.3653393 3.083929 -3.7530363
000030 14 a7 4d 40 42 ef b1 c0 b9 4d fe bf de 79 23 40
       3.2133226 -5.5604563 -1.9867469 2.5543132
000040 d4 ca f8 3f a6 a0 36 bf 82 c5 6b 40 c2 c1 41 c0
       1.9436898 -0.7133888 3.68393 -3.027451
000050 0d c6 80 bf 20 9f 27 bf ad 35 4f 40 25 59 c0 bf
       -1.006044 -0.6547718 3.237651 -1.5027205
000060 ed fa 43 40 4a 2d 67 40 2d 51 72 40 df da 43 40
       3.0621903 3.6121392 3.7862046 3.0602338
000070 0e 3e 54 40 2e a2 83 3f a3 fc 5f c0 a5 9c 18 c0
       3.3162875 1.0283868 -3.4997947 -2.3845608
000080 20 3e 44 3d 75 cc 0a bd 75 68 6b 40 97 53 b8 40
       0.04791081 -0.03388639 3.6782506 5.760204
000090 86 1d 94 3e 57 b0 6e 40 20 f7 05 3c 05 be 4f 40
       0.28928775 3.729513 0.008176595 3.2459729
0000a0 95 d8 29 40 4b cb da 3f c9 3e 95 3f 59 07 92 40
       2.653844 1.709329 1.1659786 4.563397
0000b0 75 ce 87 40 18 2e 25 40 bd 2d 49 40 d7 76 7b bf
       4.2439523 2.5809383 3.1434166 -0.9822821
0000c0 47 79 68 40 ef 61 45 40 a0 66 6a 40 82 51 bf bf
       3.6324022 3.0841024 3.6625137 -1.4946749
0000d0 48 76 15 40 58 d1 88 40 c8 9a 44 40 3b af ba c0
       2.3353443 4.2755547 3.071947 -5.8338904
0000e0 58 7b 82 40 67 5e b0 3f 90 07 34 c0 34 33 78 40
       4.0775566 1.3778809 -2.8129616 3.8781252
0000f0 c8 b2 6d 40 08 de c9 3f ec 97 5f 40 b9 40 17 40
       3.714037 1.5770884 3.4936476 2.3633254
000100 f1 f5 c4 3e 0a b1 84 40 ef 5d 11 40 c7 c9 76 40
       0.38468888 4.146611 2.2713583 3.8560655
000110 cc 90 c7 bf 6d fc 41 3f 35 fe 56 40 2c da 99 bf
       -1.5591063 0.75775796 3.3592656 -1.2019706
000120 cf f5 13 c0 73 4d 81 40 7a aa e3 3d 7e 4b 7e 40
       -2.311878 4.0407043 0.111165 3.9733577
000130 df db 53 40 02 32 6a 40 ae 07 23 40 a6 dd fb bf
       3.3102949 3.6593022 2.5473437 -1.9677017
000140 f8 b2 7d 40 3f 2b 2b 40 8a 39 34 c0 5b d7 7f 3f
       3.9640484 2.6745145 -2.816012 0.9993798
000150 b5 cd 8f be 0f 77 96 40 d8 5b 4f 40 c7 5d 41 c0
       -0.2808663 4.7020335 3.2399807 -3.0213487
000160 f1 c2 6d 40 af 7e 82 40 9e 4b 3c 40 99 a8 5d 40
       3.7150233 4.0779643 2.9421153 3.4634154
000170 b3 17 79 40 f0 8c 53 40 5a 6a 6a 40 5d 7f 62 40
       3.8920715 3.3054771 3.6627412 3.5390236
000180 5e b4 5a 40 37 b8 b1 3f 26 71 87 40 14 65 1a 40
       3.4172587 1.3884343 4.232562 2.4124193
000190 58 17 30 be 11 18 3d c0 a1 d9 c2 bf e8 35 8c 40
       -0.17196405 -2.954594 -1.5222665 4.3815804
0001a0 f6 53 44 40 ef b6 77 40 f1 ae b2 be a7 d7 49 3f
       3.0676246 3.8705404 -0.34899095 0.78844684
0001b0 39 6a 81 40 0a b9 80 c0 63 2d 82 40 c2 7b 6a 40
       4.0442166 -4.022588 4.0680404 3.6638036
0001c0 3d 86 56 be bc 48 75 40 ee fa 3c 40 f8 d8 60 40
       -0.20949645 3.8325644 2.9528155 3.5132427
0001d0 51 a1 0f 40 9e 20 31 40 e2 b4 51 40 8e 18 1f bf
       2.244221 2.7676158 3.2766652 -0.6214684
0001e0 b0 c0 c3 3d 99 7a 45 40 a1 e1 59 40 d9 20 5a c0
       0.095582366 3.0856078 3.4043963 -3.4082549
0001f0 60 a6 7c c0 56 49 6c 40 ca 29 6b 40 4d 7a 5f 40
       -3.9476547 3.691976 3.6744256 3.4918396

weight f4 [128, 128]
000000 b8 f4 47 3d de 85 32 bd aa e3 ed 38 7f f5 ae bd
       0.048817366 -0.043584697 0.000113434464 -0.085429184
000010 46 48 62 3d 16 94 8b bd 6e bf 94 bd 2c fb fa 3c
       0.055244707 -0.068153545 -0.07263075 0.030637346
000020 8a 4c dc bc 54 b2 9a bd 5d 0e 09 bd 3b 97 61 3d
       -0.026891965 -0.07553545 -0.033460964 0.055075865
000030 99 3b 5d 3d d3 d8 64 bd b8 9d 49 3c 45 3f 8e bd
       0.054011915 -0.055870842 0.0123056695 -0.069456615
000040 a0 90 b7 bd af 33 34 3d ba d3 aa bd 7b cc 6e bd
       -0.08963132 0.0439946 -0.08341165 -0.058300477
000050 4e 9a 6e 3d f8 42 3c bd 06 02 2c 3d 3d 14 94 3c
       0.058252625 -0.045962304 0.041994117 0.018076057
000060 35 f7 06 bd 95 f9 3a bd a0 dd 4b bb 68 e4 45 3c
       -0.0329506 -0.045648176 -0.003110744 0.012078382
000070 00 83 3f bd 11 9a 71 bd 9c f9 0f 3d 7f 5c a2 bd
       -0.04675579 -0.05898482 0.035150155 -0.079277985
000080 a2 25 29 3d 98 45 7c bc f7 05 a9 3d 30 2a a8 bc
       0.041295655 -0.015397452 0.08253091 -0.020527929
000090 72 ee 63 3d 5e 52 52 bd 9c 88 ca 3c 04 ed f3 3c
       0.05564732 -0.051348083 0.024723344 0.029776104
0000a0 2d c1 92 3d 6b 63 80 bd 91 d0 b4 3d b6 7f 1c bd
       0.071657516 -0.062689625 0.088288434 -0.038207732
0000b0 af bb ae bc 1e c9 1f bc 4b 51 94 3d 10 04 b1 bd
       -0.021329729 -0.00975254 0.07242068 -0.08643353
0000c0 b8 04 cf bc fc 8b ff bc 00 2a 66 ba e1 8d a3 bd
       -0.025270805 -0.03119468 -0.0008780062 -0.07986046
0000d0 df 71 39 3d 61 c5 c2 bd 2c 21 83 3d 25 fb 1c 3d
       0.04527461 -0.09510303 0.064028114 0.038325448
0000e0 d2 65 28 3d 90 06 bb bd 50 01 3f bc 2c 71 fe bc
       0.04111273 -0.09132111 -0.011658028 -0.031059824
0000f0 87 f3 bc 3c cc 15 9c bd ac 18 0f 3d 61 3d c8 bd
       0.023065342 -0.07621345 0.03493564 -0.09777332
000100 74 d2 70 bc 9c 18 ab bc 80 09 e9 ba 82 b7 62 3c
       -0.014698613 -0.020885758 -0.001777932 0.013837697
000110 10 98 a9 bc ff 78 30 3d 33 92 99 3d a0 ba 30 bc
       -0.020702392 0.04308414 0.074985884 -0.010786682
000120 16 27 6a bd 0e 3d 8f bd ca 20 76 3d 20 e6 08 3b
       -0.05716618 -0.06994067 0.060089864 0.0020889118
000130 2f 16 bb 3b 6e 09 a1 3c d9 69 4e bd 63 4a e3 bc
       0.0057094316 0.019657817 -0.050393913 -0.027745431
000140 0a 0b 69 3d 68 9f a0 bd 4d ad 9a 3d 59 0f 42 bb
       0.056895293 -0.07842904 0.07552586 -0.0029611199
000150 09 ea a0 3d 05 2a 84 bd 21 c6 c5 3c e9 bd 53 3d
       0.07857139 -0.06453327 0.024142327 0.051694784
000160 b8 83 c5 3c fd c0 3f bd 11 f8 4b bd 5b 01 84 3d
       0.02411066 -0.046814907 -0.04979712 0.06445571
000170 de 30 44 bd 2d 56 0f bd 9a 39 55 bd 34 6b e9 bc
       -0.047898166 -0.034994293 -0.052056886 -0.028493501
000180 be 26 2c 3d 5a 08 5d bd 3b 84 80 bd 05 a4 92 3d
       0.042029135 -0.053963043 -0.06275221 0.071601905
000190 09 3b c8 bc 85 e0 89 bd fc 0b 59 bd 5a fb d5 bc
       -0.024442213 -0.06732277 -0.052989945 -0.02612083
0001a0 5c ce 3c bd 71 5f 4d bd 6c e0 c5 bc 14 fd 88 3c
       -0.046095237 -0.05013985 -0.024154864 0.01672224
0001b0 1f 68 2b bc e0 c3 bd bc c1 8d a9 bd 40 ab c0 bb
       -0.010461836 -0.02316469 -0.082789905 -0.0058797896
0001c0 6c 76 8a bd 72 a3 63 3c ed eb 53 bd b1 2a 5b 3c
       -0.067608684 0.013893949 -0.05173867 0.013376878
0001d0 c0 a0 a5 bb ed 4d 07 bd 25 71 92 3d 68 35 be bb
       -0.0050545633 -0.0330333 0.07150487 -0.0058047064
0001e0 70 f9 45 bc 2d 52 98 3d 37 89 87 bd 34 f3 76 bd
       -0.012083396 0.07437549 -0.066179685 -0.06029053
0001f0 09 c9 da 3c 94 a6 70 bd e2 12 81 bd ae fc 20 3d
       0.02670719 -0.05875261 -0.0630243 0.039303474
000200 1e 7b 9c 3f fc 49 41 c0 dd 11 ff 3e 9e 89 88 3f
       1.2225072 -3.0201406 0.49818316 1.0666997
000210 9c a5 6e bf a6 d5 3d 40 5a 71 e5 3e 8c 86 45 3f
       -0.9322145 2.966165 0.44813043 0.7715843
000220 95 95 70 3e 52 41 37 c0 97 18 b5 3f f0 de 32 3f
       0.23494561 -2.8633618 1.4148129 0.69871426
000230 14 57 57 3e e9 64 de 3e 56 0e a4 3e 68 4b 40 3f
       0.21029311 0.43436363 0.32042187 0.7511506
000240 fa 0e c1 3f dc 80 c4 3f 01 1a 34 bd 9e 73 fd 3f
       1.5082695 1.5351825 -0.04397011 1.9800909
000250 df 71 a0 3e c2 1d de 3f 77 14 7a 3f 23 51 38 40
       0.31336877 1.7352831 0.97687477 2.8799522
000260 68 9f 7a 3f f8 7b 3e be 63 f7 6a 3f d1 09 3c c0
       0.97899485 -0.18601978 0.9178373 -2.9380991
000270 f7 d1 84 3f df f9 18 be 8e cd b1 3f 8e 4b 1c 40
       1.0376576 -0.14939068 1.3890855 2.4421115
000280 b4 d1 b0 bc 6a 2f d8 3c 0e b7 bd be 5e 86 c5 3d
       -0.02158437 0.026389796 -0.37053722 0.09644769
000290 e5 40 1a 3e 13 cb ca be 3b 3a 8e bd ee 38 74 be
       0.15063818 -0.39608058 -0.069447 -0.23849842
0002a0 ae f1 84 3f 37 a3 6d 3f 45 61 d9 3d 12 c9 d6 3d
       1.0386255 0.9282717 0.10614256 0.1048757
0002b0 22 83 da be 53 f5 e1 3d 6b bf 02 c0 63 e0 3a 3f
       -0.4267817 0.1103312 -2.0429332 0.72998637
0002c0 7e af 73 c0 4f 2e 0a 3f af 6b e2 be bc f7 67 bf
       -3.8075862 0.5397691 -0.4422278 -0.9061239
0002d0 19 47 ac 3e 1f d4 6c 3e fa 1b 3e 3f a0 79 6e 3e
       0.33647993 0.23127793 0.7426144 0.23288584
0002e0 51 47 a6 be c7 f9 83 40 c4 84 fa 3f f6 d4 3a be
       -0.32476285 4.1242404 1.9571767 -0.182453
0002f0 73 ca 81 be 69 ad 4c bf 0a a8 0a bf d5 aa 9d 3e
       -0.2534977 -0.799521 -0.5416266 0.30794397
000300 8c 6a 46 40 10 d2 fc bd 2b 06 a7 3e 4f 56 d6 3f
       3.100253 -0.12344754 0.32621893 1.6745089
000310 de 9b b0 bf d0 1e 45 40 cc 34 ac be ad 13 1b 40
       -1.3797567 3.0800056 -0.3363403 2.423076
000320 71 1d 50 3f d0 9f 67 be 33 49 71 bd 16 f7 83 be
       0.81294924 -0.22619557 -0.0589077 -0.2577445
000330 54 59 4a 3f 1b a2 23 40 76 52 d7 be e0 d6 c0 be
       0.79042554 2.5567691 -0.420551 -0.37663937
000340 a3 0e db bd 1e 09 e2 3f 59 35 07 40 4f b4 ba be
       -0.10696151 1.7659032 2.112631 -0.3646569
000350 69 af 88 3d 3b 37 b7 bd 28 f7 72 bf 1d 9f ed 3f
       0.06674082 -0.08946081 -0.9490838 1.8564183
000360 80 f2 2b 3f 0f 56 3f be 01 e0 8a bf 9f 25 81 bf
       0.671669 -0.18685172 -1.084961 -1.0089606
000370 f2 d0 20 bf 44 04 f0 3f ea cc 82 be b8 9b 07 c0
       -0.62818825 1.8751302 -0.25546962 -2.1188793
000380 7d 6a b1 3f 59 c9 48 be fc eb 71 bb c2 b6 46 3f
       1.3860623 -0.19608058 -0.003691434 0.77622616
000390 06 d7 15 3f b6 a9 bd bf 81 22 4d 3e f7 73 81 be
       0.58531225 -1.4817417 0.20032693 -0.25283787
0003a0 cf 45 02 3f 13 3a 15 bf c8 36 0b bf aa 4a 49 40
       0.5088777 -0.5829174 -0.54380465 3.1451821
0003b0 23 33 42 3f 35 6e 07 3f 0b 58 3b c0 3a ad f8 be
       0.7585928 0.5290254 -2.9272487 -0.4856966
0003c0 7a 96 51 bd 62 af 8d 3f af 86 98 bf f7 04 66 be
       -0.051168896 1.1069148 -1.1916102 -0.22462831
0003d0 1d 24 3e bd 52 9a ee bd 02 e0 9c bf bd 9f 83 bd
       -0.04642116 -0.11650528 -1.2255862 -0.06426952
0003e0 b3 ed a6 3d 44 50 26 3f ab 29 7f bf e2 18 bb 3e
       0.08150806 0.64966226 -0.99672955 0.36542422
0003f0 54 4a d1 be 2f 46 93 bf 31 6c eb bf 26 60 38 bf
       -0.4087702 -1.1505793 -1.8392392 -0.7202171

bias f4 [128]
000000 bc 63 0d 3d 92 b8 a6 3f da 23 68 3d 3a 7d 58 bf
       0.034518942 1.3025076 0.056674816 -0.8456608
000010 24 8b 5b 40 ec 48 30 3e de f0 7f bd 08 24 16 be
       3.4303675 0.17215317 -0.06248557 -0.14662182
000020 05 50 86 bd de bf cf 3f 10 8f 5a 40 2f b3 a5 bd
       -0.06558231 1.6230428 3.4149818 -0.08090817
000030 e7 66 76 bf 6f e4 55 40 8b ca f9 3c 01 72 35 bf
       -0.96250767 3.3420675 0.030492088 -0.7087708
000040 98 15 0f 40 7d d8 0e 40 51 ad 4c bd dc 24 57 40
       2.235693 2.2319634 -0.049969975 3.3616247
000050 66 eb 14 bf 57 8f a4 bd 13 ac 57 40 2a e3 52 bf
       -0.5817169 -0.080351524 3.3698776 -0.82377875
000060 95 56 81 be 5d cc 19 40 de c7 9a bd a8 99 81 bf
       -0.2526137 2.4030983 -0.07557653 -1.0125017
000070 f8 6f 55 40 05 2e 14 3d d5 76 85 bf 95 e2 8b 3d
       3.334959 0.0361767 -1.042689 0.068303265
000080 cd 2b 88 bf 18 68 62 40 9f 8c 61 40 a9 12 c9 bd
       -1.0638367 3.5376034 3.5242078 -0.09818012
000090 c8 20 2c 40 a0 60 02 c0 56 7c 52 40 b3 a7 75 40
       2.6895008 -2.0371475 3.2888389 3.8383605
0000a0 59 ee eb 3f cf eb 58 40 5e a5 12 40 4c 0b b8 3c
       1.8432113 3.3893926 2.2913432 0.022466324
0000b0 a2 d6 ee 3b 28 ef 31 bd 72 5d f7 3e 47 bb 34 40
       0.00728877 -0.043440968 0.4831348 2.8239305
0000c0 91 31 77 40 2c a8 79 bd 96 d9 9c 3f d4 5a 04 3f
       3.8624003 -0.060951397 1.2253902 0.5170109
0000d0 e4 8b 08 3d f3 35 ef bc d7 a3 81 3d ef 4a ad bd
       0.033336535 -0.02920053 0.06330078 -0.08461558
0000e0 03 44 6f bf 23 2e 54 40 72 e4 7e 40 c2 4e 72 bf
       -0.9346315 3.315316 3.9826932 -0.94651425
0000f0 e8 12 31 bf 04 42 5f 40 cf 7c b7 bf 48 4c 59 40
       -0.69169474 3.4884043 -1.4334964 3.3952808
000100 f4 e4 08 3b 98 3f d1 bf 37 fb 71 40 44 34 e3 3f
       0.002088842 -1.6347532 3.780958 1.7750325
000110 d2 fd 61 3e 2a 13 52 40 d2 97 42 be 9d e1 84 bd
       0.22069481 3.2824197 -0.19003227 -0.06488345
000120 93 fb 37 bf 70 b6 b2 bc cd 4f 41 3f 92 93 e2 3b
       -0.71868247 -0.021815509 0.7551239 0.0069145644
000130 38 2d 96 bc 9b a2 fb 3e 87 bc 28 bc b6 8d 10 3e
       -0.018332109 0.49147496 -0.010298855 0.14116558
000140 ed c5 55 bf 0c 16 7c bf df 74 56 40 31 fa 5a 40
       -0.83505136 -0.9847114 3.3508832 3.4215205
000150 8f bc 29 3f 0d 59 8e bd db 45 52 40 11 36 4a bf
       0.6630334 -0.06950579 3.2855136 -0.7898875
000160 08 fe 5d 40 26 fb 0d 40 97 db ed be 09 ee 56 40
       3.4686298 2.218454 -0.46456596 3.3582785
000170 a1 02 23 3e 4a 6f 5f 40 38 ab 68 3f 2f b4 61 bf
       0.15918972 3.4911675 0.9088626 -0.88165563
000180 cf ee 26 bd 88 0b 5a bc 88 99 6a bc 5b 50 5b 40
       -0.04075509 -0.013308413 -0.014318831 3.4267795
000190 e8 3e 51 40 ed 59 05 bf 12 30 f4 3f 90 97 78 40
       3.2694645 -0.5209034 1.907717 3.8842506
0001a0 f1 0d 6d 40 af ac 24 bf 47 51 9f bf d4 e3 77 bf
       3.703976 -0.64325994 -1.2446679 -0.96832013
0001b0 de 10 60 40 7e 9e 66 40 a0 92 bf bd b2 1e dd bd
       3.5010295 3.6034236 -0.093541384 -0.1079687
0001c0 78 81 3c bd b2 3b 35 40 23 47 5a 40 5f 32 0c 40
       -0.04602191 2.8317685 3.4105918 2.1905744
0001d0 07 bd 2a bf 4f 0a 6b 3f de 7c 53 bf 03 d1 64 bc
       -0.6669468 0.91812605 -0.8261241 -0.013965848
0001e0 25 28 89 bd 6a f4 44 40 f7 c1 49 3f 05 b4 18 40
       -0.0669711 3.0774179 0.7881159 2.3859875
0001f0 d5 cb 60 40 a5 de 0e bd 94 c3 d9 3e 02 90 8f bf
       3.512441 -0.0348803 0.42532027 -1.1215823

weight f4 [1, 128]
000000 d3 9b 6a bc 11 c6 3a c0 ac 10 fb bc 39 ba db bf
       -0.014319378 -2.918339 -0.030647598 -1.7166206
000010 c1 77 cd 3f e7 31 47 c0 08 f0 68 3c 1e c4 19 bc
       1.6052171 -3.1124208 0.014217384 -0.009385137
000020 28 9e 38 bc f1 92 c1 40 86 1d cc 3f 36 f2 a4 bd
       -0.011268176 6.049187 1.594651 -0.080540106
000030 5f a3 c1 bf a9 e9 cd 3f 5b 23 80 3d 23 61 fd bf
       -1.5127982 1.6086932 0.062567435 -1.9795269
000040 8a 32 9a 40 4a 75 be 40 97 96 b9 3b 1a 20 d2 3f
       4.8186693 5.9518175 0.0056637037 1.6416047
000050 0e 1d 4d c0 48 0a b4 bd dc 1a d8 3f ad 59 9d bf
       -3.2048984 -0.087910235 1.6883197 -1.2292992
000060 fd 60 02 3c 7b be 9d 40 e5 29 10 bd 0a 56 a7 bf
       0.007957694 4.929502 -0.035196204 -1.3073132
000070 db fd cd 3f 36 0b a5 3d 0d dd 91 bf 92 18 51 3d
       1.6093096 0.08058779 -1.1395584 0.051048823
000080 59 b7 d8 bf 5c 05 d7 3f f2 5a cd 3f 8a 02 00 bc
       -1.6930953 1.679851 1.6043379 -0.007813105
000090 ca 7e 6f 3f f6 2e 05 c1 64 b3 d3 3f 85 8a 98 40
       0.9355284 -8.323965 1.6539121 4.766909
0000a0 a1 ca d8 3f 9e 11 d0 3f 5b b3 df 40 a3 90 f0 bf
       1.6936837 1.6255376 6.990644 -1.879414
0000b0 22 86 d8 3c a0 15 5b bc 29 f8 a3 c0 2e 99 ac 3f
       0.026431147 -0.013371855 -5.124043 1.3484247
0000c0 c2 1c e6 40 93 0c 6c bc 84 70 35 40 7e 34 52 be
       7.1910105 -0.014407295 2.8349924 -0.20527837
0000d0 fc e8 7c 3d 98 34 c1 3b 56 95 2f 3d e4 0e 88 3a
       0.06174563 0.0058961622 0.042867027 0.0010380414
0000e0 6f b3 bf bf e9 ee c8 3f 74 b6 21 c0 c2 91 0d c0
       -1.4976634 1.569791 -2.526761 -2.2120214
0000f0 49 d9 d0 bf 62 6d d2 3f 66 86 06 c1 a4 d8 de 3f
       -1.631631 1.6439631 -8.407812 1.7409863
000100 4f 8f 38 bd 5f fa 89 c0 71 c9 c6 3f 73 84 1b 41
       -0.045058545 -4.311813 1.5530225 9.719836
000110 fe 53 98 c0 ff c3 c9 3f 93 69 86 c0 10 37 ce bb
       -4.760253 1.5762938 -4.2003875 -0.006293185
000120 36 1d dc bf 64 3f 82 bd 43 cb a8 c0 69 88 5e bc
       -1.7196414 -0.06359747 -5.274812 -0.013582327
000130 d0 61 43 bc b4 a9 95 c0 df 76 34 3c 39 3b 31 c0
       -0.011925176 -4.6769657 0.011014669 -2.7692397
000140 14 b3 f8 bf 27 00 b1 bf 5e 2b d4 3f 14 2b d7 3f
       -1.942965 -1.3828171 1.6575735 1.6810021
000150 9a 96 ed 40 c5 f4 8f 3c 03 d9 da 3f 3e 7b a0 bf
       7.424634 0.01757277 1.7097477 -1.253761
000160 64 e0 cd 3f 7f 42 8d 40 1e c7 e2 bf 32 7b cf 3f
       1.6084104 4.414367 -1.7717016 1.6209471
000170 fb c2 f1 bf e3 a5 d6 3f b6 e5 b6 c0 b8 a5 ce bf
       -1.8887628 1.6769375 -5.715541 -1.6144323
000180 6c 3a 04 bd 78 bf 14 3c e9 51 a4 bd 76 b9 d3 3f
       -0.032282278 0.009078853 -0.080234356 1.6540973
000190 b5 88 d6 3f 5d 7d 1c c0 9b 95 ff 40 9d 72 c2 3f
       1.676047 -2.4451516 7.9870124 1.5191227
0001a0 35 dd 9f 40 3a b6 e0 bf 6f 8d 89 c0 7f a7 bb bf
       4.995753 -1.7555611 -4.298515 -1.4660491
0001b0 ef be c1 3f bc f0 d5 3f 3e fb 93 bc 5a e6 65 bd
       1.5136393 1.6714091 -0.018064138 -0.056127883
0001c0 31 2b dd 3a dd 81 b6 40 79 84 d1 3f 96 cf 0d 41
       0.0016873834 5.7033525 1.6368552 8.86318
0001d0 95 6a 9f bf d7 b5 c1 40 3e 4a c1 bf 39 ba 57 bd
       -1.2454401 6.0534472 -1.5100782 -0.05266783
0001e0 ed e5 8f bc 7a d7 bd 40 e2 43 92 c0 14 09 1a c0
       -0.017565692 5.9325533 -4.5707865 -2.406804
0001f0 8d c1 d8 3f 54 20 89 3d d5 98 39 c0 40 0d 6d c0
       1.6934067 0.06695619 -2.8999531 -3.7039337

weight f4 [2, 128]
000000 c4 90 8f 3d 86 d2 81 40 1c 2b 79 bd b9 27 8e bf
       0.07010034 4.0569487 -0.060832128 -1.1105872
000010 e7 4d 4a 3d 15 ae f8 3f 80 5d f4 3b 4f cd 1d bf
       0.0493907 1.9428126 0.007457435 -0.616414
000020 17 bc b9 3c e8 bf c0 40 27 32 86 3e 84 9c 0c bd
       0.022672696 6.023426 0.26210138 -0.034328952
000030 0f 4a 49 bf fe b1 88 3e de 0b 98 3c 8f 0a 52 bf
       -0.7862863 0.26698297 0.018560346 -0.8204736
000040 6a 2f b0 40 13 6b a8 bf 72 98 50 bb ab cf 75 3e
       5.505788 -1.3157676 -0.0031829146 0.24005
000050 f0 9d a8 3f dc b9 22 bd a5 2f 6c 3e 21 f0 d7 be
       1.3173199 -0.03972803 0.2306505 -0.4217539
000060 fd d0 99 bd f2 f5 d2 be 68 e9 39 bb 52 8a 5b bf
       -0.075105645 -0.41203266 -0.002836788 -0.85757935
000070 bf fd 8e 3e be 40 97 bd 65 90 01 bf e7 6a b3 bc
       0.27927968 -0.073853955 -0.50610954 -0.021901561
000080 97 5b ae bf 5a e8 6d 3e a7 65 8f 3e 0e be 2b bd
       -1.3621701 0.23233166 0.28007242 -0.041929297
000090 dc 56 92 c0 06 0f 1c c0 4f 7e c7 3e d7 34 b5 bf
       -4.573103 -2.438417 0.38963553 -1.415675
0000a0 6c 3d ea bf dc 4c d6 3e 87 cb 21 3f 91 b7 cc be
       -1.8299994 0.41855514 0.63201183 -0.399838
0000b0 b3 db 7c 3d 36 6b 5f 3d 83 21 3c 3f a3 21 e6 be
       0.06173296 0.054545604 0.73488635 -0.44947538
0000c0 be 5a 82 40 63 d4 65 bc cd 55 5b 40 55 fd 45 c0
       4.073577 -0.014027688 3.4271119 -3.0935872
0000d0 83 fd 67 3d 88 b2 32 bd 64 24 10 bd 74 8a fc 3b
       0.056638252 -0.043627292 -0.035190955 0.0077069346
0000e0 9b 72 f1 be ab 50 58 3e 0a c4 07 41 a3 bd a1 bf
       -0.4715775 0.21124522 8.485361 -1.2635998
0000f0 f4 ec 0f bf d8 81 91 3e 9b 77 98 bf 45 33 cf 3e
       -0.56220937 0.28419375 -1.1911501 0.40468803
000100 a7 5b a8 3d ea a2 6c 40 cd 63 2d 3e 44 e4 bc 40
       0.08220606 3.6974435 0.16932602 5.9028645
000110 73 e9 24 bb a5 ce 94 3e b0 d8 3b 40 be 6e a0 3c
       -0.002516356 0.29063907 2.9351006 0.019584056
000120 5f 0c 2b bf ba 38 5e 3d 40 59 88 40 27 6c b8 3c
       -0.6681575 0.054253317 4.260895 0.022512509
000130 66 e9 28 3d 29 de 57 3f f5 db 16 3d ed 95 41 3f
       0.04123821 0.84323364 0.03683086 0.75619394
000140 f1 9d 3a bf 85 b6 90 be 86 a6 29 3e 45 2b f9 3d
       -0.7289725 -0.2826425 0.1656743 0.12166456
000150 4c 69 26 c0 5d 4b 1c bc dd b4 ae 3e a2 5e 69 bf
       -2.6001768 -0.009539452 0.34122363 -0.91160023
000160 25 9d 2e 3e 8e 5c 5f 40 2d eb 5c bf b6 d7 8c 3e
       0.17052133 3.490024 -0.8629635 0.27508324
000170 b2 29 13 be 60 de 11 3e e7 41 54 bd 5c 21 76 bf
       -0.14371374 0.14244986 -0.051820662 -0.9614465
000180 78 38 44 3d c3 1d 84 bd 70 11 f5 bb 63 21 a9 3e
       0.047905415 -0.06450989 -0.0074788854 0.33033285
000190 30 a2 80 3e 19 dd d9 be e0 3b b7 40 ca 14 48 bd
       0.2512374 -0.42551497 5.726059 -0.04884795
0001a0 57 2b 49 40 01 46 de be 19 48 cf 3e 31 dd d0 be
       3.1432703 -0.43412784 0.40484694 -0.40793756
0001b0 7a ea 5e 3e 4c a5 64 3e 3c 55 85 bc cc 63 87 bd
       0.21769133 0.22328681 -0.016275994 -0.066108316
0001c0 bd b1 99 3d 37 07 ab 40 7e 85 8e 3e 7c 41 0e c0
       0.07504604 5.3446307 0.2783622 -2.2227468
0001d0 3c 31 8b be f4 dc a8 c0 d1 f6 4e bf 35 ac 1f 3d
       -0.27186 -5.276972 -0.8084536 0.03898259
0001e0 b4 d8 89 bd 43 72 3f 40 b9 78 f8 bd 85 e8 53 c0
       -0.06730786 2.991349 -0.12132401 -3.3110669
0001f0 fd 89 33 3e 20 2d 39 3d 59 46 f5 3f dd bc f3 3f
       0.17533107 0.04520905 1.9162093 1.9042011
000200 14 f4 06 bd 65 32 83 c0 f0 78 e4 3c f4 00 87 3f
       -0.032947615 -4.0999017 0.027889699 1.0547166
000210 c4 f4 52 bd e5 85 ef bf 1f 7f b3 3d c5 08 31 3f
       -0.051502958 -1.8712736 0.08764481 0.69154006
000220 a5 40 07 3d 99 bb c2 c0 5b c5 a2 be cc 14 f7 bc
       0.033020634 -6.0854 -0.31791195 -0.030161284
000230 21 63 43 3f 59 8c fe bd cc 95 07 3d b8 3e 62 3f
       0.76323134 -0.12429113 0.03310184 0.8837695
000240 24 2a b0 c0 8f d2 aa 3f 5f 55 ab 3b e9 82 9a be
       -5.505144 1.3345507 0.005228683 -0.30178002
000250 ea 42 a4 bf f0 92 0b 3c 5e 24 2e be 87 da bc 3e
       -1.283292 0.008518919 -0.1700606 0.36885473
000260 46 94 1d bc 51 29 d1 3e 9c 27 8a bd eb be 5d 3f
       -0.009617871 0.40851834 -0.06745836 0.8661944
000270 c7 5f 94 be 8e de 17 3d c4 1e f0 3e 27 22 bc 3c
       -0.28979322 0.03707748 0.46898472 0.022965504
000280 30 b7 b5 3f af 80 a6 be 58 b9 52 be 69 b5 4a bd
       1.4196529 -0.32520053 -0.20578516 -0.049489412
000290 98 ab 90 40 52 fe 1d 40 fb 0b c2 be a5 d4 ae 3f
       4.5209465 2.4686475 -0.37899765 1.3658644
0002a0 ba d4 eb 3f 4c 5f ee be 1d 23 42 bf fb b2 c8 3e
       1.8424294 -0.4655708 -0.7583483 0.3919905
0002b0 0c 0e 8e bc d4 0a 20 bd 99 d8 56 bf 31 38 dc 3e
       -0.017340682 -0.039072827 -0.8392425 0.4301162
0002c0 eb 75 81 c0 d7 b4 b5 b9 09 b7 5a c0 eb 51 3f 40
       -4.0456443 -0.00034657746 -3.4174216 2.9893749
0002d0 6b c5 f1 3c d6 74 16 3d b4 cb e0 3c 13 71 6e bc
       0.029513082 0.036732517 0.027440883 -0.014553326
0002e0 fb 95 f5 3e d4 73 2e be 5a 73 07 c1 7a 08 a2 3f
       0.4796599 -0.17036372 -8.465662 1.2658837
0002f0 29 1e de 3e 62 30 8d be d0 c8 95 3f eb 15 8f be
       0.43382385 -0.27575976 1.1701908 -0.2794641
000300 fc a1 73 bd d2 72 72 c0 b1 17 59 be e8 e2 ba c0
       -0.059480652 -3.788258 -0.21200444 -5.8401985
000310 8f 4b d3 bd cc 55 b6 be 18 ca 39 c0 e5 96 9b bd
       -0.10317146 -0.35612333 -2.9029598 -0.0759714
000320 81 97 14 3f 9f c4 3f 3d d5 62 85 c0 82 08 e2 bc
       0.58043677 0.04681837 -4.1683145 -0.027591947
000330 a8 73 01 3d 70 1f 43 bf 58 46 bd 3d 77 3a 4f bf
       0.03160444 -0.76219845 0.09241933 -0.80948585
000340 81 5c 3d 3f 05 2e 94 3e d0 c5 c9 bd c1 78 fc bd
       0.73969275 0.2894136 -0.09852183 -0.123277195
000350 6d 5b 26 40 84 df 85 3c ad 46 ae be 43 1f 72 3f
       2.5993302 0.016341932 -0.34038296 0.9457895
000360 e2 f8 6a be d1 a1 61 c0 de 46 42 3f 1e bc 2a be
       -0.22946504 -3.5255015 0.75889385 -0.16673324
000370 4f 27 93 3e c7 8e 25 be 28 35 8f 3d 5d 36 74 3f
       0.28740928 -0.16167746 0.069925606 0.9539545
000380 74 eb f0 3b 81 48 9c bd 46 4e 7f 3d 2e 25 67 be
       0.007352287 -0.076310165 0.062330507 -0.22572777
000390 9e 1d 60 be 54 90 07 3f 5c 6d b7 c0 41 6e aa 3d
       -0.21886298 0.529546 -5.7320995 0.083218105
0003a0 28 9b 49 c0 9f 3e b4 3e ec 78 b2 be 7b 31 f3 3e
       -3.150095 0.35204026 -0.3485788 0.47498688
0003b0 3b 40 0e be 3a a1 24 be ad 01 9b 3c 0c 19 88 3d
       -0.1389169 -0.16077128 0.018921698 0.06645402
0003c0 0e 4e 2d bc 9a f3 a7 c0 4b da 82 be c2 a4 11 40
       -0.010577692 -5.2484865 -0.2555717 2.275681
0003d0 f8 2b c4 3e 23 26 a7 40 94 79 3a 3f 90 06 bb 3d
       0.38314795 5.2234054 0.72841763 0.09132111
0003e0 59 ab c1 bd dc aa 3e c0 d6 7f 0e bc 43 5e 55 40
       -0.0945651 -2.9791784 -0.008697471 3.3338783
0003f0 b9 e3 14 be 2d db 96 3d d2 f7 f3 bf f8 e7 f5 bf
       -0.14539994 0.07366023 -1.9060004 -1.9211416

bias f4 [2]
000000 a7 d4 0c bf cf 73 fe 3e
       -0.5501198 0.4969773
