models/maintainance_agent/2/D3QN_Q_target.pth (torch, 6095 bytes, 7 tensors)

fc1.weight f4 [32, 11]
000000 22 4e 85 bd a3 ab 47 bd d8 c4 67 3d ca 05 0c be
       -0.06509043 -0.04874767 0.05658421 -0.13674083
000010 66 48 83 bd dc 58 2c be de 82 72 3d 78 91 84 bd
       -0.06410293 -0.16830772 0.059206836 -0.064730585
000020 61 20 c1 bd b6 ed 9a bd 98 bd 1f 3d 48 af ea 3d
       -0.09430004 -0.07564871 0.03899917 0.114592135
000030 46 80 91 bd 23 9a 16 3d 99 80 3f 3d 66 8f 9e 3e
       -0.07104544 0.03676809 0.0467535 0.3096878
000040 c3 cc db 3d e4 e1 2b 3d f8 25 51 3e b8 4a a1 3e
       0.107324146 0.041963473 0.2042464 0.31502318
000050 45 fc 52 be e1 5a 1a 3d 88 30 53 3d 45 46 25 3d
       -0.20604046 0.037684325 0.051559955 0.040350217
000060 9b 26 23 3d 47 80 92 bd 2a 38 21 be 58 6b 66 be
       0.03983174 -0.07153373 -0.15744081 -0.22501886
000070 8e 4c 75 3e f9 8b 11 be 76 aa 85 3d dd 0e 75 be
       0.23954985 -0.14213552 0.065266535 -0.23931451
000080 a7 8d 03 3c 16 9a d8 bd 9a 60 dc bd 04 9d 32 be
       0.008029378 -0.105762646 -0.10760613 -0.17442709
000090 22 5e 8a 3e 40 22 67 bc b4 8c 54 3e c8 61 2d bd
       0.27024943 -0.014107287 0.20756799 -0.04232958
0000a0 ee 8e da bd 60 e4 54 3e bf 59 51 be 94 00 5c be
       -0.10671793 0.20790243 -0.20444392 -0.21484596
0000b0 34 cf a8 3d 82 a8 86 be ea d0 e5 bd 1e 84 ec bd
       0.08242646 -0.26300436 -0.11221488 -0.11548637
0000c0 a4 03 74 be eb bf 76 be f0 23 33 bd 59 9b 80 be
       -0.23829514 -0.24096648 -0.043735445 -0.2511852
0000d0 fc b5 6c be 30 f2 aa 3d 54 a7 87 be 2b d6 31 be
       -0.23116297 0.08346975 -0.2649485 -0.17366855
0000e0 b0 71 71 be 08 e1 cf bd ae 34 5e be 98 63 8d 3e
       -0.23578525 -0.10150343 -0.21699783 0.27615047
0000f0 fe 46 b6 3e cc e5 35 3e cb 65 53 3e b6 9c c3 3d
       0.35601038 0.17763442 0.206443 0.095513746
000100 a1 91 cb 3d dd d0 53 be 91 f4 e3 bd b2 41 5b bd
       0.09939886 -0.20685144 -0.11130632 -0.05352945
000110 77 68 81 3d a1 01 a9 bd b1 c9 71 3e 03 f8 61 be
       0.06318753 -0.08252264 0.23612095 -0.22067265
000120 c3 1a 37 be bb cb 3f 3c b6 f1 7f be af fe 1b be
       -0.17881303 0.011706288 -0.24994549 -0.15233873
000130 e2 d8 85 bd df 95 8c be 95 58 39 3e bb d0 23 be
       -0.06535508 -0.27458093 0.18100198 -0.15997593
000140 4a 15 b3 bd 5b 34 2f be e4 dc ae 3c 47 54 78 3e
       -0.08744295 -0.17109816 0.021345563 0.242509
000150 21 56 44 3e 68 70 27 3e e2 0f 57 bd 6a b8 52 3b
       0.1917348 0.16351473 -0.05250538 0.0032153376
000160 62 6a 96 3e d0 47 61 3e 46 ce ca 3b 4e ad bc bd
       0.2937804 0.2200005 0.0061891405 -0.09212743
000170 d8 f8 0e be 81 cc b4 3e 58 e6 c3 3c d6 bb b8 3d
       -0.13962114 0.35312274 0.023913547 0.09020202
000180 ed 96 57 3e 48 77 3b be 0f ca 4a 3d 3d 7b 6a be
       0.21053667 -0.18307221 0.049509104 -0.22898574
000190 06 b9 11 3d 27 59 fd 3d 6a 4b a2 be 16 c2 ce 3d
       0.035576843 0.1237052 -0.3169816 0.10095613
0001a0 a3 08 bb bc 6f ca a9 3d 17 cf 27 3e a9 ef 24 be
       -0.022831267 0.08290564 0.16387592 -0.16107048
0001b0 f8 4c 19 bc 7c 45 b3 3d 44 76 3a 3d 7a a5 8e 3d
       -0.00935673 0.087534875 0.045522943 0.06965156
0001c0 ab 20 5a be 7d bc 93 bc 89 19 c1 bd ac 52 c0 3d
       -0.21301524 -0.018034214 -0.094286986 0.093907684
0001d0 2d 51 14 3d 98 ee a1 3e 9e ff ae bd 0a 7f 5d 3e
       0.036210228 0.31627345 -0.08544849 0.21630493
0001e0 a8 be 2d be 33 7c 8e 3d d7 57 e2 bd 46 12 31 3e
       -0.16967261 0.06957283 -0.1105191 0.17292127
0001f0 2e f6 6f be 69 5d 29 bd 4a 64 d3 bd be 55 32 3e
       -0.23433754 -0.04134885 -0.10321863 0.1741552
000200 6c 2d 51 be 61 f1 5e be 3e 10 ee 3d 9e ff 91 be
       -0.20427483 -0.21771766 0.11624192 -0.28515333
000210 1e ee 89 3e 96 a3 0a 3e c2 23 f5 bd e8 c5 85 bc
       0.26939481 0.13538966 -0.11969711 -0.01632972
000220 b1 3d a7 3e 76 9b 60 3e cc 17 6f 3e fd 6d fe 3d
       0.32664254 0.21934304 0.23348922 0.12423322
000230 b0 76 21 be c9 1b d9 bd d3 f2 60 3d d6 f8 0c be
       -0.15767932 -0.10601003 0.054919075 -0.13766798
000240 37 58 a8 3e ee f5 f0 bc 57 53 90 3e e7 c1 c5 3d
       0.32879803 -0.029414143 0.28188583 0.096561246
000250 20 fc 5e 3e 6b e9 6c 3e 68 3b ab 3e 83 36 54 3c
       0.21775866 0.23135917 0.3344376 0.01295245
000260 13 ef 55 be be f1 a1 3b 2e 79 34 be de 36 58 3e
       -0.20891981 0.004942148 -0.17624351 0.2111468
000270 e2 d1 84 3e 0a f2 a6 3e 5d 8c 62 be dc 7c d8 bd
       0.25941378 0.32606536 -0.22123857 -0.1057069
000280 94 a0 7b 3e 86 78 0e be 58 99 b7 3d 1a 19 36 3e
       0.24572974 -0.13913164 0.08964795 0.17783013
000290 bf 3d 84 bd b7 cd a0 be 4e 90 fa 3d ed 97 2b bc
       -0.0645709 -0.31406948 0.12234555 -0.010473234
0002a0 7f 8d 12 3e 44 b5 2b be 76 81 78 3d d2 ca ca 3c
       0.14311789 -0.16768366 0.06067034 0.024754915
0002b0 46 b3 9a bc 05 37 38 3e 16 eb c4 3c 4a 49 36 3e
       -0.018884312 0.17989738 0.024037879 0.17801395
0002c0 aa 2c 96 3e 4f fd 7b be 1f 5a 86 3e 6b 54 03 be
       0.2933095 -0.24608348 0.26240632 -0.12825172
0002d0 19 dd e2 bd f4 63 72 be 8b 33 ff bd c2 94 6d 3e
       -0.11077327 -0.23670942 -0.12461003 0.23201278
0002e0 78 e8 78 be 5f ee fa 3c 92 a0 a8 bd 78 60 91 bd
       -0.2430743 0.030631242 -0.08233751 -0.07098478
0002f0 bc 71 29 3e db ad 54 be 8d 8f df 3c 68 2b 22 3e
       0.16547292 -0.20769446 0.02729013 0.1583687
000300 58 1b d7 3d a9 c4 7c 3e 33 27 cf 3c 60 b8 89 3e
       0.10503262 0.24684395 0.025287246 0.2689848
000310 30 92 58 be d1 b0 86 be e4 70 86 be f8 da 31 3e
       -0.21149516 -0.26306775 -0.26258004 0.17368686
000320 fb 54 8b 3e 22 28 d8 bd 71 da b1 bd cf f4 25 be
       0.27213272 -0.1055453 -0.086842425 -0.16206668
000330 27 41 50 3e 53 e1 7a 3e fe f6 84 be ae a2 11 be
       0.20337354 0.24500017 -0.2596969 -0.14222214
000340 11 c3 28 3b ca 51 97 3c d3 ed 56 bc a5 7e 97 3e
       0.0025751034 0.018471617 -0.013118225 0.2958881
000350 8d 60 6b be 3f 61 7c 3e d0 b9 6b be 59 12 09 3e
       -0.2298605 0.24646471 -0.230201 0.13385905
000360 b5 c0 8a 3e 4d 0e 16 be 97 76 4c 3e 08 85 93 3d
       0.2710015 -0.14653893 0.19967113 0.07203108
000370 67 e5 6c 3d 19 a3 9d 3e 70 e1 dc 3d 46 64 2d be
       0.057835963 0.30788496 0.10785186 -0.16932783
000380 c3 c1 62 bd 38 f5 2f 3e 7c 80 81 3d 7f 92 98 3d
       -0.055360567 0.17183387 0.063233346 0.07449817
000390 33 c5 e0 3d 96 2b 53 3c bf e2 8c 3e ec 69 de 3b
       0.10975113 0.01288881 0.27516744 0.006787529
0003a0 f4 18 ce 3c 3b 95 8c 3e eb a4 78 3e 2b e6 0c 3e
       0.025158383 0.27457604 0.24281661 0.13759677
0003b0 f7 33 00 be 24 ce da 3d 36 ed 65 3e 77 49 d0 3c
       -0.12519823 0.106838495 0.2245377 0.025425656
0003c0 2e 9a 2f 3d 14 49 ae bd 90 26 41 be 8a 49 3d be
       0.042871647 -0.08510032 -0.18862367 -0.18485084
0003d0 10 86 25 3e 88 1e 39 bd f4 78 8c 3e 40 4e 83 3b
       0.16164422 -0.045195132 0.2743603 0.004007131
0003e0 c0 99 8f bd ee 68 10 be 70 9e 05 3e 69 ec 83 be
       -0.07011747 -0.14102527 0.1304872 -0.25766304
0003f0 bc d2 57 3e f2 0a 9b bd 0e 3e a3 bd a1 b5 3f be
       0.21076483 -0.07570447 -0.0797082 -0.1872163

fc1.bias f4 [32]
000000 08 54 1a 3e f3 58 7c be d7 02 30 3c 78 f1 67 be
       0.15071118 -0.24643306 0.010742865 -0.22650707
000010 a2 36 36 3e 17 3e eb bd e6 4c 97 3d 15 dd 40 be
       0.17794278 -0.11486452 0.07387714 -0.18834336
000020 7b 16 61 be f2 88 3e 3e 4b 04 d0 3a 2e fa 5c be
       -0.21981232 0.18606928 0.001587042 -0.21579811
000030 2b b8 06 be 5d 9a a1 bd 32 7d 83 be 4f 0e 33 3e
       -0.13156192 -0.078907706 -0.25681454 0.17485927
000040 78 3f 6d 3e b3 1a 94 3e 06 06 07 3e 50 e0 b4 bd
       0.23168743 0.2892662 0.13185892 -0.08831847
000050 7a 40 08 be a5 fc 60 3d 48 08 5a be 73 81 aa 3d
       -0.13305846 0.05492844 -0.21292222 0.08325472
000060 04 b7 e5 bd 49 7d 95 bd 33 a3 58 3e b9 ed 55 3e
       -0.11216548 -0.07299287 0.21156006 0.20891465
000070 92 a3 8c 3e fe 90 81 3e 20 f2 aa be a2 a6 c8 3c
       0.27468544 0.25305933 -0.33387852 0.02449352

fc2.weight f4 [16, 32]
000000 48 3e 0d 3e 95 d0 f5 bd ce 38 01 3e a6 2b 85 3d
       0.1379329 -0.120026745 0.12619326 0.06502466
000010 1d 5c 0e 3e e5 a4 3c 3d 94 41 04 3c 75 c7 1e 3e
       0.13902326 0.046055693 0.008072276 0.15505774
000020 30 86 00 be a8 96 92 3d 78 d8 ea bd eb 54 26 3d
       -0.12551188 0.07157642 -0.114670694 0.040608328
000030 3b fd 10 3e 6b 0c 14 3e 12 87 e0 bd c3 ec 19 3e
       0.141591 0.14457862 -0.109632626 0.15031724
000040 13 18 72 bd f6 84 f3 bb 94 dc f9 bd 5c 48 28 3c
       -0.05910499 -0.0074316217 -0.12200275 0.010271158
000050 41 62 ec bd 24 5a 07 be 64 90 09 bd b7 a1 87 3d
       -0.11542178 -0.1321798 -0.033584967 0.066226415
000060 5f d8 17 be a0 5a a7 3c 6e 02 aa bc 48 2d 3c 3d
       -0.14828633 0.020428956 -0.020753112 0.04594162
000070 9f 6d 16 bd d5 8b 99 bd dc af a3 3d 0c 96 a6 3d
       -0.036725637 -0.07497374 0.07992527 0.08134088
000080 6e bf c0 3d ac bb 28 bd f2 7b dc bd 30 8a 08 3d
       0.09411512 -0.041194603 -0.10765828 0.03333491
000090 23 db 22 3e 0c be 14 bd 8a e3 a9 bd 00 57 91 3c
       0.15903907 -0.036314055 -0.08295353 0.01774168
0000a0 b8 a8 38 3d 72 8d 8f bd 29 e4 2a be 42 91 df bc
       0.045082778 -0.070094004 -0.16688599 -0.027290944
0000b0 aa 74 c5 bd f0 fe 99 bc 74 82 69 3d 44 6a 6c 3d
       -0.096413925 -0.018798321 0.057009175 0.05771853
0000c0 d2 a1 b5 3d 26 52 1a be 6a f4 b4 3d 00 b8 4a b9
       0.088687554 -0.150704 0.08835681 -0.00019332767
0000d0 87 2d 1c 3e 72 ad 94 3d b6 20 fe 3d 51 2a 2c 3e
       0.15251742 0.072596446 0.12408583 0.16813017
0000e0 49 e5 0e 3e d2 9a c6 3d 9f 23 04 3e ea b9 bd bd
       0.13954653 0.096974984 0.12904213 -0.09263976
0000f0 cf 89 21 be 00 73 65 3d c6 8f a3 3d 02 49 ab 3d
       -0.15775226 0.056017876 0.07986407 0.083635345
000100 bf 5e 06 3e e5 41 8c bc 61 00 35 be 66 21 87 3d
       0.1312208 -0.017121265 -0.17675926 0.06598167
000110 c0 5f 78 3c a0 1a 7d bd 70 6c 9f 3c 3c fc 0f 3d
       0.015159547 -0.06179297 0.019460887 0.03515266
000120 fe d6 8b bd 2a 56 dd bd 9c 37 30 be 08 79 3f 3d
       -0.06828116 -0.1080745 -0.17208713 0.046746284
000130 80 55 99 ba eb 5e 9e bd 76 42 fd 3d 98 70 0c bd
       -0.0011698455 -0.07732948 0.12366192 -0.034287065
000140 90 ac 24 be a2 27 cd 3d 4c b6 73 bd 7c 69 53 bd
       -0.16081452 0.10017325 -0.059500024 -0.05161427
000150 16 6a b5 3d 3c 79 1d be 06 82 05 be d0 c0 1d be
       0.08858125 -0.15378278 -0.13037881 -0.15405583
000160 e3 65 26 be 60 89 18 be 65 74 19 be 90 c6 5c 3d
       -0.16249804 -0.14896154 -0.14985807 0.0539003
000170 b3 a9 0f be 98 58 23 3d 5a 84 ac bd fc 28 04 3d
       -0.14029579 0.03987941 -0.084236816 0.03226565
000180 33 c3 e7 bd ce 97 26 3d fe b4 35 3d ee da 5c bd
       -0.11316528 0.040672116 0.04436206 -0.053919725
000190 97 9e 33 be 18 a3 81 3d b0 d4 36 3e 4f ae 22 be
       -0.17540966 0.06329936 0.17854571 -0.15886806
0001a0 9e 4a f6 bd e9 9a 25 3e 8b b0 dc bd 8f 4f 24 3d
       -0.12025951 0.16172375 -0.107758604 0.040114935
0001b0 98 41 13 3e 74 f0 31 3c 44 b8 e5 3d 44 81 bd bc
       0.14380491 0.010860551 0.112167865 -0.023132928
0001c0 b6 4b e9 bd 02 3e 11 be fe 35 a5 bd 79 84 ba bd
       -0.11391394 -0.1418381 -0.08066939 -0.091072984
0001d0 36 5e 43 be 74 ce ab 3d 40 c4 d4 3b 4c 13 0c 3e
       -0.19078907 0.08388987 0.0064931214 0.13679236
0001e0 b7 22 dd bd 2e ce fd 3c 40 8c 39 3d 9d c5 ba 3d
       -0.10797637 0.030982103 0.04529977 0.09119723
0001f0 eb 50 6a 3d 98 a6 16 3e 2a 33 d3 bc 68 1d fb 3d
       0.057206076 0.14711988 -0.025781233 0.12261468
000200 49 67 42 bd 2e 39 bb bc 33 f6 38 3e 9a 1b f9 3d
       -0.04746178 -0.022854414 0.18062668 0.12163468
000210 24 ff 85 bd ff 79 70 bd 7b de 44 3d b4 ca 0b 3e
       -0.06542805 -0.058710095 0.048063736 0.13651544
000220 fa 06 68 3e 86 79 8e 3d 12 29 e1 bd bd 2a b7 bb
       0.22658911 0.069567725 -0.10994162 -0.0055898116
000230 61 8b 1e 3e 35 2f 75 bd 5f 73 29 3e 08 85 fb bc
       0.15482856 -0.059859473 0.16547917 -0.030703083
000240 7c ad 8a 3c ba 78 cd 3d 2d df 11 3e ac d4 c2 3d
       0.016928427 0.100327924 0.14245291 0.0951322
000250 e1 78 d8 3d 24 76 e9 3c c2 fb b6 3d 67 ab 30 3e
       0.10569931 0.028498717 0.08934738 0.17252885
000260 c8 1e 23 bd aa fa 85 bc 9d 7e d1 bd 02 60 f5 bd
       -0.039824277 -0.016354878 -0.10229228 -0.11981203
000270 cd 1c 87 3d f8 c1 92 3d 9a 94 f9 bd 57 13 3f 3e
       0.0659729 0.07165903 -0.121865466 0.18659721
000280 08 fe 32 3e ed c6 34 3e e8 41 49 3e 44 1f 34 3d
       0.17479718 0.17654009 0.19654047 0.04397513
000290 fc 5a 0b be b0 47 03 3e 78 6a 8a bc 4f 98 6e 3d
       -0.13608927 0.12820315 -0.016896471 0.05825072
0002a0 98 c5 37 3e 98 32 f5 3d f6 76 58 3d 3c 0b 92 3b
       0.1794647 0.119725406 0.052847825 0.0044569056
0002b0 74 bd 18 3e 2b 09 df 3d 62 ca f9 bd fd 04 19 be
       0.1491602 0.108904205 -0.121968046 -0.14943309
0002c0 69 95 0a 3e 06 ff ce 3d 02 60 ee bd 95 22 5c bc
       0.13533558 0.101072356 -0.11639406 -0.013435979
0002d0 5c 10 ee 3d ce 9d 00 be 26 cd 57 bd ec f5 1c 3d
       0.11624214 -0.12560198 -0.05268588 0.038320467
0002e0 f2 06 90 bd 31 44 30 be af be 87 bd ac 98 cb bd
       -0.07032575 -0.17213513 -0.06628167 -0.09941229
0002f0 a6 52 83 3d 14 52 50 3e 66 37 22 3e 44 ed 42 3e
       0.06412248 0.2034381 0.15841445 0.19035822
000300 33 78 1e bd 8f be f5 3d ad 81 c0 bd dc 62 26 be
       -0.03868885 0.11999237 -0.09399734 -0.1624865
000310 ca af a1 3d ea 05 93 3d c0 9f 6d 3d f4 13 64 bd
       0.07894857 0.071788624 0.058013678 -0.05568309
000320 ee 58 fb bc 33 02 80 bd a5 9e 87 3d 17 92 5e 3e
       -0.030682053 -0.062504195 0.06622056 0.21735416
000330 2d 06 64 3e fe 53 26 3e 0f f2 c0 bd 1c a7 0b 3e
       0.22267981 0.16242978 -0.09421169 0.13637966
000340 ee 07 61 3e bd ed 4d 3c 86 48 ef bd cc 89 48 3e
       0.21975681 0.012568888 -0.116837546 0.19583815
000350 48 84 fe 3d 16 24 3a 3e 2e fa c1 3d c3 0b e3 3d
       0.124275744 0.18177828 0.09471546 0.11086228
000360 ec 99 f2 3d e5 4c 42 bd a2 fd 8c bd 40 ca 39 bd
       0.118457645 -0.047436614 -0.06884314 -0.045358896
000370 49 70 bb bd 76 bb 2a 3d 37 b2 2b bc 94 a9 0a bc
       -0.09152276 0.041682683 -0.010479501 -0.008463282
000380 8e 50 29 3e d2 b9 d0 bd 6a 6a c9 bd e8 60 82 bc
       0.16534635 -0.101916924 -0.0983475 -0.01591535
000390 49 97 02 3e 7d e3 18 3e f2 44 a4 3d 76 c4 9c bd
       0.12753023 0.1493053 0.08020963 -0.076546595
0003a0 e7 bf 1a bc d8 30 1e 3e 51 a8 25 be 03 d4 6e bd
       -0.009445167 0.1544832 -0.16177489 -0.05830766
0003b0 e4 5e 3a 3d d3 bd 06 3e 61 27 89 bb c8 d9 ee 3d
       0.04550065 0.1315835 -0.0041856025 0.11662632
0003c0 e8 62 00 be 29 f2 9a bd bc 7e ac bd 19 a2 05 be
       -0.1253773 -0.0756572 -0.0842261 -0.13050117
0003d0 6e e8 0c 3e 71 f5 8d 3d 44 0e b9 bd d4 d7 8a 3d
       0.1376054 0.0693158 -0.09035924 0.06779447
0003e0 ba 89 98 bd ac c3 80 bd 02 f9 18 be 62 5e bd 3d
       -0.07448144 -0.062873214 -0.14938739 0.09246518
0003f0 f9 14 a8 3d 5c e4 2f bd ca ef f3 3d 9f c0 9f bd
       0.08207125 -0.04294239 0.119109705 -0.078004114

fc2.bias f4 [16]
000000 62 e3 39 3d 61 95 d2 bd 2e 3e f1 3d c0 4f c6 3d
       0.045382865 -0.10282398 0.11779438 0.0968318
000010 f4 f2 bb bd 1f 0f 00 be 51 7b 4c 3e d8 10 ce 3b
       -0.09177199 -0.12505768 0.19968916 0.006288629
000020 5e 4e b5 3d aa 7a 02 3e 32 10 c8 bd 40 55 32 3e
       0.08852838 0.12742105 -0.09768714 0.17415333
000030 e9 9d d7 bd 64 86 0f be ce 4f fb bd 40 ce 56 bd
       -0.10528166 -0.1401611 -0.12271081 -0.05244279

V.weight f4 [1, 16]
000000 49 a9 83 bd 5a 58 16 3e 52 59 39 be 00 ee 72 bd
       -0.06428773 0.14682141 -0.18100479 -0.059309006
000010 36 5d 9e 3e a7 c1 2d 3e 98 23 3c 3e 73 8d 0a be
       0.3093049 0.16968404 0.18372953 -0.13530521
000020 dc d8 b9 bd 25 34 0c be dc 4f 80 3e 35 54 8f 3e
       -0.09074566 -0.13691767 0.25060928 0.27993932
000030 b8 da fd bc 28 2a bd bd cb a9 1b be b2 7b 3c be
       -0.030988082 -0.09236556 -0.1520149 -0.18406561

A.weight f4 [2, 16]
000000 7d 03 c3 bc ae 76 00 3e f0 71 21 3e c8 1a ef bd
       -0.023805374 0.12545273 0.1576612 -0.1167503
000010 94 b1 bb 3d b5 0b 7d bd 69 e2 4a 3e aa 49 0e be
       0.0916473 -0.061778743 0.19812931 -0.13895288
000020 f2 09 48 3e 66 6b 4d 3e 37 f9 56 3e 6f b8 51 be
       0.19535044 0.200605 0.20993505 -0.20480512
000030 66 d5 55 3d 44 4b 44 be 83 45 53 3e 32 29 d1 3d
       0.052205466 -0.19169337 0.20631985 0.102129355
000040 b7 00 0d be 48 ff 39 3e 24 b5 9c 3d 7b 1e 72 be
       -0.13769804 0.18163788 0.07651737 -0.2364444
000050 c6 e3 c6 3c d2 17 20 be f8 bb 14 be f6 e3 cf bd
       0.024278533 -0.15634087 -0.1452483 -0.10150902
000060 3c 44 ef bd ac 18 2c 3e 18 6c 7d bc 70 66 f5 3c
       -0.116829365 0.16806287 -0.015467666 0.029956073
000070 f6 fc f0 3d 3c 14 15 be b8 f0 99 3d 54 ad e9 bc
       0.117669985 -0.145585 0.075166166 -0.028525032

A.bias f4 [2]
000000 51 fa 75 3e 7d 9f 52 3e
       0.2402127 0.20568652
