models/maintainance_agent/2/D3QN_q_target.pth (torch, 77199 bytes, 7 tensors)

weight f4 [128, 11]
000000 a9 df d0 40 18 72 f8 bf 1b 5a 8b 40 0b 34 d0 3f
       6.5273023 -1.9409819 4.354749 1.6265882
000010 6a 56 79 40 28 e6 b8 3e 9d 9e 10 3c aa 2c 2e 3e
       3.8958993 0.36113095 0.008826879 0.17009225
000020 6f c9 bb c0 0b a0 cd 3e fc a9 94 bf 83 50 5e 41
       -5.868339 0.40161166 -1.1614375 13.894656
000030 6e cb 53 3f 00 e9 3a c0 a0 d2 71 3f b3 98 00 c0
       0.82732284 -2.9204712 0.94462013 -2.00932
000040 9a 07 a7 3f 48 63 ae 3d f7 e7 7a bf 3c 98 05 41
       1.3049195 0.0851503 -0.980102 8.349667
000050 af a3 b9 3f 35 f9 0e bf 0d 86 13 3e cb 2b 6f be
       1.4503077 -0.5584901 0.14406605 -0.2335655
000060 00 07 6a 3b f0 53 fb bc 4d a0 18 3e 0e d2 17 be
       0.0035709739 -0.030679673 0.149049 -0.14826223
000070 7a f7 83 be 86 03 99 be 4c 60 79 be 33 34 e8 bd
       -0.25774747 -0.298855 -0.2435314 -0.11338081
000080 e0 2c 72 be 3b 9c 07 41 6e 31 ee bf 16 65 93 40
       -0.23649931 8.475642 -1.8608835 4.6060896
000090 1a 48 87 3f fe dc 85 40 12 c1 19 3e f2 73 f4 bc
       1.0568879 4.1832266 0.15015057 -0.029840443
0000a0 56 57 e2 3d 9c 3d a6 c0 c5 0f 81 be 9f e6 25 c0
       0.11051814 -5.1950207 -0.25207344 -2.592201
0000b0 79 83 2a c1 65 8b fd 3f 17 5c c9 c0 5c 36 a2 bf
       -10.657098 1.9808165 -6.2924914 -1.2672839
0000c0 e5 06 4e c0 13 75 a8 be fc 2f 27 bd 89 c5 ad 3d
       -3.2191708 -0.3290182 -0.040817246 0.084849425
0000d0 a4 2f 67 40 db f5 db be 2c 55 31 40 09 71 ff 3f
       3.6122828 -0.4296101 2.7708235 1.995637
0000e0 a4 91 99 40 b4 16 e3 bf c4 20 dc 3e 5a 97 39 40
       4.7990284 -1.7741303 0.42993748 2.8998628
0000f0 83 d0 f1 3f 43 3b a4 bd 47 86 ef bd 50 24 06 41
       1.8891758 -0.08019116 -0.11695533 8.383865
000100 5d 08 5c c0 dc 0a 46 40 d5 c3 76 c0 52 84 da 3f
       -3.4380105 3.0944128 -3.8557026 1.7071631
000110 3e e1 c9 3f b1 47 b8 bf 12 90 10 bf c6 65 f3 3e
       1.5771863 -1.4396878 -0.56469834 0.47538584
000120 90 ed 88 3e 49 ba 83 be 2f 4b 2b c1 f8 1f e8 3f
       0.26743746 -0.25728062 -10.705855 1.8134756
000130 69 d1 93 3f 31 dc 88 3c 35 53 75 40 b6 b5 a3 bf
       1.1548282 0.016706558 3.8332036 -1.2789829
000140 b2 0a b3 40 76 ba cd c0 28 79 68 bb a4 27 25 3e
       5.5950556 -6.4290113 -0.0035472605 0.16128403
000150 04 56 0a 3c 80 30 1a c1 08 31 3b 3e 72 4b 29 40
       0.008443359 -9.636841 0.18280423 2.6452298
000160 27 fb 0a c2 3e 07 b4 3f d7 2b bf bf 31 3e ff 3f
       -34.745266 1.406471 -1.4935254 1.9940854
000170 02 c1 6d 40 09 8d c3 3e 43 8d da 3c 4c 2f cd bb
       3.7149053 0.3819354 0.026678687 -0.0062617417
000180 db 09 04 bf 1e cc 09 3d dd 4e 62 c0 6c 7a 46 40
       -0.5157754 0.033641927 -3.5360634 3.101222
000190 1e a5 f2 3e ef e8 54 c0 8d 51 16 40 55 6b 80 40
       0.473916 -3.3267171 2.3487275 4.013102
0001a0 f0 1f 71 3d b7 4c a8 ba 57 b0 a4 bb ef ac 13 c1
       0.05886835 -0.0012840246 -0.005025904 -9.22972
0001b0 5d 3d 41 3f b8 df b2 3f 90 5e 99 40 a8 b2 a0 bf
       0.7548426 1.3974524 4.7927933 -1.2554522
0001c0 7a cf ed 3f fb cc a0 3f be 42 7b 40 2a 0e 0d bf
       1.8578942 1.2562555 3.9259486 -0.5509974
0001d0 81 18 e5 bc 30 0e 1f 3d 23 61 e0 c0 30 fc ee 3d
       -0.027965786 0.03883189 -7.0118575 0.11669195
0001e0 e9 d5 d0 bf 32 3e c5 40 3e 09 6b 3e e0 33 5e 3c
       -1.631528 6.163842 0.22952744 0.013562173
0001f0 7d 5b 56 3f 3e 8c 7b 40 21 71 46 3f fa 6e 29 3d
       0.8373335 3.9304347 0.7751637 0.0413656
000200 ac 77 45 c0 e2 a3 2a 40 44 e0 41 3f 8a d6 5e c0
       -3.0854292 2.6662526 0.7573283 -3.4818444
000210 15 05 16 41 90 0d 02 c0 24 a6 61 40 93 18 a1 3f
       9.376241 -2.0320778 3.5257654 1.2585624
000220 16 8e 98 40 73 8f a3 3d 68 2e a2 bc e2 8d 2c 3d
       4.7673445 0.07986345 -0.019797519 0.042127497
000230 ef 13 98 c0 de b2 49 be 5e 9b 14 c0 1d f6 20 40
       -4.7524333 -0.19697139 -2.3219829 2.5150216
000240 87 f1 7a 40 53 91 b3 3f b9 0f d7 3f 53 4d e7 bf
       3.9209917 1.4028724 1.6801673 -1.8070472
000250 95 1f ae 3f ee 47 81 3d 24 9b 01 bf c3 4d 3f 40
       1.3603388 0.063125476 -0.5062735 2.9891212
000260 ac 8d b0 be 12 df 64 3f 8e d2 03 40 5f e4 1d 3f
       -0.34483087 0.8940288 2.0597262 0.6167659
000270 08 e2 6a bf e7 84 8a 40 ab 0b f3 bf 85 db bc 3d
       -0.91751146 4.3287234 -1.8987936 0.092215575
000280 12 ba cc 3c 40 72 23 3c 9b f4 a5 c0 a8 f9 0c bf
       0.024991069 0.00997597 -5.186109 -0.55068445
000290 93 1b 59 40 d5 11 7c 41 64 89 1a 41 2e d6 2b bf
       3.392308 15.754354 9.658543 -0.6712369
0002a0 a2 65 72 bf ef c5 8e c0 44 6e 56 bc f7 d8 85 3c
       -0.9468633 -4.461662 -0.013087813 0.016338808
0002b0 90 1f 19 3b 2b 2b aa 40 91 8b 8a bd 94 4b 2d 3f
       0.002336476 5.3177695 -0.067649014 0.6769345
0002c0 42 59 0a be 00 66 37 3c 30 e4 7c be 08 5c 49 3d
       -0.13510612 0.011193752 -0.24696422 0.049160033
0002d0 90 3a 80 3e 7b bd 56 be e6 d0 77 be f2 cc e1 bd
       0.2504468 -0.20970719 -0.24200782 -0.11025418
0002e0 d8 35 e4 3d 71 63 09 be 90 50 7e 3d 7e 74 a8 3f
       0.111430824 -0.1341684 0.06208855 1.316055
0002f0 81 75 74 40 8e 14 68 3f 68 52 64 40 4d 96 67 40
       3.8196719 0.90656364 3.5675297 3.6185486
000300 15 f9 12 3f e7 c5 d1 3c e2 20 2a bb ac 9e 23 c1
       0.5741132 0.025607063 -0.002595954 -10.226238
000310 42 92 65 3f 7d b2 91 40 ba fd f7 40 4d ea 95 c0
       0.89676297 4.553038 7.7497225 -4.684851
000320 97 b4 92 40 1d bd 6e c0 c2 4f b7 40 fc 8f d8 3e
       4.5845447 -3.7302926 5.728486 0.4229735
000330 11 0d 7e bf 54 34 0e bc 93 9a 15 c0 fe b7 68 3f
       -0.9923869 -0.008679468 -2.3375595 0.9090575
000340 28 24 10 41 c0 79 9e bd f4 f7 7f 3e 81 67 ce 3d
       9.008827 -0.07738066 0.2499693 0.100783356
000350 c0 c2 d5 3c 80 1b b1 bd ee 72 68 be 2a 9b 8f bd
       0.02609384 -0.08647823 -0.22700092 -0.07012017
000360 ca 8d 95 be cf ab 10 be 80 3b 4f 3d b4 33 64 bd
       -0.2920974 -0.1412804 0.050593853 -0.05571337
000370 52 28 69 41 58 08 1e c0 e1 14 04 c0 a9 44 3b c0
       14.572344 -2.4692593 -2.0637743 -2.9260657
000380 3a 3e 56 c0 1f 45 90 3d f5 f1 75 bb 54 9c b4 3a
       -3.347548 0.07044434 -0.003752825 0.00137795
000390 ec e7 af 40 6c d7 b0 3c 6f c7 2b c0 ad db e6 40
       5.497061 0.021587096 -2.6840475 7.214316
0003a0 c2 92 1e c0 ee 6e 8a 40 77 18 fe 3f 52 cd 8a 40
       -2.4777074 4.326041 1.9851216 4.3375635
0003b0 48 8a 13 3f 98 09 be 3b ce 12 69 3e 5f 11 af c0
       0.57632875 0.0057994835 0.2276108 -5.4708705
0003c0 41 09 c0 3e d1 61 d7 bf d9 61 0a 41 07 d5 8f 3f
       0.3750706 -1.6826726 8.648889 1.1236886
0003d0 09 5d 09 41 83 5a 7a 40 24 98 41 c0 79 96 8a 3e
       8.585214 3.9117744 -3.024911 0.27067927
0003e0 7f ca 82 3d dd b7 8c 3c f9 7b 42 c0 6e 4d 6d bd
       0.06386279 0.017177517 -3.0388167 -0.05793517
0003f0 a4 b2 c8 c0 64 63 12 c1 e5 99 bc 3f b2 d9 b8 c0
       -6.2718067 -9.149265 1.4734465 -5.776574

bias f4 [128]
000000 44 22 57 40 b7 36 dd 3f cc 05 06 3e 6e f7 46 40
       3.3614664 1.7282323 0.13088149 3.108852
000010 fb 72 1a c0 f0 a9 18 40 98 84 96 3e 5b b6 1f 40
       -2.4132679 2.3853722 0.29398036 2.495505
000020 d1 0f 93 3f bc cb 6a 40 c2 ff 30 40 3a b6 3d 40
       1.1489202 3.668685 2.7656102 2.9642472
000030 0c 89 43 40 cd a9 02 40 e0 e3 54 40 bd 24 7f c0
       3.0552397 2.0416138 3.3264084 -3.9866173
000040 64 f1 65 3e 26 68 78 40 1c ea 2b 40 6d 76 76 be
       0.22455364 3.8813567 2.686164 -0.24068613
000050 ae 90 8d c0 24 9f 6e 40 9a f2 30 40 f4 80 34 c0
       -4.423911 3.7284632 2.7648072 -2.8203707
000060 3d 59 58 c0 79 95 e9 40 ff 3f 0d 3f 67 f6 4d 40
       -3.3804467 7.299496 0.55175775 3.2181642
000070 fb 48 a3 3f 21 8f 36 40 49 5a 2f c0 c5 c5 48 c0
       1.2756647 2.852486 -2.7398856 -3.137071
000080 a0 9e 4e 40 33 81 0c 40 9e 3e a0 3f b8 bc 28 c0
       3.2284317 2.1953857 1.2519109 -2.6365185
000090 b7 ea 74 40 ed a1 2d c0 6d d4 39 c0 da 40 51 40
       3.8268259 -2.7130082 -2.9035904 3.2695832
0000a0 a6 a3 17 c0 5f ed 62 40 a7 ed c8 3f cc 20 4a 40
       -2.3693633 3.545738 1.5697526 3.1582518
0000b0 32 2c 49 c0 22 90 63 40 d5 5e 77 3f 74 2a 8c 3d
       -3.1433225 3.5556722 0.9662908 0.06844035
0000c0 7a ce 2c c0 4d a7 02 c0 b3 26 96 40 ee 6e 2b c0
       -2.7001023 -2.0414612 4.692224 -2.6786456
0000d0 b4 4d 21 3e 03 5b 4a 40 5f 91 56 40 0f 22 1d 40
       0.15752298 3.161805 3.3526227 2.4552038
0000e0 bf 49 3b 40 bd 55 9d 40 b0 62 3d 40 f6 49 0a c0
       2.926376 4.916716 2.9591484 -2.1607642
0000f0 12 08 41 be 7f 56 78 40 52 55 52 40 e2 20 20 c0
       -0.18850735 3.8802793 3.2864575 -2.502007
000100 a8 b1 62 40 f3 41 2e c0 19 a6 ac be d2 4f a2 40
       3.5420933 -2.7227752 -0.33720472 5.0722437
000110 98 ed 7b c0 9a a5 ff bf 93 13 21 40 7a 5e 21 c0
       -3.9363766 -1.9972413 2.5168197 -2.5213914
000120 bc bc 45 c0 0a 13 84 40 82 f2 26 40 7b a3 c0 40
       -3.0896444 4.127324 2.6085515 6.019956
000130 6b c8 2c c0 45 05 65 40 2b 38 3f 3f 20 41 31 c0
       -2.6997325 3.5784466 0.7469508 -2.7696
000140 f8 60 3a 40 a3 4c f9 3f 37 b9 53 40 01 19 48 40
       2.9121685 1.9476513 3.3081796 3.126526
000150 07 19 3f 40 f5 aa 9f 40 d0 72 61 c0 b2 40 0c c0
       2.9859025 4.989619 -3.5226326 -2.1914487
000160 55 71 59 40 37 d7 ec bf ee 81 57 40 ca 67 10 c0
       3.3975422 -1.8503178 3.3673053 -2.2563348
000170 a3 51 54 bf b6 cb ed 40 be 11 1c c0 11 ac 84 3f
       -0.8293707 7.431117 -2.438583 1.036501
000180 33 41 ea bd 19 b3 ba bf 4e fa 6e 40 e1 78 44 40
       -0.11438217 -1.4585906 3.7340274 3.0698779
000190 7c b8 2d 3c a0 57 4d 3e 19 c2 36 40 19 64 4b 40
       0.0106030665 0.20052958 2.8555968 3.1779845
0001a0 eb 69 47 bf 83 c3 c0 bf 67 af e4 be 9a fc 49 40
       -0.77895993 -1.5059665 -0.4466507 3.1560426
0001b0 96 a4 48 40 28 f6 29 c0 fc 9a 9a c0 20 69 16 40
       3.1350455 -2.6556492 -4.831419 2.3501663
0001c0 f4 ba 2a 40 76 d8 58 c0 d7 84 9b bf 7b 92 84 c0
       2.6676607 -3.3882117 -1.2149915 -4.142881
0001d0 ec c5 fa 3f 6c 71 ca 40 53 90 51 c0 24 47 70 c0
       1.9591651 6.3263454 -3.2744339 -3.754342
0001e0 21 51 50 40 70 61 8f 40 02 76 4a 40 cc e0 23 c0
       3.2549517 4.480644 3.1634526 -2.5605955
0001f0 b4 8c 61 bf 03 eb 34 40 31 f8 fb 3e 0a 34 49 40
       -0.8810532 2.826844 0.49212793 3.1438012

weight f4 [128, 128]
000000 96 a4 61 3e 19 ec 5c be 86 46 92 bb a2 e9 58 3e
       0.22035441 -0.21574439 -0.0044639735 0.21182874
000010 23 f4 fa 3c f8 89 aa be 49 5c 6c 3f f1 97 18 40
       0.030633992 -0.33308387 0.92328316 2.3842738
000020 7b 74 80 c0 b6 8b 8b 3e 32 1f 09 3d b1 27 4f 3f
       -4.014219 0.27255028 0.033477016 0.8091994
000030 0f 47 b8 3e 9b 6a 14 c0 59 0a 9c 3f 53 62 0e c1
       0.35991713 -2.3190067 1.2190658 -8.899005
000040 6c 02 7c bd 2b a1 44 3e 22 20 42 bd 8c cd a4 bc
       -0.061525747 0.19202106 -0.047393925 -0.020117544
000050 7c 8f 1a c1 bc 00 67 3e a4 2d 3d 3f 1a 32 a2 3c
       -9.66003 0.22558874 0.7389777 0.01979928
000060 76 d8 43 be cb 9c f8 3e b7 8b f7 3e 7a 92 95 3e
       -0.19125542 0.48557124 0.4834878 0.29213315
000070 ad c6 54 3e 91 a1 4e 3e 2d 3c b8 bd ca 77 00 bc
       0.20778914 0.2017882 -0.089958526 -0.00784106
000080 d7 67 9c c0 aa b7 8c bd 46 84 75 3e bf a1 09 bc
       -4.887676 -0.06870969 0.2397624 -0.00840038
000090 8b 97 ef be 86 58 72 3c ba 44 43 bd a6 78 ca 3f
       -0.46795306 0.014791613 -0.047672965 1.5818069
0000a0 03 c9 58 be 29 10 6d 3d 26 c1 ae bf 31 5b 4e 3e
       -0.2117043 0.05787674 -1.3652694 0.20151974
0000b0 06 1b 93 bd 1d 6e 93 3e e1 ab 59 bf b0 cf 8b bc
       -0.07182889 0.28794947 -0.8502789 -0.017066807
0000c0 62 35 2e bf b6 d9 a6 bd 3d 26 d2 bf 53 d7 2b 3e
       -0.68050206 -0.08146994 -1.6417919 0.16781358
0000d0 a0 a6 f1 be ad 04 f6 3d c8 84 7c 3e 61 0f 29 3e
       -0.47197437 0.120126106 0.24660027 0.16509773
0000e0 aa 4a 04 3e cc 27 0c 3f 71 0d 94 3e 32 f7 71 3c
       0.12919107 0.54748225 0.28916505 0.014768409
0000f0 60 96 b1 bd d9 50 5e bf 7c 2e 2d 3f 40 50 14 3d
       -0.0867126 -0.86842114 0.67649055 0.036209345
000100 32 b9 70 3e 94 b3 ff bd 83 44 51 3f 29 59 9d 3f
       0.23508146 -0.12485424 0.81745166 1.2292835
000110 47 e9 51 be 1b c7 da bf e8 e0 49 3e 7c b7 1d bf
       -0.20499144 -1.7092012 0.19714701 -0.616081
000120 9c 3e 80 bd 0d 1f ef 3d ad 06 72 3f f5 12 0c 3f
       -0.06261942 0.11675844 0.94541436 0.54716426
000130 22 18 bc bd 8e b6 6e 3e b4 ac ea be 4c 10 01 3d
       -0.091842905 0.23311827 -0.45834887 0.031509683
000140 4d 70 a0 3d 7c c1 87 be 26 af 51 3e 0a 65 37 3f
       0.0783392 -0.26514804 0.2047697 0.7163855
000150 de 2b 60 3e 38 a1 39 40 71 7d 90 c0 bb e5 1e bf
       0.21891734 2.900465 -4.5153127 -0.6206929
000160 13 35 05 3f 6a ea 3e bd 69 2d 85 3e c4 fc 57 3e
       0.5203411 -0.046610273 0.26011208 0.21092516
000170 61 57 a2 bf e0 56 b7 3d c8 3f 62 bf 07 1f 7a 3e
       -1.2682916 0.08952117 -0.8837857 0.24425898
000180 52 d4 48 3d 20 bc 58 bf 02 6b 13 3e f9 34 13 3f
       0.04903061 -0.84662056 0.14396289 0.57502705
000190 35 ee b9 c0 d1 e8 d9 3c ca 70 30 3e 51 93 59 3e
       -5.810328 0.026600273 0.17230526 0.21247603
0001a0 3d 40 bb be c1 4c bb bf 0f 80 61 3e 1d 3e 31 3e
       -0.36572447 -1.4632798 0.22021507 0.1730885
0001b0 4a 34 3e 3e 5a ac b0 bd f7 66 ad 3d c0 7e 38 3f
       0.18574634 -0.086266235 0.084669046 0.72068405
0001c0 d7 1f 96 3e b6 65 7b be be bf 28 3e 5c 2e ec bf
       0.29321167 -0.24550518 0.16479394 -1.8451648
0001d0 6f c2 a3 3d 77 da d7 bd 7a 55 ab 3d c4 fe 90 bf
       0.0799607 -0.10539716 0.08365913 -1.1327748
0001e0 d4 4c 05 3f 8c 8b f7 bf fb ac 12 3e 40 58 22 bf
       0.52070355 -1.9339461 0.143238 -0.6341591
0001f0 cf 65 71 c0 ec 5d fc 3e 31 2c 35 bf 59 41 18 3e
       -3.771839 0.49290407 -0.70770556 0.14868678
000200 87 47 6f 3e af 70 7a be 07 16 83 bd fb ff 07 3f
       0.2336713 -0.24457048 -0.06400686 0.5312497
000210 28 0e 89 be 3e cb bd 3e a8 d0 39 be 51 d6 9b 3f
       -0.26768613 0.37069124 -0.18146002 1.2174779
000220 84 40 20 c1 35 36 e0 3e 53 f8 f7 3e e3 22 f4 3d
       -10.015751 0.43791357 0.48431644 0.119207166
000230 f5 58 d9 3f 21 69 cd 3e a1 87 85 3f a8 49 79 c1
       1.6980273 0.4011927 1.0432016 -15.5804825
000240 ee f6 3f 3d d2 71 18 bd a5 68 40 bd d8 9d bc bc
       0.04686635 -0.037217923 -0.046974797 -0.023024485
000250 8f 1e 74 c1 46 5d 5f 3e 65 bc fb 3f 94 a2 16 bf
       -15.257461 0.21812925 1.9666868 -0.58841825
000260 0c 80 09 c0 c1 23 1f 40 08 c6 82 3e 1d 08 a2 3e
       -2.1484404 2.4865572 0.2554171 0.31646815
000270 cf e0 55 3f 6e 14 d3 3e 2d a9 05 be 2d 7e 3a bf
       0.83546156 0.41226524 -0.13052817 -0.7284878
000280 f4 6c f5 c0 46 4a bb 3e 03 8c 43 3f b5 fc 65 be
       -7.66955 0.36580104 0.76385516 -0.22459681
000290 6e 91 a4 3f c1 59 19 be 5a 33 e5 be 7c 07 0f 40
       1.2856882 -0.14975645 -0.4476574 2.2348318
0002a0 34 3c bb be 3c 43 15 3e 4f 40 a8 be 72 31 6c 3f
       -0.3656937 0.14576429 -0.32861564 0.9226295
0002b0 c5 3e 19 bf 1c ca af 3e 78 bd 32 bf 6b 5a a9 3d
       -0.59861404 0.34333885 -0.69820356 0.08269199
0002c0 74 19 5e bf 01 c3 45 bd 5a c2 86 bd da 14 eb bd
       -0.8675759 -0.048281673 -0.06580038 -0.114785865
0002d0 cf f3 64 bf 5e 9c 6c 3f de 17 9b 3e 8d f1 98 3e
       -0.8943452 0.924261 0.30291647 0.2987179
0002e0 3c 20 01 3f 15 ed 06 3f 3b ad e0 3e 82 40 6e bf
       0.5043981 0.5270551 0.43882164 -0.9306718
0002f0 40 f0 d4 3a aa f3 44 c1 b6 31 b8 3e bb 63 2f 3d
       0.0016245916 -12.309488 0.35975426 0.04281972
000300 81 ca 29 3e 8f a9 5c be 7d 08 0f 40 e7 79 62 3f
       0.16581155 -0.21549056 2.234893 0.8846726
000310 75 f2 8f be 46 22 16 bf 5b a0 00 bd 6e 33 c4 bf
       -0.28114668 -0.5864605 -0.031402927 -1.5328195
000320 60 13 08 bf 7b fd 49 3d a3 83 09 40 19 a3 01 40
       -0.53154564 0.049314003 2.1486595 2.0255797
000330 ac 5a 86 bf ba ef 2e 3f da fb 43 bf c8 8f ad be
       -1.0496421 0.68334544 -0.7655617 -0.3389876
000340 6b 03 48 3e 7b d2 a1 be c4 ad 6e 3e 99 34 93 3f
       0.19532554 -0.31605896 0.23308474 1.1500427
000350 d1 d2 27 3e a5 04 29 40 ea 97 07 c1 1a 0f b9 bf
       0.16389014 2.6409085 -8.474588 -1.4457734
000360 1a ca d9 3e c2 ca 10 bf 97 7c 9c 3e d8 2c 3d bf
       0.42537004 -0.56559384 0.30563805 -0.7389655
000370 37 cf 51 3f 32 18 bc bf 72 7a 40 bf 06 0e 02 bf
       0.8195681 -1.4694884 -0.75186837 -0.5080265
000380 57 8a ad 3d 80 28 a7 bf 6b ea 20 3f 41 87 a2 3f
       0.08473652 -1.3059235 0.62857693 1.2697526
000390 ef 9f d3 bf 14 91 8a 3c 11 7b 35 3f 5f d0 f2 3d
       -1.6533183 0.016914882 0.7089091 0.1185615
0003a0 32 b9 53 bf d8 62 b2 be cc 60 62 bf a7 0e fb 3d
       -0.8270446 -0.34841037 -0.8842895 0.12258654
0003b0 e6 0e 8c 3e 0e f5 88 bf 00 7d 71 be f9 d2 d8 3f
       0.27355117 -1.0699785 -0.2358284 1.6939384
0003c0 ed 7b 80 3e a8 04 dd bd 80 8b 3c bf 48 12 1d c0
       0.25094548 -0.10791904 -0.7365036 -2.4542408
0003d0 fa c6 9c 3e c1 ac 02 c0 a1 78 25 be 9a f0 e5 c0
       0.30620557 -2.041794 -0.16159298 -7.1856203
0003e0 c8 f7 e4 3f eb e4 f2 c0 aa 2c 01 3e 0f 61 2f c0
       1.7888117 -7.590444 0.12614694 -2.740299
0003f0 2b 2f f4 c0 1d 18 97 3d 48 e6 41 3e c5 1b ad 3e
       -7.630758 0.07377646 0.18935502 0.3381025

bias f4 [128]
000000 5a 3d 47 40 f5 ce 2c 40 c4 d7 1c c0 58 ca 48 40
       3.1131196 2.7001317 -2.4506693 3.13735
000010 e5 7a 8f bd 47 2d 42 40 dd ac 92 3c f3 bd c3 3e
       -0.07005862 3.0340135 0.017904693 0.38230857
000020 3f c6 20 bd c4 72 49 40 00 36 8b bf ed d1 c0 bf
       -0.039251562 3.1476297 -1.0875854 -1.5064064
000030 0a 1a 04 c0 4b 3c 42 40 d5 90 42 40 21 4a 2c c0
       -2.0640893 3.03493 3.0400898 -2.6920245
000040 3f aa 33 40 22 dd da bf c2 89 90 bf f7 dd 54 40
       2.807266 -1.7098734 -1.129204 3.3260477
000050 0c 38 ee bf 06 11 1f 41 99 6f 4a 40 ff ce 11 40
       -1.8610854 9.941656 3.1630614 2.278259
000060 f3 c1 2d c0 b6 87 a3 3d 1e ab 42 40 1e 8f 3e 40
       -2.7149627 0.07984869 3.0416942 2.9774852
000070 4e 8e c0 3f 4f 21 3c 40 39 b0 3f 40 66 9f 40 40
       1.5043428 2.939533 2.9951308 3.009729
000080 be 92 07 c0 aa 58 1a 3f 53 58 ef bb a1 2f 43 40
       -2.1183314 0.6029154 -0.0073042302 3.049782
000090 4a a0 95 3f 7a 04 d5 bd 62 f7 45 40 3f f4 12 c0
       1.1689541 -0.104012445 3.093224 -2.2961576
0000a0 e5 4e 0e bd ab 28 50 40 56 29 45 40 20 0e 11 c0
       -0.03474321 3.2524822 3.080648 -2.2664871
0000b0 5a ba 66 c0 51 f9 45 40 2a 4b fe bf fa 7d fe 40
       -3.605124 3.093342 -1.9866688 7.952878
0000c0 7f 2d ae bf 59 1a 55 3b e3 25 53 3e 88 3c b5 bb
       -1.3607634 0.0032516925 0.20619921 -0.0055308975
0000d0 19 62 48 bb dd fd 16 c0 a4 a2 2e c0 71 c6 21 c0
       -0.003057605 -2.3592446 -2.7286768 -2.527737
0000e0 ce e6 40 40 20 22 32 c0 c6 91 3e 40 3a bb 4c 40
       3.0140872 -2.7833328 2.9776473 3.1989274
0000f0 08 45 1c c0 a6 09 20 c0 96 2e 17 c0 36 c2 4d 40
       -2.4417133 -2.500589 -2.3622184 3.2149787
000100 42 58 41 3f 37 d6 09 c0 d3 e7 6e bd 18 f7 c4 3c
       0.75525296 -2.1536996 -0.058326554 0.024043605
000110 74 aa 76 40 ba b1 47 40 d3 c8 44 40 e7 78 a0 bc
       3.8541536 3.1202226 3.0747573 -0.0195889
000120 04 53 0c bf 2e da 39 40 fe 06 46 40 70 9f 43 40
       -0.5481417 2.9039416 3.0941768 3.0566063
000130 d8 38 16 c0 0e 39 8c bf 64 93 41 40 cf c8 42 40
       -2.3472195 -1.0954912 3.024621 3.0435064
000140 c0 ab 14 bc f0 aa 91 be e7 8d a9 bd c2 65 2e 40
       -0.0090741515 -0.28450727 -0.08279019 2.7249608
000150 8d c5 2e 40 9d 1f da 40 49 70 31 c0 02 97 dd bd
       2.7308075 6.816359 -2.7724783 -0.10819818
000160 79 a8 c2 bc 22 60 1e 40 b4 86 06 3d 87 c0 4f 40
       -0.023761975 2.4746175 0.032843307 3.246126
000170 91 61 d2 3f 7d f4 18 c0 07 92 18 c0 fd 56 30 40
       1.6436025 -2.3899224 -2.3839128 2.7553093
000180 f6 e7 53 40 76 3d a6 3c b1 96 49 bd 77 38 21 3f
       3.3110328 0.020292979 -0.049215976 0.62976784
000190 1e ff 0e 40 db 5b 7a 3d 19 32 42 40 d4 e0 1a c0
       2.234321 0.061122756 3.0343077 -2.4199724
0001a0 10 1d ca 3c e4 00 02 3a 44 00 73 bc af bf 30 40
       0.024672061 0.0004959239 -0.014831606 2.7616994
0001b0 be 9f ed 3f ae fb 3d 40 af 4a 15 40 fe e8 71 3f
       1.8564374 2.9684863 2.3326833 0.9449614
0001c0 85 26 0f be 12 70 d1 bd 6c b4 51 40 b5 a7 0d bd
       -0.13979538 -0.10226454 3.276637 -0.034583766
0001d0 72 b0 48 40 26 28 43 3d 7e 45 91 bd 4e fb 15 c0
       3.1357694 0.04764571 -0.07093333 -2.3434634
0001e0 ed 0c 16 3d c1 ce 49 40 b7 d9 a6 bb da 24 2e bd
       0.03663342 3.1532443 -0.0050918716 -0.042515613
0001f0 64 b7 14 c0 43 6d e5 bd 32 68 40 40 f9 cb 40 40
       -2.3236933 -0.11202481 3.0063596 3.0124495

weight f4 [1, 128]
000000 d9 81 ad 3f 11 c1 5e 41 c3 26 12 c0 07 53 99 3f
       1.3555251 13.922135 -2.2836158 1.1978463
000010 28 e1 31 bc b1 81 8c 3f b7 18 29 bd c8 e3 dc be
       -0.010856904 1.0977079 -0.041283336 -0.43142533
000020 4e 53 29 3a 09 61 8d 41 69 f8 a6 be a0 13 bc be
       0.0006459252 17.67238 -0.32611397 -0.36733723
000030 98 79 5d bf 43 5a 86 3f 3c 5e 97 3f d5 e6 d4 bf
       -0.8651366 1.0496296 1.1825633 -1.6632944
000040 b6 d5 5c 3f 74 5a c4 bf 4f 86 8b be 6e 5a c4 3f
       0.86263597 -1.5340104 -0.27250907 1.5340097
000050 fa bd cc bf b9 7a d6 40 4b 84 da 3f 67 be 6f 40
       -1.5995476 6.702481 1.7071623 3.7459962
000060 8f bf ff bf 30 e0 43 3d a2 65 82 3f ec b3 a5 3f
       -1.9980334 0.047821224 1.0187266 1.2945533
000070 cc 2a d6 3e 7e 41 d3 3f 04 27 67 3f 65 7f ae 3f
       0.41829526 1.6504362 0.9029391 1.3632628
000080 c7 ce a8 bf b8 ea 6b 3f d6 8a 23 bd 68 6f b9 3f
       -1.3188103 0.9215503 -0.039927326 1.4487123
000090 e2 2f 9f 3f 39 78 49 3c d6 ba 84 3f fc e4 11 c0
       1.2436488 0.01229673 1.0369518 -2.279601
0000a0 40 c2 c2 bc 9a 98 bc 3f 7b 4a 8c 3f 59 ac d5 bf
       -0.023774266 1.473407 1.096023 -1.6693221
0000b0 93 0a 1a 3f d0 07 8f 3f 88 87 e6 c0 e8 2b 99 40
       0.60172385 1.1174259 -7.2040443 4.7866096
0000c0 fe e7 aa 3f 28 89 48 3d e1 5a 19 bf df 61 2b 3c
       1.3352048 0.048958927 -0.59904295 0.010460346
0000d0 76 05 27 bd 04 ad 0d c0 f6 a1 f6 bf 06 f9 fe bf
       -0.040776692 -2.213685 -1.9268177 -1.9919746
0000e0 90 f2 7b 3f fd a6 c6 bf f8 a4 95 3f 40 51 b7 3f
       0.98416996 -1.5519711 1.169097 1.432167
0000f0 77 9e 0a c0 e6 79 ee bf 40 29 d7 bf fa f6 3a 41
       -2.165922 -1.863095 -1.6809464 11.685297
000100 65 ac 05 40 a8 08 c6 bf 79 d1 50 bd 8a 05 6c bd
       2.0886471 -1.5471392 -0.05098102 -0.05762247
000110 ab b3 32 41 1d 5c a0 3f 17 00 98 3f e6 23 2a bb
       11.168864 1.2528111 1.1875027 -0.0025961339
000120 73 dc dd be 98 1c 24 41 a7 6d 78 bf 1d 8a ba 3f
       -0.43332252 10.256981 -0.97042316 1.4573399
000130 f5 9b 64 bf c1 74 53 bf 75 fe 99 3f a4 77 79 3f
       -0.8930047 -0.8260003 1.2030779 0.9744818
000140 f0 7c 04 bc 5d 46 24 3f 9f 9c 35 bd b4 55 5a 41
       -0.008086428 0.64169866 -0.04433882 13.645924
000150 39 ee 51 41 d1 0f 97 40 89 c6 2e c0 f9 f4 c8 3b
       13.12066 4.7206807 -2.7308676 0.0061327186
000160 72 a5 6b bd ae 8f 85 40 56 be 90 3b 9d 09 60 41
       -0.057530828 4.173789 0.004417221 14.002347
000170 d6 42 a6 bf 0d b5 71 bf ca 01 f6 bf 16 94 45 41
       -1.2989147 -0.94416887 -1.9219296 12.348654
000180 3c ac b9 3f 8e 60 2c 3b 2d 91 1a bd d4 20 b0 3f
       1.4505687 0.0026302668 -0.037736107 1.3760018
000190 96 ae 85 41 48 d4 3c 3d 40 32 cd 3f 25 e6 fd bf
       16.710247 0.046100885 1.603096 -1.983586
0001a0 79 a5 4f bd fe 2b a8 3b a9 1d 5c bd b5 8f 8a 41
       -0.050694916 0.0051321974 -0.053739224 17.32017
0001b0 35 5e 9d 3f 10 c7 76 3f 65 4e 33 41 0c 92 92 be
       1.2294375 0.96397495 11.206639 -0.2862705
0001c0 3b 0e fc bb a1 61 43 3d 33 94 3c 41 7e f9 25 3d
       -0.007692126 0.047700528 11.786181 0.040521137
0001d0 52 f9 d5 3f ca fa 68 bd c4 e1 8e bd 32 17 dd bf
       1.6716712 -0.056879796 -0.06976655 -1.7272704
0001e0 3a 41 67 bd 65 a1 cb 3f 4a 7a 64 3d 80 ce 6d 3c
       -0.05645869 1.5908629 0.055780686 0.0145145655
0001f0 0f 86 c7 bf b9 88 40 bd ea 0a d8 3f 52 7f 78 3f
       -1.5587786 -0.04700539 1.6878331 0.97069275

weight f4 [2, 128]
000000 a1 15 85 3e 97 c0 14 41 5f 07 4f 3e 67 ef d8 3d
       0.25993064 9.297019 0.20217656 0.105925374
000010 3c 70 0d 3d 66 48 9b 3e 23 80 f2 bc da 8c a1 3f
       0.034530863 0.30328673 -0.029602116 1.262111
000020 a6 09 25 3d a6 11 a6 40 dd fc 76 bf 81 9c 8e bf
       0.040292405 5.1896544 -0.9647959 -1.1141511
000030 0c fc 11 c0 55 06 49 3d a4 99 3d 3e 60 de 8e 3d
       -2.2810087 0.049078304 0.1851564 0.069760084
000040 a1 d5 ab 3e f5 ff 34 bf fb ec 7d bf 63 57 af 3e
       0.33561423 -0.7070306 -0.9918973 0.34246358
000050 ec b3 ff be ab 30 00 c1 2b 12 b5 3e 1e 7a 71 40
       -0.49941957 -8.011882 0.35365424 3.7730784
000060 5a 6a af 3e 38 d3 3e 3d 1b 65 57 3e f9 b4 e9 3d
       0.34260827 0.046588153 0.21034662 0.11411471
000070 06 77 3f bf 33 fd ba be c3 f2 60 3e cb ae cc 3d
       -0.7479099 -0.365213 0.21967606 0.099942766
000080 57 8d 08 bf b9 2e 81 c0 36 74 a0 bc 79 65 b3 3e
       -0.5334067 -4.0369534 -0.019586664 0.35038355
000090 e8 e2 b3 bf 28 24 44 bd e6 10 09 3d dc ea 54 bf
       -1.4053621 -0.047886044 0.03346338 -0.83170867
0000a0 87 ba b9 bc 56 87 9b 3e eb 6d 98 3c ac b0 b7 bd
       -0.022671951 0.3037669 0.0186071 -0.08969244
0000b0 aa 25 4e bf c9 ac 52 3d 8e d0 9a bf 32 6f 32 c1
       -0.8052622 0.051434312 -1.2094896 -11.152147
0000c0 f8 35 ba bf ec 92 08 3c 3f ce e3 40 84 1d 84 3d
       -1.454772 0.00833581 7.1189265 0.06450942
0000d0 e4 61 0f bc 48 7e a0 b9 30 2d 1c 3e 60 38 84 3e
       -0.008751366 -0.00030611665 0.15251613 0.2582426
0000e0 70 a6 8e 3d c6 27 55 3e 79 98 61 3e e1 e5 a4 3e
       0.06965339 0.20815954 0.2203082 0.32206634
0000f0 09 32 6c 3e d5 85 8b 3d 59 b7 9f be 42 5c 86 40
       0.23065962 0.06812636 -0.3119457 4.198762
000100 e5 1b fc be 59 00 4a be 35 e4 05 3d a6 7a 27 bc
       -0.49240032 -0.19726695 0.03268834 -0.010222113
000110 06 f0 30 c0 34 05 56 3e 43 66 6b 3e b4 5c 8d bd
       -2.7646499 0.20900422 0.22988228 -0.06902447
000120 16 f2 3a 40 4f 15 6a c0 8b 4b c8 c0 fc 76 a1 3d
       2.9210258 -3.6575506 -6.2592216 0.078840226
000130 87 5f 90 3f cd 06 a7 bf b4 f5 64 3e 0d cb 11 3e
       1.1279153 -1.304895 0.22359353 0.14237614
000140 88 98 8a bd cd 86 6d bf 8f 4d ab bb e1 8e 6a 41
       -0.06767374 -0.92783815 -0.0052277516 14.659883
000150 27 2d d3 40 68 df 28 c1 14 e0 be 3e c7 2b 24 3d
       6.5992618 -10.554543 0.37280333 0.04008081
000160 de 5d 9b 3c 20 1c 8e 3f f0 1c 3d 3d 73 a0 de c0
       0.018965658 1.1102333 0.046170175 -6.957086
000170 b7 7c 3b 40 be 86 6d 3f 64 e7 f4 be ce 52 87 41
       2.929487 0.92783725 -0.47832787 16.915432
000180 89 73 0d 3e 89 2c c0 3d 98 7b 4a bd ea 83 ae bf
       0.13813604 0.093834944 -0.049434274 -1.3634007
000190 2c 98 29 41 78 be 4f bd 55 40 7e bc 54 c2 8a 3d
       10.599651 -0.050718755 -0.015518268 0.067753464
0001a0 9b 9b 7f 3d 50 7e bf 3c 7f 04 a0 3b f4 a2 8a bf
       0.062404256 0.02337566 0.0048833485 -1.0830979
0001b0 dc 30 92 c0 21 79 77 3e 90 63 82 41 bc 82 a6 3f
       -4.5684643 0.24167301 16.298615 1.3008647
0001c0 51 47 c4 3b cf f9 39 bd 3d 73 d4 be 0d 42 96 3d
       0.005989947 -0.04540425 -0.4149417 0.07336817
0001d0 30 98 00 3f 89 fb a5 3d b2 60 d2 bc 61 d8 16 c0
       0.5023222 0.08104617 -0.025680874 -2.3569567
0001e0 ec bb 7d 3d d8 62 b9 3e 58 26 3a 3c b2 26 5c bd
       0.061946794 0.36208224 0.011361681 -0.05374784
0001f0 2d 5b d3 3e ec 67 0b bd 2e 0a 8f bd d9 4c 27 3e
       0.412805 -0.034034654 -0.069843635 0.16337909
000200 ae 23 1c be 0c ce 14 c1 7d b9 53 be 8e 98 41 be
       -0.15247986 -9.300304 -0.20676227 -0.18905851
000210 25 65 83 3d 2a 52 a4 be 61 2d 53 3d e9 82 a4 bf
       0.06415776 -0.32093936 0.05155695 -1.2852451
000220 21 f7 5a bc 98 da a3 c0 1b a5 7d 3f ca f4 8f 3f
       -0.013364584 -5.120434 0.99080056 1.1246579
000230 54 8f 14 40 00 e8 72 bd c4 19 37 be 96 54 c4 ba
       2.321248 -0.059303284 -0.17880923 -0.0014978822
000240 f0 eb b6 be e3 1b 34 3f 79 8e 6e 3f 62 68 a8 be
       -0.3572688 0.7035505 0.93186146 -0.32892138
000250 ba b7 d7 3e b6 8b fd 40 ee f0 ac be 52 51 70 c0
       0.4213236 7.9233046 -0.33777565 -3.7549634
000260 8c e0 6a be ce 63 80 3d dd 16 47 be 66 88 29 bd
       -0.2293722 0.06269036 -0.19442315 -0.041389845
000270 0d 9b 46 3f 62 e9 86 3e ae 7a 19 be 86 18 26 be
       0.7758034 0.26349932 -0.14988205 -0.16220292
000280 5e 48 0b 3f 7e 09 84 40 24 07 82 3d da 87 fb be
       0.544073 4.1261587 0.06349018 -0.49127084
000290 77 1d b5 3f ca 68 69 3b 20 03 e1 bd 75 73 37 3f
       1.4149617 0.0035615438 -0.10986924 0.7166055
0002a0 2a 34 52 bc 5f 1f 87 be 4c fa ed bd a8 7f 4f 3e
       -0.01282982 -0.26391122 -0.11620006 0.2026354
0002b0 31 ff 5a 3f ca 0e c9 bd 88 46 8e 3f 4a c9 31 41
       0.8554564 -0.09817274 1.1115274 11.111643
0002c0 50 2c bc 3f 88 53 46 bd de 84 e5 c0 c1 f6 4c 3d
       1.4701023 -0.048419505 -7.172469 0.05004001
0002d0 c8 d6 46 3d 4b e0 be bd eb 43 d4 bd 55 b2 2a be
       0.048544675 -0.09320124 -0.10364517 -0.16669591
0002e0 37 0c 56 bd f3 fa 6f be e7 53 1d be 97 0f 83 be
       -0.052257743 -0.23435573 -0.15364037 -0.25597832
0002f0 60 7c 22 be 96 40 57 3d 05 ad 92 3e b2 bb 85 c0
       -0.15867758 0.05255183 0.28647628 -4.179162
000300 36 d8 cd 3e c4 5e 76 3e bd 7d 11 3d 98 55 c8 3d
       0.40204018 0.24059588 0.035520304 0.09781951
000310 01 38 33 40 cc c6 0f be ec 77 99 bd 75 ac 87 bc
       2.8002932 -0.14040679 -0.074935764 -0.016561726
000320 ea 50 3c c0 97 4f 6f 40 22 b2 c6 40 e3 b0 26 be
       -2.9424386 3.7392328 6.2092447 -0.16278414
000330 2a 17 91 bf 0c 2e a1 3f 75 ff 0b be ab 57 2e be
       -1.1335194 1.2592177 -0.13671668 -0.1702563
000340 00 27 49 bc 3d 53 4e 3f 25 e7 97 bd 8c 6e 6a c1
       -0.012277365 0.8059576 -0.07417134 -14.651989
000350 30 47 d2 c0 f9 29 29 41 a1 8e 9b be 7d ee 12 3d
       -6.57119 10.572747 -0.30382255 0.03587197
000360 e9 75 df 3c 2d 99 8c bf f0 cf 34 b9 ea 66 de 40
       0.027277904 -1.0984246 -0.000172436 6.9500628
000370 03 9f 39 c0 5d fc 7d bf fa d5 c9 3e d6 55 87 c1
       -2.9003303 -0.992132 0.39421064 -16.916912
000380 2f 1c 3d be d0 36 4d 3d c1 44 d9 3c d9 95 ae 3f
       -0.18467782 0.0501011 0.026522042 1.363948
000390 f7 e2 2a c1 9a 57 69 3d 81 31 4a bc a6 d0 d8 bd
       -10.680411 0.05696831 -0.012340904 -0.105866715
0003a0 af 89 2e 3c 56 96 9f bb 57 e0 b4 3c 22 6f 8c 3f
       0.0106529435 -0.0048702164 0.02207963 1.0971415
0003b0 93 07 91 40 c7 69 5c be 3d 39 82 c1 5a 01 a5 bf
       4.5321746 -0.21524726 -16.277948 -1.2891037
0003c0 3e 7f 17 bd 26 1d 28 3d 95 c2 8f 3e 08 26 bf 3b
       -0.036986582 0.041043423 0.28078142 0.005833391
0003d0 e9 d1 d6 be f0 bf c0 bc 66 7f 21 bd 88 e3 16 40
       -0.41957024 -0.023529023 -0.039428137 2.3576374
0003e0 f0 01 35 bd 63 71 90 be 25 de 0c bb d9 74 9c 3d
       -0.0441913 -0.28211507 -0.0021494713 0.076394744
0003f0 9e 33 8f be 08 74 cb 3c ae 6f 48 3d 87 83 3b be
       -0.27969068 0.024835601 0.04893463 -0.18311892

bias f4 [2]
000000 eb c0 96 3f fa 22 93 bf
       1.1777624 -1.1495049
