models/maintainance_agent/2/D3QN_q_eval.pth (torch, 228957 bytes, 21 tensors)

weight f4 [128, 11]
8.368627 3.4400318 3.3186967 1.5201344 1.8818935 1.9664164 0.82077754 -0.21112944
0.6529699 -0.34663245 -0.50187176 -2.9726965 -1.2340086 8.221597 7.8182817 5.323901
1.7409139 0.29072723 -0.0074745994 -12.037642 0.9321182 -8.00874 5.1902003 5.9534698
-1.5151489 -1.6872417 -3.9096713 1.1363323 -0.007164225 0.03166311 11.176406 0.48524147
-3.2632127 -2.4414282 0.7380217 9.950772 9.463955 4.4266653 1.7866715 -0.0010474559
0.22162835 -12.632995 0.6895278 -9.672499 -0.9751637 2.1579695 9.995165 10.789624
4.730049 1.99171 0.17574263 0.7708917 -12.232557 0.038762935 -10.970275 -4.142255
-2.5048125 8.600975 4.8549657 6.2623973 1.6153184 -1.1982806 0.008978627 -11.609285
1.07904 -3.356594 13.223056 2.9550123 0.88227046 -2.0330074 3.8231838 0.46998683
0.26546928 -0.050115332 4.837541 -3.8165505 -4.8083453 -4.2411566 -0.9282249 -9.027435
-6.1456075 -3.9878228 1.9121776 -0.993326 -0.0010224062 7.6920123 1.9267395 3.2729137
-2.6318398 -0.10139571 8.127342 9.4347105 5.0763507 1.8936234 0.17991279 0.32986945
-12.90604 1.2029098 -7.316448 4.350726 0.87175936 -8.7695465 -8.649517 -5.370251
-1.6483936 0.40704262 0.3690374 11.062672 -0.45522645 7.0309763 -2.9651403 -0.66983426
8.4028845 8.200433 5.711426 1.5470146 0.07319322 0.03308149 -12.402399 1.264817
-6.621073 -0.20459585 0.19244695 -0.108273864 0.26779604 -0.15421076 -0.09863375 -0.2344254
-0.20921168 -0.28786892 -0.2052651 -0.18283702 5.8516684 1.049245 -5.5031943 -1.6878351
-2.005868 -1.4659117 0.20274812 0.067098714 3.9423628 -3.4848032 4.5874705 3.16157
-0.028856492 -10.080797 -9.1825 -5.0555706 -1.6062553 0.34437925 0.37339547 10.866854
-0.68050134 9.292971 0.06664537 10.880331 0.27145863 4.093587 -0.7004747 1.3800703
0.072057314 -0.09394465 19.1947 -0.19155762 -3.2634296 0.2500499 -0.20978238 -0.119214684
-0.284287 0.23353547 -0.07416858 -0.029596508 -0.22711277 -0.25492477 0.05399698 -0.11770286
0.22361946 -0.26759633 0.14643103 -0.053958356 -0.09809026 -0.24439159 -0.27762407 -0.25032884
-0.2719863 -0.20446631 -0.04227686 -2.8152456 -0.56227577 7.9739523 8.520164 5.8213634
1.837032 -0.09636745 0.27805474 -12.280261 0.98573995 -7.0268893 0.04776308 -0.29521108
-0.28878945 -0.07463515 0.15246066 -0.07374103 -0.28805274 -0.21102452 -0.034596503 -0.23391268
0.13558203 -0.12098673 0.2570386 0.2828552 -0.013053626 0.120159976 0.092454456 -0.028071983
-0.19999646 -0.11899459 0.2539037 -0.10678324 -3.2361343 -1.3876636 8.348461 5.925451
6.368152 2.2673757 -1.8014477 0.0029912128 -11.406895 -0.047775455 -4.8540487 2.7132921
0.78166395 -7.198563 -4.3243465 -5.2175546 1.1277043 -0.18734016 0.031419463 9.481705
1.519615 2.4405575 -2.3443792 -0.22922076 8.71367 9.548469 5.3223386 2.0504782
0.16834307 0.38564342 -12.90389 0.82764244 -7.939367 -2.9033942 -0.14262798 8.634362
00000000: e5e5 0541 7b29 5c40 8765 5440 c493 c23f
00000010: e3e1 f03f 88b3 fb3f 7a1e 523f 5132 58be
00000020: 0929 273f cf79 b1be ab7a 00bf a940 3ec0
00000030: fef3 9dbf a98b 0341 5d2f fa40 665d aa40
00000040: 44d6 de3f 33da 943e 7ced f4bb 2e9a 40c1
00000050: 4c9f 6e3f cd23 00c1 1f16 a640 d382 be40
00000060: 66f0 c1bf 89f7 d7bf 0e38 7ac0 5673 913f
00000070: e0c1 eabb 2db1 013d 8fd2 3241 9271 f83e
00000080: 7ad8 50c0 5c40 1cc0 fdee 3c3f 5d36 1f41
00000090: 5c6c 1741 3ea7 8d40 a7b1 e43f ca4a 89ba
000000a0: 8bf2 623e bf20 4ac1 e584 303f 8ec2 1ac1
000000b0: 54a4 79bf 2c1c 0a40 32ec 1f41 4da2 2c41
000000c0: 905c 9740 5af0 fe3f e0f5 333e 2959 453f
000000d0: 8eb8 43c1 e2c5 1e3d 3f86 2fc1 5a8d 84c0
000000e0: d94e 20c0 989d 0941 e15b 9b40 8f65 c840
000000f0: c1c2 ce3f 4261 99bf 171b 133c a2bf 39c1
00000100: fc1d 8a3f 70d2 56c0 a391 5341 ec1e 3d40
00000110: 7adc 613f cb1c 02c0 0baf 7440 1da2 f03e
00000120: 97eb 873e bc45 4dbd 23cd 9a40 5d42 74c0
00000130: f7dd 99c0 8eb7 87c0 26a0 6dbf 6070 10c1
00000140: d1a8 c4c0 7d38 7fc0 3cc2 f43f 9d4a 7ebf
00000150: 4202 86ba f724 f640 669f f63f 6b77 5140
00000160: 1070 28c0 8ea8 cfbd 9809 0241 93f4 1641
00000170: 7771 a240 4062 f23f 0f3b 383e a6e4 a83e
00000180: 247f 4ec1 f3f8 993f 5820 eac0 2639 8b40
00000190: 9f2b 5f3f 1050 0cc1 6c64 0ac1 19d9 abc0
000001a0: 90fe d2bf e467 d03e 78f2 bc3e b400 3141
000001b0: 7113 e9be c2fd e040 dcc4 3dc0 427a 2bbf
000001c0: 3772 0641 f934 0341 00c4 b640 9304 c63f
000001d0: 54e6 953d 7580 073d 3a70 46c1 86e5 a13f
000001e0: d4df d3c0 9381 51be d010 453e b0be ddbd
000001f0: 901c 893e 6de9 1dbe 7e00 cabd 360d 70be
00000200: 963b 56be 8e63 93be 0431 52be a139 3bbe
00000210: de40 bb40 a94d 863f 2b1a b0c0 fb0a d8bf
00000220: 2460 00c0 ffa2 bbbf 349d 4f3e 0d6b 893d
00000230: ac4f 7c40 0407 5fc0 8fcc 9240 2a57 4a40
00000240: 7364 ecbc f24a 21c1 85eb 12c1 3cc7 a1c0
00000250: c699 cdbf 7a52 b03e b12d bf3e a2de 2d41
00000260: 5635 2ebf 02b0 1441 5e7d 883d d615 2e41
00000270: a0fc 8a3e aafe 8240 4f52 33bf 25a6 b03f
00000280: c992 933d 0d66 c0bd bf8e 9941 ae27 44be
00000290: 08dc 50c0 8a06 803e 31d1 56be d426 f4bd
000002a0: 118e 91be ec23 6f3e b2e5 97bd 6074 f2bc
000002b0: 4090 68be 8085 82be f02b 5d3d 320e f1bd
000002c0: 80fc 643e 6302 89be 04f2 153e 7003 5dbd
000002d0: 8ce3 c8bd ca41 7abe be24 8ebe 1a2b 80be
000002e0: ca41 8bbe 9e5f 51be 802a 2dbd fc2c 34c0
000002f0: 4ef1 0fbf 9e2a ff40 9752 0841 9c48 ba40
00000300: dd23 eb3f 4c5c c5bd 315d 8e3e f37b 44c1
00000310: 7459 7c3f 47dc e0c0 38a3 433d e825 97be
00000320: 36dc 93be 50da 98bd a61e 1c3e 8a05 97bd
00000330: a67b 93be d016 58be 10b5 0dbd ce86 6fbe
00000340: 04d6 0a3e e4c7 f7bd 909a 833e 66d2 903e
00000350: e0de 55bc 6f16 f63d c358 bd3d 37f7 e5bc
00000360: dfcb 4cbe 70b3 f3bd aaff 813e 2cb1 dabd
00000370: d31c 4fc0 f69e b1bf 4c93 0541 4b9d bd40
00000380: e7c7 cb40 af1c 1140 d795 e6bf 3908 443b
00000390: a482 36c1 32b0 43bd 5e54 9bc0 94a6 2d40
000003a0: 211b 483f a15a e6c0 0c61 8ac0 35f6 a6c0
000003b0: 9d58 903f 19d6 3fbe b2b1 003d 10b5 1741
000003c0: bf82 c23f 1832 1c40 4f0a 16c0 d9b8 6abe
000003d0: 316b 0b41 87c6 1841 9950 aa40 093b 0340
000003e0: 2062 2c3e 0e73 c53e 5576 4ec1 60e0 533f
000003f0: 4b0f fec0 36d1 39c0 120d 12be 5926 0a41

bias f4 [128]
3.0183465 7.4193816 -3.2223647 7.788743 8.998604 7.6474385 0.32254618 -5.5476384
8.105759 -7.4292545 7.869938 0.18765709 -3.7368345 -6.8882523 0.90989923 -0.18654469
-0.09027852 7.9950337 -0.12361328 -0.1893634 8.06274 -4.9260178 8.539559 8.215107
-2.2622182 4.6290293 8.124051 8.355926 -6.441636 7.8625183 -3.0169091 -5.4907975
8.378268 8.431921 -6.672209 -2.749069 -2.134919 -5.002609 7.7953715 8.505206
2.9075217 5.154925 1.3005038 -4.65321 -0.059621736 8.022887 -3.55302 -4.9927945
-0.292317 8.285146 8.377878 5.245985 7.990616 -6.4794564 8.036861 7.911046
8.154294 -0.1725353 4.716401 7.7444525 -7.230155 -0.15856731 -0.8259777 8.229822
-6.838464 -2.535762 -3.1841376 7.86628 -0.30726486 7.872734 -2.0923533 7.7991166
7.986786 8.158535 -5.1774116 8.102268 0.0074296594 -6.5407825 7.9762216 8.059241
-1.8211366 -0.23550063 8.140594 -6.9533224 3.3672912 -0.0014514029 0.111408025 -3.0202398
-2.9340136 -0.011686027 -4.105785 -0.26761594 4.948361 1.5982037 7.97586 0.047590762
7.9686384 4.0494013 -1.267692 -4.602284 0.37562016 -3.3427248 -2.9365733 1.0566032
0.022009969 -3.0430229 -2.304627 7.61955 8.101915 -6.826823 -2.1474862 -5.8609133
8.13139 -1.0061041 0.4396621 -1.5531145 8.080653 -0.005187154 2.663983 -2.4323332
-0.023893207 0.061835945 0.011645764 7.785396 -3.583767 -1.4268286 -3.5062714 8.843311
00000000: 972c 4140 936b ed40 393b 4ec0 623d f940
00000010: 48fa 0f41 d1b7 f440 c624 a53e 4186 b1c0
00000020: 30b1 0141 74bc edc0 88d6 fb40 2e29 403e
00000030: 4c28 6fc0 906c dcc0 28ef 683f 9205 3fbe
00000040: f2e3 b8bd 51d7 ff40 f628 fdbd 7be8 41be
00000050: fc00 0141 f0a1 9dc0 09a2 0841 1471 0341
00000060: 2fc8 10c0 0221 9440 1dfc 0141 dfb1 0541
00000070: e221 cec0 c099 fb40 0a15 41c0 9db4 afc0
00000080: 630d 0641 26e9 0641 bc82 d5c0 bff0 2fc0
00000090: 83a2 08c0 5f15 a0c0 af73 f940 5315 0841
000000a0: d614 3a40 25f5 a440 e976 a63f 19e7 94c0
000000b0: ec35 74bd bf5d 0041 ae64 63c0 f9c4 9fc0
000000c0: 93aa 95be f58f 0441 ca0b 0641 1cdf a740
000000d0: 20b3 ff40 b557 cfc0 fc96 0041 4a27 fd40
000000e0: fd77 0241 18ad 30be c2ec 9640 8ed2 f740
000000f0: 6e5d e7c0 785f 22be 4673 53bf 5aad 0341
00000100: b2d4 dac0 ed49 22c0 e9c8 4bc0 91b8 fb40
00000110: d251 9dbe 70ed fb40 1ee9 05c0 5d92 f940
00000120: c093 ff40 5c89 0241 5bad a5c0 e4a2 0141
00000130: 8074 f33b 174e d1c0 353d ff40 a7f2 0041
00000140: 011b e9bf 1427 71be df3f 0241 9e81 dec0
00000150: b381 5740 003d beba e429 e43d 9c4b 41c0
00000160: e1c6 3bc0 c076 3fbc 9762 83c0 f504 89be
00000170: f958 9e40 f091 cc3f 3f3a ff40 88ee 423d
00000180: 16ff fe40 b294 8140 bb43 a2bf e945 93c0
00000190: 4951 c03e 34ef 55c0 d1f0 3bc0 c63e 873f
000001a0: 404e b43c e3c0 42c0 027f 13c0 5bd3 f340
000001b0: 72a1 0141 5675 dac0 6a70 09c0 9a8c bbc0
000001c0: 2c1a 0241 05c8 80bf 641b e13e 75cc c6bf
000001d0: 5b4a 0141 00f9 a9bb b37e 2a40 59ab 1bc0
000001e0: b0bb c3bc b047 7d3d e0cd 3e3c f721 f940
000001f0: 705c 65c0 52a2 b6bf c066 60c0 347e 0d41

weight f4 [128, 128]
0.4507349 1.9056631 -3.4619403 1.2450184 0.6771303 2.2750607 -0.53258806 -3.0623841
0.871962 -0.9523696 2.1191103 -0.013801947 -1.0916575 -1.2599751 -2.7647967 -0.009829216
-0.020336792 0.9942042 0.02615776 0.029203855 3.0864227 -3.7456224 0.86975974 1.8291156
-4.130811 1.3708247 4.196169 0.93942535 -0.9652031 0.83080244 -4.636932 -0.83755565
1.1577762 3.9226737 -0.29196438 -2.4683228 -2.0764763 -2.1125872 1.1039944 4.0552535
0.8749079 0.84333044 -0.88276434 -2.2384188 0.04333829 0.98621583 -3.4818196 -1.8398119
-0.034086946 1.5637422 0.70504284 1.1795788 0.82471365 -3.5256515 1.1324246 1.4387354
0.8062481 0.022856914 0.3786628 1.07336 -1.1254848 -0.091854095 -1.8164172 1.0762272
-0.9690995 -4.271129 -3.9215858 1.1134784 0.35832053 2.726292 -0.27320763 1.3276993
1.2276604 1.0233097 -2.2405744 1.018668 -0.07918968 -0.847949 1.706647 1.033
-0.3823531 -0.019760273 2.8052905 -0.9250208 0.4637094 -0.029999588 0.08632027 -3.748893
-3.2739184 0.012030311 -1.6129234 0.04183314 0.79405934 0.8095178 1.0601016 0.08328781
1.2757473 0.6821306 -1.6035455 -2.156311 0.4620331 -3.7955544 -3.297398 0.5801019
-0.02782517 -4.8051496 -1.0433441 0.96640056 1.9677604 -0.8810575 -2.2280097 -1.0504061
2.8552365 -1.7223407 0.4339897 -1.7829121 1.8537416 0.08503053 0.2957266 -2.905169
0.07116125 -0.034162235 0.013977952 1.0735518 -1.4701779 -0.9980935 -2.8719273 4.3750515
-0.9883359 -0.8909867 -3.4450822 0.10604471 0.4303747 -6.1918054 0.15547983 0.10358954
0.27717108 1.4818871 -0.725129 -0.0731066 1.409877 1.720793 -2.2580073 -0.015335128
-0.031082299 -0.48984945 -0.01129017 0.00023774803 -7.49439 1.1886184 0.27699152 -0.8831029
-6.2703404 0.4909757 -5.6418877 0.25506824 1.0815933 0.1728632 -10.007532 1.7446337
0.046787396 -5.9596043 1.1483011 -1.3208159 -2.0613317 0.27310902 -0.7855703 -9.308053
1.5408955 -0.67607284 -0.5434446 1.5881615 0.029711597 0.2703651 -2.8837206 3.0723495
0.003033109 -0.89699227 0.51701623 0.6119204 0.19215898 2.8170576 -0.11051736 -0.4489427
0.40875238 -0.04613455 0.6277802 -0.5716408 1.1721038 -0.024746206 0.4355861 0.11472868
0.93755394 -7.6487107 -2.0011783 -0.81886315 1.3759235 -1.6413466 0.65673447 -0.82760864
0.15381293 0.10197177 -0.073307864 -0.29603338 0.07163923 1.1332589 -0.3975534 0.26483274
0.53980887 -0.06803976 -3.065168 1.0124687 -0.74076325 0.018872134 -0.016840503 -3.5190372
-2.706206 -0.067558445 -0.59480435 -0.072406605 -1.1332387 1.947757 -0.48781568 -0.07708048
-0.16815722 0.3927421 -2.214891 1.6703066 0.46050826 -4.002833 -3.7117019 0.7258901
-0.0433621 -4.8853545 1.0188352 0.19218476 -0.82337993 0.76359063 -2.6384478 0.7453553
-1.9134505 0.32576582 0.37101963 -2.6310744 -0.9044967 0.06116023 0.1676282 -2.6712604
0.038162284 0.08764046 -0.0644899 -0.03977306 -1.4855044 -0.13540173 -0.7501176 -4.1848497
00000000: bac6 e63e c5ec f33f 6e90 5dc0 c35c 9f3f
00000010: 6958 2d3f 989a 1140 b157 08bf 1afe 43c0
00000020: e738 5f3f 7ece 73bf 819f 0740 9021 62bc
00000030: 6fbb 8bbf dd46 a1bf 6ef2 30c0 b80a 21bc
00000040: 5899 a6bc 2b84 7e3f cc48 d63c ec3c ef3c
00000050: f387 4540 47b8 6fc0 93a8 5e3f 7620 ea3f
00000060: 9b2f 84c0 2f77 af3f 0447 8640 2e7e 703f
00000070: 8d17 77bf 78af 543f bf61 94c0 0c6a 56bf
00000080: 0332 943f 160d 7b40 5b7c 95be 00f9 1dc0
00000090: fde4 04c0 a134 07c0 b04f 8d3f a3c4 8140
000000a0: f7f9 5f3f 81e4 573f d8fc 61bf 4142 0fc0
000000b0: 7e83 313d a478 7c3f 22d6 5ec0 f57e ebbf
000000c0: c19e 0bbd b428 c83f b07d 343f 70fc 963f
000000d0: 6f20 533f 46a4 61c0 4af3 903f 7b28 b83f
000000e0: 4766 4e3f 6c3e bb3c 17e0 c13e dc63 893f
000000f0: e30f 90bf 001e bcbd 5c80 e8bf d0c1 893f
00000100: e816 78bf 17ad 88c0 43fb 7ac0 7686 8e3f
00000110: ca75 b73e 917b 2e40 dfe1 8bbe 0df2 a93f
00000120: fa23 9d3f d0fb 823f 9265 0fc0 b763 823f
00000130: 332e a2bd 3013 59bf 6973 da3f 5839 843f
00000140: c9c3 c3be 4ce0 a1bc e189 3340 2ace 6cbf
00000150: 526b ed3e b2c1 f5bc afc8 b03d dded 6fc0
00000160: e187 51c0 c81a 453c 4674 cebf 3a59 2b3d
00000170: 7947 4b3f 8f3c 4f3f 69b1 873f cd92 aa3d
00000180: b04b a33f 1ca0 2e3f fb40 cdbf 0001 0ac0
00000190: 9a8f ec3e 5dea 72c0 9208 53c0 8f81 143f
000001a0: 9cf1 e3bc c9c3 99c0 4d8c 85bf 0766 773f
000001b0: 93df fb3f fc8c 61bf b697 0ec0 b573 86bf
000001c0: 32bc 3640 a975 dcbf e633 de3e 7736 e4bf
000001d0: 6847 ed3f 7d24 ae3d 7a69 973e 4aee 39c0
000001e0: fdbc 913d b3ed 0bbd c803 653c 256a 893f
000001f0: ca2e bcbf 0e83 7fbf a8cd 37c0 6c00 8c40
00000200: 9503 7dbf b417 64bf 3a7c 5cc0 f82d d93d
00000210: 135a dc3e 4523 c6c0 1b36 1f3e c126 d43d
00000220: 5ee9 8d3e 7aae bd3f 0ea2 39bf eab8 95bd
00000230: d976 b43f f242 dc3f 3183 10c0 3040 7bbc
00000240: 4ea0 febc 8ccd fabe 68fa 38bc 004c 7939
00000250: 0bd2 efc0 a624 983f d5d1 8d3e 0813 62bf
00000260: a1a6 c8c0 2b61 fb3e 588a b4c0 4e98 823e
00000270: a671 8a3f 0d03 313e da1e 20c1 2850 df3f
00000280: 24a4 3f3d 14b5 bec0 88fb 923f 7f10 a9bf
00000290: dcec 03c0 f2d4 8b3e 231b 49bf c9ed 14c1
000002a0: 103c c53f 1c13 2dbf 2f1f 0bbf e048 cb3f
000002b0: bc65 f33c 4b6d 8a3e e18e 38c0 60a1 4440
000002c0: 20c7 463b 49a1 65bf 2d5b 043f d1a6 1c3f
000002d0: 53c5 443e ac4a 3440 ed56 e2bd d1db e5be
000002e0: fe47 d13e 95f7 3cbd 34b6 203f 0d57 12bf
000002f0: 7f07 963f 8eb8 cabc 2405 df3e dff6 ea3d
00000300: 8903 703f 3dc2 f4c0 4e13 00c0 04a1 51bf
00000310: 431e b03f a517 d2bf c01f 283f 29de 53bf
00000320: 2381 1d3e 93d6 d03d 6f22 96bd b091 97be
00000330: 97b7 923d a10e 913f 1f8c cbbe 2898 873e
00000340: ea30 0a3f 6e58 8bbd b62b 44c0 9398 813f
00000350: a9a2 3dbf bc99 9a3c 18f5 89bc e837 61c0
00000360: 7b32 2dc0 155c 8abd 1945 18bf ea49 94bd
00000370: f70d 91bf 1a50 f93f fac2 f9be 5fdc 9dbd
00000380: 6831 2cbe 7e15 c93e c6c0 0dc0 9bcc d53f
00000390: bdc7 eb3e 3517 80c0 868c 6dc0 efd3 393f
000003a0: 759c 31bd d354 9cc0 3169 823f 15cc 443e
000003b0: 07c9 52bf ad7a 433f 54dc 28c0 9bcf 3e3f
000003c0: f2eb f4bf c7ca a63e 49f6 bd3e 8663 28c0
000003d0: 198d 67bf 2683 7a3d baa6 2b3e eef5 2ac0
000003e0: 0e50 1c3d d77c b33d 4813 84bd 13e9 22bd
000003f0: 0225 bebf c0a6 0abe b507 40bf 4aea 85c0

bias f4 [128]
8.003997 -7.7357755 -6.2496214 -0.18414561 -4.0201845 -2.3841734 8.232072 7.7627254
0.005315596 0.014890352 -0.07947397 -0.07925151 0.38175488 5.312436 6.956559 8.082022
0.021718597 0.0056602187 13.766764 8.041371 7.964733 -0.027919084 -0.10103353 0.054872286
7.7454085 0.0511162 7.718489 -1.8906523 2.4242022 -0.026736805 -0.006951336 9.696645
8.119597 1.9946434 -0.009892716 -5.680928 10.35466 7.5993257 -6.3588896 -0.028511725
0.22768371 7.806622 6.5951934 8.893859 8.083426 -0.060712904 0.72349405 -0.062143423
-0.09560053 2.7225478 7.760727 7.6230564 8.236729 0.27178192 0.020641152 7.670623
-0.24504592 -0.47282228 10.854364 8.109535 9.33446 7.473655 -1.5973548 -6.2531214
7.577078 -5.6537457 7.1466928 -7.7895293 0.05301842 7.5450945 8.153678 9.524034
7.9041204 0.022960221 7.4640627 -0.02755175 -7.3340855 -6.07038 11.177601 8.997534
-0.056868438 0.083266325 -2.4208796 3.6558928 -0.018995909 7.714808 -1.9793358 2.070839
0.07957976 7.114918 -6.192651 0.05636782 7.24565 0.1104913 7.0974765 7.3371606
7.8978653 7.6308203 8.048882 -0.99240786 8.06945 0.020027526 -5.2315407 -0.0698492
0.005708106 0.043868184 -2.089292 1.3712611 -0.07591469 0.013014681 7.9490843 -2.2179544
-6.1820545 7.7675276 8.110774 6.936171 8.2863655 -0.016015008 8.129581 -6.2316613
-0.050529446 13.84491 -3.199278 -0.025160281 0.04308099 -2.1082952 7.919101 0.049238138
00000000: 5f10 0041 798b f7c0 e6fc c7c0 ab90 3cbe
00000010: 5aa5 80c0 4c96 18c0 91b6 0341 3f68 f840
00000020: 732e ae3b aaf6 733c 40c3 a2bd 9e4e a2bd
00000030: 6075 c33e 7aff a940 229c de40 f64f 0141
00000040: 33eb b13c 5b79 b93b aa44 5c41 75a9 0041
00000050: 18df fe40 90b6 e4bc abea cebd c3c1 603d
00000060: 63da f740 385f 513d ddfd f640 e500 f2bf
00000070: 2126 1b40 2507 dbbc 08c8 e3bb 7525 1b41
00000080: dfe9 0141 7a50 ff3f 0f15 22bc 2aca b5c0
00000090: b0ac 2541 ad2d f340 067c cbc0 6c91 e9bc
000000a0: eb25 693e d9cf f940 d30b d340 3f4d 0e41
000000b0: b755 0141 18ae 78bd e836 393f 1a8a 7ebd
000000c0: 36ca c3bd 393e 2e40 e057 f840 14f0 f340
000000d0: a4c9 0341 0027 8b3e a217 a93c be75 f540
000000e0: 51ed 7abe c315 f2be 7aab 2d41 a8c0 0141
000000f0: f359 1541 2f28 ef40 1f76 ccbf 9219 c8c0
00000100: 6c77 f240 7ceb b4c0 b5b1 e440 d343 f9c0
00000110: d829 593d 6a71 f140 7775 0241 7162 1841
00000120: 8eee fc40 1317 bc3c 9ad9 ee40 35b4 e1bc
00000130: d4b0 eac0 8e40 c2c0 74d7 3241 e6f5 0f41
00000140: e1ee 68bd 8987 aa3d b1ef 1ac0 26fa 6940
00000150: 4f9d 9bbc b5df f640 e05a fdbf a088 0440
00000160: b7fa a23d 69ad e340 322a c6c0 f1e1 663d
00000170: 5ddc e740 4349 e23d 871e e340 05ca ea40
00000180: 50bb fc40 ae2f f440 38c8 0041 710e 7ebf
00000190: 781c 0141 c410 a43c c868 a7c0 190d 8fbd
000001a0: 100b bb3b 20af 333d f6b6 05c0 7c85 af3f
000001b0: 2979 9bbd 873b 553c e65e fe40 f7f2 0dc0
000001c0: 64d3 c5c0 968f f840 bbc5 0141 1df5 dd40
000001d0: f494 0441 e831 83bc c412 0241 c569 c7c0
000001e0: f7f7 4ebd c084 5d41 f9c0 4cc0 ef1c cebc
000001f0: b175 303d 4fee 06c0 4769 fd40 eead 493d

weight f4 [1, 128]
4.4283075 1.3925214 -8.728365 -0.037910156 -8.612975 -0.98354405 4.079247 7.3011694
-0.083988205 0.02423049 -0.07783625 -0.06973879 -6.9253273 -4.4619603 4.7948704 4.586147
-0.06263106 -0.05099936 -1.7446659 4.2571683 11.512138 0.04896485 0.0051357504 -0.017054347
4.3397837 0.025394328 9.944559 5.1575704 4.3597493 -0.0077384836 0.055296093 0.6639684
4.4696364 8.551156 -0.051394217 -3.641305 -2.8323033 4.557093 -8.668153 0.032097157
-6.7958655 4.450995 -3.346745 0.85535765 4.2859488 0.019822517 -6.30176 -0.0013464591
-0.05307319 -4.3654714 10.449776 -3.6697736 4.3482275 0.05187603 0.055784553 6.8945084
-0.02457118 -0.004517636 -1.5367042 4.2724867 0.2671207 13.331365 16.814934 -3.113006
8.901476 -5.307148 14.258523 0.72082794 0.0047582276 7.71701 4.3985963 0.582797
4.4959526 0.021425426 8.841246 0.033104695 1.9952806 -8.927383 -0.41138998 0.7356307
-0.021849092 -0.0026375935 -1.2904775 -4.9483337 -0.020607207 4.433725 5.542098 -5.4866242
0.06406244 13.57198 -2.7385292 0.046937075 4.759578 0.049578827 12.157596 8.352531
1.566918 6.5614257 4.3093905 -9.469175 4.4934845 -0.07562557 -5.714467 -0.010666302
0.038871504 0.04276194 -1.0967947 -5.161946 0.05316419 -0.026381997 2.8286762 -0.8066145
-1.8095387 4.4422126 4.2458415 4.9316998 4.174449 -0.03415087 1.9306535 -3.2113652
0.008050697 -1.8693038 15.031086 -0.021922877 -0.029616307 -0.9289685 4.575441 0.0033270654
00000000: b2b4 8d40 243e b23f 62a7 0bc1 ae47 1bbd
00000010: bfce 09c1 8bc9 7bbf 3189 8240 2ea3 e940
00000020: 0202 acbd 057f c63c 9d68 9fbd 36d3 8ebd
00000030: 489c ddc0 61c8 8ec0 946f 9940 b7c1 9240
00000040: b744 80bd b4e4 50bd 3651 dfbf b93a 8840
00000050: b831 3841 5e8f 483d cc49 a83b 8fb5 8bbc
00000060: 82df 8a40 c407 d03c ea1c 1f41 d10a a540
00000070: 1183 8b40 1b93 fdbb 287e 623d d5f9 293f
00000080: 4307 8f40 89d1 0841 be82 52bd 240b 69c0
00000090: 7544 35c0 b5d3 9140 c1b0 0ac1 4f78 033d
000000a0: bb77 d9c0 8d6e 8e40 1231 56c0 b8f8 5a3f
000000b0: 7e26 8940 d562 a23c 05a8 c9c0 ac7b b0ba
000000c0: 4663 59bd f1b1 8bc0 4832 2741 92dd 6ac0
000000d0: ae24 8b40 f67b 543d 587e 643d d09f dc40
000000e0: 8049 c9bc ad08 94bb b9b2 c4bf 36b8 8840
000000f0: 0bc4 883e 454d 5541 fc84 8641 7e3b 47c0
00000100: 726c 0e41 28d4 a9c0 e922 6441 2e88 383f
00000110: e8ea 9b3b bff1 f640 4dc1 8c40 2f32 153f
00000120: d8de 8f40 6084 af3c be75 0d41 ca98 073d
00000130: 5b65 ff3f 90d6 0ec1 b5a1 d2be 4b52 3c3f
00000140: defc b2bc 7adb 2cbb 5e2e a5bf c058 9ec0
00000150: 72d0 a8bc 13e1 8d40 de58 b140 6d92 afc0
00000160: 2b33 833d d526 5941 1044 2fc0 1741 403d
00000170: 774e 9840 2b13 4b3d 8385 4241 f8a3 0541
00000180: c590 c83f 33f7 d140 87e6 8940 be81 17c1
00000190: a0ca 8f40 94e1 9abd eadc b6c0 b7c1 2ebc
000001a0: ba37 1f3d 2527 2f3d c563 8cbf a92e a5c0
000001b0: b2c2 593d 0f1f d8bc 0809 3540 4a7e 4ebf
000001c0: f79e e7bf 9b26 8e40 efdd 8740 7cd0 9d40
000001d0: 1695 8540 c8e1 0bbd a71f f73f 0287 4dc0
000001e0: 12e7 033c 5945 efbf 547f 7041 9b97 b3bc
000001f0: e69d f2bc e1d0 6dbf 036a 9240 e50a 5a3b

weight f4 [2, 128]
1.4158243 -3.6611586 -1.8500121 -0.013937229 -1.2797301 -0.39422083 1.4044861 5.1420608
0.0142986635 0.106832735 -0.021522813 0.037956722 1.6232581 2.2493343 1.2324393 1.4307487
0.012083124 0.06464064 2.2176454 1.2548875 5.587156 0.043585546 -0.047197137 0.0701994
1.2134084 0.0052438853 4.130232 -1.7263764 -0.34815013 -0.04382562 -0.023472818 2.22237
1.3630729 -0.53141665 0.046848513 -3.2338946 2.394111 1.2538173 -2.1433074 -0.001932968
1.4652331 1.3194977 1.7974008 2.482187 1.2999173 0.04357019 1.4349759 0.024086867
-0.047218587 1.4072543 4.9409995 2.4789548 1.5072144 0.010552033 0.055488616 4.6006227
0.010181156 0.012362637 3.727744 1.3320185 2.131282 4.68789 -10.635377 -1.6989765
4.702145 -1.8524184 3.281212 -4.1432185 -0.023626208 4.003152 1.4255459 2.2359498
1.3352582 0.0019307942 4.2720757 0.09097442 -2.8311863 -1.6949909 1.97698 2.4119437
-0.048867945 0.066412106 0.22143924 2.0266979 0.0012659953 1.2730567 -2.141348 1.7975562
-0.027395219 3.4001937 -2.9951873 0.07560039 1.2334375 0.03248769 2.837012 3.0943573
2.2563243 3.3024683 1.3571748 1.6772314 1.3400228 0.06203263 -1.1771921 0.06700853
0.03282132 -0.058796767 0.29629603 1.3336468 -0.048587088 0.0037291672 2.4068227 0.56128275
-1.3890548 1.2739998 1.3658496 1.2409352 1.4278975 -0.080641 2.2947068 -1.6968971
-0.048550352 2.2984202 -11.345543 -0.072080046 0.06054969 0.6472706 1.4915868 -0.048986796
-1.3122326 3.6308584 1.8048072 0.010224681 1.2256455 0.26430583 -1.4441878 -5.035487
0.04153766 -0.025155958 0.01731848 -0.0662168 -1.550834 -2.2730722 -1.2316573 -1.3426213
-0.048128486 0.025021356 -2.3286989 -1.40492 -5.5893497 0.057099648 -0.038374785 -0.0030310757
-1.3085397 -0.044244528 -4.158165 1.7283262 0.35507643 0.023501221 -0.08657377 -2.228707
-1.4041288 0.4636269 -0.026405076 3.2679946 -2.3638294 -1.2625732 2.0935676 0.038294837
-1.5306208 -1.3491403 -1.9153663 -2.330127 -1.4245433 0.027218822 -1.452728 0.062256232
-0.033354934 -1.4550954 -4.8469625 -2.367355 -1.4455498 -0.12658484 0.042037055 -4.508557
0.052774683 0.0017017937 -3.588584 -1.3431596 -2.0693552 -4.704921 10.698654 1.6891184
-4.59811 1.8440044 -3.1804426 4.1435313 -0.067198396 -4.061763 -1.2920957 -2.2223403
-1.411277 0.0036423118 -4.3589077 0.0012787041 2.7551649 1.6227906 -2.0494688 -2.4272354
-0.06853341 0.037880242 -0.2540535 -2.0069892 0.06447382 -1.2524407 1.996666 -1.7235963
-0.010153197 -3.3456516 2.9841566 0.03433521 -1.2205071 0.013077647 -2.90959 -3.1342928
-2.1560025 -3.4207935 -1.3309845 -1.6706678 -1.4388089 -0.014900574 1.0250665 0.06269286
-0.06304019 -0.026828052 -0.44327977 -1.2129672 0.030544832 0.05377825 -2.3697424 -0.563632
1.3675151 -1.2727035 -1.2915043 -1.202541 -1.386163 0.048246313 -2.3332791 1.6760801
-0.047741517 -2.2859294 11.345856 -0.02868407 -0.026016746 -0.5901031 -1.3773719 0.0012854256
00000000: bb39 b53f 6c50 6ac0 32cd ecbf fa58 64bc
00000010: 32ce a3bf 50d7 c9be 33c6 b33f c38b a440
00000020: f144 6a3c 1fcb da3d 9c50 b0bc 8278 1b3d
00000030: ecc6 cf3f 18f5 0f40 92c0 9d3f c622 b73f
00000040: 4cf8 453c 5062 843d e7ed 0d40 27a0 a03f
00000050: fbc9 b240 c286 323d c951 41bd b4c4 8f3d
00000060: f750 9b3f e6d4 ab3b dc2a 8440 e7f9 dcbf
00000070: bc40 b2be 7e82 33bd 114a c0bc 4f3b 0e40
00000080: 2c79 ae3f ec0a 08bf 3ae4 3f3d 21f8 4ec0
00000090: 1d39 1940 167d a03f f32b 09c0 a55b fdba
000000a0: c28c bb3f 4de5 a83f 3b11 e63f 27dc 1e40
000000b0: b163 a63f a876 323d 4aad b73f d251 c53c
000000c0: 4768 41bd e920 b43f ab1c 9e40 32a7 1e40
000000d0: 67ec c03f 6fe2 2c3c 0848 633d 4d38 9340
000000e0: ddce 263c a88c 4a3c 5c93 6e40 957f aa3f
000000f0: ed66 0840 3203 9640 812a 2ac1 1078 d9bf
00000100: f977 9640 0c1c edbf 61ff 5140 3f95 84c0
00000110: c08b c1bc d219 8040 4a78 b63f cd19 0f40
00000120: bee9 aa3f b412 fd3a d8b4 8840 cc50 ba3d
00000130: 2832 35c0 76f5 d8bf ae0d fd3f 495d 1a40
00000140: c129 48bd 1203 883d f8c0 623e 6bb5 0140
00000150: c1ef a53a 86f3 a23f d80b 09c0 5216 e63f
00000160: f06b e0bc c69c 5940 26b1 3fc0 61d4 9a3d
00000170: 48e1 9d3f d011 053d 9b91 3540 f309 4640
00000180: 9e67 1040 a45b 5340 e7b7 ad3f 85af d63f
00000190: de85 ab3f ed15 7e3d 3bae 96bf c53b 893d
000001a0: a66f 063d e1d4 70bd 1db4 973e f0b4 aa3f
000001b0: 4103 47bd 0b65 743b 6209 1a40 3ab0 0f3f
000001c0: 8ccc b1bf 6d12 a33f 29d4 ae3f f7d6 9e3f
000001d0: 58c5 b63f 1c27 a5bd 7adc 1240 ed33 d9bf
000001e0: bcdc 46bd 5119 1340 5887 35c1 b49e 93bd
000001f0: f402 783d 87b3 253f 51ec be3f 61a6 48bd
00000200: 3df7 a7bf fc5f 6840 ec03 e73f 6c85 273c
00000210: f4e1 9c3f 1853 873e 25db b8bf b622 a1c0
00000220: 6523 2a3d de13 cebc 7cdf 8d3c ac9c 87bd
00000230: ba81 c6bf 047a 11c0 f2a6 9dbf 04db abbf
00000240: 6022 45bd 96f9 cc3c 6709 15c0 6bd4 b3bf
00000250: f4db b2c0 52e1 693d e12e 1dbd 03a5 46bb
00000260: 3b7e a7bf c039 35bd b00f 85c0 cb39 dd3f
00000270: 94cc b53e a285 c03c 974d b1bd 23a3 0ec0
00000280: 7eba b3bf 8160 ed3e 754f d8bc d326 5140
00000290: fb48 17c0 009c a1bf 03fd 0540 0cdb 1c3d
000002a0: 62eb c3bf a1b0 acbf b92a f5bf cd20 15c0
000002b0: 6f57 b6bf 02fa de3c fef2 b9bf 6400 7f3d
000002c0: 2f9f 08bd 9140 babf 511a 9bc0 bf82 17c0
000002d0: c707 b9bf 759f 01be 0c2f 2c3d 1946 90c0
000002e0: 442a 583d b90e df3a 5cab 65c0 a7ec abbf
000002f0: 5170 04c0 b68e 96c0 b02d 2b41 0835 d83f
00000300: b823 93c0 5608 ec3f 5f8c 4bc0 cf97 8440
00000310: 509f 89bd f6f9 81c0 6463 a5bf d33a 0ec0
00000320: baa4 b4bf dab3 6e3b 2c7c 8bc0 319a a73a
00000330: 9f54 3040 9ab7 cf3f 7f2a 03c0 d357 1bc0
00000340: 3f5b 8cbd 5028 1b3d 4d13 82be 8372 00c0
00000350: da0a 843d fa4f a0bf c092 ff3f ce9e dcbf
00000360: 9859 26bc 281f 56c0 6cfc 3e40 14a3 0c3d
00000370: 9439 9cbf a143 563c b936 3ac0 4198 48c0
00000380: f2fb 09c0 48ee 5ac0 b35d aabf 71d8 d5bf
00000390: e42a b8bf 8a21 74bc 6135 833f 1d65 803d
000003a0: 371b 81bd 81c6 dbbc 91f5 e2be 8242 9bbf
000003b0: 2839 fa3c 9546 5c3d dca9 17c0 304a 10bf
000003c0: bc0a af3f f3e7 a2bf 0350 a5bf ddec 99bf
000003d0: ca6d b1bf ed9d 453d 7254 15c0 cb89 d63f
000003e0: 9c8c 43bd ab4c 12c0 a088 3541 dbfa eabc
000003f0: 1221 d5bc ff10 17bf b94d b0bf ba7b a83a

bias f4 [2]
12.0297165 -12.011642
00000000: b879 4041 b02f 40c1

exp_avg f4 [128, 11]
-1459.0603 -1327.5339 -81.19232 -4159.0957 -6170.3164 -187652.75 80117.94 -780634.1
-7211.8413 -38515.773 -6275.411 -9016.265 -1833.1365 535.7367 -9270.012 -35622.945
-436881.2 -4.7970155e+06 -1.1357331e+07 -29114.34 -1.6132255e+06 -16308.976 12320.268 -565.8186
-1888.9097 8777.525 19351.875 578419.0 6.653327e+06 2.9771e+06 18409.363 2.305639e+06
19285.45 -4345.3213 -1087.9951 212.26938 -4659.8843 -18907.676 -213634.9 -2.5739775e+06
-6.1302695e+06 -14983.796 -778647.7 -9295.445 -1715.5004 -459.60837 67.947235 -1695.5547
-8148.177 -83265.47 -1.2168895e+06 -2.5706508e+06 -6132.482 -324097.84 -3914.7583 -5306.7905
-197.87451 733.0046 -9251.723 -10916.02 11021.1875 -774201.06 1.011464e+07 -24905.723
-1.0252801e+06 -10613.908 -1242.8302 -256.8435 -86.44683 -2168.5056 -2246.369 -47314.5
1.1728239e+06 171276.67 -3565.307 126.15003 1440.0642 16835.812 2741.8508 -430.37665
18634.059 59820.19 555265.3 3.253306e+06 -605646.0 65346.16 2.6162528e+06 16701.34
-2885.6284 -646.52924 177.51535 -2935.769 -11892.24 -142064.34 -1.868743e+06 -3.7649552e+06
-9293.378 -522110.72 -6529.0054 4695.3013 1120.0961 -223.24982 3950.5615 23658.328
237806.78 2.9953448e+06 7.972449e+06 17827.21 934824.5 10569.298 -8329.101 -1916.619
506.561 -9027.334 -34220.67 -416580.38 -4.756499e+06 -1.1148577e+07 -27606.305 -1.477356e+06
-18102.447 0.0 0.0 0.0 0.0 0.0 0.0 0.0
0.0 0.0 0.0 0.0 -718.6167 -958.7996 -278.9829 -13.877544
-22780.904 -290321.4 732750.44 -1.3774751e+07 -10828.042 -84305.03 2192.7634 6083.855
1677.6978 -196.03036 5522.208 31660.158 299976.94 3.7610318e+06 1.0904098e+07 23899.324
1.1705769e+06 13666.426 4254.095 3254.475 -2253.9375 9870.629 68346.625 1.2861011e+06
1.18946e+06 1.4522462e+07 30943.055 1.6625239e+06 21599.977 0.0 0.0 0.0
0.0 0.0 0.0 0.0 0.0 0.0 0.0 0.0
0.0 0.0 0.0 0.0 0.0 0.0 0.0 0.0
0.0 0.0 0.0 -3673.569 -925.2466 216.50262 -4105.922 -15227.984
-182592.1 -2.822251e+06 -5.196324e+06 -12108.73 -658589.1 -7724.8535 0.0 0.0
0.0 0.0 0.0 0.0 0.0 0.0 0.0 0.0
0.0 6e-45 6e-45 0.0 0.0 6e-45 6e-45 6e-45
6e-45 6e-45 0.0 0.0 -5689.006 709.39685 1014.8861 -11511.658
9733.852 257515.62 -69922.31 3.3003248e+07 -23417.828 -837133.94 -13623.512 17883.645
2344.1597 -1403.6179 20775.371 60124.395 822817.06 6.4829405e+06 1.451779e+07 55709.734
3.0989652e+06 19952.67 -2822.221 -640.7609 161.72528 -2834.3916 -11864.072 -136970.9
-1.8121211e+06 -3.7543948e+06 -9210.154 -512708.38 -6224.788 -7889.4897 -1914.2404 446.17645
00000000: ee61 b6c4 16f1 a5c4 7862 a2c2 c4f8 81c5
00000010: 88d2 c0c5 3041 37c8 f87a 9c47 a295 3ec9
00000020: bb5e e1c5 c673 16c7 4a1b c4c5 0fe1 0cc6
00000030: 5e24 e5c4 26ef 0544 0cd8 10c6 f226 0bc7
00000040: 2652 d5c8 af64 92ca 934c 2dcb ae74 e3c6
00000050: 4ced c4c9 e7d3 7ec6 1281 4046 6474 0dc4
00000060: 1c1d ecc4 1a26 0946 c02f 9746 3037 0d49
00000070: 1e0b cb4a 30b5 354a bad2 8f46 9cb9 0c4a
00000080: e6aa 9646 92ca 87c5 d8ff 87c4 f644 5443
00000090: 139f 91c5 5ab7 93c6 baa0 50c8 661a 1dca
000000a0: bb14 bbca 2f1f 6ac6 7b19 3ec9 c83d 11c6
000000b0: 0370 d6c4 dfcd e5c3 fce4 8742 c0f1 d3c4
000000c0: 6aa1 fec5 bca0 a2c7 cc8b 94c9 6be6 1cca
000000d0: dba3 bfc5 3b40 9ec8 22ac 74c5 53d6 a5c5
000000e0: e0df 45c3 4b40 3744 e48e 10c6 1490 2ac6
000000f0: c034 2c46 9103 3dc9 5056 1a4b 7293 c2c6
00000100: 0250 7ac9 a2d7 25c6 915a 9bc4 f86b 80c3
00000110: c7e4 acc2 1788 07c5 e765 0cc5 80d2 38c7
00000120: bf2a 8f49 2b43 2748 e9d4 5ec5 d14c fc42
00000130: 0e02 b444 a087 8346 9d5d 2b45 3630 d7c3
00000140: 1e94 9146 31ac 6947 1590 0749 e890 464a
00000150: e0dc 13c9 2942 7f47 f3ae 1f4a ae7a 8246
00000160: 0e5a 34c5 dfa1 21c4 ee83 3143 4e7c 37c5
00000170: f6d0 39c6 16bc 0ac8 381e e4c9 6dcb 65ca
00000180: 8335 11c6 d7ef fec8 0b08 ccc5 69ba 9245
00000190: 1303 8c44 f43f 5fc3 fce8 7645 a8d4 b846
000001a0: b23b 6848 43d2 364a c24c f34a 6c46 8b46
000001b0: 883a 6449 3125 2546 6724 02c6 cf93 efc4
000001c0: cf47 fd43 560d 0dc6 acac 05c7 8c68 cbc8
000001d0: 2628 91ca 211d 2acb 9cac d7c6 6057 b4c9
000001e0: e56c 8dc6 0000 0000 0000 0000 0000 0000
000001f0: 0000 0000 0000 0000 0000 0000 0000 0000
00000200: 0000 0000 0000 0000 0000 0000 0000 0000
00000210: 78a7 33c4 2db3 6fc4 d07d 8bc3 6c0a 5ec1
00000220: cff9 b1c6 2dc2 8dc8 e7e4 3249 9f2f 52cb
00000230: 2b30 29c6 84a8 a4c7 370c 0945 d71e be45
00000240: 54b6 d144 c607 44c3 aa91 ac45 5158 f746
00000250: 1e79 9248 1f8e 654a 2262 264b a6b6 ba46
00000260: 87e4 8e49 b489 5546 c3f0 8445 9a67 4b45
00000270: 00df 0cc5 843a 1a46 507d 8547 a9fe 9c49
00000280: a032 9149 5e98 5d4b 1cbe f146 dff1 ca49
00000290: f4bf a846 0000 0000 0000 0000 0000 0000
000002a0: 0000 0000 0000 0000 0000 0000 0000 0000
000002b0: 0000 0000 0000 0000 0000 0000 0000 0000
000002c0: 0000 0000 0000 0000 0000 0000 0000 0000
000002d0: 0000 0000 0000 0000 0000 0000 0000 0000
000002e0: 0000 0000 0000 0000 0000 0000 1b99 65c5
000002f0: c84f 67c4 ac80 5843 604f 80c5 f0ef 6dc6
00000300: 0650 32c8 ac41 2cca 4894 9eca ec32 3dc6
00000310: d2c9 20c9 d466 f1c5 0000 0000 0000 0000
00000320: 0000 0000 0000 0000 0000 0000 0000 0000
00000330: 0000 0000 0000 0000 0000 0000 0000 0000
00000340: 0000 0000 0400 0000 0400 0000 0000 0000
00000350: 0000 0000 0400 0000 0400 0000 0400 0000
00000360: 0400 0000 0400 0000 0000 0000 0000 0000
00000370: 0cc8 b1c5 6659 3144 b6b8 7d44 a2de 33c6
00000380: 6817 1846 e87a 7b48 2891 88c7 78cb fb4b
00000390: a8f3 b6c6 df60 4cc9 0cde 54c6 4ab7 8b46
000003a0: 8e82 1245 c673 afc4 be4e a246 65dc 6a47
000003b0: 11e2 4849 f9d7 c54a 1e86 5d4b bc9d 5947
000003c0: 5525 3d4a 57e1 9b46 8963 30c5 b330 20c4
000003d0: acb9 2143 4426 31c5 4a60 39c6 bac2 05c8
000003e0: c934 ddc9 6b26 65ca 9ee8 0fc6 8c58 fac8
000003f0: 4e86 c2c5 eb8b f6c5 b147 efc4 9616 df43

exp_avg_sq f4 [128, 11]
2.7474128e+08 7.493732e+07 5.969439e+07 5.076442e+08 8.643627e+09 1.7369796e+12 2.878647e+14 1.306761e+15
2.2531356e+09 5.4061055e+12 7.162535e+08 2.7076581e+10 2.0756378e+09 1.3376457e+08 3.3583875e+09 1.9985437e+12
3.0469303e+14 3.6345876e+15 5.4226896e+17 4.0290625e+11 5.4703596e+14 2.0996002e+10 1.027255e+11 8.879641e+09
1.1828707e+09 2.3347038e+10 7.3733363e+12 1.1366305e+15 1.5431961e+16 2.0242816e+18 1.527506e+12 2.026731e+15
1.1308534e+11 5.728438e+09 4.43914e+08 2.4809848e+07 7.317589e+08 4.241765e+11 6.467002e+13 9.296926e+14
1.1563079e+17 8.612604e+10 1.1561461e+14 4.414398e+09 9.4744275e+08 7.267224e+07 3.489181e+06 1.2388691e+08
6.987025e+10 1.0642743e+13 1.6652649e+14 1.8929325e+16 1.4081463e+10 1.90263e+13 6.983056e+08 2.5972374e+10
1.8004429e+09 1.410591e+08 1.4028696e+09 1.9322607e+12 2.9040603e+14 2.1321803e+14 5.238593e+17 3.9119117e+11
4.5837787e+14 1.9150692e+10 2.3521024e+08 4.172714e+07 2.670187e+07 5.0040653e+08 1.4626006e+09 3.1792942e+11
2.641673e+14 1.9466283e+14 3.8651462e+08 3.5258245e+10 6.6491596e+07 6.8160193e+10 4.387762e+09 1.2387446e+08
2.9756308e+09 5.043507e+12 7.577933e+14 6.546867e+14 1.3403274e+18 9.9441246e+11 1.2349866e+15 4.193984e+10
2.8145528e+09 2.2422075e+08 1.4559204e+07 4.111888e+08 2.0856175e+11 3.187177e+13 4.8337904e+14 5.711953e+16
4.279131e+10 5.6879565e+13 2.356639e+09 7.7577467e+09 5.7511034e+08 2.7915452e+07 7.6964186e+08 5.7286564e+11
8.703339e+13 1.0578918e+15 1.5477968e+17 1.14439774e+11 1.5652993e+14 5.403116e+09 2.2173606e+10 1.7531697e+09
1.1809489e+08 3.037488e+09 1.6437916e+12 2.5104161e+14 3.531883e+15 4.5002612e+17 3.3669903e+11 4.4866423e+14
1.822693e+10 0.0 0.0 0.0 0.0 0.0 0.0 0.0
0.0 0.0 0.0 0.0 2.8595334e+08 9.298233e+07 1.8633552e+07 6.561561e+08
2.7022582e+10 3.9932907e+12 5.7248773e+14 1.5860097e+16 7.717441e+09 5.209127e+11 1.1261275e+09 1.1008345e+10
8.0439123e+08 3.051687e+07 9.833857e+08 8.147068e+11 1.23594135e+14 1.5351098e+15 2.2021476e+17 1.6225254e+11
2.2229256e+14 7.2100536e+09 5.3687286e+09 1.608557e+09 1.241882e+09 1.2383669e+10 1.5193845e+11 3.6730917e+13
7.327694e+15 1.0083657e+16 5.4413017e+10 3.648223e+13 1.8689317e+10 0.0 0.0 0.0
0.0 0.0 0.0 0.0 0.0 0.0 0.0 0.0
0.0 0.0 0.0 0.0 0.0 0.0 0.0 0.0
0.0 0.0 0.0 4.376359e+09 3.3984864e+08 2.2009862e+07 5.566345e+08 3.2536435e+11
4.9632432e+13 4.7925403e+14 8.895902e+16 6.6353332e+10 8.8698985e+13 3.5508413e+09 0.0 0.0
0.0 0.0 0.0 0.0 0.0 0.0 0.0 0.0
0.0 7e-43 7e-43 0.0 0.0 7e-43 7e-43 7e-43
7e-43 7e-43 0.0 0.0 4.4428104e+10 3.044959e+09 2.661728e+08 2.6782956e+09
3.2510588e+12 4.9243595e+14 2.826145e+14 8.756502e+17 6.507602e+11 7.093658e+14 3.0018111e+10 1.0723923e+11
7.72293e+09 5.2626013e+08 9.761692e+09 7.8928607e+12 1.2003018e+15 4.5840766e+15 2.1261168e+18 1.5692943e+12
2.1476293e+15 8.108679e+10 2.6476692e+09 2.0857589e+08 1.2743241e+07 3.67475e+08 1.9623913e+11 2.9957198e+13
4.403326e+14 5.3676994e+16 4.0077337e+10 5.3418022e+13 2.1417361e+09 1.8995657e+10 1.4913037e+09 9.7133944e+07
00000000: c101 834d 7dee 8e4c 4eb7 634c 4910 f24d
00000010: d2cc 0050 0736 ca53 dde7 8257 c08f 9458
00000020: 1f4c 064f a056 9d54 a5c4 2a4e 7bbc c950
00000030: 706f f74e bb22 ff4c ed2c 484f 3ea9 e853
00000040: f08e 8a57 369a 4e59 d8d0 f05c 2b9e bb52
00000050: 5ec3 f857 b26e 9c50 5657 bf51 2451 0450
00000060: 5902 8d4e f1f2 ad50 a397 d654 4d38 8158
00000070: 264d 5b5a 8bbd e05d 3ad3 b153 a369 e658
00000080: 4ba3 d251 83b8 aa4f b8ac d34d bc48 bd4b
00000090: 0577 2e4e c785 c552 a644 6b56 3b63 5358
000000a0: cc66 cd5b 196c a051 404d d256 2f8f 834f
000000b0: 51e3 614e 7e9c 8a4c 74f6 544a a84b ec4c
000000c0: bb24 8251 4fdf 1a55 7874 1757 3e80 865a
000000d0: 85d4 5150 3f6f 8a55 317d 264e 5f82 c150
000000e0: 28a1 d64e 4286 064d 2f3c a74e dbf1 e053
000000f0: b60f 8457 b1eb 4157 e8a3 e85c 9f29 b652
00000100: 3572 d057 0caf 8e50 6050 604d 292d 1f4c
00000110: 17b8 cb4b c89c ee4d 075b ae4e 240c 9452
00000120: 3e42 7057 790b 3157 f64d b84d e258 0351
00000130: 33a5 7d4c a0ea 7d51 f8c3 824f 9445 ec4c
00000140: 865c 314f 0ec9 9254 604d 2c58 c8db 1458
00000150: 65ce 945d 9a87 6753 d766 8c58 f33c 1c51
00000160: abc2 274f 65d5 554d e427 5e4b f211 c44d
00000170: ff3c 4252 cce5 e755 bad0 db57 e9ed 4a5b
00000180: f968 1f51 39ed 4e56 7577 0c4f e932 e74f
00000190: f31d 094e 5efa d44b 367f 374e 7461 0553
000001a0: 1550 9e56 6889 7058 d378 095c 2329 d551
000001b0: f75c 0e57 8106 a14f cc34 a550 7efe d04e
000001c0: 853f e14c 640c 354f cf5c bf53 2e52 6457
000001d0: a9c3 4859 0cda c75c a7c9 9c52 6407 cc57
000001e0: 1ccd 8750 0000 0000 0000 0000 0000 0000
000001f0: 0000 0000 0000 0000 0000 0000 0000 0000
00000200: 0000 0000 0000 0000 0000 0000 0000 0000
00000210: 6a5a 884d 8759 b14c a829 8e4b 9770 1c4e
00000220: 7c55 c950 ab70 6854 2c2b 0258 b262 615a
00000230: 67ff e54f a291 f252 af3e 864e 8109 2450
00000240: 25c8 3f4e 43d3 e84b 1a75 6a4e 4fb0 3d53
00000250: 01d1 e056 9385 ae58 0a97 435c 051c 1752
00000260: 852c 4a57 58e0 d64f 2600 a04f 44c1 bf4e
00000270: 3b0b 944e f387 3850 f380 0d52 55a0 0556
00000280: fe43 d059 214c 0f5a 4cb4 4a51 b9b8 0456
00000290: 0b3f 8b50 0000 0000 0000 0000 0000 0000
000002a0: 0000 0000 0000 0000 0000 0000 0000 0000
000002b0: 0000 0000 0000 0000 0000 0000 0000 0000
000002c0: 0000 0000 0000 0000 0000 0000 0000 0000
000002d0: 0000 0000 0000 0000 0000 0000 0000 0000
000002e0: 0000 0000 0000 0000 0000 0000 f86c 824f
000002f0: 6e0d a24d 03ec a74b 46b6 044e 7482 9752
00000300: ce8f 3456 83f0 d957 e105 9e5b 782f 7751
00000310: af57 a156 8aa5 534f 0000 0000 0000 0000
00000320: 0000 0000 0000 0000 0000 0000 0000 0000
00000330: 0000 0000 0000 0000 0000 0000 0000 0000
00000340: 0000 0000 f401 0000 f401 0000 0000 0000
00000350: 0000 0000 f401 0000 f401 0000 f401 0000
00000360: f401 0000 f401 0000 0000 0000 0000 0000
00000370: f181 2551 637e 354f 98d7 7d4d 8ca3 1f4f
00000380: 8d3c 3d54 17ef df57 a884 8057 f36e 425d
00000390: 5584 1753 864a 2158 01a7 df50 a6bf c751
000003a0: 4829 e64f bdf0 fa4d e675 1150 65b6 e554
000003b0: 6175 8858 8c49 8259 e00b ec5d 9db0 b653
000003c0: 3d28 f458 3209 9751 3ad0 1d4f d9e9 464d
000003d0: 4972 424b ca39 af4d 0ec3 3652 a1f7 d955
000003e0: 763d c857 f1b2 3e5b ba4c 1551 6955 4256
000003f0: 9950 ff4e 5787 8d50 fac6 b14e af44 b94c

exp_avg f4 [128]
-10410.607 -44357.234 26240.453 -23355.299 -9775.785 -19434.762 -4501.321 78023.805
-14650.5 27385.645 -42741.445 0.0 -23073.768 36986.32 75963.33 0.0
0.0 -19117.406 0.0 6e-45 -762.8711 79496.17 -14536.74 -41310.12
26870.39 3520.9375 -98571.39 -15859.0 18766.934 -12616.866 34432.11 21000.445
-22251.85 -106263.516 25187.234 11789.6875 2503.7969 70886.99 -20795.008 72248.23
6878.959 -20899.223 -19617.87 63290.08 0.0 -16938.074 38666.605 -24636.057
0.0 -33457.773 -12033.3955 -14518.115 -14273.4375 32079.664 -22030.54 -30479.713
-12776.534 0.0 -5321.367 -18335.98 40234.668 -2207.004 6e-45 -20046.062
18827.21 36594.242 42199.75 -20300.977 38298.2 -62931.227 -1232.9723 -24053.854
-22573.334 -20219.809 63241.984 -19239.012 0.0 24979.643 -36259.73 -17325.19
-1307.1763 0.0 -62370.004 12763.645 -17272.902 0.0 0.0 35845.36
25180.547 0.0 28100.234 0.0 -30288.723 27925.295 -17361.39 0.0
-26978.195 -11182.488 -24224.531 66318.51 23876.756 42723.727 23630.5 2148.3433
0.0 97299.98 476.4343 -14971.177 -44285.32 30978.768 -8991.9375 14380.557
-64972.707 6e-45 -4833.2734 -19750.852 -41665.715 0.0 -4142.8467 9802.523
0.0 0.0 0.0 -20271.348 28953.797 -2246.0317 56280.367 -78593.04
00000000: 6eaa 22c6 3c45 2dc7 e800 cd46 9976 b6c6
00000010: 24bf 18c6 86d5 97c6 91aa 8cc5 e763 9847
00000020: 00ea 64c6 4af3 d546 72f5 26c7 0000 0000
00000030: 8943 b4c6 527a 1047 aa5d 9447 0000 0000
00000040: 0000 0000 d05a 95c6 0000 0000 0400 0000
00000050: c0b7 3ec4 1644 9b47 f622 63c6 1f5e 21c7
00000060: c8ec d146 000f 5c45 b285 c0c7 00cc 77c6
00000070: de9d 9246 7723 45c6 1c80 0647 e410 a446
00000080: b3d7 adc6 c28b cfc7 78c6 c446 c036 3846
00000090: c07c 1c45 7f73 8a47 0476 a2c6 1d1c 8d47
000000a0: acf7 d645 7246 a3c6 bd43 99c6 143a 7747
000000b0: 0000 0000 2654 84c6 9b0a 1747 1d78 c0c6
000000c0: 0000 0000 c6b1 02c7 9505 3cc6 76d8 62c6
000000d0: c005 5fc6 549f fa46 141d acc6 6d1f eec6
000000e0: 23a2 47c6 0000 0000 f04a a6c5 f63f 8fc6
000000f0: ab2a 1d47 10f0 09c5 0400 0000 209c 9cc6
00000100: 6c16 9346 3ef2 0e47 c0d7 2447 f499 9ec6
00000110: 339a 1547 3ad3 75c7 1d1f 9ac4 b5eb bbc6
00000120: ab5a b0c6 9ef7 9dc6 fc09 7747 064e 96c6
00000130: 0000 0000 4927 c346 bba3 0dc7 615a 87c6
00000140: a465 a3c4 0000 0000 01a2 73c7 946e 4746
00000150: cef1 86c6 0000 0000 0000 0000 5c05 0c47
00000160: 18b9 c446 0000 0000 7888 db46 0000 0000
00000170: 72a1 ecc6 972a da46 c8a2 87c6 0000 0000
00000180: 64c4 d2c6 f4b9 2ec6 1041 bdc6 4187 8147
00000190: 8389 ba46 bae3 2647 009d b846 7e45 0645
000001a0: 0000 0000 fd09 be47 9737 ee43 b5ec 69c6
000001b0: 52fd 2cc7 8905 f246 c07f 0cc6 3ab2 6046
000001c0: b5cc 7dc7 0400 0000 300a 97c5 b44d 9ac6
000001d0: b7c1 22c7 0000 0000 c676 81c5 182a 1946
000001e0: 0000 0000 0000 0000 0000 0000 b25e 9ec6
000001f0: 9833 e246 8260 0cc5 5ed8 5b47 8580 99c7

exp_avg_sq f4 [128]
9.6236e+09 2.0455507e+12 7.564871e+12 4.3444614e+11 7.154815e+10 1.9693154e+12 2.1104804e+09 5.130285e+12
2.1370262e+11 5.857705e+11 1.6840668e+12 0.0 3.0029275e+10 8.328974e+11 1.7002694e+11 0.0
0.0 3.329787e+11 0.0 7e-43 3.315774e+12 8.055726e+12 2.0102907e+11 1.4418212e+12
1.6206603e+13 1.558117e+12 6.413525e+12 2.1890715e+11 7.2574376e+11 1.9767063e+11 1.4695712e+13 1.3898829e+11
3.6233393e+11 5.1073945e+12 3.6960383e+10 4.0768307e+12 3.5670862e+12 2.8526746e+12 4.448537e+11 5.0200497e+12
5.3194156e+11 2.520762e+09 6.3156453e+10 3.2465774e+12 0.0 2.5894381e+11 7.26856e+12 5.251205e+10
0.0 8.5925056e+11 1.6061194e+11 1.105119e+12 1.9831398e+11 5.8300794e+12 4.3805455e+11 6.966289e+11
1.5165786e+11 0.0 1.5438685e+10 3.8102758e+11 6.651535e+11 1.0409497e+09 7e-43 3.8902383e+11
9.029762e+11 1.418128e+13 8.818448e+12 4.3245856e+11 2.7557534e+11 3.3294147e+12 1.29280536e+08 5.7569824e+11
4.665498e+11 3.491406e+11 2.9934968e+12 2.6042471e+11 0.0 5.612043e+11 1.06201416e+12 2.797163e+11
6.3904124e+07 0.0 2.8497506e+12 7.373014e+11 3.4594127e+09 0.0 0.0 9.110107e+12
7.1613237e+12 0.0 2.5884366e+12 0.0 2.0107626e+10 8.3522526e+11 3.0040028e+11 0.0
5.986152e+11 9.120075e+11 2.8599273e+12 3.388576e+12 1.2929209e+11 9.124432e+12 7.7142174e+12 9.3019034e+08
0.0 1.0211502e+13 4.3520557e+08 2.6651509e+11 1.5644449e+12 4.2510588e+11 4.1223806e+12 1.1869378e+12
3.4990457e+12 7e-43 1.0125987e+09 3.3111236e+12 1.6836493e+12 0.0 9.2066106e+08 6.0159395e+12
0.0 0.0 0.0 3.6227242e+11 5.3755925e+12 3.7039373e+08 5.17546e+12 4.6536427e+12
00000000: 1f67 0f50 2922 ee53 ae2a dc54 044e ca52
00000010: d144 8551 2c42 e553 c096 fb4e 9a4f 9554
00000020: ad06 4752 a462 0853 1a0d c453 0000 0000
00000030: 4cbc df50 8eec 4153 9559 1e52 0000 0000
00000040: 0000 0000 270e 9b52 0000 0000 f401 0000
00000050: e200 4154 d673 ea54 1139 3b52 9fd9 a753
00000060: 4dd6 6b55 8163 b553 7ca8 ba54 88df 4b52
00000070: b3f9 2853 5a18 3852 cbd9 5555 6471 0152
00000080: 92b9 a852 0ea5 9454 2bb0 0951 834d 6d54
00000090: baa1 4f54 2a0c 2654 b226 cf52 491a 9254
000000a0: 60b4 f752 c73f 164f b046 6b51 c6f9 3c54
000000b0: 0000 0000 0429 7152 fe8a d354 659f 4351
000000c0: 0000 0000 530f 4853 df94 1552 1da7 8053
000000d0: bdb1 3852 7aad a954 2cfc cb52 5132 2253
000000e0: 0d3e 0d52 0000 0000 e90d 6650 076e b152
000000f0: 3dde 1a53 872e 784e f401 0000 4127 b552
00000100: 933d 5253 635d 4e55 4753 0055 1461 c952
00000110: 2453 8052 25cc 4154 4395 f64c 4a0a 0653
00000120: 1241 d952 ce94 a252 943e 2e54 178a 7252
00000130: 0000 0000 62aa 0253 fa44 7753 c840 8252
00000140: 5fc6 734c 0000 0000 98e0 2554 97aa 2b53
00000150: 7332 4e4f 0000 0000 0000 0000 cb91 0455
00000160: 056c d054 0000 0000 b6aa 1654 0000 0000
00000170: 41d0 9550 4e77 4253 81e2 8b52 0000 0000
00000180: 3f60 0b53 e257 5453 3d78 2654 b83d 4554
00000190: 46d3 f051 28c7 0455 6683 e054 50c6 5d4e
000001a0: 0000 0000 cf98 1455 ae85 cf4d 2636 7852
000001b0: 1720 b653 92f4 c552 42f4 6f54 812d 8a53
000001c0: d8ab 4b54 f401 0000 1f6c 714e 96bb 4054
000001d0: a900 c453 0000 0000 b180 5b4e 3e16 af54
000001e0: 0000 0000 0000 0000 0000 0000 3db2 a852
000001f0: 4973 9c54 149e b04d 2fa0 9654 5770 8754
