models/maintainance_agent/2/D3QN_q_target.pth (torch, 77199 bytes, 7 tensors)

weight f4 [128, 11]
000000 ad 7a 9e 40 d7 34 f0 3f c5 19 bb c0 46 81 66 c0
       4.952475 1.8766125 -5.8468957 -3.6016402
000010 6d c9 c9 c0 97 ce 27 bf 8a a5 68 bd fd 2d 5d 3e
       -6.305838 -0.65549606 -0.056798495 0.21599574
000020 60 58 23 41 8b 58 14 3f 73 b1 9f 40 26 cb 5c 40
       10.209076 0.57947606 4.9904113 3.4498992
000030 9d de c7 3f 19 35 dc bf ed dd d9 3f d9 19 8f c0
       1.5614811 -1.7203704 1.7020851 -4.471905
000040 aa b3 62 c0 a2 ac 59 c0 ae 35 0e 3d 2c 58 b6 bf
       -3.5422158 -3.4011617 0.03471916 -1.4245658
000050 ba e4 52 c0 a3 59 3f bf 04 cb 82 c0 9f 26 dd bf
       -3.2952104 -0.7474615 -4.087282 -1.7277411
000060 8e 94 d0 40 d7 1b 5c be 6e d7 12 41 81 5a 3a 3f
       6.518134 -0.21494995 9.177595 0.7279435
000070 61 d2 a6 3c ac 35 f2 3c ce 63 0b c1 a6 08 d2 bd
       0.020363988 0.029566608 -8.711866 -0.10255556
000080 12 5f 58 c0 04 6e e4 c0 a9 6f 67 c0 a3 7b 5a 40
       -3.3808026 -7.1384296 -3.6161902 3.4137962
000090 49 1e 9d 40 e2 70 bf 40 36 c6 0c 3f 21 9e 3b bd
       4.909947 5.9825296 0.54989946 -0.0458051
0000a0 86 cf f6 3e 06 8c 2e c1 99 b6 00 bd c8 ac 83 c0
       0.48205203 -10.909185 -0.03142414 -4.1148415
0000b0 49 b9 d1 c0 1f f9 80 c0 0b 62 4b 40 fa 2b 92 40
       -6.553868 -4.0304103 3.177859 4.567868
0000c0 36 01 c6 40 12 82 01 3f 53 8a c0 bc b1 1b d4 3e
       6.187648 0.50589097 -0.023503458 0.41427377
0000d0 94 e0 34 c1 dc d2 ff 3d ae c9 8e c0 12 38 89 41
       -11.304829 0.1249139 -4.462119 17.152378
0000e0 f1 1d 49 c0 4d a4 0f bf 47 0b 27 c1 05 84 e9 40
       -3.1424525 -0.5611008 -10.440253 7.2973657
0000f0 fe eb 96 bf 40 12 c6 3d ee 38 e5 39 5c 5b 8c c0
       -1.1790769 0.0967145 0.000437207 -4.3861523
000100 4f cf 93 bf 06 80 80 40 7b f2 69 40 3a 30 dc 3e
       -1.154764 4.015628 3.6554248 0.43005544
000110 e7 dc 0b c1 c9 2f 70 c0 e3 72 f5 c0 bf 55 4f bf
       -8.741431 -3.7529166 -7.6702743 -0.80990213
000120 43 03 ee 3e 5d 86 59 3e d1 31 02 41 2f 03 8d 3e
       0.46486863 0.21242662 8.137162 0.2754149
000130 98 1a 4b 41 48 36 22 c0 e1 d6 ea c0 8d 2c 70 c0
       12.693993 -2.534563 -7.3387303 -3.7527192
000140 2b 83 d7 40 dd a2 48 c1 62 26 9d bf b2 97 10 b9
       6.7347617 -12.539762 -1.2277339 -0.00013789421
000150 39 fb 06 3d 75 a0 5a c1 f6 34 40 be 0b 45 2e 41
       0.03295443 -13.664174 -0.18770203 10.891856
000160 42 c0 a7 40 d6 39 92 3f 86 95 e4 c0 f0 7e 8f c0
       5.242219 1.14239 -7.1432524 -4.4842453
000170 4a 3a d8 c0 ee 2b ac be 98 8b 44 3b 55 2b 38 3e
       -6.7571154 -0.33627266 0.002999043 0.1798528
000180 b3 b9 1c 41 2e d1 61 3e 51 f4 ac 40 70 13 7f 40
       9.795337 0.22052452 5.404824 3.9855614
000190 43 51 ea be 20 a2 18 c1 76 37 86 c0 aa 5d fb c0
       -0.45765123 -9.539581 -4.19427 -7.8551836
0001a0 e3 a3 43 bf 18 a2 8d 3d 9f 86 8a 3e 7a c8 0a 41
       -0.76421946 0.069156826 0.27055833 8.673944
0001b0 76 98 44 3e c2 f3 08 41 6d a1 10 3e e0 5c b0 bd
       0.19198784 8.559511 0.14124079 -0.086114645
0001c0 b8 6c 68 3e 82 ab 64 3e 4e 66 46 3e 12 83 52 be
       0.22697723 0.2233105 0.19374964 -0.20557812
0001d0 1d dd 0b bc 0f 06 00 bd d6 c4 11 bd fc 3d 53 be
       -0.008536604 -0.031255778 -0.035588108 -0.20629114
0001e0 2a 6f 86 bd d1 6e 19 41 7c 65 6a 3f cd dc 94 bf
       -0.065641716 9.589555 0.915611 -1.1629883
0001f0 4a a3 05 c1 45 31 88 40 7d 0c 1c c0 10 e2 ea 3d
       -8.3523655 4.2560143 -2.4382622 0.11468899
000200 1e a8 f8 3c c5 73 98 40 89 7c 8c bf 3f fb 73 be
       0.030353602 4.764132 -1.0975505 -0.23826312
000210 56 0b 5a 41 6b f4 ff 3f ff be fa 3e 83 0b 4d bf
       13.627768 1.9996465 0.48973843 -0.8009569
000220 a0 24 0e c1 8c 24 ba 40 9a 15 ee 3d e8 46 db bc
       -8.883942 5.8169613 0.11625214 -0.02676721
000230 4b db fc 3f 72 8b c8 be 2d c7 ff c0 fb 87 8b 40
       1.9754423 -0.39168888 -7.9930634 4.360349
000240 eb 18 99 3f 08 a8 b7 c0 c8 b7 77 c0 54 1c d6 c0
       1.1960729 -5.7392616 -3.870592 -6.690958
000250 29 b2 43 bf 2f 8d 8a be d8 2c a3 3e f2 68 1b 41
       -0.76443726 -0.2706084 0.3187015 9.713121
000260 ff 1c 94 3e 68 86 c1 40 6e 65 f0 40 41 7c c3 40
       0.28928372 6.047657 7.5123816 6.1089177
000270 3a dd 11 c0 00 8e 6c c0 5c 84 e9 bf 87 11 8e 3f
       -2.2791276 -3.696167 -1.8243518 1.1099099
000280 75 4a c2 3d cd 27 60 3c 1f 64 f5 40 82 e5 52 3d
       0.09486858 0.013681364 7.668472 0.051488407
000290 5a 8c cf c0 42 6f c0 c0 cb 64 54 c0 6a 5b 7c 40
       -6.4858828 -6.0135813 -3.318652 3.9430795
0002a0 6e 79 94 40 85 0a c6 40 5a 79 ff 3e ee 13 4c bc
       4.639823 6.188784 0.4989727 -0.0124559235
0002b0 7a 15 64 3e 9a c4 27 c1 aa 4f e3 3e 38 29 a7 c0
       0.22273818 -10.485498 0.44396716 -5.2237816
0002c0 e9 1e c3 c0 93 3d 4d c0 20 ed 80 40 1e b4 80 40
       -6.097523 -3.2068832 4.028946 4.021987
0002d0 0a a6 d7 40 3c ee f8 3e e9 87 08 bf b3 2c bb 3e
       6.7390184 0.48619258 -0.5333238 0.3655754
0002e0 0c ec 24 c1 a7 4c f7 3d b5 d8 ba c0 c4 61 bd c0
       -10.307629 0.12075167 -5.8389535 -5.9181843
0002f0 41 d8 18 c0 a1 d2 8f 40 2d bb 98 40 48 f2 ce 40
       -2.388199 4.4944615 4.7728486 6.4670753
000300 08 30 57 3f b8 e6 d0 bc d6 c3 93 3e a1 f2 24 c1
       0.84057665 -0.02550064 0.28860348 -10.309236
000310 07 02 03 3e 5f 64 ab c0 bd 1c 6a 40 a7 d9 5c be
       0.12793742 -5.3560023 3.658004 -0.21567403
000320 fc 43 13 c1 31 6f 70 c0 e2 d4 f2 c0 8b 7f 55 bf
       -9.204098 -3.7567866 -7.5884867 -0.8339774
000330 5b 25 f1 3e 2c 5d 64 3e bc 8c 01 41 b4 39 84 3e
       0.47098812 0.22301167 8.096859 0.25825274
000340 bb e0 48 41 46 f7 6c c0 b1 51 5d 3f 1c a2 cc 40
       12.554866 -3.7025924 0.86452776 6.3947887
000350 c5 9b b5 40 82 df fa 40 cc 35 b2 3f 4a 9e 19 3d
       5.675265 7.8397837 1.3922668 0.03750447
000360 ed 5a 50 3b 6c cd 03 c1 be 3a 1e 3f 37 ad 94 c0
       0.0031792477 -8.237652 0.61808383 -4.6461444
000370 af c4 ab c0 a6 0b 04 c0 69 28 9a 40 ad 33 91 40
       -5.367759 -2.063211 4.817433 4.537558
000380 68 4b e3 40 c6 28 56 3f 12 e2 64 bc 28 15 d4 3d
       7.102955 0.83655965 -0.013969915 0.10355598
000390 11 7e 15 c1 fb 24 e1 3e 5d d2 d3 c0 28 ad 6d c0
       -9.343278 0.43973526 -6.619429 -3.7136936
0003a0 59 f5 77 3f 85 b1 ea 40 ac b5 c9 40 2e a3 e7 40
       0.96858746 7.33417 6.3034267 7.2386694
0003b0 94 d2 75 3f 52 09 98 3d 8b 27 5c 3c b8 32 ed c0
       0.9602444 0.07423653 0.013437162 -7.4124413
0003c0 ce c8 0a 3f 11 54 1a c1 47 a3 70 40 25 9d f7 bf
       0.54212654 -9.645524 3.7599657 -1.9344832
0003d0 01 01 33 c1 40 3a 8d c0 7c 0a f8 c0 c6 59 72 bf
       -11.187745 -4.4133606 -7.75128 -0.94668233
0003e0 a0 fd 16 3e 71 6b 8d 3e b2 5a 03 41 e5 ac 53 3e
       0.14745188 0.27621034 8.209642 0.20671423
0003f0 19 09 1b 41 73 79 c4 c0 6d 15 64 c0 bf a5 83 40
       9.689721 -6.1398253 -3.5638077 4.1139827

bias f4 [128]
000000 db c0 d6 c0 07 ff 32 c0 ab 73 f1 40 3f 1c d6 40
       -6.711042 -2.7968156 7.5453696 6.690948
000010 8f 68 c7 40 cf 7a 41 3f c3 9c d9 c0 7f bd 8b bf
       6.2315135 0.75578016 -6.800386 -1.0917205
000020 d2 d6 d3 c0 e4 2d e8 c0 3c ef fc bc 04 af b2 bf
       -6.619973 -7.255602 -0.030875795 -1.395966
000030 bd 3a 00 c0 ac ef e1 c0 bd 50 56 c0 c0 38 ce 40
       -2.003585 -7.060507 -3.3486779 6.4444275
000040 c7 4e d9 40 fc 05 d8 40 a0 58 e2 c0 ef 06 01 41
       6.7908664 6.7507305 -7.0733185 8.064193
000050 d9 aa e1 40 66 f1 fc 40 74 35 ed c0 33 e2 cd 40
       7.0521054 7.9044676 -7.412775 6.433862
000060 96 f7 73 be 4a b5 56 be d5 62 14 3f 6c d2 cf 40
       -0.23824915 -0.20967594 0.57963306 6.4944363
000070 88 73 e0 c0 f6 cd d1 40 b5 10 ca 40 01 1d 2e c0
       -7.014103 6.5563917 6.3145394 -2.7205203
000080 79 a1 bd 40 48 d0 64 c0 b8 34 d6 40 16 d1 fb bd
       5.925961 -3.5752125 6.6939354 -0.12295739
000090 db ba 10 41 7f 14 ee 40 96 95 b9 40 06 07 47 40
       9.045619 7.440002 5.79951 3.1098037
0000a0 9d b4 ab c0 ac 03 2b 40 90 6f 12 41 d4 2a ea 40
       -5.3657975 2.672099 9.152237 7.317728
0000b0 ba 35 6f be 51 90 b9 40 30 b2 d8 c0 c5 49 00 41
       -0.23360339 5.7988667 -6.7717514 8.01801
0000c0 fc 00 e4 40 79 1c c0 40 14 10 f8 40 5d 78 0c be
       7.12512 6.0034757 7.7519627 -0.1371779
0000d0 e1 d5 dc c0 08 c3 d7 40 86 86 2a c0 55 05 0a 41
       -6.9011083 6.7425575 -2.6644607 8.626302
0000e0 fc fc d5 40 f8 9d d7 c0 ff 23 21 be 02 c8 bc 40
       6.687132 -6.7380333 -0.15736388 5.899415
0000f0 45 35 e5 c0 b4 b9 c9 40 d1 f6 99 be 44 59 df c0
       -7.1627526 6.303919 -0.30071118 -6.9796467
000100 34 4d 64 c0 b1 b7 fe bf 31 ae 89 3e 30 09 c8 40
       -3.567212 -1.9899808 0.2689071 6.2511215
000110 f2 44 9c bf 99 e5 c9 bf 97 7a 0d bf 92 bf d5 40
       -1.220854 -1.5773193 -0.5526518 6.679635
000120 4e 06 d4 40 31 2b 8a bf fe 1e ea 3f d9 0f d6 40
       6.6257696 -1.0794431 1.8290708 6.6894345
000130 3b 81 ec c0 c0 a4 cd 40 19 52 b4 c0 99 54 8c c0
       -7.390775 6.426361 -5.6350217 -4.385327
000140 f4 c2 c7 40 5f 21 bf 40 4c 68 ce 40 1e 39 c7 40
       6.242548 5.9728236 6.4502316 6.2257223
000150 37 60 ba 40 d9 06 57 c0 c3 ab 7e c0 a8 dc d6 40
       5.824245 -3.359793 -3.9792335 6.7144356
000160 7f cc 0a 41 ea ca e3 40 1e 9c c4 40 7a e9 cf 40
       8.674926 7.11852 6.1440573 6.4972506
000170 5c 4c c8 40 fc e5 03 41 41 07 b5 bf 5a 71 d2 c0
       6.259321 8.243649 -1.4142839 -6.576337
000180 22 5e e6 c0 c6 4a 0a 3e 42 35 2a c0 13 ba a4 40
       -7.198991 0.13505086 -2.6595006 5.147714
000190 18 b7 3e c0 7f cc ac 40 6c b1 e2 40 e4 bb f1 c0
       -2.9799252 5.399963 7.084158 -7.554186
0001a0 a5 cb d6 40 5f 8c ce 40 ac 4c 1a c0 c1 54 0e 41
       6.712359 6.454635 -2.4109297 8.895692
0001b0 8d 94 35 c0 ca cc e9 c0 40 1a e4 40 a1 83 ba 3e
       -2.8371918 -7.3062487 7.1282043 0.3642855
0001c0 a9 1c da c0 81 a0 d9 c0 91 52 45 c0 40 52 b8 40
       -6.8159986 -6.800843 -3.0831645 5.7600403
0001d0 1f 54 c7 40 a0 65 23 c0 82 cf df c0 14 27 5c be
       6.2290187 -2.5530777 -6.9940805 -0.21499282
0001e0 26 b6 db 40 30 5d cb 40 b5 6e cf 40 ac 45 61 40
       6.865985 6.3551254 6.482264 3.5198774
0001f0 c8 65 d9 40 23 fd ca 40 d2 6d da 40 96 6f 10 41
       6.7936745 6.3434005 6.825906 9.027243

weight f4 [128, 128]
000000 7a 98 9c bf 69 b4 7b c0 6b 2b 5e 40 86 d9 eb 3e
       -1.2234032 -3.9328864 3.4714 0.46064395
000010 b1 56 df 3e 4d 35 8e bf f3 d1 ac be b4 fd 7d 3f
       0.43620828 -1.1110016 -0.3375393 0.99215245
000020 f6 93 47 bf 50 42 d9 be bf e1 2a bd f0 13 0b c0
       -0.77960145 -0.42433405 -0.041719195 -2.173092
000030 68 8a 13 bf ed 95 37 bf 84 df 6a c0 e4 01 40 3f
       -0.57633066 -0.71713144 -3.6698923 0.75002885
000040 51 6b 11 3f 03 bf e7 3e 9d c9 b4 be f6 b9 f2 3f
       0.56804377 0.45262918 -0.3531007 1.8963001
000050 22 83 9c 3f 83 3f 68 3f 59 eb dd be e1 d4 a9 3f
       1.2227519 0.9072191 -0.4334362 1.326809
000060 52 b7 69 bd cd 5e 08 bd e2 33 22 40 4e 5d f5 3e
       -0.057059593 -0.033293534 2.5344167 0.47922748
000070 ef 71 d1 be 33 bc 2a 3f 5f b5 4e 3f be 37 bd c0
       -0.40907237 0.6669342 0.807455 -5.9130545
000080 5b 71 d2 3e 20 1e f9 bf 0f 2b 09 3f ca 22 5d 3d
       0.41102108 -1.9462318 0.5358133 0.053988256
000090 1b 98 33 40 2c 98 b9 3f d1 c9 bf 3e 03 99 76 bf
       2.8061588 1.4499564 0.3745866 -0.9632723
0000a0 50 46 ea be 21 24 a2 be f1 3f de 3e 90 63 af 3f
       -0.4575677 -0.3166819 0.43408158 1.3702259
0000b0 70 ef 9d bc e8 db d6 3e de fc 53 bf d4 36 55 40
       -0.019279212 0.4196465 -0.8280772 3.3314714
0000c0 d4 03 19 3f e6 10 e0 3e 86 74 10 40 16 4a 3b 3d
       0.59771466 0.43762892 2.257112 0.04572495
0000d0 89 06 2a bf 9f 18 fb 3e 27 24 a3 3e a5 e9 61 40
       -0.6641622 0.49042222 0.3186352 3.5298855
0000e0 24 70 13 3f 45 b0 5e bf 21 83 4c 3d c6 6f eb 3e
       0.5759299 -0.86987716 0.04992974 0.45983714
0000f0 60 40 8b be 27 2d 74 3f 00 83 c9 bc 5a 85 d1 be
       -0.27197552 0.95381397 -0.024598598 -0.40922052
000100 1a 2d a9 c0 17 8d 83 c0 eb 88 ed bf 50 a3 e0 3e
       -5.2867556 -4.110973 -1.8557409 0.43874598
000110 8d a2 46 c0 cb d0 f9 bf 12 eb 2e c0 6a 62 17 3f
       -3.1036713 -1.9516844 -2.7330976 0.5913454
000120 86 bf 22 3f 75 3d 65 c0 8d 3d 8d be 6b a5 01 3f
       0.6357349 -3.581876 -0.27586022 0.5064303
000130 e7 e8 97 be 57 21 28 3f 9d c9 e2 bf 58 95 87 c0
       -0.29669878 0.6567587 -1.7717777 -4.2369804
000140 a1 0e 2b 3f 84 08 d9 3e 3b 31 0d 3f 18 c1 b5 3f
       0.66819197 0.4238931 0.55153245 1.4199553
000150 60 73 44 3f 50 8c ae c0 88 07 93 bf 22 3f 49 3f
       0.7673855 -5.454628 -1.1486673 0.7861196
000160 89 e6 a7 3f 4f 36 4b 3f 61 31 1c 3f d6 62 0e 3f
       1.3117229 0.79379743 0.61012846 0.5561956
000170 f8 d9 02 3f 37 87 00 40 cf f7 5e c0 20 ed 54 bf
       0.51113844 2.0082529 -3.483875 -0.83174324
000180 cc 64 b1 be de 03 5f bd 0d 66 ad c0 2f d2 c9 3e
       -0.34647214 -0.054447047 -5.4187074 0.3941817
000190 16 47 88 c0 ad 86 24 40 ea a6 bb 3f 62 dc f6 be
       -4.2586775 2.57072 1.4660313 -0.48215014
0001a0 5c 2f c9 3f 77 10 0d 3f e5 01 9f c0 51 fe a2 40
       1.5717578 0.5510325 -4.9689813 5.0935445
0001b0 68 86 96 c0 fd 54 e0 be ba 9b 7e 3f 67 36 cc c0
       -4.703907 -0.4381484 0.9945637 -6.381641
0001c0 06 93 94 bf 96 cb ce be dc ce a7 3e a5 21 b8 3e
       -1.1607368 -0.403897 0.3277501 0.3596317
0001d0 9f a4 fb 3e 05 07 8f c0 7f 20 1b bf 41 b4 97 3d
       0.49149033 -4.469607 -0.6059646 0.074074276
0001e0 29 f9 07 3f 24 22 00 3f c6 b8 cf 3e ca 81 6f 3f
       0.53114563 0.50052094 0.40570658 0.9355742
0001f0 5d 4c 19 3f d9 8e 00 3f d9 28 84 3f 06 28 27 40
       0.59882146 0.5021797 1.0324966 2.6118178
000200 39 d3 96 bf fa a1 60 c0 94 fa 78 40 c7 66 06 3f
       -1.178321 -3.5098863 3.890294 0.52500576
000210 79 df 15 3f da 14 9e bf 9a 8c b0 be 1d 64 4b 3f
       0.5854412 -1.2350113 -0.3448227 0.79449636
000220 6f 38 58 bf 0e 72 05 bf d7 d9 33 3d 2c 71 10 c0
       -0.8446111 -0.5212716 0.04390892 -2.2569075
000230 3a 9a 53 bf 99 a9 36 bf b8 b4 5a c0 6d 4b 3a 3f
       -0.82657206 -0.71352535 -3.4172802 0.7277134
000240 18 6f 0d 3f 25 7a 00 3f ab fd bc be 73 ab 09 40
       0.5524764 0.5018638 -0.36912283 2.1510894
000250 d7 0c a7 3f 89 8e 91 3f d2 a6 dd be 5c 13 98 3f
       1.3050793 1.1371623 -0.43291336 1.1880908
000260 fe 1e ed bc 60 9d 39 bb 27 06 16 40 1b d2 2b 3f
       -0.028945442 -0.0028322563 2.3441255 0.6711747
000270 e2 7e e6 be 55 c3 2d 3f 20 d5 53 3f 29 92 ac c0
       -0.4501868 0.6787618 0.8274708 -5.392842
000280 e5 c8 e0 3e 82 37 e2 bf 7d 95 f8 3e 08 2f 27 bd
       0.4390327 -1.767319 0.4855155 -0.040816337
000290 fc 53 5a 40 66 d3 54 3f 2e 3f fe 3e fb 14 ec 3d
       3.411376 0.8313507 0.49657577 0.11527439
0002a0 8a 24 00 bf 1c 9f f8 be b4 cd 99 3e 9d 24 c0 3f
       -0.50055754 -0.4855889 0.30039752 1.5011173
0002b0 22 a4 6d 3d b3 78 be 3e b3 31 5d bf c2 5e 66 40
       0.058017857 0.3720146 -0.8640396 3.5995336
0002c0 10 f7 1a 3f 5a a8 0d 3f 49 bd 25 40 26 21 1f bd
       0.6053324 0.5533501 2.589678 -0.038849972
0002d0 28 af 28 bf d1 ef fb 3e b1 8b 52 3e 71 5d 83 40
       -0.6589227 0.49206403 0.205611 4.1051564
0002e0 71 2d 1f 3f 1e 21 81 bf 8f 4a 38 bd cb 7f de 3e
       0.62178713 -1.0088232 -0.04499298 0.43456873
0002f0 1b 59 93 be 8e 75 8a 3f 35 eb 08 3c ee ab 02 bf
       -0.2877892 1.0817125 0.008356859 -0.51043594
000300 13 95 99 c0 09 77 69 c0 61 31 c2 bf 0a 86 19 3f
       -4.7994475 -3.6478903 -1.5171319 0.5997015
000310 5d 16 28 c0 23 5a f0 bf a4 f5 17 c0 03 c8 14 3f
       -2.626365 -1.8777508 -2.3743677 0.58117694
000320 5f 0b 39 3f f3 68 4d c0 ff bb c3 be 14 97 f9 3e
       0.72282976 -3.2095306 -0.38229367 0.48748076
000330 56 9c 8e be 22 66 2d 3f 59 b3 de bf 28 dd 80 c0
       -0.2785365 0.6773397 -1.7398483 -4.0269966
000340 a0 1e 2e 3f 21 67 cd 3e 63 69 0a 3f 62 ea ba be
       0.6801548 0.40117744 0.5406706 -0.36506945
000350 fa 1c 3b 3f 00 16 9e c0 f7 36 98 bf b9 e1 4d 3f
       0.7309109 -4.9401855 -1.1891774 0.8042255
000360 46 13 c3 3f 7b 96 4c 3f 8a a4 1d 3f ea 8b ff 3e
       1.5240257 0.79917115 0.6157919 0.49911433
000370 dc 0d 04 3f 8e 40 c1 3f ad d8 3d c0 d6 3d 42 bf
       0.5158365 1.5097826 -2.9663498 -0.75875604
000380 fb 10 c0 be 80 47 cc 3c f2 9b 97 c0 12 8f a2 3e
       -0.37512955 0.024936438 -4.7377863 0.3174978
000390 d1 75 74 c0 6e 51 ab 40 25 ec bc 3f 39 27 0a bf
       -3.819691 5.35369 1.4759566 -0.539661
0003a0 fc a2 d2 3f 8e 4e 2f 3f 09 0b 8b c0 b0 b7 c1 40
       1.6455989 0.6847924 -4.345097 6.053673
0003b0 50 f8 9c c0 ad a2 e5 be 31 d3 73 3f a5 c8 a6 c0
       -4.9053116 -0.44850674 0.9524413 -5.2119927
0003c0 e4 0a 99 bf b9 b0 e8 be 7a 21 86 3d fe 95 be 3e
       -1.1956449 -0.4544733 0.06549354 0.3722381
0003d0 f0 a1 04 3f c4 65 85 c0 c7 3f 33 bf c3 78 3f bd
       0.51809597 -4.1686726 -0.7001919 -0.046746027
0003e0 6c 49 2a 3f af ba f1 3e cd 3f eb 3e b0 2d b2 3f
       0.6651828 0.4721274 0.45947114 1.3920193
0003f0 e0 d6 2f 3f 85 13 04 3f 4f 56 91 3f 03 b1 54 40
       0.6868725 0.51592284 1.1354464 3.323304

bias f4 [128]
000000 78 db 96 40 72 94 b6 40 24 4f 36 c0 f2 23 39 41
       4.7142906 5.705621 -2.8485804 11.571276
000010 a7 55 4f 41 d9 50 60 c1 01 d0 8d 40 a5 2a 93 3c
       12.958411 -14.019738 4.431641 0.01796467
000020 8c c1 e8 c0 3d 19 d9 c0 c9 0d da 40 70 cf e2 3f
       -7.2736263 -6.784331 6.8141828 1.7719555
000030 e1 85 9f 40 4f 0d bd 3b f5 3a df 40 12 03 52 40
       4.9850926 0.005769409 6.975947 3.2814374
000040 45 40 b0 c0 0a e3 0a c1 64 c2 13 c1 a7 ae b7 40
       -5.5078454 -8.680429 -9.234959 5.74007
000050 0c a6 ba 40 d9 2a 99 40 16 62 d4 40 e6 01 1f bd
       5.8327694 4.7864804 6.6369734 -0.03882017
000060 e4 f7 0f 3d fe 75 a4 3c 2d 75 c3 c0 7b 6e 81 c0
       0.035148516 0.020075794 -6.1080537 -4.0447364
000070 26 49 f4 c0 bf ad 71 40 1e 69 c5 c0 31 6c 00 c1
       -7.6339293 3.7762296 -6.1690817 -8.026414
000080 71 5c 5a 3d 72 f7 68 c0 94 2b e2 40 76 ba 50 40
       0.053310815 -3.6401029 7.0678196 3.2613807
000090 e9 bf db 3c 3c d5 55 40 26 49 ee c0 56 25 77 c0
       0.026824908 3.3411398 -7.4464293 -3.8616538
0000a0 3d ee eb 40 5a 5a eb bf 2a 98 0c c1 76 b3 ae 40
       7.372832 -1.8386948 -8.787149 5.459407
0000b0 64 ab d3 40 5a 04 96 bd 97 91 3e 3a ba fe 15 c1
       6.6146717 -0.07325049 0.00072696194 -9.374689
0000c0 70 5a b9 bd 57 51 b5 40 1d e8 85 bd e2 45 a5 40
       -0.09050453 5.666179 -0.06538413 5.1647806
0000d0 6b de a1 40 27 44 ae bd e2 9a 8f 40 46 11 d0 40
       5.0584006 -0.08509093 4.4876566 6.5021086
0000e0 9e 07 55 c1 6d 95 53 c1 50 11 be 40 87 e1 82 c0
       -13.31436 -13.223981 5.9396133 -4.09003
0000f0 bd 42 bd 40 44 e3 91 40 98 bb d0 40 28 c2 af 40
       5.914397 4.5589924 6.5228996 5.4924507
000100 14 f9 c7 40 95 b8 e4 40 4d 6a 42 41 48 d6 05 41
       6.249155 7.147532 12.150952 8.364815
000110 cd d4 30 c1 32 c2 94 40 6f ae c3 40 1e 5f 04 41
       -11.051953 4.6487055 6.115043 8.273222
000120 ba 12 7f c0 d3 da 7e 3e d3 44 ce 40 b2 94 5a bd
       -3.985518 0.24888162 6.4459014 -0.053364463
000130 0d 5f 9a 40 4f 2a bc 40 bd 71 a7 40 18 20 73 3f
       4.824103 5.8801646 5.232634 0.94970846
000140 e1 95 63 40 6d 4f e6 40 6b 10 bd 40 03 57 b3 40
       3.556023 7.1971955 5.908254 5.6043715
000150 d8 69 b5 bd 6a 0a 10 c1 10 2a 33 bd b8 6b bd 40
       -0.08858079 -9.0025425 -0.043741286 5.9193993
000160 74 9a 82 bc 12 06 c1 40 48 19 9e 3c b5 c5 ec bf
       -0.01594279 6.031991 0.019299164 -1.8497835
000170 48 15 c7 3c 5b 99 58 bd be 9e 30 41 e8 d0 85 40
       0.02430214 -0.052880626 11.038755 4.1817513
000180 42 05 92 c0 55 3b 6b 40 88 1f 3e bd a6 a5 08 41
       -4.563142 3.6754963 -0.04641679 8.5404415
000190 3d d0 e6 c0 58 89 1b 41 65 ab 0d c1 ab 8a 82 40
       -7.2129197 9.721031 -8.854344 4.0794272
0001a0 d2 6e fc c0 eb 81 eb c0 37 83 da 40 d7 88 b7 3f
       -7.888528 -7.359609 6.8285174 1.4338635
0001b0 57 1b 7a 40 ab f9 9a bf db 8d fa 3c db 8e c0 40
       3.9079187 -1.2107443 0.03058522 6.0174384
0001c0 61 a9 c5 40 06 13 c4 40 f5 0c 38 41 4a 0d 61 40
       6.176926 6.127322 11.503163 3.516436
0001d0 67 46 0c 41 07 21 e1 c0 18 a6 a7 40 48 44 bb bd
       8.767188 -7.0352817 5.239025 -0.09143883
0001e0 9d f5 10 bd a4 db d0 40 08 c0 cf 3c 57 49 00 c1
       -0.035390485 6.5268116 0.025360122 -8.017905
0001f0 1b 2b cc 40 28 26 8f 3c 16 77 d0 c0 5f 19 e9 3f
       6.380262 0.017474249 -6.514537 1.8210868

weight f4 [1, 128]
000000 c4 57 4d 40 7b a5 50 40 b1 4f 9b c0 59 91 50 be
       3.2084818 3.2601001 -4.853478 -0.20367946
000010 6e 05 2f 3e fc e5 00 40 06 53 2e 41 86 8d 9b 3d
       0.17091915 2.0140371 10.895269 0.07595353
000020 f6 6d 3d c0 40 08 8b 40 30 9c 25 40 c1 85 b4 c0
       -2.9598365 4.344757 2.587658 -5.6413274
000030 40 7a 47 40 05 80 97 bb 9d 1d 39 40 ee 4d 0b 40
       3.1168365 -0.0046234154 2.8924325 2.1766315
000040 f3 b8 2a 40 21 6b 13 c0 02 30 3f bf 17 9a 3e 40
       2.6675384 -2.3034136 -0.7468263 2.978155
000050 e6 24 39 40 1a ff 48 40 e6 14 3c 40 8a d3 d2 3c
       2.892877 3.1405702 2.9387755 0.025735635
000060 28 df 42 bd b4 fe 8b bd 90 0c 60 c0 54 44 98 c0
       -0.0475761 -0.0683569 -3.5007668 -4.758341
000070 60 82 3c c0 e8 29 dc 40 85 1d 62 c0 6b fc 19 c0
       -2.9454575 6.8801155 -3.5330517 -2.4060314
000080 d8 73 44 bd 4c 39 00 41 2e 8c 32 40 cd b1 04 41
       -0.04796204 8.0139885 2.789806 8.293408
000090 e8 31 b0 3c bb 31 06 41 5f 20 44 c0 30 3e 8d c0
       0.021508172 8.387141 -3.0644758 -4.4138412
0000a0 ca 5f 0b 41 5a 27 92 c0 ea 54 ad bf 80 0d 56 40
       8.710886 -4.5673037 -1.3541539 3.344574
0000b0 d8 8f 3e 40 af 6d 84 3d 75 c9 97 bc c3 1f 10 bf
       2.9775295 0.06466233 -0.01852868 -0.56298465
0000c0 da 93 e0 bb 58 6e 47 40 5b 1f e9 3c 54 bb 3e 40
       -0.006853563 3.1161098 0.028457334 2.9801836
0000d0 d9 e2 e8 c0 35 2f 1f bd 9b 3b 68 40 70 ec 41 40
       -7.2776914 -0.03886338 3.628638 3.030056
0000e0 10 bb 0e 3f 41 63 2f 3f 28 58 3c 40 04 41 84 c0
       0.55754185 0.68510824 2.9428806 -4.1329365
0000f0 f7 38 50 40 bd 7d 52 40 dc 29 47 40 f0 3a 3e 40
       3.2534769 3.2889245 3.11193 2.9723473
000100 fd 90 39 40 89 89 d6 c0 b7 f2 a4 3e 8d 37 f1 40
       2.8994744 -6.704289 0.32216427 7.538031
000110 ae e2 a5 3e 99 0a e2 c0 c2 6f 28 41 b2 2a f6 40
       0.32399505 -7.0637937 10.527285 7.692712
000120 e9 c5 82 c0 e9 87 b9 c0 82 3f 23 41 b4 6a fa 3b
       -4.086659 -5.7978406 10.203005 0.0076421145
000130 ab a3 54 40 a2 3c 45 40 20 4a 3e 40 32 65 6c 41
       3.3224895 3.0818257 2.9732742 14.774706
000140 b7 08 8b 40 28 d0 0e 41 b6 10 37 40 1c 34 3b 40
       4.344814 8.925819 2.860395 2.9250555
000150 04 07 8e bd de 50 62 bf db 8f 69 3c 94 4b 3d 40
       -0.06934932 -0.88404644 0.014255489 2.957738
000160 8a d7 16 3d 66 c3 39 40 ad 3a 64 bd 00 c5 92 c0
       0.036826648 2.9025512 -0.05572002 -4.586548
000170 fb 6b 7c bd 88 4f 3e bc f8 44 c2 40 6d b5 7c 40
       -0.061626416 -0.011615641 6.070919 3.9485734
000180 32 61 5d c0 1c 53 66 40 ad 66 9f bd 41 5d ef 40
       -3.4590573 3.5988226 -0.07783256 7.4801335
000190 55 2c 33 c0 9c f7 d4 c0 1b c9 08 c0 78 42 6e 40
       -2.7995808 -6.6552258 -2.1372745 3.722807
0001a0 6f 5e ec bf 9e e6 c3 40 a2 75 3b 40 c8 e3 74 41
       -1.8466319 6.1219015 2.9290547 15.305611
0001b0 3f 7a 47 40 df 8b a6 c0 74 43 8c bc 9f 29 41 40
       3.1168363 -5.204574 -0.017122008 3.0181653
0001c0 35 60 46 40 e8 61 36 40 e6 89 4f 40 8b 4b 69 40
       3.099622 2.8497257 3.2427917 3.6452358
0001d0 cb 48 cd 40 e2 35 40 c0 77 ac 9c c0 46 fe 9c bd
       6.415136 -3.0032887 -4.896053 -0.07665686
0001e0 8b f1 08 41 7d df 3c 40 34 f3 76 bd 50 a2 2a c0
       8.55897 2.9511406 -0.06029053 -2.6661568
0001f0 83 5e 4b 40 ab 6e 49 bd d6 cd 68 c0 4b f2 9f 40
       3.1776435 -0.049177807 -3.6375632 4.998327

weight f4 [2, 128]
000000 e4 e5 3b 3f e5 6c 87 3f 67 a6 98 3f 23 10 38 40
       0.7339766 1.0580107 1.1925782 2.875985
000010 d3 e9 9f 40 78 08 04 c0 1a d2 c1 3f 4e c3 27 3d
       4.997293 -2.063017 1.5142243 0.04095774
000020 d5 f7 aa bf 70 7c 7c c0 b5 a9 7a 3f 52 14 3d 40
       -1.3356882 -3.945095 0.979152 2.9543653
000030 41 53 56 3f 53 53 74 bd f7 18 90 3f 74 c8 07 c0
       0.83720785 -0.059649777 1.1257619 -2.1216097
000040 ea 2e f4 bf d1 ba e1 bf 43 8c 77 c0 69 d7 5d 3f
       -1.9076817 -1.7635137 -3.867936 0.86656815
000050 51 f3 48 3f c2 78 60 3f db 9c 84 3f bf de 37 3d
       0.7849627 0.8768426 1.0360368 0.04489016
000060 45 f8 04 bd e4 18 7e 3d a4 04 01 be 04 62 34 3f
       -0.03246333 0.062035456 -0.12599427 0.7046206
000070 cf 02 ce bf 42 8b 5c 40 a1 be a6 be 83 33 b6 bf
       -1.6094607 3.4459996 -0.32567313 -1.423447
000080 f9 09 d2 3c bc 17 39 c1 23 5c 8f 3f a0 65 8e 40
       0.025639521 -11.568295 1.1199993 4.4499054
000090 e8 a2 4b bd 55 00 80 40 de dd de bf c7 42 5a 3f
       -0.049715906 4.0000405 -1.7411458 0.85258144
0000a0 c9 d2 a3 40 51 f1 91 3f c8 a5 09 c0 c4 72 78 3f
       5.1194806 1.1401769 -2.1507435 0.9705012
0000b0 a7 a9 89 3f e9 d1 aa 3d 40 48 4e 3d df a6 76 c0
       1.0754899 0.083408184 0.05036187 -3.853935
0000c0 d0 b8 c8 bc 61 69 7b 3f 23 55 75 3d e5 72 3d 3f
       -0.024502188 0.9820767 0.059895646 0.7400344
0000d0 68 f4 9c 40 4b c7 6c 3d de 78 8d 3f 25 01 78 3f
       4.9048347 0.057807248 1.1052511 0.96876746
0000e0 bd 8c dd bf f6 04 d3 bf 16 87 4a 3f 9f 53 c1 bd
       -1.7308575 -1.6485889 0.79112375 -0.094397776
0000f0 9e b8 83 3f 28 bf 70 3f f4 f2 90 3f 79 15 39 3f
       1.0290716 0.9404168 1.1324143 0.7229839
000100 ba 77 65 3f b5 64 a7 40 e9 bc b0 40 62 44 9f 40
       0.89635813 5.2310433 5.5230603 4.9770975
000110 8e d0 e5 bf e5 7b 9a 40 2b f0 39 40 01 c6 96 40
       -1.7954271 4.827624 2.9052837 4.7116704
000120 1d e5 d5 3d 57 be 1d 40 92 16 89 40 b0 6e 3f 3c
       0.104440905 2.4647424 4.284005 0.011684105
000130 3c 69 6f 3f 3d f4 67 3f b0 e6 29 3f fe e6 b5 c0
       0.9351995 0.90607053 0.66367626 -5.6844473
000140 8b 8f af 3f 07 99 98 40 bd 5b 54 3f 4f 04 52 3f
       1.3715681 4.76868 0.8295248 0.82037824
000150 49 43 50 bd 7c 36 7b c0 09 c3 db 3c e3 f6 58 3f
       -0.050845418 -3.9252005 0.026826398 0.8475172
000160 81 87 a5 bd 5a ac 68 3f 10 68 a6 3c 21 78 a5 3f
       -0.08082486 0.9088799 0.020313293 1.2927285
000170 24 3c 75 3d 8e 30 05 3d 9b 21 02 41 cf 81 b5 3f
       0.059871808 0.03251701 8.133204 1.418024
000180 bd 2f 67 be 0c c1 21 3f 5c 6b 86 bd 44 13 87 40
       -0.22576804 0.6318519 -0.06563446 4.2211018
000190 8c 29 eb bf 91 3b b8 40 8a 10 2c c0 31 78 77 3f
       -1.8372054 5.7572713 -2.6885095 0.9666777
0001a0 af d8 5a c0 07 f7 15 c1 e7 f2 91 3f 4e 50 65 c0
       -3.4194753 -9.372809 1.1402253 -3.5830264
0001b0 e5 99 dd 3e ab 91 cc 3f 44 9c 8b 3c 38 3a 5f 3f
       0.43281475 1.5981954 0.017042287 0.8719821
0001c0 eb f9 67 3f 45 78 4a 3f 7f 36 a5 40 f8 d1 21 3f
       0.9061572 0.79089767 5.1629024 0.6321101
0001d0 1f 8b 97 40 0a 67 24 bf f3 98 58 40 f1 2a 43 bd
       4.7357326 -0.64219725 3.3843353 -0.047648374
0001e0 81 80 ca c0 e1 33 86 3f be 7d 2a 3c 6e f9 a1 bf
       -6.3281865 1.0484582 0.010405956 -1.2654245
0001f0 ce 49 78 3f eb 0a 67 bd 5a 9c 76 bf 41 e0 ac be
       0.96987617 -0.056406897 -0.96332324 -0.33764842
000200 36 4d 46 bf 4b 1b 82 bf 1d 28 9f bf 10 f5 3e c0
       -0.77461565 -1.0164579 -1.2434117 -2.9837074
000210 0a 5d 9b c0 9e 15 07 40 e5 1f d1 bf 42 80 66 bd
       -4.8551073 2.1106944 -1.6337858 -0.05627466
000220 e4 20 a4 3f 33 9e 74 40 d1 ae 7a bf fa b7 3b c0
       1.2822537 3.8221557 -0.97923 -2.933104
000230 71 4e 3f bf 1e 8d 90 bd 77 19 97 bf d3 a0 07 40
       -0.7472907 -0.07058166 -1.1804646 2.119191
000240 f9 32 f5 3f d9 24 ed 3f 2f 7e 74 40 ca 77 58 bf
       1.9156181 1.852687 3.8202016 -0.84557784
000250 a6 32 4f bf ce 51 48 bf d2 13 86 bf cf 38 3c bd
       -0.8093666 -0.78249824 -1.0474799 -0.045952614
000260 0d 42 96 bb 0c d0 76 bd 0f e6 20 3e 69 f6 32 bf
       -0.0045855106 -0.060257003 0.1571276 -0.6990724
000270 3c 10 d9 3f 9e c0 61 c0 02 dd 97 3e d2 78 ab 3f
       1.6958079 -3.5273814 0.29660803 1.3396246
000280 e6 65 9f 3d 2e be 37 41 38 44 93 bf 26 0f 91 c0
       0.077831075 11.483931 -1.1505194 -4.533099
000290 3c 63 72 bd 34 13 84 c0 2e a8 d1 3f 1d 03 67 bf
       -0.05917667 -4.127344 1.6379449 -0.90239125
0002a0 2c fd a2 c0 ac aa 98 bf c2 45 09 40 3d 01 86 bf
       -5.093405 -1.1927085 2.1448827 -1.0469128
0002b0 93 d2 7d bf d4 ff a5 bd 08 0d bf 3d e2 01 75 40
       -0.99149436 -0.08105436 0.093286574 3.82824
0002c0 8a 6f 6b 3d 3a b1 63 bf c4 f3 8b bc ab dd 1a bf
       0.05747942 -0.889423 -0.01708401 -0.6049449
0002d0 e8 08 9d c0 ae 6f aa 3c fb 1f 94 bf 61 30 87 bf
       -4.907337 0.020805206 -1.157226 -1.0561639
0002e0 73 e1 dc 3f e1 85 cc 3f c4 72 61 bf e6 9f 82 3d
       1.7256302 1.5978357 -0.88065743 0.063781545
0002f0 51 10 73 bf 5e 4e 7b bf 92 21 8b bf d9 81 37 bf
       -0.9494677 -0.98166454 -1.086962 -0.71682507
000300 16 e2 73 bf b6 e7 a6 c0 5e 27 b3 c0 79 99 9f c0
       -0.95266855 -5.215785 -5.5985556 -4.9874845
000310 0b f6 f7 3f 15 78 9c c0 e2 04 3d c0 0c 01 93 c0
       1.9371961 -4.8896585 -2.953423 -4.593878
000320 e2 11 37 bd 25 98 1a c0 b2 d1 88 c0 1a 21 57 bc
       -0.04469479 -2.4155362 -4.2755976 -0.013130451
000330 19 be 82 bf ad d2 71 bf 25 f5 30 bf 97 93 b4 40
       -1.0214263 -0.9446209 -0.6912406 5.6430163
000340 be f0 a7 bf 51 4c 99 c0 93 9b 5b bf a5 88 41 bf
       -1.3120344 -4.790566 -0.8578426 -0.7559913
000350 56 79 28 3d 9f 10 78 40 3a 81 6d bc 6d b2 6a bf
       0.04113134 3.8760145 -0.014496142 -0.91678506
000360 af a2 56 bd 29 5f 5c bf 48 10 1a 3c 21 8d ae bf
       -0.05240124 -0.860827 0.009403296 -1.3636819
000370 96 1c 93 bd 82 df 30 3d da ab 01 c1 d1 77 a9 bf
       -0.07183187 0.043181904 -8.104456 -1.323969
000380 2a 41 45 3e b7 d9 22 bf 53 f2 7f 3d aa 0f 8a c0
       0.1926314 -0.63613456 0.062486958 -4.314412
000390 c6 79 f5 3f 67 60 b5 c0 6e e0 2a 40 2d 9b 87 bf
       1.9177787 -5.668018 2.669948 -1.0594231
0003a0 11 41 5e 40 55 36 16 41 83 fe 8e bf 14 24 66 40
       3.4727213 9.388265 -1.1171421 3.595952
0003b0 27 58 cd be 42 ff c7 bf b7 ab b6 bc 82 51 6b bf
       -0.40106317 -1.5624774 -0.022298677 -0.91921246
0003c0 0f 28 83 bf 66 25 66 bf 50 10 a8 c0 05 2d 35 bf
       -1.02466 -0.89900815 -5.2519913 -0.7077182
0003d0 30 14 9c c0 2a 38 34 3f 46 2f 5d c0 56 b2 12 3d
       -4.8774643 0.703982 -3.4560103 0.035814606
0003e0 b6 f7 c8 40 28 60 85 bf b1 98 51 bd 0b 97 94 3f
       6.280238 -1.041997 -0.05117101 1.1608595
0003f0 2d d9 87 bf 39 de 56 bd c4 aa 6e 3f 5d 0d a5 3e
       -1.0613152 -0.05245802 0.9322932 0.32236758

bias f4 [2]
000000 b9 d6 52 41 7b ce 51 c1
       13.177423 -13.11291
