models/cache_agent/0/D3QN_Q_target.pth (torch, 16783 bytes, 7 tensors)

weight f4 [64, 16]
0.14441377 0.069063455 -0.021038711 2.1237276 0.07049909 0.092459984 -1.0621305 0.9039019
1.746104 0.42377767 -0.10032889 2.1807053 0.034493547 0.09892726 -0.16054112 0.14672239
-0.07205507 -0.010632426 0.20104656 -1.7066703 0.1961648 0.4886879 1.5847813 0.014958898
-1.5569193 -0.18097906 0.11378273 -2.1523669 0.16406853 0.09136912 -0.24303028 0.19102143
0.11947024 0.20217766 -0.2111162 2.303116 0.21853323 0.17177977 -1.164831 0.6769252
1.8848987 0.65379715 -0.13930634 2.370294 -0.11291397 -0.23489541 0.04165131 0.04911906
-0.17778304 -0.19975573 -0.15011507 2.339278 0.19781479 -0.0050245584 -1.342127 1.0573568
1.7028774 0.6157296 -0.02772984 2.6092453 0.008928352 -0.11897829 -0.059499472 -0.026585467
0.22787198 0.088147044 0.20658186 1.8720425 0.2748331 0.34190807 -1.0925924 0.74161714
1.7764028 0.73239815 0.015171915 1.7671894 0.010164807 -0.00972116 0.22807825 0.3131778
0.04807481 0.06682718 -0.11907229 2.2641983 0.10611344 -0.17607564 -1.2992986 0.36504704
1.4097317 0.6385181 0.17058781 2.0423682 -0.2807717 0.19668272 0.025037514 0.067122936
-0.11301097 0.1370992 0.034198493 1.7014121 0.1295132 0.07687628 -0.94443196 0.5424211
1.4467554 0.38966244 -0.07632241 1.8667201 -0.6086989 -0.13858154 0.03188452 0.27483615
0.20832631 0.1379847 -0.22718674 -0.056695133 -0.12537107 -0.063825935 0.14713615 -0.24453452
-0.22620153 -0.11433083 -0.11330974 0.066468626 -0.11020622 -0.1516613 0.012985796 -0.04884094
-0.018075407 -0.026145905 -0.23207593 1.9444352 -0.028428506 -0.14490338 -1.1533968 0.6481708
1.4540715 0.5538629 0.2042909 2.1675167 -0.7667061 0.1779074 -0.1872128 0.020748341
0.24934608 -0.13212413 0.0053707096 -0.08496067 -0.13509059 -0.100355774 -0.10637674 -0.46531746
-0.19387247 -0.10014898 -0.16398893 0.3514598 0.074951835 -0.21983898 -0.001240313 -0.24701376
-0.119113654 -0.1896852 -0.10296638 1.9636501 0.28397185 -0.055290423 -1.1314306 0.43221313
1.6931431 0.25156665 0.06017831 1.8467529 -0.08871204 0.12661663 -0.22540264 0.08979395
0.017856985 -0.008212149 0.23212758 -0.06848729 -0.2570291 -0.11848772 0.052509163 0.036014035
-0.09467643 -0.3421403 0.22615865 0.3242327 0.07054412 -0.16503724 0.19637999 -0.2205616
0.15428549 0.091379404 -0.12808388 1.8663481 0.41191864 -0.086676456 -1.0162137 0.45766333
1.367236 0.47414646 0.11324924 1.904487 0.09330555 0.24937615 -0.009168386 0.16153716
0.037134103 0.21106878 -0.09118083 -0.18078628 0.03275484 -0.11721513 0.13638422 -0.050559163
-0.10810286 0.16326997 0.14472103 -0.22482038 -0.24518731 -0.0074115396 0.14387506 -0.22411597
-0.02610752 -0.033376068 -0.15083677 1.8155934 0.25774947 -0.1497892 -1.0803651 0.52889
1.3870025 0.29057765 -0.20622748 1.797998 -0.7794039 0.0784429 -0.055383056 0.14356408
-0.071718454 -0.08452743 0.09925711 1.043047 1.0728438 1.1405932 1.4598433 0.37328872
1.2421957 1.1049551 -0.19111326 0.60701126 -0.4600985 -0.10661572 -0.10813445 -0.10923857
00000000: 34e1 133e 2471 8d3d 6059 acbc 27eb 0740
00000010: d461 903d a95b bd3d e4f3 87bf 1d66 673f
00000020: 5680 df3f 63f9 d83e 3c79 cdbd ad90 0b40
00000030: 1b49 0d3d 609a ca3d e464 24be 653e 163e
00000040: 9c91 93bd a033 2ebc 26df 4d3e 2c74 dabf
00000050: 6ddf 483e 4d35 fa3e 1dda ca3f 2a16 753c
00000060: 2249 c7bf 9352 39be ec06 e93d 61c0 09c0
00000070: 9501 283e bc1f bb3d eedc 78be 1f9b 433e
00000080: d0ac f43d a907 4f3e d82e 58be 4166 1340
00000090: 2dc7 5f3e 09e7 2f3e 2f19 95bf f84a 2d3f
000000a0: 5c44 f13f 405f 273f 52a6 0ebe e6b2 1740
000000b0: 713f e7bd 6c88 70be 909a 2a3d 1131 493d
000000c0: c20c 36be c48c 4cbe c4b7 19be bbb6 1540
000000d0: f68f 4a3e 0da5 a4bb d1ca abbf 7857 873f
000000e0: e3f7 d93f 74a0 1d3f b029 e3bc e0fd 2640
000000f0: 3948 123c e4aa f3bd b8b5 73bd c4c9 d9bc
00000100: 4657 693e 7086 b43d 328a 533e 179f ef3f
00000110: edb6 8c3e 930e af3e 11da 8bbf 9fda 3d3f
00000120: 2b61 e33f 727e 3b3f a093 783c 4333 e23f
00000130: 4a8a 263c 8045 1fbc 588d 693e d758 a03e
00000140: 18ea 443d b0dc 883d 2cdc f3bd a0e8 1040
00000150: 0152 d93d 2c4d 34be 6b4f a6bf 72e7 ba3e
00000160: 1772 b43f ec75 233f 92ae 2e3e 29b6 0240
00000170: 4fc1 8fbe 3267 493e 791b cd3c c077 893d
00000180: 4c72 e7bd bc63 0c3e b813 0c3d dfc7 d93f
00000190: 1c9f 043e 5071 9d3d 4bc6 71bf 1cdc 0a3f
000001a0: 482f b93f d681 c73e ec4e 9cbd aff0 ee3f
000001b0: b1d3 1bbf 52e8 0dbe 5899 023d 53b7 8c3e
000001c0: 7e53 553e dc4b 0d3e a4a3 68be 2839 68bd
000001d0: 4661 00be 2cb7 82bd dcaa 163e 4267 7abe
000001e0: 60a1 67be 4826 eabd f00e e8bd b420 883d
000001f0: ccb3 e1bd 1a4d 1bbe 60c2 543c 700d 48bd
00000200: e012 94bc f02f d6bc 50a5 6dbe 41e3 f83f
00000210: e6e2 e8bc 8d61 14be 82a2 93bf 86ee 253f
00000220: 041f ba3f f6c9 0d3f a231 513e 98b8 0a40
00000230: da46 44bf 5c2d 363e b6b4 3fbe 6df8 a93c
00000240: 9454 7f3e 8c4b 07be c7fc af3b dcff adbd
00000250: 3055 0abe 5487 cdbd 0cdc d9bd 173e eebe
00000260: 8186 46be e91a cdbd b7ec 27be 8af2 b33e
00000270: 5980 993d 781d 61be 0092 a2ba 2df1 7cbe
00000280: dcf1 f3bd d63c 42be 0ae0 d2bd e358 fb3f
00000290: c264 913e 3678 62bd b8d2 90bf 0a4b dd3e
000002a0: eab8 d83f 58cd 803e 887d 763d 6662 ec3f
000002b0: a8ae b5bd caa7 013e f3cf 66be e4e5 b73d
000002c0: d048 923c 408c 06bc dab2 6d3e 1043 8cbd
000002d0: 5199 83be b1a9 f2bd d913 573d 7483 133d
000002e0: b7e5 c1bd 032d afbe 2296 673e d401 a63e
000002f0: 7079 903d 86ff 28be d617 493e e6da 61be
00000300: 04fd 1d3e 2025 bb3d 6c28 03be 7fe4 ee3f
00000310: 00e7 d23e 6d83 b1bd 4a13 82bf d952 ea3e
00000320: 9701 af3f 53c3 f23e 38ef e73d 3bc6 f33f
00000330: fb16 bf3d 765c 7f3e 0037 16bc ff69 253e
00000340: ee19 183d 6a22 583e 04bd babd 0a20 39be
00000350: f029 063d 7c0e f0bd 4ea8 0b3e 2017 4fbd
00000360: 0865 ddbd 3e30 273e c031 143e 5037 66be
00000370: 6212 7bbe 80dc f2bb fc53 133e a87e 65be
00000380: 70df d5bc 58b5 08bd f474 1abe 5d65 e83f
00000390: bdf7 833e 5762 19be 6749 8abf 5665 073f
000003a0: 4c89 b13f 98c6 943e 4c2d 53be cc24 e63f
000003b0: 0487 47bf aca6 a03d 58d9 62bd 7602 133e
000003c0: 20e1 92bd b81c adbd 5047 cb3d 9082 853f
000003d0: f252 893f f5fe 913f 25dc ba3f b31f bf3e
000003e0: 4500 9f3f 2b6f 8d3f 32b3 43be 1765 1b3f
000003f0: 0892 ebbe 5859 dabd 9875 ddbd 79b8 dfbd

bias f4 [64]
2.1916094 -1.7463474 2.1913493 2.1923983 1.7497635 2.1683838 1.884285 0.14614683
1.9132292 -0.023500457 2.2460802 -0.11756884 2.2382793 -0.1751126 1.9843361 1.1476256
1.743075 1.173437 2.2896411 2.0614166 1.2959591 1.3946317 2.101905 -0.090076864
1.8700118 2.035929 0.20738006 1.5728861 2.3358505 -0.041283786 1.8762717 2.1287951
1.2912246 0.92484957 2.141792 0.17033751 1.8381778 0.04840511 2.2199552 1.9789052
2.2461994 1.8394144 1.373928 0.15695557 2.1867056 1.8334801 2.012302 2.2234552
1.3505996 1.7693111 2.1100643 1.7847548 1.6120074 1.6172856 1.7833129 1.9724027
2.2651844 1.7294118 1.815935 1.9518038 1.808083 0.086585164 1.3143644 1.2987429
00000000: 5443 0c40 5088 dfbf 113f 0c40 4150 0c40
00000010: 40f8 df3f cdc6 0a40 4030 f13f 84a7 153e
00000020: b2e4 f43f 0884 c0bc c7bf 0f40 efc7 f0bd
00000030: f83f 0f40 b850 33be bafe fd3f 65e5 923f
00000040: 151d df3f 2f33 963f 7b89 1240 40ee 0340
00000050: fde1 a53f 4b83 b23f 9d85 0640 387a b8bd
00000060: 8c5c ef3f a94c 0240 705b 543e 5554 c93f
00000070: 937e 1540 3019 29bd ac29 f03f 2e3e 0840
00000080: d946 a53f f1c2 6c3f 1f13 0940 f56c 2e3e
00000090: 6949 eb3f 7044 463d bf13 0e40 c44c fd3f
000000a0: bbc1 0f40 ee71 eb3f dfdc af3f f6b8 203e
000000b0: fcf2 0b40 7aaf ea3f 8ec9 0040 174d 0e40
000000c0: 73e0 ac3f c978 e23f 4b0b 0740 d872 e43f
000000d0: 4256 ce3f 3703 cf3f 9943 e43f b177 fc3f
000000e0: c8f8 1040 5e5d dd3f 8f70 e83f b5d4 f93f
000000f0: 446f e73f 9053 b13d 183d a83f 353d a63f

weight f4 [32, 64]
0.24681814 -0.9675471 0.5406396 1.2549888 -0.027893556 0.49741957 0.11877513 0.09548397
0.60421103 0.17660637 0.20849623 0.14331777 0.13766956 -0.12270698 0.37985814 -1.0323166
0.49470964 -1.0788066 0.40518546 0.09572152 -0.93037707 0.58953327 0.15027434 -0.07106296
0.13745601 0.011240516 -0.02042234 0.5060392 0.40143558 -0.030256659 0.31223807 0.24047852
-0.9899902 -1.0489496 0.4078356 0.020792307 0.44925016 0.048143134 0.1812638 0.44512147
0.35758343 0.095535144 -1.1548488 -0.016128473 0.21094416 0.22756515 0.3385274 0.7782942
-0.86104304 0.25059405 0.4349723 0.17800097 1.3331214 0.34930027 0.36992475 0.39653477
0.82394093 0.9318931 0.15569521 0.4948802 0.5519004 0.093238354 1.2520009 -0.9598945
-0.09979094 -0.0013660187 -0.117568046 0.06191252 -0.10109032 0.10518963 -0.057024192 0.0038193017
-0.026816815 0.06630948 0.09204381 -0.06120597 -0.109840296 0.0472665 0.099701524 0.029450497
-0.097302444 -0.10032291 0.070885636 0.09280377 -0.14502868 -0.10805513 0.07735572 0.06252869
0.088398986 0.048191518 -0.0055104196 -0.06605914 -0.09663785 -0.09844974 0.07952981 0.09949291
-0.10447587 -0.048439626 0.029687798 0.04259836 -0.11005934 -0.039114177 0.053140197 0.030692136
-0.12586577 -0.11343446 -0.08459174 0.0037592633 -0.021477623 -0.08571678 -0.08835429 0.067005366
0.08370958 0.014132367 0.07863425 -0.028548231 -0.0027207476 0.06299546 -0.016595626 -0.06259351
0.1071685 -0.13367696 -0.11395898 0.029402813 0.072271444 0.05826831 0.051963005 0.06489834
-0.14259662 0.014374927 -0.11745778 -0.114100695 -0.03761325 -0.01647977 0.04475903 -0.043112278
0.06110636 -0.073967166 -0.1101413 -0.12963605 0.042403366 -0.0053970963 0.10144943 -0.02084991
-0.07889904 -0.016092524 0.08393682 0.09910007 0.10022712 0.030421514 0.06128722 0.06986824
0.0040150583 -0.074485764 0.05629614 -0.11451173 0.003003487 -0.08162975 0.03415163 -0.14490092
0.06268853 -0.07606834 -0.10569151 0.08538289 -0.05052539 0.10062656 0.06334369 -0.09966279
-0.045747727 0.022450348 0.023876712 0.12471482 -0.15078837 0.043647405 0.005587211 0.07551987
0.030327395 0.042313747 -0.112135075 0.0051032864 0.038420815 0.06542233 0.01617951 -0.033923093
0.04034754 0.01382989 0.0012229859 -0.11881378 -0.012072324 0.10094094 -0.12223807 -0.069196686
0.36745137 -0.66206294 0.6717948 0.9696165 0.25360256 0.4163094 0.45494148 0.094673365
0.7001967 0.21506351 0.4904794 0.10567905 0.3083302 -0.10399249 0.49443176 -1.2321819
0.65076494 -1.3805604 0.3127008 0.23312072 -1.2072483 0.4552738 0.34732616 0.08104079
0.21183205 0.38056907 -0.023373201 0.39047697 0.54719585 -0.097629055 0.28351817 0.29065028
-1.4330043 -1.3486181 0.40902376 0.03804663 0.42892417 0.037399888 0.41402516 0.44169033
0.48562992 0.30444673 -1.2277108 0.044526573 0.35734236 0.31177646 0.5220814 0.5962975
-1.2946507 0.37905556 0.44038925 0.38603818 1.2345484 0.43350437 0.4875845 0.43297726
0.708548 0.6953386 0.39745918 0.5402587 0.43116343 0.029218614 1.0019201 -1.3198274
00000000: e5bd 7c3e 2bb1 77bf 5b67 0a3f 79a3 a03f
00000010: 0781 e4bc c7ad fe3e 6040 f33d 1a8d c33d
00000020: 93ad 1a3f 4dd8 343e 0980 553e e5c1 123e
00000030: 40f9 0c3e cc4d fbbd c47c c23e f322 84bf
00000040: 954a fd3e 5616 8abf 7874 cf3e a509 c43d
00000050: 312d 6ebf a7eb 163f 84e1 193e 7589 91bd
00000060: 45c1 0c3e 242a 383c c04c a7bc c98b 013f
00000070: f788 cd3e d0dc f7bc abdd 9f3e 0040 763e
00000080: ff6f 7dbf fb43 86bf d4cf d03e a154 aa3c
00000090: 1e04 e63e bc31 453d 389d 393e f6e6 e33e
000000a0: 2d15 b73e eea7 c33d 16d2 93bf dc1f 84bc
000000b0: bf01 583e d706 693e 7753 ad3e 4a3e 473f
000000c0: 516d 5cbf dd4d 803e b0b4 de3e e345 363e
000000d0: b9a3 aa3f 7cd7 b23e c766 bd3e 9b06 cb3e
000000e0: cbed 523f 8c90 6e3f 916e 1f3e f060 fd3e
000000f0: 5849 0d3f c0f3 be3d 9141 a03f a5bb 75bf
00000100: 315f ccbd fb0b b3ba 84c7 f0bd fc97 7d3d
00000110: 7108 cfbd a96d d73d 3392 69bd 404d 7a3b
00000120: f0ae dbbc 44cd 873d 7781 bc3d 1cb3 7abd
00000130: f3f3 e0bd 849a 413d 5030 cc3d 2b42 f13c
00000140: 8146 c7bd 1976 cdbd 7d2c 913d e70f be3d
00000150: 6682 14be 024c ddbd ad6c 9e3d 0b0f 803d
00000160: 870a b53d 7864 453d c090 b4bb 044a 87bd
00000170: 11ea c5bd 04a0 c9bd 86e0 a23d f0c2 cb3d
00000180: 72f7 d5bd a168 46bd d333 f33c 9e7b 2e3d
00000190: cb66 e1bd 3036 20bd 89a9 593d 136e fb3c
000001a0: f5e2 00be 5350 e8bd 6f3e adbd f95d 763b
000001b0: d7f1 afbc 478c afbd 18f3 b4bd 1c3a 893d
000001c0: ee6f ab3d 728b 673c fe0a a13d fbdd e9bc
000001d0: 924e 32bb c403 813d 8df3 87bc 0731 80bd
000001e0: 297b db3d 9de2 08be 5363 e9bd 2bde f03c
000001f0: 0d03 943d c0aa 6e3d 29d7 543d 6ce9 843d
00000200: d904 12be d084 6b3c b48d f0bd a0ad e9bd
00000210: 5a10 1abd 9500 87bc 3f55 373d 8096 30bd
00000220: aa4a 7a3d 197c 97bd c391 e1bd 50bf 04be
00000230: 27af 2d3d 20da b0bb b8c4 cf3d 6ecd aabc
00000240: d295 a1bd 78d4 83bc 11e7 ab3d faf4 ca3d
00000250: e043 cd3d 8a36 f93c 4f08 7b3d 1417 8f3d
00000260: c090 833b fe8b 98bd c896 663d 2085 eabd
00000270: 26d6 443b 802d a7bd 94e2 0b3d e860 14be
00000280: d862 803d b8c9 9bbd ca74 d8bd 3add ae3d
00000290: b6f3 4ebd 4c15 ce3d 56ba 813d 011c ccbd
000002a0: f861 3bbd cbe9 b73c 1899 c33c 7c6a ff3d
000002b0: 4468 1abe 9fc7 323d ec14 b73b 29aa 9a3d
000002c0: 2871 f83c 2e51 2d3d 13a7 e5bd 7839 a73b
000002d0: 255f 1d3d 24fc 853d e48a 843c f1f2 0abd
000002e0: 7643 253d c396 623c 994c a03a a454 f3bd
000002f0: ffca 45bc 20ba ce3d f457 fabd feb6 8dbd
00000300: 9622 bc3e f57c 29bf befa 2b3f c938 783f
00000310: 32d8 813e 8126 d53e 17ee e83e 1ce4 c13d
00000320: 1740 333f 9c39 5c3e 1e20 fb3e 426e d83d
00000330: 75dd 9d3e 04fa d4bd 2926 fd3e 23b8 9dbf
00000340: 8898 263f 34b6 b0bf 521a a03e 33b7 6e3e
00000350: 1d87 9abf a619 e93e bcd4 b13e b7f8 a53d
00000360: 80ea 583e f3d9 c23e 2879 bfbc 99ec c73e
00000370: 0715 0c3f bef1 c7bd 4b29 913e 1dd0 943e
00000380: af6c b7bf 859f acbf 906b d13e c8d6 1b3d
00000390: f39b db3e a030 193d 1bfb d33e 3c25 e23e
000003a0: 7ca4 f83e 71e0 9b3e a125 9dbf 7f61 363d
000003b0: 94f5 b63e 2aa1 9f3e 20a7 053f f4a6 183f
000003c0: 1db7 a5bf 9213 c23e b37a e13e cca6 c53e
000003d0: af05 9e3f 49f4 dd3e ada4 f93e 32af dd3e
000003e0: 6763 353f b601 323f c57f cb3e 654e 0a3f
000003f0: 74c1 dc3e e05b ef3c eb3e 803f 1bf0 a8bf

bias f4 [32]
1.8599241 0.05107415 0.011336263 1.5807798 1.4856858 1.6447524 0.019992441 -0.0065573948
1.7549462 1.5035791 -0.11324074 -0.048882216 -0.11947126 1.8288502 1.5597718 1.5734384
1.5263319 0.0733682 0.44528887 1.6378938 -0.10653074 1.8396 -0.06070973 1.6917711
-0.31167552 -0.095719084 1.5791388 -0.044022083 0.115066126 -0.10921893 1.7076184 0.04446256
00000000: fe11 ee3f 2133 513d bcbb 393c fe56 ca3f
00000010: f42a be3f 3f87 d23f 30c7 a33c 6adf d6bb
00000020: 14a2 e03f 4875 c03f c3ea e7bd b838 48bd
00000030: 59ad f4bd c317 ea3f 9aa6 c73f 6e66 c93f
00000040: d85e c33f 1142 963d e7fc e33e 81a6 d13f
00000050: ca2c dabd 0378 eb3f c4aa 78bd f58b d83f
00000060: ef93 9fbe 5e08 c4bd 3821 ca3f 8050 34bd
00000070: caa7 eb3d 2dae dfbd 3d93 da3f 601e 363d

weight f4 [1, 32]
0.6762376 0.01850782 -0.08730352 0.68295527 0.6321745 0.6847911 0.12032835 0.004808614
0.61195356 0.72724134 -0.06383738 -0.16273697 -0.027036276 0.5938494 0.6397166 0.6610088
0.52759045 -0.37538695 -0.48638076 0.6487373 0.006746088 0.6261223 0.14346378 0.64703363
-0.18310747 -0.06011308 0.69118017 -0.13999029 0.059396457 -0.018784788 0.57868093 -0.16022265
00000000: e81d 2d3f b69d 973c 30cc b2bd 28d6 2e3f
00000010: 30d6 213f 784e 2f3f b66e f63d 9491 9d3b
00000020: fda8 1c3f 7d2c 3a3f 2cbd 82bd 85a4 26be
00000030: 2e7b ddbc 8406 183f 78c4 233f df37 293f
00000040: 2b10 073f b832 c0be e606 f9be a613 263f
00000050: 4a0e dd3b 8d49 203f 2be8 123e ffa3 253f
00000060: 8680 3bbe 2239 76bd 2ff1 303f 9d59 0fbe
00000070: b349 733d 8ee2 99bc 6f24 143f 6811 24be

weight f4 [4, 32]
0.058614526 -0.12366113 0.016921716 -0.09741547 0.18189858 -0.028028699 0.10834645 -0.026165191
0.12626714 0.07671234 -0.1357661 0.027109608 -0.20075639 -0.11171867 0.08609002 0.102796905
0.2179657 0.1352003 0.14390218 0.044349335 -0.14064178 0.18081424 0.09321283 0.049916204
-0.8152552 -0.041625366 0.12217715 -0.12318089 -0.04373681 -0.12859057 -0.062289644 -0.14588968
-0.2646289 0.12906355 0.0045916303 0.10821945 -0.066184975 -0.22261634 0.08369048 -0.12295165
-0.2546498 -0.2470516 -0.019734187 0.087172285 0.13029288 0.032381803 -0.0394177 -0.23753606
-0.12626986 -0.08988469 -0.15795866 -0.033713445 0.018663162 -0.0049106716 0.015913412 0.030059645
0.43970847 0.06958098 -0.062216528 0.12224002 0.078218505 -0.091614634 0.008507608 0.051625624
-0.047051374 0.10356243 0.09744304 0.03079686 -0.15654767 -0.10921192 -0.1016705 0.028029263
0.014103403 0.010636028 -0.06593397 0.15341021 0.30414477 -0.1168849 0.04141392 -0.13818622
-0.037732277 0.016889658 0.22649321 0.1026428 -0.051881794 0.032568943 -0.13674146 0.02985116
0.48296362 -0.024143036 -0.041109804 0.17721999 -0.085526034 -0.07028067 -0.10927552 0.042239755
-0.056166384 -0.08779251 -0.067468345 0.042166706 0.041194193 0.09994028 -0.04072012 0.23473531
-0.1672824 -0.012955699 -0.16265377 0.0840285 0.11136915 -0.1349029 -0.001922115 -0.019137835
0.13879205 -0.11514309 0.17911027 0.008535247 -0.051285747 -0.026002962 -0.008871973 -0.14686449
0.3200904 0.0027813574 0.01075448 -0.15985708 -0.11259253 -0.042638987 -0.025973741 0.15491302
00000000: c915 703d 0c42 fdbd 699f 8a3c c381 c7bd
00000010: 9f43 3a3e 719c e5bc bee4 dd3d 6258 d6bc
00000020: 2c4c 013e 5c1b 9d3d 4506 0bbe f814 de3c
00000030: 1593 4dbe c2cc e4bd f74f b03d 2f87 d23d
00000040: 6732 5f3e f371 0a3e 185b 133e a6a7 353d
00000050: 6604 10be 5e27 393e 5ee6 be3d ef74 4c3d
00000060: 91b4 50bf 5c7f 2abd 0338 fa3d 4346 fcbd
00000070: 5f25 33bd 3fad 03be 6d23 7fbd 1b64 15be
00000080: 707d 87be 3c29 043e 6375 963b 29a2 dd3d
00000090: fd8b 87bd 8af5 63be ea65 ab3d 13ce fbbd
000000a0: 7561 82be 18fb 7cbe 97a9 a1bc 6287 b23d
000000b0: 7f6b 053e c8a2 043d 7474 21bd a73c 73be
000000c0: e34c 01be 7715 b8bd eabf 21be 1c17 0abd
000000d0: 7de3 983c b3e9 a0bb d85c 823c a53f f63c
000000e0: 7821 e13e 7980 8e3d c2d6 7ebd fa58 fa3d
000000f0: 0631 a03d 74a0 bbbd 7f63 0b3c 6475 533d
00000100: f1b8 40bd 8a18 d43d 3790 c73d b249 fc3c
00000110: 084e 20be 80aa dfbd a038 d0bd a09d e53c
00000120: f611 673c bc42 2e3c 6408 87bd 9117 1d3e
00000130: ddb8 9b3e 5a61 efbd a4a1 293d b080 0dbe
00000140: 298d 1abd 2e5c 8a3c d6ed 673e 6336 d23d
00000150: 0182 54bd 0367 053d f405 0cbe 6b8a f43c
00000160: 0247 f73e 9ec7 c5bc c162 28bd 2879 353e
00000170: 4628 afbd 50ef 8fbd d8cb dfbd 9803 2d3d
00000180: b90e 66bd 8fcc b3bd d82c 8abd ffb6 2c3d
00000190: 3ebb 283d 7dad cc3d 24ca 26bd 745e 703e
000001a0: 144c 2bbe 2444 54bc b68e 26be 2217 ac3d
000001b0: 8215 e43d fc23 0abe 7aef fbba f3c6 9cbc
000001c0: 811f 0e3e 24d0 ebbd af68 373e 6cd7 0b3c
000001d0: 0111 52bd 2a04 d5bc c05b 11bc a563 16be
000001e0: e4e2 a33e 6f47 363b 8f33 303c 93b1 23be
000001f0: ea96 e6bd 38a6 2ebd e2c6 d4bc 85a1 1e3e

bias f4 [4]
0.33767602 -0.9064981 0.09668515 0.097603336
00000000: dfe3 ac3e 4210 68bf dd02 c63d 42e4 c73d
