explainability/local/maintanance_agent.pt (torch, 42269 bytes, 21 tensors)

weight f4 [64, 10]
0.010977904 0.018410387 0.14302209 0.24251568 0.27506575 -0.30576488 0.27378395 0.07074968
0.2697145 -0.25225863 0.17364217 0.0017850755 0.23332909 0.31713486 -0.25763285 0.06967628
-0.01854678 -0.2243948 -0.18116006 0.15163293 0.19862692 0.080314904 -0.20552179 -0.01462758
-0.022555267 0.25425044 0.1571445 -0.079005435 0.066060334 -0.22964302 0.24735664 0.13686648
-0.02245652 -0.065909274 0.2969785 0.09818259 -0.20663762 -0.04095534 0.19544403 0.08776471
0.19101976 -0.26631588 -0.3105396 0.11314437 0.009368231 0.16932294 0.045527104 -0.23537755
-0.037049126 0.29302302 0.27978915 -0.013718296 -0.17007902 0.18301477 -0.03787676 -0.24257642
-0.20250022 0.07938999 0.22009084 -0.08537339 0.05395469 -0.04643789 -0.19696508 -0.14463891
-0.25387838 -0.19286457 -0.1043047 -0.18703663 -0.01535964 -0.1558453 0.06367755 -0.051317696
-0.05032106 -0.095201276 0.06583064 0.21716753 -0.12607674 0.26298633 0.075905 -0.24292561
-0.07804659 -0.12832542 -0.07236205 0.19841011 -0.24340115 0.19606844 -0.18287978 -0.13462688
0.07876586 0.14586288 -0.28254807 -0.14716396 0.19601855 0.049170494 -0.17365971 0.24564108
-0.30410424 -0.038369775 -0.059723705 0.30110088 0.28998536 -0.011991124 0.15928191 0.019070353
-0.14139564 -0.1662963 0.1271769 0.17313781 -0.0766807 0.1511037 0.27135453 -0.1700235
0.2377585 0.19794175 -0.039296493 0.04342538 -0.10851034 -0.15999928 -0.07156186 0.08188975
0.1372392 0.019268097 0.038051877 0.31258163 0.08400438 0.16527367 0.18620877 0.31431183
0.109401 0.18086728 -0.05654931 -0.25775543 -0.16322157 -0.0668636 -0.060612112 0.044130296
-0.17865227 -0.011318237 -0.12564649 -0.15154211 0.25731227 -0.2547525 -0.23917195 -0.100990355
-0.1521806 -0.20743023 -0.17975932 -0.303129 0.064962566 0.08465329 -0.20842248 -0.10563917
0.100624055 0.13900259 -0.14110528 0.057363063 0.022596395 0.14650612 -0.23693645 -0.15355395
0.08429453 0.2127095 0.2847954 0.22161588 -0.13954966 -0.016349167 0.2417056 0.14508478
0.10999962 -0.2494376 -0.27587903 0.31378102 -0.04126413 -0.04570232 0.33031818 0.0976603
0.25426236 -0.1779747 0.010238404 0.17216918 0.21926191 0.13855746 -0.22938742 -0.13883236
0.09550411 0.27462175 0.30769655 0.16558747 0.06935982 0.22484341 -0.20256712 0.20547327
-0.18114828 0.018859254 -0.18868513 0.3151485 0.26605362 0.28594938 -0.019351702 0.17629296
0.05660492 -0.02677127 0.25803474 0.30001497 0.031057317 0.22709659 -0.26721087 -0.06076938
0.18528293 0.15055478 -0.2191958 0.035607524 -0.15276814 0.3167445 0.09864654 -0.061358213
0.1402776 0.3230585 -0.013219683 -0.3043593 0.24630335 -0.161142 0.09218711 0.15882729
0.21071564 0.29328153 0.23594527 -0.12493854 -0.12286696 -0.13349257 0.3035134 -0.18564054
0.22847691 0.26849964 -0.15018387 -0.10173005 -0.15880162 0.11244682 0.32497135 -0.1020257
0.2730117 0.10194988 -0.24092768 0.33286145 0.077237874 -0.15179834 -0.17073637 0.014324178
0.08915798 0.2578607 -0.2853479 0.16072935 0.108613096 0.22515395 -0.051705997 0.14486223
00000000: abdc 333c 61d1 963c 6274 123e 0856 783e
00000010: 6bd5 8c3e 378d 9cbe 692d 8c3e 35e5 903d
00000020: 0518 8a3e 0b28 81be 41cf 313e 32f9 e93a
00000030: d2ed 6e3e 805f a23e 74e8 83be 70b2 8e3d
00000040: 6bef 97bc c0c7 65be 0682 39be aa45 1b3e
00000050: db64 4b3e 247c a43d 4e74 52be 84a8 6fbc
00000060: d3c5 b8bc 1d2d 823e 7dea 203e 9acd a1bd
00000070: a44a 873d 8a27 6bbe 0f4b 7d3e ba26 0c3e
00000080: bcf6 b7bc 71fb 86bd 910d 983e f413 c93d
00000090: d098 53be c9c0 27bd 7b22 483e fcbd b33d
000000a0: af9a 433e 8e5a 88be 0cff 9ebe 3cb8 e73d
000000b0: 357d 193c fe62 2d3e a17a 3a3d d006 71be
000000c0: d3c0 17bd 1d07 963e 8640 8f3e b4c2 60bc
000000d0: 3229 2ebe 3968 3b3e a924 1bbd f465 78be
000000e0: 385c 4fbe 3897 a23d 7e5f 613e 3ed8 aebd
000000f0: 98ff 5c3d a835 3ebd 37b1 49be 391c 14be
00000100: 59fc 81be 4a7e 45be b49d d5bd 8886 3fbe
00000110: 00a7 7bbc e995 1fbe 6069 823d 8132 52bd
00000120: 751d 4ebd e3f8 c2bd 37d2 863d 2a61 5e3e
00000130: 431a 01be 25a6 863e 1574 9b3d 7ec1 78be
00000140: e4d6 9fbd bd67 03be 8e32 94bd 052c 4b3e
00000150: 273e 79be 2ac6 483e d644 3bbe a1db 09be
00000160: ff4f a13d 145d 153e 24aa 90be 26b2 16be
00000170: 16b9 483e 0067 493d dad3 31be 5689 7b3e
00000180: 8db3 9bbe a029 1dbd d8a0 74bd e529 9a3e
00000190: f678 943e 6b76 44bc cc1a 233e 6e39 9c3c
000001a0: 05ca 10be 9449 2abe a93a 023e 0a4b 313e
000001b0: c50a 9dbd eeba 1a3e fbee 8a3e a41a 2ebe
000001c0: f776 733e 3eb1 4a3e 5cf5 20bd d0de 313d
000001d0: ab3a debd dad6 23be 068f 92bd d0b5 a73d
000001e0: 6f88 0c3e 21d8 9d3c 49dc 1b3d b30a a03e
000001f0: 7d0a ac3d 803d 293e 83ad 3e3e 7bed a03e
00000200: a20d e03d 4635 393e 40a0 67bd 85f8 83be
00000210: 8e23 27be c8ef 88bd 6844 78bd f8c1 343d
00000220: 9ff0 36be 2070 39bc 79a9 00be db2d 1bbe
00000230: 6fbe 833e eb6e 82be 7ee9 74be 08d4 cebd
00000240: 3bd5 1bbe 9768 54be d412 38be b933 9bbe
00000250: 180b 853d b45e ad3d b46c 55be 5959 d8bd
00000260: fc13 ce3d b256 0e3e e77d 10be 88f5 6a3d
00000270: 131c b93c b305 163e 789f 72be 3f3d 1dbe
00000280: 9ca2 ac3d 85d0 593e b4d0 913e 46ef 623e
00000290: 1be6 0ebe b0ee 85bc ac81 773e 1b91 143e
000002a0: 7b47 e13d 926c 7fbe 0440 8dbe e8a7 a03e
000002b0: 9404 29bd 5b32 3bbd 771f a93e 2002 c83d
000002c0: ad2e 823e 003f 36be fbbe 273c 1e4d 303e
000002d0: 3286 603e 02e2 0d3e 89e4 6abe 122a 0ebe
000002e0: a997 c33d 399b 8c3e 678a 9d3e c38f 293e
000002f0: 850c 8e3d 5a3d 663e c16d 4fbe 9667 523e
00000300: ef7e 39be b97e 9a3c ad36 41be 255b a13e
00000310: 2e38 883e f567 923e 7687 9ebc 2486 343e
00000320: 90da 673d 6c4f dbbc 211d 843e 909b 993e
00000330: ea6b fe3c 028c 683e ddcf 88be 50e9 78bd
00000340: cfba 3d3e 082b 1a3e dd74 60be 32d9 113d
00000350: 406f 1cbe 562c a23e 3207 ca3d c052 7bbd
00000360: eea4 0f3e ec67 a53e 5f97 58bc fbd4 9bbe
00000370: f236 7c3e 6902 25be 98cc bc3d 9fa3 223e
00000380: d7c5 573e ff28 963e a39b 713e c7df ffbd
00000390: aca1 fbbd 47b2 08be 1c66 9b3e 8e18 3ebe
000003a0: daf5 693e c978 893e cdc9 19be d857 d0bd
000003b0: e49c 22be 854a e63d a562 a63e daf2 d0bd
000003c0: 31c8 8b3e 19cb d03d bfb5 76be d16c aa3e
000003d0: e42e 9e3d 0671 1bbe 84d5 2ebe f5af 6a3c
000003e0: 7698 b63d 5106 843e 1f19 92be 3c96 243e
000003f0: 8b70 de3d c28e 663e abc9 53bd c456 143e

bias f4 [64]
-0.19854233 0.2913942 -0.18016706 -0.2259782 0.1394449 -0.1071648 0.10445103 -0.22716172
0.193056 -0.040297568 -0.25801963 0.26525426 0.21288161 -0.09238538 -0.25158823 0.010500412
0.08149801 0.046535794 0.19071871 0.24306262 -0.029396191 0.28383926 -0.22860242 0.050772864
-0.052006576 0.22424935 0.24155247 0.24641898 0.021604445 -0.08192175 -0.007762855 0.06846552
-0.11337351 -0.12899022 0.18406634 0.22149822 0.07829517 -0.060930714 0.29739767 -0.029778574
-0.17902738 -0.2311892 -0.16719906 0.25066447 0.024342248 0.34997347 0.20481162 -0.008082031
-0.31337717 -0.1397902 0.1647133 -0.29442036 -0.27212223 0.16861889 0.08188198 0.13389671
-0.106913365 -0.00945695 0.22334456 0.11891662 0.2439842 -0.114365816 -0.14706333 0.25600204
00000000: ae4e 4bbe 9f31 953e b77d 38be d466 67be
00000010: a5ca 0e3e 3879 dbbd 6cea d53d 159d 68be
00000020: 79b0 453e 100f 25bd 261b 84be 68cf 873e
00000030: a3fd 593e 8c34 bdbd 2cd0 80be ec09 2c3c
00000040: 6ee8 a63d 519c 3e3d c44b 433e 68e5 783e
00000050: 48d0 f0bc 6153 913e c116 6abe 35f7 4f3d
00000060: d904 55bd 9fa1 653e 8859 773e 4255 7c3e
00000070: cefb b03c 97c6 a7bd 8c5f febb a737 8c3d
00000080: 5f30 e8bd 0316 04be e37b 3c3e 6ed0 623e
00000090: 3859 a03d 7c92 79bd 8244 983e 32f2 f3bc
000000a0: f452 37be ddbc 6cbe 3b36 2bbe 1857 803e
000000b0: 6569 c73c b92f b33e 23ba 513e 7f6a 04bc
000000c0: f972 a0be 2a25 0fbe 9aaa 283e 44be 96be
000000d0: 9b53 8bbe 6eaa 2c3e bdb1 a73d 381c 093e
000000e0: 65f5 dabd 53f1 1abc 70b4 643e 8f8a f33d
000000f0: fed6 793e a038 eabd c597 16be b312 833e

weight f4 [32, 64]
-0.10811044 -0.111180216 0.058266997 0.029282182 -0.045435816 -0.011076614 -0.011576384 0.003296882
-0.01542677 -0.122748375 -0.07262516 0.08181441 0.10365367 -0.065001994 0.12283595 0.10983789
0.03893462 -0.10126723 -0.08148295 -0.064220265 -0.053582624 -0.09963916 -0.019271865 -0.001962155
-0.057287216 -0.02523835 -0.08658536 0.044421524 -0.01910466 0.023622245 -0.04162073 -0.006475657
0.012248665 0.12089096 -0.022227302 0.114726156 -0.07837595 -0.008082315 -0.11995785 0.1204073
-0.040163293 -0.023985684 -0.07223678 0.06927043 -0.049463436 -0.046694025 0.0707283 0.12464708
-0.08884166 -0.10458341 -0.041044727 0.057686523 -0.087776825 -0.0448841 0.026758075 -0.040985227
0.10672954 -0.018111542 -0.029071778 -0.01226458 -0.02112718 0.082302704 -0.031114355 0.10413538
0.028085368 -0.047218 0.03300995 -0.029199155 0.14345002 -0.0801717 0.052398488 0.1232502
0.079278834 -0.12336627 -0.015923679 -0.05734835 0.027723506 -0.10348599 0.10535911 -0.08184169
-0.054576583 0.103670865 0.017140107 0.12974234 -0.02144868 0.1559087 0.08159614 0.13062286
-0.06943182 -0.027945822 0.14718479 0.15302397 0.10914926 -0.007759953 -0.06991044 0.028700948
0.017926836 0.12630449 0.14135292 0.12250771 0.06258131 0.007314742 -0.07663298 -0.0011796126
0.11393554 -0.00060247874 0.0070903846 -0.018907014 0.13187939 0.019338593 -0.0064740013 0.14574021
0.03771721 -0.076049946 -0.06640892 0.11637567 0.011251226 0.1230223 0.057780348 0.044732317
-0.01355875 0.14880772 0.043186106 0.06532447 -0.08057769 -0.010764257 0.046894234 0.10514267
0.04886204 -0.068981975 0.12139799 0.09298517 0.024154529 0.07977839 -0.053545147 -0.049856395
0.021394148 -0.06251168 0.09041013 -0.054397523 0.11047895 -0.07277942 -0.012908265 0.0741477
-0.0013985932 -0.073339194 -0.11953366 -0.08751121 0.008350417 -0.07957584 -0.11414978 0.062058434
-0.021519125 -0.021251991 -0.0621562 -0.015076384 0.089041725 -0.121362135 0.051309183 0.079383925
0.021487549 0.040567994 -0.0036899447 -0.058771104 -0.028673843 -0.10351457 -0.06744759 0.034444496
-0.10725592 -0.0013147593 -0.11267874 -0.060138598 -0.058836967 -0.09958501 -0.026510045 0.122789174
0.06649475 -0.12452662 0.11934094 -0.081313804 -0.07594752 -0.09708518 0.02124536 0.0184374
0.034738794 -0.044667214 0.03753026 0.0059863776 -0.049673572 0.06349358 0.0977156 0.06731072
0.13527186 0.0839737 -0.0067680855 0.14276636 0.1355173 -0.02367516 -0.09562662 -0.05312819
-0.036882516 -0.081264585 0.06513931 0.015128128 0.0019768274 0.06652686 0.015603647 0.10724436
-0.021423751 0.09820577 0.1254127 0.077245206 0.04897463 0.002823191 0.021692099 0.053751353
0.13104074 0.06102746 -0.07981693 -0.025986426 -0.008588831 -0.0729464 0.13352698 0.116993815
-0.098008424 0.05420006 0.010602819 -0.06420621 0.10981174 0.009463495 0.06431073 0.10913599
0.12897772 0.07697227 -0.030573288 0.09919406 -0.07516478 0.113078244 0.08234896 0.113211095
-0.086498484 0.058800336 -0.013370882 0.090291575 0.0539155 -0.0010926418 0.099247605 0.04571344
0.12417419 -0.018601581 -0.08238524 0.018326458 -0.02946943 -0.012573684 0.062107775 0.10965465
00000000: 0269 ddbd 74b2 e3bd 60a9 6e3d 30e1 ef3c
00000010: e81a 3abd b07a 35bc e0aa 3dbc 8010 583b
00000020: 90c0 7cbc 8063 fbbd 80bc 94bd 508e a73d
00000030: 6048 d43d c41f 85bd 6a91 fb3d b0f2 e03d
00000040: e879 1f3d 3265 cfbd 88e0 a6bd ea85 83bd
00000050: 7479 5bbd 9e0f ccbd 08e0 9dbc 8097 00bb
00000060: 00a6 6abd a8c0 cebc aa53 b1bd 58f3 353d
00000070: 6081 9cbc 7083 c13c 807a 2abd c031 d4bb
00000080: a0ae 483c ae95 f73d 0816 b6bc 8cf5 ea3d
00000090: 9283 a0bd b06b 04bc 76ac f5bd 1a98 f63d
000000a0: 4482 24bd a07d c4bc e0f0 93bd a8dd 8d3d
000000b0: 2c9a 4abd 3c42 3fbd 00da 903d f846 ff3d
000000c0: 9ef2 b5bd d42f d6bd 841e 28bd b448 6c3d
000000d0: 56c4 b3bd 64d8 37bd c033 db3c 20e0 27bd
000000e0: 0495 da3d a85e 94bc f027 eebc 60f1 48bc
000000f0: e812 adbc 528e a83d 88e3 febc ee44 d53d
00000100: 4913 e63c a967 41bd 7135 073d 1133 efbc
00000110: 90e4 123e 0f31 a4bd cc9f 563d 9a6a fc3d
00000120: f15c a23d 74a7 fcbd 6072 82bc 1ae6 6abd
00000130: 681c e33c 76f0 d3bd 84c6 d73d 9e9c a7bd
00000140: b28b 5fbd 6451 d43d 6969 8c3c 2ddb 043e
00000150: 24b5 afbc 88a6 1f3e e11b a73d 00c2 053e
00000160: 4532 8ebd a3ee e4bc 9cb7 163e 51b2 1c3e
00000170: a689 df3d 3447 febb 342d 8fbd 401e eb3c
00000180: 4ddb 923c f755 013e d2be 103e 52e5 fa3d
00000190: a12a 803d 81b0 ef3b c0f1 9cbd 3b9d 9aba
000001a0: 0957 e93d aaef 1dba 7556 e83b e2e2 9abc
000001b0: 640b 073e f86b 9e3c dc23 d4bb ec3c 153e
000001c0: 5c7d 1a3d 13c0 9bbd 6601 88bd 5e56 ee3d
000001d0: 1057 383c 1ef3 fb3d 16ab 6c3d 3c39 373d
000001e0: 8525 5ebc 0d61 183e eae3 303d d6c8 853d
000001f0: ea05 a5bd 915c 30bc 2b14 403d 0a55 d73d
00000200: 9023 483d 6c46 8dbd 829f f83d 026f be3d
00000210: b8df c53c da62 a33d 2852 5bbd 3836 4cbd
00000220: c842 af3c 2006 80bd f228 b93d f0cf 5ebd
00000230: ca42 e23d 600d 95bd 307d 53bc c0da 973d
00000240: 0051 b7ba dc32 96bd 10ce f4bd 1439 b3bd
00000250: 30d0 083c a8f8 a2bd 5cc7 e9bd fc30 7e3d
00000260: e048 b0bc a818 aebc 8097 7ebd f002 77bc
00000270: 825b b63d b68c f8bd 9429 523d 0a94 a23d
00000280: a806 b03c a02a 263d 00d3 71bb f8b9 70bd
00000290: 68e5 eabc 72ff d3bd f621 8abd ac15 0d3d
000002a0: fea8 dbbd 0054 acba 1cc4 e6bd e453 76bd
000002b0: 08ff 70bd 3af3 cbbd 982b d9bc e478 fb3d
000002c0: 662e 883d d007 ffbd 0669 f43d da87 a6bd
000002d0: 608a 9bbd 98d4 c6bd c00a ae3c 080a 973c
000002e0: 444a 0e3d f8f4 36bd 54b9 193d 6029 c43b
000002f0: 8476 4bbd ec08 823d 1e1f c83d 34da 893d
00000300: b584 0a3e 67fa ab3d d1c6 ddbb 5831 123e
00000310: 0cc5 0a3e 69f2 c1bc e4d7 c3bd f29c 59bd
00000320: 1f12 17bd 0c6e a6bd c267 853d f8db 773c
00000330: a98d 013b 3c3f 883d 70a6 7f3c eea2 db3d
00000340: dd80 afbc 1b20 c93d 306c 003e bc32 9e3d
00000350: 9f99 483d 4905 393b a1b3 b13c 612a 5c3d
00000360: 8b2f 063e eef7 793d 0f77 a3bd 7ce1 d4bc
00000370: 2bb8 0cbc ec64 95bd 4cbb 083e 749a ef3d
00000380: a4b8 c8bd e200 5e3d 72b7 2d3c 8c7e 83bd
00000390: fae4 e03d c60c 1b3c 58b5 833d b182 df3d
000003a0: bc12 043e a3a3 9d3d d574 fabc 4126 cb3d
000003b0: feef 99bd 9195 e73d 92a6 a83d 38db e73d
000003c0: 1e26 b1bd 9fd8 703d 8b11 5bbc caea b83d
000003d0: 80d6 5c3d fa36 8fba 5442 cb3d 043e 3b3d
000003e0: 0a4f fe3d 5862 98bc 98b9 a8bd 5e21 963c
000003f0: e069 f1bc da01 4ebc b964 7e3d 9e92 e03d

bias f4 [32]
-0.03088981 -0.006845246 -0.063096434 0.14895104 0.062844425 -0.06926009 0.11940672 -0.07683826
-0.05804919 0.070146844 0.040431958 -0.03038526 -0.084959 0.14611739 0.10492121 -0.13017072
-0.062210288 0.004197882 -0.05851219 -0.029279767 -0.06686891 -0.05730772 0.07255797 0.063100584
0.11767641 0.011913173 0.057906725 -0.10187876 0.12467496 0.0962721 -0.039089173 0.0022241557
00000000: a00c fdbc 164e e0bb b438 81bd 9f86 183e
00000010: 94b4 803d 3cd8 8dbd 838b f43d 615d 9dbd
00000020: fdc4 6dbd 26a9 8f3d fb9b 253d 82ea f8bc
00000030: fcfe adbd cc9f 153e eee0 d63d 794b 05be
00000040: 37d0 7ebd 638e 893b 7aaa 6fbd 1fdc efbc
00000050: 91f2 88bd 80bb 6abd 4699 943d e13a 813d
00000060: 5400 f13d 782f 433c 9a2f 6d3d d0a5 d0bd
00000070: 9655 ff3d 4f2a c53d f81b 20bd 24c3 113b

weight f4 [1, 32]
-0.100714825 -0.006989126 -0.1327135 0.04844485 0.055253517 -0.08874876 -0.0453463 -0.055478755
0.16142617 0.10107838 -0.14062431 -0.008287123 -0.12635614 -0.17423432 0.097418405 -0.17494616
-0.12427048 0.023203162 -0.1571782 -0.02227388 -0.17219038 -0.09998663 -0.035621732 0.06406003
0.054308597 0.088963926 -0.025621688 0.12128474 0.092685506 -0.0051239096 -0.041194618 -0.13347487
00000000: 9343 cebd 0a05 e5bb 0ce6 07be 1b6e 463d
00000010: 8351 623d e9c1 b5bd 0bbd 39bd b13d 63bd
00000020: e74c 253e 2f02 cf3d d2ff 0fbe b7c6 07bc
00000030: 8163 01be 7b6a 32be 4d83 c73d 1625 33be
00000040: 8581 febd 8f14 be3c 52f3 20be b677 b6bc
00000050: ad52 30be cac5 ccbd 18e8 11bd e831 833d
00000060: b172 5e3d b832 b63d 93e4 d1bc 2264 f83d
00000070: e6d1 bd3d 78e6 a7bb b0bb 28bd a3ad 08be

weight f4 [2, 32]
0.06023994 0.10442036 0.120143995 -0.047561135 -0.050990492 0.15313916 0.056065463 0.00046998434
0.18515293 -0.11857753 -0.030517166 -0.0028476466 0.12431515 0.031121192 0.19395876 0.027492922
-0.13258016 0.0036237554 0.11931343 0.1494408 0.14102013 0.07841351 -0.1374208 0.18907575
-0.056331865 0.16171804 0.03507646 0.12835558 -0.08152378 -0.07540038 0.0371242 -0.10401019
0.031182662 0.043082844 0.05824305 -0.16726492 -0.12686491 0.016099256 -0.053781904 0.020561917
-0.042205762 -0.11070473 0.02182995 0.134562 -0.0077086166 -0.17788394 -0.18698663 0.018526081
-0.04728521 -0.06609441 0.12248161 -0.034159135 0.06310041 -0.036282793 -0.149815 -0.16796957
-0.17037153 0.024956783 0.08542588 -0.1622735 0.054773584 -0.04953858 -0.101262294 -0.20170653
00000000: 28be 763d 57da d53d 0e0e f63d 77cf 42bd
00000010: 68db 50bd 83d0 1c3e e6a4 653d 3b68 f639
00000020: bb98 3d3e c7d8 f2bd 23ff f9bc 959f 3abb
00000030: f198 fe3d dff1 fe3c 209d 463e d638 e13c
00000040: 18c3 07be 877c 6d3b 995a f43d 0207 193e
00000050: 9567 103e 4397 a03d 0ab8 0cbe 139d 413e
00000060: 3ebc 66bd 6a99 253e 56ac 0f3d a56f 033e
00000070: f1f5 a6bd 846b 9abd 8c0f 183d 4b03 d5bd
00000080: c872 ff3c a377 303d 4490 6e3d 7f47 2bbe
00000090: e0e8 01be 96e2 833c 6a4a 5cbd 7771 a83c
000000a0: f3df 2cbd 29b9 e2bd b9d4 b23c 9fca 093e
000000b0: 9098 fcbb 3527 36be 6c79 3fbe 02c4 973c
000000c0: 23ae 41bd 825c 87bd a3d7 fa3d 73ea 0bbd
000000d0: ca3a 813d 449d 14bd 1a69 19be 3700 2cbe
000000e0: e075 2ebe 2b72 cc3c c4f3 ae3d 062b 26be
000000f0: 445a 603d f7e8 4abd 9b62 cfbd 288c 4ebe

bias f4 [2]
-0.12933771 0.11740627
00000000: 1b71 04be b372 f03d

exp_avg f4 [64, 10]
-0.0049103466 -0.000652588 -0.0037792597 -0.0007745702 -0.019213302 0.0 -0.017664906 -0.004609174
-0.0073143314 0.0 -0.00029332226 -3.101018e-05 -0.00023975302 -6.5945096e-05 -4.5457058e-05 0.0
-0.0012456065 -0.00027599616 -0.00022743181 0.0 -0.001590318 -0.00019684265 -0.0010590274 -0.00036019212
-0.004804044 0.0 -0.0065921615 -0.0014798184 -0.0026172088 0.0 -0.0023459974 -0.00032372432
-0.0017094585 -0.00042320293 -0.011409405 0.0 -0.0059637516 -0.0022151028 -0.0033080694 0.0
0.0002982852 4.531307e-05 0.0003513584 -3.0631512e-05 0.0020973643 0.0 0.0020591496 0.00027897226
0.00040187297 0.0 -0.00036240602 -4.932216e-05 -0.00016675804 -0.00021422387 -0.00090905646 0.0
-0.00042636524 -0.00034874812 -0.0010644495 0.0 0.0 0.0 0.0 0.0
0.0 0.0 0.0 0.0 0.0 0.0 -0.0009310658 -0.00013736375
-0.000598071 -0.00017932866 -0.004285042 0.0 -0.0014467452 -0.00087518344 -0.0014694398 0.0
-2.6196376e-05 -3.5621872e-06 0.0 -2.6634649e-05 -2.6634649e-05 0.0 -2.0653939e-05 -2.458572e-05
-7.990395e-05 0.0 0.0 0.0 0.0 0.0 0.0 0.0
0.0 0.0 0.0 0.0 -0.0024434137 -0.00029761798 -0.0021825933 -0.00022135848
-0.0045751873 0.0 -0.012406586 -0.0022751237 -0.0035877067 0.0 -7.413694e-05 -9.119529e-06
7.230775e-06 -5.1712163e-05 6.7444053e-06 0.0 3.3060183e-05 -7.097837e-05 -7.6946104e-05 0.0
-0.0033348277 -0.00044195013 -0.0025325269 -0.000539368 -0.01286303 0.0 -0.0116374 -0.0031312509
-0.00490929 0.0 0.0 0.0 0.0 0.0 0.0 0.0
0.0 0.0 0.0 0.0 0.0 0.0 0.0 0.0
0.0 0.0 0.0 0.0 0.0 0.0 0.00011660243 1.1670411e-05
0.00011925333 0.0 3.8748134e-05 0.0 0.0006989545 0.000107201246 1.4206418e-05 0.0
-0.0018803204 -0.0002411344 -0.0013756793 -0.000338213 -0.006406172 0.0 -0.0061648088 -0.0017662381
-0.0028809784 0.0 -0.0028373846 -0.0003753778 -0.0021446615 -0.00046585355 -0.011094914 0.0
-0.009704665 -0.0026643553 -0.004120197 0.0 -0.0047605247 -0.00063477916 -0.0036610784 -0.0007483098
-0.018739944 0.0 -0.01719512 -0.0044690133 -0.007000759 0.0 -0.0034074825 -0.0004258477
-0.0025575813 -0.00081967586 -0.008100978 0.0 -0.015546626 -0.0031850599 -0.0055532255 0.0
-0.00088841 -0.00013251176 -0.0006769005 -0.00026438 -0.0034178603 0.0 -0.0009773676 -0.00084324507
-0.001968279 0.0 -0.0027259416 -0.00035828745 -0.0020474421 -0.0004568529 -0.010281077 0.0
-0.009269405 -0.0025604598 -0.0039626635 0.0 -0.003914887 -0.00052004046 -0.0030301255 -0.00060040766
-0.015338102 0.0 -0.014050307 -0.0036747216 -0.005789057 0.0 -0.001485727 -0.00017373904
-0.0011191403 -0.00038850436 -0.0029442147 0.0 -0.0038021184 -0.0013994393 -0.0037857136 0.0
-0.0021850422 -0.00030916653 -0.0011247566 -0.00070260675 -0.009786662 0.0 -0.0035499418 -0.0020602206
-0.0032006765 0.0 0.00038529024 5.7057357e-05 0.00035263397 2.7492064e-05 0.0021109483 0.0
00000000: f9e6 a0bb 7012 2bba 75ad 77bb 870c 4bba
00000010: 3765 9dbc 0000 0000 feb5 90bc 8e08 97bb
00000020: 0fad efbb 0000 0000 0cc9 99b9 ed10 02b8
00000030: 3666 7bb9 014c 8ab8 25a9 3eb8 0000 0000
00000040: 9e43 a3ba 94b3 90b9 c37a 6eb9 0000 0000
00000050: 3872 d0ba 8c67 4eb9 10cf 8aba 2bd8 bcb9
00000060: 3e6b 9dbb 0000 0000 0f03 d8bb 77f6 c1ba
00000070: 7a85 2bbb 0000 0000 4ebf 19bb 8bb9 a9b9
00000080: e90f e0ba 56e1 ddb9 83ee 3abc 0000 0000
00000090: 936b c3bb 422b 11bb 32cc 58bb 0000 0000
000000a0: 2963 9c39 8a0e 3e38 8736 b839 567a 00b8
000000b0: ef73 093b 0000 0000 ccf2 063b 0643 9239
000000c0: 7ab2 d239 0000 0000 5001 beb9 44df 4eb8
000000d0: c5db 2eb9 48a1 60b9 bf4d 6eba 0000 0000
000000e0: c689 dfb9 2ed8 b6b9 0085 8bba 0000 0000
000000f0: 0000 0000 0000 0000 0000 0000 0000 0000
00000100: 0000 0000 0000 0000 0000 0000 0000 0000
00000110: 0000 0000 0000 0000 c512 74ba 4d09 10b9
00000120: dec7 1cba 2c0a 3cb9 8a69 8cbb 0000 0000
00000130: b7a0 bdba 916c 65ba 389a c0ba 0000 0000
00000140: 4ac0 dbb7 e90d 6fb6 0000 0000 796d dfb7
00000150: 796d dfb7 0000 0000 ff41 adb7 6f3d ceb7
00000160: 1b92 a7b8 0000 0000 0000 0000 0000 0000
00000170: 0000 0000 0000 0000 0000 0000 0000 0000
00000180: 0000 0000 0000 0000 0000 0000 0000 0000
00000190: ae21 20bb 9c09 9cb9 d709 0fbb 771c 68b9
000001a0: 74eb 95bb 0000 0000 fe44 4bbc 3e1a 15bb
000001b0: bb1f 6bbb 0000 0000 f779 9bb8 1400 19b7
000001c0: e29f f236 83e5 58b8 004e e236 0000 0000
000001d0: 1aaa 0a38 39da 94b8 205e a1b8 0000 0000
000001e0: 208d 5abb 8bb5 e7b9 c0f8 25bb 6064 0dba
000001f0: 75bf 52bc 0000 0000 cbaa 3ebc ac35 4dbb
00000200: 1cde a0bb 0000 0000 0000 0000 0000 0000
00000210: 0000 0000 0000 0000 0000 0000 0000 0000
00000220: 0000 0000 0000 0000 0000 0000 0000 0000
00000230: 0000 0000 0000 0000 0000 0000 0000 0000
00000240: 0000 0000 0000 0000 0000 0000 0000 0000
00000250: 0000 0000 0000 0000 7488 f438 09cc 4337
00000260: a517 fa38 0000 0000 7e85 2238 0000 0000
00000270: 0b3a 373a 3bd1 e038 1a58 6e37 0000 0000
00000280: 1575 f6ba 06d9 7cb9 2350 b4ba 2e52 b1b9
00000290: deea d1bb 0000 0000 2a02 cabb 1e81 e7ba
000002a0: ccce 3cbb 0000 0000 6af3 39bb 5bce c4b9
000002b0: 738d 0cbb ce3d f4b9 71c7 35bc 0000 0000
000002c0: 5100 1fbc 779c 2ebb b802 87bb 0000 0000
000002d0: 2dfe 9bbb 4f67 26ba b4ee 6fbb 382a 44ba
000002e0: 8384 99bc 0000 0000 c8dc 8cbc cd70 92bb
000002f0: 9f66 e5bb 0000 0000 1250 5fbb 5044 dfb9
00000300: 189d 27bb 84df 56ba f7b9 04bc 0000 0000
00000310: 47b7 7ebc 70bc 50bb d5f7 b5bb 0000 0000
00000320: 30e4 68ba dbf2 0ab9 0672 31ba 7c9c 8ab9
00000330: 2efe 5fbb 0000 0000 041b 80ba 380d 5dba
00000340: 3efe 00bb 0000 0000 b6a5 32bb 87d8 bbb9
00000350: 612e 06bb c285 efb9 f671 28bc 0000 0000
00000360: b4de 17bc 63cd 27bb 3bd9 81bb 0000 0000
00000370: 7448 80bb 5353 08ba 1295 46bb ad64 1dba
00000380: aa4c 7bbc 0000 0000 4233 66bc 99d3 70bb
00000390: 21b2 bdbb 0000 0000 babc c2ba b82d 36b9
000003a0: 1eb0 92ba 2cb0 cbb9 baf3 40bb 0000 0000
000003b0: f62c 79bb 646d b7ba bc19 78bb 0000 0000
000003c0: ed32 0fbb a117 a2b9 926c 93ba 242f 38ba
000003d0: 3c58 20bc 0000 0000 24a6 68bb c404 07bb
000003e0: 71c2 51bb 0000 0000 c800 ca39 df50 6f38
000003f0: bbe1 b839 c29e e637 d657 0a3b 0000 0000

exp_avg_sq f4 [64, 10]
5.733975e-06 1.1390578e-07 4.217606e-06 1.2106743e-07 0.00013795118 0.0 0.00013111038 5.010227e-06
1.47320425e-05 0.0 8.8302965e-09 1.1828338e-10 6.632011e-09 8.112396e-10 4.27094e-10 0.0
1.695947e-07 7.830435e-09 6.499369e-09 0.0 2.185313e-07 3.910619e-09 1.4950808e-07 8.907044e-09
1.8099506e-06 0.0 7.0723618e-06 1.8726806e-07 8.1534716e-07 0.0 4.5851124e-07 9.91087e-09
3.253807e-07 1.7822856e-08 1.7241888e-05 0.0 4.621881e-06 4.091144e-07 1.0946386e-06 0.0
2.5666536e-06 4.949402e-08 2.0197867e-06 4.6608505e-08 8.710316e-05 0.0 7.51887e-05 2.2347017e-06
4.520176e-06 0.0 6.452041e-09 1.3189032e-10 2.0391344e-09 3.375773e-09 5.8412144e-08 0.0
1.0580464e-08 6.0431358e-09 5.7760012e-08 0.0 0.0 0.0 0.0 0.0
0.0 0.0 0.0 0.0 0.0 0.0 8.748158e-08 2.0071251e-09
6.010133e-08 3.0838145e-09 2.904206e-06 0.0 3.649608e-07 7.86381e-08 3.1647943e-07 0.0
5.5799e-10 1.0317573e-11 0.0 5.7681715e-10 5.7681715e-10 0.0 3.468566e-10 4.914847e-10
5.191353e-09 0.0 0.0 0.0 0.0 0.0 0.0 0.0
0.0 0.0 0.0 0.0 1.4133768e-06 2.6656453e-08 1.05089e-06 2.4077602e-08
5.0670264e-06 0.0 5.426368e-05 1.1893331e-06 4.492379e-06 0.0 2.2391926e-07 3.3581422e-09
1.6260977e-07 5.61341e-09 5.216072e-06 0.0 2.038652e-06 1.9444589e-07 4.3681308e-07 0.0
1.2912182e-06 2.671478e-08 9.2814264e-07 3.054871e-08 2.9187631e-05 0.0 2.6865857e-05 1.131418e-06
3.3996e-06 0.0 0.0 0.0 0.0 0.0 0.0 0.0
0.0 0.0 0.0 0.0 0.0 0.0 0.0 0.0
0.0 0.0 0.0 0.0 0.0 0.0 6.642375e-08 4.2915785e-10
6.815086e-08 0.0 5.1933917e-08 0.0 1.8959707e-06 5.099806e-08 1.500605e-09 0.0
7.564832e-07 1.3664518e-08 6.080176e-07 1.2875446e-08 2.2018186e-05 0.0 1.8025057e-05 6.6251465e-07
1.4956637e-06 0.0 8.773356e-07 1.8032322e-08 6.548927e-07 2.37873e-08 2.5087267e-05 0.0
1.6660018e-05 7.683808e-07 1.9979052e-06 0.0 4.273939e-06 8.774097e-08 3.2412356e-06 9.131516e-08
0.00010954553 0.0 0.00010189444 3.7319826e-06 1.0294422e-05 0.0 2.4461656e-06 4.9648452e-08
1.7033082e-06 6.794942e-08 1.9383333e-05 0.0 9.458865e-05 2.0759887e-06 6.7960577e-06 0.0
4.122884e-08 1.0209213e-09 3.2296903e-08 5.6873075e-09 7.714e-07 0.0 4.97759e-08 3.6819067e-08
2.2176506e-07 0.0 5.237703e-07 1.0432927e-08 3.8855103e-07 1.25266215e-08 1.0141682e-05 0.0
9.959486e-06 4.6012036e-07 1.4548024e-06 0.0 3.634001e-06 7.150719e-08 2.7944645e-06 6.614733e-08
8.9321824e-05 0.0 8.1645885e-05 3.1710003e-06 8.87369e-06 0.0 1.5219095e-07 1.9298556e-09
1.2319227e-07 1.12648e-08 6.434956e-07 0.0 1.5981194e-06 1.3138181e-07 1.150173e-06 0.0
3.9400533e-07 9.390939e-09 9.64346e-08 7.4252156e-08 1.1575215e-05 0.0 1.5993892e-06 3.3450053e-07
6.348306e-07 0.0 1.1454606e-06 2.129935e-08 1.011866e-06 2.9296924e-08 4.393766e-05 0.0
00000000: 7866 c036 5d9c f433 f684 8d36 c3fe 0134
00000010: fda6 1039 0000 0000 ad7a 0939 861d a836
00000020: a429 7737 0000 0000 0eb4 1732 d00d 022f
00000030: c9df e331 e9fd 5e30 23cc ea2f 0000 0000
00000040: d619 3634 9e86 0632 0e51 df31 0000 0000
00000050: 6da5 6a34 2b5e 8631 7888 2034 9805 1932
00000060: 6eed f235 0000 0000 204f ed36 da13 4934
00000070: 3bde 5a35 0000 0000 4e29 f634 7844 2a32
00000080: fcaf ae34 e018 9932 aca2 9037 0000 0000
00000090: a815 9b36 41a4 db34 7feb 9235 0000 0000
000000a0: c63e 2c36 4093 5433 ac8b 0736 982e 4833
000000b0: 27ab b638 0000 0000 a0ae 9d38 e2f7 1536
000000c0: 04ac 9736 0000 0000 c1b0 dd31 d303 112f
000000d0: d520 0c31 3afb 6731 d5e0 7a33 0000 0000
000000e0: 5fc5 3532 fca3 cf31 ce13 7833 0000 0000
000000f0: 0000 0000 0000 0000 0000 0000 0000 0000
00000100: 0000 0000 0000 0000 0000 0000 0000 0000
00000110: 0000 0000 0000 0000 82dd bb33 b8ed 0931
00000120: 0e11 8133 0aeb 5331 e1e5 4236 0000 0000
00000130: d5ef c334 c1df a833 9ae8 a934 0000 0000
00000140: 0e61 1930 3882 352d 0000 0000 e68d 1e30
00000150: e68d 1e30 0000 0000 baaf be2f 2919 0730
00000160: a05f b231 0000 0000 0000 0000 0000 0000
00000170: 0000 0000 0000 0000 0000 0000 0000 0000
00000180: 0000 0000 0000 0000 0000 0000 0000 0000
00000190: 42b3 bd35 29fa e432 4e0c 8d35 35d3 ce32
000001a0: 6d05 aa36 0000 0000 2f99 6338 2da1 9f35
000001b0: 3ebd 9636 0000 0000 756e 7034 10c5 6631
000001c0: d599 2e34 14e0 c031 b805 af36 0000 0000
000001d0: c6cf 0836 e1c8 5034 2283 ea34 0000 0000
000001e0: eb4d ad35 6c7a e532 7a25 7935 a934 0333
000001f0: f6d7 f437 0000 0000 fd5d e137 3adb 9735
00000200: af24 6436 0000 0000 0000 0000 0000 0000
00000210: 0000 0000 0000 0000 0000 0000 0000 0000
00000220: 0000 0000 0000 0000 0000 0000 0000 0000
00000230: 0000 0000 0000 0000 0000 0000 0000 0000
00000240: 0000 0000 0000 0000 0000 0000 0000 0000
00000250: 0000 0000 0000 0000 d8a4 8e33 99ee eb2f
00000260: 555a 9233 0000 0000 f20d 5f33 0000 0000
00000270: 0f79 fe35 f608 5b33 d83d ce30 0000 0000
00000280: 2111 4b35 30c1 6a32 a736 2335 cf32 5d32
00000290: b2b3 b837 0000 0000 8434 9737 a9d7 3135
000002a0: 9dbe c835 0000 0000 0b82 6b35 7fe5 9a32
000002b0: e2cb 2f35 d354 cc32 7f72 d237 0000 0000
000002c0: 1ec1 8b37 ba42 4e35 c013 0636 0000 0000
000002d0: db68 8f36 1c6c bc33 0184 5936 0a19 c433
000002e0: cfbb e538 0000 0000 29b0 d538 f972 7a36
000002f0: 35b6 2c37 0000 0000 ce28 2436 0d3d 5533
00000300: 399d e435 97eb 9133 6499 a237 0000 0000
00000310: e55d c638 3751 0b36 b109 e436 0000 0000
00000320: 9713 3133 7a50 8c30 d2b6 0a33 166a c331
00000330: 3412 4f35 0000 0000 2ec9 5533 fe22 1e33
00000340: 511e 6e34 0000 0000 3999 0c35 803c 3332
00000350: 0c9a d034 aa34 5732 3126 2a37 0000 0000
00000360: ab17 2737 7606 f734 a142 c335 0000 0000
00000370: a9df 7336 7e8f 9933 8988 3b36 e10c 8e33
00000380: 4a52 bb38 0000 0000 4d39 ab38 5fcd 5436
00000390: 35e0 1437 0000 0000 ee69 2334 619e 0431
000003a0: d546 0434 1d87 4132 aebc 2c35 0000 0000
000003b0: f77e d635 f511 0d34 a55f 9a35 0000 0000
000003c0: ae87 d334 c955 2132 7b17 cf33 8e74 9f33
000003d0: 2b33 4237 0000 0000 98aa d635 6795 b334
000003e0: 3a69 2a35 0000 0000 babd 9935 c4f5 b632
000003f0: 73cf 8735 9ea8 fb32 b449 3838 0000 0000

exp_avg f4 [64]
-0.0051807556 -0.0003056981 -0.0016684139 -0.0024705932 0.00031695797 -0.00038098192 0.0 -0.0009781374
-2.6634649e-05 0.0 -0.0025905329 -7.447163e-05 -0.0035171208 0.0 0.0 0.00011925333
-0.0019823278 -0.0029919667 -0.0050209244 -0.0035925019 -0.0009412804 -0.002873584 -0.0041315667 -0.0015774365
-0.0023018026 0.00040671218 -0.00015025951 -0.0049467064 -0.0033028952 0.00066130806 -0.0004578334 -0.0026886866
-0.00023016584 -0.0027710393 -0.0034249327 0.0 -0.002990042 -0.0008178807 -0.0047819815 -0.0026721542
-0.00092536525 -0.00041782693 -0.003713075 -0.0025385905 -0.00016109193 -0.0033563687 -0.0016814941 -4.0952495e-05
0.0 -0.0022216185 -0.0036542155 -0.0011733124 0.0 0.0009022226 -0.00421671 -0.0012787944
-0.0016699161 -0.005231078 0.0010827981 -0.002801797 -0.0030932953 3.572413e-05 -0.001069717 -0.0010117376
00000000: 54c3 a9bb 1b46 a0b9 aeae daba ade9 21bb
00000010: 612d a639 87be c7b9 0000 0000 d834 80ba
00000020: 796d dfb7 0000 0000 eec5 29bb a72d 9cb8
00000030: 7f7f 66bb 0000 0000 0000 0000 a517 fa38
00000040: f1e9 01bb df14 44bb 9186 a4bb 2e70 6bbb
00000050: 42c0 76ba bd52 3cbb 1862 87bb fcc1 ceba
00000060: d7d9 16bb fc3b d539 fb8e 1db9 fb17 a2bb
00000070: 6375 58bb a25b 2d3a 5c09 f0b9 ad34 30bb
00000080: ac58 71b9 539a 35bb d674 60bb 0000 0000
00000090: 95f4 43bb 0b67 56ba 2bb2 9cbb 4f1f 2fbb
000000a0: 3694 72ba c80f dbb9 1057 73bb 7b5e 26bb
000000b0: c9ea 28b9 86f6 5bbb 9465 dcba 68c4 2bb8
000000c0: 0000 0000 9398 11bb 907b 6fbb d5c9 99ba
000000d0: 0000 0000 2283 6c3a 542c 8abb 389d a7ba
000000e0: 16e1 daba 7669 abbb adec 8d3a 5a9e 37bb
000000f0: e2b8 4abb 7ed6 1538 bf35 8cba 489c 84ba

exp_avg_sq f4 [64]
6.4042074e-06 9.571599e-09 2.4195913e-07 5.1259184e-07 2.8401794e-06 7.149522e-09 0.0 9.8309485e-08
5.7681715e-10 0.0 1.565157e-06 2.5478906e-07 1.4404027e-06 0.0 0.0 6.815086e-08
8.423477e-07 9.778774e-07 4.7546937e-06 2.7003694e-06 4.673799e-08 5.84362e-07 4.0613386e-06 1.7331378e-07
4.3865015e-07 1.2673947e-06 8.249359e-07 4.5760517e-06 1.0491392e-06 9.275233e-07 2.0603581e-08 1.3871938e-06
6.4761183e-09 1.7593035e-06 2.0673137e-06 0.0 7.9545833e-07 4.554896e-08 4.6787213e-06 6.106267e-07
3.9290137e-07 9.2635615e-09 2.790351e-06 5.1457965e-07 3.6591706e-07 1.2741286e-06 4.0487382e-07 6.217277e-08
0.0 3.311194e-07 1.6822278e-06 2.741832e-07 0.0 2.4240749e-06 2.1174678e-06 1.2553362e-07
8.893865e-07 6.6402563e-06 4.0213354e-06 6.320768e-07 1.2262666e-06 2.0382028e-07 2.9137337e-07 8.080581e-08
00000000: b9e3 d636 5670 2432 9ce6 8134 0b99 0935
00000010: e999 3e36 dca7 f531 0000 0000 361e d333
00000020: e68d 1e30 0000 0000 6312 d235 f1c9 8834
00000030: dc53 c135 0000 0000 0000 0000 555a 9233
00000040: b11d 6235 9d3f 8335 828a 9f36 fe37 3536
00000050: f7bc 4833 0ddd 1c35 a246 8836 2118 3a34
00000060: 9e7f eb34 5a1b aa35 2a71 5d35 fc8b 9936
00000070: 26d0 8c35 eafa 7835 c1fb b032 9e2f ba35
00000080: 8a84 de31 3521 ec35 2ebc 0a36 0000 0000
00000090: 7b87 5535 9ca1 4333 e9fd 9c36 f3e9 2335
000000a0: f4ef d234 9325 1f32 dd41 3b36 a521 0a35
000000b0: 4273 c434 ba02 ab35 6f5d d934 d783 8533
000000c0: 0000 0000 b4c4 b134 e8c8 e135 7433 9334
000000d0: 0000 0000 4aad 2236 d219 0e36 6bca 0634
000000e0: 2dbe 6e35 5ecf de36 02ef 8636 fdab 2935
000000f0: 3396 a435 b1d9 5a34 0d6e 9c34 7787 ad33

exp_avg f4 [32, 64]
0.0 0.0 0.0 0.0 0.0 0.0 0.0 0.0
0.0 0.0 0.0 0.0 0.0 0.0 0.0 0.0
0.0 0.0 0.0 0.0 0.0 0.0 0.0 0.0
0.0 0.0 0.0 0.0 0.0 0.0 0.0 0.0
0.0 0.0 0.0 0.0 0.0 0.0 0.0 0.0
0.0 0.0 0.0 0.0 0.0 0.0 0.0 0.0
0.0 0.0 0.0 0.0 0.0 0.0 0.0 0.0
0.0 0.0 0.0 0.0 0.0 0.0 0.0 0.0
-0.004247685 -3.4689954e-05 -0.0005005546 -0.0013552041 -0.00018017918 -0.00017321813 0.0 -0.00015775896
-3.5110638e-06 0.0 -0.00038146353 -0.00019451458 -0.0032033594 0.0 0.0 -1.160789e-05
-0.001855789 -0.0030019528 -0.0033470911 -0.0008891034 -0.0002046315 -0.001884735 -0.0023910168 -0.00052233675
-0.00030299253 -0.0002679307 -0.00081343635 -0.0038110025 -0.0013866702 -0.00020164235 -9.581655e-05 -0.0009779785
-3.0493058e-05 -0.0003050247 -0.0013945597 0.0 -0.0023967037 -0.0012061939 -0.0034033505 -0.0018427677
-0.00015692976 -8.4821855e-05 -0.0028820704 -0.0011680815 -0.0020350676 -0.001828155 -0.0018124897 -8.511582e-05
0.0 -0.001135696 -0.00279983 -0.0004268689 0.0 -0.00042377837 -0.0002416773 -0.00016780345
-0.00032300767 -0.0016523805 -0.0021616179 -0.0016924448 -0.002962606 -0.00024892975 -0.00057687843 -0.00027311762
0.0 0.0 0.0 0.0 0.0 0.0 0.0 0.0
0.0 0.0 0.0 0.0 0.0 0.0 0.0 0.0
0.0 0.0 0.0 0.0 0.0 0.0 0.0 0.0
0.0 0.0 0.0 0.0 0.0 0.0 0.0 0.0
0.0 0.0 0.0 0.0 0.0 0.0 0.0 0.0
0.0 0.0 0.0 0.0 0.0 0.0 0.0 0.0
0.0 0.0 0.0 0.0 0.0 0.0 0.0 0.0
0.0 0.0 0.0 0.0 0.0 0.0 0.0 0.0
-0.011264024 -7.8222e-05 -0.0012532469 -0.0033940403 -0.0005506246 -0.000362178 0.0 -0.00036673792
-7.791352e-06 0.0 -0.0009681655 -0.0004962365 -0.008272548 0.0 0.0 -3.618272e-05
-0.0049351132 -0.00805084 -0.008809687 -0.0023267104 -0.0004374872 -0.0048242663 -0.006388544 -0.001170415
-0.0006569314 -0.0008194706 -0.002325934 -0.010088992 -0.0034225092 -0.00063494203 -0.00021384488 -0.0023606573
-6.284279e-05 -0.00073302287 -0.003532848 0.0 -0.006313153 -0.0032546788 -0.008803248 -0.0047958833
-0.00042439328 -0.00017577712 -0.007459534 -0.0029043956 -0.0057719867 -0.0044911713 -0.0048515107 -0.00023059241
0.0 -0.0028839787 -0.0073112943 -0.001182192 0.0 -0.0011541502 -0.0005613766 -0.00035712053
-0.00079733983 -0.004215055 -0.005840628 -0.0042760214 -0.0077722254 -0.00071820506 -0.0014647816 -0.00063983456
00000000: 0000 0000 0000 0000 0000 0000 0000 0000
00000010: 0000 0000 0000 0000 0000 0000 0000 0000
00000020: 0000 0000 0000 0000 0000 0000 0000 0000
00000030: 0000 0000 0000 0000 0000 0000 0000 0000
00000040: 0000 0000 0000 0000 0000 0000 0000 0000
00000050: 0000 0000 0000 0000 0000 0000 0000 0000
00000060: 0000 0000 0000 0000 0000 0000 0000 0000
00000070: 0000 0000 0000 0000 0000 0000 0000 0000
00000080: 0000 0000 0000 0000 0000 0000 0000 0000
00000090: 0000 0000 0000 0000 0000 0000 0000 0000
000000a0: 0000 0000 0000 0000 0000 0000 0000 0000
000000b0: 0000 0000 0000 0000 0000 0000 0000 0000
000000c0: 0000 0000 0000 0000 0000 0000 0000 0000
000000d0: 0000 0000 0000 0000 0000 0000 0000 0000
000000e0: 0000 0000 0000 0000 0000 0000 0000 0000
000000f0: 0000 0000 0000 0000 0000 0000 0000 0000
00000100: 2a30 8bbb 0e80 11b8 a737 03ba 1ba1 b1ba
00000110: 7bee 3cb9 e3a1 35b9 0000 0000 196c 25b9
00000120: 9e9f 6bb6 0000 0000 2bff c7b9 9cf6 4bb9
00000130: 74ef 51bb 0000 0000 0000 0000 82bf 42b7
00000140: f23d f3ba 69bc 44bb df5a 5bbb b812 69ba
00000150: 5a92 56b9 3609 f7ba 9bb2 1cbb 6ded 08ba
00000160: f8da 9eb9 0d79 8cb9 ca3c 55ba 03c2 79bb
00000170: eec0 b5ba f56f 53b9 1ef1 c8b8 832f 80ba
00000180: 58cb ffb7 b9eb 9fb9 a9c9 b6ba 0000 0000
00000190: 0412 1dbb 2719 9eba bf0a 5fbb 0689 f1ba
000001a0: 838d 24b9 63e2 b1b8 1ee1 3cbb 501a 99ba
000001b0: c55e 05bb b49e efba 1091 edba 3580 b2b8
000001c0: 0000 0000 a2db 94ba 5a7d 37bb 60cd dfb9
000001d0: 0000 0000 922e deb9 c26a 7db9 65f4 2fb9
000001e0: 5b59 a9b9 b094 d8ba eea9 0dbb 06d5 ddba
000001f0: 4828 42bb c982 82b9 a839 17ba 3a31 8fb9
00000200: 0000 0000 0000 0000 0000 0000 0000 0000
00000210: 0000 0000 0000 0000 0000 0000 0000 0000
00000220: 0000 0000 0000 0000 0000 0000 0000 0000
00000230: 0000 0000 0000 0000 0000 0000 0000 0000
00000240: 0000 0000 0000 0000 0000 0000 0000 0000
00000250: 0000 0000 0000 0000 0000 0000 0000 0000
00000260: 0000 0000 0000 0000 0000 0000 0000 0000
00000270: 0000 0000 0000 0000 0000 0000 0000 0000
00000280: 0000 0000 0000 0000 0000 0000 0000 0000
00000290: 0000 0000 0000 0000 0000 0000 0000 0000
000002a0: 0000 0000 0000 0000 0000 0000 0000 0000
000002b0: 0000 0000 0000 0000 0000 0000 0000 0000
000002c0: 0000 0000 0000 0000 0000 0000 0000 0000
000002d0: 0000 0000 0000 0000 0000 0000 0000 0000
000002e0: 0000 0000 0000 0000 0000 0000 0000 0000
000002f0: 0000 0000 0000 0000 0000 0000 0000 0000
00000300: be8c 38bc 1e0b a4b8 fd43 a4ba 8c6e 5ebb
00000310: cb57 10ba b5e2 bdb9 0000 0000 bb46 c0b9
00000320: 9ab7 02b7 0000 0000 7dcc 7dba de15 02ba
00000330: 9589 07bc 0000 0000 0000 0000 e6c2 17b8
00000340: bbb6 a1bb ace7 03bc 8156 10bc b97b 18bb
00000350: 8a5e e5b9 e114 9ebb fe56 d1bb 9c68 99ba
00000360: ec35 2cba bed1 56ba b26e 18bb 4d4c 25bc
00000370: 2d4c 60bb 3d72 26ba 8c3b 60b9 42b5 1abb
00000380: 77ca 83b8 5528 40ba 5b87 67bb 0000 0000
00000390: 91de cebb 734c 55bb 803b 10bc c926 9dbb
000003a0: 1a81 deb9 d050 38b9 1b6f f4bb ac57 3ebb
000003b0: ef22 bdbb ad2a 93bb 6cf9 9ebb 2ecb 71b9
000003c0: 0000 0000 2201 3dbb 9593 efbb c8f3 9aba
000003d0: 0000 0000 db46 97ba 5929 13ba e83b bbb9
000003e0: 9204 51ba 721e 8abb bd62 bfbb de1d 8cbb
000003f0: 27ae febb ed45 3cba eafd bfba 92ba 27ba

exp_avg_sq f4 [32, 64]
0.0 0.0 0.0 0.0 0.0 0.0 0.0 0.0
0.0 0.0 0.0 0.0 0.0 0.0 0.0 0.0
0.0 0.0 0.0 0.0 0.0 0.0 0.0 0.0
0.0 0.0 0.0 0.0 0.0 0.0 0.0 0.0
0.0 0.0 0.0 0.0 0.0 0.0 0.0 0.0
0.0 0.0 0.0 0.0 0.0 0.0 0.0 0.0
0.0 0.0 0.0 0.0 0.0 0.0 0.0 0.0
0.0 0.0 0.0 0.0 0.0 0.0 0.0 0.0
2.0525224e-06 8.4649066e-11 2.4725114e-08 1.5522713e-07 7.780395e-09 1.7089095e-09 0.0 1.2242405e-09
1.2645758e-12 0.0 1.5310139e-08 2.8620657e-09 9.660976e-07 0.0 0.0 4.3364992e-11
4.055012e-07 1.1053417e-06 1.2107984e-06 1.0363698e-07 1.7943604e-09 3.069666e-07 6.745245e-07 1.33054145e-08
3.6585521e-09 1.846797e-08 1.2208399e-07 1.6317758e-06 1.3557404e-07 1.0896716e-08 5.523077e-10 7.550453e-08
5.969484e-11 6.7095534e-09 1.6748575e-07 0.0 6.2009036e-07 1.9567554e-07 1.0966859e-06 3.414935e-07
4.9149698e-09 4.17342e-10 8.23103e-07 9.833291e-08 6.8190315e-07 2.3076717e-07 3.9803382e-07 1.8818767e-09
0.0 1.2388533e-07 7.7827707e-07 2.8147236e-08 0.0 2.9218855e-08 3.0739788e-09 1.2923369e-09
1.15546115e-08 2.468487e-07 6.3175565e-07 2.432227e-07 9.017412e-07 1.3319563e-08 3.53078e-08 6.652665e-09
0.0 0.0 0.0 0.0 0.0 0.0 0.0 0.0
0.0 0.0 0.0 0.0 0.0 0.0 0.0 0.0
0.0 0.0 0.0 0.0 0.0 0.0 0.0 0.0
0.0 0.0 0.0 0.0 0.0 0.0 0.0 0.0
0.0 0.0 0.0 0.0 0.0 0.0 0.0 0.0
0.0 0.0 0.0 0.0 0.0 0.0 0.0 0.0
0.0 0.0 0.0 0.0 0.0 0.0 0.0 0.0
0.0 0.0 0.0 0.0 0.0 0.0 0.0 0.0
5.3108666e-05 6.2091127e-10 4.2763713e-07 3.1906884e-06 4.254532e-07 9.005774e-09 0.0 2.4423477e-08
2.3659213e-11 0.0 2.7440498e-07 8.6972946e-08 2.2656275e-05 0.0 0.0 2.6895082e-09
1.0823581e-05 2.9860841e-05 3.01479e-05 2.1692722e-06 1.1784294e-08 7.316142e-06 1.8007908e-05 1.2736506e-07
2.6593096e-08 7.8570554e-07 4.171263e-06 4.209244e-05 2.4168462e-06 6.02768e-07 5.152056e-09 1.0825505e-06
2.6248295e-10 9.3227904e-08 3.5607316e-06 0.0 1.5693759e-05 5.4073994e-06 2.5569054e-05 8.818964e-06
1.0473342e-07 1.9653519e-09 1.9518775e-05 1.8408596e-06 2.3520355e-05 4.1374697e-06 1.1103627e-05 3.762056e-08
0.0 2.4089702e-06 1.9503146e-05 9.539309e-07 0.0 8.5040256e-07 3.3852142e-08 7.519754e-09
1.7119416e-07 5.2039136e-06 1.7245153e-05 5.4099746e-06 2.3640525e-05 4.6029518e-07 6.5569947e-07 8.347722e-08
00000000: 0000 0000 0000 0000 0000 0000 0000 0000
00000010: 0000 0000 0000 0000 0000 0000 0000 0000
00000020: 0000 0000 0000 0000 0000 0000 0000 0000
00000030: 0000 0000 0000 0000 0000 0000 0000 0000
00000040: 0000 0000 0000 0000 0000 0000 0000 0000
00000050: 0000 0000 0000 0000 0000 0000 0000 0000
00000060: 0000 0000 0000 0000 0000 0000 0000 0000
00000070: 0000 0000 0000 0000 0000 0000 0000 0000
00000080: 0000 0000 0000 0000 0000 0000 0000 0000
00000090: 0000 0000 0000 0000 0000 0000 0000 0000
000000a0: 0000 0000 0000 0000 0000 0000 0000 0000
000000b0: 0000 0000 0000 0000 0000 0000 0000 0000
000000c0: 0000 0000 0000 0000 0000 0000 0000 0000
000000d0: 0000 0000 0000 0000 0000 0000 0000 0000
000000e0: 0000 0000 0000 0000 0000 0000 0000 0000
000000f0: 0000 0000 0000 0000 0000 0000 0000 0000
00000100: 11be 0936 3025 ba2e 1a63 d432 82ac 2634
00000110: 8aaa 0532 e8de ea30 0000 0000 2242 a830
00000120: 25f9 b12b 0000 0000 5a83 8332 fead 4431
00000130: dcaa 8135 0000 0000 0000 0000 a4b8 3e2e
00000140: a9b3 d934 405b 9435 b782 a235 088f de33
00000150: 729d f630 2bcd a434 f810 3535 d595 6432
00000160: ee69 7b31 7fa3 9e32 3116 0334 6403 db35
00000170: 4f92 1134 4434 3b32 33d1 1730 0e25 a233
00000180: 3545 832e db89 e631 22d6 3334 0000 0000
00000190: 4974 2635 e21a 5234 d731 9335 8256 b734
000001a0: 88e0 a831 aa6f e52f 35f3 5c35 172b d333
000001b0: 070c 3735 ccc8 7734 5ab1 d534 5352 0131
000001c0: 0000 0000 5705 0534 cbea 5035 6dc8 f132
000001d0: 0000 0000 f1fc fa32 023e 5331 109e b130
000001e0: b881 4632 a186 8434 eb95 2935 4694 8234
000001f0: 2f0f 7235 0fd4 6432 56a5 1733 7695 e431
00000200: 0000 0000 0000 0000 0000 0000 0000 0000
00000210: 0000 0000 0000 0000 0000 0000 0000 0000
00000220: 0000 0000 0000 0000 0000 0000 0000 0000
00000230: 0000 0000 0000 0000 0000 0000 0000 0000
00000240: 0000 0000 0000 0000 0000 0000 0000 0000
00000250: 0000 0000 0000 0000 0000 0000 0000 0000
00000260: 0000 0000 0000 0000 0000 0000 0000 0000
00000270: 0000 0000 0000 0000 0000 0000 0000 0000
00000280: 0000 0000 0000 0000 0000 0000 0000 0000
00000290: 0000 0000 0000 0000 0000 0000 0000 0000
000002a0: 0000 0000 0000 0000 0000 0000 0000 0000
000002b0: 0000 0000 0000 0000 0000 0000 0000 0000
000002c0: 0000 0000 0000 0000 0000 0000 0000 0000
000002d0: 0000 0000 0000 0000 0000 0000 0000 0000
000002e0: 0000 0000 0000 0000 0000 0000 0000 0000
000002f0: 0000 0000 0000 0000 0000 0000 0000 0000
00000300: ffc0 5e38 bfac 2a30 0096 e534 9c1f 5636
00000310: d869 e434 d0b7 1a32 0000 0000 cbcb d132
00000320: d01b d02d 0000 0000 ef51 9334 e2c5 ba33
00000330: fb0d be37 0000 0000 0000 0000 54d2 3831
00000340: ed96 3537 ab7d fa37 1fe6 fc37 d093 1136
00000350: e073 4a32 2e7d f536 b00f 9737 d7c1 0834
00000360: d66e e432 46e9 5235 e0f6 8b36 6a8c 3038
00000370: 1a31 2236 e7cd 2135 f705 b131 274c 9135
00000380: 314d 902f 9534 c833 e7f4 6e36 0000 0000
00000390: 17a6 8337 3571 b536 207d d637 29f5 1337
000003a0: cee9 e033 d60e 0731 40bc a337 7413 f735
000003b0: 944d c537 98d4 8a36 b749 3a37 3e94 2133
000003c0: 0000 0000 cba9 2136 b09a a337 d108 8035
000003d0: 0000 0000 3847 6435 d364 1133 3a30 0132
000003e0: 7ed1 3734 479d ae36 afa9 9037 5487 b536
000003f0: a44f c637 7d1e f734 5303 3035 1644 b333

exp_avg f4 [32]
0.0 -0.0019364911 0.0 -0.004977393 -0.0026283036 -0.006136232 -0.004552116 0.0014482052
-0.010368451 0.00089234964 0.00031542877 0.00032652105 -0.005770581 -0.009911288 -0.018676993 0.000126064
0.0007613843 -0.002605442 6.654958e-05 -0.008061872 -0.0022920738 -0.004652971 0.0 -0.017747203
-0.004615233 -0.0057893516 0.00013246508 0.0 0.0 2.2008117e-05 0.0 -0.0035442621
00000000: 0000 0000 dcd1 fdba 0000 0000 6619 a3bb
00000010: 9e3f 2cbb 7212 c9bb eb29 95bb b4d1 bd3a
00000020: 6fe0 29bc 92ec 693a 2260 a539 ea30 ab39
00000030: 2417 bdbb f462 22bc 7e00 99bc 0c30 0439
00000040: a397 473a 10c0 2abb 8990 8b38 f115 04bc
00000050: 9e36 16bb f377 98bb 0000 0000 9562 91bc
00000060: 613b 97bb 9ab4 bdbb 53e6 0a39 0000 0000
00000070: 0000 0000 129e b837 0000 0000 da46 68bb

exp_avg_sq f4 [32]
0.0 3.334755e-07 0.0 7.9156325e-06 9.682288e-07 1.4945191e-05 6.37633e-06 5.1532547e-06
4.051226e-05 3.0429774e-06 3.18738e-06 1.2943668e-06 1.22271185e-05 4.757804e-05 0.00017466633 4.494768e-07
1.222967e-05 1.205902e-06 5.059958e-08 2.183418e-05 3.957966e-07 6.3581374e-06 0.0 0.00017527897
6.1159867e-06 1.0469347e-05 6.239362e-07 0.0 0.0 5.1901887e-09 0.0 2.1689611e-06
00000000: 0000 0000 8608 b334 0000 0000 62cd 0437
00000010: 17f4 8135 1bbd 7a37 42f4 d536 1fea ac36
00000020: b5eb 2938 f435 4c36 c5e6 5536 1bba ad35
00000030: 1323 4d37 888e 4738 a326 3739 9f4f f134
00000040: 082e 4d37 7ada a135 d452 5933 8b28 b737
00000050: df7d d434 fc57 d536 0000 0000 17cb 3739
00000060: ed37 cd36 81a5 2f37 927c 2735 0000 0000
00000070: 0000 0000 6255 b231 0000 0000 788e 1136

exp_avg f4 [1, 32]
0.0 1.5447508e-09 0.0 2.0571176e-09 2.4611946e-09 2.4917015e-09 2.2533895e-09 1.6160183e-10
1.2441554e-09 -3.2416586e-10 -2.954504e-12 -4.6274405e-13 1.2544996e-09 2.0055735e-09 1.5291026e-09 7.4224724e-11
-9.255457e-12 3.2046241e-09 1.8582507e-11 2.1522661e-09 1.9617241e-09 2.1525708e-09 0.0 2.4149518e-09
2.1720783e-09 1.7974567e-09 -1.5852053e-12 0.0 0.0 -7.502813e-13 0.0 2.7627534e-09
00000000: 0000 0000 164f d430 0000 0000 325d 0d31
00000010: cb21 2931 7a3a 2b31 0cda 1a31 dfae 312f
00000020: d4fe aa30 4a36 b2af 9de7 4fac 3940 02ab
00000030: c86a ac30 6cd2 0931 8428 d230 ce38 a32e
00000040: dfd2 22ad 5838 5c31 1674 a32d 11e7 1331
00000050: 04cf 0631 6dec 1331 0000 0000 48f4 2531
00000060: 9b43 1531 630a f730 0a19 dfab 0000 0000
00000070: 0000 0000 772f 53ab 0000 0000 dfda 3d31

exp_avg_sq f4 [1, 32]
0.0 2.8454202e-18 0.0 3.554735e-18 3.814134e-18 4.7156574e-18 4.580851e-18 7.547402e-19
2.3815028e-18 9.25473e-19 5.2415875e-21 3.8402365e-22 4.858055e-18 4.0915372e-18 3.1954252e-18 1.8795456e-19
1.963046e-20 9.263416e-18 1.0850464e-21 1.9090648e-18 2.1329237e-18 2.2825755e-18 0.0 4.6757265e-18
2.9907503e-18 2.2093026e-18 3.447638e-21 0.0 0.0 1.724678e-22 0.0 2.2478077e-18
00000000: 0000 0000 78f4 5122 0000 0000 8625 8322
00000010: 7ab7 8c22 20fa ad22 ea00 a922 8fc2 5e21
00000020: 51b9 2f22 6293 8821 8605 c61d c820 e81b
00000030: 083b b322 7af3 9622 e0c7 6b22 c8e5 5d20
00000040: 8a67 b91e 3fe1 2a23 b3f7 a31c 37dd 0c22
00000050: ca61 1d22 a26c 2822 0000 0000 fd80 ac22
00000060: adad 5c22 8c04 2322 823f 821d 0000 0000
00000070: 0000 0000 3380 501b 0000 0000 e3db 2522

exp_avg f4 [2, 32]
0.0 -0.04253383 0.0 -0.05648742 -0.057231028 -0.06074849 -0.06685367 -0.016952174
-0.04005239 -0.01883565 -0.00048007988 -0.0001786019 -0.06077248 -0.060617827 -0.049957115 -0.0047050584
-0.0008227131 -0.09117208 -0.00025102476 -0.037416603 -0.035429932 -0.04169344 0.0 -0.067143135
-0.04981215 -0.04274571 -0.00019609815 0.0 0.0 -8.361284e-05 0.0 -0.041116934
0.0 0.04253383 0.0 0.05648742 0.057231028 0.06074849 0.06685367 0.016952174
0.04005239 0.01883565 0.00048007988 0.0001786019 0.06077248 0.060617827 0.049957115 0.0047050584
0.0008227131 0.09117208 0.00025102476 0.037416603 0.035429932 0.04169344 0.0 0.067143135
0.04981215 0.04274571 0.00019609815 0.0 0.0 8.361284e-05 0.0 0.041116934
00000000: 0000 0000 f437 2ebd 0000 0000 5a5f 67bd
00000010: 156b 6abd 69d3 78bd 94ea 88bd 49df 8abc
00000020: fa0d 24bd 394d 9abc 3bb3 fbb9 1547 3bb9
00000030: 90ec 78bd 664a 78bd d59f 4cbd e42c 9abb
00000040: 57ab 57ba 6db8 babd f99b 83b9 2742 19bd
00000050: fa1e 11bd bec6 2abd 0000 0000 5782 89bd
00000060: d307 4cbd 2016 2fbd b29f 4db9 0000 0000
00000070: 0000 0000 4d59 afb8 0000 0000 3b6a 28bd
00000080: 0000 0000 f437 2e3d 0000 0000 5a5f 673d
00000090: 156b 6a3d 69d3 783d 94ea 883d 49df 8a3c
000000a0: fa0d 243d 394d 9a3c 3bb3 fb39 1547 3b39
000000b0: 90ec 783d 664a 783d d59f 4c3d e42c 9a3b
000000c0: 57ab 573a 6db8 ba3d f99b 8339 2742 193d
000000d0: fa1e 113d bec6 2a3d 0000 0000 5782 893d
000000e0: d307 4c3d 2016 2f3d b29f 4d39 0000 0000
000000f0: 0000 0000 4d59 af38 0000 0000 3b6a 283d

exp_avg_sq f4 [2, 32]
0.0 0.00034382072 0.0 0.00057317776 0.0005329234 0.0012306935 0.0010285013 0.0011705196
0.0002584123 0.0011205719 9.602094e-06 6.7981335e-07 0.000991892 0.001051383 0.0005124472 0.0002632356
3.2283475e-05 0.0032845736 5.91959e-07 0.00017143536 8.4435684e-05 0.00026876433 0.0 0.0010889951
0.0003858275 0.0003091108 1.7850102e-06 0.0 0.0 1.6384412e-07 0.0 0.0001815647
0.0 0.00034382072 0.0 0.00057317776 0.0005329234 0.0012306935 0.0010285013 0.0011705196
0.0002584123 0.0011205719 9.602094e-06 6.7981335e-07 0.000991892 0.001051383 0.0005124472 0.0002632356
3.2283475e-05 0.0032845736 5.91959e-07 0.00017143536 8.4435684e-05 0.00026876433 0.0 0.0010889951
0.0003858275 0.0003091108 1.7850102e-06 0.0 0.0 1.6384412e-07 0.0 0.0001815647
00000000: 0000 0000 d642 b439 0000 0000 4f41 163a
00000010: e2b3 0b3a 394f a13a c7ce 863a 1f6c 993a
00000020: 837b 8739 27e0 923a ae18 2137 6b7c 3635
00000030: 5f02 823a 8fce 893a c055 063a e202 8a39
00000040: 1e68 0738 0042 573b 1de7 1e35 54c3 3339
00000050: 1013 b138 f0e8 8c39 0000 0000 9dbc 8e3a
00000060: e448 ca39 2610 a239 7c94 ef35 0000 0000
00000070: 0000 0000 21ed 2f34 0000 0000 6762 3e39
00000080: 0000 0000 d642 b439 0000 0000 4f41 163a
00000090: e2b3 0b3a 394f a13a c7ce 863a 1f6c 993a
000000a0: 837b 8739 27e0 923a ae18 2137 6b7c 3635
000000b0: 5f02 823a 8fce 893a c055 063a e202 8a39
000000c0: 1e68 0738 0042 573b 1de7 1e35 54c3 3339
000000d0: 1013 b138 f0e8 8c39 0000 0000 9dbc 8e3a
000000e0: e448 ca39 2610 a239 7c94 ef35 0000 0000
000000f0: 0000 0000 21ed 2f34 0000 0000 6762 3e39

exp_avg f4 [2]
-0.05334935 0.05334935
00000000: d984 5abd d984 5a3d

exp_avg_sq f4 [2]
0.0018887001 0.0018887001
00000000: 428e f73a 428e f73a
