models/maintainance_agent/5/D3QN_q_eval.pth (torch, 228957 bytes, 21 tensors)

weight f4 [128, 11]
0	0xc093efbb	-4.623014
1	0x4078d1cb	3.8878047
2	0x3f7f858a	0.9981314
3	0x401e118f	2.4698217
4	0x40a2e6e5	5.0906854
5	0x3fa3a5c1	1.2784959
6	0x39da1e5f	0.00041602828
7	0xbe405420	-0.18782091
8	0x3e72574a	0.2366611
9	0xbe55740f	-0.20845054
10	0x4096fd32	4.7184076
11	0xc00562f6	-2.084165
12	0xc0b93da4	-5.7887745
13	0x41175eb4	9.460621
14	0x410a718a	8.6527195
15	0x410e10d1	8.879106
16	0x3f74f532	0.9568664
17	0xbc32c8bd	-0.010912118
18	0x3e912e51	0.2835565
19	0xc16351e3	-14.207492
20	0x3eedd38c	0.4645046
21	0xc0a01638	-5.0027122
22	0xbdb8bde2	-0.09020592
23	0xbdb619fe	-0.08891676
24	0x3e06ded8	0.13170946
25	0xbe75ffcc	-0.2402336
26	0xbe0643b6	-0.13111767
27	0xbe2c2c3b	-0.16813748
28	0xbe12ab79	-0.14323224
29	0xbe4fc5eb	-0.20290343
30	0x3e31c1d2	0.17359093
31	0xbc8d0bb0	-0.017217487
32	0x3e801066	0.2501251
33	0x418bc2df	17.470152
34	0x40b0d1a1	5.5255895
35	0x410774fa	8.466059
36	0x3f0464ee	0.51716506
37	0xbf6fa226	-0.93606794
38	0x40517ecf	3.2733648
39	0x3d979fcc	0.07403526
40	0xbfbccc1d	-1.474979
41	0x415822d9	13.508508
42	0xc07ccd2a	-3.9500222
43	0x403b5f7b	2.9277027
44	0xbfd88b83	-1.6917576
45	0xc0af5902	-5.479615
46	0x411572b9	9.340508
47	0x411300bc	9.187679
48	0x4104cee0	8.300507
49	0x3f8dcc5c	1.107799
50	0x3bc0df3b	0.005885986
51	0x3d066c2a	0.032817997
52	0xc1755ee7	-15.3356695
53	0x3e5534ab	0.20820872
54	0xc0bf6ae6	-5.981799
55	0x4179bbed	15.60838
56	0x416f5bd1	14.959916
57	0xc0834d79	-4.103207
58	0x414017bb	12.005794
59	0xc12b1765	-10.693212
60	0x3f35c07d	0.7099684
61	0x3e2a8fa9	0.16656365
62	0xbc64f9cf	-0.013975575
63	0x40bdfb38	5.9369164
64	0xc0b9258a	-5.7858324
65	0x4058180c	3.3764677
66	0x40ba9f88	5.831974
67	0x412c29e7	10.76023
68	0xc0978a9b	-4.7356696
69	0xbf90794b	-1.1287016
70	0xbfc7b95e	-1.5603445
71	0x400aaf76	2.1669593
72	0x3b1437ce	0.002261627
73	0x3bda88bd	0.0066691325
74	0x41440af2	12.252672
75	0x3ea003bf	0.31252858
76	0xbfd843bd	-1.6895672
77	0xbfd46bcc	-1.6595397
78	0xc0d10637	-6.5320086
79	0x4119fd09	9.624276
80	0x411dcd41	9.862611
81	0x410694fc	8.411373
82	0x3f728ac8	0.94743013
83	0x3c40e74e	0.011773897
84	0x3c5fed38	0.013667397
85	0xc16f3a01	-14.951661
86	0x3edca95b	0.43097958
87	0xc1029fb5	-8.163991
88	0x402c8c62	2.6960683
89	0xc11cccf1	-9.8000345
90	0x4112a982	9.166384
91	0x3fdc594b	1.721475
92	0x411971ee	9.590315
93	0x3f895f53	1.0732216
94	0xbf4db8c3	-0.8036005
95	0xbc892b16	-0.016744178
96	0xc132e184	-11.180058
97	0x3ee9a060	0.4563017
98	0x3fcc5364	1.5962949
99	0xc0516b96	-3.2721915
100	0xc1033d2e	-8.202436
101	0x40daf212	6.8420496
102	0x40f23aa2	7.5696573
103	0x40fb125c	7.845991
104	0x3f56666b	0.8375003
105	0x3c20f861	0.009824843
106	0x3dff583f	0.124680035
107	0xc1721002	-15.128908
108	0x3e77035a	0.24122372
109	0xc0ce0022	-6.437516
110	0xc0837013	-4.107431
111	0xc1088637	-8.532767
112	0x40b6c824	5.711931
113	0x40da0b78	6.8139
114	0x40fc7e81	7.8904424
115	0x3f7318bb	0.9495961
116	0x3d1104a1	0.035404805
117	0x3d83383f	0.064072125
118	0xc17d87b5	-15.845632
119	0x3ed8e0a2	0.4235888
120	0xc0c0ca27	-6.024677
121	0xc04cc436	-3.1994758
122	0xc1058eba	-8.347345
123	0x40bca6b9	5.895352
124	0x40e80ea6	7.251788
125	0x4103b205	8.230962
126	0x3fa55431	1.2916318
127	0x3da32ce5	0.07967547
128	0x3e80a5c4	0.2512647
129	0xc175dd21	-15.366487
130	0x3e51ae45	0.20476635
131	0xc0f15f1d	-7.5428605
132	0xbf6521fc	-0.8950498
133	0x40cacbfe	6.3374014
134	0xc19b70a4	-19.43
135	0xc130aa85	-11.041631
136	0xc113665b	-9.212489
137	0x3ef38897	0.47565147
138	0x3e99ba78	0.30025077
139	0x3e8f6584	0.28007138
140	0x414786e3	12.470431
141	0x3f4f43ec	0.80963016
142	0x41be2670	23.768768
143	0x401e97b4	2.4780092
144	0x410e5f21	8.898225
145	0xc14dfe56	-12.874594
146	0xc11c0128	-9.750282
147	0xc0e1e759	-7.0594907
148	0x3f18d8dc	0.597059
149	0x3e263256	0.16230139
150	0x3e67c365	0.22633131
151	0x41460b9a	12.377832
152	0x3e803cf7	0.25046512
153	0x419f7f25	19.937082
154	0xbe4e929a	-0.20173112
155	0xbeb21d2a	-0.34787875
156	0xbfbadbef	-1.4598368
157	0x4086e203	4.2150893
158	0xbf7a2516	-0.9771284
159	0x3d3a971e	0.045554273
160	0xbfd18314	-1.6368127
161	0xbeb29c48	-0.34884858
162	0x3f21f856	0.63269556
163	0xbe16f2d4	-0.14741069
164	0xc0745fab	-3.818339
165	0x4116833e	9.407042
166	0x4191cf8c	18.226341
167	0x3dbaa7c6	0.091140315
168	0xbf94b269	-1.1616946
169	0xbf6b9b22	-0.9203359
170	0x3fedba8e	1.8572557
171	0xbbdae2e4	-0.0066798795
172	0xbc49cc82	-0.012316825
173	0x416e2604	14.884281
174	0x3e8b20e1	0.27173522
175	0x40c0abc3	6.020967
176	0xbfeb343b	-1.8375314
177	0xc0aed19c	-5.463087
178	0x41125786	9.146368
179	0x410cff01	8.812257
180	0x410b1d70	8.694687
181	0x3f80d644	1.0065389
182	0xbbe5b2ac	-0.0070098247
183	0x3e5e13d6	0.21687254
184	0xc167507c	-14.4571495
185	0x3e8dbe64	0.2768432
186	0xc07572e5	-3.8351376
187	0x414b9f4f	12.726394
188	0x41856e7b	16.678946
189	0x3f275be5	0.65374595
190	0x3fa7b16b	1.3101019
191	0x3fe2a2a6	1.7705886
192	0x3ed6ab65	0.4192764
193	0x3c164c01	0.009173394
194	0x3d21a1f3	0.039461087
195	0x41801487	16.010023
196	0xbd91459a	-0.070933536
197	0xc0101a97	-2.251623
198	0x3f8c5c51	1.0965673
199	0x402d3925	2.7066128
200	0xc1845199	-16.539843
201	0xc14a81ca	-12.656687
202	0xc0e61a0b	-7.190679
203	0x3d8e826b	0.06958469
204	0xbe10d45b	-0.14143507
205	0x3ed3e47f	0.41385266
206	0x414d3dae	12.8275585
207	0x3e18f231	0.14936139
208	0x4098f14d	4.7794557
209	0xbf96e1d1	-1.1787664
210	0x401a63ad	2.4123337
211	0xc19fb791	-19.964632
212	0xc13f7f3a	-11.968561
213	0xc114dcb4	-9.303883
214	0x3e0d721b	0.13813059
215	0x3e583eaf	0.21117662
216	0x3efdae2c	0.49546945
217	0x4154125f	13.254485
218	0x3ed659b2	0.41865307
219	0x415def94	13.870991
220	0x413beade	11.744841
221	0x40cb8727	6.360248
222	0x40c0c470	6.023979
223	0x40d412b3	6.6272826
224	0x40834897	4.102611
225	0x401e6b13	2.4752853
226	0xbfd40815	-1.6564966
227	0xbfba546a	-1.4557011
228	0x416db737	14.85723
229	0x3f18428a	0.5947653
230	0x3fa8e765	1.3195616
231	0x40ca90aa	6.330159
232	0x41a70cf1	20.881319
233	0x3eef0a24	0.46687424
234	0xc0a69d04	-5.206667
235	0x3f4435f9	0.76644856
236	0x4003b721	2.0580523
237	0x3cc3e476	0.02391265
238	0x3b84db94	0.004054496
239	0x4186a167	16.82881
240	0x3ef2638c	0.47341573
241	0x41208ee6	10.034887
242	0x402260f1	2.5371668
243	0x40ad8427	5.422382
244	0xc10722da	-8.446009
245	0xc054d11d	-3.3252633
246	0xbb14d67b	-0.0022710848
247	0x3facb0ff	1.3491515
248	0x3c0576c2	0.00814599
249	0x3d561590	0.052266657
250	0x4121e420	10.118195
251	0x3e0ad564	0.13557965
252	0xc074d43b	-3.8254535
253	0xbf945416	-1.1588161
254	0xc0b33581	-5.6002812
255	0x41152612	9.3217945

bias f4 [128]
0	0x40a57b63	5.171312
1	0x410d8357	8.844565
2	0xbe8af685	-0.27141204
3	0x4036747d	2.8508599
4	0x410ec53a	8.923151
5	0xbfb31edc	-1.3993793
6	0xbfa4ddc9	-1.2880183
7	0x41092ddd	8.573697
8	0x410f3567	8.950538
9	0x41006635	8.024953
10	0x40fde26b	7.933889
11	0x41075598	8.458397
12	0xc11a4b71	-9.643418
13	0xc0e57516	-7.1705427
14	0x3eeec810	0.4663701
15	0xbea5b9ab	-0.32368216
16	0x410c987a	8.787226
17	0x4016ffd7	2.3593652
18	0xc0f1a3fb	-7.551267
19	0xc1190f45	-9.566228
20	0x41276bcb	10.463817
21	0x3e576ca5	0.21037538
22	0xbfda833b	-1.7071298
23	0x4113d800	9.240234
24	0xc106c1a8	-8.422279
25	0xc0730f75	-3.7978184
26	0x3eeeb4cb	0.4662231
27	0x401b7a06	2.4293227
28	0x3e15cb85	0.14628418
29	0xbf9efd10	-1.2420979
30	0xc114df66	-9.304541
31	0x3ea6f839	0.32611254
32	0xc0112c81	-2.2683413
33	0x3ed9e39e	0.4255647
34	0x40fde267	7.933887
35	0x41075389	8.457894
36	0x4122def8	10.179436
37	0xbdc34286	-0.09534173
38	0xc02648d2	-2.5981946
39	0x3f288bfb	0.65838593
40	0x3fc9e2ab	1.5772299
41	0x411743f7	9.454093
42	0x41102a8c	9.010387
43	0x41491db0	12.569748
44	0x4107e547	8.493476
45	0xc0e9cf0b	-7.306524
46	0xc0443c7a	-3.0661912
47	0x41251fcd	10.320264
48	0x413025da	11.009241
49	0x410bfd45	8.749333
50	0x4048b3ef	3.1359823
51	0x412a4d63	10.643893
52	0xbf298fc0	-0.6623497
53	0xc114db0d	-9.303479
54	0xbf708c0a	-0.9396368
55	0x411115e1	9.067842
56	0x4115c370	9.360214
57	0x3ff8a3c5	1.9424978
58	0x410efff8	8.937492
59	0x413c7815	11.779317
60	0xbfe42def	-1.7826518
61	0x411dab20	9.854279
62	0x411305e0	9.188934
63	0xc03e8cbc	-2.9773397
64	0xc0bbaa24	-5.864519
65	0x3e998851	0.29986814
66	0x4122aaed	10.16673
67	0x410a3f2f	8.640426
68	0x3f05eb52	0.52312195
69	0x3df94bf4	0.1217269
70	0x410a93c5	8.661077
71	0x41067adb	8.404994
72	0x40ab07a8	5.3446846
73	0x40522d3f	3.2840116
74	0x41155905	9.334233
75	0x410bf6c8	8.747749
76	0x410bd62a	8.739786
77	0x3fe1f493	1.7652763
78	0xc06b0cb4	-3.6726503
79	0xbfe2a782	-1.7707369
80	0xbebc88b7	-0.36823055
81	0xbdf0d46b	-0.117592655
82	0xbf50b38d	-0.8152397
83	0x4148a549	12.540353
84	0x40e531da	7.1623354
85	0x4115c406	9.360357
86	0xc0370763	-2.8598258
87	0xc0f3a0f8	-7.6133995
88	0x411505b2	9.31389
89	0x41488d29	12.534463
90	0x40f7b354	7.7406406
91	0x4187f0a1	16.992495
92	0x410a95b8	8.661552
93	0x4105526b	8.332622
94	0x4122d4d6	10.176962
95	0xbdb395f9	-0.087688394
96	0xbfd17d42	-1.6366351
97	0x3e335413	0.1751254
98	0x41103c17	9.01467
99	0x4110131f	9.004668
100	0xbecbcd84	-0.39805233
101	0x41217d54	10.093098
102	0x3e7c5f0a	0.2464563
103	0xbf4c2670	-0.7974615
104	0x40b7783b	5.7334266
105	0xbe7c6a15	-0.24649842
106	0x40fab61e	7.834731
107	0x3e382b3c	0.17985243
108	0x3dd7ebf0	0.105430484
109	0xc0e45015	-7.1347756
110	0xc01971ff	-2.3975828
111	0xc054b745	-3.323686
112	0x41127108	9.1525955
113	0xc0340f15	-2.8134205
114	0xbe8abd0b	-0.27097353
115	0xbf2a52b0	-0.6653242
116	0x4105178e	8.318251
117	0x410c3e49	8.765206
118	0x40ee020b	7.4377494
119	0x4108e37f	8.555541
120	0xc11a3f0a	-9.64039
121	0xc102b828	-8.16996
122	0x3ec6c1f6	0.38819855
123	0x4112f988	9.185921
124	0xc06d9ab9	-3.7125685
125	0x4005b529	2.0891821
126	0x410c0495	8.751119
127	0x4113f15d	9.246427

weight f4 [128, 128]
0	0xbfe8bc64	-1.8182492
1	0x3e80e900	0.25177765
2	0xbd02594c	-0.03182344
3	0x3df5699a	0.119830325
4	0x3e209a5d	0.15683885
5	0x3c80d6ce	0.015727427
6	0x40172272	2.3614774
7	0x3d7fcbb6	0.062450133
8	0xbf87fb76	-1.0623615
9	0x3c3e068e	0.011598242
10	0xbde2be20	-0.1107142
11	0x3dc67167	0.096895985
12	0xbd752b42	-0.059855707
13	0x3dcb8020	0.09936547
14	0xbfefd612	-1.8737204
15	0x3db175f8	0.08665079
16	0x3df274bf	0.11838674
17	0x3f60c918	0.87806845
18	0x3ef8f15a	0.48621637
19	0x3e164633	0.14675216
20	0xc08e094a	-4.438634
21	0xbe8d52e4	-0.27602303
22	0x3fbc6617	1.4718655
23	0x3e849f4e	0.2590279
24	0x3d9363b5	0.07196752
25	0xbe4508d4	-0.19241649
26	0xbfd20d66	-1.6410339
27	0xc0831961	-4.096848
28	0xc0057bdd	-2.085685
29	0xbd1012e3	-0.03517426
30	0x3e7e7b49	0.24851717
31	0xbf88fd42	-1.0702288
32	0x3c77330e	0.015087856
33	0xbfb77ab3	-1.433432
34	0x3e4c05a7	0.19924031
35	0xbdbbaa63	-0.09163358
36	0xbfc32ee7	-1.5248688
37	0x3d47a433	0.048740577
38	0xbe6aa918	-0.22916067
39	0x3df4d69c	0.11954996
40	0xc09874ec	-4.7642727
41	0x3e1d0037	0.15332113
42	0xc00d2723	-2.2055137
43	0x3ea170b6	0.31531304
44	0x3dc8bf29	0.09802086
45	0x3d8ab000	0.067718506
46	0x40449cf8	3.0720806
47	0xbfb53878	-1.4157858
48	0xbfb6330c	-1.4234328
49	0xbe4b1dbb	-0.1983556
50	0x3f50bd53	0.81538886
51	0x3e5b647c	0.2142505
52	0x3e4de6e1	0.20107605
53	0x3e1f70db	0.15570395
54	0x3fa0628c	1.2530074
55	0x3e8eae6d	0.2786745
56	0x3d48047e	0.04883241
57	0xbe23de84	-0.16002852
58	0xbf6c1f04	-0.92234826
59	0x3fb44be3	1.4085659
60	0x3f9bfb0f	1.2185992
61	0xbf1338e0	-0.5750866
62	0x3e0f1633	0.13973312
63	0x405c3dcc	3.4412718
64	0xbf5b1bcf	-0.8558931
65	0xbfbfda7d	-1.4988552
66	0xc01dd9ad	-2.4664109
67	0x3dc4cee9	0.096097775
68	0xc0a4db77	-5.15179
69	0xbcb3c56c	-0.021944724
70	0x3e253c55	0.16136296
71	0xbe1b1a8c	-0.15146846
72	0xbec25c75	-0.37961164
73	0x3e267746	0.16256437
74	0x3e8e3379	0.27773646
75	0x3da848fa	0.08217044
76	0xbfb8f54f	-1.4449862
77	0xbd50ecf9	-0.051007245
78	0x4076355a	3.8470063
79	0x3fdfec9b	1.7494081
80	0x3db4044e	0.087898836
81	0xc086b3e0	-4.2094574
82	0xbebb5489	-0.36587933
83	0xbe98b030	-0.2982192
84	0x3c8a8c9b	0.016912749
85	0x3e7c8178	0.24658763
86	0x412efc23	10.936557
87	0xbd0323db	-0.032016616
88	0xbf8f1b25	-1.1180159
89	0x3d9d1658	0.07670277
90	0xbdc0c429	-0.094124146
91	0x3e71c04c	0.23608512
92	0xbfe7cfa2	-1.811024
93	0xbdd446a2	-0.10365035
94	0xbfbef9ca	-1.491998
95	0xbd94f10d	-0.07272539
96	0xbdad1f97	-0.08453291
97	0x3c32dfeb	0.010917644
98	0xbd3c1026	-0.045913838
99	0x3e420875	0.18948539
100	0x3db49746	0.088179156
101	0xbfaa50ca	-1.3305905
102	0xbfd641a9	-1.6738788
103	0x3f144dd6	0.5793127
104	0xbe40a75b	-0.18813841
105	0x3e4dee59	0.20110454
106	0x3ded5c13	0.115898274
107	0xbf1359a9	-0.57558686
108	0x3d61478e	0.05499988
109	0x3e968583	0.29398736
110	0xbfb9be8f	-1.4511279
111	0x4082de96	4.089671
112	0x3d239262	0.039934523
113	0xbe906d25	-0.2820827
114	0xbc808e68	-0.015692905
115	0x3ed17dd6	0.40916318
116	0x3e70d207	0.23517619
117	0x3e4a347d	0.19746585
118	0xbe1ecd5e	-0.15508029
119	0x3e26f853	0.16305666
120	0x3e08802f	0.13330148
121	0x3f15ee45	0.58566695
122	0xbf805d1c	-1.0028415
123	0xbe04843e	-0.12941071
124	0xbed688a6	-0.4190113
125	0xbec19422	-0.3780833
126	0xbc9d9686	-0.019236814
127	0xbf46e06b	-0.77686185
128	0xc034b92b	-2.8238018
129	0x3e2f6e43	0.17131905
130	0x3d46a7ae	0.048499756
131	0xbcf4d872	-0.029888365
132	0x3bdfe394	0.0068325493
133	0x3e8d6b77	0.27621052
134	0x3ffdface	1.9842165
135	0xbe10abda	-0.14128056
136	0xc005ea23	-2.0924156
137	0xbd14a684	-0.036291614
138	0xbdc0ac8d	-0.094079114
139	0x3d9d5aaa	0.076833084
140	0x3e494cc9	0.19658197
141	0x3e84902b	0.2589124
142	0x4009fc99	2.1560423
143	0xbca0fff8	-0.019653305
144	0x3da35574	0.07975283
145	0x3f64d41b	0.8938615
146	0x3f7250ee	0.9465474
147	0x3ec619ba	0.38691503
148	0xc0b79d3b	-5.737943
149	0xbf1d3e64	-0.61423326
150	0x408e1648	4.44022
151	0x3e6e1cf5	0.23253234
152	0x3e791bf2	0.24327067
153	0x3cac53ab	0.02103599
154	0x400f91db	2.2432773
155	0xc0a80b10	-5.2513504
156	0x3fdea1bb	1.7393106
157	0x3e6382df	0.22217892
158	0x3e94b79b	0.2904633
159	0x4016a327	2.353708
160	0x3e836ae4	0.2566749
161	0x3fe1dd73	1.7645706
162	0x3e7f8dde	0.24956462
163	0x3d0e27dc	0.03470598
164	0xc005532f	-2.0832021
165	0xbda8bb9e	-0.0823891
166	0xbd9dc477	-0.07703488
167	0xbde8eed9	-0.113736816
168	0xc0764cf8	-3.8484478
169	0xbdaf7d37	-0.08568805
170	0xc0112d25	-2.2683804
171	0x3e86c09d	0.26318827
172	0x3e5f6019	0.21814002
173	0x3eda4d42	0.42637068
174	0x404da2f2	3.2130704
175	0xbffe8a08	-1.9885874
176	0xc0106a2d	-2.2564805
177	0xbe39c5d2	-0.18141869
178	0x3ea3db2f	0.3200316
179	0x3e5ddf1c	0.2166714
180	0x3eb71768	0.35760045
181	0x3ecc0c95	0.3985335
182	0x402dabf7	2.713621
183	0x3ec3d0c7	0.38245222
184	0xbcb4c918	-0.022068545
185	0x3f1859eb	0.59512204
186	0xbf87f76e	-1.0622385
187	0x3e652143	0.2237597
188	0x408b660f	4.3562083
189	0xbf73ce14	-0.95236325
190	0x3d00aff3	0.0314178
191	0x406bee98	3.6864376
192	0xbe859551	-0.26090482
193	0x3ff3539a	1.9009888
194	0xc08ca8e3	-4.395616
195	0xbee5003e	-0.44726747
196	0xc06e6613	-3.72498
197	0x3da0cc0d	0.078514196
198	0x3e8318b1	0.25604776
199	0xbe2a58e1	-0.16635467
200	0xbdef6c91	-0.11690629
201	0xbe73d6ed	-0.23812456
202	0x3d9f7b3b	0.07787176
203	0xbd7dd5e8	-0.061971575
204	0xbfeb0cc3	-1.836327
205	0xbdffe9f3	-0.12495794
206	0x4077ce11	3.8719523
207	0x40930c62	4.5952616
208	0xbb62a899	-0.0034585355
209	0xc066afb0	-3.604473
210	0xbec1bf11	-0.37841085
211	0xbea5e318	-0.3239982
212	0x3c8369fd	0.01604175
213	0x3e9b90dc	0.30383956
214	0x4132baba	11.170588
215	0x3e2bd2ec	0.16779679
216	0xbfbe7ab2	-1.4881194
217	0xbf08154c	-0.53157496
218	0xbdb22c8e	-0.086999044
219	0x3e914d39	0.2837923
220	0xbfdeb4c4	-1.7398915
221	0xbd74f120	-0.059800267
222	0xc0112fa6	-2.2685332
223	0xbc2b35be	-0.010449825
224	0x3db09342	0.08621837
225	0xbc618e70	-0.01376687
226	0xbd390e3e	-0.045179598
227	0x3d87d231	0.06631888
228	0x3e619cf1	0.22032525
229	0xc006de2f	-2.107311
230	0x400a76ac	2.1634932
231	0x3fcd7939	1.6052619
232	0xbf50b78d	-0.81530076
233	0xbf9fd88d	-1.2487961
234	0x3e091c76	0.13389763
235	0xbf03c12a	-0.5146662
236	0xbcfba0e6	-0.03071637
237	0x3ef2f559	0.4745281
238	0xbfb88cc0	-1.4417953
239	0x40e095e8	7.018299
240	0xbdd6e969	-0.10493738
241	0xbe7bcd08	-0.24589932
242	0xbcac2514	-0.021013774
243	0x3eb1562e	0.34636062
244	0x3e2b329f	0.16718529
245	0x3ea6b61f	0.32560822
246	0xbe34dae4	-0.17661625
247	0x3e5c8138	0.21533668
248	0x3ea73b94	0.32662642
249	0x3f80acaf	1.0052699
250	0x401c1426	2.4387298
251	0xbe2ec7a6	-0.17068347
252	0xbea88ba8	-0.3291905
253	0xbfecd584	-1.850266
254	0x3b04fe80	0.0020293295
255	0xbf8d679b	-1.1047243

bias f4 [128]
0	0xc067851f	-3.6175
1	0xc0c61614	-6.190195
2	0x411a9ee1	9.663789
3	0xc0f140fd	-7.539183
4	0xc0ca5606	-6.323001
5	0x41144b38	9.268364
6	0x41060c96	8.378073
7	0xbcd80c8d	-0.026373172
8	0x410ec291	8.922502
9	0xbe975d86	-0.2956354
10	0xc0e73c9f	-7.22615
11	0xbdb2f94f	-0.08738958
12	0xc0a6039a	-5.1879396
13	0x400e7909	2.2261374
14	0x40efe0fb	7.4962134
15	0x41142fa5	9.261632
16	0x416f0147	14.937812
17	0x41056cff	8.33911
18	0x41230949	10.189767
19	0xc0e0021a	-7.0002565
20	0xc196e78f	-18.863066
21	0xc1038829	-8.220742
22	0x4111938e	9.098524
23	0xbd4cfb6d	-0.050044466
24	0xbd231066	-0.03981056
25	0x41095110	8.582291
26	0x41397f06	11.593512
27	0x411302a6	9.188147
28	0xc08c3f2f	-4.382713
29	0xc0ed75b7	-7.4206195
30	0x41187b49	9.530099
31	0xbe076b9c	-0.13224643
32	0xc08dd8c5	-4.432711
33	0xc19d0937	-19.6295
34	0x410faf43	8.9802885
35	0x402985be	2.648788
36	0xc09fa8f8	-4.989376
37	0x416ce065	14.804784
38	0x416027fe	14.009764
39	0xc0a34094	-5.101633
40	0x4115ebb7	9.370048
41	0xc1230df2	-10.190905
42	0x4091eb02	4.5599375
43	0xc0a1fda4	-5.062212
44	0x40cf5a95	6.4798074
45	0x3d04bc15	0.03240593
46	0x4054615c	3.3184423
47	0x411894fe	9.536375
48	0x410d94dd	8.848844
49	0xc0ac0f8e	-5.376899
50	0xc0ffb4cc	-7.99082
51	0x3d97144d	0.07376919
52	0xbece9830	-0.40350485
53	0x410b339d	8.700101
54	0xc0be356f	-5.9440227
55	0xc09af26d	-4.842093
56	0x411864bd	9.524594
57	0x411395c2	9.224062
58	0xbdcf8744	-0.10133222
59	0x4103b8f6	8.2326565
60	0xc047091b	-3.1099308
61	0x3a8f44e5	0.0010930566
62	0x410bbde3	8.733859
63	0x41185dd9	9.522912
64	0xc01cdd75	-2.4510167
65	0xc147fcfe	-12.499266
66	0x4112a5ec	9.165508
67	0xc12acc4d	-10.674878
68	0xbfcc473e	-1.5959241
69	0x4112318b	9.137095
70	0xc00dd7cc	-2.2162962
71	0x4159f534	13.622364
72	0x4111c53c	9.110653
73	0x4110699c	9.025784
74	0x411645dc	9.3920555
75	0x3f92e27a	1.1475365
76	0xbd84db79	-0.064871736
77	0x3c148d73	0.009066927
78	0xbd692211	-0.056917254
79	0x41140d5d	9.2532625
80	0xbd6cbda0	-0.057798028
81	0x39ace2d5	0.000329754
82	0xc066f4b9	-3.6086867
83	0xbc3b1f87	-0.011421091
84	0xc0b62f52	-5.6932764
85	0xc0a086cc	-5.0164547
86	0x411965db	9.587367
87	0xc091d239	-4.556912
88	0xc00797f2	-2.118649
89	0xc097f518	-4.7486687
90	0x4114ad56	9.292318
91	0x4116ef5e	9.433439
92	0xc0d444a9	-6.6333814
93	0xc0e0cb19	-7.024792
94	0x4113fcde	9.249235
95	0x41101768	9.005714
96	0x3d152126	0.036408566
97	0x3d515f71	0.05111641
98	0x3d4143e2	0.04718388
99	0xc0ce9db2	-6.45675
100	0x41102184	9.008183
101	0xc0e9ab0d	-7.30213
102	0xc0ac41e0	-5.3830414
103	0x4196054c	18.752586
104	0x410c040b	8.750987
105	0x3cac40fe	0.021027084
106	0x411112dc	9.067104
107	0x410fad8e	8.979872
108	0xc1512d53	-13.0735655
109	0x4111a1d0	9.102005
110	0x415a05be	13.626402
111	0x410c2e37	8.761283
112	0x419001f2	18.00095
113	0x406bb83e	3.6831203
114	0x411442ad	9.266278
115	0x3dda35e3	0.10654809
116	0xc145c61f	-12.360869
117	0xc07dd99c	-3.9664068
118	0x407fa407	3.9943864
119	0x410694a9	8.411294
120	0x410b87b1	8.720628
121	0xbdb08dbf	-0.08620786
122	0x4112d63b	9.177302
123	0xc0bb9e2e	-5.863059
124	0xc0ecc38c	-7.3988705
125	0xc0b214e2	-5.565049
126	0x4113b200	9.230957
127	0xc105a94d	-8.353833

weight f4 [1, 128]
0	0xbf87bad7	-1.0603894
1	0xbf833328	-1.0249987
2	0x406ec47f	3.7307432
3	0xbf4da9ed	-0.8033741
4	0xbfa88e25	-1.3168379
5	0x4074347a	3.815703
6	0xc0f65f6e	-7.699149
7	0x3ccc4a3a	0.024937738
8	0xc086fc98	-4.218334
9	0x3d0e78ba	0.034783103
10	0xbf75d868	-0.96033335
11	0xbb97cf3d	-0.004632859
12	0xbf8d4dca	-1.1039364
13	0x41907ec1	18.061892
14	0xc05deef5	-3.4677098
15	0x404f261d	3.2367013
16	0xbdbb520b	-0.09146508
17	0x403e5d2f	2.9744375
18	0x40815d4d	4.0426393
19	0xbf79796c	-0.974509
20	0x3f74d9bd	0.9564474
21	0xc02e17d1	-2.7202036
22	0x4054cabb	3.3248737
23	0xbd529448	-0.051410943
24	0xbd5d6a46	-0.05405643
25	0x405139d5	3.2691548
26	0xc0d5237e	-6.6605825
27	0x4040227c	3.0021048
28	0xbff1d4e6	-1.8893096
29	0xbf625901	-0.8841706
30	0x410d7d15	8.843038
31	0xbcab70c1	-0.020927789
32	0xbf7dca62	-0.99136937
33	0x4008f9e6	2.1402526
34	0x403cc2e2	2.9493947
35	0xc0bc5903	-5.8858657
36	0xbf99e90d	-1.2024246
37	0xc0ed797f	-7.421081
38	0x3edc2ed2	0.4300447
39	0xbfb80b23	-1.4378399
40	0x4050a04b	3.2597835
41	0x3e6e494d	0.2327015
42	0xc1024ee4	-8.14426
43	0xbf77539b	-0.96611947
44	0x41724e19	15.144067
45	0x3d9793fc	0.07401273
46	0xc0a8a124	-5.2696705
47	0x4090a891	4.520577
48	0x410de2be	8.867857
49	0xbf70b54d	-0.94026643
50	0xbf10f6af	-0.5662641
51	0x3cf1f064	0.029533572
52	0xc11124ed	-9.071515
53	0x404855ee	3.1302447
54	0xbf8c9e55	-1.0985819
55	0xbf65d6ce	-0.8978089
56	0x40556df0	3.334835
57	0x4039aa6c	2.9010267
58	0xc117403c	-9.453182
59	0x4053f845	3.3120282
60	0x403fd78b	2.9975307
61	0xc1057ea7	-8.343421
62	0x40391475	2.8918736
63	0x405b5bbc	3.427474
64	0xbfa202a3	-1.2657055
65	0x3ec811a2	0.39075953
66	0x41200900	10.002197
67	0x3e915d8c	0.28391683
68	0x40aa970c	5.3309383
69	0x404a4c71	3.1609156
70	0x40d914f2	6.783807
71	0x3e6e5b1f	0.23276947
72	0x4051f60f	3.2806432
73	0x404ea991	3.2290995
74	0x4062ce2e	3.5438342
75	0xc0f3dce7	-7.6207156
76	0x3c66f269	0.014095881
77	0x3d8684bf	0.06568288
78	0xbd36e728	-0.04465404
79	0x4050b73e	3.2611842
80	0xbc27e237	-0.010246805
81	0xbd0e9408	-0.034809142
82	0xc00af0f2	-2.1709561
83	0x3d888a57	0.06667011
84	0xbf81d083	-1.0141758
85	0xbfca9f42	-1.5829852
86	0x405a29ac	3.4087934
87	0xbfc1c135	-1.5137087
88	0xbf9b9b66	-1.2156799
89	0xbf7ff387	-0.9998097
90	0x406730d9	3.6123564
91	0x4056263f	3.3460844
92	0xbf87cfa0	-1.0610237
93	0xbf65a581	-0.89705664
94	0x404a7a47	3.1637132
95	0x405b9ff6	3.4316382
96	0xbc280f38	-0.010257535
97	0x3d6dafcf	0.058028992
98	0xbd6a1dda	-0.057157375
99	0xbf7f05c8	-0.99618196
100	0x404846ef	3.1293294
101	0xbf38bc7a	-0.7216259
102	0xbf6834f6	-0.9070581
103	0xbfea6d85	-1.8314673
104	0x404a7b47	3.1637743
105	0x3d44c352	0.048037834
106	0x40572ae2	3.3619924
107	0x40584f70	3.3798485
108	0x3db32035	0.087463774
109	0x40724546	3.785478
110	0x3fe0f09b	1.7573427
111	0x404ccdb9	3.2000563
112	0xbf35b1b4	-0.7097428
113	0x418f279c	17.89434
114	0x4041125e	3.016746
115	0xc08e3cdd	-4.4449296
116	0xbdbab816	-0.09117143
117	0xbf8ce28d	-1.1006638
118	0xc0f8f28c	-7.779608
119	0x40436b66	3.05343
120	0x404cb20e	3.1983676
121	0xbd394f1f	-0.04524147
122	0x404f508d	3.2392914
123	0xbf61cbf9	-0.8820186
124	0x4131b561	11.106782
125	0xbf8054e2	-1.0025904
126	0x404c2e58	3.1903286
127	0x41205c22	10.022493

weight f4 [2, 128]
0	0xbd704842	-0.05866266
1	0xbe663ca6	-0.22484073
2	0x3f24bef4	0.6435387
3	0xbee689a7	-0.45026895
4	0xbe2dcc99	-0.16972579
5	0x3f262800	0.64904785
6	0x40bf1800	5.9716797
7	0xbbb15c49	-0.0054126126
8	0x4077bbcf	3.870838
9	0xbfcd5d74	-1.6044145
10	0xbed3de58	-0.41380572
11	0x3d357e55	0.044309933
12	0xbe4e9a6e	-0.20176098
13	0x40106d1d	2.2566597
14	0x40379418	2.868414
15	0x3ec86bef	0.39144847
16	0x4072bd8b	3.7928188
17	0x3e1b530c	0.15168399
18	0x3f80e1a4	1.006886
19	0xbe8230f6	-0.2542798
20	0xc00546fa	-2.082457
21	0xc02ddf5f	-2.7167585
22	0x3ee97447	0.45596525
23	0x3d1d41e1	0.038392905
24	0x3d8addc0	0.06780577
25	0x3eb80116	0.35938329
26	0x412bcb01	10.7370615
27	0x3ed75534	0.42057192
28	0xbe4266db	-0.18984549
29	0xbecc91c8	-0.39954972
30	0x41108986	9.033575
31	0xbd830cac	-0.06398901
32	0xbde0b1ad	-0.10971389
33	0xc06e7923	-3.7261436
34	0x3ea27ccf	0.31735846
35	0x4001fdf4	2.031125
36	0xbe128290	-0.14307618
37	0x410ce55b	8.805995
38	0x4049b920	3.1519241
39	0xbe23cdc6	-0.15996465
40	0x3ef09fe7	0.46996996
41	0xc0089d07	-2.1345842
42	0x405613cf	3.344959
43	0xbe4fb0f8	-0.20282352
44	0x409bed39	4.872708
45	0xbb020573	-0.0019839674
46	0x3ffac59d	1.9591557
47	0x3f900b8f	1.1253527
48	0x414f45cf	12.954543
49	0xbdf7c637	-0.12098353
50	0xbec8bfed	-0.39208928
51	0x3d10d79c	0.03536187
52	0x3f58cc45	0.8468669
53	0x3ebce585	0.3689386
54	0xbe09757e	-0.13423726
55	0xbe252df4	-0.16130811
56	0x3f0f0251	0.5586291
57	0x3ea1f552	0.31632477
58	0x3fc7a68f	1.5597705
59	0x3e4893dc	0.19587654
60	0xc10fe0f0	-8.992416
61	0x3f62fbbb	0.8866536
62	0x3e60eaae	0.21964523
63	0x3f03f885	0.51551086
64	0x3dcf7908	0.10130507
65	0xc04762b6	-3.1153998
66	0x4125dd8a	10.366587
67	0xbff1ef0f	-1.890108
68	0xc0d1b60a	-6.5534716
69	0x3ed72999	0.42023924
70	0xc123dcfc	-10.241451
71	0x404d0773	3.2035797
72	0x3edc1361	0.42983535
73	0x3ea47783	0.3212243
74	0x3f156004	0.58349633
75	0x40161e93	2.345616
76	0xbd98d3c7	-0.07462268
77	0xbd4b5154	-0.049638107
78	0x3d7dbdef	0.061948713
79	0x3edbd2e3	0.4293433
80	0xbd8a56ca	-0.06754835
81	0x3c88799a	0.016659547
82	0xbe2fe38c	-0.17176646
83	0xbd495668	-0.04915467
84	0xbe6f6513	-0.233784
85	0xbe05fe6e	-0.13085338
86	0x3f11f9a5	0.5702155
87	0xbd8e0ffd	-0.06936643
88	0x3e251954	0.16122943
89	0xbd9edac7	-0.07756572
90	0x3f0b0f72	0.5432044
91	0x3f0df238	0.5544772
92	0xbe5ea50f	-0.21742652
93	0xbeca3f1c	-0.39501274
94	0x3eae4d87	0.34043524
95	0x3eeb34b2	0.4593864
96	0xbd722cae	-0.05912464
97	0x3d314afc	0.0432844
98	0xbd89afba	-0.0672297
99	0xbeac1429	-0.3360913
100	0x3ec6cbf5	0.38827482
101	0xbeaa597a	-0.3327139
102	0xbd9ae139	-0.07562489
103	0x40b3deda	5.6209536
104	0x3e923884	0.28558743
105	0xbd884f15	-0.06655709
106	0x3ebe1b19	0.3713005
107	0x3ebe73ba	0.37197667
108	0xbf0196f3	-0.50620955
109	0x3f2674e4	0.6502211
110	0x4134f881	11.31067
111	0x3eb21498	0.34781337
112	0x40923b95	4.569773
113	0xbfadac5f	-1.3568228
114	0x3ec98a4b	0.39363322
115	0x3ee03921	0.43793586
116	0xc04eadde	-3.229362
117	0xbe0d60ed	-0.13806506
118	0x40878d79	4.2360196
119	0x3e96a800	0.2942505
120	0x3e91bafe	0.28462976
121	0xbdb68ad1	-0.08913196
122	0x3ef2e825	0.47442737
123	0xbe8c1d76	-0.27366227
124	0xc1e04b77	-28.036848
125	0xbe879473	-0.26480445
126	0x3edc7ccc	0.43063962
127	0xc1946d73	-18.553442
128	0xbd555706	-0.052084945
129	0x3e70ec9e	0.23527762
130	0xbf4c8c68	-0.7990174
131	0x3edaf025	0.4276134
132	0x3e7d5fb9	0.24743547
133	0xbf325ab0	-0.6966963
134	0xc0bb4cb6	-5.853114
135	0xbd6308de	-0.05542838
136	0xc0798171	-3.8985255
137	0x3fd7f1d0	1.687067
138	0x3edc7324	0.43056595
139	0x3d0afb95	0.033931334
140	0x3e00fbbe	0.12596032
141	0xc012d843	-2.2944496
142	0xc0396b68	-2.8971806
143	0xbf0194c8	-0.5061765
144	0xc0704a19	-3.7545226
145	0xbe587514	-0.21138412
146	0xbf7a9613	-0.97885245
147	0x3ea6e6a0	0.32597828
148	0x400410d8	2.063528
149	0x4033329d	2.7999642
150	0xbf072a09	-0.52798516
151	0xbd907c25	-0.07054929
152	0x3d05a4ad	0.03262775
153	0xbec7908e	-0.38977474
154	0xc12ccb47	-10.799628
155	0xbebdec0a	-0.37094146
156	0x3e6a43eb	0.22877471
157	0x3ed1266c	0.40849626
158	0xc11093a5	-9.036046
159	0xbcdd7295	-0.027032176
160	0x3d21b860	0.039482474
161	0x4074fe4d	3.8280213
162	0xbea17a2b	-0.3153852
163	0xbff47466	-1.9098022
164	0x3e805834	0.25067294
165	0xc10b43a9	-8.704019
166	0xc0471140	-3.1104279
167	0x3e197d6e	0.14989254
168	0xbeea6a6f	-0.45784327
169	0x400b529e	2.1769176
170	0xc053a7a7	-3.3071077
171	0x3d6b6db7	0.05747768
172	0xc09e335b	-4.943769
173	0xbd3c1b65	-0.045924563
174	0xbffe4041	-1.9863359
175	0xbf85b6b8	-1.0446386
176	0xc15116e9	-13.068093
177	0x3e80d403	0.25161752
178	0x3eb4b57d	0.35294715
179	0xbd8780fa	-0.06616397
180	0xbf5c970b	-0.86167973
181	0xbea82331	-0.3283935
182	0x3e8b2a47	0.27180693
183	0x3d769257	0.060198154
184	0xbf1439ab	-0.57900494
185	0xbed44d22	-0.41465098
186	0xbfb81d4b	-1.438394
187	0xbe262c26	-0.16227779
188	0x410e5c5c	8.897549
189	0xbf67a8a3	-0.90491694
190	0xbeb3c1a4	-0.35108674
191	0xbf231bcd	-0.63714296
192	0xbdb5ff2e	-0.08886562
193	0x40477646	3.1165938
194	0xc127ee4a	-10.495676
195	0x3ff4c4bd	1.912254
196	0x40d1d75a	6.557538
197	0xbf07761d	-0.529146
198	0x41247318	10.278099
199	0xc04d7e65	-3.2108395
200	0xbeec1617	-0.46110603
201	0xbeca51e9	-0.39515617
202	0xbf1bd032	-0.60864556
203	0xc010d8b3	-2.2632263
204	0x3d45014f	0.04809695
205	0x3db13e49	0.08654458
206	0x3ca814c4	0.020517714
207	0xbeec1309	-0.46108273
208	0xbcb15983	-0.021649128
209	0x3d7a56cc	0.061117932
210	0x3e1500bc	0.14551061
211	0xbc2c1f6f	-0.010505541
212	0x3e539bff	0.20664977
213	0x3e3f86e8	0.18703806
214	0xbf2af5d5	-0.6678136
215	0x3e47711b	0.1947674
216	0xbdb03b02	-0.08605005
217	0x3df0461f	0.117321245
218	0xbf29075e	-0.66026866
219	0xbf22519a	-0.63405764
220	0x3eb0ac19	0.345063
221	0x3ec109b2	0.3770271
222	0xbeff8d3d	-0.49912444
223	0xbf139481	-0.57648474
224	0x3cc48be8	0.023992494
225	0x3d6fad60	0.058514953
226	0x3d0157fc	0.03157805
227	0x3ec8840f	0.39163253
228	0xbeb42127	-0.35181543
229	0x3eac4224	0.3364421
230	0x3e779f0a	0.24181762
231	0xc0b4bd2e	-5.648093
232	0xbea64646	-0.3247549
233	0x3d49b8eb	0.049248617
234	0xbef9cf67	-0.48791048
235	0xbee1a2ae	-0.44069427
236	0x3f17127d	0.59012586
237	0xbf2ecb1e	-0.6827868
238	0xc13675b2	-11.403734
239	0xbebb9842	-0.366396
240	0xc0909b6f	-4.518974
241	0x3fb36e27	1.4017991
242	0xbebfc56b	-0.37455305
243	0xbf00f07f	-0.5036697
244	0x40465a70	3.0992699
245	0x3c4a20ad	0.012336892
246	0xc0862715	-4.1922708
247	0xbe4f1391	-0.20222308
248	0xbea6d0c6	-0.32581156
249	0xbc96720a	-0.018364925
250	0xbedff92f	-0.437448
251	0x3e7b852c	0.2456252
252	0x41e00b43	28.005499
253	0x3e5f5158	0.21808374
254	0xbedfa73a	-0.4368227
255	0x419507e0	18.628845

bias f4 [2]
0	0x418587cd	16.691309
1	0xc185e2cb	-16.735739

exp_avg f4 [128, 11]
0	0xc4b1addb	-1421.433
1	0x443ab9e9	746.90485
2	0x44bf6906	1531.282
3	0xc43359ff	-717.4062
4	0xc59b9bd5	-4979.479
5	0xc7ecb107	-121186.055
6	0x4874e599	250774.39
7	0xc917e74c	-622196.75
8	0xc59c45d6	-5000.7295
9	0xc8109b25	-148076.58
10	0x44e0ccba	1798.3977
11	0x4521f6b2	2591.4185
12	0x44bffd88	1535.9229
13	0x43c7dcbb	399.72446
14	0xc4744bca	-977.1842
15	0x46eef857	30588.17
16	0x489fe049	327426.28
17	0x496fcedb	982253.7
18	0x4b9b0b08	2.0321808e+07
19	0x4674668e	15641.639
20	0x48f27203	496528.1
21	0x4509277a	2194.4673
22	0x00000000	0.0
23	0x00000000	0.0
24	0x00000000	0.0
25	0x00000000	0.0
26	0x00000000	0.0
27	0x00000000	0.0
28	0x00000000	0.0
29	0x00000000	0.0
30	0x00000000	0.0
31	0x00000000	0.0
32	0x00000000	0.0
33	0xc1015f94	-8.0858345
34	0xbec299a6	-0.3800785
35	0x367bcb3e	3.7520217e-06
36	0xbcd622a0	-0.026139557
37	0xc12a2c84	-10.635868
38	0xc1db290c	-27.395042
39	0x3db6230a	0.08893402
40	0x3cbc3e80	0.022979021
41	0xc12a9968	-10.662453
42	0xc1a832a8	-21.024734
43	0x369b2580	4.6237255e-06
44	0x45904c54	4617.541
45	0x4511dc4a	2333.768
46	0x441bc9b3	623.15155
47	0xc4c52f2b	-1577.474
48	0x47400224	49154.14
49	0x4900272a	524914.6
50	0x49b79075	1.5037586e+06
51	0x4be89594	3.0485288e+07
52	0x46bfa430	24530.094
53	0x4957153e	880979.9
54	0x458530a2	4262.079
55	0x44ebc8c7	1886.2743
56	0x436cc390	236.76392
57	0x43d08408	417.0315
58	0x4473e4be	975.5741
59	0x45e3051a	7264.6377
60	0x483d03f6	193551.84
61	0x48e5bc7e	470499.94
62	0x4ac864fc	6.566526e+06
63	0x46010f8d	8259.888
64	0x466235b4	14477.426
65	0x4507716b	2167.0886
66	0xc63ad8aa	-11958.166
67	0xc5afae9e	-5621.827
68	0xc5051b62	-2129.7114
69	0x4579c72c	3996.4482
70	0xc7e6b2f8	-118117.94
71	0xc99cdaee	-1.2849578e+06
72	0xca5bd3c6	-3.6016495e+06
73	0xcc8a4504	-7.249309e+07
74	0xc76be0d2	-60384.82
75	0xca09e90d	-2.2595232e+06
76	0xc65cc8f0	-14130.234
77	0x45ab07e2	5472.9854
78	0x45371ac0	2929.6719
79	0x442d276b	692.6159
80	0xc4b86b3e	-1475.3513
81	0x47681d5f	59421.37
82	0x491b59a6	636314.4
83	0x49dfaede	1.8324118e+06
84	0x4c0beabe	3.667839e+07
85	0x46e50ceb	29318.459
86	0x497b9948	1.0305485e+06
87	0x4586f442	4318.532
88	0x45cdff34	6591.9004
89	0x45d20685	6720.815
90	0x44dd9b93	1772.8617
91	0x461fe3d6	10232.959
92	0x4765ddcd	58845.8
93	0x4954c082	871432.1
94	0x492e8099	714761.56
95	0x4c34e389	4.7418916e+07
96	0x47429e7a	49822.477
97	0x4976f309	1.01150456e+06
98	0x45126247	2342.1423
99	0x454fa649	3322.3928
100	0x44d93dac	1737.9272
101	0x43ea77f9	468.9373
102	0xc45b3c42	-876.9415
103	0x4708f70e	35063.055
104	0x48b89cb8	378085.75
105	0x498384c4	1.0774005e+06
106	0x4ba4b4bc	2.1588344e+07
107	0x46889e3f	17487.123
108	0x49182f00	623344.0
109	0x452cd7eb	2765.4949
110	0x4587303e	4326.0303
111	0x45058909	2136.5647
112	0x4415f03f	599.75385
113	0xc4827abd	-1043.8356
114	0x472a9ccb	43676.793
115	0x48e68686	472116.2
116	0x49a07db2	1.3147422e+06
117	0x4bc7f33b	2.6207862e+07
118	0x46a94674	21667.227
119	0x494464d0	804429.0
120	0x456257b4	3621.4814
121	0x45024454	2084.2705
122	0x448cad55	1125.4166
123	0x4396c2a7	301.52072
124	0xc3d443f4	-424.53088
125	0x46aba14e	21968.652
126	0x4868b2f9	238283.89
127	0x49260f76	680183.4
128	0x4b4ce1c3	1.3427139e+07
129	0x462ad571	10933.36
130	0x48bd002c	387073.38
131	0x44c5ac85	1581.3912
132	0xc50b2252	-2226.145
133	0xc4ee3403	-1905.6254
134	0xc33e6446	-190.3917
135	0x442aba78	682.9136
136	0xc7077999	-34681.598
137	0xc8b16cfe	-363367.94
138	0xc9917146	-1.1914648e+06
139	0xcbb7071a	-2.3989812e+07
140	0xc685307a	-17048.238
141	0xc8d79040	-441474.0
142	0xc3fcff6e	-505.99554
143	0xc53f964c	-3065.3936
144	0xc50cb4c7	-2251.2986
145	0xc399d490	-307.66064
146	0x440b890d	558.1414
147	0xc72001f0	-40961.938
148	0xc8d48264	-435219.12
149	0xc9a5cf74	-1.3583185e+06
150	0xcbcd7738	-2.69308e+07
151	0xc69c9b62	-20045.691
152	0xc90ecfb1	-584955.06
153	0xc4648852	-914.13
154	0x3b969619	0.0045955298
155	0x3ae607a4	0.0017549885
156	0x00000004	6e-45
157	0x3c4be6ae	0.012445135
158	0x00000004	6e-45
159	0x3d0f96f9	0.035056088
160	0x3458aff6	2.0180582e-07
161	0x3750cb75	1.2445137e-05
162	0x3c4be6ae	0.012445135
163	0x3ad56af6	0.0016282487
164	0xb626a6da	-2.4833048e-06
165	0xc606c6e5	-8625.724
166	0xc56a83d1	-3752.2385
167	0xc48905a7	-1096.1766
168	0x441242fc	585.04663
169	0xc7936214	-75460.16
170	0xc94a3816	-828289.4
171	0xca03cbc7	-2.1593458e+06
172	0xcc139df8	-3.869693e+07
173	0xc70b126b	-35602.418
174	0xc9bf1b9d	-1.5655556e+06
175	0xc5aabb02	-5463.376
176	0x453f5af6	3061.685
177	0x44d7592b	1722.7865
178	0x43f168ca	482.81866
179	0xc496f390	-1207.6113
180	0x4708ce2a	35022.164
181	0x48b70b84	374876.12
182	0x4987d228	1.112645e+06
183	0x4bafa1cc	2.302044e+07
184	0x468c302a	17944.082
185	0x490e9ce0	584142.0
186	0x452ec9f5	2796.6223
187	0xc6a037aa	-20507.832
188	0xc5ec113c	-7554.1543
189	0xc5827da9	-4175.7075
190	0xc46838d7	-928.8881
191	0xc808f0ab	-140226.67
192	0xc9c69802	-1.6268802e+06
193	0xca6dac48	-3.894034e+06
194	0xcc7254c1	-6.3525636e+07
195	0xc78781c7	-69379.555
196	0xca576916	-3.5292855e+06
197	0xc68e532b	-18217.584
198	0xc529e384	-2718.2197
199	0xc4cc0262	-1632.0745
200	0xc2d029cd	-104.08164
201	0x44c275cf	1555.6815
202	0xc7109613	-37014.074
203	0xc8bdddce	-388846.44
204	0xc98e6dac	-1.1667735e+06
205	0xcbc4692d	-2.5743962e+07
206	0xc694516e	-18984.715
207	0xc90972ae	-562986.9
208	0xc52b47e6	-2740.4937
209	0xc4cd7400	-1643.625
210	0xc49c9c64	-1252.8872
211	0xc3299ce8	-169.61292
212	0x445122b4	836.54224
213	0xc6c02326	-24593.574
214	0xc87b2b18	-257196.38
215	0xc9495047	-824580.44
216	0xcb844cdc	-1.7340856e+07
217	0xc641ab0e	-12394.764
218	0xc8a1874c	-330810.38
219	0xc48fa91c	-1149.2847
220	0xc132249b	-11.133937
221	0xbf06110d	-0.5236977
222	0x3699fa0e	4.5888655e-06
223	0xbd1cc8c2	-0.038277395
224	0xc16a50f1	-14.644761
225	0xc216f495	-37.73885
226	0xb63efede	-2.8460558e-06
227	0xbc70911c	-0.014683034
228	0xc16aedb5	-14.683034
229	0xc1e7862f	-28.94052
230	0xb5fe95a9	-1.8968032e-06
231	0xc6002974	-8202.363
232	0xc55f162c	-3569.3857
233	0xc4612b1c	-900.6736
234	0xc3baf040	-373.87695
235	0xc7872e85	-69213.04
236	0xc938dffd	-757247.8
237	0xc9eca019	-1.9384351e+06
238	0xcbf28a1e	-3.179014e+07
239	0xc6eeea3a	-30581.113
240	0xc9b68493	-1.4951864e+06
241	0xc58a4aa6	-4425.331
242	0xc680d52b	-16490.584
243	0xc5f10474	-7712.5566
244	0xc564ae70	-3658.9023
245	0x459ee334	5084.4004
246	0xc817ebcc	-155567.19
247	0xc9d2c4d4	-1.7266185e+06
248	0xca943483	-4.8563855e+06
249	0xccb90606	-9.700562e+07
250	0xc7a0e29b	-82373.21
251	0xca38e81e	-3.0295115e+06
252	0xc6a68977	-21316.732
253	0x450e9e01	2281.8752
254	0x44a92a86	1353.3289
255	0x43a9047c	338.03503

exp_avg_sq f4 [128, 11]
0	0x4d13b7b8	1.5489318e+08
1	0x4ba00d07	2.097819e+07
2	0x4beae5f4	3.0788584e+07
3	0x4ce5a40c	1.2039792e+08
4	0x4f866baa	4.5104056e+09
5	0x5330865f	7.581686e+11
6	0x57301420	1.9360048e+14
7	0x5644deb5	5.41152e+13
8	0x4e2257ce	6.8091584e+08
9	0x53216482	6.93176e+11
10	0x4e7d74d7	1.0630732e+09
11	0x4eb805cd	1.543694e+09
12	0x4d28d04b	1.7701394e+08
13	0x4b6ea5ea	1.5640042e+07
14	0x4cec46d6	1.2387704e+08
15	0x51b53b22	9.7297646e+10
16	0x554ff1da	1.4289853e+13
17	0x5786791c	2.9570944e+14
18	0x5b3a8170	5.2496664e+16
19	0x511d95af	4.230132e+10
20	0x557a2c91	1.7191832e+13
21	0x4e3d29a4	7.934057e+08
22	0x00000000	0.0
23	0x00000000	0.0
24	0x00000000	0.0
25	0x00000000	0.0
26	0x00000000	0.0
27	0x00000000	0.0
28	0x00000000	0.0
29	0x00000000	0.0
30	0x00000000	0.0
31	0x00000000	0.0
32	0x00000000	0.0
33	0x4984fd2e	1.0894458e+06
34	0x47d0de02	106940.016
35	0x48b020ef	360711.47
36	0x495e8b72	911543.1
37	0x499cb7ba	1.2838312e+06
38	0x4c759b14	6.438408e+07
39	0x53b803b6	1.5806725e+12
40	0x4f18cb40	2.563457e+09
41	0x49fe9407	2.0855049e+06
42	0x4a1b79be	2.5473115e+06
43	0x471e8ce2	40588.883
44	0x4f53923b	3.549576e+09
45	0x4db52ce5	3.799523e+08
46	0x4c03beb4	3.4536144e+07
47	0x4db3a99c	3.7677965e+08
48	0x524670bc	2.1307372e+11
49	0x55e33d64	3.1231601e+13
50	0x5898dd6f	1.3446145e+15
51	0x5bcac025	1.1413842e+17
52	0x51ab1541	9.18495e+10
53	0x5609e9b3	3.7909206e+13
54	0x4edcef7a	1.8533409e+09
55	0x4d272486	1.752618e+08
56	0x4c89d4b9	7.226311e+07
57	0x4cb409e0	9.439206e+07
58	0x4df564a9	5.1462685e+08
59	0x4d858cba	2.8007405e+08
60	0x51f20d49	1.2995062e+11
61	0x5755f041	2.3522786e+14
62	0x5788608e	2.9989656e+14
63	0x4d6d4ae8	2.4881933e+08
64	0x501f68f4	1.0697822e+10
65	0x4c774942	6.4824584e+07
66	0x5090dde9	1.9443698e+10
67	0x4f11373a	2.4363156e+09
68	0x4df3567a	5.1031635e+08
69	0x4f2e2ebc	2.9222984e+09
70	0x538890fb	1.1730958e+12
71	0x571dd5ea	1.7354208e+14
72	0x59a2a0e0	5.721979e+15
73	0x5d0ff100	6.4825446e+17
74	0x52f02620	5.157159e+11
75	0x573a9a8e	2.0517297e+14
76	0x507f8abb	1.7149128e+10
77	0x4f95b302	5.0230733e+09
78	0x4df4447d	5.1226614e+08
79	0x4c23e9b5	4.2968788e+07
80	0x4dd86448	4.5380634e+08
81	0x528b582b	2.9923983e+11
82	0x561eca4b	4.364792e+13
83	0x58c0f4dd	1.6972633e+15
84	0x5c0bdabc	1.5746209e+17
85	0x51eb198b	1.2621823e+11
86	0x5644eaa7	5.4128026e+13
87	0x4ef11af8	2.0225382e+09
88	0x5078f1ec	1.6706417e+10
89	0x4e9592d5	1.254714e+09
90	0x4c4226ed	5.0895796e+07
91	0x4dad1fc8	3.6306765e+08
92	0x5352eae8	9.058842e+11
93	0x56f77d85	1.3605924e+14
94	0x56dc471c	1.21098985e+14
95	0x5c8bb69f	3.1460653e+17
96	0x52a9e5f4	3.6485372e+11
97	0x570606cf	1.473638e+14
98	0x50317ddf	1.1911265e+10
99	0x4ed1b1e3	1.7590481e+09
100	0x4d32ac4a	1.8735222e+08
101	0x4ba0dd91	2.1084962e+07
102	0x4d2f6b50	1.8394035e+08
103	0x51c32ff0	1.0479036e+11
104	0x555f26c1	1.5334846e+13
105	0x5808ff21	6.025174e+14
106	0x5b44da67	5.540923e+16
107	0x5125a577	4.4465353e+10
108	0x55896b57	1.8886764e+13
109	0x4e4b0bcf	8.516372e+08
110	0x4f19ca06	2.5801539e+09
111	0x4d82118a	2.7277344e+08
112	0x4c0a9d4f	3.6336956e+07
113	0x4d963e66	3.1508397e+08
114	0x520c1191	1.5039753e+11
115	0x55a03491	2.2018454e+13
116	0x5876b76f	1.0850708e+15
117	0x5b8ccd11	7.926394e+16
118	0x516bf0f5	6.3334994e+10
119	0x55c5f753	2.7208255e+13
120	0x4ea54b3a	1.3865853e+09
121	0x4e246a36	6.89606e+08
122	0x4c8ab8c2	7.273013e+07
123	0x4b0c75ff	9.205247e+06
124	0x4c8355f0	6.885773e+07
125	0x51186fe5	4.091952e+10
126	0x54ae0394	5.9790747e+12
127	0x573dd4d4	2.0872179e+14
128	0x5a983e6e	2.142642e+16
129	0x507fda41	1.7169974e+10
130	0x54d8970e	7.4419777e+12
131	0x4d90e7ba	3.038882e+08
132	0x4f0e9f12	2.3927895e+09
133	0x4d578040	2.2596915e+08
134	0x4a3ebd77	3.1250858e+06
135	0x4c7ce5e3	6.6295692e+07
136	0x520937b8	1.4733633e+11
137	0x559b1636	2.1314962e+13
138	0x5741110a	2.1227893e+14
139	0x5b856a3e	7.510597e+16
140	0x5163ce75	6.1151334e+10
141	0x55c3afb0	2.6894917e+13
142	0x4da005c9	3.355917e+08
143	0x4f2da74c	2.9134223e+09
144	0x4d81c03b	2.7210736e+08
145	0x4ae15b8b	7.3845175e+06
146	0x4ccc6d61	1.0717876e+08
147	0x522492a5	1.7670873e+11
148	0x55ba0efc	2.557169e+13
149	0x57ac215b	3.7851852e+14
150	0x5b9ea180	8.9301235e+16
151	0x5186e7e7	7.242704e+10
152	0x55ed03f5	3.2575156e+13
153	0x4ddd75a9	4.6443446e+08
154	0x484d31b7	210118.86
155	0x457f1840	4081.5156
156	0x000001f4	7e-43
157	0x48bb1aba	383189.8
158	0x48522f6e	215229.72
159	0x4a60406b	3.6741388e+06
160	0x3c7b8515	0.015351553
161	0x3f19320f	0.5984201
162	0x4912192d	598418.8
163	0x490fa17c	588311.75
164	0x44253eb7	660.9799
165	0x4fb123fd	5.9438515e+09
166	0x4e0152ad	5.424198e+08
167	0x4cc6fd6e	1.0432805e+08
168	0x4e302e73	7.389585e+08
169	0x52921b00	3.137591e+11
170	0x5625a767	4.55346e+13
171	0x580e755f	6.26539e+14
172	0x5c0105b6	1.452662e+17
173	0x51de53cf	1.193611e+11
174	0x565bffc1	6.0472875e+13
175	0x4f85e5cf	4.492861e+09
176	0x4eec88a1	1.9841885e+09
177	0x4d5d7fef	2.3225931e+08
178	0x4bb01186	2.3077644e+07
179	0x4d2b55e2	1.7965827e+08
180	0x51e9046a	1.2510018e+11
181	0x5585e0e6	1.8400122e+13
182	0x57c9428b	4.4257527e+14
183	0x5b7230dd	6.817067e+16
184	0x514c3eb8	5.48266e+10
185	0x559fe2b8	2.1974512e+13
186	0x4e86b75c	1.1300818e+09
187	0x50c62d38	2.6598818e+10
188	0x4f4da9fb	3.450469e+09
189	0x4f0ed1d8	2.396117e+09
190	0x501ef0a5	1.0666284e+10
191	0x53829ec9	1.1220194e+12
192	0x5718664a	1.675651e+14
193	0x5a9bb6e8	2.1914864e+16
194	0x5cf3e441	5.491951e+17
195	0x52c84a28	4.301188e+11
196	0x573e8669	2.094845e+14
197	0x510ac700	3.725276e+10
198	0x4f002b27	2.1503117e+09
199	0x4d7126ce	2.5286576e+08
200	0x4b609fa0	1.4720928e+07
201	0x4d0f2210	1.5008589e+08
202	0x5201b195	1.3925753e+11
203	0x5594edc1	2.0468608e+13
204	0x5793e5f5	3.2523173e+14
205	0x5b87e736	7.650668e+16
206	0x5163a559	6.110823e+10
207	0x55b129d6	2.4349155e+13
208	0x4e91a809	1.2218543e+09
209	0x4e88ec7d	1.1485999e+09
210	0x4ce449fc	1.1968918e+08
211	0x4a271bb3	2.7379008e+06
212	0x4c2be990	4.506579e+07
213	0x51879032	7.277997e+10
214	0x551a50a6	1.0604448e+13
215	0x56faaa46	1.3780461e+14
216	0x5b088f1f	3.843796e+16
217	0x50e8ef2a	3.1263904e+10
218	0x553c8ab8	1.2956499e+13
219	0x4d942bbc	3.1073677e+08
220	0x4a962653	4.9201055e+06
221	0x48f41c1e	499936.94
222	0x49da11a4	1.7864205e+06
223	0x4a95f6f0	4.91404e+06
224	0x4b5bc066	1.4401638e+07
225	0x4fc39dde	6.563806e+09
226	0x4dbd9d87	3.976522e+08
227	0x50fd1ee2	3.3973277e+10
228	0x4b28515f	1.1030879e+07
229	0x4f2f9b43	2.946188e+09
230	0x48125dfc	149879.94
231	0x4f8861e7	4.576235e+09
232	0x4d8abb41	2.9094096e+08
233	0x4bf67d49	3.2307858e+07
234	0x4e5cc46f	9.2596525e+08
235	0x523cd63d	2.0276204e+11
236	0x55d1f975	2.8858667e+13
237	0x598a9884	4.876405e+15
238	0x5b987c1f	8.584134e+16
239	0x517cef0d	6.7896398e+10
240	0x56178a22	4.1654883e+13
241	0x4f9cb54a	5.2582533e+09
242	0x510fb275	3.8573396e+10
243	0x4fa52dc7	5.5424814e+09
244	0x4ed43e57	1.7804276e+09
245	0x4fe1e58b	7.579834e+09
246	0x54082898	2.3391864e+12
247	0x579e8891	3.4861877e+14
248	0x5a1816dc	1.0702333e+16
249	0x5d93c740	1.3310688e+18
250	0x5376765b	1.0585476e+12
251	0x57b5a669	3.9945266e+14
252	0x511c94e5	4.203206e+10
253	0x4e8d88f0	1.1872809e+09
254	0x4cfd840d	1.32915304e+08
255	0x4b241a40	1.0754624e+07

exp_avg f4 [128]
0	0xc5822cd5	-4165.604
1	0x46ea756a	30010.707
2	0x00000000	0.0
3	0xc12a9792	-10.662004
4	0x473c47d4	48199.83
5	0x460744fb	8657.245
6	0xc7e30d9c	-116251.22
7	0x47650ea1	58638.63
8	0x478a61cc	70851.59
9	0x47075f0a	34655.04
10	0x4728e0b2	43232.695
11	0x46aaab44	21845.633
12	0xc7058d19	-34189.098
13	0xc71f0774	-40711.453
14	0x3c4be6ae	0.012445135
15	0xc79461a6	-75971.3
16	0x4705f95f	34297.37
17	0xc80decd3	-145331.3
18	0xc70aea7b	-35562.48
19	0xc6baed4a	-23926.645
20	0xc16aedb5	-14.683034
21	0xc789abc9	-70487.57
22	0xc8168771	-154141.77
23	0x46cdbabb	26333.365
24	0xc717383b	-38712.23
25	0x469d03ec	20097.96
26	0x408121f4	4.0353947
27	0xc584c977	-4249.183
28	0x406ee7c1	3.7328951
29	0x46116372	9304.861
30	0xc6b1b620	-22747.062
31	0x40be8b6c	5.9545193
32	0xc4873418	-1081.6279
33	0x3e14b3c3	0.14521699
34	0x46b8ebe5	23669.947
35	0x474581d1	50561.816
36	0x480d23a7	144526.61
37	0x00000004	6e-45
38	0xc40127b8	-516.6206
39	0xc78b878c	-71439.09
40	0xc0b4b012	-5.646493
41	0x4761614e	57697.305
42	0x480d4e00	144696.0
43	0x457bdc9d	4029.7883
44	0x46ebe970	30196.719
45	0xc721cc9c	-41420.61
46	0xc82bfcd4	-176115.31
47	0x47eef1a2	122339.266
48	0x47ffd882	130993.016
49	0x47669a10	59034.062
50	0xc7d9027b	-111108.96
51	0x45f918f8	7971.121
52	0x4536d560	2925.336
53	0xc70573f1	-34163.94
54	0xc84b115d	-207941.45
55	0x46a1c2cf	20705.404
56	0x4725b3bc	42419.734
57	0xc4a40a92	-1312.3303
58	0x47fbcdc0	128923.5
59	0x47c3f63e	100332.484
60	0xc82a64ec	-174483.69
61	0x47ce60c4	105665.53
62	0x471a44dd	39492.863
63	0xc83bec22	-192432.53
64	0xc76defae	-60911.68
65	0x3c74b29d	0.014935163
66	0x4844d36c	201549.69
67	0xc1108cf3	-9.034411
68	0xc09b59fe	-4.8547354
69	0x00000000	0.0
70	0x46bfdcae	24558.34
71	0x4761e20e	57826.055
72	0x47d5877e	109326.984
73	0xc79ad375	-79270.914
74	0x46e201c2	28928.879
75	0x476051ba	57425.727
76	0x47e63e6a	117884.83
77	0xc7908f3d	-74014.48
78	0xc82c0358	-176141.38
79	0xc8349230	-184904.75
80	0x460efd13	9151.269
81	0xbfe4737f	-1.7847747
82	0xc6e211ba	-28936.863
83	0x4634121b	11524.526
84	0x4698454e	19490.652
85	0x46bac57d	23906.744
86	0xc81c12f3	-159819.8
87	0xc58e286a	-4549.052
88	0x47ea8bae	120087.36
89	0x47c80649	102412.57
90	0x4718dd0e	39133.055
91	0x455f1a7a	3569.6548
92	0x482fc4e1	179987.52
93	0x47607bd0	57467.812
94	0x47ebbbb7	120695.43
95	0xc663c3c8	-14576.945
96	0x440a507b	553.2575
97	0x00000004	6e-45
98	0x4756bf00	54975.0
99	0x47128e31	37518.19
100	0x45a88eb2	5393.837
101	0x47f2ec0d	124376.1
102	0x40a2a992	5.0831995
103	0xc8098cdd	-140851.45
104	0xc6a4832d	-21057.588
105	0xbe211649	-0.15731157
106	0x47235c6e	41820.43
107	0xc7859b4c	-68406.59
108	0x00000000	0.0
109	0xc6cff55f	-26618.686
110	0x438d1ebf	282.2402
111	0xc814d156	-152389.34
112	0x472cfafe	44282.992
113	0xc6e7e9e8	-29684.953
114	0x00000000	0.0
115	0xc4d85c92	-1730.8928
116	0x46a4c1ed	21088.963
117	0x46c1f77c	24827.742
118	0x4785d744	68526.53
119	0x46c759a4	25516.82
120	0xc6e09f03	-28751.506
121	0xc70f6e3e	-36718.242
122	0x3e178e04	0.14800268
123	0x475c4aec	56394.92
124	0xc74e60a0	-52832.625
125	0x450f55ea	2293.3696
126	0x471d6638	40294.22
127	0x47c93c0c	103032.09

exp_avg_sq f4 [128]
0	0x4f8c5744	4.7090586e+09
1	0x51b9ed10	9.9818275e+10
2	0x00000000	0.0
3	0x4a1c046d	2.5561872e+06
4	0x524b1da7	2.1809396e+11
5	0x4e5a20fd	9.1489875e+08
6	0x538cc2b1	1.2091236e+12
7	0x528e3fc4	3.0547758e+11
8	0x535463ca	9.1220725e+11
9	0x51c7b4c3	1.072164e+11
10	0x520f5887	1.5391639e+11
11	0x511bd40f	4.1829855e+10
12	0x520b419e	1.4952533e+11
13	0x52270b4f	1.7936232e+11
14	0x4912192d	598418.8
15	0x5294529c	3.1852056e+11
16	0x51ef49ef	1.284672e+11
17	0x5386e237	1.1586417e+12
18	0x52053a41	1.43052e+11
19	0x518a4ae5	7.424525e+10
20	0x4ba0ffa3	2.1102406e+07
21	0x523d99c8	2.0358221e+11
22	0x540d0abb	2.4230817e+12
23	0x518dc019	7.610166e+10
24	0x52255921	1.7754123e+11
25	0x512466ab	4.413107e+10
26	0x496ca86c	969350.75
27	0x4df29670	5.0874317e+08
28	0x48bfe16d	392971.4
29	0x4e8bc4f0	1.1724698e+09
30	0x51778d37	6.6451632e+10
31	0x49384cfd	754895.8
32	0x4f1f2f73	2.670687e+09
33	0x49410a44	790692.25
34	0x5148a2d7	5.385784e+10
35	0x52398270	1.9918933e+11
36	0x54339690	3.0853007e+12
37	0x000001f4	7e-43
38	0x4d145f0e	1.555786e+08
39	0x525785c4	2.3141555e+11
40	0x499b0c56	1.2701548e+06
41	0x529b0df2	3.3297695e+11
42	0x540855e3	2.342226e+12
43	0x4fb9c7c9	6.233756e+09
44	0x51ae9a53	9.373918e+10
45	0x523066f6	1.8941041e+11
46	0x5437709e	3.1514737e+12
47	0x53dd0d6b	1.8988258e+12
48	0x5404542c	2.2733914e+12
49	0x52897916	2.95221e+11
50	0x53025ead	5.5993414e+11
51	0x4ffb083a	8.4232407e+09
52	0x4eac4c4d	1.4453408e+09
53	0x520bf5cd	1.5028108e+11
54	0x5477e16d	4.2585558e+12
55	0x512ae93a	4.5878583e+10
56	0x5231603c	1.9045594e+11
57	0x501bd7cf	1.0458447e+10
58	0x53cb2df2	1.7452984e+12
59	0x5394fa06	1.2796997e+12
60	0x543444be	3.0969897e+12
61	0x539c77af	1.3440457e+12
62	0x52255946	1.7754184e+11
63	0x546985c5	4.0118866e+12
64	0x53383e0f	7.9131515e+11
65	0x49223416	664385.4
66	0x542ffd35	3.0234695e+12
67	0x4a8375e0	4.307696e+06
68	0x498bfe19	1.1468191e+06
69	0x00000000	0.0
70	0x5163aa77	6.1113594e+10
71	0x529e146e	3.394738e+11
72	0x534b876a	8.741502e+11
73	0x5243ae83	2.1011161e+11
74	0x51afd59b	9.440037e+10
75	0x528d0841	3.0286443e+11
76	0x53b2218d	1.5301341e+12
77	0x528236f8	2.79634e+11
78	0x544dcde7	3.535691e+12
79	0x54458852	3.3935825e+12
80	0x4f9c6edc	5.249022e+09
81	0x48be27f4	389439.62
82	0x505d8373	1.4865518e+10
83	0x4f2b9787	2.8788344e+09
84	0x50d795a1	2.893526e+10
85	0x516971d9	6.266484e+10
86	0x53d578d3	1.8337103e+12
87	0x4f0ecb6e	2.3956966e+09
88	0x53c3cd0c	1.6819175e+12
89	0x53fe126b	2.1824614e+12
90	0x51e1335f	1.2090369e+11
91	0x503b585c	1.257252e+10
92	0x5441352c	3.319283e+12
93	0x527ec0d5	2.7353922e+11
94	0x546a0932	4.0207065e+12
95	0x506f9403	1.6077819e+10
96	0x4d084b17	1.429139e+08
97	0x000001f4	7e-43
98	0x528054a2	2.7558786e+11
99	0x5207b119	1.4569795e+11
100	0x4e6bfaa1	9.8976774e+08
101	0x53d9ab3b	1.8697613e+12
102	0x492f7fe8	718846.5
103	0x53a377db	1.404181e+12
104	0x508ca361	1.887614e+10
105	0x47faa5f2	128331.89
106	0x52163d57	1.6131855e+11
107	0x519b9830	8.353415e+10
108	0x00000000	0.0
109	0x5190ebfb	7.78043e+10
110	0x49a79c32	1.3730622e+06
111	0x54a0cd2e	5.525097e+12
112	0x52374fa0	1.9682873e+11
113	0x51885186	7.318541e+10
114	0x00000000	0.0
115	0x4f43dd15	3.286046e+09
116	0x511e380d	4.2471576e+10
117	0x5169b01e	6.2730134e+10
118	0x52c93963	4.321256e+11
119	0x51709e0c	6.4590234e+10
120	0x51c5ac7e	1.0612531e+11
121	0x5212c45b	1.5758988e+11
122	0x494e9594	846169.25
123	0x52863479	2.8820298e+11
124	0x52519328	2.2502926e+11
125	0x4e8c9fe8	1.1796449e+09
126	0x520cfa4d	1.513737e+11
127	0x538d4839	1.2136042e+12
