models/maintainance_agent/5/D3QN_q_eval.pth (torch, 228957 bytes, 21 tensors)

weight f4 [128, 11]
00000000: fb50 51bf 3669 9abf 44bf 36bf 081f 08bf
00000010: 36ee d63f 5853 413f 910b 84bf d0d3 cdbd
00000020: f4b8 b8bf 5a6e b93f 25f4 53c0 3de5 8440
00000030: d015 9240 64f8 0bbf 03d3 fbbf b165 cebf
00000040: 4b4c ef3f f823 453e 73f4 c43d 4d74 9841
00000050: fce1 dabe e157 8ac0 8028 50c0 7325 543f
00000060: 6017 2d40 7982 ca40 d737 e940 0d64 b83f
00000070: ab12 443e c375 81bc 4676 81c1 7f10 9d3f
00000080: b560 7bc0 4645 48c0 f0b1 01bf bdb6 e13f
00000090: 9643 a940 b979 e440 6da9 883f eb99 6e3e
000000a0: f014 80bc 18c3 85c1 de93 a13f 6984 57c0
000000b0: 6fd4 2abf 7bfe 073f 1e09 2bc0 0a34 3c40
000000c0: c670 1e41 8892 c23f dd70 ed3d 7758 c63f
000000d0: f37b 6ac1 8b0d d0be 0b92 27c1 f781 a140
000000e0: fad1 22bf e4aa 50c0 be69 bbc0 572e d2c0
000000f0: d892 4d3e d88a b33c 9b59 f33e ea0a 7741
00000100: 445a 8ebf 6a29 48bf 7896 4bc0 60c2 d33f
00000110: 61b2 4d40 e8d5 c440 36d8 ee40 3ed1 c33f
00000120: 75ff b03d 0a68 39bc fcdd 7dc1 e939 a73f
00000130: 19a4 81c0 492d 5bc0 d797 c23f def0 7940
00000140: 6784 a840 100c 1241 09c0 2f40 9b16 bf3c
00000150: 80bf 3bbc c0a2 5dc1 364e 02be 9097 8b3f
00000160: 6bf4 82c0 b997 fb3f 8fcb 3840 6b30 d240
00000170: 0ff5 0941 47fb aa3f 14d1 4ebc b339 e23e
00000180: 6664 80c1 d3df 813f c4a3 8ac0 4695 9040
00000190: c052 3540 1a06 dfbf a834 3dc0 d5e3 2fc0
000001a0: d815 9abf e4e5 8f3e f07e 543e 34e4 6a41
000001b0: 218a 33bf 3d3c a8be 0517 49c1 bba1 98c0
000001c0: 36b0 e4c0 64d0 72c1 6a98 c4c0 adb1 a43f
000001d0: 904b 55be a137 65bc 83de 2e41 60d2 1040
000001e0: 91fe ad40 4056 1941 4fd4 6f40 c24a be3f
000001f0: 9210 27c0 48be 52c0 8224 92be dfa0 1e3d
00000200: d8ba 37be 07ea e540 e5c2 b4c0 19e7 82c0
00000210: aed7 42be de49 933e 3bff 28be aae1 dabd
00000220: 481f 65be 48fd 36bd f5f5 83be e45c ccbd
00000230: 08cf 3b3e d040 a4bd 312e 87be 7f64 ee3f
00000240: 842c 6240 8b31 dbbf 3809 683e 7904 d5bf
00000250: 1b75 0c40 a9df 353d d13d 14bb 38af 9541
00000260: 236a f03f 3a37 5dc0 b09c 67c0 fede 3040
00000270: af6c 8940 f1b2 dc40 5d46 f540 2ced bc3f
00000280: 21b4 243d 67a7 67bc 2691 72c1 79c0 9d3f
00000290: 8867 8fc0 28bf 3f3f 61f1 45c0 d2d5 f73f
000002a0: efa9 bf3f 72cd c7c0 b508 b2bf d7c4 e93e
000002b0: 22a8 ca3d 9a60 d5c1 f273 a83e 9f5c 8a40
000002c0: a54a 0441 f8a1 b63f 033e 46be 6e04 2dc0
000002d0: dfe5 7cc0 8c29 22c0 9335 4d3e 47d4 18be
000002e0: a31b f440 d40e 88c0 34b1 08c0 cd1f 8ec0
000002f0: 1f6c e33f 9f20 7540 0076 d540 9f35 0841
00000300: 940c a83f 3405 c03c d562 4a3e b650 78c1
00000310: d2be bb3f 3722 83c0 4878 80c0 3f33 2140
00000320: c47a 7940 2209 e040 fc7c ff40 bc0e ca3f
00000330: 755d 6c3d 8039 bd3d 1b5a 6ec1 4d44 b83f
00000340: db1b 88c0 c7df 89c1 1e81 31c1 da51 47c1
00000350: 0e8b 93c1 b5a7 d9c0 df47 6c3f c473 abbe
00000360: b6d0 2c3c de76 0b41 8f48 1340 216c 5541
00000370: 437e 73c0 0927 7d3f 0c2d 0240 d6c5 c240
00000380: 93ac 0c41 f01c bc3f 1062 1c3e f640 c83e
00000390: 0435 81c1 1f3c 583f 4f51 84c0 296b a3bd
000003a0: 76be b73d fdb3 5e3d 3707 8e3e d514 873e
000003b0: 0448 dbbd e316 52be ffda 90bb 7d88 56bd
000003c0: 4678 73be 1421 1b3e 9c66 28c0 d1e7 c63e
000003d0: 0a29 2340 542d b940 e9ad dc40 ace6 b33f
000003e0: e682 4b3e 0885 73bc 524a 85c1 0e3d 9e3f
000003f0: eae3 8cc0 8a84 e840 5f96 1d40 6efc e13f
-0.8176419 -1.2063358 -0.713856 -0.5317235 1.6791446 0.755178 -1.031603 -0.10050166
-1.4431443 1.4486802 -3.3117764 4.152983 4.5651627 -0.5467589 -1.9673771 -1.6124784
1.8695158 0.19252002 0.096169375 19.056787 -0.42750537 -4.3232274 -3.252472 0.8286964
2.7045517 6.328427 7.2880664 1.4405533 0.19147746 -0.015803223 -16.18275 1.2270659
-3.9277775 -3.129228 -0.50662136 1.7633892 5.2895 7.1398587 1.0676705 0.23300903
-0.015634984 -16.72026 1.262325 -3.3674567 -0.667304 0.5312268 -2.6724315 2.9406762
9.902533 1.5200968 0.115937926 1.5495747 -14.655261 -0.40635332 -10.473155 5.047115
-0.6360165 -3.2604303 -5.856658 -6.5681567 0.20075548 0.021916792 0.475293 15.440165
-1.1121297 -0.7818819 -3.181059 1.6543694 3.2140124 6.1511116 7.463893 1.5298231
0.086424746 -0.011316309 -15.866695 1.3064548 -4.0512815 -3.424639 1.5202588 3.9053264
5.2661624 9.127945 2.746096 0.023326209 -0.011459231 -13.852234 -0.12725148 1.0905628
-4.092336 1.9655677 2.8874242 6.5684104 8.622329 1.3357934 -0.01262309 0.44184646
-16.049023 1.0146431 -4.332491 4.518222 2.8331757 -1.7423737 -2.956339 -2.7482808
-1.2037916 0.2810508 0.20751548 14.680714 -0.70132643 -0.32858458 -12.56812 -4.7697425
-7.14651 -15.175877 -6.143605 1.2866722 -0.20829606 -0.013990314 10.929324 2.2628403
5.437325 9.583557 3.7473333 1.4866564 -2.6103864 -3.2928638 -0.28543478 0.038727637
-0.17942369 7.184818 -5.648791 -4.09071 -0.19027588 0.28767294 -0.16503613 -0.10687573
-0.22375214 -0.04467514 -0.25773588 -0.09978655 0.18340695 -0.080201745 -0.2640243 1.8624419
3.533967 -1.7124494 0.22659767 -1.664199 2.1946476 0.044402752 -0.0022619853 18.710556
1.878239 -3.4564958 -3.6189384 2.7636104 4.294517 6.8968434 7.6648393 1.4759879
0.040210847 -0.014139033 -15.160437 1.2324363 -4.481388 0.74901056 -3.0928576 1.9362128
1.4973735 -6.243829 -1.3908907 0.4565799 0.0989535 -26.672169 0.3290096 4.3238063
8.268224 1.4268179 -0.19359593 -2.7033954 -3.9515302 -2.5337858 0.20039968 -0.14924727
7.6283736 -4.25181 -2.1358156 -4.441382 1.7767371 3.830116 6.6706543 8.513091
1.3128839 0.023439981 0.19764264 -15.519705 1.4667609 -4.0979266 -4.014683 2.5187528
3.898118 7.001115 7.984007 1.5785747 0.057706315 0.09239483 -14.896998 1.4395844
-4.2534003 -17.234266 -11.094023 -12.457483 -18.442898 -6.801722 0.92297167 -0.3348676
0.010547807 8.71652 2.3013036 13.338899 -3.8045814 0.9888769 2.0339994 6.08665
8.792132 1.4696331 0.15271783 0.3911206 -16.150887 0.8446674 -4.1349254 -0.079794236
0.089718744 0.05437087 0.2773988 0.2638308 -0.10707095 -0.20516543 -0.0044206376 -0.05237626
-0.2377635 0.15149337 -2.6312628 0.38848737 2.5493798 5.786783 6.8962293 1.405477
0.19874153 -0.01486326 -16.66129 1.2362382 -4.4028215 7.266179 2.462303 1.765516

bias f4 [128]
00000000: f495 0b40 2242 d4bf 0c97 fa40 d74f e840
00000010: e461 1041 25d1 cbc0 5e5a 0041 4002 1341
00000020: 35d3 0f41 7c8d 6bc0 0608 c1c0 3262 3ac0
00000030: 1aef acbd 3b57 79bf e658 0b41 0aa7 96c0
00000040: 234f 7ec0 6e61 1241 2735 0f41 4a19 e7c0
00000050: feea 0b41 caf5 b3bd c298 ea40 6065 77c0
00000060: 993b 89be f624 f0bf f597 0441 b3ac 1341
00000070: a86c 01bd 26c7 fc40 3ad1 08c0 f68f e0c0
00000080: 83dd 9940 3ca7 5fbf e29b 40be 5cb5 ebc0
00000090: 36f1 87be 665e 723f 870b 36c0 24f3 5d3c
000000a0: e723 d940 90bc 3441 2dde 1041 f930 c6c0
000000b0: 6d7a bc3e a880 2741 c112 2341 e78a c1bf
000000c0: c40e 1441 7d30 1741 fa69 81c0 64f9 1241
000000d0: 2906 1141 2a1a b9bf 703b 4d3e 566a 1641
000000e0: 7f0c 3ac0 b0f4 1741 5f5c 6cc0 80d5 a5bc
000000f0: d40c cc40 d957 0d41 fcf0 0a41 be0b eb40
00000100: ccf3 f9c0 b206 1fc0 a60d 9440 569e 0b41
00000110: 30f2 f740 e686 61c0 cf53 0f41 4e3c 1f41
00000120: 4e2e 32bf 220a 8240 0567 9bc0 e9b4 6dc0
00000130: 0c70 333e 32b8 4e41 2afd f9c0 bcfa 0441
00000140: 52c9 0e41 d9ce 03c1 0330 5941 205a d440
00000150: 537f 1b41 0d71 0741 c097 4fbc b4a8 29c0
00000160: 6cc8 0841 7bb1 8dc0 7ce2 1441 c281 1641
00000170: a872 1a41 26d0 c640 eb12 ff40 5750 3cc0
00000180: d3aa c3c0 30bc 0f41 ae89 0841 b4a7 e040
00000190: dd43 0c41 84ce 713f 9d7d 0941 25c5 fc40
000001a0: 6af4 8fc0 f05b e5bf 4d2b 07c1 f334 1a41
000001b0: 08d2 dd40 2d95 0a41 c50f 15c0 394b 18c1
000001c0: ece2 94c0 451d 29bf a868 c33f 9c4f 1b41
000001d0: a5c1 8ebe 87bb 85c0 8836 c6c0 fb86 7bc0
000001e0: e2ac 24c0 5b11 0841 95a9 1141 c655 f540
000001f0: a919 e7c0 3960 8cc0 3571 00c0 38ae 0741
2.1810274 -1.6582682 7.8309383 7.259746 9.023899 -6.3692803 8.022062 9.188049
8.989064 -3.6805105 -6.0322294 -2.9122434 -0.084440425 -0.9739873 8.709204 -4.7078905
-3.9735801 9.148787 8.950477 -7.221837 8.744871 -0.08787115 7.331147 -3.8655624
-0.26803282 -1.876128 8.287099 9.229663 -0.031597763 7.89931 -2.1377702 -7.0175734
4.80829 -0.87364554 -0.18809465 -7.3658886 -0.26551217 0.9467529 -2.8444536 0.013546739
6.7856326 11.296036 9.054242 -6.193478 0.36812153 10.46891 10.192079 -1.5120515
9.253605 9.449338 -4.0441866 9.185886 9.064004 -1.446111 0.20042205 9.400961
-2.9070127 9.497238 -3.693138 -0.020243406 6.376566 8.833947 8.683834 7.3451834
-7.8110104 -2.4847836 4.626666 8.726156 7.748314 -3.5238585 8.957961 9.952223
-0.69601905 4.063737 -4.8563256 -3.7141669 0.17523211 12.91997 -7.812154 8.311214
8.92415 -8.238 13.574222 6.6360016 9.718585 8.4651 -0.012670457 -2.6509218
8.548931 -4.427915 9.305294 9.406679 9.652992 6.2129087 7.9710593 -2.9424036
-6.1146026 8.983444 8.533613 7.0204716 8.766568 0.9445574 8.593167 7.8990655
-4.4985857 -1.7918682 -8.4480715 9.637927 6.9318886 8.66142 -2.3290875 -9.518365
-4.6527004 -0.66060287 1.5266314 9.706936 -0.27882114 -4.1791415 -6.1941566 -3.9301136
-2.573052 8.504237 9.103902 7.6667204 -7.2218823 -4.386746 -2.0069096 8.480034

weight f4 [128, 128]
00000000: af95 7fbd 257e 753d 7edb 183d 675e 833d
00000010: b42e 66bc 4145 ce3c 864d c338 4015 adbc
00000020: f426 a4bd ba85 8fbd 57cc 943d 6063 123d
00000030: 6c57 8f3c 9610 50bd 0428 b4bd ae29 ba3c
00000040: b76f c4bd 5a7c d9bb 2e56 67bd 20f7 24bb
00000050: ddc3 aabd d59c 423d 1b7e 283c 484c 32bd
00000060: 4ad0 a2bd 6635 80bd ea4d 27bd 57a6 943d
00000070: 946c 0e3d db48 babb 6b55 e0bd b9b8 e0bc
00000080: b0c0 42bd 43e2 a73c 60b7 04bd d0b1 29bc
00000090: 8637 aabc daa0 b9bd 4b86 b63b b071 19bc
000000a0: b730 dabd fea0 f1bc 01b1 693d 8690 aa3b
000000b0: 8a84 b53c 2b5f fdbc 084d 1b3d 85d6 86bc
000000c0: acf4 db3c 3ee8 8cbd df0f 99bd 778b 85bd
000000d0: cfdf 22bc 93ae 883d f06a 463c ebc9 9ebc
000000e0: c148 47bd 45c9 853d 12c8 4f3d 70ef 2ebd
000000f0: 8f86 97bc 6417 433d ce89 26bd 4c0a 33bb
00000100: 392f 31bd 8f88 05bd 8f87 9bbd c097 463d
00000110: eb54 c0bd dfd2 b1bd 2c24 713d dd23 a8bb
00000120: 49af 4a3d 218a 8cbd 42dc 86bd 03a7 3ebd
00000130: 3669 a6bd 7d22 8cbd 2322 38bd 34e9 c8bd
00000140: 6de4 afbc 7485 5d3d a4cf 02bd fe57 59bd
00000150: 23b2 ddbc 1f3e 95bc c387 a33d 1ec1 d2bb
00000160: fe69 953b 2dbd 18bd 9185 0cbd 1e1d 14bd
00000170: 1992 a13d f8f5 a8bd 806c 383c 5c0d bbbd
00000180: a092 4cbc 17e3 803c 90f0 173d 3659 d03c
00000190: 02af 16bd 154c 7e3d 5465 833d 76f8 153d
000001a0: 7b0d 0d3d ca86 e7bc a6a5 773d 0d4c 97bd
000001b0: 92be 00bd f6e1 81bc 1855 fdbb fd1d aabd
000001c0: 10ca 9ebb c05b 443c 67ed 5dbd 956e 41bd
000001d0: d9a0 883d 0013 1d3b d121 98bd d034 a23d
000001e0: ab74 743d cf8a 1bbd 5c28 4cbd ed3c e7b8
000001f0: 90d7 2abd 5387 babd 05a7 a33a 4e75 71bb
00000200: b3b4 2240 898d a5bf e2d0 9e3f bd9e 873f
00000210: 54a8 d33e e8e1 7ebf 1bea 9b3f d28e 8040
00000220: 32f5 253f bcf8 f9be aeca 9fc0 aec5 c5bf
00000230: 4596 37bd a13d 61c0 a459 db3f d67c a93e
00000240: 6ef5 16bf 7ac0 6c3f 16ee 873f 9d95 26c0
00000250: a24f 1c3f fa77 b13c a3cf 853f cfa7 7dc0
00000260: 42c0 743d 51a6 b7bf 2b86 a03f e7f7 e63f
00000270: a8f1 a03c b0ab 173f fe20 0cbf 9d1a 97be
00000280: e375 423f 1f33 6cbe b116 933d 026b 6bc0
00000290: 3928 36c0 5ef7 62bf a728 b8be 8a56 53bd
000002a0: 5e1b 793f 2614 ba3e 9f16 443f 6bfe 113d
000002b0: d97d 3ec0 37eb 603f 42f4 8f3f ecd9 75bf
000002c0: 5bb9 1f40 8f50 cc3f 88e5 56bf 66a1 7f40
000002d0: 9293 ed3e 3d5e 9abf c0c6 b7ba 8adc c23f
000002e0: fe97 93c0 8ea5 d33f 8ac2 c8bd d7dd 60bd
000002f0: 68dd a13f a729 7440 f751 513f 5a58 ff3e
00000300: ec57 c5bf aa01 73be a1fd 07be 5086 093f
00000310: ea53 ba3f b6f0 78c0 fa34 463f 9f0c 3a40
00000320: 4567 dabf ffd3 d3be 31b0 a4c0 70e0 33bf
00000330: 2373 883d 8ed0 7a3e b525 1ebe 9408 943f
00000340: 4869 b33f 53ad 9bbf 5214 7d3e edc0 943f
00000350: 7482 1040 daaf 753f 10b7 483c a737 0fbf
00000360: 7ffd 923f 5034 b7bf 4911 3c3f e2cf e93f
00000370: 49eb 1740 7b61 813f 7f33 e43f 49d9 16bf
00000380: 18db 64c0 f912 8440 3664 0e3f bf56 a53d
00000390: 8960 313f 6d81 1b3f 3b2f 5840 e18f 463f
000003a0: 07dc 0ebf cd65 8abe ac75 34be 96f6 1340
000003b0: 9493 0f3f 42e1 883f 4a4a 22c0 d15b e7bd
000003c0: b02c 9bc0 34e4 07be 1435 8bbf c41e 463f
000003d0: 5083 ee3b be5c 86c0 074e 63c0 1a39 90c0
000003e0: a093 84bd ca6b ae3f 3cb4 883f b891 673f
000003f0: ffb7 78bd 8412 bcbe 16d2 5ac0 4224 0640
-0.06239861 0.059934754 0.0373187 0.0641449 -0.014049221 0.025179507 9.3127645e-05 -0.021128297
-0.08015242 -0.07007928 0.07265537 0.035739303 0.01749774 -0.050797068 -0.08796695 0.022724953
-0.095916204 -0.0066371383 -0.05647867 -0.0025171712 -0.08338139 0.047512848 0.010283972 -0.04352978
-0.07949884 -0.06260185 -0.04084579 0.07258289 0.034771517 -0.0056849546 -0.10953792 -0.027431833
-0.047547042 0.020493632 -0.032401443 -0.010357335 -0.020778429 -0.09063883 0.005570208 -0.009365484
-0.10653823 -0.029495712 0.05705357 0.005205217 0.022157926 -0.030929169 0.03791526 -0.016459713
0.026850067 -0.06880234 -0.0747373 -0.065207414 -0.009941055 0.066739224 0.012110457 -0.019383391
-0.048653368 0.0653253 0.05072791 -0.042708814 -0.01849678 0.04762973 -0.040658765 -0.002731937
-0.043257926 -0.032600936 -0.07594215 0.048484564 -0.09391197 -0.086827986 0.058872387 -0.0051312284
0.04948357 -0.068622835 -0.065849796 -0.046545994 -0.08125536 -0.068425156 -0.04495443 -0.09810105
-0.021471227 0.05408235 -0.031936303 -0.05306243 -0.027062481 -0.018218098 0.07984879 -0.006431713
0.0045597544 -0.037289787 -0.034307066 -0.03616058 0.07889194 -0.0825004 0.011256337 -0.091334075
-0.01248613 0.015733285 0.037094653 0.025433164 -0.036787994 0.062084276 0.06415811 0.036613904
0.034436684 -0.028262515 0.06046071 -0.073875524 -0.031431742 -0.015854817 -0.007731091 -0.08306501
-0.004845865 0.0119847655 -0.054181483 -0.0472246 0.06671304 0.0023967624 -0.07428325 0.079202294
0.059681576 -0.037974175 -0.049843177 -0.00011026287 -0.041709483 -0.09107842 0.0012485689 -0.00368436
2.542279 -1.2933818 1.2407496 1.0595318 0.41339362 -0.99563456 1.2180818 4.017434
0.64827263 -0.48822582 -4.993491 -1.5450952 -0.044821043 -3.5193865 1.7136731 0.33103055
-0.58968246 0.92481196 1.0619533 -2.6028817 0.6105901 0.021663655 1.0453991 -3.9633672
0.059753664 -1.4347631 1.2540945 1.8044404 0.01964648 0.5924635 -0.5473784 -0.29512492
0.7596113 -0.23066376 0.071820624 -3.6784062 -2.846205 -0.886587 -0.35968515 -0.051596202
0.97307384 0.36343497 0.7659702 0.035643023 -2.9764311 0.8785891 1.1246417 -0.9603565
2.4956882 1.5962085 -0.83943987 3.994226 0.4640165 -1.2060009 -0.0014021024 1.5223553
-4.6123037 1.6534898 -0.098027304 -0.054899063 1.2645693 3.8150423 0.81765693 0.49872094
-1.5417457 -0.23731104 -0.13280345 0.5372057 1.4556859 -3.8896918 0.77424586 2.9070203
-1.7062765 -0.41372678 -5.1465077 -0.7026434 0.066625856 0.2449362 -0.15444072 1.1565118
1.4016504 -1.2162269 0.24714783 1.1621376 2.2579622 0.95971453 0.012250677 -0.55944294
1.1483611 -1.431284 0.73463875 1.8266566 2.3737357 1.0107874 1.7828215 -0.589253
-3.5758724 4.127316 0.5562166 0.08073186 0.69287926 0.60744363 3.3778827 0.7756329
-0.55804485 -0.27030793 -0.17623013 2.3119254 0.5608456 1.0693743 -2.5357842 -0.112968095
-4.849205 -0.13270646 -1.0875573 0.77390695 0.0072788373 -4.198821 -3.5516374 -4.5069704
-0.0647347 1.3626645 1.0680003 0.90456724 -0.060722347 -0.36732876 -3.4190726 2.095963

bias f4 [128]
00000000: 8eb8 453b 80a2 0741 6d7f d140 b0a3 2a40
00000010: 3086 0541 eafc 353d fa81 4a41 a60e bcbb
00000020: 1463 e2c0 2ab8 073d 23c3 a040 92eb 713d
00000030: 0537 c2c0 42cd d8c0 9591 1841 2684 0440
00000040: e3d1 1f40 1094 3641 8ee0 1541 434e dbbd
00000050: ec17 5741 13ba 84bd 373e ed3a a097 a0bd
00000060: 8f84 6841 9da2 b4c0 55c6 6cc0 fe79 fac0
00000070: 5b59 e0c0 e246 903c 96b5 1441 b86d 1541
00000080: 7cd0 04be 5a70 86bd b30f 1041 3559 9dc0
00000090: ea4e 2d3d 79a1 c4c0 6ea6 7abd d30f 0d41
000000a0: aec9 cac0 a940 0341 569c 6041 bfe6 0c41
000000b0: 1b72 b7c0 6303 97bd 0b15 b9bd df16 cd40
000000c0: b331 e8c0 a0dd c4c0 64a1 e2c0 b48f d1c0
000000d0: 2133 ebc0 5c4c 0b41 c76c 0d41 c092 ccc0
000000e0: 9e3c 0541 86ef 4f3d ef46 d6c0 37b1 213f
000000f0: a1ec 80bd 8035 0a41 56fd f13c cb0f f840
00000100: e6ce 7c3d a226 1541 e69e 8840 275f 0d41
00000110: 560b a4c0 b4cc 0a41 4c7b 1ac1 6f49 af3c
00000120: 6200 4d41 cc58 803d 4ce9 14bd c65a 0841
00000130: 00e4 0441 c45e 9ebd a857 0e41 319c 0e41
00000140: 039e 0841 e9d5 8c3d 4472 433d 3b59 02be
00000150: df89 5441 5467 0441 0df0 ff40 9fdf 4a40
00000160: b640 0b41 3662 0a41 2048 1a3c ddd8 a9c0
00000170: 9562 08c1 7013 583d edac 4641 81f9 c03c
00000180: c19d 0c41 f61d 193d 6054 3941 801a b6c0
00000190: 0cd0 29bc 11c6 29bf f353 0c41 379b 0241
000001a0: 2b00 cfc0 cc9d 76bd af07 cebd 14d1 e2c0
000001b0: 9340 1641 799e c2c0 50b7 1b41 663b 5041
000001c0: 5cb0 2b3e 28a8 0041 d329 86bd b0cd 69bd
000001d0: 578f 02bd 599e e3bf 7730 0941 2b00 0ec1
000001e0: a1e6 0641 a873 023d 22c1 0f41 41f7 dbbc
000001f0: ce2c 0d41 3982 98c0 3a6d ff40 4dd8 d240
0.0030169818 8.477173 6.546805 2.6662407 8.345261 0.04443065 12.656733 -0.005739051
-7.0745945 0.033134617 5.0238204 0.059062548 -6.0692163 -6.775056 9.5355425 2.0705657
2.4971855 11.411148 9.367323 -0.107082866 13.44334 -0.06480803 0.0018100207 -0.0784142
14.532363 -5.6448503 -3.6996052 -7.8273916 -7.0109076 0.017611925 9.2943325 9.339287
-0.12970155 -0.06564398 9.003833 -4.9171395 0.042311586 -6.144711 -0.061193876 8.816363
-6.337119 8.203286 14.038168 8.8063345 -5.732679 -0.07373693 -0.09037217 6.409042
-7.256067 -6.152054 -7.082201 -6.548792 -7.3499913 8.706142 8.839057 -6.392914
8.327299 0.050765537 -6.696159 0.63161033 -0.062951334 8.638062 0.029539745 7.751928
0.06172075 9.321932 4.269397 8.835731 -5.126384 8.674976 -9.655102 0.02139732
12.812593 0.06266937 -0.0363553 8.5221615 8.305664 -0.07732919 8.8964 8.913133
8.538577 0.068767376 0.047716394 -0.12729351 13.28366 8.275227 7.998053 3.1698987
8.703299 8.648977 0.00941661 -5.3077226 -8.524068 0.052752912 12.417218 0.023556473
8.788514 0.03738209 11.583099 -5.690735 -0.010364544 -0.6631785 8.770495 8.162894
-6.4687705 -0.06020908 -0.10060059 -7.088022 9.390765 -6.081845 9.732254 13.014502
0.16766495 8.041054 -0.06550946 -0.057080925 -0.03187498 -1.7782699 8.574332 -8.875041
8.431306 0.03184858 8.984652 -0.026851298 8.823439 -4.7658963 7.9820833 6.588904

weight f4 [1, 128]
00000000: b363 0abd b807 3a40 1d38 0e41 fdb0 5640
00000010: 3adf 4640 bbdb a9bd ff0a df3e 5db5 083d
00000020: 4f44 4b40 c001 37bc 4a8b ddc0 c8bc d0bc
00000030: 1947 99c0 e1f0 4fc0 d1a1 2c40 8bb7 3941
00000040: 9f0e 1c41 9f62 2a3f ef85 3640 e85c cfbc
00000050: 9115 153f ea95 8dbd c58a a4bd 8edc e7bc
00000060: ce9d 97c0 8f83 3dc0 a544 50c0 6967 83bf
00000070: b2db 51c0 222e ecbc 727d 3f40 193e e740
00000080: 148b 053d 182a 07bc 505b 6540 edf5 a4c0
00000090: 09b2 203b 0ccb 22c0 ec71 a2bd 5a1e 6240
000000a0: c6a6 57c0 5512 4240 fe9d 13c0 964d 5e40
000000b0: d3f7 49c0 e380 d73c 06a6 00bd bb6c 0e41
000000c0: dc30 54c0 fccb 51c0 00ef 49c0 6487 5cc0
000000d0: de84 19c0 0ab1 5e40 3c7c 5c40 08ce 43c0
000000e0: 1af0 5c40 edab 36bc 7940 55c0 dba2 3541
000000f0: d64d 6c3d d66d 4440 99f0 d2bc e70c 23c0
00000100: 14b8 fe3c 8a1d 3440 0c34 1641 889c 5c40
00000110: 93ec 4cc0 b764 5d40 c566 1abf 8c24 9bbc
00000120: 5ded 6f3f de19 9abc 2e55 043d 683c 4540
00000130: e330 5840 96d7 a33c acb3 3c40 2218 4940
00000140: 0fe1 0841 cfe3 95bc f98b 70bc 3038 edbc
00000150: 2bf7 b23f 4f7a 3940 55b2 5040 da8c 22c0
00000160: 822a 5e40 5ab9 4040 00c8 f63b 71e7 53c0
00000170: 683a 5cc0 dc16 923d f52c 4140 6376 313d
00000180: bbe7 5840 98f9 763c 0b9f bac0 440f 4bc0
00000190: a38b 223d 81d0 923e 86b0 3b40 e26f 3440
000001a0: 392f f7bf 7e42 d6bc 40e4 253c 2cc5 49c0
000001b0: 4609 2f40 684c 45c0 3f4b 26c0 c68e 933f
000001c0: 3a53 3ec0 df98 1941 6075 c2bb d5a5 543d
000001d0: 301e 37bd 917b 143d 2e4b 5b40 a522 4ec0
000001e0: 066a 6140 2761 86bc eb3f 3740 b62e 65bc
000001f0: b15d 5e40 083a 23c0 aa04 3d40 3c21 1941
-0.033786487 2.906721 8.8887 3.3545525 3.1073747 -0.082938634 0.43563077 0.033376087
3.1760442 -0.011169851 -6.923253 -0.025480643 -4.789929 -3.249077 2.6973765 11.60731
9.75357 0.66556734 2.8519247 -0.025312856 0.5823603 -0.069133595 -0.08034281 -0.02830341
-4.7380133 -2.9611547 -3.2541897 -1.0265933 -3.2790341 -0.028830592 2.9920316 7.2263303
0.03260334 -0.008249782 3.5836983 -5.15502 0.002452018 -2.543643 -0.07931885 3.5331025
-3.369554 3.032369 -2.306518 3.4734855 -3.155751 0.026306575 -0.031408332 8.901546
-3.3154821 -3.2780752 -3.1552124 -3.4457636 -2.3987346 3.4795556 3.4450827 -3.0594501
3.4521546 -0.011149389 -3.33206 11.35226 0.057691418 3.0692039 -0.025749492 -2.5476625
0.031093635 2.814303 9.387707 3.447054 -3.2019393 3.4592721 -0.60313064 -0.018938325
0.9372156 -0.018811163 0.032307796 3.081812 3.3779838 0.02000026 2.9484663 3.142098
8.554946 -0.018297104 -0.01468181 -0.028957456 1.398168 2.8980901 3.2608845 -2.539847
3.4713445 3.011313 0.007531166 -3.311001 -3.4410648 0.07133266 3.018369 0.043325793
3.3891437 0.015074156 -5.8319144 -3.1728067 0.03968395 0.286747 2.9326491 2.8193288
-1.9311286 -0.026154753 0.01012522 -3.1526594 2.734941 -3.0827885 -2.5983427 1.1527946
-2.9738297 9.599822 -0.0059344023 0.051915962 -0.044706523 0.036250655 3.4264636 -3.2208645
3.5220962 -0.016403748 2.8632762 -0.013988188 3.4744685 -2.550417 2.9534097 9.570614

weight f4 [2, 128]
00000000: 742f 28bd f287 8a3f 65fe 4d3f 5b40 e33d
00000010: 49ce 973f 0664 293d 3fa6 1540 22c1 8cbc
00000020: 4b61 11c1 22b0 38bd 23c0 8740 e3b7 73bd
00000030: 1507 cdc0 27ec 7cbf c8b3 9b3f 8fd3 ecc0
00000040: 96e7 77c0 0220 a740 7385 a13f cb14 7cbc
00000050: 6d4f 6c40 49bc 0ebd 4f3b 643d ff7b 39bd
00000060: f0e9 ba40 a2ef f4be 8068 693e ecbe 42c0
00000070: 081f 85bf 654e 88bd cdce a13f 324c 1240
00000080: 1158 d73d d192 a73d 8678 bf3f 915f 98bf
00000090: 3f36 80bd 3a13 76c0 f91d 353d 893e ba3f
000000a0: 86fe 5fbf 2141 883f 28c4 5140 0c0f b13f
000000b0: e5eb 0fbf 1b79 55bd 689f 0dbd e184 3b3f
000000c0: 1b87 96bf 6119 6cbf 89d7 9dbf 22df 7dbf
000000d0: 74c6 fbbf 786f c13f d119 b73f 3b96 6abf
000000e0: d1b5 b13f 49ce bc3c 801a 8fbf a86f 0fc1
000000f0: 6e86 2e3b 76fe 983f fc9d aabd 7a58 1d40
00000100: 4d64 54bd 6f23 993f fe81 dfbf 93da b33f
00000110: 4c7c 6bbe fe17 b83f 5a89 3ec0 6e10 f73d
00000120: d418 ae40 46e6 abbc ac47 b3bc 95c1 973f
00000130: 5fb5 bc3f f515 95bd a159 963f 7236 a03f
00000140: e51d 1540 2a7d 863d 059e 213d 31cd 96bb
00000150: 1d78 8140 e5e7 8c3f ccb7 a23f 12a8 d73f
00000160: ea0d bb3f b5ae a43f 50f6 5b3c 781a ebbe
00000170: e130 debf fec0 863d f2dd c140 2c79 a7bc
00000180: dcde b53f 4c70 83bc 81f9 ba40 2c4b e6be
00000190: f0d7 80bd 30e9 98c0 06c2 993f c556 873f
000001a0: e8de 34c0 60d2 f53c e6ce a63c fd33 87bf
000001b0: 6745 973f 0cd9 47bf 0a07 2540 07d4 b340
000001c0: 7238 863f bf57 4540 af58 b93c 6aaa 09bd
000001d0: 862f 7fbd 832d 9ebe 57ec b93f 02bf dfbf
000001e0: 2861 b83f 1bf8 553d f500 a03f 04b4 843d
000001f0: d474 b93f 3174 0bc0 c7d7 813f cf16 993f
00000200: ebd1 95bc a641 93bf 2f68 33bf 7b44 6cbe
00000210: d72a 95bf 2756 963d f3bb 0fc0 5ee2 8c3d
00000220: 164e 1341 8ac5 b3bb bdbd 86c0 6a7f 17bd
00000230: d7a1 cd40 3121 533f 3ca4 9bbf cff9 eb40
00000240: 61df 7b40 182c a8c0 eb69 9fbf f2c7 613d
00000250: 3bbc 70c0 4602 4d3d 87eb 40bd ae74 463d
00000260: dcd5 b8c0 dc88 cb3e 82ff f5bd 1082 4140
00000270: b802 923f becc 99bd 278e a7bf 8438 11c0
00000280: a2aa 2e3c 0e0f 84bd 4e80 c1bf 377e 8f3f
00000290: ec57 d13a 6865 7240 2565 953c bd0c bebf
000002a0: c2e0 563f dbea 8cbf 0817 56c0 c224 b4bf
000002b0: 59d8 203f 37c4 a5bc 2414 023d 2972 2fbf
000002c0: b3d3 a23f ef85 5a3f 6f6f 893f dae1 603f
000002d0: 908c ef3f ec82 b2bf 0fec adbf ebd5 503f
000002e0: a3ac afbf c350 ad3c 3ea4 8e3f b62e 0e41
000002f0: 325e 6abd 2283 99bf 9402 0f3c 6c6b 1ac0
00000300: 84a8 c5bc 9745 9ebf 5617 cb3f eb20 b2bf
00000310: d8a1 283e 74e3 b1bf 0490 3e40 19e8 44bd
00000320: 2882 aec0 92cf 0b3d 42da 333d e7dc 98bf
00000330: ebcf b7bf 7597 833d e584 a2bf 6a03 a9bf
00000340: eba0 12c0 2c16 3f3d e11f 6b3b aef2 febc
00000350: 27a3 85c0 dd3d 89bf ec43 a2bf c659 dcbf
00000360: 5817 b4bf 9389 91bf d8d8 e33c 3c93 163f
00000370: d3ad cb3f 4164 a8bd 26ea c4c0 33be 15bd
00000380: f696 a9bf 323f 4f3d 7108 bfc0 3a0c b93e
00000390: fbb4 063c 8cb3 9940 1caf 97bf 4723 8bbf
000003a0: 485d 3840 3048 02bc 50f8 3fbd 2fe9 993f
000003b0: 07f6 9bbf 108c 363f 205c 25c0 2941 b3c0
000003c0: 4080 77bf 1ff5 44c0 e586 713d 7b41 353d
000003d0: 2899 3fbd 3f04 b93e 77d2 aebf 543b e93f
000003e0: ea6b b3bf 212b 28bc 6367 a2bf 4ef9 49bc
000003f0: d4c1 b2bf 7990 0340 613f 86bf 9eda 94bf
-0.04106088 1.0822737 0.804663 0.11096259 1.1859828 0.041355155 2.3382719 -0.017181937
-9.086253 -0.04508985 4.242204 -0.05950154 -6.4071145 -0.9879784 1.216424 -7.400825
-3.87351 5.222657 1.261885 -0.015385817 3.6923478 -0.03484753 0.055720624 -0.045284268
5.841057 -0.47839075 0.2279377 -3.042903 -1.0400095 -0.066555776 1.2641236 2.2859006
0.10514844 0.081823 1.4958656 -1.1904165 -0.062603466 -3.8449235 0.044218037 1.4550334
-0.87497747 1.0644876 3.2775974 1.3832717 -0.5621932 -0.05211745 -0.03457585 0.7324963
-1.1759981 -0.92226225 -1.2331401 -0.991686 -1.9669938 1.5112143 1.4304754 -0.91635484
1.3883611 0.023047583 -1.1179962 -8.96476 0.002663042 1.1952655 -0.083309144 2.4585252
-0.051853467 1.1963938 -1.7461545 1.4051079 -0.22996634 1.4382322 -2.9771333 0.120636806
5.440531 -0.020983826 -0.021884762 1.1855952 1.474285 -0.072795786 1.1746103 1.2516615
2.3299496 0.06566842 0.03945734 -0.0046020974 4.0459123 1.1008269 1.271234 1.6848166
1.4613621 1.2865816 0.013425425 -0.45918632 -1.7358667 0.06579779 6.058343 -0.020443521
1.4208636 -0.016044758 5.842957 -0.44979227 -0.06291187 -4.7784653 1.2012336 1.0573355
-2.826105 0.030007541 0.020362329 -1.056274 1.1818055 -0.7806556 2.5785546 5.6196322
1.0485976 3.0834806 0.022625295 -0.033609785 -0.06230118 -0.30894098 1.452525 -1.7480166
1.440465 0.052238565 1.2500292 0.06479648 1.4488778 -2.1789668 1.0143975 1.1960086
-0.018288573 -1.1504409 -0.70080847 -0.23072998 -1.1653699 0.07340651 -2.2458465 0.068791136
9.206564 -0.005486195 -4.2106614 -0.036986746 6.426006 0.8247252 -1.2159495 7.374244
3.935509 -5.2553825 -1.2454199 0.055122323 -3.7614887 0.050050996 -0.047099616 0.04845112
-5.776106 0.39752853 -0.12011625 3.0235634 1.140708 -0.075097546 -1.3090256 -2.2690744
0.010660799 -0.06448184 -1.511728 1.1210393 0.0015971637 3.7874393 0.018236706 -1.4847637
0.83936703 -1.1009172 -3.3451557 -1.4073718 0.6283012 -0.020235164 0.03175749 -0.6853357
1.2720855 0.85360616 1.0737132 0.8784462 1.8714771 -1.3946204 -1.3587664 0.8157641
-1.372456 0.021156674 1.1143873 8.886404 -0.057218738 -1.1993144 0.008728642 -2.4128065
-0.024128206 -1.2364987 1.5866497 -1.3916296 0.16467988 -1.3897538 2.97754 -0.048072908
-5.453388 0.0341335 0.04390932 -1.1942414 -1.4360327 0.064253725 -1.2696806 -1.3204167
-2.2910717 0.046652004 0.0035877156 -0.031121578 -4.176166 -1.0722004 -1.2676978 -1.7214897
-1.4069624 -1.1370109 0.02781336 0.5881841 1.5912422 -0.08222247 -6.1535826 -0.03655834
-1.3249195 0.050597377 -5.9697804 0.3614214 0.00822186 4.8031673 -1.1850314 -1.0870141
2.8806934 -0.007951781 -0.04686767 1.2024287 -1.2184457 0.7130747 -2.5837479 -5.601704
-0.9668007 -3.077461 0.058966536 0.0442519 -0.04677692 0.36136052 -1.3657979 1.822123
-1.4017308 -0.010264189 -1.2687801 -0.012327505 -1.3965402 2.055693 -1.0488092 -1.1629217

bias f4 [2]
00000000: d132 6941 c76e 67c1
14.574906 -14.464545

exp_avg f4 [128, 11]
00000000: caab 8f46 b881 3545 0400 0000 13a8 d9c3
00000010: 02aa b247 79b3 8449 ba68 8249 dc80 7d4b
00000020: c877 5f47 da26 004a fc3a f845 5cae 2cc6
00000030: 19a4 57c5 1c16 3dc4 ef2e 8c45 a020 8ec7
00000040: 0fa8 54c9 68ba 7849 3e64 f2cb 5c94 2cc7
00000050: 3c9b f348 5095 00c6 ca2d 0646 db51 0b45
00000060: 03b0 1644 cb22 a0c5 4cd4 5147 74cc 1e49
00000070: 9852 f9c8 0ec7 a24b e0e0 f546 b0df 94c7
00000080: befd 9f45 2e83 e945 eda6 f944 4ae6 0044
00000090: 4409 88c5 78f3 3847 7ca4 0b49 6a16 0ec9
000000a0: 4dea 904b fdef d846 c83f c8c7 b61e 9545
000000b0: 66b3 6644 38c4 1c43 5995 3e42 89b8 cbc3
000000c0: d2b6 8445 81be 3547 6b02 abc7 271e c649
000000d0: 3e07 1945 a8bc 3746 d3bd 0844 ce48 09c6
000000e0: a75b e8c4 37ec 05c4 f45f 7c45 2a8f 43c7
000000f0: ca40 1bc9 2f2e 67c9 4b18 82cb 869c d4c6
00000100: 54dc 9dc8 0416 b9c4 c0b2 ed45 610e ea44
00000110: 5652 fe43 1040 83c5 fc78 3147 7f75 0649
00000120: a49e 57c8 0991 884b 9ac4 d046 b017 32c7
00000130: 14ee 6e45 808d ca46 652c bd45 fede e644
00000140: 50cb 43c6 ef91 0c48 32b4 d949 5cb8 0c4a
00000150: 9983 584c ea1f a747 0028 a5c4 64f6 c345
00000160: 48e8 6245 12ba 3144 978a 5743 aa9f d9c4
00000170: 2ea7 9146 49e7 5848 a67c 02c7 9b87 d64a
00000180: 9258 2946 5001 4147 ee27 9f44 48be c0c4
00000190: ed5d a8c4 b553 8bc3 3e7a 9844 f6af a6c6
000001a0: fc70 8dc8 205a 1b49 c831 2fcb bb30 3cc6
000001b0: 975b dd48 2565 8ac5 4f90 92c6 f9e4 b8c5
000001c0: 5844 8c44 4c35 5946 fc0c 4dc8 aae6 1eca
000001d0: 3fe9 a04b 82f1 9ecc 937c e4c7 6aca 96c9
000001e0: 8cf8 2ac6 54a5 33c5 0901 6ec3 7f92 2fc3
000001f0: e60e 18b5 0c04 5ac5 c45c f1c6 b82d 6eca
00000200: 5f60 efc8 dff8 d6c4 de19 29c6 e291 0940
00000210: 0000 0000 0000 0000 0000 0000 0000 0000
00000220: 0000 0000 0000 0000 0000 0000 0000 0000
00000230: 0000 0000 0000 0000 0000 0000 2803 9cc6
00000240: cbc1 b9c5 1c8d afc4 9ad9 ca45 f2a2 ecc7
00000250: ca6d b3c9 db06 80c9 eeec 4bcc 94c7 91c7
00000260: 342d 5749 c011 0fc6 7c25 3246 abd9 2345
00000270: 2db6 3e44 61ce cdc5 d85f 8147 2893 4449
00000280: c6ca ccc7 5156 c14b 20b8 1647 00f6 4347
00000290: 39cb 9a45 ad70 8645 fc12 1c44 8ce6 3f43
000002a0: c7bd c144 6617 2146 64ff d847 ffa6 be47
000002b0: d2e5 df4a 955f d845 9bb4 a6c8 7a63 5245
000002c0: d216 cdc4 1533 08c3 6535 cac2 252c 89bb
000002d0: 4ccb f8c4 4aad 89c6 d6fa 07ca fb2c 88c8
000002e0: e977 75c4 f0e5 c0c5 e58a a53f b107 b045
000002f0: 8bf5 8d44 eda5 ad43 e762 34c5 b31a e846
00000300: 8603 af48 df14 7747 2629 2a4b 7ab9 8646
00000310: 7065 9947 ae75 f644 f0c4 c645 ad95 ab44
00000320: acc6 cb43 d1d4 50c5 a464 0847 d855 ce48
00000330: 7e50 cac6 3f25 4c4b a4fe 9e46 a006 4747
00000340: 0d34 2145 58a2 8bc6 f478 85c5 0098 3b41
00000350: c237 4d46 cf4b 18c8 c731 e2c9 7cb4 4e4b
00000360: 167c 3bcc 7a79 a2c7 53b2 9dc9 12b3 1fc6
00000370: 5aed 5145 9e14 3044 0c37 4e43 865e c7c4
00000380: 6c74 8a46 2220 4f48 89db b546 9ee5 d04a
00000390: 424f 2246 00f5 a446 7a38 9b44 0400 0000
000003a0: 0400 0000 0400 0000 0400 0000 0400 0000
000003b0: 0400 0000 0400 0000 0400 0000 0400 0000
000003c0: 0000 0000 0400 0000 b06d f445 7e0f 0445
000003d0: 7948 0a44 0131 8ec5 3834 4247 c391 1249
000003e0: 02df 06c9 2b33 994b 05a6 e446 a88f efc7
000003f0: 6b1c 9e45 0400 0000 0400 0000 0400 0000
18389.895 2904.1074 6e-45 -435.31308 91476.016 1.0870871e+06 1.0683112e+06 1.6613596e+07
57207.78 2.0996385e+06 7943.373 -11051.59 -3450.256 -756.34546 4485.8667 -72769.25
-871040.94 1.0187905e+06 -3.1770748e+07 -44180.36 498905.88 -8229.328 8587.447 2229.116
602.7502 -5124.349 53716.297 650439.25 -510612.75 2.133558e+07 31472.438 -76223.375
5119.718 7472.3975 1997.2164 515.59827 -4353.158 47347.47 571975.75 -581990.6
1.899433e+07 27767.994 -102527.56 4771.839 922.8031 156.76648 47.645847 -407.44168
4246.8525 46526.504 -87556.836 1.6229809e+06 2448.4526 11759.164 546.966 -8786.201
-1858.8641 -535.69086 4037.997 -50063.164 -635916.6 -946914.94 -1.7051798e+07 -27214.262
-323298.62 -1480.688 7606.3438 1872.4493 508.64325 -4200.008 45432.984 550743.94
-220794.56 1.790005e+07 26722.3 -45591.688 3822.88 25926.75 6053.5493 1846.9685
-12530.828 143943.73 1.7834302e+06 2.305559e+06 5.675786e+07 85567.83 -1321.25 6270.799
3630.5176 710.90735 215.54137 -1740.9895 18643.59 222109.14 -33404.65 7.0297095e+06
10838.143 49409.312 1273.2478 -1541.9463 -1346.9352 -278.65396 1219.8201 -21335.98
-289671.88 636322.0 -1.1481544e+07 -12044.183 453340.72 -4428.643 -18760.154 -5916.6216
1122.1357 13901.324 -209971.94 -2.6034345e+06 2.1090942e+07 -8.333211e+07 -116985.15 -1.2352772e+06
-10942.137 -2874.333 -238.00404 -175.57225 -5.664609e-07 -3488.253 -30894.383 -3.902318e+06
-490242.97 -1719.7772 -10822.467 2.149529 0.0 0.0 0.0 0.0
0.0 0.0 0.0 0.0 0.0 0.0 0.0 -19969.578
-5944.224 -1404.4097 6491.2 -121157.89 -1.4698812e+06 -1.0487954e+06 -5.345785e+07 -74639.16
881363.25 -9156.4375 11401.371 2621.6042 762.8465 -6585.7974 66239.69 805170.5
-104853.55 2.534109e+07 38584.125 50166.0 4953.403 4302.0845 624.29663 191.90057
1549.9305 10309.85 111102.78 97613.99 7.336681e+06 6923.9478 -341412.84 3366.2173
-1640.7131 -136.19954 -101.10429 -0.0041861706 -1990.353 -17622.645 -2.2278935e+06 -278887.84
-981.8736 -6172.742 1.2933012 5632.9614 1135.6732 347.2963 -2886.1814 29709.35
358428.2 63252.87 1.1151654e+07 17244.738 78538.875 1971.6775 6360.617 1372.6774
407.55212 -3341.301 34916.64 422574.75 -25896.246 1.3378879e+07 20351.32 50950.625
2579.2532 -17873.172 -4271.119 11.724609 13133.939 -155951.23 -1.8529849e+06 1.354662e+07
-4.914799e+07 -83186.95 -1.2918504e+06 -10220.768 3358.8345 704.32214 206.21503 -1594.9539
17722.21 212096.53 23277.768 6.845135e+06 10387.814 21114.5 1241.7649 6e-45
6e-45 6e-45 6e-45 6e-45 6e-45 6e-45 6e-45 6e-45
0.0 6e-45 7821.711 2112.9683 553.1324 -4550.1255 49716.22 600348.2
-552432.1 2.0080214e+07 29267.01 -122655.31 5059.5522 6e-45 6e-45 6e-45

exp_avg_sq f4 [128, 11]
00000000: 79d1 a74e 3b70 374c 0355 1946 5f0a a84b
00000010: 914b 7b51 c6fc 1355 0166 0a55 30b9 dd58
00000020: 5f56 a450 fd43 ef55 2310 b24e f4db f34f
00000030: 61f5 a74e d7cc c84e ee76 824f c350 9e52
00000040: 8cc7 3756 2c91 2858 e9ee dc5a 6381 ea51
00000050: 6069 9956 a037 4050 d8fa 404f c94b ed4d
00000060: e64b dc4d 8d64 994e 7903 3452 780b cf55
00000070: 2065 ae57 3f01 7a5a abf7 8751 59af 2d56
00000080: 5559 b74f 14e9 1d4f 6cb0 c44d 187d be4d
00000090: 7e38 844e 4876 0c52 eaac a155 778a 8557
000000a0: 1599 425a 3c41 5351 d9ce 0756 3eda 914f
000000b0: 7bf7 8e4b 8895 214a 145e f549 9b90 fb4a
000000c0: d033 8d4e a79c 2152 b4d1 c853 0284 c456
000000d0: f92b d14d 8d5f 8852 3a38 0d4c 5b75 c64e
000000e0: d37d 6d4d d076 3f4d 9a8a 014e 018e dd51
000000f0: a1ad 7e55 de4a 8f57 9bd2 1d5a c15a 2e51
00000100: 4b32 ce55 da43 564f 6826 074f c120 a64d
00000110: bda0 9c4d 4395 594e bc4e f951 2973 8f55
00000120: 8276 8157 39f0 2c5a 3a08 3d51 8352 f055
00000130: 22b4 7d4f 833b 9a50 e7b2 3d4f 08cf 2d4f
00000140: f513 e54f 5229 9953 6170 3057 362e 5059
00000150: 5890 d95b b387 ee52 e47c 9157 4986 1851
00000160: fd85 984d 7698 304c f230 0a4c 9558 d14c
00000170: 1f48 a250 8a1b 3a54 e08e 2256 57d9 e258
00000180: 9f78 f84f ada1 9b54 46ed 1a4e 59d8 a34e
00000190: 18ae 834d b0fe ae4d 7b62 644e e49d 1c51
000001a0: 1e23 b754 bf1c ce56 4d57 6759 b632 6750
000001b0: 8d15 0855 823f fd4e 51b2 d150 cf30 504f
000001c0: f89a b54d b081 154f f386 3654 db59 ce57
000001d0: 736e d358 9b75 785c cefa 8d53 c892 3158
000001e0: 7fc4 a451 a5c9 1a4c 04f2 834a 3ba0 204b
000001f0: 3c0e a84b 45b4 374c b57f 9a4f 0ff5 0857
00000200: 756d 4953 9716 8b4b 3a92 974e d328 b94b
00000210: 0000 0000 0000 0000 0000 0000 0000 0000
00000220: 0000 0000 0000 0000 0000 0000 0000 0000
00000230: 0000 0000 0000 0000 0000 0000 82b3 a650
00000240: 36c6 674f 7d3a 8f4f ed79 3550 f845 5353
00000250: 1715 f656 d93c 1559 40a0 965b 461d a052
00000260: 44f4 4957 3ac0 0251 21ed 814f 0de1 194e
00000270: b0a5 014e 9124 b84e b2ce 8452 8684 1856
00000280: 209d 0b58 8684 b85a 34dc ca51 f87b 7f56
00000290: ce78 0150 226f 614e c06e 6d4d 3cc1 bf4d
000002a0: dcb5 3f4e 2015 ab4f faa0 5d53 c362 c756
000002b0: 152e 8658 7333 e84e 8959 ec53 dfad 414e
000002c0: 51a4 034c 1810 554a 5735 2c4b 1bec 9c4b
000002d0: f515 ea4b a344 a24f 4015 af56 9c2e 7c55
000002e0: 5f23 4b4b c535 1f4f 57d3 d54a 0449 3f4e
000002f0: ae0f da4c 21ad a34c a728 774d 0db5 5151
00000300: 1f76 f054 f83b df56 770e 9259 01e9 a050
00000310: 743b 4955 f877 c64e 8ff2 8b4e 1a86 224d
00000320: a8ef 014d 3b05 c04d 9a41 9351 ebfb 2855
00000330: 0633 1a57 5eeb cc59 2c1f e150 5d82 8d55
00000340: 71db 0d4f f262 1e50 7a11 964e 6c7a 574b
00000350: f2cc 084e cd01 9153 93be 2357 e35e 0058
00000360: 6290 c65b e118 e152 9a80 8e57 7cfd ff50
00000370: eee2 924d 3efb 2d4c 7909 134c 51c8 d94c
00000380: 0879 9450 8c74 2a54 da8b 1e56 fe3d d058
00000390: cd2e e34f 233b 8e54 e875 114e f401 0000
000003a0: f401 0000 f401 0000 f401 0000 f401 0000
000003b0: f401 0000 f401 0000 f401 0000 f401 0000
000003c0: 0000 0000 f401 0000 d477 2f4f c77c db4d
000003d0: f081 d64d f777 944e 047e 1a52 36f3 b155
000003e0: 9532 9557 f93d 565a 9139 6851 4258 1556
000003f0: 4e64 a14f 85d7 a32c 4120 cb2b 1587 462d
1.4077615e+09 4.8087276e+07 9813.253 2.2025406e+07 6.7456537e+10 1.0169616e+13 9.510669e+12 1.9502996e+15
2.205699e+10 3.288441e+13 1.493701e+09 8.1825567e+09 1.4089381e+09 1.6844338e+09 4.3776645e+09 3.399799e+11
5.051692e+13 7.4136585e+14 3.109359e+16 1.2589914e+11 8.433893e+13 1.2899484e+10 3.2376648e+09 4.9764586e+08
4.619952e+08 1.2867519e+09 1.932881e+11 2.845602e+13 3.834987e+14 1.7592529e+16 7.299697e+10 4.7742156e+13
6.15217e+09 2.649298e+09 4.1248704e+08 3.9948365e+08 1.1091474e+09 1.5081996e+11 2.2220504e+13 2.936595e+14
1.3693615e+16 5.6708284e+10 3.733062e+13 4.893998e+09 1.8738934e+07 2.647394e+06 2.0100505e+06 8.2432775e+06
1.1844915e+09 1.7352948e+11 1.7250234e+12 1.0803562e+14 4.38665e+08 2.928593e+11 3.701988e+07 1.6647899e+09
2.4902789e+08 2.0076467e+08 5.4333606e+08 1.18946275e+11 1.7501355e+13 3.1510343e+14 1.1105784e+16 4.680293e+10
2.8339425e+13 3.594771e+09 2.2674412e+09 3.4839555e+08 3.2847248e+08 9.126095e+08 1.33845975e+11 1.9715596e+13
2.8469197e+14 1.2169456e+16 5.0742927e+10 3.3029647e+13 4.2564408e+09 2.0700731e+10 3.1826184e+09 2.9160264e+09
7.6865807e+09 1.3156465e+12 1.9399671e+14 3.6623503e+15 1.22477555e+17 5.1223944e+11 3.1993117e+14 4.0942998e+10
3.1986474e+08 4.6293464e+07 3.622599e+07 1.0975761e+08 2.1781084e+10 3.1973038e+12 4.468363e+13 1.9953848e+15
8.337309e+09 5.347459e+12 6.498103e+08 1.3744324e+09 2.761531e+08 3.6699085e+08 9.579148e+08 4.204149e+10
6.2925455e+12 1.1331143e+14 4.0697942e+15 1.5515441e+10 9.351634e+12 2.1243988e+09 2.8144994e+10 3.4928596e+09
3.80854e+08 2.5083044e+09 3.1357925e+12 4.5377064e+14 1.8597706e+15 2.7974041e+17 1.2195964e+12 7.809759e+14
8.845891e+10 4.057666e+07 4.323586e+06 1.0526779e+07 2.2027384e+07 4.8156948e+07 5.1841213e+09 1.505861e+14
8.651248e+11 1.8230574e+07 1.2714714e+09 2.4269222e+07 0.0 0.0 0.0 0.0
0.0 0.0 0.0 0.0 0.0 0.0 0.0 2.2374257e+10
3.8885268e+09 4.80595e+09 1.2178666e+10 9.07412e+11 1.3528522e+14 2.6254171e+15 8.479489e+16 3.4384295e+11
2.2205095e+14 3.5098173e+10 4.3596027e+09 6.4541574e+08 5.4377984e+08 1.5447021e+09 2.8520173e+11 4.1923738e+13
6.1402785e+14 2.5968553e+16 1.0890972e+11 7.0226977e+13 8.688712e+09 9.455392e+08 2.4896614e+08 4.02139e+08
8.0409165e+08 5.740577e+09 9.518885e+11 1.096135e+14 1.1802598e+15 1.947843e+09 2.0302289e+12 8.123494e+08
3.4509124e+07 3.490822e+06 1.1285847e+07 2.0568118e+07 3.068209e+07 5.4448143e+09 9.62529e+13 1.732982e+13
1.3312863e+07 2.6711012e+09 7.0066355e+06 8.0230835e+08 1.143269e+08 8.581351e+07 2.5916478e+08 5.6292856e+10
8.262191e+12 1.2272433e+14 5.1389064e+15 2.1596998e+10 1.3828574e+13 1.6648755e+09 1.1739647e+09 1.704186e+08
1.3624794e+08 4.0269603e+08 7.90576e+10 1.1612496e+13 1.6954393e+14 7.2099605e+15 3.0215332e+10 1.944888e+13
2.3799688e+09 1.0629138e+10 1.2588639e+09 1.412158e+07 5.737832e+08 1.245601e+12 1.800389e+14 5.645801e+14
1.1178159e+17 4.8339252e+11 3.1336598e+14 3.435842e+10 3.080432e+08 4.5608184e+07 3.8544868e+07 1.14180744e+08
1.992768e+10 2.928399e+12 4.3580874e+13 1.8317174e+15 7.6229903e+09 4.88702e+12 6.1010586e+08 7e-43
7e-43 7e-43 7e-43 7e-43 7e-43 7e-43 7e-43 7e-43
0.0 7e-43 2.9438659e+09 4.6029846e+08 4.4985498e+08 1.245445e+09 1.6588479e+11 2.4457268e+13
3.2808896e+14 1.5075946e+16 6.233739e+10 4.1051574e+13 5.4154107e+09 4.656666e-12 1.443297e-12 1.1284991e-11

exp_avg f4 [128]
00000000: 5ad0 b147 dfd7 86c7 ad2a 4047 e8f5 2947
00000010: e2f0 7245 d9e0 35c7 9e0d 2347 fe22 0248
00000020: 46bc 8546 a855 9fc6 1d61 3ec8 34fd 64c5
00000030: 0000 0000 8eb3 e2c7 c100 6c47 b94e 3c46
00000040: 62b7 02c5 ed44 d446 badd f946 6475 0bc8
00000050: de35 7f46 0400 0000 3c97 3247 0400 0000
00000060: 0000 0000 f0d8 85c7 0c4b 0e47 5e2f 5847
00000070: 0000 0000 c0ba 6146 72d0 16c7 e641 d6c6
00000080: 1563 f4c2 688b 5046 0000 0000 963b cdc7
00000090: 96ee aac7 a09d 94c6 e754 abc5 0400 0000
000000a0: a0c7 1c47 31f5 9045 4c8a 8246 ac4d ad46
000000b0: 5aab a8c7 0475 a846 ff34 de46 1108 52c7
000000c0: bc7e a747 dd5d 3347 0400 0000 10ae 0d48
000000d0: 289d dd45 34b7 66c7 0000 0000 5065 4347
000000e0: 4752 8cc8 e66d 5f47 85eb 3d46 0000 0000
000000f0: 16f8 3647 6e4b b947 b9a2 c046 6266 5e46
00000100: 13a9 87c7 9e15 f7c4 1a8d 26c1 e851 3e46
00000110: 8a98 4c47 0400 0000 86ee 9b46 143b ca47
00000120: 223e c9c7 ffa9 22c2 3016 2bc8 a70a d5c4
00000130: 0000 0000 2b74 7645 786d a1c6 fa01 1447
00000140: 4c5c 3347 a69a 75c7 94a1 3a45 fe04 1947
00000150: 44e4 6347 0537 df46 0000 0000 0443 f2c6
00000160: f2b7 1f47 0400 0000 a015 9a46 affc 4847
00000170: fafa 8947 ec87 1147 9462 8947 91e4 b1c4
00000180: 04b7 0dc8 d034 8548 dc31 2746 aa54 12c5
00000190: 3ea7 9646 50f8 a8c5 e7de db47 4146 9646
000001a0: c889 04c7 ff8a 53c6 e043 6d44 466e 8647
000001b0: 5125 4446 8600 db46 5aa5 c6c7 0221 63c6
000001c0: 25e4 32c8 0400 0000 6822 32c7 b847 9d46
000001d0: 0000 0000 b48f 14c8 9d5e 16c8 0400 0000
000001e0: a02a 6346 bc5c 2147 f7f8 eb46 9e5c 0747
000001f0: e1cf e946 3bc4 0ac5 954f d7c7 88ec 8547
91040.7 -69039.74 49194.676 43509.906 3887.0552 -46560.848 41741.617 133259.97
17118.137 -20394.828 -194948.45 -3663.8252 0.0 -116071.11 60416.754 12051.681
-2091.4614 27170.463 31982.863 -142805.56 16333.467 6e-45 45719.234 6e-45
0.0 -68529.875 36427.047 55343.367 0.0 14446.6875 -38608.445 -27424.95
-122.19352 13346.852 0.0 -105079.17 -87517.17 -19022.812 -5482.613 6e-45
40135.625 4638.649 16709.148 22182.836 -86358.7 21562.508 28442.498 -53768.066
85757.47 45917.863 6e-45 145080.25 7091.6445 -59063.203 0.0 50021.312
-287378.22 57197.9 12154.88 0.0 46840.086 94870.86 24657.361 14233.596
-69458.15 -1976.6755 -10.409449 12180.477 52376.54 6e-45 19959.262 103542.16
-103036.266 -40.66601 -175192.75 -1704.3329 0.0 3943.2605 -20662.734 37889.977
45916.297 -62874.65 2986.0986 39172.992 58340.266 28571.51 0.0 -31009.508
40887.945 6e-45 19722.812 51452.684 70645.95 37255.92 70341.16 -1423.1427
-145116.06 272806.5 10700.465 -2341.2915 19283.621 -5407.039 112573.805 19235.127
-33929.78 -13538.749 949.06055 68828.55 12553.329 28032.262 -101706.7 -14536.252
-183184.58 6e-45 -45602.406 20131.86 0.0 -152126.81 -153978.45 6e-45
14538.656 41308.734 30204.482 34652.617 29927.94 -2220.2644 -110239.164 68569.06

exp_avg_sq f4 [128]
00000000: 3d93 7b51 cf7f a552 509b 3a52 0ab8 1152
00000010: 2b39 924e 643f e551 9b47 0152 10cb 9e53
00000020: a0e0 a750 d226 2651 72fa 3854 4d01 9a4c
00000030: 0000 0000 f923 5d53 5c75 8952 9db0 d64f
00000040: 75a8 6e4c abd2 5851 d75d 9851 8f93 9253
00000050: c4c4 9950 f401 0000 5454 2052 1587 462d
00000060: 0000 0000 2eb3 a252 b4f1 c351 7548 6152
00000070: 0000 0000 4745 6a50 b0cd d851 02e7 1f51
00000080: 68a1 a44a 601c 794e 0000 0000 9ab1 0253
00000090: feb8 f152 8603 dc51 8c19 ee4d f8db 6809
000000a0: 742f f051 5efe d74e acca a450 704d 5f50
000000b0: 40b0 e852 0368 2251 1dc9 9f51 263d 4952
000000c0: 1e7e 0a53 f9de 4352 b839 2c4a 55d7 c053
000000d0: 8a72 674f 4f14 7952 0000 0000 29e3 3652
000000e0: 45f5 c853 1f75 4a52 e31b cd4d 0000 0000
000000f0: be42 2152 6004 cf52 d4a5 3351 ada8 6550
00000100: 40f4 9452 3f14 914d 9642 554a 5b1e 2650
00000110: d7a2 4e52 7e47 0546 8245 e650 90fe 4753
00000120: b32b 1253 8acd 734a 7f12 0654 42fd 474c
00000130: 0000 0000 cbc9 ba4e 839b d550 8656 d351
00000140: 33d3 1b52 d5ec 6052 fd36 6c4e 3a9e 0352
00000150: f174 dc52 2622 6d51 0000 0000 f822 8c51
00000160: d37c fa51 b04f 2148 3711 e250 4c1a 7552
00000170: cc42 ef52 65d7 ef51 5884 ba52 9a7a d34d
00000180: ea1d c953 67a3 8a53 0400 0050 7653 1c4e
00000190: 808b d850 3a53 b650 8d29 6a53 6fd0 d250
000001a0: ba3d 8f51 e10e 5550 6cd7 6250 065f d952
000001b0: d892 2b50 b510 6551 b75e 2953 06af ef50
000001c0: 4fe7 1454 f401 0000 2a67 0151 0241 f250
000001d0: 0000 0000 3d6a cf53 e650 d353 f401 0000
000001e0: 7b51 404e 0297 f851 0118 8551 7322 b851
000001f0: cdb7 0b50 33aa 1b4d 66ee 4353 b9ff a952
6.753169e+10 3.5540694e+11 2.003674e+11 1.5646448e+11 1.22661e+09 1.2307638e+11 1.3881303e+11 1.3640233e+12
2.2532129e+10 4.460099e+10 3.177903e+12 8.0743016e+07 0.0 9.497913e+11 2.9518974e+11 7.2037975e+09
6.2562772e+07 5.820296e+10 8.1801175e+10 1.2590817e+12 2.0638474e+10 7e-43 1.7215239e+11 1.1284991e-11
0.0 3.4939542e+11 1.0519672e+11 2.4189582e+11 0.0 1.5721635e+10 1.16395475e+11 4.2923467e+10
5.394612e+06 1.0448466e+09 0.0 5.613254e+11 5.190954e+11 1.1811899e+11 4.9933146e+08 2.8029413e-33
1.28948535e+11 1.8118858e+09 2.2117966e+10 1.4985576e+10 4.996947e+11 4.359561e+10 8.578424e+10 2.1607858e+11
5.948214e+11 2.1031487e+11 2.821742e+06 1.6564928e+12 3.8830433e+09 2.674469e+11 0.0 1.9637379e+11
1.7262168e+12 2.1738709e+11 4.301446e+08 0.0 1.7315237e+11 4.445658e+11 4.822383e+10 1.5412147e+10
3.198765e+11 3.042529e+08 3.4940535e+06 1.1148029e+10 2.2187382e+11 8529.873 3.090652e+10 8.5896934e+11
6.277984e+11 3.9944665e+06 2.3033437e+12 5.242599e+07 0.0 1.5668934e+09 2.866991e+10 1.13461215e+11
1.6731582e+11 2.4151151e+11 9.907567e+08 1.4132383e+11 4.7342738e+11 6.365501e+10 0.0 7.523526e+10
1.344795e+11 165182.75 3.0342232e+10 2.6317704e+11 5.1380892e+11 1.2876386e+11 4.0054214e+11 4.4350342e+08
1.7275806e+12 1.1908938e+12 8.589939e+09 6.5567885e+08 2.9064167e+10 2.4471261e+10 1.00571945e+12 2.8295002e+10
7.690199e+10 1.4298088e+10 1.5223075e+10 4.6680107e+11 1.151411e+10 6.148924e+10 7.274385e+11 3.21698e+10
2.5581435e+12 7e-43 3.473635e+10 3.2514773e+10 0.0 1.7816812e+12 1.8151907e+12 7e-43
8.0664134e+08 1.3346067e+11 7.145417e+10 9.885649e+10 9.376314e+09 1.6322642e+08 8.415183e+11 3.650699e+11
