explainability/stages/final_1/maintainance_agent/3/D3QN_q_eval.pth (torch, 228957 bytes, 21 tensors)

weight f4 [128, 11]
00000000: 1e62 a440 d57f cdbf c47f 8f3f 4f4f 67bf
00000010: 729d 79c0 06d1 093f dc97 213e 1277 8d3d
00000020: 8348 e140 b74f 44bf 559f 63bf f35e 0b41
00000030: 9795 1cbe 3366 7840 e387 7a40 eb80 e1c0
00000040: 9e46 bebe 60d7 d0bd 97ab 853e 05bf d040
00000050: d5a7 b6bf 05db ccbf b446 6b3f b81c 02c0
00000060: 21d7 4d3f 3130 27c0 c75c 86c0 43f8 cfbe
00000070: 7751 2bbf 0439 2b3e 8951 b940 9171 92bf
00000080: bf0e ebbf ea79 adc1 90f6 023f 263f bbbf
00000090: 145d 2140 8e38 8940 e31c 923e a0e9 f7be
000000a0: 9d35 d5bc ed48 00c1 93e5 aabd fd85 bac0
000000b0: 43f7 7dc1 4d89 6140 7869 b540 1a82 33c0
000000c0: 6374 d2bf 0cfa bf3e b229 f6bd 4d54 bfbc
000000d0: 44fc 7c40 c173 ca3f a34c 14bf e35b 1abe
000000e0: 5c5f 4740 8600 4d3d 6121 3d40 29b1 8840
000000f0: 76f8 133f 883a 3c3d 84d6 c33e 9c31 f5c0
00000100: db82 973f c6e5 573f 5a3e fd3f b8b7 9940
00000110: d1c7 5b40 b374 15c0 8c71 10bf 811d fd3f
00000120: 5f29 6cc0 3dab 113d b20d c73f 37b6 91c0
00000130: 2fb4 3740 0309 b63f f60c 5940 3fbb 2040
00000140: 20a3 a8bf b6e4 41bf ea16 cb3f e3bd 4dc0
00000150: 8972 133d 9942 8d3e d615 61c0 e16c 2740
00000160: b357 4841 60b2 ff3f 5d76 9740 c14c 5d40
00000170: ab10 ebc0 bb3d 713f ffc3 bebb c7df 6b3c
00000180: acc2 a341 8dcc 49bf 3e18 2cc0 a4b0 debe
00000190: 69a2 2840 f24a 2e3d 6f5c 2340 6979 8e40
000001a0: 8747 143f 55cd 50bd 3476 dc3e 61da dac0
000001b0: f2cf 5f3f 4794 33bf 62df c040 cc10 bbbf
000001c0: 2b5c 563f 8d59 3fbf 20f9 17c0 23e1 a73f
000001d0: 29e1 3bbc c677 5e3d 3e3d b440 13d8 0dc0
000001e0: 0e32 98c0 e390 58be 12c8 83bf ad5d 5dbe
000001f0: 6c04 a4bf 2309 7fc0 3ed7 1abe d15e 76bb
00000200: 620e c13d 4cde c040 dc19 0dbe c0e0 b9bf
00000210: 0a2d 8940 cfbc b8c0 c7ce 10c1 4a89 f2c0
00000220: 5cc3 a240 286e ae3f e18d 04bd a4ed e93d
00000230: 531d c9c0 4f18 cc3f 51d9 9ebf 6c9d 0ac1
00000240: 1d02 3dbe b7e0 c7bf d4a1 48bf 755c 79c0
00000250: 7d6e 363d 614d 693e 83c7 de3d a946 6a40
00000260: 4c2b bebf 1ad2 2541 9610 be3e d1fe 3640
00000270: f516 9cbe 6f42 0a40 0e13 9d40 93ce 503f
00000280: a821 463e a912 f33e 356c f6c0 7851 1a3f
00000290: e0b4 d53b be18 8c3f ba1e 0ec1 2d86 88c0
000002a0: db30 68c0 a9a3 9dbf ac19 27bf 8448 d73d
000002b0: e872 cb3d dc63 9341 3e0e 0140 1df6 8ac1
000002c0: 96b0 0641 ebc1 4840 b7f4 28bb 00ca d0bf
000002d0: 12b0 1e3f d915 7f3f c74a 86bb c0c2 3abc
000002e0: 1b1e 0241 ef0d 113f 0e31 45c0 1134 95c1
000002f0: bcf3 38c0 3162 d2c0 f6ca c3c0 bcb0 0abf
00000300: a3cb 4f3d 62fa 983d ffc5 3abd 64b5 a440
00000310: a3f2 563f 2710 263e 48f4 2cbe 94d2 2340
00000320: 5968 8bbd 9f15 3640 e525 9140 ed2b 0d3f
00000330: 22e6 fdbc 3ae7 9e3e cbe0 d9c0 59c8 953f
00000340: dbd9 14c0 d979 4abf 82c9 4140 5f55 b4bd
00000350: d882 3240 14dd 8740 b9bc 353f 6adc a43d
00000360: c879 003f a063 f4c0 00de 8d3f c094 aa3f
00000370: 9a05 c140 6bef a040 eb45 9f40 1184 3d40
00000380: ea61 d13f a622 fd3d f9f8 383d 367b d3be
00000390: 870a 2cc1 4a96 723f 2c16 94c1 3a92 74c1
000003a0: a7f7 1dc0 405b 04c1 2ed5 77c0 fee6 ddbe
000003b0: 408c f0bc e4ba 95bc 44e7 1cbc 03ac a340
000003c0: 5c01 bd3f aebf 4c3e e0db a63f 6303 1fc0
000003d0: 59aa a7bb 33c4 ebbf 4bf8 8bc0 7a76 a1be
000003e0: 29b3 02bf 0987 093e ab85 ae40 1fcd 72bf
000003f0: ee18 0cc0 1d85 853e fed6 ddbf b6f4 d93e
5.136977 -1.6054636 1.1210866 -0.9035539 -3.9002347 0.5383457 0.15780586 0.069074765
7.0401015 -0.76684135 -0.88914996 8.710681 -0.15291439 3.8812377 3.9145439 -7.046987
-0.37163252 -0.101973295 0.26107475 6.523318 -1.4269968 -1.600434 0.9190476 -2.0330029
0.80406386 -2.6123164 -4.1988254 -0.40619096 -0.6692118 0.16720968 5.791203 -1.1440908
-1.8363875 -21.684528 0.51157475 -1.4628646 2.521306 4.2881536 0.28537664 -0.4842043
-0.026026541 -8.017804 -0.08344569 -5.828856 -15.872867 3.5240052 5.6691246 -2.8048158
-1.6441768 0.37495458 -0.120196715 -0.023355627 3.952897 1.5816575 -0.5792944 -0.15074115
3.1151953 0.050049327 2.9551623 4.271626 0.57800996 0.045954257 0.382496 -7.662306
1.1836809 0.8433498 1.9784653 4.8036766 3.4340708 -2.3352478 -0.5642326 1.9774629
-3.690025 0.035563696 1.5551054 -4.553493 2.8703725 1.42215 3.391416 2.5114286
-1.3174782 -0.7573961 1.5866368 -3.2147148 0.0359979 0.27589872 -3.5169578 2.6160204
12.521411 1.9976311 4.7331986 3.4578097 -7.3457847 0.9423482 -0.0058217044 0.014396614
20.470055 -0.78827745 -2.6889796 -0.4349414 2.6349127 0.042551942 2.5525167 4.4523206
0.5792164 -0.05097707 0.43058932 -6.8391576 0.87426674 -0.7014813 6.0272684 -1.4614501
0.8373439 -0.7474602 -2.3745804 1.3115581 -0.011467257 0.054313444 5.632476 -2.2163131
-4.75611 -0.2114902 -1.0295432 -0.21617766 -1.281385 -3.9849327 -0.15121171 -0.0037593136
0.094265714 6.027136 -0.13779396 -1.4521713 4.286748 -5.773048 -9.050483 -7.579259
5.0863476 1.3627367 -0.03236187 0.114222795 -6.2848296 1.5944918 -1.241007 -8.663433
-0.18457837 -1.5615453 -0.7837193 -3.8962681 0.044538964 0.22783424 0.108778976 3.6605628
-1.4856963 10.363794 0.3712203 2.8593028 -0.30486265 2.1603048 4.908576 0.8156521
0.19348776 0.47475174 -7.700709 0.6028056 0.006521806 1.0945051 -8.882502 -4.266379
-3.627982 -1.231557 -0.6527355 0.10511878 0.09934026 18.42376 2.0164943 -17.370173
8.418112 3.1368358 -0.0025780627 -1.6311646 0.6198741 0.9964271 -0.0040982696 -0.011398971
8.13235 0.56661886 -3.081119 -18.650423 -2.8898764 -6.5744863 -6.1185255 -0.54175925
0.050731312 0.07469632 -0.04559898 5.1471424 0.83963984 0.16217099 -0.16890061 2.5597277
-0.06807012 2.8450696 4.535876 0.5514515 -0.030993525 0.31035787 -6.8086905 1.1701766
-2.3257968 -0.79092175 3.027924 -0.08805346 2.789236 4.245737 0.7099109 0.08049853
0.50185823 -7.6371613 1.1083374 1.3326645 6.031934 5.029226 4.977285 2.9611857
1.6358006 0.12360124 0.045159314 -0.4130494 -10.75257 0.9476057 -18.510826 -15.2857
-2.4682405 -8.272278 -3.8723865 -0.43340296 -0.029363751 -0.018277593 -0.009576622 5.1147475
1.476604 0.19994995 1.303585 -2.4845817 -0.0051167426 -1.841925 -4.374059 -0.31535703
-0.51054627 0.13430418 5.453817 -0.9484424 -2.1890216 0.2607812 -1.7331235 0.42569512

bias f4 [128]
00000000: f97f 82c0 9a20 96c0 3bde 88c0 e67c 4140
00000010: 449c a7bf 6a43 8640 2ee3 0040 b07e da3f
00000020: d26f 9cc0 9d76 9f40 6443 10c0 3371 87c0
00000030: c1d9 8940 0016 6ac0 75cf 9340 3d95 67c0
00000040: 6521 183f d344 cabf df82 9140 97f2 9e40
00000050: 4ee5 2440 c071 6bbf c43f 90c0 e2e1 8bc0
00000060: 2b92 88c0 0249 8a40 f3e1 aabf 485f ebbf
00000070: 9c3a 6ec0 6b4b 90c0 4601 8ec0 df28 9340
00000080: 01c2 8440 afce 28c0 05bb f13f 3d19 8740
00000090: 74e8 8ec0 0626 dbbf b9b8 19c0 fe7a 9040
000000a0: 9af1 8940 4d98 8940 760e 3d40 fb42 1dc0
000000b0: 03bd 92bf ee33 9040 9c67 d140 23ef 8d40
000000c0: 7b99 f33f e1d3 5c3f b840 8e40 b077 97be
000000d0: 5531 7540 9056 88c0 02b8 9940 c341 9540
000000e0: ff8c 92c0 c0f5 93c0 4844 9140 ff16 cfbf
000000f0: 39ae 8c40 0937 8640 9f49 9440 3125 8340
00000100: 8089 1ec0 e590 82c0 d644 8dc0 41fd bebf
00000110: 6c91 84c0 bd3c 9740 dcb2 fd3f 5d75 b9bf
00000120: 6b4a 69c0 05ae 03c0 fb52 18be 952c 9440
00000130: 10f2 88c0 6f48 9940 e75c 4a40 ca08 de40
00000140: efee 4940 2ec6 9c40 db48 9d40 14d6 7640
00000150: 559c ccbd 5586 6bbf 247b 8440 4c0f a9bf
00000160: 30c1 103e 357e 8940 cb6c 61c0 2bc9 7f40
00000170: f301 61c0 23a5 ea3f 8513 9940 7b53 2f40
00000180: e103 98c0 74d9 8940 e0e3 64c0 05fa 9cbf
00000190: 06fd 9540 8d9d 9440 894a 3940 1f44 9bc0
000001a0: 4beb 8940 72b3 8a40 6ece a540 f3fb 6540
000001b0: 1557 81c0 394e 933f cb15 a53f 13c3 89c0
000001c0: e99f 62bf 2c90 a8c0 7df1 5cbf b915 9040
000001d0: 2c96 2cc0 df8c e2bf 0754 9abe bc1a 0e3d
000001e0: 8c12 8440 ac72 34c0 334f e63f a1e2 8ec0
000001f0: 8355 9240 6ab4 9040 b7bd 27c0 2042 90c0
-4.0781217 -4.6914797 -4.2771277 3.0232482 -1.3094563 4.1957293 2.013866 1.7069912
-4.88865 4.983229 -2.2541132 -4.2325683 4.3078313 -3.6575928 4.6190743 -3.6184838
0.59425956 -1.5802253 4.5472255 4.967113 2.5764956 -0.91970444 -4.507784 -4.3713236
-4.267843 4.321412 -1.3350204 -1.8388453 -3.7223272 -4.5092063 -4.4376554 4.598739
4.148682 -2.637615 1.8885199 4.221831 -4.4658756 -1.7120979 -2.4018996 4.5150137
4.3107424 4.2998414 2.9540076 -2.4572132 -1.1463932 4.506339 6.5438976 4.4354415
1.9031214 0.862608 4.4454 -0.29583502 3.831136 -4.2605667 4.803712 4.6642776
-4.5797114 -4.623749 4.539585 -1.6178893 4.3962674 4.194218 4.633987 4.09829
-2.4771423 -4.0801873 -4.414653 -1.4921037 -4.1427517 4.7261643 1.9820209 -1.4488941
-3.645167 -2.0574963 -0.14875405 4.630442 -4.2795486 4.790092 3.1619203 6.938573
3.1552083 4.899192 4.9151435 3.8568163 -0.099907555 -0.9200185 4.140032 -1.3207793
0.14136195 4.296656 -3.5222652 3.9966533 -3.515744 1.8331646 4.7836328 2.7394702
-4.7504735 4.3077946 -3.5764084 -1.22638 4.6871367 4.6442323 2.8951743 -4.8520656
4.3099723 4.334405 5.181449 3.5935028 -4.04188 1.1508247 1.2897276 -4.305063
-0.88525254 -5.267599 -0.8630598 4.5026517 -2.6966658 -1.769924 -0.30142233 0.034693465
4.127264 -2.819499 1.799292 -4.4651647 4.5729384 4.522023 -2.6209543 -4.508072

weight f4 [128, 128]
00000000: 3c0c a1be eba1 c5be 1dec 5cbe 3f33 51bf
00000010: 6a69 ecbf 9a6c ed3e 3b98 7cc0 a354 1bc0
00000020: 052a 31bf d056 013f d13f 88bf 02f9 9bbd
00000030: 0e5a 4140 3b5c 7ebd 53ca ba3e 7717 b4bd
00000040: afb4 71c0 77c5 38c0 ca60 013f 7759 d13e
00000050: 91c4 a0bd 1984 21c0 3613 f3bd c184 0bbc
00000060: 6af2 b93e 853d c73e 7a01 893f 41bb 7c3e
00000070: bd9f f93d 24a9 973e 92b0 ed3d 6512 1d3f
00000080: 024f b13e e2a3 d6bf e9e4 633f af2c 263f
00000090: e743 c6be a4a9 36c0 1eea 61c0 94d4 023f
000000a0: 4387 0c3f 63e4 d13e 6b0b 0f3f a58f f6bf
000000b0: 4754 0cc0 a1d1 2a3f 2fca 2d3f 9f40 093f
000000c0: 4cc3 7040 a58f 84c0 1a24 0f3f 2626 38c0
000000d0: 3e79 9d3f d10c 863e 2568 093f 28f6 243f
000000e0: aaf3 443e b9bc b8bc c802 063f 2de6 1ac0
000000f0: a8ec adbf b82b 4240 fd82 093f 3df5 babd
00000100: eb26 ddbf a680 98b9 8c88 11be fdbb ffbe
00000110: 2f44 e8be 37c0 583f b3fd 32c0 a80a 9c3c
00000120: 419e 2d3d 9b96 ecbe 3c84 863c d495 f63e
00000130: 1890 d8bb ef77 0c3f 9fe3 6abf 8a5b 3740
00000140: 8e0c 3d40 3830 fc3e 29e4 033f 9dff d4bf
00000150: 3b65 22be c936 6cbf 1a1b 9440 214d 3bbf
00000160: cee0 22c0 bae6 a33f 36f4 523e d4f5 103f
00000170: d3a2 333e 583c e93f f69d 173f 6924 35c0
00000180: 705e a33e 7ef6 4e3f 2a6f acbd 35de 01c0
00000190: d65b c63e b4f8 353f a84b 76c0 c68c b2be
000001a0: 0590 0c3f b6b6 213f cb2b e33e 9843 1840
000001b0: f541 7fbd f97c 243f 50e4 2d40 20bc 73be
000001c0: 50b3 ddbf 47c5 69bf 61c2 09be d36b f63e
000001d0: 9bfa 303e 4400 11c0 4aeb 46bd 2613 393f
000001e0: af21 b4bf 7949 47bf 9b1a da3f 3b4e d8be
000001f0: 6bf9 f33e 2188 303f 345e 6dbe ffa0 b9be
00000200: a9da 103c cb3f f1be e6e8 d7bf 1526 6440
00000210: 6d66 19bf 01a3 983c a3f3 3ec0 3f54 3bc0
00000220: 89f7 e3bd 30a6 1a3e 5bc6 0a3e 779b 81bf
00000230: 542c 903f 4fe3 283c 8c8c be3c d3cf 06bf
00000240: 2216 693d 087e 16c0 53c0 013e 2338 61bd
00000250: 778a 6cbd 1d15 b4bf ff6c f0bf 37ef 9fbf
00000260: ccf8 31bf f25a 96bd ace4 8a3f 9ee0 f53d
00000270: c842 05bf 6a8a 24bf 14fa 3bbf 10d8 a03e
00000280: b084 37be fd9e 4abf 8611 42c0 ba93 913e
00000290: ed8f 44bf e417 13c0 2504 213f 9607 0cbc
000002a0: 828c fd3d 7de5 23bd c218 943f 9fd3 d3bf
000002b0: 8c74 bfbf 09f6 2b3e 0575 563f 9bd1 083e
000002c0: 3310 6f3f 31b1 f9bf 1ba5 3b3e 4038 3140
000002d0: 0295 c73f acf1 0bbf 80ac 0a3e 138e f63d
000002e0: 7ee6 62bf 2e88 f1bf 2273 bd3d c199 b5bf
000002f0: 0766 bfbe 21b4 4540 ade3 4d3e f811 a8bd
00000300: 82ce e9be ee63 cdbe 7032 47bf 1261 9bbf
00000310: 162f c3bd c6e8 9c3e 53ef de3f af4b 25c0
00000320: 6a2b 10bf 3333 ab3d 98a9 4bbc 6a1b 803c
00000330: 3dc5 5c3c 8dfd 033d 55f2 853f 4fbc 863f
00000340: babf 8a3f 56ac de3c 6670 2ebe faf4 2140
00000350: 79f6 693e 357d d73e d19f cc3f 46f3 59be
00000360: a8bd 9d40 fe40 943e 613d a8be e7ac af3e
00000370: f5d2 85bd 96b6 873d 6e0a 0c3e a6e9 a33f
00000380: 7edb efbe 2fb4 333e bbc5 023e 3693 0abf
00000390: e954 a63d 56e9 a73f 9b9b 90bf bd26 bfbe
000003a0: fd20 6e3d a2eb 223e 0d14 f3bd 17a2 cfbf
000003b0: 5da5 bfbf fab7 903f 3aee 07bf 6167 febf
000003c0: c668 ddbe a3c4 5fbe 78ea 823e 2bca 0d3f
000003d0: 3fe2 42be 609d c3bf 1e1d b1bd 69be 1abd
000003e0: ff86 343f 3c0a 113f ecf9 113e 607e 24be
000003f0: 3422 debc 1519 d23d fa66 063e bc60 7cbe
-0.31454647 -0.38600096 -0.21574445 -0.8171882 -1.846967 0.4637192 -3.9467914 -2.4270408
-0.6920474 0.5052309 -1.0644475 -0.07615854 3.0211215 -0.062099677 0.36482486 -0.08793538
-3.776653 -2.8870523 0.50538313 0.4088857 -0.07849992 -2.5236876 -0.118688986 -0.008515538
0.3631776 0.38914123 1.0703576 0.24680807 0.12188671 0.29621232 0.11605944 0.6135619
0.3463059 -1.6768763 0.89021164 0.6491193 -0.3872368 -2.854104 -3.5299144 0.5110562
0.54893893 0.40994558 0.558768 -1.9262587 -2.192644 0.6672612 0.6788663 0.5361423
3.76192 -4.1425347 0.5591446 -2.8773284 1.2302625 0.26181653 0.53674537 0.64438105
0.19233575 -0.022550927 0.52347994 -2.4202988 -1.3587847 3.0339184 0.537155 -0.09128807
-1.7277502 -0.0002908755 -0.14212245 -0.4994811 -0.4536452 0.84668297 -2.7967346 0.01904805
0.04238725 -0.46208653 0.016420476 0.48161185 -0.006608974 0.54870504 -0.9175357 2.864962
2.9538913 0.49255538 0.5152002 -1.6640507 -0.15858929 -0.92271096 4.6283083 -0.73164564
-2.544971 1.2804787 0.20600972 0.56625104 0.17542581 1.822154 0.59225404 -2.8303473
0.31907988 0.8084487 -0.0841964 -2.0291874 0.3874194 0.71082616 -3.8483677 -0.34873027
0.54907256 0.6316942 0.4436935 2.3791256 -0.06231876 0.64253193 2.71706 -0.23802233
-1.7320347 -0.91316646 -0.13453056 0.48129138 0.17283098 -2.2656412 -0.048564233 0.72294843
-1.407278 -0.77846485 1.7039369 -0.42247185 0.47651228 0.68957716 -0.23180467 -0.36255643
0.008841195 -0.47118983 -1.686795 3.5648243 -0.59921914 0.018632414 -2.9836204 -2.927017
-0.11131198 0.15102458 0.13552229 -1.0125569 1.1263528 0.010308101 0.023260377 -0.52660865
0.056905873 -2.3514423 0.12671022 -0.054985177 -0.057749238 -1.4068943 -1.8783263 -1.2494878
-0.6952026 -0.07341565 1.0851035 0.12005733 -0.52055025 -0.64273703 -0.73428464 0.31414843
-0.1792171 -0.79148847 -3.0323195 0.2843302 -0.76782113 -2.2983332 0.6289695 -0.0085467305
0.12380315 -0.04001378 1.1570055 -1.6548957 -1.4957442 0.16793074 0.8377231 0.13361208
0.93384093 -1.95072 0.18324701 2.7690582 1.5592349 -0.54665637 0.13542366 0.12038817
-0.88632953 -1.8869684 0.092504755 -1.4187547 -0.37382528 3.0891192 0.20106383 -0.08206552
-0.45665365 -0.40115303 -0.77811337 -1.2138999 -0.09530465 0.30646342 1.7416786 -2.5827444
-0.56316245 0.08359375 -0.012430571 0.015638072 0.01347476 0.032224227 1.0464579 1.0526217
1.083976 0.027181786 -0.17035064 2.5305772 0.22847928 0.42087713 1.5986272 -0.21284208
4.9294014 0.28955835 -0.32859328 0.34311602 -0.065343775 0.066266224 0.13675854 1.2805679
-0.46847147 0.17549203 0.1277074 -0.54130876 0.08121664 1.3118083 -1.1297487 -0.37334242
0.05813693 0.159102 -0.11869059 -1.6221341 -1.497234 1.1306145 -0.5309788 -1.9875299
-0.43243998 -0.21852355 0.2556951 0.5538661 -0.19031619 -1.5282402 -0.08648132 -0.037779246
0.7051849 0.5665624 0.14255494 -0.16063833 -0.027115919 0.1025869 0.1312522 -0.24646276

bias f4 [128]
00000000: 4082 9440 d0ef 8d3f c3e4 4cc0 d68d 9840
00000010: 595b dcbc c2da 4b3d c9da 59c0 d07b 8ebf
00000020: 5e4d 9740 0a18 88bd edcf 35c0 d41e 9b40
00000030: 54f0 23c0 14ce 6ec0 a68b 9140 1fb8 7ac0
00000040: 32ae 983d 0287 34c0 2957 9640 c99b 9340
00000050: 9622 91bd 573b 763d 9c6b bbbf 3e91 943d
00000060: 61cc 4cc0 598c 9440 774e 3bc0 d72e 5dc0
00000070: e05e 9940 fc8c 9240 c547 c9bd 3063 c5bc
00000080: d08d 033d 1540 99bf a895 89be 4f6c 4fbd
00000090: 2cc9 21bf 0fbc 6d3d 96e9 4ec0 b6b0 32bd
000000a0: 366f 77c0 37e4 efbf 27e4 9640 f0ee 4ec0
000000b0: d987 9440 474e 6dc0 373e 83c0 0f56 8240
000000c0: 374d 71c0 ff55 4dbd d8f6 8740 976d 70bd
000000d0: 6dae 3d40 a546 55c0 c0f6 40c0 0c8f 9640
000000e0: cf43 79c0 c570 4a40 67f9 2fc0 2c8c 52c0
000000f0: 9c00 723f d37f 9740 f101 a2bd 144d af3c
00000100: 0694 8640 aad2 6ec0 9a43 ee3f 2d9a ed3e
00000110: cf77 46c0 7ebb 6e40 44d1 25bd 39c4 9540
00000120: 44e4 8c3d 00da 9340 214f 9dbd 4c04 54c0
00000130: 5fa4 9e40 71e2 5e3d f7ae dfbb 26a4 a1bf
00000140: 5830 76c0 b077 8940 1977 cd3f 38c0 cbbc
00000150: ba21 2640 fcd5 9740 d379 58c0 1e18 0e40
00000160: 6b5c 75bd f66d 9340 32c8 a73e 5ed8 59c0
00000170: a9d7 9640 4735 5bc0 e76b 9840 6f45 38c0
00000180: a1a9 45c0 b752 72c0 1a24 34bd 1a11 6abd
00000190: d102 98bf 7414 9c40 4401 5d3d 7d47 9740
000001a0: 650c ac40 675d 9c40 e332 47c0 90ae 8e40
000001b0: c88d 8a40 0d4f 4bc0 489e 9840 85cf 9cbf
000001c0: 7302 4ac0 36db 1a3d 2da0 37bf 10d1 a7bd
000001d0: 35de 90bf 315f ae3c b794 5cc0 bb30 8d40
000001e0: c415 76c0 bee3 9ebd 3c49 9340 2e86 9840
000001f0: 533d 4cc0 9172 56c0 92a0 43c0 8ba9 9740
4.6408997 1.108881 -3.2014625 4.767314 -0.026899027 0.04976917 -3.4039786 -1.1131535
4.728194 -0.0664521 -2.8408158 4.847513 -2.5615435 -3.731328 4.548297 -3.9174879
0.074551 -2.8207402 4.6981397 4.6127667 -0.07086675 0.060115185 -1.4642215 0.07254265
-3.1999743 4.6421323 -2.926664 -3.4559839 4.7928314 4.57971 -0.09828142 -0.024095148
0.032117665 -1.1972681 -0.2687199 -0.0506404 -0.6319759 0.058040675 -3.233007 -0.043625556
-3.8661628 -1.8741521 4.7153506 -3.2333336 4.641583 -3.7079027 -4.1013446 4.073005
-3.7703378 -0.05013084 4.2488823 -0.058698263 2.963771 -3.3324368 -3.0150604 4.704962
-3.8947637 3.163133 -2.7495973 -3.2898054 0.9453218 4.7343535 -0.079105265 0.021399058
4.2055693 -3.731608 1.861438 0.4640669 -3.1010625 3.7301936 -0.040482774 4.680203
0.06879476 4.6203613 -0.07681108 -3.3127623 4.957565 0.05441517 -0.0068262774 -1.2628219
-3.8467007 4.2958603 1.6051971 -0.02487193 2.5958085 4.744871 -3.3824356 2.220222
-0.05990259 4.607173 0.32769924 -3.403831 4.7138257 -3.4251268 4.7631717 -2.879238
-3.0884783 -3.7862985 -0.04397974 -0.057145216 -1.187586 4.8774967 0.053956285 4.7274766
5.376513 4.8864017 -3.1124809 4.458809 4.3298073 -3.1766999 4.7693214 -1.225083
-3.1563995 0.037806712 -0.71728784 -0.081941724 -1.1317812 0.021285625 -3.4465768 4.4121985
-3.8450785 -0.07758282 4.6026897 4.7663794 -3.191243 -3.3507426 -3.0566754 4.739446

weight f4 [1, 128]
00000000: 391c f13f 42d1 bf3f ce3d e8bf defb fd3f
00000010: c8fe f33c 7e2b 393d 716e e0bf ccb8 97c0
00000020: 09e3 f33f 8bc4 adbc 8f37 e1bf e67d 0040
00000030: 4f1a 15c0 03ab 04c0 16dd ef3f b6af f6bf
00000040: 7c4a 243d 928d d8bf 9e9f fb3f fcb9 f83f
00000050: 5e3d 00bd e74f 673c 0569 ebbf 536a a0bd
00000060: 33db d5bf ba01 f93f 6575 cbbf 7a4a e9bf
00000070: 4a64 0740 3435 ee3f cb86 5a3d 3b01 2ebc
00000080: bb2d 983c 4461 8bc0 15a8 a0bd 9e6c 183d
00000090: e513 c240 be7a d7bc 78c7 dfbf 97e3 7dbc
000000a0: 046b f7bf cb4f 4ac0 b54d 0540 c189 e1bf
000000b0: e458 0840 0be8 ffbf 35b8 00c0 9579 de3f
000000c0: c4df 03c0 6a8d a3bd 9456 4c41 b95b 03bd
000000d0: 8648 0940 ebfc febf f243 c7bf 64d0 f43f
000000e0: c078 05c0 c980 933f 6fc1 06c0 7e58 e2bf
000000f0: 6416 763f dbf0 0140 1c5f 973d bfcb 69bd
00000100: 6930 0d40 c866 f1bf 7d10 a940 9861 d140
00000110: ade9 d0bf 5411 9041 983d 0a3c 160e f03f
00000120: 2940 7cbd ef66 0940 64da 97bd 128d d4bf
00000130: 5060 9f40 47d2 aabc b02c fabc 96bc 8bc0
00000140: 8e4c fdbf 453a f93f a89c 0241 dda7 8b3d
00000150: 02d4 aa3f 06bf f03f b066 dbbf 7cca ee3f
00000160: c6a9 0ebd e35f f53f 5f57 5fbe eaee d1bf
00000170: 8a16 e93f f637 edbf 00b5 9c40 f6fd cdbf
00000180: f3fd d5bf d4d8 00c0 6adf f1bc 6531 203c
00000190: bd43 80c0 b9f8 a040 c325 cd3c f9ad 0940
000001a0: ce4f 8e40 8587 0140 d7bb d9bf c738 7740
000001b0: 31f4 ed3f 3082 e4bf b9ac 8540 b100 98c0
000001c0: 55dd e1bf 2b32 e4bc 3dbd 0c41 4692 a43d
000001d0: d9d9 95c0 780d 21bd 2d8b e0bf 85cc 0040
000001e0: 8e52 00c0 a367 913d 2197 0a40 69e6 fc3f
000001f0: c677 d4bf b09a eabf a483 e3bf 95aa 0540
1.8836738 1.4985735 -1.8143861 1.9842489 0.029784575 0.045207493 -1.7533704 -4.741308
1.9053661 -0.021211883 -1.759508 2.0076842 -2.3297307 -2.0729377 1.8739345 -1.9272373
0.040110096 -1.6918204 1.9658086 1.9431758 -0.031308524 0.014118171 -1.8391424 -0.0783278
-1.6707519 1.9453652 -1.5895201 -1.8225853 2.1154962 1.8609986 0.053351205 -0.010620411
0.018576493 -4.3556232 -0.07844559 0.03721296 6.0649285 -0.026303645 -1.7482748 -0.015496156
-1.9329534 -3.1611202 2.0828679 -1.7620164 2.1304255 -1.9992689 -2.011243 1.7380854
-2.0605326 -0.07985957 12.771137 -0.032069895 2.1450515 -1.9920934 -1.556761 1.9126096
-2.085495 1.1523677 -2.1055562 -1.7683256 0.96127915 2.0303257 0.073911875 -0.057079073
2.2060797 -1.8859491 5.2832627 6.5431633 -1.6321312 18.008461 0.008437537 1.8754299
-0.061584625 2.1469076 -0.074147016 -1.6605551 4.980507 -0.020852221 -0.030538887 -4.3667707
-1.9788988 1.9470907 8.163246 0.06819127 1.334595 1.8808296 -1.7140713 1.8655543
-0.034829877 1.9169887 -0.21810673 -1.6401036 1.8210003 -1.8532703 4.8970947 -1.6093128
-1.6718124 -2.0132341 -0.029525477 0.009777402 -4.008269 5.0303617 0.02504242 2.1512434
4.447242 2.0238965 -1.7010449 3.8628404 1.8590146 -1.785223 4.1773343 -4.7500844
-1.764567 -0.027855953 8.796201 0.08035712 -4.6828427 -0.039319485 -1.7542473 2.012483
-2.0050387 0.07099845 2.1654742 1.9757816 -1.6599052 -1.8328457 -1.7774549 2.0885365

weight f4 [2, 128]
00000000: 8c10 50bd 3032 4bc0 1bf7 87be 3bc6 253d
00000010: 7645 53bd 7368 893d c407 09be 552a f03e
00000020: 6879 29be be82 c5bb 73fc 20bf 90ef f7bd
00000030: bb00 c0be 1719 f23d 81c1 8d3d 3b4b 0d3d
00000040: 9a1b a83d 0d42 34bf 2d64 ffbd ad61 113d
00000050: 1b36 40bd 046f 9f3d 5efd e7c0 ea7b 1c3d
00000060: 4183 8dbd 7f97 e5bd 88e5 0cbe a7ee 31be
00000070: b538 91bd c45c 1dbd 5c58 bfbd 6428 0c3d
00000080: 6eee 7f3c 5ac7 f6bf 683e c6bd 5112 853c
00000090: 486b b7c0 bd6e 54bc f444 96be 1655 96bc
000000a0: ee7d 353d a549 afc0 592b 5d3d 9bc1 9cbe
000000b0: f575 513b 3f64 d4bd 7fb7 b43e ce06 b53e
000000c0: 810b 4f3d a76d 903d 352f c13e 44e2 aebc
000000d0: df65 1940 9e4e 8dbe 0658 a8be 22e6 c63c
000000e0: 0139 593e 94a4 1c40 c883 b4be bc6e 31be
000000f0: 54e4 b23f f64b 85bc f8d7 413d 8776 4cbd
00000100: c485 de3d 18d1 3b3e f1c8 dec0 d57c 0cc0
00000110: a0e9 09bf aa1d bd40 b23f a2bd a60a db3d
00000120: 5b9a d8bc 172c a8bd 4b01 9ebd 7367 1c3e
00000130: ff77 13bf a792 153d 04a1 c0bc 721b 633f
00000140: 8b7c 94bd 1041 8e3e 1f54 11c0 73e5 a73d
00000150: 7a02 f040 a216 83bd 4760 1e3e ca7d 6e40
00000160: 1aac c53d a703 833d 9b4c 3f3f 1c54 3a3e
00000170: be87 30bd 50e7 84be 0d21 7e3e 2f6b 5dbd
00000180: 50eb 4abe a9fd a93d 366a 96ba 99bb 47bd
00000190: ab4e f8be 4861 efbd 2da5 0cbd e5c8 c5bc
000001a0: aeb6 9abf bf25 9f3c bd08 7abe 2931 a9be
000001b0: fcfd 953e f3e2 06bf ff39 6dbf 4097 cd3d
000001c0: 3294 29bf 4c91 c73c 746c 1dc0 d155 92bd
000001d0: 7924 f03e 88ae 64bd 9ad0 18be 0d00 353e
000001e0: 4e91 b23d 32d9 a1bd 24f5 4c3d be7f f1bd
000001f0: 4d0e 8cbd e427 083d b4a1 37bf 913d 43be
00000200: d29a 7dbd 70db 4a40 15ef 213e 4056 9c3d
00000210: 7426 dabc 2672 a5bb 1a2f 0b3e dbc9 1fbf
00000220: 795c 2abb 8a62 d73c 0b89 213f c384 a63d
00000230: 11f8 bf3e f5b3 89bd 22f1 8ebc 6e5c 34be
00000240: 9f55 063d 68b8 233f 78b3 a33d d534 613c
00000250: 9e94 92bc 9f09 25bd ba9e e440 3621 4dbd
00000260: 9e50 57bc 0861 e9bb dd7d 283e a556 3f3e
00000270: f22f 213e dfdb 87bd 3fea b63b 5b52 0dbc
00000280: 4e87 a93d d449 0340 4627 d33d 57e4 633d
00000290: 705e b440 ba81 843d baca 8a3e dfe0 cd3c
000002a0: 12ba babc 5f04 ad40 0fd2 213d 0983 893e
000002b0: 8753 abbb 7043 c93d cf24 efbe 047a bebe
000002c0: e575 c4bd dfd9 a1bd c313 fdbe 2879 36bd
000002d0: 1d74 1ac0 8150 a33e 004f b43e 3257 37bc
000002e0: 3e67 08be 8cd4 1dc0 07d7 ec3e 5192 d83d
000002f0: 788e aebf 50c0 8a3c 1075 9e3d 041a 8fbd
00000300: 4c01 f4bd 3ac7 74bd 25ee de40 3d7d 0b40
00000310: 3af6 0b3f 7ad2 c0c0 7905 08bd 8cd9 e2bd
00000320: 996f 693d dfe0 243d 0b56 d73d 2969 39be
00000330: 95df 343f c0be 72bd b05e 4d3d d434 40bf
00000340: f43f b4bb 9224 5bbe 367a 1340 b003 8cbc
00000350: 2662 f1c0 6148 6abd fd1c 30be f2b2 65c0
00000360: ba3a cbbd ee67 c0bd 2f5e 3abf eddb f4bd
00000370: 3ad0 e33b 78ac 8e3e 11eb 91be 08d3 923c
00000380: 1900 573e bcbf 44be ede3 0bbd 0259 aa3d
00000390: f537 183f e79f 023e 240f ddba c501 2c3d
000003a0: 8ce2 933f a71c 513d f440 873e f1ff 9b3e
000003b0: 349a 8ebe 5ed4 eb3e 43ab 743f 4810 7cbe
000003c0: 8140 0b3f 821a 393d 8e64 2540 3bc0 06bd
000003d0: f239 f8be 2e14 d03b 8ae0 353e 232a 47be
000003e0: 1642 edbd 4ff8 02bd 55a7 30bc 2ba0 dc3c
000003f0: 2ce6 f0bc f327 e23b 5446 363f 0a98 8b3d
-0.05079703 -3.1749382 -0.26555714 0.04047225 -0.051579915 0.06709375 -0.13381869 0.46907297
-0.16550219 -0.0060275486 -0.62885207 -0.1210624 -0.37500557 0.11821192 0.069216736 0.034495573
0.082083896 -0.70413285 -0.12470279 0.03549354 -0.0469266 0.077848464 -7.2496786 0.03820411
-0.069098 -0.11210536 -0.13759434 -0.17376195 -0.07090894 -0.038418546 -0.09343025 0.034218207
0.015620811 -1.9279587 -0.09679872 0.016244086 -5.731846 -0.012965855 -0.29349482 -0.018351119
0.04430955 -5.47774 0.053996418 -0.3061646 0.0031961177 -0.10370683 0.35296246 0.35356754
0.05054808 0.070521645 0.3773133 -0.021348126 2.3968427 -0.27599043 -0.32879657 0.024279658
0.21213152 2.447545 -0.3525679 -0.17327398 1.397593 -0.016271573 0.047325104 -0.049917724
0.108653575 0.18341482 -6.962029 -2.1951191 -0.5387211 5.909871 -0.07922305 0.106953904
-0.02644079 -0.082115345 -0.0771509 0.15273838 -0.57604975 0.03651681 -0.023514278 0.88713753
-0.07250317 0.27784014 -2.2707593 0.08198061 7.5003023 -0.06400801 0.15466414 3.7264276
0.096519664 0.06397181 0.74726266 0.18196148 -0.043098204 -0.25957727 0.24817295 -0.054057296
-0.19816327 0.08300335 -0.0011475745 -0.04876289 -0.4849752 -0.11688477 -0.03433721 -0.024143646
-1.2087 0.019427178 -0.24417396 -0.3304532 0.29295337 -0.5269005 -0.9266662 0.10038614
-0.66241753 0.024361275 -2.4597445 -0.071452744 0.46902826 -0.05583051 -0.14923325 0.176758
0.08719121 -0.07902755 0.05003847 -0.11791943 -0.06838665 0.033241168 -0.71731114 -0.19066454
-0.061915226 3.1696434 0.15813859 0.076336384 -0.026629664 -0.005049008 0.13592187 -0.6241738
-0.002599506 0.026292104 0.63099736 0.08130791 0.37493947 -0.06723777 -0.017448965 -0.17613384
0.0327965 0.63953257 0.07993215 0.013745506 -0.017893132 -0.04029238 7.144376 -0.0500805
-0.013141779 -0.0071221627 0.16454263 0.18685396 0.15740946 -0.06633734 0.0055821235 -0.008625592
0.082777604 2.051381 0.10310225 0.055637684 5.636528 0.06470056 0.27107793 0.025131641
-0.022793803 5.4067836 0.039506968 0.26857784 -0.005228463 0.09827316 -0.4670777 -0.37202466
-0.09592799 -0.07902884 -0.4942914 -0.044549137 -2.413337 0.31897357 0.35216522 -0.011190223
-0.13320634 -2.4660978 0.46257803 0.10574783 -1.3637228 0.016937405 0.07737172 -0.06987384
-0.1191431 -0.05976031 6.9665704 2.179519 0.54672587 -6.025693 -0.033208344 -0.1107665
0.056991193 0.040253516 0.10514458 -0.18106522 0.7065366 -0.059263945 0.05013913 -0.7508061
-0.005500788 -0.21400669 2.3043342 -0.017091602 -7.543231 -0.057197932 -0.17198558 -3.589047
-0.099233106 -0.09394823 -0.7279996 -0.1195601 0.006952313 0.27865958 -0.28499654 0.017922893
0.20996131 -0.19213766 -0.034152914 0.08317758 0.59460384 0.1275631 -0.0016865474 0.041993875
1.1553512 0.051052716 0.26416743 0.30468705 -0.27852023 0.4606046 0.95573825 -0.24615586
0.543953 0.045191295 2.5842624 -0.03289817 -0.4848171 0.006350062 0.17761436 -0.19449668
-0.115848705 -0.031975087 -0.010782083 0.026931843 -0.02940663 0.006901735 0.7120106 0.068161085

bias f4 [2]
00000000: 5564 933f bfc4 8dbf
1.1514994 -1.1075667

exp_avg f4 [128, 11]
00000000: ec04 55c4 a3b4 6ec4 2846 c1c4 e4ec da43
00000010: 476e 0b45 8b45 8946 0ed4 0047 b64e 7749
00000020: 5b9c 4245 85f1 9746 681a 7144 ed66 4043
00000030: 8040 53c4 7adb b0c4 9be0 2d44 6d76 afc4
00000040: ffa0 d4c6 b8d1 d0c6 66f9 28c9 aa08 15c5
00000050: f384 2ec6 58b2 cdc5 d77a 69c3 42a7 81c4
00000060: 9520 b5c4 4d57 2f44 da6a 9944 1559 6f46
00000070: 89e2 0248 2459 7149 acb5 e144 7424 5346
00000080: 2218 f3c3 3fe1 9ec0 809d 1643 0400 0080
00000090: 5452 d543 4d85 9dc2 3a19 6345 67e0 ba44
000000a0: 3b5a 15c7 be33 a443 7fa4 9bc3 0400 0080
000000b0: 8142 d7c4 ffb4 3343 e0e8 c6c1 c8e5 87c4
000000c0: a3a4 5346 089e 3d48 28b7 6747 fe44 8e4a
000000d0: 2ab8 9f46 cb20 0b48 2a44 c446 e884 b644
000000e0: 6147 6144 7e56 a844 6277 12c3 015e c8c4
000000f0: 5cf2 21c6 fec1 1dc7 5ec0 aac9 28bc 5ec5
00000100: 972f 6cc6 fa2b 30c5 13de 3dc6 0505 0ec6
00000110: e6ec 11c6 b88b 42c4 12e4 f2c5 e466 24c8
00000120: fefc 5ec8 20db 5ec8 a840 d744 8093 f545
00000130: 5c68 fec5 9138 afc5 6590 aec5 7aa1 b1c5
00000140: 6d38 23c4 6b2c 0fc5 59be 9dc7 d859 d2c7
00000150: 7c75 a749 ca66 5745 a5df 4d46 fe2b 83c5
00000160: 8e49 9344 915d 5fc5 4088 b3c5 b6e0 3745
00000170: f09e 6743 2444 c0c6 2789 9848 a46b 42c9
00000180: a0a1 66c5 359e dfc6 304b 81c6 06b5 c644
00000190: 037d 8744 bca8 cb44 4666 84c3 ad94 e2c4
000001a0: 9696 3ac6 f61c 5ec7 3f5b b9c9 58e5 6ec5
000001b0: 96a0 75c6 5c37 24c5 d6a3 64c5 2c2d fec4
000001c0: a8ba 31c5 6db7 81c2 db45 6d45 f6cc 9546
000001d0: c023 9b48 13c5 134a 260b ce45 787e 6447
000001e0: 12bb b245 221c 0dc3 4316 cdc4 8c93 29c5
000001f0: 18b7 8644 d74f 0e45 a692 8646 be21 6447
00000200: 96a2 7949 ca8b 1345 82da b845 ce1b 07c5
00000210: e9ec 6246 ef9c 1446 d0fa 5d46 aba3 08c5
00000220: ee9f 8ac6 c268 f7c7 4c65 c5c8 da6b 46cb
00000230: 039b 08c7 5232 21c8 ae45 c3c6 fe64 40c5
00000240: e319 3545 bda2 9945 57b1 16c5 f650 1dc5
00000250: 2495 21c6 f2ec e2c7 a8d9 5548 284c fc44
00000260: 62a1 c946 5c32 6f46 9997 9544 0c65 3c44
00000270: 2ba6 8c44 f592 e1c2 8d4b 9ec4 b4c2 ecc5
00000280: 4815 fac6 6b2f 8ec9 6093 35c5 70a2 3ac6
00000290: 7c7a 0ec5 fd30 5444 5591 44c4 a07c a4c4
000002a0: 17e1 8044 fbaa 6d44 42b9 4546 996b 3747
000002b0: 3ce6 f048 501b fb43 f218 09c5 d171 77c5
000002c0: d538 c8c6 f8c6 39c6 e8cd 7fc6 3320 98c4
000002d0: c7b7 db46 a0ef 4848 e426 fc48 335e 944b
000002e0: 5571 7547 9c33 a348 d65c 5847 f2f1 cec4
000002f0: b44c 8a43 e17d bd43 138a 2241 88c3 e1c4
00000300: 6006 40c5 db53 cac9 54d6 8bc9 64c8 0946
00000310: 5eb4 8fc7 4a4c bb45 ebba 0845 c3ec aa44
00000320: e779 fe44 4a09 8cc3 b2cf 16c5 1822 7dc6
00000330: 48eb 89c7 c355 f9c9 20ee a4c5 4c5d b2c6
00000340: 0aaf 79c5 c670 a444 b590 6c44 9581 b244
00000350: 6a50 6ec3 bdb0 b6c4 e006 09c6 c3bd 36c7
00000360: a0be 9cc9 9c7c 45c5 785a 45c6 8703 00c5
00000370: 04ff abc3 9483 16c2 eeb8 9cc0 794c 3bc1
00000380: 8487 41c4 0994 08c6 c2f1 28c6 25c0 85c6
00000390: 8ab7 7fc3 8967 dbc5 0400 0000 0aba d6c5
000003a0: fee6 4b44 0400 0000 e425 9541 ed6b 2446
000003b0: 5396 2b48 185d efc7 a4d1 1a4b 9f05 df46
000003c0: b131 0048 97d7 0347 02c1 06c4 d5c6 76c4
000003d0: 54ad a8c4 9e32 1044 cc6f 8044 f2ce 3946
000003e0: 6acf f847 ce57 7349 60a6 ec44 4bfb 6346
000003f0: f3d0 b443 7b36 13c4 afec 27c4 0184 82c4
-852.0769 -954.82245 -1546.1924 437.8507 2230.8923 17570.771 32980.055 1.0129714e+06
3113.7722 19448.76 964.4126 192.40205 -845.0078 -1414.8586 695.50946 -1403.7008
-27216.498 -26728.86 -692118.4 -2384.5415 -11169.237 -6582.293 -233.47984 -1037.2268
-1449.0182 701.3641 1227.3391 15318.2705 134026.14 988562.25 1805.6772 13513.113
-486.18854 -4.964996 150.61523 -6e-45 426.6432 -78.76035 3633.5767 1495.0126
-38234.23 328.40424 -311.28513 -6e-45 -1722.0782 179.70702 -24.863708 -1087.1807
13545.159 194168.12 59319.156 4.661887e+06 20444.082 142467.17 25122.082 1460.1533
901.1153 1346.7029 -146.46634 -1602.9376 -10364.59 -40385.992 -1.3987958e+06 -3563.7598
-15115.897 -2818.7485 -12151.519 -9089.255 -9339.225 -778.1831 -7772.509 -168347.56
-228339.97 -228204.5 1722.0205 7858.4375 -8141.045 -5607.071 -5586.0493 -5684.1846
-652.88165 -2290.7761 -80764.695 -107699.69 1.3718235e+06 3446.4243 13175.911 -4197.499
1178.2986 -3573.848 -5745.0312 2942.0444 231.62085 -24610.07 312393.22 -796346.25
-3690.1016 -28623.104 -16549.594 1589.657 1083.9066 1629.273 -264.799 -1812.6461
-11941.646 -56860.96 -1.5184399e+06 -3822.334 -15720.146 -2627.46 -3658.2397 -2033.4116
-2843.666 -64.85825 3796.366 19174.48 317726.0 2.4210608e+06 6593.3936 58494.47
5719.384 -141.1099 -1640.6957 -2713.2217 1077.7217 2276.99 17225.324 58401.742
1.0225054e+06 2360.7368 5915.3135 -2161.7378 14523.228 9511.233 14206.703 -2186.2292
-17743.965 -126673.516 -404266.38 -1.3003738e+07 -34971.01 -165065.28 -24994.84 -3078.312
2897.618 4916.3423 -2411.0837 -2517.06 -10341.285 -116185.89 218982.62 2018.3799
25808.691 15308.59 1196.7374 753.57886 1125.1927 -112.787025 -1266.361 -7576.338
-32010.64 -1.1647814e+06 -2905.211 -11944.609 -2279.6553 848.76544 -786.2708 -1315.8945
1031.034 950.6716 12654.314 46955.598 493361.88 502.21338 -2193.559 -3959.1135
-25628.416 -11889.742 -16371.477 -1217.0062 28123.889 205758.5 516407.12 1.9446886e+07
62833.332 334236.88 55388.836 -1655.5608 276.59924 378.98343 10.15871 -1806.1104
-3072.3984 -1.6574674e+06 -1.1455465e+06 8818.098 -73576.734 5993.536 2187.6824 1367.3988
2035.8094 -280.07257 -2412.981 -16200.523 -70614.56 -2.0425524e+06 -5277.7656 -22830.648
-3994.94 1315.5242 946.26105 1428.0494 -238.31412 -1461.5231 -8769.719 -46781.76
-1.284052e+06 -3159.788 -12630.617 -2048.2205 -343.9923 -37.628494 -4.8975744 -11.70617
-774.11743 -8741.009 -10812.439 -17120.072 -255.71695 -7020.942 6e-45 -6871.255
815.60925 6e-45 18.643501 10522.981 175705.3 -122554.19 1.0146212e+07 28546.81
131270.77 33751.59 -539.01575 -987.10675 -1349.4165 576.7909 1027.4937 11891.736
127390.83 996732.9 1893.1992 14590.823 361.63242 -588.85126 -671.6982 -1044.1251

exp_avg_sq f4 [128, 11]
00000000: 2623 234c 4139 9b4a 2658 8c4a cd87 e84a
00000010: cb6d 034e 696c 9251 c97e c654 a45d ea56
00000020: 3bb8 f64c e546 1e51 ea2b 6a4c 1b96 aa4b
00000030: 9c2e 474a 4ebe 784a b1d6 b74a fec7 3e4d
00000040: 13ec d150 1ccc 6f53 12c5 1c56 297f 224c
00000050: f79d 6550 403e 224c 4c34 da4b 63be be4a
00000060: 8046 bd4a 72c5 5d4b 0950 8a4d e8af 2151
00000070: 644a a052 ef14 b556 384e 994c dfe3 8250
00000080: c704 534c abfc 3849 4425 8849 f7c1 2f44
00000090: 56d6 714a e802 514d 60fc f050 6138 ce50
000000a0: 5494 4356 b598 134c 2651 d04f 0f82 b349
000000b0: 70d5 b84c 1a53 184c e8d5 b94b e0da 224b
000000c0: 150a fb4f 9968 8c53 f480 b554 ed62 b758
000000d0: 0227 0b4f d8f0 6553 f339 974e 16e4 de4b
000000e0: e644 6e4a cb3c 5c4a a066 b34a 82b2 b94d
000000f0: 3504 4c51 22ae a654 d2bd bc56 602b b44c
00000100: b284 ed50 7eb9 774c 3e95 fe4e 78f7 a44d
00000110: 949e 9d4d 9262 7f4e ba3e 4c50 d7c4 0854
00000120: d9fc 3b53 4579 9f59 4040 874f 2164 9750
00000130: 2900 4c4f 7582 394e 127d 024d e60a e84c
00000140: c467 c94d 3c8b ab4f 93ca 6653 96e4 a052
00000150: cecb 0a59 c4e1 db4e 2e3b 1d50 ef14 b04e
00000160: f740 844d 2362 364c a6a5 794c 4c70 944c
00000170: c8b8 864e ea53 2952 068d a556 7f7c 8657
00000180: 08f8 af4d 51d8 2c51 8b7f 5b4d 3c09 194c
00000190: 0a59 a64a dcd8 a94a c687 034b 4dca dd4d
000001a0: 96aa 7551 f1ef f754 d30c e356 c6f5 db4c
000001b0: 66ab 0851 c058 944c 9a54 264d a92a aa4b
000001c0: 30a3 964b 80e5 054c e578 0e4f bf39 a052
000001d0: afb3 b355 de65 1358 1772 114e a121 2952
000001e0: b0ca 924d 533e 5a4c 3a82 2d4b d77d 594b
000001f0: 7d28 984b cabc e34d 8e18 8251 bd95 a655
00000200: a29f 0057 427f f94c bacd fd50 1ca1 934c
00000210: f4d4 544f 0136 df4d bd52 d24d 5d7c 364e
00000220: 7005 2151 a923 b354 4803 ec56 3098 215a
00000230: 3ee3 2050 f6cf 4454 192c c74f 89cf 074d
00000240: cb1f ce4b 90bc 084c 381a 294c 67c0 934e
00000250: e34d 2452 89a2 d355 c970 a157 6cdb 974d
00000260: 63a4 a351 b822 774d 67ed 924b 3917 1b4a
00000270: d945 0d4a efa9 694a 3e06 734d 1f41 0551
00000280: 39bc 4254 0a6d 7856 2fd5 684c 3565 9a50
00000290: 8e9c 274c 23a8 f34b 2d56 8d4a 64ee a04a
000002a0: 2554 174b e33d 364d 5144 d550 f97d 8154
000002b0: eaa6 5e56 554f 504c 4509 5550 286d 214c
000002c0: 4c44 ec4f 3ea7 524e bfc1 314e 0c09 604e
000002d0: 555c d951 6779 6f55 a2f3 5f57 9e52 b85a
000002e0: cc3d d750 bccc 0a55 b1eb 6f50 debb 5e4c
000002f0: bec3 a04b c249 ea4b 0329 ac4b 5551 224f
00000300: b966 a852 85c5 fc57 00d2 ef57 f236 294e
00000310: 4203 c852 0854 bb4d fe78 8a4c 94ec 124b
00000320: 3366 0c4b 3ede 654b 4d6a 584e dd32 ef51
00000330: fac5 5755 f1f0 5b57 621d 544d b6b2 8651
00000340: 1de4 0d4d 400a d54b 968b 6e4a 3aa3 704a
00000350: 3400 bc4a 595f 994d a19b 2951 8578 b954
00000360: d6da 9e56 9649 974c 28a1 bd50 6537 504c
00000370: ccb7 2e4a 383c 9546 fd78 5646 7f70 d847
00000380: a2f9 d94a 0a0d aa4e 4c69 ab52 2e65 b250
00000390: 4d72 b749 d3a4 ae4e c93b fa43 1350 b84d
000003a0: 5bdc 9c4c 91e1 b049 4501 bc4a 695c db50
000003b0: 2572 6754 8b90 cd56 7d67 c759 0e83 d14f
000003c0: c4ac 4c54 fbbd 844f 7de0 cc4b bc37 a04a
000003d0: 5541 934a 6df7 384b a6ed 8f4d 31ee 2551
000003e0: 123c 9052 943e b356 24dc 984c 7231 8b50
000003f0: 3d83 4b4c 1074 7e4b 90d1 354a 03a1 5c4a
4.2765464e+07 5.0863685e+06 4.598803e+06 7.6195585e+06 5.512527e+08 7.8610506e+10 6.820245e+12 1.2884395e+14
1.2935215e+08 4.248714e+10 6.1386664e+07 2.2359094e+07 3.263399e+06 4.0754115e+06 6.0240245e+06 2.000486e+08
2.8175276e+10 1.0299216e+12 4.3092556e+13 4.259754e+07 1.5409339e+10 4.253107e+07 2.8600472e+07 6.2502895e+06
6.202176e+06 1.4534002e+07 2.9006262e+08 4.340256e+10 3.4422142e+11 9.955076e+13 8.037626e+07 1.7567775e+10
5.5317276e+07 757706.7 1.1153045e+06 703.0307 3.9622615e+06 2.1916429e+08 3.2344572e+10 2.767841e+10
5.376046e+13 3.869154e+07 6.989958e+09 1.4705299e+06 9.690611e+07 3.9930984e+07 2.435784e+07 1.0672864e+07
8.423484e+09 1.2061006e+12 6.2364204e+12 1.6130841e+15 2.3345894e+09 9.875882e+11 1.2685787e+09 2.9214764e+07
3.9038015e+06 3.6083708e+06 5.878608e+06 3.8943546e+08 5.4765244e+10 5.7270883e+12 1.0376173e+14 9.446067e+07
3.1879172e+10 6.493951e+07 2.1355968e+09 3.459602e+08 3.3055194e+08 1.0711625e+09 1.3706652e+10 2.349672e+12
8.0740096e+11 5.6109823e+15 4.5382697e+09 2.0319373e+10 3.4225626e+09 7.7808365e+08 1.3682717e+08 1.2165714e+08
4.223776e+08 5.7560576e+09 9.912411e+11 3.455149e+11 2.441727e+15 1.844503e+09 1.0551605e+10 1.477081e+09
2.7735626e+08 4.78107e+07 6.544348e+07 7.782461e+07 1.1301284e+09 1.8181433e+11 9.1012555e+13 2.9573853e+14
3.6903347e+08 4.6397723e+10 2.3016056e+08 4.011749e+07 5.450885e+06 5.56555e+06 8.619974e+06 4.6512784e+08
6.594556e+10 8.51906e+12 1.2482211e+14 1.1532242e+08 3.6686946e+10 7.777638e+07 1.7441014e+08 2.2304082e+07
1.9744352e+07 3.510016e+07 2.3902876e+09 3.440818e+11 2.469804e+13 6.482629e+14 6.100433e+08 1.8160342e+11
3.078446e+08 5.7211212e+07 1.1371066e+07 1.4253527e+07 1.9943674e+07 4.7760006e+08 6.984471e+10 2.2895256e+13
1.414231e+14 1.3080834e+08 3.4064945e+10 7.740029e+07 3.570726e+09 4.681073e+08 4.410797e+08 7.654009e+08
4.322381e+10 6.1551794e+12 1.2974942e+14 1.1371201e+16 1.0796988e+10 3.3812104e+12 6.683112e+09 1.4240782e+08
2.701711e+07 3.584467e+07 4.4329184e+07 1.23943e+09 1.7642034e+11 2.908688e+13 3.5501156e+14 3.1846746e+08
8.78547e+10 2.5914048e+08 1.9258062e+07 2.5410062e+06 2.3146142e+06 3.8283478e+06 2.5482954e+08 3.57702e+10
3.345526e+12 6.82868e+13 6.1035708e+07 2.0722592e+10 4.393836e+07 3.1936582e+07 4.6313185e+06 5.273394e+06
9.917477e+06 1.9109432e+08 2.8624194e+10 4.449314e+12 6.120212e+13 5.4607188e+07 1.4296618e+10 4.231696e+07
7.927798e+09 8.8354394e+08 7.4556614e+08 9.396723e+08 1.1669462e+11 1.6456544e+13 2.4623749e+14 2.5941117e+16
2.888921e+10 9.538246e+12 1.6100804e+10 5.8388344e+07 2.107174e+07 3.0708612e+07 2.2565382e+07 2.7232392e+09
3.6163895e+11 5.5585054e+14 5.2737044e+14 7.097376e+08 4.2952406e+11 3.928558e+08 7.259954e+07 9.62882e+06
9.201203e+06 1.5064638e+07 9.077113e+08 1.2841882e+11 1.4827831e+13 2.4182788e+14 2.2241846e+08 7.231549e+10
1.4878357e+08 2.7923584e+07 3.9083255e+06 3.9426065e+06 6.16041e+06 3.2164534e+08 4.552878e+10 6.3727275e+12
8.7331365e+13 7.931819e+07 2.5451643e+10 5.4582676e+07 2.862579e+06 19102.11 13726.247 110816.99
7.142609e+06 1.4264906e+09 3.68103e+11 2.3943803e+10 1.5027936e+06 1.4650188e+09 500.46707 3.8653194e+08
8.2240216e+07 1.4490101e+06 6.1605465e+06 2.9442132e+10 3.97621e+12 1.13010346e+14 7.0159134e+15 7.030054e+09
3.5162874e+12 4.454086e+09 2.6853626e+07 5.250014e+06 4.8252585e+06 1.2121965e+07 3.0183955e+08 4.454161e+10
3.0974155e+11 9.854068e+13 8.014262e+07 1.8682188e+10 5.334962e+07 1.6675856e+07 2.978916e+06 3.6147848e+06

exp_avg f4 [128]
00000000: 9c51 8c44 cfb0 04c5 a2d7 ef43 02f1 ad43
00000010: 7544 4246 d059 c9c3 d4c3 8bc6 5fcf 06c6
00000020: d4b5 20c5 0816 e0c3 08f6 5d44 645f 2044
00000030: e8db b2c5 00db 3cc1 80f4 7dc3 e773 2644
00000040: 989d 2446 fa1e b1c4 ac4f 24c4 e0e4 87c3
00000050: 27ae 45c4 80b6 2446 fcdd 7e43 2086 afc1
00000060: 38b3 7643 d84a 96c3 cb5a 6fc5 cc99 e0c4
00000070: 4ccd 6243 0097 b542 8029 c140 0245 8fc4
00000080: 30ce abc3 6e2e 1bc4 7924 1ec6 e86e 7cc4
00000090: 805a 1942 584c 8645 d7e0 d843 809f 49c4
000000a0: e07b 0ac4 80e5 f2c3 4aba c644 6cbc 2d46
000000b0: 6ca6 4746 20ed 57c4 940b 89c4 c4df 23c4
000000c0: ab01 8cc5 2d03 db45 f4e1 22c4 2f88 0644
000000d0: c2c3 cb45 300b 2944 3494 41c4 400e 29c4
000000e0: c0e0 5e42 bca5 e8c2 78ab c9c3 5caa 4746
000000f0: c070 8743 aefc 7dc5 88af 17c4 30f7 1dc5
00000100: 0ce8 45c5 e0ef 3b44 ee05 b743 32fb 0744
00000110: d098 c444 5cd8 a0c4 66a3 2743 0fd6 e2c4
00000120: d11e 2944 0400 0000 0000 0000 288b b3c3
00000130: 6342 0a44 808a f4c3 9f16 7e43 1d1b 67c5
00000140: 949a f5c5 00b9 f2c3 58d6 d2c3 c2bd c644
00000150: b0d4 1dc4 a0cf 5845 15b5 c143 a42c bfc5
00000160: 4096 c645 88e7 f8c4 e05a c943 600c f642
00000170: 01bc 7244 498e 2ec3 9881 3dc4 a9b6 6e44
00000180: 4408 c3c3 78cd a2c4 bed8 d544 98ae b745
00000190: d80f 59c3 3229 e3c4 5a4a 5345 d8d6 e142
000001a0: 302b ccc3 b843 79c4 f099 73c3 8f92 11c5
000001b0: bd60 f244 7ef2 4545 74ad b043 e66a d243
000001c0: b402 1945 6e72 a143 8d02 2444 203c 21c4
000001d0: 8082 e640 cd3f 4846 0000 0000 448f 9044
000001e0: ca7d 4943 bcb8 7144 c788 36c3 4844 0c44
000001f0: 60e4 b5c3 584f 55c4 2b30 b1c5 6081 38c4
1122.5503 -2123.0505 479.68463 347.88287 12433.114 -402.70166 -17889.914 -8627.843
-2571.3643 -448.17212 887.84424 641.4905 -5723.4883 -11.803467 -253.95508 665.811
10535.398 -1416.968 -657.2449 -271.7881 -790.7211 10541.625 254.86713 -21.94049
246.70007 -300.58472 -3829.6746 -1796.8062 226.80194 90.79492 6.036316 -1146.1565
-343.61084 -620.72546 -10121.118 -1009.7329 38.33838 4297.543 433.75656 -806.4922
-553.93555 -485.79297 1589.8215 11119.105 12777.605 -863.7051 -1096.3618 -655.49634
-4480.2085 7008.397 -651.5305 538.12787 6520.4697 676.1748 -774.3157 -676.22266
55.719482 -116.3237 -403.3396 12778.59 270.88086 -4063.7925 -606.7427 -2527.4492
-3166.503 751.74805 366.04633 543.9249 1572.7754 -1286.7612 167.63828 -1814.6893
676.4815 6e-45 0.0 -359.08716 553.0373 -489.08203 254.08836 -3697.6946
-7859.3223 -485.4453 -421.67456 1589.9299 -631.32324 3468.9766 387.4147 -6117.58
6354.7812 -1991.2354 402.70996 123.02417 970.93756 -174.5558 -758.0249 954.85406
-390.06458 -1302.4209 1710.7732 5877.824 -217.06189 -1817.2874 3380.647 112.91962
-408.3374 -997.0581 -243.60132 -2329.16 1939.0231 3167.1558 353.3551 420.83514
2448.169 322.89398 656.03986 -644.93945 7.20343 12815.95 0.0 1156.477
201.49136 966.8865 -182.53429 561.0669 -363.78418 -853.23975 -5670.021 -738.0215

exp_avg_sq f4 [128]
00000000: 93a2 084e 03b5 474d 467e 944d b4cf 574d
00000010: 636c fe4f ca4e c34d 8df8 6550 a6ae c24f
00000020: c81a 974e 8b55 ea4d 6af0 164f 268a f64d
00000030: c1e6 2951 4002 9b4e 8883 7f4d 5370 434d
00000040: bdb5 e151 1f18 264f 9a37 644e f947 a24d
00000050: 15b2 dc4a 9984 db50 2914 994d 837b 364d
00000060: 0c4d 834c 0a88 7c4d c77b 954f 1d81 2c4c
00000070: 3ae2 2f4c 4b89 1f4c d2ec 294c 51c4 b44e
00000080: a575 944d 3c18 a84c 87a7 5150 65f0 b14e
00000090: 3b51 774e d1b4 8a50 3997 924c 407f 704e
000000a0: 9747 0f4e 5edb ea4d 6a70 454e a10d 8d50
000000b0: 9fd6 a850 4785 a24e 1d82 064f b791 2f4e
000000c0: 9a82 924d 149b 4350 95b1 2d4e e00b d04f
000000d0: 43ef 9d4f 6168 314c a5d6 834e 6c73 4a4e
000000e0: 0b32 1a4c 35d3 154d 1d72 d24d 2a9b d550
000000f0: 5a45 d94d eb30 c14e 2998 1b4e 451a 1a4f
00000100: e963 4b50 5890 d84d 6c32 bb4d 381f ec4d
00000110: d5d8 b44e d05c 2c4f 341f 4d4b 8a9b a84d
00000120: fad6 f64c f401 0000 0000 0000 826a ca4d
00000130: 0b79 2d4d bef2 034e 6bad 2b4a 00f8 854e
00000140: 20d0 d54e de87 1e4e be0e bd4d 55f5 4b4c
00000150: 819f 9b4e ae05 0550 9271 5e4e 1628 394f
00000160: 0ce4 2151 7da7 b44f 3ab6 fe4b e8a7 664d
00000170: c55d 804d 1eec 104a 66a7 944e 282a ac4b
00000180: 0a42 524c d532 074f 144a a74d dee4 5850
00000190: 762d 514d a6fe c44e d204 0f4e 1e3d c94a
000001a0: ab8c d64d cdaa ac4e 2149 5c4d 95aa f34d
000001b0: 05a1 4d4e 9ea4 374f c040 c44e 5461 164e
000001c0: 34b2 0650 683b 5a4f b69b 7c4c 0d5e 674e
000001d0: e07f 4b4d 494e de50 0000 0000 9693 504e
000001e0: 9703 4f4a d7d5 d64e 42fa 204a 8913 6f4e
000001f0: 59f0 bf4d b298 854e f8cf 484e 2d83 a74c
5.7308896e+08 2.0940805e+08 3.1141293e+08 2.262946e+08 8.537032e+09 4.0959008e+08 1.5433086e+10 6.5324513e+09
1.2675574e+09 4.9143434e+08 2.5323382e+09 5.170311e+08 4.5607555e+10 1.300308e+09 2.6792563e+08 2.049324e+08
1.2117709e+11 2.7865987e+09 9.572123e+08 3.4032822e+08 7.2317545e+06 2.9463202e+10 3.210294e+08 1.9134674e+08
6.883952e+07 2.6479837e+08 5.015834e+09 4.522098e+07 4.6106856e+07 4.1821484e+07 4.454484e+07 1.5163823e+09
3.1134224e+08 8.813002e+07 1.4069669e+10 1.4926609e+09 1.03732397e+09 1.8616846e+10 7.685575e+07 1.0087178e+09
6.009584e+08 4.9253062e+08 8.281197e+08 1.8931845e+10 2.2661102e+10 1.3633217e+09 2.256674e+09 7.363906e+08
3.0725408e+08 1.3126881e+10 7.285241e+08 6.9808783e+09 5.2994063e+09 4.6506372e+07 1.1059411e+09 8.491405e+08
4.042142e+07 1.5710293e+08 4.4133674e+08 2.8669727e+10 4.556501e+08 1.6206043e+09 6.526101e+08 2.5854129e+09
1.364929e+10 4.541673e+08 3.9258048e+08 4.951836e+08 1.5170546e+09 2.8917637e+09 1.3442868e+07 3.535957e+08
1.2941512e+08 7e-43 0.0 4.244972e+08 1.8189944e+08 5.534309e+08 2.8127628e+06 1.1238113e+09
1.7935933e+09 6.649261e+08 3.964825e+08 5.3466452e+07 1.3054609e+09 8.926968e+09 9.329962e+08 3.106412e+09
4.3457233e+10 6.061751e+09 3.3385588e+07 2.4186022e+08 2.6920362e+08 2.3744075e+06 1.2469993e+09 2.2565968e+07
5.5117864e+07 2.2682555e+09 3.5083123e+08 1.4555511e+10 2.193386e+08 1.6525115e+09 5.9986445e+08 6.594191e+06
4.4994288e+08 1.4484374e+09 2.3098626e+08 5.1100534e+08 8.6247046e+08 3.081019e+09 1.6462889e+09 6.307402e+08
9.039303e+09 3.6613263e+09 6.6219736e+07 9.7042515e+08 2.133847e+08 2.983738e+10 0.0 8.748333e+08
3.3917178e+06 1.8021692e+09 2.6374565e+06 1.0027587e+09 4.0252496e+08 1.1206884e+09 8.4226816e+08 8.7824744e+07
