models/maintainance_agent/3/D3QN_q_target.pth (torch, 77199 bytes, 7 tensors)

weight f4 [128, 11]
-0.069242805 -0.035683542 -0.10708031 0.20953983 -0.26510006 -0.29218525 -0.042313576 -0.13931726
-0.274199 0.12989143 -0.0191966 -6.2874603 -11.072572 -0.601919 6.556861 5.203915
2.3708634 0.27959672 0.7819022 -15.455129 8.292483 3.7569017 8.767521 4.5520434
0.15615158 -1.793489 -2.5978305 2.9811335 0.22082272 -0.05171491 14.564127 -4.2085905
4.002925 -5.8934727 -11.3215 -0.7483911 6.695031 4.891035 2.5040138 0.18731865
0.6432925 -15.315953 8.10123 3.726613 -6.209524 -11.050349 -1.2368202 6.296961
4.871207 2.2463892 0.010316127 0.50938845 -15.742377 8.05519 3.9073138 5.474083
9.930903 0.58448315 -6.3004923 -3.8606718 -1.7334744 0.35327077 0.7148372 15.149919
-5.51702 -3.5671916 6.6903195 10.715283 -0.59794956 -5.762949 -3.6429484 -0.41248178
0.40749165 0.50705624 15.50096 -6.0485387 -4.718035 2.8599625 0.69919103 -6.146289
-0.92468846 -2.3917687 2.7045937 0.7659962 -0.15434805 13.179414 -2.2135286 9.706098
1.8466614 -4.251832 6.7297196 6.661192 4.4296265 3.2267015 1.893108 -0.23506217
-12.942233 7.4974895 2.168952 -5.738456 -11.5344 -1.6818478 6.313431 4.6419473
2.2371633 -0.053192943 0.37650362 -15.805216 7.670794 3.4972532 5.5099406 11.016618
1.4976324 -5.538369 -4.6696644 -0.9119093 0.7244809 0.7550717 15.874178 -6.7973785
-4.6356254 0.81110036 -6.492966 0.23384714 6.0816607 4.3761 2.8076403 1.3808148
-0.39423412 -13.616656 8.462085 2.5307536 -6.2703395 -11.3730545 -0.45849985 6.5909753
5.212366 2.3801088 0.26936367 0.67991984 -15.176707 8.068894 3.817548 -6.820574
-13.664551 -6.227941 5.8613977 5.3813887 2.2386699 -3.9651327 0.09643198 -14.915432
8.5102 4.601456 -3.2530422 -8.05873 -4.359434 7.3922977 3.4228482 3.2320697
-0.2728703 -0.41412142 -14.251348 9.366509 2.626278 -0.1559085 0.259681 0.03815639
-0.22781374 -0.18329674 -0.13083544 -0.0076934695 -0.22058748 -0.1387618 0.089151114 0.08642459
2.1655912 -2.8703425 5.779329 8.137797 2.7246673 4.114791 -0.24762644 -0.23137084
-8.219784 7.3233724 2.4764793 -6.4945054 -11.644255 -1.0415773 6.3465056 5.3070917
1.9931328 0.019381743 0.83782595 -15.698524 7.8611655 3.4073722 0.011739314 -0.08962998
0.2703067 -0.1626818 -0.2419873 -0.26661482 -0.16561273 -0.26860505 -0.13166781 -0.29970905
0.20715201 -6.4214478 -11.366783 -0.7358779 6.06731 5.1831927 1.7688822 0.017431537
0.5846157 -15.422712 7.8283796 3.8148212 0.010248537 1.8122057 4.818113 -0.2096454
1.0968889 -0.76578003 1.3517537 0.09872 2.3209128 -1.1707755 -2.9559164 5.033858
10.60918 2.8077898 -5.592826 -4.733789 -1.1819345 0.91563463 0.82993954 15.492014
-6.3463116 -4.076578 -0.7797942 -8.605385 -5.0786147 6.8835135 4.7275577 3.832809
-0.35509098 -0.4446335 -14.127743 9.797436 2.5381374 3.6761408 8.906537 -2.395421
00000000: 2ccf 8dbd e828 12bd ec4c dbbd 9c91 563e
00000010: 32bb 87be 4e99 95be 0051 2dbd 2fa9 0ebe
00000020: d063 8cbe 4202 053e 3042 9dbc e032 c9c0
00000030: 4129 31c1 5d17 1abf ced1 d140 7986 a640
00000040: 3abc 1740 4d27 8f3e be2a 483f 3548 77c1
00000050: 03ae 0441 1471 7040 c447 0c41 57aa 9140
00000060: 33e6 1f3e 0c91 e5bf db42 26c0 e4ca 3e40
00000070: 5a1f 623e 03d3 53bd aa06 6941 c6ac 86c0
00000080: f617 8040 5497 bcc0 dd24 35c1 8f96 3fbf
00000090: b23d d640 5c83 9c40 c341 2040 76d0 3f3e
000000a0: d1ae 243f 250e 75c1 a39e 0141 d480 6e40
000000b0: 6cb4 c6c0 3bce 30c1 2050 9ebf b480 c940
000000c0: eee0 9b40 d7c4 0f40 f904 293c 4867 023f
000000d0: c7e0 7bc1 0fe2 0041 6e11 7a40 b02b af40
000000e0: fbe4 1e41 b0a0 153f a29d c9c0 3f15 77c0
000000f0: 7de2 ddbf e8df b43e 92ff 363f 1166 7241
00000100: 6e8b b0c0 de4c 64c0 1917 d640 cd71 2b41
00000110: 3913 19bf 146a b8c0 1126 69c0 d030 d3be
00000120: bfa2 d03e 70ce 013f ef03 7841 a18d c1c0
00000130: 25fa 96c0 a009 3740 2ffe 323f 66ae c4c0
00000140: 62b8 6cbf bd12 19c0 1018 2d40 5418 443f
00000150: 6a0d 1ebe e1de 5241 74aa 0dc0 2d4c 1b41
00000160: 675f ec3f 020f 88c0 dd59 d740 7c28 d540
00000170: 80bf 8d40 4782 4e40 5d51 f23f 23b4 70be
00000180: 6313 4fc1 6feb ef40 1cd0 0a40 6ea1 b7c0
00000190: e78c 38c1 ca46 d7bf a007 ca40 d58a 9440
000001a0: af2d 0f40 d8e0 59bd 15c5 c03e 2ae2 7cc1
000001b0: 2577 f540 ffd2 5f40 6f51 b040 1144 3041
000001c0: 6bb2 bf3f 523a b1c0 e46d 95c0 e372 69bf
000001d0: 9577 393f 614c 413f a2fc 7d41 2084 d9c0
000001e0: 0b57 94c0 46a4 4f3f 61c6 cfc0 a075 6f3e
000001f0: f79c c240 0309 8c40 61b0 3340 8abe b03f
00000200: 0ed9 c9be d3dd 59c1 b364 0741 def7 2140
00000210: 9fa6 c8c0 08f8 35c1 7ec0 eabe 45e9 d240
00000220: b4cb a640 b453 1840 09ea 893e 3a0f 2e3f
00000230: cbd3 72c1 311a 0141 b552 7440 2442 dac0
00000240: 00a2 5ac1 4b4b c7c0 9290 bb40 5634 ac40
00000250: 5e46 0f40 bcc4 7dc0 217e c53d 9ca5 6ec1
00000260: c729 0841 213f 9340 d831 50c0 8ff0 00c1
00000270: 7c80 8bc0 b48d ec40 f20f 5b40 3bda 4e40
00000280: a8b5 8bbe b907 d4be 8505 64c1 39dd 1541
00000290: f014 2840 7aa6 1fbe e8f4 843e e049 1c3d
000002a0: 0148 69be 24b2 3bbe baf9 05be 8019 fcbb
000002b0: afe1 61be 9317 0ebe dc94 b63d 60ff b03d
000002c0: 0c99 0a40 b1b3 37c0 43f0 b840 6b34 0241
000002d0: f360 2e40 5eac 8340 c991 7dbe 7aec 6cbe
000002e0: 3c84 03c1 1159 ea40 a37e 1e40 fdd2 cfc0
000002f0: de4e 3ac1 6852 85bf 9316 cb40 b2d3 a940
00000300: fa1e ff3f 76c6 9e3c c37b 563f 282d 7bc1
00000310: ab8e fb40 6312 5a40 4056 403c ec8f b7bd
00000320: a465 8a3e 0f96 26be 85cb 77be bd81 88be
00000330: 6296 29be 9a86 89be edd3 06be 7773 99be
00000340: a81f 543e 807c cdc0 58de 35c1 7e62 3cbf
00000350: 6727 c240 b7dc a540 bb6a e23f 95cc 8e3c
00000360: 60a9 153f 6ec3 76c1 1682 fa40 0826 7440
00000370: 7be9 273c 5bf6 e73f fb2d 9a40 49ad 56be
00000380: db66 8c3f 290a 44bf 4406 ad3f b62d ca3d
00000390: d689 1440 f9db 95bf bc2d 3dc0 5d15 a140
000003a0: 34bf 2941 d4b2 3340 6ef8 b2c0 337b 97c0
000003b0: a149 97bf 0867 6a3f eb76 543f 4adf 7741
000003c0: fc14 cbc0 5473 82c0 98a0 47bf a8af 09c1
000003d0: 0384 a2c0 be45 dc40 2748 9740 be4c 7540
000003e0: 7cce b5be 01a7 e3be 3c0b 62c1 4cc2 1c41
000003f0: d870 2240 e445 6b40 2d81 0e41 944e 19c0

bias f4 [128]
0.14068845 7.4078016 -3.075228 7.451508 7.1060176 -6.7522774 -5.854181 -3.105445
8.160317 7.1631293 -6.484417 7.8214617 7.431494 7.429737 7.4428363 0.18047419
8.011658 7.2996283 0.12817499 7.368566 1.141107 -6.2926636 7.860091 -6.261817
-2.0727944 -2.3591797 7.6251354 7.389113 -6.6034093 7.554569 -0.5922155 7.256265
-6.0245004 7.3460135 3.0519145 7.3127337 6.976853 8.758754 -6.2487454 -1.073004
6.959202 7.0764923 -2.1653512 7.5979857 -1.9909127 -6.3917947 7.231188 -0.11208677
8.501018 -6.374407 -6.333784 7.1024637 7.385166 7.2519693 7.449909 0.65712714
7.663423 0.15955359 6.8203535 7.251974 7.277793 6.8997674 7.0349255 6.769781
3.1613455 7.1142263 7.425008 7.1467576 7.0705028 -6.4885716 -2.900126 7.3845935
-0.8280906 7.1903524 6.9452486 7.6916256 -6.802494 -6.6814957 -6.348389 7.482287
-0.13858585 -6.3681006 7.3491874 7.4455132 -5.9716725 9.22228 -6.7050705 -6.1008563
7.2696896 7.1269307 -6.5509977 -6.5901213 -0.29977188 7.2725244 7.678891 7.7234464
7.060691 -0.28391466 -0.24922007 -2.8219144 -1.7527012 -2.6819158 -1.005648 -1.5151563
-6.686932 -0.17015477 7.2579412 6.876462 7.774659 7.35767 7.17125 -6.494797
7.354902 6.9279 7.2711515 6.51817 6.6130285 7.0851765 0.1992749 6.91088
7.0187593 -6.548976 7.4177446 -2.9050708 7.4278145 -0.99367106 7.168535 7.3642673
00000000: a210 103e b60c ed40 89d0 44c0 c172 ee40
00000010: 7f64 e340 a812 d8c0 7355 bbc0 9cbf 46c0
00000020: a990 0241 5b38 e540 5880 cfc0 6a49 fa40
00000030: cdce ed40 68c0 ed40 b72b ee40 3ace 383e
00000040: c02f 0041 8e96 e940 4e40 033e 4bcb eb40
00000050: cb0f 923f 805d c9c0 de85 fb40 ce60 c8c0
00000060: aaa8 04c0 cdfc 16c0 1c01 f440 9d73 ec40
00000070: 214f d3c0 07bf f140 6f9b 17bf 5333 e840
00000080: b5c8 c0c0 8b12 eb40 9152 4340 ea01 ea40
00000090: 6142 df40 db23 0c41 b9f5 c7c0 3258 89bf
000000a0: c8b1 de40 a072 e240 1d95 0ac0 b322 f340
000000b0: 3ad6 febf 9589 ccc0 e465 e740 c08d e5bd
000000c0: 2b04 0841 24fb cbc0 5cae cac0 6247 e340
000000d0: 4853 ec40 2210 e840 a865 ee40 7c39 283f
000000e0: c33a f540 0462 233e 5640 da40 2c10 e840
000000f0: aee3 e840 e5ca dc40 1c1e e140 0ca2 d840
00000100: 7c53 4a40 bea7 e340 aa99 ed40 3db2 e440
00000110: 8f41 e240 61a2 cfc0 aa9b 39c0 974e ec40
00000120: bffd 53bf 5e17 e640 7a3f de40 cc21 f640
00000130: 08ae d9c0 d0ce d5c0 0126 cbc0 e56e ef40
00000140: 73e9 0dbe 7bc7 cbc0 8b2c eb40 a541 ee40
00000150: f117 bfc0 758e 1341 f08f d6c0 373a c3c0
00000160: 4ca1 e840 d10f e440 c6a1 d1c0 46e2 d2c0
00000170: b37b 99be 85b8 e840 7ab9 f540 7926 f740
00000180: 2ef1 e140 435d 91be 8c33 7fbe 3f9a 34c0
00000190: 8358 e0bf 82a4 2bc0 13b9 80bf a4f0 c1bf
000001a0: 59fb d5c0 0d3d 2ebe 0e41 e840 fa0b dc40
000001b0: 02ca f840 0872 eb40 e17a e540 61d5 cfc0
000001c0: 5b5b eb40 5bb1 dd40 46ad e840 d994 d040
000001d0: ee9d d340 c4b9 e240 b80e 4c3e ee25 dd40
000001e0: ad99 e040 3691 d1c0 2a5e ed40 aeec 39c0
000001f0: a8b0 ed40 3a61 7ebf a464 e540 14a8 eb40

weight f4 [128, 128]
-0.022939876 0.4059187 13.607379 0.35360983 0.2454451 1.5752796 2.2707407 4.2145066
-3.4241624 0.18955636 1.1051768 -3.5989246 0.35035563 -2.7751157 -5.936337 -0.072472
-7.6403527 0.28926384 -0.001844272 0.20805828 -1.8555008 0.78439057 -5.6376777 1.1034898
5.422868 15.553625 0.3764555 0.31827495 0.85512733 0.3498844 -5.120542 0.2612095
1.3589509 -1.6911781 -0.5481219 0.34564433 -5.1580195 -4.0355577 1.8882831 10.849654
0.48922026 0.35445642 3.6845126 0.34926572 8.173069 1.66109 0.24636717 0.045243002
-2.9399874 1.4898106 1.7029233 0.39525646 0.40640092 0.18773073 0.4061036 -4.137655
0.3504834 -0.06040495 -1.9344647 0.20999645 0.32594007 0.16957778 -5.50079 -3.6094594
-0.6131479 0.37683582 0.41523036 0.09503874 0.473937 1.6337765 4.9466586 -0.46940687
10.121775 0.24707042 0.2215345 0.38330388 1.5729859 0.74743533 1.7508695 0.31393084
-0.034358583 1.4930545 -7.058685 0.32629085 1.0124155 -8.578616 1.3290226 2.8693411
-5.9334865 0.4348403 1.2359324 1.3716899 -0.0725075 0.37695742 0.40955368 -7.370926
0.30305225 -0.06105876 -0.044815324 5.0659423 3.128285 4.7014937 11.073194 11.326379
1.0547112 -0.026408888 0.13824444 0.26331356 0.47429988 0.23257658 0.3732239 1.1459632
0.22808808 0.36229202 0.33076417 -1.9788958 -0.1389047 0.217373 0.04519787 0.12612987
0.24705394 2.0016053 0.2818371 4.4332757 0.26326233 10.508958 0.2621828 0.23888391
0.06707575 -0.02260229 0.079123005 0.03837611 -0.08384966 0.027351666 -0.076674744 -0.06436936
0.07824235 0.015754826 -0.044850677 0.083109066 -0.10563965 -0.00023630733 -0.057872068 -0.013429679
-0.02916514 -0.004966795 0.009035081 -0.08254879 -0.043370992 -0.11543419 0.05091769 -0.016865337
0.013451383 -0.073715374 -0.097567685 -0.0070292107 0.023798853 -0.0935995 -0.053703465 -0.12823804
-0.0410248 -0.08704597 -0.028454354 -0.014823783 0.017230414 -0.021205677 -0.03793951 0.021592362
0.0011970882 0.025478588 0.05536718 0.031984255 -0.0014454257 0.023971707 0.026361855 0.015091702
0.027524147 -0.05420042 0.008799796 -0.08515202 0.012348883 -0.052383967 -0.10790761 -0.03119468
-0.10699566 0.0014345124 -0.08013182 -0.10292466 -0.10559048 -0.036734752 -0.039033256 -0.043711483
-0.06364218 -0.0062109497 -0.083912246 -0.011234462 -0.017927792 0.07071129 0.027153851 -0.01112587
-0.04508239 -0.058732614 -0.040624704 -0.11759487 0.0625108 0.055060215 0.028144035 -0.041500892
0.015221085 -0.017398426 -0.010647913 0.0019112969 0.002232685 -0.06413093 0.027337508 -0.0667148
-0.09747232 0.018938461 -0.09002471 -0.08328342 -0.042937417 -0.109579526 -0.07037006 -0.046359416
0.014241518 0.076508485 0.044676445 0.11463548 -0.02711213 0.05123136 0.0011671694 -0.009078076
0.042538755 -0.03846411 -0.018349122 -0.04725722 0.036551464 -0.0429776 -0.12663765 -0.013342233
-0.00022540793 -0.055404436 0.010737693 -0.06626776 -0.08773142 -0.06849698 0.032251224 -0.046495765
0.013662049 -0.011941523 0.03423135 -0.0374813 -0.13047917 -0.0508864 -0.070384964 -0.030974515
00000000: 68ec bbbc 93d4 cf3e d3b7 5941 590c b53e
00000010: f655 7b3e c3a2 c93f d153 1140 3ddd 8640
00000020: 7a25 5bc0 101b 423e 6f76 8d3f c854 66c0
00000030: d061 b33e 7f9b 31c0 79f6 bdc0 336c 94bd
00000040: c57d f4c0 641a 943e 80bb f1ba 3b0d 553e
00000050: 0d81 edbf d2cd 483f db67 b4c0 273f 8d3f
00000060: 2288 ad40 a6db 7841 c6be c03e eff4 a23e
00000070: a0e9 5a3f 0c24 b33e 7bdb a3c0 40bd 853e
00000080: 1af2 ad3f 8678 d8bf b851 0cbf 4bf8 b03e
00000090: 7f0e a5c0 4a23 81c0 43b3 f13f 2f98 2d41
000000a0: 147b fa3e 507b b53e 0ecf 6b40 f5d2 b23e
000000b0: e4c4 0241 999e d43f ad47 7c3e ba50 393d
000000c0: c128 3cc0 1db2 be3f 64f9 d93f 0e5f ca3e
000000d0: c813 d03e 7c3c 403e d0ec cf3e ab67 84c0
000000e0: 8f72 b33e 2e6b 77bd 8a9c f7bf 4f09 573e
000000f0: 9ee1 a63e cca5 2d3e 7906 b0c0 6201 67c0
00000100: 43f7 1cbf a0f0 c03e 1399 d43e aca3 c23d
00000110: dfa7 f23e 971f d13f 074b 9e40 1956 f0be
00000120: caf2 2141 0700 7d3e f1d9 623e 6840 c43e
00000130: 9a57 c93f ec57 3f3f 7e1c e03f 8bbb a03e
00000140: 96bb 0cbd 691c bf3f bfe0 e1c0 980f a73e
00000150: d596 813f 0342 09c1 6a1d aa3f 49a3 3740
00000160: 1fdf bdc0 63a3 de3e 0833 9e3f 8993 af3f
00000170: d07e 94bd 9000 c13e 05b1 d13e a0de ebc0
00000180: aa29 9b3e c018 7abd 4690 37bd 331c a240
00000190: d235 4840 a372 9640 cd2b 3141 d938 3541
000001a0: c700 873f 7457 d8bc f38f 0d3e 09d1 863e
000001b0: 6fd7 f23e 8e28 6e3e 3417 bf3e ecae 923f
000001c0: ec8f 693e 577e b93e ec59 a93e 754c fdbf
000001d0: 093d 0ebe 0797 5e3e 6721 393d 3028 013e
000001e0: b5fb 7c3e 4d1a 0040 f44c 903e 65dd 8d40
000001f0: 52ca 863e b124 2841 d33c 863e fc9d 743e
00000200: 035f 893d 7028 b9bc 3e0b a23d 4530 1d3d
00000210: 5fb9 abbd 9a10 e03c a607 9dbd 15d4 83bd
00000220: 863d a03d 4410 813c 58b5 37bd 1635 aa3d
00000230: 9a59 d8bd 44c9 77b9 430b 6dbd 2808 5cbc
00000240: bbeb eebc 7fc0 a2bb e007 143c 570f a9bd
00000250: c8a5 31bd c368 ecbd 118f 503d 2d29 8abc
00000260: 3163 5c3c 16f8 96bd 91d1 c7bd 4b55 e6bb
00000270: d0f5 c23c 18b1 bfbd 2af8 5bbd d550 03be
00000280: 9f09 28bd 2845 b2bd 1b19 e9bc 74df 72bc
00000290: cc26 8d3c 87b7 adbc 7666 1bbd 77e2 b03c
000002a0: 9de7 9c3a 79b8 d03c b2c8 623d ec01 033d
000002b0: 7074 bdba 5060 c43c d1f4 d73c 3043 773c
000002c0: 527a e13c 4201 5ebd 052d 103c 2f64 aebd
000002d0: f852 4a3c 9290 56bd aafe dcbd fc8b ffbc
000002e0: 8a20 dbbd 4006 bc3a 271c a4bd 2aca d2bd
000002f0: d23f d8bd 2e77 16bd 56e1 1fbd d00a 33bd
00000300: d556 82bd 3985 cbbb 2fda abbd c010 38bc
00000310: 4edd 92bc 15d1 903d c171 de3c 4849 36bc
00000320: 50a8 38bd 9c91 70bd 1766 26bd 94d5 f0bd
00000330: aa05 803d d286 613d 528e e63c d7fc 29bd
00000340: dc61 793c 2587 8ebc 9674 2ebc 7b84 fa3a
00000350: 3d52 123b 1457 83bd e9f2 df3c c5a1 88bd
00000360: 919f c7bd d524 9b3c e05e b8bd 7f90 aabd
00000370: 25df 2fbd 3b6b e0bd 2e1e 90bd 5fe3 3dbd
00000380: 4255 693c 7bb0 9c3d a6fe 363d 02c6 ea3d
00000390: 421a debc f9d7 513d b5fb 983a 36bc 14bc
000003a0: 1e3d 2e3d 8b8c 1dbd e650 96bc c990 41bd
000003b0: fdb6 153d 4809 30bd 4dad 01be 6299 5abc
000003c0: 7b5b 6cb9 c3ef 62bd 26ed 2f3c 64b7 87bd
000003d0: 88ac b3bd 2548 8cbd dc19 043d 5872 3ebd
000003e0: c9d6 5f3c 61a6 43bc 2c36 0c3d fe85 19bd
000003f0: 559c 05be 426e 50bd fe25 90bd 44be fdbc

bias f4 [128]
-4.5104995 -0.094222374 5.800964 6.0336013 -4.3715634 -4.4325895 6.242285 -0.072959885
2.7049475 -4.4097857 -0.07788025 6.308364 -0.10134782 7.648741 0.037912685 7.7711506
-4.4581738 6.1997685 0.008917175 7.332063 5.245462 5.393147 6.226057 -0.028498685
6.2331753 6.2293644 -0.012350001 -4.432495 6.2795963 6.3578706 7.2411404 6.2690516
2.7204852 -1.3690127 -0.05429951 6.3272405 0.04932324 5.786781 7.6348267 0.032955065
6.1844964 -4.3929296 5.946306 -0.07364981 1.3597994 0.008405659 -0.07055782 7.84812
0.047828674 5.901541 5.920926 0.010544164 0.0354607 6.140974 -0.05363641 -4.441541
-0.103894725 6.900542 0.061696224 7.099139 6.221239 -4.5161386 6.226482 -4.3814583
-0.08542783 6.3194666 -4.412222 6.237595 6.417733 0.0009485704 0.05215523 -4.4554086
6.194847 -4.5201125 6.277981 -4.399127 6.0741825 5.5403504 6.195216 5.859871
-4.896432 6.1724243 6.1793456 6.602157 0.043825634 6.7381043 7.356205 0.02624041
7.026996 -0.020736663 6.6255393 0.01660084 -4.3687625 -0.020656196 1.4129535 6.0437145
-0.08552753 6.3210187 -4.3625116 -0.21531454 6.3651404 6.2435603 4.048827 -0.06790617
6.2556796 -4.477947 6.355688 4.2580395 6.37826 6.2727327 0.046065863 6.4352374
7.6358414 7.8762712 0.07400296 -4.4523273 0.03960695 1.0922202 -0.005794555 1.0279608
6.2339687 7.6849585 0.8034669 6.2153907 0.046629872 0.0071209455 -0.012516707 -4.359833
00000000: 0356 90c0 a9f7 c0bd 7fa1 b940 4313 c140
00000010: d9e3 8bc0 c6d7 8dc0 ccc0 c740 fe6b 95bd
00000020: dc1d 2d40 f71c 8dc0 ae7f 9fbd 1ede c940
00000030: 728f cfbd 7cc2 f440 554a 1b3d 44ad f840
00000040: 5ca9 8ec0 8164 c640 5819 123c 43a0 ea40
00000050: d3da a740 a994 ac40 dc3b c740 1376 e9bc
00000060: 2c76 c740 f456 c740 a957 4abc 00d7 8dc0
00000070: 74f2 c840 ad73 cb40 6cb7 e740 129c c840
00000080: 6e1c 2e40 cf3b afbf 2a69 5ebd c178 ca40
00000090: 2a07 4a3d 4f2d b940 8050 f440 e4fb 063d
000000a0: 65e7 c540 e192 8cc0 2448 be40 b6d5 96bd
000000b0: e80d ae3f e4b7 093c 9e80 90bd cd23 fb40
000000c0: 00e8 433d 6dd9 bc40 3a78 bd40 6ec1 2c3c
000000d0: 3d3f 113d dc82 c440 dab1 5bbd 1b21 8ec0
000000e0: c2c6 d4bd 3dd1 dc40 2eb5 7c3d 262c e340
000000f0: 6414 c740 3584 90c0 573f c740 e834 8cc0
00000100: c9f4 aebd 1239 ca40 ec30 8dc0 619a c740
00000110: 125e cd40 7ba9 783a b9a0 553d b592 8ec0
00000120: 303c c640 c3a4 90c0 38e5 c840 a6c5 8cc0
00000130: b45f c240 8d4a b140 363f c640 1084 bb40
00000140: 92af 9cc0 8084 c540 33bd c540 df44 d340
00000150: 8282 333d 8d9e d740 0866 eb40 21f6 d63c
00000160: 27dd e040 efdf a9bc 6b04 d440 7cfe 873c
00000170: e7cc 8bc0 2f37 a9bc a9db b43f 1c66 c140
00000180: 0f29 afbd c945 ca40 b299 8bc0 6a7b 5cbe
00000190: 3baf cb40 3fcb c740 fe8f 8140 6412 8bbd
000001a0: 872e c840 584b 8fc0 cc61 cb40 dc41 8840
000001b0: b51a cc40 3aba c840 8faf 3c3d 77ed cd40
000001c0: d058 f440 6a0a fc40 dd8e 973d 7779 8ec0
000001d0: e63a 223d dfcd 8b3f 40e0 bdbb 3894 833f
000001e0: ac7c c740 2eeb f540 02b0 4d3f 7be4 c640
000001f0: f7fe 3e3d d256 e93b e012 4dbc c083 8bc0

weight f4 [1, 128]
-3.616893 -0.03996011 6.597431 5.864286 -3.865977 -3.764555 6.1570272 -0.0662618
7.5378084 -3.8681815 -0.0387546 5.7472315 7.0463123 14.835421 -0.028645087 14.914111
-3.7786527 12.639278 0.043318115 11.697977 11.730213 6.463186 6.242528 0.036140192
6.1787534 6.2815022 -0.009345366 -3.7943733 6.245637 5.9581223 11.488498 6.2279277
8.118712 0.14223915 0.008393739 5.9879236 0.04404706 6.5653386 13.99137 0.028676754
5.8424616 -3.3288686 6.4731584 -0.028152976 9.817664 0.00402057 -0.04661497 14.461188
-0.0005032698 6.4992576 6.410099 0.047358543 -0.06111903 6.320809 -0.06783834 -3.8304882
-0.023649843 8.053673 0.06059187 9.044819 5.9658484 -3.8312068 6.2082987 -3.1512372
-0.061056662 5.9847274 -3.9535224 6.2333627 7.899889 -0.05293456 -0.022787062 -3.863425
6.2052255 -3.727196 6.101575 -3.266023 6.2974696 6.5809336 6.0260854 6.4717803
-2.6502068 6.304326 5.9578195 10.977527 -0.034651875 7.3976192 12.528309 -0.053537313
8.756844 0.018822234 7.8232365 -0.024125189 -3.6852129 0.05859179 9.671843 6.026729
-0.028931562 6.1746187 -3.2586339 0.036209486 5.7658887 6.054312 8.12989 -0.025432259
5.948107 -3.607282 6.0699034 8.992666 6.1711106 5.9492645 -0.025150016 13.11197
14.092152 14.57677 -0.05103988 -3.8401132 -0.007109397 7.753331 -0.061290395 -9.671238
12.914861 14.487758 9.780593 6.2261796 0.0028387439 0.0007480914 0.053789888 -3.8748507
00000000: 2d7b 67c0 36ad 23bd 281e d340 3ba8 bb40
00000010: 2b6c 77c0 78ee 70c0 5e06 c540 44b4 87bd
00000020: ba35 f140 4990 77c0 25bd 1ebd 52e9 b740
00000030: 647b e140 e25d 6d41 1aa9 eabc 33a0 6e41
00000040: 72d5 71c0 7c3a 4a41 566e 313d ea2a 3b41
00000050: f4ae 3b41 6bd2 ce40 cac2 c740 bd07 143d
00000060: 59b8 c540 1102 c940 4e1d 19bc 03d7 72c0
00000070: 42dc c740 f0a8 be40 e3d0 3741 2f4b c740
00000080: 3fe6 0141 24a7 113e e585 093c 129d bf40
00000090: b16a 343d 4117 d240 a7dc 5f41 83eb ea3c
000000a0: 72f5 ba40 2f0c 55c0 1d24 cf40 12a1 e6bc
000000b0: 2715 1d41 fcbe 833b 57ef 3ebd 0761 6741
000000c0: dded 03ba ebf9 cf40 881f cd40 08fb 413d
000000d0: f357 7abd 1144 ca40 d4ee 8abd b826 75c0
000000e0: 51bd c1bc d8db 0041 2e2f 783d 94b7 1041
000000f0: 3be8 be40 7e32 75c0 62aa c640 dfad 49c0
00000100: 8d16 7abd e382 bf40 8306 7dc0 b577 c740
00000110: e4cb fc40 e9d1 58bd efab babc 5b42 77c0
00000120: 3591 c640 618a 6ec0 1a40 c340 8506 51c0
00000130: df84 c940 0297 d240 b1d5 c040 d318 cf40
00000140: fd9c 29c0 0abd c940 75a6 be40 f3a3 2f41
00000150: 20ef 0dbd 4cb9 ec40 f473 4841 f149 5bbd
00000160: 081c 0c41 1631 9a3c f457 fa40 30a2 c5bc
00000170: 87da 6bc0 f2fd 6f3d debf 1a41 f7da c040
00000180: e201 edbc 7a96 c540 758d 50c0 6650 143d
00000190: 2982 b840 edbc c140 0814 0241 5057 d0bc
000001a0: e456 be40 b5dd 66c0 a63c c240 f6e1 0f41
000001b0: bd79 c540 6060 be40 6807 cebc a1ca 5141
000001c0: 7479 6141 733a 6941 310f 51bd 6ac4 75c0
000001d0: f2f5 e8bb 4a1b f840 a30b 7bbd 64bd 1ac1
000001e0: 45a3 4e41 dbcd 6741 4f7d 1c41 dd3c c740
000001f0: 380a 3a3b 901b 443a c952 5c3d 8efd 77c0

weight f4 [2, 128]
0.52197254 -0.0066352603 -0.24107927 -0.22817802 1.6870295 0.5971065 -0.09345459 0.07141016
-2.2812474 0.33447593 0.016270407 -0.1465026 -2.403181 -0.25428855 0.061327647 -0.2050035
0.43821144 0.7447233 0.072622605 0.025057498 1.0878252 -0.41381288 -0.04609368 0.07474057
-0.11434337 -0.12611297 -0.027635908 0.41774154 -0.10012008 -0.09201719 0.08840634 -0.12494964
-3.233488 -0.25695288 -0.090362966 -0.10167758 0.07379034 -0.27963504 -0.098427854 -0.032716647
-0.13281414 1.1230817 -0.16296911 0.07142804 -3.7664258 -0.07285259 0.006180309 -0.14577289
-0.026646467 -0.19906567 -0.14621958 0.07686399 0.05743621 -0.06347731 0.06271794 1.3069882
-0.042783137 -0.06338112 -0.012340061 0.021795806 -0.10297276 0.607841 -0.07843896 0.9537708
0.03175077 -0.10893899 1.4889395 0.0060616485 -0.45614073 0.04312363 -0.07361404 0.31695086
-0.12070012 1.0567437 -0.026177734 1.1024408 -0.15168804 -0.3007369 -0.06568089 -0.12480176
0.8429514 -0.117128566 -0.14982747 0.33432737 -0.028525915 -0.04682456 0.00024740948 0.07798903
-0.024917284 0.0033051972 -0.021631619 0.008861078 0.37794426 0.06059526 -3.1022015 -0.20114492
-0.06924203 -0.062112525 0.95908886 -0.0053491956 -0.13571577 -0.13416652 -5.3765984 -0.056448907
-0.106533274 0.59942955 -0.048076328 -6.201818 -0.08407573 -0.046797838 0.02654216 1.0961326
-0.022318324 -0.20044409 -0.014060842 0.653377 0.033807416 -3.8772864 -0.057506986 10.233684
1.368808 -0.2420102 -3.6820436 -0.10986759 0.014952678 0.08264117 0.07059953 1.4409399
-0.5951041 0.049569875 0.17327376 0.18851943 -1.6012439 -0.4580397 -0.0134615125 0.01802167
2.3901298 -0.2552644 0.030675747 0.09607152 2.427143 0.20383137 0.033634562 0.24571343
-0.4550818 -0.84672123 0.03849203 -0.03406043 -0.9799784 0.3706189 0.093764156 0.003030876
0.06032732 0.025527984 -0.04018139 -0.26050487 0.035077248 0.0735745 -0.0423952 -0.0029640377
3.177929 0.22861233 -0.015439573 0.12209383 0.03031623 0.26847118 0.03712296 0.08061312
0.10083208 -1.0508584 0.18469349 -0.067762345 3.6141891 0.0697889 -0.0100973165 0.16589111
0.002002322 0.123285756 0.11775083 0.02008101 0.018965283 0.07671902 -0.023083968 -1.4262471
-0.07552139 0.13933992 -0.014062308 0.14854455 0.10311528 -0.59277517 0.067074604 -1.0408254
0.016246207 0.048013557 -1.4732244 0.13170068 0.41162637 0.025101217 0.08212112 -0.3498421
0.04898944 -0.9586446 0.10844177 -1.1370999 0.120175034 0.29903895 0.09605384 0.16843942
-0.86160755 -0.020894596 0.11459865 -0.23743284 0.02164679 0.055032622 0.066665575 -0.005945709
0.041597214 0.04613143 0.052283812 0.031195795 -0.42189083 -0.049107198 3.200699 0.22030452
0.07622621 0.05865884 -1.1231211 0.067588 0.07183076 0.046030276 5.4450736 -0.03357635
0.08455009 -0.541512 0.14632154 6.1687303 0.06852739 0.12445439 -0.036530606 -0.9929186
0.039207086 0.29768318 -0.04244786 -0.59306675 0.031806186 3.8485224 0.025487902 -10.254183
-1.368026 0.30595705 3.7644072 0.052372973 0.034272328 -0.0019892836 -0.0056050303 -1.4301993
00000000: fe9f 053f 996c d9bb 7cdd 76be 80a7 69be
00000010: 95f0 d73f f9db 183f 1f65 bfbd 7d3f 923d
00000020: f5ff 11c0 6e40 ab3e 8449 853c c704 16be
00000030: b8cd 19c0 1c32 82be b332 7b3d 70ec 51be
00000040: 405d e03e 30a6 3e3f 29bb 943d 6245 cd3c
00000050: db3d 8b3f 48df d3be bacc 3cbd 9511 993d
00000060: db2c eabd c223 01be b364 e2bc 38e2 d53e
00000070: c20b cdbd 8273 bcbd 620e b53d 99e5 ffbd
00000080: 78f1 4ec0 548f 83be 3810 b9bd 563c d0bd
00000090: 641f 973d 532c 8fbe 8b94 c9bd e401 06bd
000000a0: 6e00 08be 24c1 8f3f 60e1 26be dd48 923d
000000b0: 1f0d 71c0 bd33 95bd 3184 ca3b 7d45 15be
000000c0: b149 dabc dfd7 4bbe 96ba 15be de6a 9d3d
000000d0: 3b42 6b3d 6400 82bd 4372 803d 644b a73f
000000e0: 5f3d 2fbd f6cd 81bd f82d 4abc 1e8d b23c
000000f0: 62e3 d2bd 789b 1b3f 9ba4 a0bd 532a 743f
00000100: 180d 023d 681b dfbd 9295 be3f cba0 c63b
00000110: 478b e9be 67a2 303d f5c2 96bd 6247 a23e
00000120: a031 f7bd 6143 873f b072 d6bc c81c 8d3f
00000130: 1c54 1bbe 30fa 99be b483 86bd 1198 ffbd
00000140: aacb 573f 1ae1 efbd 5f6c 19be f52c ab3e
00000150: 2eaf e9bc 1ccb 3fbd bdb6 8139 b6b8 9f3d
00000160: 551f ccbc 029c 583b cb34 b1bc 0e2e 113c
00000170: e981 c13e bc32 783d 788a 46c0 eff8 4dbe
00000180: c4ce 8dbd b469 7ebd d986 753f 4e48 afbb
00000190: 13f9 0abe f362 09be 180d acc0 f836 67bd
000001a0: 1e2e dabd 3774 193f afeb 44bd 4b75 c6c0
000001b0: e52f acbd 17af 3fbd f26e d93c 134e 8c3f
000001c0: ebd4 b6bc 3741 4dbe 725f 66bc b743 273f
000001d0: a579 0a3d 7625 78c0 728c 6bbd 2bbd 2341
000001e0: 1a35 af3f 86d1 77be 9aa6 6bc0 4202 e1bd
000001f0: 14fc 743c c63f a93d 7d96 903d b870 b83f
00000200: be58 18bf c809 4b3d ad6e 313e 3d0b 413e
00000210: 8ff5 ccbf 2e84 eabe ad8d 5cbc 2ea2 933c
00000220: e3f7 1840 04b2 82be b44b fb3c 25c1 c43d
00000230: 5056 1b40 2cb9 503e 65c4 093d 4d9c 7b3e
00000240: 7b00 e9be b9c2 58bf d2a9 1d3d f382 0bbd
00000250: dddf 7abf c3c1 bd3e 6c07 c03d a9a1 463b
00000260: c819 773d 1020 d13c 3e95 24bd e560 85be
00000270: 29ad 0f3d 3aae 963d 97a6 2dbd 4d40 42bb
00000280: 3063 4b40 5a19 6a3e 43f6 7cbc 540c fa3d
00000290: be59 f83c 0e75 893e 3f0e 183d 7e18 a53d
000002a0: 0d81 ce3d 8782 86bf 4a20 3d3e fcc6 8abd
000002b0: e04e 6740 7ced 8e3d 376f 25bc 5cdf 293e
000002c0: 6439 033b 3e7d fc3d 5927 f13d ee80 a43c
000002d0: 155d 9b3c dd1e 9d3d 971a bdbc 448f b6bf
000002e0: f5aa 9abd 20af 0e3e 9865 66bc 101c 183e
000002f0: 1b2e d33d 1dc0 17bf 695e 893d c439 85bf
00000300: c416 853c dda9 443d 9e92 bcbf 8bdc 063e
00000310: b1c0 d23e 11a1 cd3c 1e2f a83d 811e b3be
00000320: 27a9 483d bc69 75bf b816 de3d 7d8c 91bf
00000330: 541e f63d a21b 993e e0b7 c43d 627b 2c3e
00000340: 5092 5cbf 252b abbc b2b2 ea3d 9821 73be
00000350: 9c54 b13c e369 613d f687 883d 39d4 c2bb
00000360: d761 2a3d 4ff4 3c3d 8d27 563d 538e ff3c
00000370: 1302 d8be a124 49bd 41d8 4c40 8297 613e
00000380: 7d1c 9c3d 4044 703d 6fc2 8fbf 946b 8a3d
00000390: 011c 933d 3e8a 3c3d 0b3e ae40 5b87 09bd
000003a0: 9928 ad3d 88a0 0abf 50d5 153e 3d66 c540
000003b0: 1758 8c3d f1e1 fe3d 1ea1 15bd ea2f 7ebf
000003c0: 9c97 203d ee69 983e cfdd 2dbd 39d3 17bf
000003d0: 3447 023d 314e 7640 01cc d03c 2211 24c1
000003e0: 7a1b afbf 67a6 9c3e 0cec 7040 0b85 563d
000003f0: 2461 0c3d a45e 02bb 67aa b7bb c510 b7bf

bias f4 [2]
-4.7174134 4.796601
00000000: 0df5 96c0 c17d 9940
