models/maintainance_agent/3/D3QN_Q_target.pth (torch, 77199 bytes, 7 tensors)

weight f4 [128, 11]
0.035231054 0.15820107 -0.19523537 -0.25337955 0.26783288 -0.18273398 0.01756066 -0.290244
-0.1121093 -0.1338287 0.20403832 -0.25585082 -0.13694592 -0.06498845 -0.04542288 0.21782416
0.041452706 -0.19419557 -0.06866735 -0.19140896 -0.28948304 0.16094482 -0.081225224 -0.19400987
0.20974833 -0.29244107 -0.1611368 0.075745635 0.18084769 -0.070765615 0.014163269 0.0119714
-0.25688457 0.16080832 -0.09555452 -0.29837903 -0.26273847 -0.24856925 0.101842284 -0.12594734
0.1222909 0.2946045 -0.0139385 -0.1692237 0.16469991 -0.19601014 -0.032725632 -0.054371484
-0.05128425 0.16593419 0.26193383 -0.17456943 -0.15863293 0.14419648 -0.09655309 0.23303677
0.17964515 0.1614205 0.2793916 -0.21963295 0.16392149 0.19875424 0.06699547 0.19840607
-0.059802424 0.071926355 -0.22745256 0.19803096 0.06951347 -0.24202602 -0.1739188 0.23143223
-0.054863457 0.2223243 -0.07453612 0.045057353 -0.061279103 -0.06547215 0.2769801 0.15001214
-0.1913725 -0.047006067 -0.227617 -0.08706024 0.20472662 -0.08877579 0.18041681 0.100645274
0.11637754 0.25948936 -0.037404507 0.24049044 0.14882834 -0.16004868 -0.15918651 0.10642779
-0.28553206 -0.20297182 -0.187448 -0.22346921 -0.27819934 -0.11255827 0.15335028 -0.060546845
0.16188559 -0.21378094 0.12012928 -0.23875715 0.021559209 0.07494736 0.03256485 -0.2520042
0.19332314 -0.2958621 -0.13782717 -0.017836988 -0.13236435 -0.21274883 -0.300767 0.078547925
0.10474789 0.27453944 -0.21570723 0.0033442974 -0.10936332 -0.26454157 0.2421165 0.07496396
0.13007492 0.14968856 -0.24661198 0.26557988 0.22328296 0.12657228 -0.17147693 -0.1946946
0.01980329 -0.109536454 0.12733838 -0.20087361 0.27514035 0.08571731 -0.18108451 0.10499256
0.04345466 -0.13019954 -0.2431734 0.18447408 0.14817952 -0.256449 -0.036884204 -0.030331615
-0.01687342 -0.11089878 -0.21370344 0.18473238 -0.1525167 -0.06223687 -0.05060738 0.03116039
-0.2025341 0.09311036 0.00031191736 -0.06944507 0.19905257 0.04034236 -0.19401543 -0.007986695
0.10806462 -0.04521635 -0.27355027 -0.20501016 -0.22398722 0.26512426 0.17024776 0.03201875
0.13224585 0.19138923 0.08071744 0.19470663 -0.2637024 -0.0002706506 0.28239128 0.0022978645
0.23576781 -0.17616439 -0.21609727 0.12988147 -0.15918773 -0.23259419 -0.2683961 -0.2207371
-0.092746 0.12332626 0.12970321 -0.11459887 -0.26145318 0.10453233 -0.04237023 0.26599145
-0.09426899 0.21525222 0.05764714 -0.085023925 -0.12493929 -0.29446632 0.25212687 -0.053184062
-0.24730474 -0.16075306 0.075698026 -0.17711131 0.027217824 -0.2446141 0.055157818 0.1322957
-0.013312371 0.27265608 0.07117606 0.10330927 0.24293895 0.22530665 -0.2329419 0.16464491
0.031387385 -0.13695064 0.1862778 -0.2695104 -0.26144534 0.24768402 0.09668362 -0.11566899
-0.054565147 0.1072734 -0.20877673 0.25596613 0.2676167 0.24705362 -0.24233745 0.25588155
0.0046324953 -0.048900604 -0.16683833 -0.18836243 -0.09007056 -0.11893532 -0.101995885 -0.12556241
0.2524235 0.013641231 0.070221186 -0.2974154 -0.25627938 0.014822666 -0.16547273 0.184847
00000000: 704e 103d 76ff 213e c8eb 47be f7ba 81be
00000010: 6421 893e 9e1e 3bbe 60db 8f3c dd9a 94be
00000020: 9099 e5bd 640a 09be 6cef 503e e1fe 82be
00000030: 8d3b 0cbe aa18 85bd 580d 3abd 4c0d 5f3e
00000040: 50ca 293d 34db 46be 78a1 8cbd b600 44be
00000050: 1f37 94be b8ce 243e 6959 a6bd 86aa 46be
00000060: 44c8 563e d6ba 95be 0c01 25be 8720 9b3d
00000070: 2330 393e 90ed 90bd 0e0d 683c b123 443c
00000080: 6086 83be f0aa 243e 17b2 c3bd 23c5 98be
00000090: a885 86be f088 7ebe b092 d03d 57f8 00be
000000a0: a773 fa3d 67d6 963e 4e5e 64bc fa48 2dbe
000000b0: 18a7 283e e2b6 48be 500b 06bd a2b4 5ebd
000000c0: 6f0f 52bd a7ea 293e 311c 863e 54c2 32be
000000d0: ac70 22be 3ea8 133e a0bd c5bd 31a1 6e3e
000000e0: e6f4 373e 6a4b 253e 6a0c 8f3e 76e7 60be
000000f0: 09db 273e 3b86 4b3e ec34 893d f62a 4b3e
00000100: 63f3 74bd 204e 933d 53e9 68be a1c8 4a3e
00000110: 145d 8e3d abd5 77be c517 32be 92fc 6c3e
00000120: 81b8 60bd fba8 633e 65a6 98bd 0f8e 383d
00000130: ccff 7abd 4316 86bd 56d0 8d3e c89c 193e
00000140: 27f7 43be 6f89 40bd 6e14 69be a44c b2bd
00000150: dba3 513e 15d0 b5bd 2fbf 383e 1c1f ce3d
00000160: 5957 ee3d cadb 843e 7835 19bd 2043 763e
00000170: 7566 183e cde3 23be ca01 23be d0f6 d93d
00000180: 4231 92be d8d7 4fbe 5ef2 3fbe 1dd5 64be
00000190: 2570 8ebe f384 e6bd db07 1d3e f8ff 77bd
000001a0: 56c5 253e 64e9 5abe 5706 f63d c17c 74be
000001b0: f09c b03c 007e 993d b862 053d b206 81be
000001c0: 80f6 453e 3d7b 97be 9122 0dbe e01e 92bc
000001d0: 858a 07be d4da 59be 22fe 99be bcdd a03d
000001e0: 1086 d63d 6f90 8c3e 5be2 5cbe 002c 5b3b
000001f0: e0f9 dfbd fe71 87be 63ed 773e b486 993d
00000200: 5c32 053e f547 193e da87 7cbe 16fa 873e
00000210: 4aa4 643e 2a9c 013e a697 2fbe 055e 47be
00000220: 823a a23c a654 e0bd fe64 023e d0b1 4dbe
00000230: 32df 8c3e 8f8c af3d 386e 39be 5706 d73d
00000240: 83fd 313d 0753 05be 7302 79be c6e6 3c3e
00000250: 5fbc 173e 494d 83be e413 17bd 027a f8bc
00000260: 203a 8abc e61e e3bd 13d5 5abe 7c2a 3d3e
00000270: 562d 1cbe 17ec 7ebd af49 4fbd 1344 ff3c
00000280: 1965 4fbe a5b0 be3d d788 a339 3839 8ebd
00000290: 70d4 4b3e 083e 253d fbab 46be a0da 02bc
000002a0: fc50 dd3d c834 39bd c80e 8cbe 2fee 51be
000002b0: e85c 65be 5ebe 873e 6e55 2e3e 1826 033d
000002c0: 756b 073e 8afb 433e 2f4f a53d 2d61 473e
000002d0: 0004 87be 1ce6 8db9 9795 903e c597 163b
000002e0: 1e6d 713e 7064 34be 9a48 5dbe a6ff 043e
000002f0: 1c02 23be 2c2d 6ebe 376b 89be e808 62be
00000300: 9df1 bdbd 7a92 fc3d ebd0 043e d0b2 eabd
00000310: 31dd 85be 0c15 d63d 688c 2dbd 0830 883e
00000320: 1a10 c1bd 146b 5c3e 681f 6c3d 0621 aebd
00000330: 2ce0 ffbd 4ac4 96be c616 813e 88d7 59bd
00000340: 743d 7dbe 739c 24be 9107 9b3d ab5c 35be
00000350: eaf7 de3c 1e7c 7abe 2aed 613d 8678 073e
00000360: 221c 5abc 9499 8b3e c1c4 913d d093 d33d
00000370: fdc4 783e c9b6 663e 5288 6ebe ad98 283e
00000380: 0f90 003d ca3c 0cbe 9cbf 3e3e 44fd 89be
00000390: 2adc 85be e1a0 7d3e 1002 c63d dde3 ecbd
000003a0: b47f 5fbd 28b2 db3d 91c9 55be fe0d 833e
000003b0: 0e05 893e a0fb 7c3e 4f27 78be e802 833e
000003c0: 30cc 973b 004c 48bd abd7 2abe 15e2 40be
000003d0: ea76 b8bd 5c94 f3bd 38e3 d0bd 6f93 00be
000003e0: a73d 813e 787f 5f3c 20d0 8f3d d546 98be
000003f0: 0d37 83be c4da 723c af71 29be 8848 3d3e

bias f4 [128]
-0.017342865 -0.08719775 -0.016048077 -0.12191313 -0.21585307 -0.105589464 0.08387404 -0.29259992
-0.18298717 -0.16019572 -0.037730962 -0.25038415 0.094257645 -0.15286438 -0.2671865 0.16870068
-0.1538803 0.19158328 -0.297227 -0.2500095 0.28155935 0.26097462 -0.06595802 0.23156297
-0.016872138 -0.05334502 0.03536867 -0.1602901 0.14841044 -0.1461399 0.072258934 0.18526588
-0.28455377 -0.19172668 -0.18060653 -0.17613924 -0.25966564 -0.006730401 0.083234355 0.030273633
0.28432214 0.19524577 -0.06292923 -0.1769165 -0.10781026 -0.26094687 -0.11393514 0.19691907
-0.12413449 -0.22329 -0.15441333 -0.14189938 0.13622671 0.0009458942 -0.120056935 0.18640995
0.14202179 -0.097260565 -0.06883945 0.11352982 0.14843851 0.09666018 0.23135161 -0.02453237
0.18742712 -0.17017968 0.2424925 -0.13270606 0.021724887 0.043481473 -0.09614979 -0.21197043
0.06893001 -0.22903141 0.10639552 -0.0870232 0.22242628 -0.13978821 -0.12139473 -0.16325997
-0.10422635 -0.17074542 0.07021843 0.21670434 -0.23011845 -0.1824305 0.19116393 -0.22909895
0.2793785 -0.09027803 0.08345099 -0.109970324 0.086300224 -0.14396907 0.2893908 -0.27851295
-0.01684486 0.108414486 -0.21063463 0.092434995 0.29937872 -0.10418896 -0.017279169 -0.07579716
0.17424309 -0.014047312 0.07055459 -0.07931516 0.022643536 0.19404545 -0.18930477 -0.22461721
0.25776616 -0.033611868 0.08523302 0.23086144 0.29439443 0.16796085 -0.2329584 -0.054153796
-0.058252625 0.06079473 -0.097405165 0.0993684 -0.119639605 -0.1210069 -0.18168111 -0.12453987
00000000: a012 8ebc bc94 b2bd 4277 83bc 97ad f9bd
00000010: 9608 5dbe 4a3f d8bd 27c6 ab3d a8cf 95be
00000020: fd60 3bbe 590a 24be c88b 1abd 5a32 80be
00000030: 270a c13d 7b88 1cbe abcc 88be dfbf 2c3e
00000040: cc92 1dbe 682e 443e 232e 98be 3f01 80be
00000050: 8c28 903e 779e 853e 0015 87bd d81e 6d3e
00000060: 7037 8abc 4f80 5abd bdde 103d 1723 24be
00000070: e8f8 173e b3a5 15be 7efc 933d 57b6 3d3e
00000080: 08b1 91be 0054 44be ebf0 38be d85d 34be
00000090: e5f2 84be b28a dcbb c676 aa3d 6900 f83c
000000a0: ac92 913e 82ee 473e 0ae1 80bd 9929 35be
000000b0: a0cb dcbd d49a 85be d456 e9bd 27a5 493e
000000c0: 393a febd 22a6 64be 871e 1ebe 124e 11be
000000d0: 047f 0b3e e3f5 773a 69e0 f5bd 40e2 3e3e
000000e0: 296e 113e 8c30 c7bd b3fb 8cbd 5382 e83d
000000f0: 4400 183e c6f5 c53d 70e7 6c3e 1cf8 c8bc
00000100: e5ec 3f3e 9543 2ebe f44f 783e 19e4 07be
00000110: 64f8 b13c a119 323d 2eea c4bd c70e 59be
00000120: 2d2b 8d3d 3687 6abe e5e5 d93d 3839 b2bd
00000130: b7c3 633e a424 0fbe cd9d f8bd 9f2d 27be
00000140: a074 d5bd e3d7 2ebe aece 8f3d bee7 5d3e
00000150: 2ca4 6bbe 10cf 3abe 7ac0 433e ea98 6abe
00000160: b30a 8f3e b0e3 b8bd 5ae8 aa3d 1f38 e1bd
00000170: 2cbe b03d a16c 13be 082b 943e 4099 8ebe
00000180: 3bfe 89bc 6a08 de3d 9bb0 57be 8f4e bd3d
00000190: 2b48 993e 0561 d5bd 0b8d 8dbc 8b3b 9bbd
000001a0: c86c 323e b226 66bc ed7e 903d fd6f a2bd
000001b0: f07e b93c dab3 463e 1cd9 41be 0e02 66be
000001c0: edf9 833e 99ac 09bd a68e ae3d f166 6c3e
000001d0: deba 963e eefd 2b3e a68c 6ebe 5fd0 5dbd
000001e0: 4e9a 6ebd e503 793d 5c7c c7bd a981 cb3d
000001f0: 9c05 f5bd 77d2 f7bd 9d0a 3abe c20e ffbd

weight f4 [128, 128]
0.014997438 0.07532952 0.06919239 0.0027533278 -0.008834648 -0.018657839 -0.026919095 0.027294558
0.03412785 -0.07285724 0.030356877 -0.0726638 -0.07487547 0.013094383 -0.059481595 0.035530843
0.005683484 -0.06786271 -0.016051836 -0.005951098 -0.05723275 0.032987107 0.008476015 -0.02245561
0.064826556 0.061323702 0.030674644 0.061438724 0.050245423 0.049004436 -0.012221437 -0.08351701
0.045585383 0.08829299 0.07336193 -0.05179214 0.032089725 0.06507907 0.08287387 -0.040148843
-0.020299109 -0.020856684 -0.07107639 0.030341443 -0.08254017 -0.07874068 -0.06245161 0.0020803078
-0.076434895 -0.07630466 0.058917347 0.07222611 -0.062193036 0.008980136 -0.05744292 0.02671529
0.029035777 0.009844218 -0.075886525 0.078291096 -0.055795137 0.05690719 0.044387743 0.075791806
0.07886177 -0.06319976 -0.08846221 0.06677935 -0.08786494 0.039243855 0.0233516 0.072236925
-0.0037638543 0.064591564 0.03313999 0.04745511 -0.07526556 0.035173614 -0.05361562 0.035370275
0.070200145 -0.004330876 0.02106597 -0.011394994 0.08451358 0.07784023 -0.03205027 -0.002306275
-0.01178217 0.020736575 -0.077651516 -0.06548315 -0.05372111 -0.08173222 0.06365929 -0.07640482
0.0069661816 0.007363887 0.06759228 0.04687143 0.052261174 0.07682334 -0.045089867 0.0762363
0.02280379 0.02920586 -0.010575441 0.055993877 0.064045265 0.045890715 -0.04886261 0.00015367821
-0.07579303 0.03267362 0.009121194 -0.01566247 0.01047302 -0.07068882 -0.03434336 -0.013724388
0.06028445 -0.04821295 -0.021591228 0.087436646 0.0610187 0.03563119 0.069185145 -0.051564764
-0.050513923 -0.05585605 0.08299228 -0.050049245 -0.0015106146 -0.08589598 0.033820357 0.007554845
-0.059909668 0.018100278 0.076623835 -0.050187986 -0.031375904 -0.06214404 -0.08694913 0.043302976
0.047122113 -0.02180884 0.053134896 -0.07646658 -0.014701894 -0.038404237 -0.06776409 0.05578766
-0.08379707 0.007141052 0.04055415 -0.020337963 0.06692334 0.061700016 -0.0092860665 0.07304841
-0.039925676 0.047254354 -0.012758719 -0.02118905 -0.08505451 -0.03837612 0.016032593 -0.05506374
-0.010739432 0.01733797 -0.01297438 -0.015804991 0.03982818 0.046843927 -0.007632591 0.055193894
0.07987624 -0.061473995 -0.040073864 -0.068612665 -0.07858197 0.03553976 0.060788754 0.031166125
-0.028015383 -0.049155258 -0.022046197 0.016280752 -0.07776714 0.07260786 -0.018917708 0.003301732
0.0718509 -0.011919254 -0.06142456 -0.026721954 0.0064238696 -0.008783795 -0.049957167 -0.021184072
0.019146472 -0.025706619 0.034385823 0.0070308778 0.028736439 0.058346722 0.062029067 -0.06834963
0.0721204 0.03592797 0.037231203 -0.038846772 -0.03883432 0.006413682 0.037706334 0.036753587
0.07783187 -0.04227271 0.08563744 -0.013675956 -0.044764366 -0.055417378 -0.0045230445 -0.014250045
0.060917243 -0.03082241 -0.076854184 -0.053411286 0.05437701 0.053799473 0.03622641 -0.014196108
-0.009893176 0.035709456 0.052097954 -0.03638343 -0.069547914 -0.038014647 -0.031640355 0.076303355
0.005428831 -0.08373898 0.0385314 0.012800367 -0.05020109 0.054799996 -0.034613747 0.03262164
0.032399092 0.007854776 -0.026832448 -0.033687487 0.028560093 -0.06454482 -0.05722364 0.02175596
00000000: d0b7 753c 5d46 9a3d bdb4 8d3d 2d71 343b
00000010: 33bf 10bc 53d8 98bc 6f85 dcbc d698 df3c
00000020: a5c9 0b3d 2d36 95bd fcae f83c c2d0 94bd
00000030: 4f58 99bd d389 563c f9a2 73bd ca88 113d
00000040: 853c ba3b 9bfb 8abd 247f 83bc 6e01 c3bb
00000050: e36c 6abd 7d1d 073d fcde 0a3c d4f4 b7bc
00000060: c9c3 843d 902e 7b3d 6449 fb3c 2ca7 7b3d
00000070: 25ce 4d3d e0b8 483d 6c3c 48bc f70a abbd
00000080: bdb7 3a3d f5d2 b43d c83e 963d ff23 54bd
00000090: 8470 033d 2d48 853d c7b9 a93d 1d73 24bd
000000a0: 514a a6bc a3db aabc 8090 91bd 9e8e f83c
000000b0: d20a a9bd cb42 a1bd 42cd 7fbd c655 083b
000000c0: e689 9cbd 9e45 9cbd 5153 713d 48eb 933d
000000d0: 20be 7ebd 6c21 133c 4449 6bbd 06da da3c
000000e0: 70dc ed3c a549 213c 656a 9bbd 1557 a03d
000000f0: 7189 64bd 8317 693d eccf 353d bc38 9b3d
00000100: 4882 a13d e06e 81bd ad2b b5bd 9dc3 883d
00000110: 89f2 b3bd 2abe 203d db4b bf3c f4f0 933d
00000120: ffaa 76bb 9548 843d ccbd 073d 4a60 423d
00000130: d424 9abd 3512 103d 0d9c 5bbd 6ce0 103d
00000140: 18c5 8f3d 05ea 8dbb 8b92 ac3c 12b2 3abc
00000150: 7515 ad3d b36a 9f3d 2547 03bd e024 17bb
00000160: 010a 41bc c0df a93c c207 9fbd 081c 86bd
00000170: ab0a 5cbd 3963 a7bd cd5f 823d 217a 9cbd
00000180: 9144 e43b c34c f13b d26d 8a3d 42fc 3f3d
00000190: d00f 563d 8e55 9d3d 27b0 38bd c721 9c3d
000001a0: 04cf ba3c 2141 ef3c 9d44 2dbc d659 653d
000001b0: 2a2a 833d e7f7 3b3d 2924 48bd ae24 2139
000001c0: 6039 9bbd c6d4 053d 0f71 153c 954e 80bc
000001d0: 0897 2b3c 4dc5 90bd a0ab 0cbd 41dc 60bc
000001e0: d4ec 763d f17a 45bd 16e0 b0bc fc11 b33d
000001f0: bfee 793d 03f2 113d f1b0 8d3d 9335 53bd
00000200: b0e7 4ebd 50c9 64bd dbf7 a93d 7000 4dbd
00000210: d1ff c5ba 3bea afbd 3787 0a3d a28e f73b
00000220: d763 75bd 0947 943c f5ec 9c3d eb91 4dbd
00000230: 0584 00bd c08a 7ebd 6312 b2bd 765e 313d
00000240: 1e03 413d 74a8 b2bc faa3 593d 839a 9cbd
00000250: 36e0 70bc c34d 1dbd e6c7 8abd 9a81 643d
00000260: cc9d abbd 7cff e93b 1c1c 263d cd9b a6bc
00000270: 1b0f 893d 28b9 7c3d 9624 18bc 689a 953d
00000280: 1b89 23bd c88d 413d f209 51bc a994 adbc
00000290: 0f31 aebd 4730 1dbd c956 833c 848a 61bd
000002a0: 71f4 2fbc 5c08 8e3c 7e92 54bc 7879 81bc
000002b0: e022 233d 6bdf 3f3d d01a fabb fe12 623d
000002c0: 2796 a33d 28cc 7bbd 7e24 24bd cc84 8cbd
000002d0: 95ef a0bd 2492 113d a1fd 783d 1a50 ff3c
000002e0: 8480 e5bc 0657 49bd 3a9a b4bc 365f 853c
000002f0: 6144 9fbd 6eb3 943d 4ff9 9abc df61 583b
00000300: 9126 933d fa48 43bc 5298 7bbd 00e8 dabc
00000310: 537f d23b e8e9 0fbc e39f 4cbd 388a adbc
00000320: 10d9 9c3c b096 d2bc 26d8 0c3d 4763 e63b
00000330: ae68 eb3c f9fc 6e3d 3112 7e3d e4fa 8bbd
00000340: dcb3 933d 3529 133d bf7f 183d cb1d 1fbd
00000350: bc10 1fbd dd29 d23b f571 1a3d ee8a 163d
00000360: 5166 9f3d 2626 2dbd af62 af3d 1e11 60bc
00000370: d75a 37bd 55fd 62bd 0c36 94bb 0579 69bc
00000380: 5c84 793d 477f fcbc ba65 9dbd cbc5 5abd
00000390: 6dba 5e3d d65c 5c3d 2562 143d cb96 68bc
000003a0: fd16 22bc 1444 123d aa64 553d cb06 15bd
000003b0: 236f 8ebd 3fb5 1bbd 5199 01bd ef44 9c3d
000003c0: 56e4 b13b 587f abbd 1ad3 1d3d a1b8 513c
000003d0: a89f 4dbd f675 603d 25c7 0dbd 459e 053d
000003e0: e9b4 043d 52b1 003c b9cf dbbc e4fb 09bd
000003f0: dbf6 e93c 1330 84bd 5663 6abd 8e39 b23c

bias f4 [128]
-0.07631901 -0.030415265 0.06979978 0.011708528 0.061883163 -0.021172293 0.02031689 -0.004270412
-0.0059146583 0.07260505 -0.007729968 0.06438467 -0.085678875 0.07159738 -0.019643662 -0.042063
0.030019276 0.08774295 -0.08639809 -0.054164514 0.04895441 -0.0055372114 0.0057981606 -0.082322165
0.06574405 0.0032732321 0.063334666 -0.0584893 0.028121851 0.030152582 -0.051021382 0.0721754
0.059711058 0.043630257 -0.087229155 0.06977885 -0.019025289 0.0020925049 -0.02415013 0.024001878
-0.06686679 0.07983735 -0.05956416 -0.08238773 -0.07876758 -0.0032556031 0.06372127 -0.021725183
-0.058947727 0.05948045 -0.057084564 -0.026086353 -0.01313182 -0.028628392 -0.067696966 0.018898189
0.030336825 -0.059322648 0.043855883 0.061368916 0.06641943 -0.05029514 -0.04179937 0.033656567
-0.060466103 0.004736759 0.0577196 -0.025166065 -0.014990031 -0.005312831 -0.034960665 0.0048918934
0.054950442 0.061631948 -0.0147734275 -0.07232395 -0.010284232 -0.030565718 0.03386025 -0.0030672099
0.058628365 0.0007104054 -0.017667955 -0.04475535 -0.058228914 -0.07685958 0.07580829 0.039463986
-0.004165478 0.007180445 0.009037896 0.040914048 -0.047246825 0.07815956 0.0030411123 -0.079129696
-0.05441169 0.037936635 0.0139085585 0.048552785 -0.011410567 -0.01283879 0.05352671 -0.013315457
-0.03219916 -0.012575149 0.070516035 0.008058943 0.082077384 0.042404123 -0.07522277 -0.024757246
0.07827868 -0.06558851 -0.05310986 0.074933216 -0.08019021 0.033370357 0.063515864 -0.056021035
-0.029534595 -0.053220227 0.018862342 0.02636097 -0.047455717 -0.044209357 0.03790128 0.06051464
00000000: 244d 9cbd 6f29 f9bc 30f3 8e3d 20d5 3f3c
00000010: 3379 7d3d 8471 adbc 9b6f a63c d0ee 8bbb
00000020: c0cf c1bb f5b1 943d ac4b fdbb 1cdc 833d
00000030: 6878 afbd a6a1 923d bfeb a0bc 414a 2cbd
00000040: fcea f53c 93b2 b33d 7bf1 b0bd 9cdb 5dbd
00000050: 6b84 483d 7f71 b5bb 7ffe bd3b 8698 a8bd
00000060: d1a4 863d b983 563b 9bb5 813d 7a92 6fbd
00000070: cc5f e63c 8c02 f73c ccfb 50bd b2d0 933d
00000080: 9593 743d a4b5 323d 33a5 b2bd 37e8 8e3d
00000090: ecda 9bbc 6822 093b 7ed6 c5bc 969f c43c
000000a0: 75f1 88bd c481 a33d 8cf9 73bd e6ba a8bd
000000b0: e650 a1bd f55b 55bb 4c80 823d 03f9 b1bc
000000c0: 2c73 71bd c6a1 733d 81d1 69bd 0cb3 d5bc
000000d0: d826 57bc 1786 eabc b5a4 8abd 60d0 9a3c
000000e0: ef84 f83c 4efc 72bd 3aa2 333d f95d 7b3d
000000f0: e906 883d 4702 4ebd d135 2bbd 78db 093d
00000100: 4eab 77bd d036 9b3b 636b 6c3d 1029 cebc
00000110: bf98 75bc 4217 aebb ea32 0fbd 2d4c a03b
00000120: b713 613d c871 7c3d 3f0c 72bc 941e 94bd
00000130: 327f 28bc f564 fabc 0cb1 0a3d 3e03 49bb
00000140: 4c24 703d 803a 3a3a 63bc 90bc 6351 37bd
00000150: 7181 6ebd 8e68 9dbd 6041 9b3d fda4 213d
00000160: 907e 88bb f049 eb3b af13 143c 7d95 273d
00000170: e385 41bd 1f12 a03d 664d 473b c00e a2bd
00000180: cbde 5ebd 7263 1b3d b9e0 633c 49df 463d
00000190: 63f3 3abc ca59 52bc d33e 5b3d 1329 5abc
000001a0: 44e3 03bd ff07 4ebc b66a 903d a809 043c
000001b0: 3018 a83d f2af 2d3d 650e 9abd b5cf cabc
000001c0: 9350 a03d 4553 86bd b989 59bd 9676 993d
000001d0: c43a a4bd 5baf 083d 9b14 823d 5076 65bd
000001e0: 89f2 f1bc 74fd 59bd 3385 9a3c f6f2 d73c
000001f0: ed60 42bd df14 35bd 5f3e 1b3d 33de 773d

weight f4 [1, 128]
0.014563015 -0.03997069 -0.052911952 0.008091618 0.03903784 0.046746857 0.04019086 -0.063325085
0.06980287 0.011051051 0.08868216 -0.013035439 0.036767673 0.005081693 -0.03454111 0.062294118
0.05247069 -0.07531615 0.078511916 0.0015623495 -0.015493138 -0.046328902 -0.05307365 0.03809768
-0.08341564 -0.027715405 -0.066543505 -0.081624396 -0.08745621 0.029329794 -0.05003809 -0.03623204
0.07396096 -0.037850812 -0.028892979 -0.06332575 -0.034625918 -0.0142239295 0.08244145 0.023849035
-0.05695217 0.07094162 0.073329635 0.0357513 -0.0016044229 0.011931112 0.08055818 -0.048794206
-0.023123626 0.052634627 0.023846941 0.058589563 0.032918338 -0.006251019 -0.015867965 0.080865346
-0.04441659 -0.049244054 -0.023903472 0.0022013257 0.035025638 -0.050169148 -0.05824474 -0.051739763
0.038459748 0.046160214 -0.083503276 -0.06724795 0.08762604 -0.008818718 0.015896354 0.064368404
0.046963215 -0.08655995 -0.08393911 0.026953213 0.056448415 0.06808513 -0.013845995 0.052975714
0.075728744 -0.07091141 0.036497265 0.0016465927 -0.030433722 0.06606752 0.007766453 -0.014271447
-0.017299972 0.057000667 0.061018445 -0.050846394 -0.012963975 0.0145973135 -0.040911928 -0.06739642
-0.070961475 -0.023677073 0.013274038 0.010141807 -0.07175506 -0.061993733 -0.07177517 -0.032354053
-0.07421 0.02190004 0.00760777 -0.051719934 -0.036584593 -0.017602121 -0.036492527 -0.07757047
0.08725885 0.07424211 -0.023173414 -0.0093697095 0.05824811 0.0618492 -0.01223015 0.055575896
-0.06492465 -0.053221397 -0.08848418 -0.040140294 0.03654076 0.019845914 -0.062053394 -0.02784979
00000000: b699 6e3c 4eb8 23bd 34ba 58bd b592 043c
00000010: 24e6 1f3d a279 3f3d 2c9f 243d 95b0 81bd
00000020: cff4 8e3d 780f 353c fe9e b53d 9892 55bc
00000030: b399 163d 5584 a63b fb7a 0dbd 1e28 7f3d
00000040: 82eb 563d 5b3f 9abd dbca a03d c0c7 cc3a
00000050: eed6 7dbc 60c3 3dbd c163 59bd 500c 1c3d
00000060: d2d5 aabd 6b0b e3bc f647 88bd b12a a7bd
00000070: 3e1c b3bd 0945 f03c bef4 4cbd 0c68 14bd
00000080: d878 973d 7409 1bbd f8b0 ecbc eeb0 81bd
00000090: e8d3 0dbd 7c0b 69bc 10d7 a83d 0d5f c33c
000000a0: ae46 69bd d749 913d d92d 963d f56f 123d
000000b0: 804b d2ba b67a 433c b0fb a43d 6fdc 47bd
000000c0: c26d bdbc 6897 573d a95a c33c 9cfb 6f3d
000000d0: 61d5 063d 59d5 ccbb 89fd 81bc bb9c a53d
000000e0: 2cee 35bd 22b4 49bd 37d1 c3bc 1e44 103b
000000f0: 0b77 0f3d 2a7e 4dbd 0992 6ebd 13ed 53bd
00000100: f887 1d3d 7e12 3d3d c403 abbd 4bb9 89bd
00000110: 4875 b33d 627c 10bc 1239 823c 95d3 833d
00000120: 805c 403d 5846 b1bd 45e8 abbd fccc dc3c
00000130: 7436 673d 3770 8b3d 50da 62bc 10fd 583d
00000140: ac17 9b3d 003a 91bd 287e 153d 7cd2 d73a
00000150: 2450 f9bc 684e 873d bb7d fe3b cad2 69bc
00000160: acb8 8dbc 8879 693d 7aee 793d 4f44 50bd
00000170: da66 54bc 9229 6f3c 4493 27bd 2207 8abd
00000180: 4054 91bd 6cf6 c1bc 5a7b 593c d229 263c
00000190: 51f4 92bd 24ed 7dbd dcfe 92bd af85 04bd
000001a0: 6afb 97bd b667 b33c 9a4a f93b 48d8 53bd
000001b0: bad9 15bd 5332 90bc 3079 15bd 44dd 9ebd
000001c0: c5b4 b23d 3f0c 983d 2cd6 bdbc 6983 19bc
000001d0: 9295 6e3d 9655 7d3d f860 48bc 8da3 633d
000001e0: 37f7 84bd aefe 59bd 3237 b5bd 266a 24bd
000001f0: c4ab 153d e693 a23c b32b 7ebd 3e25 e4bc

weight f4 [2, 128]
0.043464873 0.008210884 0.075820155 0.016770117 0.017379332 -0.08148405 -0.050469644 0.0719125
-0.03065119 0.024367334 0.041340802 -0.031434245 0.03858806 0.036960177 -0.08275203 0.059303902
-0.031688247 0.08716605 -0.045281287 -0.018957265 -0.056467608 -0.02709597 -0.06919108 0.0049414444
0.07316007 0.0581282 -0.08242768 -0.0767686 -0.06348771 0.030522957 -0.01509266 -0.050013185
0.04434386 -0.054211207 0.017978229 -0.013403237 -0.060878456 0.037511636 0.040189028 0.039898694
-0.020824082 0.0016418356 0.07300459 -0.015682044 -0.041181505 0.012888014 -0.049788225 -0.064491004
-0.06530456 0.03801927 0.06258737 -0.07918822 0.07598492 -0.037105203 0.026062595 -0.044290148
0.08374677 -0.030940069 0.015344431 -0.059560433 0.04718394 -0.0519469 0.019714665 0.004036713
-0.007688062 0.06790527 0.03530226 -0.06530879 0.05368876 -0.012035913 0.08671905 -0.027701255
-0.025140634 0.013701238 -0.02182092 0.012958928 -0.08241633 -0.056086987 -0.040916253 -0.051074583
0.06245202 -0.065141566 0.023314197 0.020874277 0.051798504 -0.0009370467 -0.08796325 0.04985264
-0.024707101 -0.07980033 -0.009582936 0.0874404 -0.06481465 0.016784737 -0.042792786 0.05451603
0.068117395 0.0019078627 0.08372755 -0.082754485 0.082865186 -0.054643728 -0.06839355 -0.06488453
-0.054578 -0.057050526 0.076471396 0.057764374 -0.00095169287 0.032593515 0.050348993 0.012508051
0.0406171 -0.07886171 -0.052214462 -0.081050254 0.0631377 0.005830946 -0.084516 0.07220501
0.027142009 0.073647484 -0.07053395 0.04690092 0.04093745 -0.040730666 0.075037874 0.03417902
-0.017882718 -0.03160187 -0.064659275 -0.05269299 0.08576489 0.07706224 0.031471886 -0.057946935
-0.07690824 -0.03093293 0.027657755 0.019188583 -0.052257556 0.018497422 0.017914308 -0.054573826
0.002373663 0.0688887 -0.015898693 0.04111927 -0.085172996 0.028206868 0.016984938 0.016608285
0.035964057 -0.023891307 0.06804816 0.08429602 0.025712563 -0.040387563 -0.025156952 0.0539483
-0.009958622 0.062269904 0.054693162 -0.040445324 -0.07164173 0.047852606 0.009460037 0.051222824
0.051531322 -0.044357643 -0.00012855977 0.05850235 -0.08053977 0.022039674 -0.037476394 -0.06806711
-0.032449745 -0.0718814 -0.026918767 0.0801475 0.012019401 0.051711928 0.08257216 -0.029994851
-0.022270935 0.035322674 0.0232778 0.047071707 0.08543823 -0.068549626 -0.045100685 0.07929365
-0.037977345 -0.030900497 0.047672424 -0.05765459 -0.040158812 -0.018900558 0.038162585 -0.029433893
-0.06763265 -0.0676603 0.031497926 -0.081980735 -0.06574463 -0.044856828 -0.015835434 -0.03765758
0.008210254 -0.033578683 0.05907704 -0.03792456 -0.036366098 -0.070804894 -0.04398116 -0.024860714
0.027829014 0.0778585 0.022948323 -0.05308967 -0.010356261 -0.0877604 0.085553184 -0.046116844
0.0030421128 0.02312532 -0.07390441 -0.012549187 -0.022872636 -0.01417847 0.06358445 0.06455592
-0.018925287 -0.024313094 -0.07285625 -0.028546829 -0.009409572 0.053312633 -0.0295089 0.043546274
0.06947898 -0.02906787 -0.051201142 -6.1750296e-05 -0.079089954 0.01657174 0.08330587 -0.011217478
0.030599924 0.08294646 0.071558185 -0.0712174 -0.048187286 -0.020057578 -0.009869298 -0.039928824
00000000: 3908 323d f286 063c 9947 9b3d 7c61 893c
00000010: 1a5f 8e3c 1ce1 a6bd 42b9 4ebd dc46 933d
00000020: 3418 fbbc 019e c73c f954 293d 32c1 00bd
00000030: 830e 1e3d 8e63 173d e579 a9bd a6e8 723d
00000040: 89cb 01bd 1d84 b23d df78 39bd 444c 9bbc
00000050: 944a 67bd 5ef8 ddbc 0eb4 8dbd d7eb a13b
00000060: f2d4 953d d617 6e3d d8cf a8bd db38 9dbd
00000070: d805 82bd 480b fa3c 3447 77bc a0da 4cbd
00000080: e8a1 353d 920c 5ebd 1447 933c 4099 5bbc
00000090: b05b 79bd cda5 193d 409d 243d d06c 233d
000000a0: 4497 aabc dc32 d73a 6e83 953d a177 80bc
000000b0: f0ad 28bd 4028 533c bdee 4bbd dc13 84bd
000000c0: 66be 85bd 18ba 1b3d cf2d 803d 6f2d a2bd
000000d0: fb9d 9b3d a0fb 17bd 3981 d53c 9669 35bd
000000e0: 6d83 ab3d 0776 fdbc 3567 7b3c a4f5 73bd
000000f0: f243 413d 46c6 54bd a680 a13c 6746 843b
00000100: 23ec fbbb eb11 8b3d 1a99 103d 9dc0 85bd
00000110: bfe8 5b3d 4732 45bc c299 b13d beed e2bc
00000120: bbf3 cdbc 287b 603c c9c1 b2bc af51 543c
00000130: e5c9 a8bd 78bb 65bd cd97 27bd 9533 51bd
00000140: b0cd 7f3d f168 85bd 6afd be3c 8800 ab3c
00000150: ab2a 543d 24a4 75ba 1426 b4bd 4832 4c3d
00000160: 8c66 cabc 5b6e a3bd bf01 1dbc f413 b33d
00000170: 8bbd 84bd 2580 893c 7d47 2fbd 334c 5f3d
00000180: 2281 8b3d 4011 fa3a 5a79 ab3d 2f7b a9bd
00000190: 39b5 a93d 1ad2 5fbd eb11 8cbd 2ee2 84bd
000001a0: 2e8d 5fbd d0ad 69bd 099d 9c3d 569a 6c3d
000001b0: 077b 79ba c780 053d bf3a 4e3d 91ee 4c3c
000001c0: 1e5e 263d 4082 a1bd d5de 55bd adfd a5bd
000001d0: 574e 813d 8511 bf3b b916 adbd 38e0 933d
000001e0: eb58 de3c 7ed4 963d 1b74 90bd 2e1b 403d
000001f0: 07ae 273d 33d5 26bd 75ad 993d 4dff 0b3d
00000200: c77e 92bc f670 01bd 156c 84bd 9bd4 57bd
00000210: 81a5 af3d cfd2 9d3d aae8 003d c459 6dbd
00000220: 1182 9dbd 0e67 fdbc 8492 e23c 6031 9d3c
00000230: 050c 56bd e887 973c 07c1 923c ce88 5fbd
00000240: 758f 1b3b 8515 8d3d fa3d 82bc ae6c 283d
00000250: 2e6f aebd 1712 e73c ff23 8b3c 190e 883c
00000260: 0c4f 133d b4b7 c3bc d55c 8b3d 64a3 ac3d
00000270: 27a3 d23c 6e6d 25bd f415 cebc e5f8 5c3d
00000280: 7d29 23bc ba0e 7f3d f005 603d ffa9 25bd
00000290: e6b8 92bd 1801 443d 45fe 1a3c 06cf 513d
000002a0: 8212 533d 5cb0 35bd 00ce 06b9 29a0 6f3d
000002b0: 09f2 a4bd 8c8c b43c d980 19bd c566 8bbd
000002c0: 06ea 04bd 8e36 93bd bf84 dcbc 5f24 a43d
000002d0: 06ed 443c e3cf 533d 981b a93d c3b7 f5bc
000002e0: 8971 b6bc 82ae 103d 16b1 be3c 43ce 403d
000002f0: 3dfa ae3d bf63 8cbd 7fbb 38bd b664 a23d
00000300: 228e 1bbd 0a23 fdbc 2944 433d 3827 6cbd
00000310: 917d 24bd 58d5 9abc 5f50 1c3d 591f f1bc
00000320: fd82 8abd 7c91 8abd f803 013d 84e5 a7bd
00000330: 1fa5 86bd cbbb 37bd 50b9 81bc d63e 1abd
00000340: 4d84 063c cd89 09bd c4fa 713d c956 1bbd
00000350: 9ef4 14bd 2802 91bd 9725 34bd b2a8 cbbc
00000360: acf9 e33c 4774 9f3d 1ffe bb3c 8e74 59bd
00000370: 4fad 29bc b9bb b3bd 8236 af3d 04e5 3cbd
00000380: 2f5e 473b 5071 bd3c 325b 97bd 1b9b 4dbc
00000390: 655f bbbc d04c 68bc 9038 823d e535 843d
000003a0: 3409 9bbc 412c c7bc a835 95bd 0adb e9bc
000003b0: 9b2a 1abc 595e 5a3d a6bc f1bc 945d 323d
000003c0: ff4a 8e3d be1f eebc 4ab8 51bd f07f 81b8
000003d0: eaf9 a1bd 75c1 873c 459c aa3d 83c9 37bc
000003e0: b1ac fa3c d5df a93d 198d 923d 6eda 91bd
000003f0: 0860 45bd ca4f a4bc d6b2 21bc 688c 23bd

bias f4 [2]
0.07612797 -0.056675665
00000000: fbe8 9b3d be24 68bd
