models/maintainance_agent/D3QN_q_eval.pth (torch, 5967 bytes, 7 tensors)

fc1.weight f4 [32, 10]
000000 48 77 41 40 c9 8e 06 40 df 73 e8 3f be 21 95 3f
       3.0229053 2.102465 1.8160361 1.1650922
000010 48 e4 d9 3f 15 a4 38 bc e3 06 69 c0 6f bc 9f c0
       1.7022791 -0.011269589 -3.6410453 -4.991752
000020 6b 74 49 40 ad 63 e6 3d 1a 7d 42 3f a1 78 b8 40
       3.1477306 0.112494804 0.7597214 5.764725
000030 2b ff 3c 40 92 ec 8a 3f e3 48 02 41 70 ca 78 40
       2.9530742 1.0853446 8.142795 3.8873558
000040 1e ab 00 c0 2f 94 69 be 06 1a 20 40 f3 a0 b7 3f
       -2.0104442 -0.22810434 2.5015883 1.4345993
000050 0e c0 1a c0 33 7e 47 40 0c 3a 11 c0 bd dc 55 c0
       -2.417972 3.1170776 -2.269168 -3.3415978
000060 5a 78 bd 40 77 4a 93 40 fb 26 60 3f 91 41 fe bd
       5.9209414 4.60284 0.8755948 -0.124148495
000070 2f 58 2f 40 58 40 43 3f 26 0f 09 c0 ca 4a 2b 40
       2.7397573 0.76270056 -2.1415496 2.6764398
000080 d7 5e 23 c0 17 d9 79 c0 a1 98 d7 40 20 93 aa 40
       -2.5526636 -3.903875 6.7373815 5.3304596
000090 29 58 22 3e 94 ba f4 3d c8 4a 57 40 61 fd ea 3f
       0.15853943 0.119496495 3.3639393 1.8358575
0000a0 6a f1 63 3f b5 46 ae 40 d6 5d 09 3f c0 15 cb 3e
       0.89040244 5.446131 0.5365881 0.3966503
0000b0 77 fe 06 41 ed 86 6c 40 89 dd f3 3e ed 5e 77 be
       8.437125 3.6957352 0.47629955 -0.24157305
0000c0 47 9d 21 40 99 58 51 3f a4 c4 0b c0 01 3c f6 3f
       2.5252244 0.81775814 -2.183877 1.9237062
0000d0 ee 34 93 c0 7b 37 8f c0 5b be d9 40 e1 f7 94 40
       -4.600211 -4.4755225 6.8044868 4.6552587
0000e0 90 3c af bf 2e 4d 00 bf 22 e0 78 40 f6 c6 a3 3f
       -1.3690357 -0.50117767 3.88868 1.2795093
0000f0 a2 79 0b c0 04 90 5e 40 c5 2c fb bf 0d 06 4f c0
       -2.1792989 3.47754 -1.9623038 -3.2347443
000100 b1 14 b9 40 da a0 78 40 d2 4d 36 c0 6b bb 5e bf
       5.783776 3.8848176 -2.8484998 -0.8700473
000110 4d d9 f7 3f 30 da 26 3d 0f a0 62 bf 7d 9d 6a 40
       1.936319 0.040735424 -0.8852548 3.6658623
000120 a6 28 31 c0 4a 3b d0 bf a8 b3 dd 40 c8 12 8f 40
       -2.768106 -1.6268094 6.9281807 4.4710426
000130 04 a4 20 3f fb a9 1a 3f 8e 12 31 40 cb 5c 58 3f
       0.6275027 0.6041562 2.7667575 0.8451659
000140 17 8a d6 be 18 f7 a6 40 72 b6 50 40 86 f2 85 bd
       -0.4190223 5.217663 3.2611356 -0.06540398
000150 92 32 e5 40 1c 9e 48 40 50 ea 2c c0 d4 53 ac bf
       7.162423 3.1346502 -2.7018013 -1.3463082
000160 40 d9 1a 40 30 dc 14 3f 26 11 15 c0 74 82 ec 3f
       2.41951 0.5814848 -2.3291717 1.8477311
000170 6e dd 8d c0 76 78 1e c0 e1 b7 a5 40 2b cc 5d 40
       -4.43328 -2.4761024 5.178696 3.4655864
000180 9c 3c 2e c0 01 2d 83 bf af b4 bd 3f 64 52 c3 3d
       -2.7224493 -1.0248109 1.4820765 0.09537199
000190 43 3b 22 c0 cb 60 4c 40 22 de c6 bf 16 97 4c c0
       -2.534867 3.1934078 -1.553654 -3.1967216
0001a0 66 82 ac 40 0d b9 8d 40 db 24 26 3f 3b 00 9a be
       5.390918 4.428839 0.64899987 -0.300783
0001b0 33 b5 3d 40 df d6 75 3f cd 88 c8 3e 60 80 ab 40
       2.9641845 0.9603099 0.3916687 5.359421
0001c0 2a 6a 1b 3f 0c 59 85 3f d7 83 04 41 91 05 70 40
       0.6070887 1.04178 8.282187 3.7503397
0001d0 3a 3b eb 3e 49 58 82 be 63 47 1f 40 6a 13 8c 3f
       0.45943624 -0.2545798 2.488732 1.0943425
0001e0 ce 18 7e 3e 34 49 8d 40 a7 2e 4f 3f dc 65 3a bd
       0.2481415 4.415186 0.8093056 -0.045507297
0001f0 a7 21 02 41 3e 7f 61 40 a2 e5 1b c0 87 9b ea be
       8.133216 3.5233912 -2.4358907 -0.45821783
000200 b7 92 13 40 2a 58 89 3f eb 01 88 3d 31 a9 aa 40
       2.3058298 1.073003 0.06640991 5.3331532
000210 fc a5 95 3f d4 96 b1 3e f8 90 00 41 26 bc 63 40
       1.169128 0.34685385 8.035393 3.5583587
000220 ac 65 14 c0 7a d5 07 bf 57 c1 3e 40 c4 e7 3d 3f
       -2.3187056 -0.53060114 2.9805505 0.7418177
000230 bd 21 a6 be 94 f3 9e 40 9b 34 79 3f 59 94 0f bf
       -0.32447615 4.9672337 0.97345895 -0.56085736
000240 60 70 de 40 cd 10 54 40 e8 04 49 3f 24 84 3c bb
       6.9512177 3.3135254 0.7852311 -0.0028765285
000250 fd 29 6c 3f f0 fe 77 3e ce b6 7a 3d 34 62 9b 40
       0.9225157 0.24218345 0.061209492 4.8557377
000260 55 84 29 3f 07 0a 7b 3e f8 9a 01 41 33 0b 58 40
       0.6621755 0.24515544 8.100334 3.3756835
000270 9b 03 1f c0 6c 78 2a bf 0f 4d 27 40 75 73 53 3f
       -2.484595 -0.6659 2.6140783 0.8259805
000280 68 02 49 40 fe 3c 0a 40 6d 25 0d 40 02 d7 55 3f
       3.1407719 2.1599727 2.2054093 0.835312
000290 e8 cf e6 3f 60 d9 02 bd e1 63 6e c0 c0 32 9e c0
       1.8032198 -0.031945586 -3.7248461 -4.943695
0002a0 93 8e 4e 40 de ba 0e 3e 5b e1 0e c0 2f f8 09 40
       3.227452 0.13938472 -2.2325046 2.155773
0002b0 f2 77 53 c0 f2 35 94 c0 af fd dc 40 41 ee 97 40
       -3.304196 -4.631585 6.905967 4.7478337
0002c0 90 68 12 c0 3a c8 f3 be 8d 96 40 40 36 b8 77 3f
       -2.287632 -0.47613698 3.009189 0.9676546
0002d0 ce 55 15 c0 07 e2 1a 40 17 a4 80 c0 f7 23 91 c0
       -2.333362 2.4200456 -4.0200305 -4.5356402
0002e0 e6 4a dd 40 ee 94 91 40 cb 13 37 c0 24 ae dd be
       6.915393 4.54943 -2.860583 -0.4329692
0002f0 81 40 65 40 c9 c9 fb 3e da c0 d3 be 90 c0 7e 40
       3.582062 0.49177387 -0.41358072 3.980503
000300 34 38 b2 bf 51 24 6c 3d e3 d9 be 40 56 fe 77 40
       -1.3923402 0.05765182 5.9640975 3.8748984
000310 5e ec b2 3f f4 b7 6e 3f e6 fc ce 3e 76 85 1b be
       1.3978384 0.9324944 0.4042732 -0.1518763
000320 2b 92 9c 40 7f 6a 8e bf b5 ea b9 be 43 d5 cd 3f
       4.892843 -1.112625 -0.3631188 1.6080707
000330 75 69 96 c0 f7 48 38 c0 88 ef ab 3f 0b 0c 01 be
       -4.700373 -2.8794534 1.3432474 -0.1260225
000340 1e 5a 3a c0 be 04 69 c0 2b 0c fc 40 b9 ff 0f c0
       -2.9117503 -3.6409144 7.8764853 -2.249983
000350 bb d5 14 c0 50 f6 2d 40 06 4d af c0 28 4b f6 bf
       -2.325545 2.7181587 -5.4781523 -1.9241686
000360 64 76 1b 40 6e b4 a8 3e 4c 43 8a bf 2c 5b b6 c0
       2.429101 0.32950157 -1.0801787 -5.6986294
000370 d7 00 67 3f f0 91 bb 40 3f 52 d5 3f 51 5a 04 3f
       0.90235656 5.8615646 1.6665725 0.5170031
000380 2d 40 09 41 fe c5 72 40 75 3f cb bf 1e d2 35 bf
       8.578168 3.7933345 -1.587874 -0.7102374
000390 10 8c 1b 40 7e 8e 62 3f 90 ee d9 be dc 68 c6 40
       2.4304237 0.88498676 -0.4256482 6.2003
0003a0 0d f4 9b 3f 43 82 22 bf 15 7a f1 40 be 2c 70 40
       1.2183853 -0.63480014 7.5461526 3.7527308
0003b0 83 c8 2d 3f b3 aa a2 bd d9 29 f7 3f b1 23 95 3f
       0.6788408 -0.079427145 1.9309646 1.1651517
0003c0 38 6a 0f 3f 49 ad ab 40 ff 81 f5 3e 7f b8 2c 3f
       0.5602145 5.364903 0.47950742 0.6746902
0003d0 43 25 c4 40 b6 b2 65 40 cc a9 84 3f 19 b2 55 3f
       6.1295485 3.5890326 1.0364318 0.8347488
0003e0 22 67 b0 3e 17 37 15 bf 01 95 99 be e5 f7 ab 40
       0.34453684 -0.58287185 -0.29996493 5.3740106
0003f0 c1 8e 12 40 9a 52 70 bf 75 af 02 41 6f 57 4a 40
       2.289963 -0.9387604 8.167836 3.1615865

fc1.bias f4 [32]
000000 4d f0 35 40 b9 56 02 41 8a a7 ad 40 f2 40 c7 40
       2.8427918 8.146173 5.4267015 6.226678
000010 ef 30 f5 40 ca bd c9 40 76 a8 a9 40 da cb da 40
       7.6622233 6.3044176 5.301814 6.837384
000020 68 90 e5 40 d3 6d ab 40 9c d5 b6 40 87 45 04 41
       7.1738777 5.3571563 5.7135754 8.266974
000030 ac 17 fc 40 04 a6 f1 40 03 34 c9 40 22 17 ea 40
       7.8778896 7.5515156 6.287599 7.315324
000040 59 5a 47 40 c4 2f c0 40 8d ab bd 40 cd 00 a9 40
       3.1148894 6.005831 5.9271913 5.2813478
000050 25 f1 8e c0 d7 f6 7b c0 15 b2 fd 40 fe a5 f5 40
       -4.4669366 -3.936941 7.9279885 7.6765127
000060 3e ef d2 40 b4 ce f4 40 28 2b aa 40 c3 76 d3 40
       6.5917044 7.6502323 5.317768 6.6082473
000070 aa 0d 24 40 c8 b2 98 c0 6d dc 3e 40 a2 95 de 40
       2.563334 -4.771824 2.9822037 6.9557657

fc2.weight f4 [16, 32]
000000 87 84 1b c0 2b e6 2c 40 13 7c a4 bd 8d 70 37 bf
       -2.4299638 2.7015483 -0.08031478 -0.71656114
000010 ff 2f 15 40 e7 1c 28 bf d6 10 39 bf 61 d5 96 be
       2.3310544 -0.656691 -0.72291315 -0.2945967
000020 56 ea aa 3f 92 d6 91 be 10 f0 9c 3d dc fd 01 40
       1.3352764 -0.28484017 0.07662976 2.0311193
000030 2c 02 e8 3f 5a 15 07 40 16 02 ff 3f e9 53 f6 3f
       1.8125663 2.1106782 1.9922512 1.9244357
000040 54 b6 02 c0 ee 5d 1e bf 33 de 26 bf 9f 08 d3 3e
       -2.0423784 -0.61862075 -0.651828 0.41217515
000050 15 d7 46 3f e9 65 88 bf 2b 20 09 40 20 d4 0c 3f
       0.7767194 -1.06561 2.1425884 0.5501118
000060 e4 e8 f7 3e a1 90 ed 3f a4 51 29 bf cd 1b c0 3f
       0.4841987 1.8559762 -0.661402 1.5008484
000070 d9 e9 e8 bf aa a9 76 bf be 6d f3 bf 50 eb 27 bf
       -1.8196365 -0.96352637 -1.9017866 -0.65593433
000080 e5 11 74 c0 30 0e d3 3f 30 e6 00 bf e2 47 49 bf
       -3.8135922 1.6488705 -0.5035124 -0.7862531
000090 ec e4 df 3f e0 82 93 bf 1c 5d 6d bf 3e d7 ee be
       1.7491736 -1.1524315 -0.927202 -0.46648592
0000a0 6c 14 64 3f cd 52 44 bf 25 59 ce be af 17 bc 3f
       0.8909366 -0.76688844 -0.40302387 1.4694728
0000b0 a5 77 b0 3f be 8f d8 3f 9b c8 ae 3f 42 55 c9 3f
       1.3786513 1.6918867 1.365497 1.5729144
0000c0 ed f9 4c c0 1a bc 6c bf 95 3f 3b bf d3 2c f3 3e
       -3.2027543 -0.9247452 -0.73143893 0.47495136
0000d0 9e 6b be bd e3 9b 8f bf 15 94 d9 3f a3 7b e4 3d
       -0.0929787 -1.1219448 1.6998316 0.11156394
0000e0 cb 0c 46 3f 5d 84 d0 3f d9 85 41 bf ff 3f 6d 3f
       0.7736327 1.6290394 -0.7559486 0.92675775
0000f0 03 d0 43 c0 78 54 29 bd e7 85 4e c0 c7 63 d6 be
       -3.059571 -0.04134032 -3.2269228 -0.41873
000100 d7 5f 1a c0 b3 9c 20 40 38 ba b5 38 85 67 12 bf
       -2.4120996 2.5095642 8.6654385e-05 -0.5718921
000110 d1 22 08 40 6b b7 20 bf 5a b5 f5 be b0 51 3a be
       2.127125 -0.62779874 -0.47989923 -0.18195224
000120 6f 7f ae 3f 81 31 7f be 81 c7 ff bd 79 f4 e3 3f
       1.363264 -0.24921228 -0.12489224 1.7808982
000130 a1 e0 e9 3f ea bd fc 3f 3b ff d1 3f 27 71 e4 3f
       1.8271676 1.9745457 1.6406015 1.7847031
000140 91 19 0e c0 dc 60 0d bf 95 08 19 bf 0d d8 34 3e
       -2.2203104 -0.5522592 -0.5977872 0.17660542
000150 53 50 82 3f a2 50 95 bf 58 96 17 40 da 44 19 3f
       1.0180763 -1.1665232 2.3685513 0.59870684
000160 f2 74 28 3f db c8 f3 3f a0 b0 f2 be 4d cb a2 3f
       0.65803444 1.9045671 -0.4740038 1.2718292
000170 21 1b 10 c0 60 bd 9c bf 30 94 05 c0 08 48 2c bf
       -2.2516558 -1.2245293 -2.0871696 -0.6729741
000180 a7 8f 3f c0 4a c3 19 40 7a ac d5 3d a2 eb e8 be
       -2.9931428 2.4025445 0.10433288 -0.45492274
000190 5b 22 dc 3f c1 90 af be da 90 c0 3c 8d 7e 74 be
       1.7197984 -0.34290126 0.02350657 -0.238764
0001a0 7f 68 ec 3f 14 6c 66 3f d7 4b 9c 3e ae a5 ef 3f
       1.846939 0.90008664 0.3052661 1.8722436
0001b0 f3 6a 0e 40 7c ec 0a 40 ee 0c 48 3f 16 75 07 40
       2.2252777 2.1706839 0.7814473 2.1165214
0001c0 94 74 6b c0 d7 3c 9f be 86 15 c4 be 78 fd 47 bf
       -3.6789904 -0.31101105 -0.3829767 -0.7812114
0001d0 7b 7b 05 bf 5a 27 eb be 6c af 12 40 29 0d 68 3f
       -0.5214154 -0.4592846 2.291957 0.9064508
0001e0 f3 1b ca be ac 63 16 40 2e 1a 98 be bc bb 1b 40
       -0.3947445 2.3498335 -0.29707474 2.4333334
0001f0 c2 10 73 c0 0e 5e 77 bf 81 7a 68 c0 2e c6 21 bf
       -3.7978978 -0.9662789 -3.632477 -0.63193023
000200 f5 c3 42 c0 0f ce 31 40 e5 73 27 bb e3 8b 02 bf
       -3.0432103 2.7782018 -0.0025551256 -0.509947
000210 a9 e3 d6 3f 44 76 79 bc 51 91 67 3e 9f e6 22 be
       1.6788226 -0.015225951 0.22614028 -0.15908287
000220 6c 19 0a 40 d6 f5 94 3f c8 1a 91 3e 09 ed ea 3f
       2.1578016 1.1637523 0.28340745 1.8353587
000230 4c 09 15 40 38 af 19 40 cc e5 2c 3f 0d 4e f4 3f
       2.3286924 2.4013195 0.6753814 1.9086319
000240 ba 89 7a c0 99 ac 86 be cf e4 00 be 5e bd 75 bf
       -3.9146562 -0.26303557 -0.12587284 -0.95992076
000250 5e 02 a3 be 71 24 1f bc ef 54 16 40 5c 22 6a 3f
       -0.31837744 -0.009713278 2.348934 0.9145868
000260 1f f7 32 bf e5 84 1d 40 a7 e6 f1 be 53 a8 1c 40
       -0.69908327 2.4612362 -0.47246286 2.4477737
000270 17 37 81 c0 cb 2c 82 bf c4 a6 7f c0 5c 79 8e be
       -4.037975 -1.016992 -3.9945536 -0.27826965
000280 9e fc b0 bd b1 56 81 c0 9e c6 3d 3f 38 ae 4a 3f
       -0.08641933 -4.0418324 0.7413119 0.79172087
000290 e6 25 99 bf cb df 82 3d a3 79 05 bf 5d ff 91 3e
       -1.1964691 0.06390341 -0.5213873 0.2851514
0002a0 0d 3d 50 bf d0 8d 7d bf 5c 48 4c 3f 74 42 8f bf
       -0.81343156 -0.99044514 0.7979791 -1.1192155
0002b0 c3 a4 29 c0 84 ec c3 bf df 15 18 bf 55 0c ef bf
       -2.6506813 -1.5306554 -0.5940837 -1.8675638
0002c0 ed dd 19 3d 4a 05 35 bf f4 c0 25 c0 e9 30 8c 3e
       0.03756516 -0.70711195 -2.589902 0.27381065
0002d0 2a 3b b0 3f a2 28 bd 3f e6 83 88 c0 c1 e0 a4 3e
       1.3768055 1.4778025 -4.266101 0.32202724
0002e0 d2 2b a4 3d cc 08 9b bf 3f bb 98 be 73 80 e2 bf
       0.080161706 -1.211206 -0.29830357 -1.769545
0002f0 6b a7 fe bd f9 d4 fd 3f a8 5a f9 3d 81 b7 97 3e
       -0.12434276 1.9830619 0.121754944 0.2963219
000300 b1 15 19 be 21 3b 5b bf 4e eb 51 3f 14 b0 50 3e
       -0.14949681 -0.856371 0.8199967 0.20379668
000310 64 a2 9e 3f 2c 1d 87 be f7 3f b0 bf 63 5f b4 3f
       1.2393308 -0.26389444 -1.376952 1.409161
000320 85 6a e2 bf 98 03 aa bf d5 7a 2c 3f 24 c8 ab 3f
       -1.7688757 -1.3282347 0.67374927 1.3420453
000330 d4 89 b7 bf 06 3e 08 c0 ae 1c 83 3f d1 62 ea bf
       -1.4338937 -2.1287856 1.0243127 -1.8311406
000340 4c 14 40 bd 7d 81 12 be 99 b2 99 bd 0d 37 b0 3f
       -0.046894357 -0.14307208 -0.07504768 1.37668
000350 06 66 91 bf e0 2f 83 bd ce ea a9 bf ae 18 8c 3f
       -1.135926 -0.06405616 -1.3274782 1.0945032
000360 04 a0 a5 3f 0d 9d 13 c0 8f c4 3a bf ea 91 25 bf
       1.2939458 -2.3064606 -0.72956175 -0.6467577
000370 28 20 56 3d ab 1a 01 bf b2 8c f0 3d b4 60 95 3f
       0.05227676 -0.5043132 0.117455855 1.1670136
000380 48 53 3a c0 3e 74 21 40 ec 90 4d be 81 e1 56 bf
       -2.911333 2.5227199 -0.20074815 -0.8393784
000390 c3 10 e3 3f 44 1c 15 bf 8a f7 e9 be d8 da a7 be
       1.773949 -0.58246255 -0.4569667 -0.32784152
0003a0 55 53 d2 3f 5a 0c 1c 3f 4a 14 29 be e5 63 ee 3f
       1.6431681 0.60956347 -0.16511646 1.8624235
0003b0 cf 1e 06 40 82 01 14 40 18 5b 70 3f 12 76 de 3f
       2.0956304 2.312592 0.93889 1.7379782
0003c0 c9 7b 6b c0 38 94 1d bf bd 23 01 bf 7d e3 a2 be
       -3.6794302 -0.6155429 -0.5044516 -0.31814185
0003d0 91 e7 c4 be 01 b9 9d bf 10 fe 09 40 ba 27 2d 3f
       -0.3845792 -1.2322084 2.1561317 0.6763874
0003e0 32 68 75 be 18 e5 0b 40 77 22 01 bf ba 7d 04 40
       -0.23965529 2.1858578 -0.50443214 2.0701737
0003f0 c7 fa 6c c0 4d 92 78 bf 86 5c 62 c0 cb d0 ea be
       -3.7028062 -0.9709824 -3.5368972 -0.4586242

fc2.bias f4 [16]
000000 df b5 e8 40 27 ac c1 40 db 13 e6 40 e8 ee f6 40
       7.272201 6.0522647 7.189924 7.7166634
000010 b2 d8 00 41 97 be 4a c0 4b d0 07 40 22 bb fb 40
       8.052904 -3.1678827 2.1220882 7.8665934
000020 7f e2 ef 40 08 18 fa 40 9d 4a 48 3f a2 93 cf bb
       7.4963984 7.8154335 0.7823885 -0.006334738
000030 bd 90 ee 40 6c 6b f2 3d 4c ea ea 40 83 7c ab 3f
       7.4551682 0.11836895 7.3411007 1.3397373

V.weight f4 [1, 16]
000000 ab 9b d6 3f 4f 7a 8c 3f 43 54 e3 3f 03 0f 90 3f
       1.6766256 1.0974826 1.776009 1.1254581
000010 1b d3 53 3f 60 71 e6 bf 7f 1b 73 40 ae e4 c7 3f
       0.82743996 -1.8003349 3.7985532 1.5616663
000020 f5 5b e0 3f 6c a7 cf 3f 34 45 ad c0 33 f3 55 3e
       1.7528063 1.6222968 -5.4146976 0.20893554
000030 d4 7a 73 3f f0 9a 2e 3e d3 35 5f 3f ab 4b bc be
       0.95109296 0.17051291 0.87191504 -0.3677648

A.weight f4 [2, 16]
000000 d0 6a 4f 3f d6 f6 73 3f c3 08 93 3f 4e 65 77 be
       0.8102236 0.95298517 1.1487049 -0.24159738
000010 be 18 36 be b6 1a 66 bd 4f 06 85 3e d1 47 59 3e
       -0.17782876 -0.056177817 0.25981376 0.21218802
000020 3e 81 8a 3f 71 2d 36 3e 64 3c a8 bc 56 7e 1d bd
       1.0820692 0.17790772 -0.020536609 -0.03845056
000030 fe 43 35 3d c4 e8 7c 3c 0e 89 d2 be a0 bd a6 bf
       0.044254296 0.015436355 -0.4112019 -1.3026619
000040 3c fd 94 bf 9e 8a 2e bf e9 59 4f bf dc ec af 3d
       -1.1639781 -0.68180263 -0.80996567 0.08590099
000050 af b6 de 3e 30 32 c0 3e 0b d2 80 bc 3f d3 b4 be
       0.43498752 0.3753829 -0.015725156 -0.35317418
000060 97 65 81 bf 1e a4 6b be be b5 7d 3e be ba 6f bd
       -1.0109128 -0.23011824 0.2477636 -0.0585277
000070 e2 4f 8f 3e 74 8d f8 bb cc 40 12 3f 4c 32 a2 3f
       0.27990633 -0.007585222 0.5713012 1.2671599

A.bias f4 [2]
000000 a2 0e a1 40 70 76 a7 c0
       5.033036 -5.2332077
