models/maintainance_agent/0/D3QN_q_target.pth (torch, 77199 bytes, 7 tensors)

weight f4 [128, 11]
0	0x4198656a	19.049519
1	0x41957628	18.682693
2	0xc0a19709	-5.049687
3	0xc1180586	-9.5013485
4	0xc119d7e0	-9.615204
5	0xc0618764	-3.5238886
6	0x3e558687	0.208521
7	0x3eed8ddf	0.46397302
8	0x4193fa03	18.497076
9	0xc100ccd3	-8.050006
10	0x3e54b0eb	0.20770614
11	0xc1cb173b	-25.386343
12	0xc1a8d207	-21.102552
13	0x3f5b2c05	0.85614043
14	0xbfcff5e6	-1.6246917
15	0xc08d0ca5	-4.4077935
16	0xbf0d79a3	-0.5526373
17	0x3eb89216	0.36048955
18	0x3e49027f	0.19629858
19	0x4056a747	3.3539598
20	0x41100245	9.000554
21	0x41b96661	23.17499
22	0xc1d05b00	-26.044434
23	0xc1bb5d03	-23.420416
24	0xbe301b82	-0.17197993
25	0x41656a41	14.338441
26	0x408bdbee	4.370597
27	0x401909e2	2.3912282
28	0x3e744dc8	0.23857796
29	0x3f23c0f4	0.639663
30	0xc1ba70a1	-23.304995
31	0x412fd492	10.989397
32	0x40f851d4	7.759989
33	0xc1b6aa25	-22.833078
34	0xc19d961a	-19.698292
35	0x404e7e85	3.2264721
36	0x4138e781	11.5565195
37	0x4112dfb9	9.17962
38	0x40883706	4.2567167
39	0x3eb4a283	0.35280237
40	0x3eafae85	0.34312835
41	0xc1a0bd07	-20.092299
42	0x41112caf	9.073409
43	0x3fb401e7	1.406308
44	0x4077d4b3	3.8723571
45	0x40de2db9	6.9430814
46	0x404ef0d3	3.2334487
47	0xc1187ec9	-9.530953
48	0xc13c4dcc	-11.768993
49	0xc006de85	-2.1073315
50	0x3ca1a910	0.019733936
51	0x3ed0a223	0.407487
52	0x41817743	16.183233
53	0xc0d913bd	-6.7836595
54	0x412edfad	10.929608
55	0xc1c36fd1	-24.429598
56	0xc1a6d698	-20.854782
57	0x401cefc6	2.4521346
58	0x413a24d4	11.633991
59	0x40e5499a	7.1652346
60	0x40718b98	3.7741451
61	0x3e937251	0.28798154
62	0x3f126f2e	0.57200897
63	0xc1a7efe2	-20.99213
64	0x41175582	9.458376
65	0x40732673	3.7992218
66	0x41ac4cfd	21.537592
67	0x41d92e0c	27.147484
68	0x3f8da20c	1.1065078
69	0xc0c20548	-6.0631447
70	0xc1084575	-8.516957
71	0xbeb7cde8	-0.35899282
72	0xbf33c37a	-0.7022015
73	0x3f396d90	0.72432804
74	0x41343763	11.263522
75	0xc18b95be	-17.448116
76	0xc11cc013	-9.796893
77	0x40d9026a	6.7815447
78	0x411a3946	9.638983
79	0x40f1dc53	7.558145
80	0xc12472ae	-10.277998
81	0xc12edbc4	-10.928654
82	0xbf94ddf9	-1.1630241
83	0x3e030008	0.1279298
84	0x3f400e49	0.750218
85	0x4185be30	16.717865
86	0xc0bfa7ba	-5.9892244
87	0x410dbebd	8.859067
88	0xc1c6c247	-24.844862
89	0xc1a4f81c	-20.621147
90	0x402b70be	2.6787562
91	0x414349fb	12.205562
92	0x40e04c5e	7.009322
93	0x40641922	3.564034
94	0x3e3e17a7	0.1856371
95	0x3f04f0da	0.5193001
96	0xc1a61b71	-20.7634
97	0x411c98b3	9.78728
98	0x4074b64f	3.8236272
99	0xc1b2d0d7	-22.351973
100	0xc196603a	-18.796986
101	0x405310ae	3.297893
102	0x412df3c6	10.872015
103	0x411e210c	9.883068
104	0x4083a43b	4.1137977
105	0x3ec26b8a	0.3797267
106	0x3e498ab6	0.1968182
107	0xc1a6d542	-20.85413
108	0x4110e013	9.054706
109	0x3f4f3d6d	0.80953103
110	0xbd96808e	-0.073487386
111	0xbd8a2d50	-0.06746924
112	0xbe4ba15f	-0.19885777
113	0x3e2fd0a8	0.1716944
114	0xbda16eba	-0.078824475
115	0xbe204a54	-0.15653354
116	0xbe4eb8c1	-0.20187666
117	0xbceb9990	-0.028759748
118	0xbe477f20	-0.19482088
119	0xbe2b267f	-0.16713904
120	0x3e0dc885	0.13846023
121	0x4183cde0	16.475525
122	0x41948bbf	18.568235
123	0xc054d04e	-3.325214
124	0xc1196be7	-9.588843
125	0xc14f7068	-12.964943
126	0xbf518c9c	-0.8185518
127	0x3e4e0b3e	0.20121476
128	0x3ea1664c	0.3152336
129	0x41ab7885	21.433847
130	0xc0d15183	-6.5412
131	0xbff02f64	-1.8764462
132	0xc1bdf500	-23.744629
133	0xc19edb3d	-19.85705
134	0x403b5e46	2.927629
135	0x4135bcc3	11.358584
136	0x410da42d	8.852582
137	0x407c2023	3.9394615
138	0x3e479c72	0.19493273
139	0x3e9457d5	0.2897326
140	0xc1a07707	-20.058119
141	0x411977e4	9.59177
142	0x40024d39	2.0359633
143	0xc1aee129	-21.859941
144	0xc19381ab	-18.438314
145	0x4043d9b3	3.0601623
146	0x412decd9	10.870324
147	0x4115afbd	9.355405
148	0x40861551	4.190102
149	0x3e3647a6	0.17800769
150	0x3ea4a98f	0.32160613
151	0xc19bf5ca	-19.495014
152	0x4114a258	9.289635
153	0x3f563ffa	0.8369137
154	0xc1bf100c	-23.882835
155	0xc19ce04d	-19.609522
156	0x401bd942	2.4351354
157	0x413816a0	11.505524
158	0x40fd17ed	7.9091706
159	0x4084890a	4.1417284
160	0x3e2166b3	0.15761833
161	0x3f191d54	0.59810376
162	0xc19ed51c	-19.854057
163	0x41161508	9.380135
164	0x401d8e9d	2.4618294
165	0xbd17ede4	-0.037092105
166	0x4121da7b	10.11584
167	0x40c776d0	6.2332535
168	0xc0cbb3d7	-6.365703
169	0xc10d18be	-8.818541
170	0x3ec2bfdb	0.38037
171	0x3c3054b7	0.010762385
172	0x3e95b161	0.29236892
173	0x413ad44a	11.676828
174	0xc0bf94b1	-5.986901
175	0x3fb92969	1.4465762
176	0x3d050270	0.032473028
177	0x3e1d3790	0.15353227
178	0xbdde6962	-0.10859944
179	0xbe07c650	-0.13259244
180	0x3e3c7cca	0.18406978
181	0xbdea2422	-0.11432673
182	0xbde50f66	-0.11184578
183	0xbe0efbec	-0.13963288
184	0xbd213898	-0.039360613
185	0xbe4234ec	-0.189655
186	0xbe182c80	-0.14860725
187	0xbd3c4f78	-0.045974225
188	0xbdcf6631	-0.10126913
189	0xbe98fc6c	-0.29880083
190	0x3d05d304	0.032671943
191	0xbe0cd821	-0.13754322
192	0xbe55736a	-0.20844808
193	0xbe38018a	-0.17969337
194	0xbe605ebb	-0.21911137
195	0x3dd02341	0.10162974
196	0x39a1000e	0.00030708354
197	0x3c4afed8	0.012389861
198	0xc1cc36d0	-25.526764
199	0xc1c1b9e5	-24.215769
200	0x3fd50602	1.6642458
201	0x4139808b	11.593883
202	0x40442aa4	3.0651026
203	0xbf1c2236	-0.609897
204	0x3e90cb8b	0.2828029
205	0x3f8b3cb0	1.0877895
206	0xc1c56d56	-24.678387
207	0x41277ba2	10.467684
208	0x419b335f	19.400084
209	0x40d60ff9	6.68945
210	0x411e1ce7	9.882056
211	0xbdb2e146	-0.08734374
212	0xc109d727	-8.615027
213	0xc1133d52	-9.202471
214	0xc0213d67	-2.5193727
215	0x3ec622fc	0.38698566
216	0x3ebcb16b	0.3685411
217	0x41890536	17.127544
218	0xc0d32f32	-6.599511
219	0x40fd8edf	7.9236903
220	0x41ac83e5	21.564402
221	0x41cfed10	25.990753
222	0xbfcee812	-1.6164572
223	0xc0ca0ae5	-6.31383
224	0xc109c8f6	-8.611563
225	0xbf1b4527	-0.60652393
226	0x3e6f7417	0.23384129
227	0x3f2cae2b	0.6745326
228	0x4126c9f8	10.424309
229	0xc18a0c83	-17.25611
230	0xc0fceb64	-7.903734
231	0xc1bb20e6	-23.391064
232	0xc19b6325	-19.42341
233	0x4026364b	2.5970638
234	0x413b9ba9	11.725503
235	0x410a8418	8.657249
236	0x408b7358	4.35783
237	0x3e7625d9	0.24037875
238	0x3ef3fdb5	0.476545
239	0xc1a20686	-20.253185
240	0x4116bbc2	9.420839
241	0x4016463d	2.348037
242	0xc1b6d682	-22.85474
243	0xc196b20c	-18.836937
244	0x40419480	3.0246887
245	0x4138e2c3	11.555362
246	0x41125742	9.146303
247	0x40828bed	4.079581
248	0x3e52f3da	0.20600834
249	0x3e8f09c8	0.2793715
250	0xc1a26e78	-20.30394
251	0x410fcae4	8.987034
252	0x3f7a0e11	0.97677714
253	0x40db0bb6	6.8451796
254	0x4119e5c1	9.618592
255	0x4027ce60	2.6219711

bias f4 [128]
0	0xc129ffc0	-10.624939
1	0xbfcab0f1	-1.5835248
2	0x4158cb30	13.549606
3	0x414189bc	12.096127
4	0xc129d183	-10.61365
5	0x414002f5	12.000722
6	0xc0f2313b	-7.5685096
7	0xc134f906	-11.310797
8	0x4143b5c5	12.231877
9	0x41440c9a	12.253077
10	0x3df4b2d8	0.11948174
11	0xc1363fd0	-11.390579
12	0x413ea7db	11.91598
13	0x413e1707	11.880622
14	0x41422958	12.135094
15	0xc1125f1c	-9.14822
16	0xbde26c42	-0.11055805
17	0x3e48c870	0.19607711
18	0x411c5550	9.770828
19	0xc10c19e9	-8.756326
20	0xc0e1830b	-7.0472465
21	0x4148575f	12.521331
22	0x413f238f	11.946181
23	0xc13a3639	-11.638238
24	0xc1240d41	-10.253236
25	0xbe696060	-0.2279067
26	0x4159df38	13.616997
27	0xc1176d4a	-9.464182
28	0x3d282d25	0.04105868
29	0xc1189149	-9.53547
30	0xc12703aa	-10.438395
31	0xc0ac66dd	-5.3875566
32	0xbefe7a3e	-0.49702638
33	0x41434035	12.203176
34	0xc0c3e5b9	-6.1217923
35	0xc10bd4d5	-8.739461
36	0x413c3997	11.76406
37	0x414d2efc	12.823971
38	0x4144339c	12.2626
39	0xc13dcbfc	-11.862301
40	0xc136e4cb	-11.430858
41	0x41401b98	12.006737
42	0xc124f296	-10.309225
43	0x40f574b1	7.6704946
44	0xc0f04a1a	-7.5090456
45	0x4149b835	12.607472
46	0xc11a3b50	-9.639481
47	0x413f92ee	11.9733715
48	0x4149300b	12.574229
49	0xc1134c17	-9.206077
50	0xc11124d9	-9.071496
51	0x40cf34d2	6.475198
52	0xbfa14cc8	-1.2601557
53	0x41482a9e	12.510405
54	0x412d8c0e	10.846693
55	0x410343e9	8.20408
56	0xbe636649	-0.22206987
57	0xc0cd41e7	-6.4142947
58	0x41488ac1	12.533875
59	0xc102e4f8	-8.180901
60	0x404e0892	3.219273
61	0x41430260	12.18808
62	0x4145cec9	12.362985
63	0x3fea8ee3	1.8324856
64	0xc0ac81fc	-5.390867
65	0x4146f430	12.434616
66	0x41469023	12.41019
67	0x4130ce98	11.050438
68	0xbf9abba8	-1.2088518
69	0x4139fb6c	11.623882
70	0x3fa3437b	1.2754968
71	0xc12e51b0	-10.894943
72	0xc100565e	-8.021086
73	0x40aacd7f	5.337585
74	0x403725b5	2.8616765
75	0xc0d9299c	-6.7863293
76	0xbf97d1c6	-1.1860893
77	0x4145afdb	12.355433
78	0x413465db	11.274867
79	0x413f9608	11.974129
80	0x41453b32	12.326952
81	0xc13c9129	-11.7854395
82	0x4124cc02	10.299807
83	0xc1033ed3	-8.202838
84	0xbe96f86c	-0.29486406
85	0x3d649f28	0.055815846
86	0x4125f473	10.37218
87	0xc12065fd	-10.0248995
88	0xc10f3fda	-8.953089
89	0x3ead9c39	0.3390825
90	0x41293596	10.5755825
91	0x414e61d5	12.898885
92	0x41550600	13.313965
93	0xbf79293d	-0.9732855
94	0x3fb51773	1.4147781
95	0x413b3734	11.700977
96	0xc120a02d	-10.039105
97	0xc0c1743d	-6.0454392
98	0x413f0a95	11.9400835
99	0x4149834e	12.594557
100	0x413b021b	11.688014
101	0x414a0353	12.625812
102	0xbdf5e426	-0.120064065
103	0x4010f9e4	2.265252
104	0x410789f1	8.471177
105	0xbff4ac98	-1.9115171
106	0x41390bad	11.565351
107	0xbd219710	-0.039450705
108	0x4146cbba	12.424738
109	0xbdbdee50	-0.0927397
110	0xbe86cca1	-0.26327994
111	0xc11b363d	-9.700742
112	0xc123dda1	-10.241609
113	0x3feff6cf	1.8747195
114	0xc114a4af	-9.290206
115	0x3ea1a6d6	0.31572598
116	0x4140c6c6	12.048529
117	0x41413ec6	12.077826
118	0x4143dddc	12.241665
119	0x4141c4a5	12.110509
120	0x3e19c49e	0.1501641
121	0xbcb125a8	-0.021624401
122	0xc135404d	-11.328198
123	0xc1378118	-11.469017
124	0x413d5c80	11.835083
125	0x414effed	12.937482
126	0xc12cc338	-10.797661
127	0x4135dabc	11.365902

weight f4 [128, 128]
0	0xc03b6bf0	-2.928463
1	0x3feb4be7	1.8382539
2	0x3ff1301a	1.8842804
3	0x4041cea7	3.028238
4	0xc049e5dc	-3.1546545
5	0x4002f36b	2.046107
6	0x400f5137	2.239332
7	0xbf87e2ee	-1.0616128
8	0x400ec290	2.2306252
9	0x40868ff0	4.2050705
10	0x3d927ae5	0.071523465
11	0xc0a8c024	-5.2734547
12	0x405e9393	3.4777572
13	0x4080ad1a	4.0211306
14	0x400de763	2.2172477
15	0xc0f75d3a	-7.73013
16	0xbcaa9904	-0.020824917
17	0x3d65382a	0.055961765
18	0x3f79cfd0	0.9758272
19	0xc0553430	-3.3313103
20	0x3fbf65aa	1.49529
21	0x4020cb6f	2.5124166
22	0x406d141b	3.7043521
23	0xbff42767	-1.9074525
24	0xc063868c	-3.555087
25	0xbe3a828e	-0.18213865
26	0x40e3d61e	7.1198874
27	0xc0846cb0	-4.1382675
28	0xbf068115	-0.52540714
29	0xc11c4e4c	-9.769115
30	0xbf618a30	-0.8810148
31	0xbfa061d9	-1.2529861
32	0xbfd93da6	-1.6971939
33	0x4000d20f	2.012821
34	0xc157977e	-13.474485
35	0xc12bf52f	-10.747359
36	0x40810c8b	4.032781
37	0x3fd5ae6f	1.6693858
38	0x3fc19bf4	1.5125718
39	0xbff6d571	-1.9283887
40	0xc0577018	-3.3662167
41	0x4047a916	3.1196952
42	0xbfa6c956	-1.3030193
43	0x3fc3944e	1.5279634
44	0xc14babc7	-12.729438
45	0x3fd21106	1.6411445
46	0xc0c79705	-6.237185
47	0x3fe0e15d	1.7568775
48	0x4016dcb2	2.3572202
49	0xbf648de5	-0.89279014
50	0xc113d9cf	-9.240676
51	0x40fc95f2	7.893304
52	0x3ffaae95	1.9584528
53	0x4023bfc4	2.5585794
54	0x402100dc	2.5156775
55	0x401a57ca	2.4116082
56	0x3d11d658	0.035604805
57	0xc13dd3cb	-11.864207
58	0x3fa3f09c	1.2807803
59	0xc0706129	-3.7559302
60	0xc06f529b	-3.7394168
61	0x405d7ebb	3.46086
62	0x405c83ca	3.4455438
63	0x3f5194b5	0.81867534
64	0xc0765073	-3.8486602
65	0x403ce35d	2.9513772
66	0x4062ecf3	3.5457122
67	0x4027880a	2.6176782
68	0x3fc5e502	1.5460513
69	0x40851a43	4.159456
70	0xbf8c556e	-1.0963571
71	0xc0671d44	-3.6111612
72	0xc10fb922	-8.982698
73	0x402f2899	2.736853
74	0xc04761ff	-3.1153562
75	0xc13bed9e	-11.745512
76	0x3f9aabb9	1.2083656
77	0x40099b51	2.1501048
78	0x40b45e53	5.636514
79	0x404d5fde	3.2089763
80	0x4005cbfa	2.0905747
81	0xbfbcf6f4	-1.4762864
82	0x4163052f	14.188766
83	0xbecac91c	-0.3960656
84	0x3d908fbb	0.070586644
85	0xbd7527d4	-0.059852436
86	0x40944025	4.63283
87	0xc07f29e0	-3.9869308
88	0xc05a5d12	-3.4119306
89	0x40076348	2.1154346
90	0x400628a2	2.09623
91	0x408e7b41	4.4525456
92	0x40aabbe7	5.3354373
93	0x3fc44b81	1.5335542
94	0xc02a6c31	-2.6628535
95	0x3ff34455	1.9005228
96	0xc126d71a	-10.427515
97	0xc10f2c2c	-8.948284
98	0x411eec50	9.9326935
99	0x400d78ab	2.21049
100	0x408225af	4.0671
101	0x4086f56a	4.217458
102	0x3d48d576	0.049031697
103	0x3fae32c8	1.3609247
104	0x4045d4ce	3.0911136
105	0xc09b256e	-4.848319
106	0x40820d07	4.0640903
107	0xbda73d8e	-0.081660375
108	0x4001d8ee	2.0288653
109	0x3d43d402	0.04780961
110	0xbfea7349	-1.8316432
111	0xc081037c	-4.0316753
112	0xc0891ca1	-4.2847447
113	0x3ffbaa74	1.9661393
114	0xc099275f	-4.786056
115	0xc07333ac	-3.8000288
116	0x4048400b	3.1289089
117	0x40008928	2.0083714
118	0x4016ac55	2.3542683
119	0x4044b615	3.0736134
120	0x3d7ec84e	0.062202744
121	0xbc9e6735	-0.019336322
122	0xc0becd17	-5.9625354
123	0xc0a7784e	-5.2334356
124	0x404fb52a	3.2454324
125	0x401978e7	2.3980043
126	0xc012a792	-2.2914777
127	0x40bec87f	5.9619746
128	0xbd8f48e5	-0.069963254
129	0xbdbd5dc8	-0.09246403
130	0xbdbc6f80	-0.092009544
131	0xbcfcba1c	-0.030850463
132	0xbd980b16	-0.074239895
133	0x3d9f34ad	0.07773719
134	0x3d0ad37c	0.033893093
135	0xbcd251da	-0.025673795
136	0x392cff26	0.00016498248
137	0xbdb88398	-0.090094745
138	0xbd9b7973	-0.07591524
139	0xbda00aca	-0.07814558
140	0x3c5aa131	0.013344095
141	0xb7013fed	-7.703883e-06
142	0x3c451e28	0.012031116
143	0x3c78cca3	0.015185508
144	0x3cd89f6c	0.026443206
145	0xbcea1fe0	-0.028579652
146	0x3d7e4183	0.062074196
147	0x3d7e4bab	0.06208388
148	0xbd532402	-0.05154801
149	0xbc91e0f6	-0.017807465
150	0xbd8fcdb5	-0.070216574
151	0xbd2787ef	-0.04090112
152	0x3d2f8ab6	0.042856894
153	0xbd534de6	-0.05158796
154	0xbd4837e9	-0.048881445
155	0x3d09adbc	0.03361295
156	0x3d8970f7	0.067109995
157	0x3cdb8b91	0.026799949
158	0xbd01b6ad	-0.031668354
159	0xbad483c0	-0.0016213581
160	0xbd94c428	-0.07263976
161	0x3d117845	0.03551509
162	0x3d2ec9be	0.042672865
163	0x3a092054	0.00052309525
164	0xbd0ba98d	-0.034097243
165	0xbd9f4dae	-0.07778488
166	0xbd56b9fa	-0.052423455
167	0xbcb35760	-0.02189225
168	0xbd0bb15d	-0.034104694
169	0xbda38947	-0.07985168
170	0x3cb39b57	0.021924658
171	0xbdc1bd51	-0.09459937
172	0x3d81c714	0.06336799
173	0xbd8d58cd	-0.06901703
174	0xbdae0d77	-0.08498662
175	0x3da5c076	0.0809335
176	0x3da14fbe	0.07876538
177	0x3d653372	0.055957265
178	0xbc3f49f8	-0.01167535
179	0xbdbf7040	-0.09347582
180	0xbc606433	-0.013695764
181	0x3cebe262	0.028794471
182	0xbdaebe36	-0.085323736
183	0x3c0b9f64	0.008521888
184	0x3daed0a3	0.08535888
185	0xbd0abff5	-0.03387447
186	0xbdb04570	-0.08606994
187	0xbd99c546	-0.0750833
188	0x3c8acf94	0.016944684
189	0xbd8cef55	-0.068815865
190	0x3c02e43c	0.007988986
191	0x3d287e06	0.04113581
192	0xbd82ba0d	-0.063831426
193	0x3d9783ed	0.0739821
194	0x39772c3b	0.00023572233
195	0xbdad85ac	-0.084727615
196	0x3d92bc7c	0.07164857
197	0xbd41d651	-0.04732353
198	0x3c6a14aa	0.014287153
199	0x3d089d14	0.033352926
200	0xbd2fcb8f	-0.042918738
201	0x3d96c019	0.073608585
202	0xb819d806	-3.667923e-05
203	0xbd3395e0	-0.043844104
204	0xbdaebf97	-0.085326366
205	0x3d54c3a1	0.05194438
206	0xbd547582	-0.051869877
207	0xbdb03508	-0.08603865
208	0xbd0528b5	-0.032509524
209	0x3c966e95	0.018363276
210	0x3ce5abc2	0.028036002
211	0x3d4900b0	0.04907292
212	0xbd8e934c	-0.069616884
213	0x3d92e3b1	0.07172335
214	0xbd87e0cd	-0.06634674
215	0xbcf7c944	-0.030247338
216	0x3d4a8cc8	0.049450666
217	0x3c719f23	0.014747414
218	0xbc14b018	-0.009075187
219	0xbcb9bce0	-0.02267307
220	0x3d2f8dd6	0.042859875
221	0x3cebbcfc	0.028776638
222	0xbdb3651d	-0.0875952
223	0x3cc46118	0.02397208
224	0xbc7a158c	-0.015263926
225	0x3d571f89	0.05252031
226	0xbdb602f8	-0.08887285
227	0x3cecdc62	0.02891368
228	0xbb882015	-0.004154215
229	0x3d848ecc	0.06472549
230	0x3d9d8703	0.07691767
231	0x3d5c72d1	0.053820435
232	0x3d2e0d76	0.042493306
233	0xbd498e19	-0.04920778
234	0xbcc38721	-0.023868145
235	0xbce9f332	-0.028558347
236	0xbd389658	-0.045065254
237	0x3d485466	0.048908614
238	0x3d4d3c48	0.050106317
239	0x3d7eb562	0.0621847
240	0xbd5e9d1b	-0.054349046
241	0xbcfddb2c	-0.030988298
242	0x3cfb00b3	0.030639982
243	0xbd5696d2	-0.052389927
244	0xbd323650	-0.043508828
245	0x3cc85728	0.024455622
246	0x3ae6c2aa	0.0017605622
247	0xbc8ca83d	-0.017170066
248	0x3d2fcad6	0.04291805
249	0xbd87b522	-0.06626345
250	0x3d41ce81	0.047316078
251	0xbd57ba28	-0.052667767
252	0xbc69385b	-0.014234628
253	0x3d834e7c	0.06411454
254	0xbd3162f0	-0.043307245
255	0xbd19c9f6	-0.03754612

bias f4 [128]
0	0x410a707a	8.65246
1	0x3cd745d1	0.026278408
2	0x41383366	11.512548
3	0xc0726f2d	-3.7880356
4	0xc0875df3	-4.2302184
5	0x4130db27	11.053504
6	0xc0b63731	-5.694237
7	0x412f4045	10.953191
8	0xc09e5ad0	-4.9485855
9	0x412f4b10	10.955826
10	0x4055ad2b	3.3386943
11	0xbd7f2d74	-0.062299207
12	0xc000c62f	-2.0120962
13	0xc0879f0e	-4.238166
14	0xc0c2f3f6	-6.0922804
15	0x40e75906	7.229617
16	0xc089f125	-4.3106866
17	0xc00d9f18	-2.2128353
18	0x3d89ec3c	0.06734511
19	0x413947eb	11.580058
20	0x41289745	10.536931
21	0x41355b3f	11.334777
22	0x40bc0cb8	5.8765526
23	0xc07a80b7	-3.9141061
24	0x3d813754	0.06309381
25	0x413253ad	11.145429
26	0x412ab8ef	10.67015
27	0xbdc71ea9	-0.09722645
28	0xc08aef89	-4.34174
29	0x4128b0d7	10.543174
30	0x41271acd	10.444043
31	0x412db9e4	10.857883
32	0x412da039	10.851617
33	0x41331974	11.193714
34	0xc0973513	-4.725229
35	0xba6d65e3	-0.0009056015
36	0x412b902d	10.722699
37	0x413571a6	11.340246
38	0x4117e94e	9.494459
39	0xc012762e	-2.288463
40	0xbc313f70	-0.010818347
41	0x4124c471	10.297959
42	0x41304f24	11.019321
43	0x4133695f	11.213225
44	0x41285459	10.520593
45	0x412d3fbd	10.828061
46	0x3d37db9f	0.04488718
47	0xc080636b	-4.012136
48	0x40dbef7a	6.872983
49	0x40503229	3.2530615
50	0x411b2c89	9.698373
51	0x413636d0	11.388382
52	0x40d572e9	6.670277
53	0x40c4f521	6.154923
54	0x412cbaa1	10.795564
55	0xc0bc8979	-5.8917813
56	0xc09cdd1a	-4.90199
57	0x40a2f11e	5.0919333
58	0x40a6240e	5.191901
59	0x41320332	11.12578
60	0x40a31a84	5.096987
61	0xbe31cc10	-0.17363
62	0x41237a85	10.217412
63	0x4128ae9e	10.542631
64	0x4134534f	11.270339
65	0x4131b950	11.107742
66	0x3da5d4c6	0.08097224
67	0x41335d9f	11.210357
68	0xc08b6181	-4.3556523
69	0x4125a072	10.351671
70	0x41321d40	11.132141
71	0x412e274f	10.884597
72	0x411a88bb	9.658381
73	0x41324b1a	11.143335
74	0x3d50a812	0.050941534
75	0xc0cbb522	-6.365861
76	0x412d345b	10.825282
77	0xbd40b159	-0.047044132
78	0xc08884df	-4.2662196
79	0x412e9603	10.911624
80	0xbfc262f0	-1.5186443
81	0x412e2507	10.88404
82	0xbc6389ab	-0.013887803
83	0xc0de5aa4	-6.9485645
84	0x4134e0a2	11.304842
85	0x3ffbc68d	1.9669968
86	0x411b8bb9	9.721612
87	0xc0997d85	-4.796572
88	0x411958a2	9.584139
89	0x3cb541ff	0.022126196
90	0x4111c466	9.110449
91	0x40f8a1ff	7.769775
92	0x406d4c36	3.7077765
93	0x410c7eee	8.780989
94	0x4133f0a5	11.246251
95	0x41326917	11.150657
96	0xc06a7022	-3.663094
97	0xbdb6d778	-0.08927816
98	0xbd18bba6	-0.03728833
99	0xbd9548d6	-0.07289283
100	0xc0787f17	-3.882757
101	0x40a8f04f	5.2793345
102	0x409f1f27	4.972553
103	0xbccaa439	-0.02473651
104	0x412964ba	10.587091
105	0x412887dc	10.533169
106	0x40be05a1	5.938187
107	0xc089bf9a	-4.304639
108	0xc006525d	-2.098777
109	0x3c3274cf	0.010892107
110	0x412bd5cb	10.739696
111	0x40bda18a	5.925969
112	0xbd5814da	-0.05275426
113	0xc032f11c	-2.7959661
114	0xbd1c5fae	-0.038177185
115	0x410c63ec	8.774395
116	0x3d223a32	0.03960628
117	0x41277a9e	10.467436
118	0xc09ed47b	-4.9634376
119	0x41308706	11.032965
120	0xc096fbc9	-4.7182355
121	0x40e76d86	7.2321196
122	0x412ec3d2	10.922808
123	0xc08c365b	-4.381635
124	0x4080b5ad	4.022177
125	0xbde4b1c3	-0.11166718
126	0xbd55caea	-0.052195467
127	0x412ef02e	10.933638

weight f4 [1, 128]
0	0x418441d5	16.532145
1	0xbca26b56	-0.019826572
2	0x412a25cc	10.634228
3	0xc1022c0a	-8.135752
4	0xc119f63c	-9.622616
5	0x4145e528	12.368446
6	0xc1502bbb	-13.010676
7	0x4143298c	12.197643
8	0xc10d6283	-8.836551
9	0x416d2ecd	14.823926
10	0x40d6fce7	6.718372
11	0x3c457f08	0.012054212
12	0xc0fdf02e	-7.935569
13	0xc11e9c9b	-9.913234
14	0xc1271418	-10.442406
15	0x4157b10e	13.480726
16	0xc1134387	-9.203986
17	0x3ef01b4e	0.46895832
18	0xbc9cf805	-0.019161234
19	0x41aa0757	21.253584
20	0x41565818	13.396507
21	0x4185e28b	16.735617
22	0x41b42b4e	22.521145
23	0xc11ceffe	-9.808592
24	0xbd3b4e70	-0.0457291
25	0x413d1a1e	11.818876
26	0x4172d3ec	15.176739
27	0xbc9f719d	-0.019463355
28	0xc119bd06	-9.608648
29	0x41531b6e	13.194197
30	0x419292da	18.321705
31	0x416bf95b	14.748378
32	0x416c2550	14.7591095
33	0x413bf86b	11.748149
34	0xc11cc482	-9.797976
35	0xbd12e38d	-0.03586154
36	0x416ed2c4	14.926456
37	0x4137b7a6	11.482336
38	0x419ef6dc	19.870537
39	0xbf6fca62	-0.93668187
40	0x3cf68e6b	0.030097207
41	0x418b5b37	17.419538
42	0x418cd24d	17.602686
43	0x413bf381	11.746949
44	0x418bc646	17.471813
45	0x418fe7b8	17.988144
46	0xbd4fce18	-0.050733656
47	0xc113a3ed	-9.227521
48	0x412abfa1	10.671784
49	0x4181a536	16.20567
50	0x416d5a70	14.834579
51	0x413501d9	11.312951
52	0x41d48a4b	26.567526
53	0x41b694f7	22.822737
54	0x414f12dd	12.942105
55	0xc1435bad	-12.209882
56	0xc115b486	-9.356573
57	0x4125b165	10.355809
58	0x4121de5b	10.116786
59	0x413fd27e	11.98889
60	0x4121332d	10.074994
61	0xbd16ab85	-0.036784668
62	0x4157f1b9	13.496514
63	0x418e0e8c	17.757103
64	0x413e30fe	11.886961
65	0x414a414d	12.640943
66	0x3d8cc844	0.06874135
67	0x413c1c3c	11.756893
68	0xc1139e65	-9.226171
69	0x4184baaa	16.591145
70	0x41405c16	12.022482
71	0x41a9ff93	21.249792
72	0x40ab0d21	5.3453526
73	0x413c5f85	11.77332
74	0xbd9ecf20	-0.0775435
75	0xc10cb07f	-8.79309
76	0x414c934f	12.785964
77	0xbcb7314f	-0.02236238
78	0xc11def69	-9.87095
79	0x418c83a3	17.564276
80	0xc0acde7c	-5.4021587
81	0x4146d43a	12.426813
82	0xbb35ef6f	-0.0027761122
83	0xc0efe033	-7.496118
84	0x413a5a87	11.647101
85	0x410e8ecb	8.909862
86	0x41898003	17.187506
87	0xc11ea66f	-9.915633
88	0x41aa5334	21.290627
89	0xbd2eac0e	-0.042644553
90	0x419847ea	19.035114
91	0x416ac606	14.673346
92	0x40e73cda	7.226178
93	0x40eb8d33	7.360986
94	0x413c2c56	11.760824
95	0x4143904a	12.222727
96	0xc1021f64	-8.132664
97	0x3d25db06	0.04049208
98	0x3cd27821	0.025692048
99	0x3cb72c9f	0.022360144
100	0xc14a18d5	-12.6310625
101	0x412bfe71	10.7496195
102	0xbff9e9d8	-1.9524488
103	0x3da07a76	0.078358576
104	0x4173a198	15.226952
105	0x418a48c4	17.28553
106	0x4138f40a	11.55958
107	0xc1326c2d	-11.15141
108	0xbfde1bd1	-1.7352239
109	0x3d1a1045	0.037613172
110	0x41739e01	15.226075
111	0x4141ea70	12.119736
112	0x3d7e0943	0.06202055
113	0xc1045c9b	-8.272609
114	0xbd1f2a85	-0.03885891
115	0x40da1358	6.8148613
116	0x3d9bebd3	0.07613339
117	0x414aae40	12.6675415
118	0xc1100b8f	-9.002822
119	0x4142a615	12.165547
120	0xc16fea3e	-14.994688
121	0x415107bc	13.064388
122	0x416e5d49	14.897775
123	0xc12c699f	-10.775786
124	0x41155ec3	9.335635
125	0xbd38e477	-0.045139756
126	0xbd9cb345	-0.076513804
127	0x418e0b47	17.755507

weight f4 [2, 128]
0	0x4124ade9	10.292459
1	0xbd47b959	-0.048760746
2	0xbf92d068	-1.146985
3	0xbe8a5c1a	-0.27023393
4	0x3f9b2599	1.2120849
5	0xbf8aa3e7	-1.0831269
6	0x3ee93971	0.45551637
7	0xbf7748c9	-0.96595436
8	0x3fb5246e	1.4151742
9	0xbfaa6393	-1.3311638
10	0xbfea4606	-1.830262
11	0xbc86926c	-0.016427241
12	0xbfa1a837	-1.262946
13	0x3f746488	0.954659
14	0x3f8488f7	1.0354298
15	0x41353d15	11.327413
16	0xbf83ae6e	-1.0287607
17	0xbfd68d03	-1.6761783
18	0xbd743cac	-0.059628174
19	0xbdb334b0	-0.08750284
20	0xbf678f2c	-0.9045284
21	0xc08cf591	-4.4049764
22	0x40e6a151	7.207192
23	0x3f58c03c	0.84668326
24	0xbd68fc32	-0.056881137
25	0xbf7717d3	-0.9652073
26	0xbf80f78f	-1.0075549
27	0xbda8e077	-0.08245938
28	0x3f800f2e	1.0004632
29	0xbf65bc8b	-0.8974082
30	0x408ff786	4.4989653
31	0xbfa24d18	-1.2679777
32	0xbfe0f71c	-1.7575412
33	0xbf770e44	-0.9650614
34	0x3f83bdcc	1.0292296
35	0x3cab9957	0.020947142
36	0xbf8c4807	-1.0959481
37	0xbf911d8d	-1.1337143
38	0x40ca4e36	6.322047
39	0xbf2eec1f	-0.6832904
40	0x3d1fff06	0.03906157
41	0xbf5bc567	-0.8584809
42	0xbfff6d43	-1.9955219
43	0xbf891a0f	-1.0711077
44	0xbf7995b3	-0.9749405
45	0xbff17cc5	-1.8866202
46	0x3bfd8f64	0.0077380408
47	0x3f839187	1.0278786
48	0xc0106ce4	-2.2566462
49	0x40ecfedf	7.406112
50	0xbf1bdea4	-0.608866
51	0xbf95ef44	-1.1713643
52	0x4140310f	12.011977
53	0x413494ac	11.286297
54	0xbf6d04ef	-0.92585653
55	0x3f23d5a5	0.6399787
56	0x3f109a34	0.56485295
57	0xc0279b7d	-2.6188653
58	0xc021ca3a	-2.527968
59	0xbf707ab2	-0.9393722
60	0xc0269135	-2.6026127
61	0x3de95ea2	0.11395003
62	0xbfe49ce9	-1.7860385
63	0xbf9ffd52	-1.2499182
64	0xbf8a4b15	-1.0804163
65	0xbf94e001	-1.163086
66	0x3d8572ed	0.06516061
67	0xbf82aa19	-1.020816
68	0x3f8dd859	1.1081649
69	0xc081f176	-4.060725
70	0xbf90be5f	-1.1308097
71	0x404cb318	3.198431
72	0xbfa1eff5	-1.2651354
73	0xbf82828a	-1.0196087
74	0xbd91ec30	-0.07125127
75	0x3ff14ff5	1.8852526
76	0xbf7065d5	-0.93905383
77	0xbcd5c891	-0.026096614
78	0x3f86b6b5	1.0524508
79	0xbffb4efc	-1.9633479
80	0x4015d273	2.3409698
81	0xbf79a231	-0.9751311
82	0x3d3c8178	0.04602191
83	0x3fe63c3a	1.798713
84	0xbf880bd0	-1.0628605
85	0xbfdd014b	-1.726602
86	0x406f50c4	3.7393045
87	0x3f0bfbc2	0.54681027
88	0x3f968e92	1.1762259
89	0x3db1b30f	0.08676731
90	0x41098770	8.595566
91	0x412bf685	10.747685
92	0xbfdf9ecc	-1.7470336
93	0xbf9410a9	-1.1567584
94	0xbf8e10a6	-1.1098831
95	0xbf8f34c3	-1.1187977
96	0xbe0dd124	-0.13849312
97	0x3b3cd6a0	0.002881445
98	0xbd01f144	-0.03172423
99	0x3d852274	0.06500712
100	0xbf7518f3	-0.95741194
101	0xc0287b0e	-2.6325107
102	0x40f52197	7.6603503
103	0x3c8d87ac	0.017276607
104	0xbf9bd148	-1.2173243
105	0xc09d3d26	-4.9137144
106	0xc0492335	-3.1427739
107	0x3ecfa391	0.4055448
108	0xbfa5029f	-1.2891425
109	0x3cadb84e	0.021206047
110	0xbf8dfcb4	-1.1092744
111	0xc03dac90	-2.9636574
112	0xbd6016db	-0.054709297
113	0x3cf147ca	0.029453177
114	0xbc87a6fd	-0.016559118
115	0xbfc905a9	-1.5704852
116	0x3d69b952	0.0570615
117	0xbf6a6dea	-0.91573966
118	0x3fafa37a	1.3721764
119	0xbf7c1507	-0.98469585
120	0xbe2e50f2	-0.17023066
121	0xc04bc54f	-3.1839178
122	0xbfa11cd2	-1.258692
123	0x3f5c566a	0.8606936
124	0xc00cd77d	-2.2006524
125	0xbdb99440	-0.090614796
126	0xbd5f8d59	-0.05457816
127	0xbfebf7da	-1.8435013
128	0xc12402ac	-10.250652
129	0xbcdaa901	-0.026691915
130	0x3f8db34c	1.1070342
131	0x3e7a714a	0.24457279
132	0xbf8df833	-1.1091369
133	0x3f95e0fc	1.1709285
134	0xbe9825d0	-0.2971635
135	0x3f7b3093	0.98120993
136	0xbfae3443	-1.3609699
137	0x3faa6b28	1.3313951
138	0x3fddca21	1.732731
139	0x3d7a4e93	0.06111009
140	0x3fa3c5ff	1.2794799
141	0xbf843836	-1.0329654
142	0xbf8b8560	-1.0900078
143	0xc1347970	-11.279648
144	0x3f66cf80	0.9016037
145	0x3fd07b61	1.6287652
146	0xbbbe30b7	-0.005804147
147	0xbc79f363	-0.015255782
148	0x3f6a7cc8	0.9159665
149	0x408d3786	4.413028
150	0xc0eb5c0a	-7.354985
151	0xbf60a5bd	-0.87752897
152	0x3d14305d	0.036178935
153	0x3f80e0ba	1.0068581
154	0x3f7c9a1a	0.9867264
155	0xbd9b272d	-0.075758316
156	0xbf736fdd	-0.95092565
157	0x3f6fcabd	0.9366873
158	0xc090260a	-4.5046434
159	0x3fab190f	1.3367022
160	0x3fe27721	1.7692605
161	0x3f89e8ad	1.0774132
162	0xbf9625ae	-1.1730249
163	0xbd54f7fa	-0.0519943
164	0x3f9685f8	1.1759634
165	0x3f815473	1.0103897
166	0xc0cae4a2	-6.3404093
167	0x3f2f0137	0.6836123
168	0x3c0f8c14	0.008761425
169	0x3f7732d6	0.96561944
170	0x40003807	2.0034196
171	0x3f7e01e9	0.99221665
172	0x3f81fa03	1.0154423
173	0x3fe08f65	1.754376
174	0xbd9bef2e	-0.07613979
175	0xbf79ec94	-0.97626615
176	0x40115593	2.270848
177	0xc0e90b00	-7.282593
178	0x3f294f84	0.66136956
179	0x3f886ac3	1.0657581
180	0xc13f2b39	-11.948052
181	0xc134ef39	-11.308404
182	0x3f6f57ac	0.9349315
183	0xbf45070f	-0.76963896
184	0xbeef52f2	-0.4674297
185	0x40261710	2.5951576
186	0x401e9662	2.4779286
187	0x3f71c7e1	0.94445616
188	0x40265fc9	2.5995963
189	0x3c7fdd3c	0.015616711
190	0x3fdcda20	1.7254066
191	0x3fa61af8	1.297698
192	0x3f8c0a2a	1.0940602
193	0x3f8f4a47	1.1194543
194	0xbd45f439	-0.048328612
195	0x3f80a0b8	1.0049047
196	0xbf947d2d	-1.1600701
197	0x4085433d	4.164458
198	0x3f86530a	1.0494092
199	0xc04b1ad1	-3.1735117
200	0x3fa2e091	1.2724782
201	0x3f885e75	1.0653826
202	0xbd96418b	-0.0733672
203	0xbff15d35	-1.885657
204	0x3f860fa4	1.0473523
205	0x3ba2dd66	0.0049702404
206	0xbf78b04a	-0.97143996
207	0x3ff5db9a	1.9207642
208	0xc0114f03	-2.2704475
209	0x3f8def95	1.108874
210	0x3c5b3349	0.013378927
211	0xbfd76f51	-1.6830846
212	0x3f81a5e6	1.0128753
213	0x3fcd1d52	1.6024573
214	0xc06fc139	-3.7461684
215	0xbf06080f	-0.52356046
216	0xbfa022b7	-1.2510594
217	0xbb9cf0fd	-0.00478947
218	0xc1095da1	-8.585359
219	0xc12cf725	-10.810338
220	0x3fdb59f1	1.7136823
221	0x3f96789b	1.1755556
222	0x3f83bf49	1.0292751
223	0x3f803686	1.0016639
224	0x3e4c2de6	0.19939384
225	0xbceb7c0b	-0.028745672
226	0x3d88dacc	0.06682357
227	0x3d635eb3	0.055510234
228	0x3f65f1ce	0.8982209
229	0x40319f04	2.7753305
230	0xc0f544ad	-7.6646333
231	0x3d8bd22d	0.06827197
232	0x3f9b54ac	1.2135215
233	0x409d09a4	4.907427
234	0x40490e6a	3.1415048
235	0xbf03b47a	-0.5144726
236	0x3f973ff6	1.1816394
237	0xbb881a9c	-0.0041535627
238	0x3f9ee164	1.2412534
239	0x403e9f41	2.97847
240	0xbb36b76f	-0.002788033
241	0xbc9de0d1	-0.01927224
242	0x3b74e88c	0.0037370054
243	0x3fc7a24c	1.5596404
244	0x3db1e5f3	0.086864375
245	0x3f59ce0e	0.8508004
246	0xbfb34a28	-1.4007006
247	0x3f7cd40d	0.98761064
248	0x3e5dc6f7	0.2165793
249	0x404e4c79	3.2234175
250	0x3faf4eaf	1.3695887
251	0xbf3332d8	-0.69999456
252	0x400998b2	2.1499448
253	0x3cadc97f	0.021214245
254	0x3d72f48b	0.059315246
255	0x3fedbedb	1.857387

bias f4 [2]
0	0xc02c556e	-2.6927142
1	0x402a1ba5	2.6579373
