models/maintainance_agent/0/D3QN_Q_target.pth (torch, 7311 bytes, 7 tensors)

weight f4 [32, 11]
-6.066917 4.087233 -1.0880075 4.0262175 5.9629173 5.1046414 -0.287832 0.33165646
-8.823892 4.4235578 4.4299426 2.1890848 0.7148946 0.10542762 1.5971848 2.0060182
1.7251431 -0.27752665 -0.23378868 2.4512467 0.03352126 -0.22835903 -0.36341882 0.115450576
-0.01657018 0.20615329 -0.031485815 0.08568846 0.0027349943 -0.12740953 -0.33912393 0.011422216
-0.28287733 -6.1464715 4.1134677 -0.5950339 3.9357762 5.990989 5.39631 -1.5699961
0.31402135 -8.735761 4.5834837 4.3490515 -6.3418207 4.5185213 -0.5586341 3.844363
6.434693 5.343483 -0.43425566 0.25634935 -8.721498 4.217506 4.570467 3.3876665
1.7631657 1.1074511 1.43478 1.6007023 2.1277027 0.06952862 -0.010623156 3.5782464
-1.1671193 0.021020992 -5.9331408 3.7925622 -0.864052 4.3119583 6.3101254 5.06794
-0.18606581 0.3991499 -8.722773 4.1859555 4.3663893 2.4385319 1.0233696 -0.09033966
1.6286737 2.3318267 1.5627881 -0.31143504 -0.21242452 2.6677878 -0.2447495 0.1167887
-5.975446 4.053506 -1.011719 4.0004764 6.47376 5.2954526 -0.1411235 0.33768067
-8.78728 4.5324173 4.466047 -6.2830124 4.288394 -1.1138374 4.223998 6.2817965
5.2879653 -0.39196894 0.56583995 -8.338219 4.487613 4.6766973 6.7208343 -3.5281901
0.7689596 -2.9825118 -5.7661295 -4.7936835 3.0733085 0.77991384 8.674057 -3.571775
-4.0877886 6.848961 -3.7861102 0.90407246 -3.1451032 -5.7948985 -4.7497883 3.0906832
0.77498126 8.784294 -3.4435747 -4.4729137 -6.277589 4.0566673 -0.5657714 4.0054708
6.085258 5.1191835 -1.648273 0.2190812 -8.607065 4.152096 4.5989046 -6.4568963
3.8802612 -1.0243123 3.785377 6.186268 4.9875474 -0.3933735 0.49555913 -9.027165
4.2250013 4.1265163 7.0573053 -3.5895507 0.8118745 -2.9662025 -5.5482116 -4.62872
3.1899033 0.77634037 8.7773 -3.619925 -4.5611463 2.0562103 0.65056896 -0.0872737
1.4069524 2.0786142 1.5759485 -0.29422516 -0.21070534 2.3546236 -0.32330766 -0.043800145
1.9839745 0.88967085 -0.26542896 1.1655269 2.2307606 1.6185861 -0.4267724 -0.20290275
2.321464 -0.12154772 -0.13921721 -6.1615715 4.1595063 -1.2346852 3.9067369 6.466901
5.2761292 0.028492087 0.32827076 -8.48716 4.3068643 4.715721 0.03540808 -0.10355258
-0.26536474 0.22621703 -0.26127094 -0.22432464 -0.28497544 -0.20726752 -0.0928486 0.29124874
-0.1439492 1.938273 0.6652012 0.16769767 1.1146986 1.6992377 1.7340293 -0.46950614
-0.21861714 2.391463 -0.4108743 0.12656611 -7.143071 3.6218162 -0.4234045 3.9637065
5.21951 4.873252 0.07065914 -0.14087933 -8.330142 3.2476943 4.402174 2.626288
0.5650221 0.035377473 1.2937554 1.7918739 1.6059666 -0.18553363 -0.20800716 2.487356
0.12902972 -0.24164192 -0.17510317 0.20026958 0.09319022 0.2733885 -0.27124062 -0.17658812
-0.19478938 -0.24678202 0.114387125 0.01129967 0.23121232 -6.144287 4.685701 -0.62903225
00000000: 2f24 c2c0 9dca 8240 d443 8bbf c6d6 8040
00000010: 38d0 be40 3959 a340 b75e 93be e0ce a93e
00000020: a92e 0dc1 c98d 8d40 17c2 8d40 f719 0c40
00000030: 5503 373f 70ea d73d 8d70 cc3f 9a62 0040
00000040: 7dd1 dc3f f917 8ebe 4d66 6fbe 3ae1 1c40
00000050: 974d 093d f3d6 69be 0812 babe 5a71 ec3d
00000060: 30be 87bc d919 533e 45f7 00bd 6e7d af3d
00000070: 973d 333b a577 02be a7a1 adbe 3f24 3b3c
00000080: 4cd5 90be e5af c4c0 87a1 8340 2454 18bf
00000090: c2e3 7b40 2fb6 bf40 92ae ac40 a2f5 c8bf
000000a0: 68c7 a03e adc5 0bc1 e6ab 9240 6e2b 8b40
000000b0: 32f0 cac0 ba97 9040 a502 0fbf 0b0a 7640
000000c0: 01e9 cd40 d0fd aa40 c256 debe 3940 833e
000000d0: 418b 0bc1 cff5 8640 4441 9240 87cf 5840
000000e0: 6aaf e13f f5c0 8d3f dfa6 b73f d0e3 cc3f
000000f0: 482c 0840 0565 8e3d bf0c 2ebc fd01 6540
00000100: 2a64 95bf 3734 ac3c 4adc bdc0 57b9 7240
00000110: 8332 5dbf 90fb 8940 8cec c940 912c a240
00000120: 0988 3ebe 605d cc3e 7a90 0bc1 59f3 8540
00000130: 76b9 8b40 e810 1c40 c6fd 823f 0004 b9bd
00000140: 6178 d03f a63c 1540 7109 c83f 6a74 9fbe
00000150: d085 59be 09bd 2a40 9d9f 7abe ea2e ef3d
00000160: db36 bfc0 52b6 8140 0280 81bf e703 8040
00000170: 0b29 cf40 5974 a940 ae82 10be 7be4 ac3e
00000180: b398 0cc1 9009 9140 dbe9 8e40 700e c9c0
00000190: 863a 8940 3992 8ebf fe2a 8740 7a04 c940
000001a0: 0337 a940 27b0 c8be e3da 103f 5869 05c1
000001b0: 879a 8f40 81a7 9540 1311 d740 decd 61c0
000001c0: 89da 443f 79e1 3ec0 2284 b8c0 db65 99c0
000001d0: 16b1 4440 6fa8 473f f0c8 0a41 f697 64c0
000001e0: 2acf 82c0 b02a db40 a14f 72c0 4b71 673f
000001f0: 5f49 49c0 cf6f b9c0 44fe 97c0 c1cd 4540
00000200: 2c65 463f 788c 0c41 8763 5cc0 1c22 8fc0
00000210: 02e2 c8c0 38d0 8140 65d6 10bf d12c 8040
00000220: 6fba c240 5ad0 a340 9cfa d2bf d256 603e
00000230: 8ab6 09c1 f8dd 8440 3a2a 9340 e59e cec0
00000240: 3356 7840 aa1c 83bf 9e43 7240 e8f5 c540
00000250: fd99 9f40 4068 c9be edb9 fd3e 456f 10c1
00000260: 3633 8740 6c0c 8440 72d5 e140 33bb 65c0
00000270: 02d7 4f3f 43d6 3dc0 f38a b1c0 791e 94c0
00000280: 6027 4c40 3ebe 463f d26f 0c41 daac 67c0
00000290: e9f4 91c0 f398 0340 b08b 263f 8ebc b2bd
000002a0: 0417 b43f 0408 0540 aeb8 c93f aea4 96be
000002b0: 24c3 57be 27b2 1640 9588 a5be c867 33bd
000002c0: e0f2 fd3f 78c1 633f 4ee6 87be fc2f 953f
000002d0: c8c4 0e40 d42d cf3f e981 dabe bdc5 4fbe
000002e0: de92 1440 03ee f8bd f58e 0ebe 982b c5c0
000002f0: ad1a 8540 2a0a 9ebf fa07 7a40 daf0 ce40
00000300: 0dd6 a840 3d68 e93c 1b13 a83e 68cb 07c1
00000310: d5d1 8940 30e7 9640 1008 113d 6013 d4bd
00000320: e3dd 87be 70a5 673e 4ec5 85be 5cb5 65be
00000330: 4de8 91be f03d 54be 6827 bebd 8e1e 953e
00000340: 6b67 13be 5419 f83f a04a 2a3f f0b8 2b3e
00000350: 72ae 8e3f 9f80 d93f acf4 dd3f 1c63 f0be
00000360: 2cdd 5fbe bb0d 1940 1e5e d2be 8c9a 013e
00000370: 0a94 e4c0 d6cb 6740 7ac8 d8be 5ead 7d40
00000380: 3a06 a740 aef1 9b40 bdb5 903d ac42 10be
00000390: 4348 05c1 39da 4f40 9cde 8c40 1a15 2840
000003a0: 4aa5 103f f8e7 103d c799 a53f 205c e53f
000003b0: 5090 cd3f 87fc 3dbe d4ff 54be d730 1f40
000003c0: 5e20 043e fb70 77be 3f4e 33be 7813 4d3e
000003d0: 84da be3d 94f9 8b3e 0de0 8abe 84d3 34be
000003e0: de76 47be 6db4 7cbe cc43 ea3d 4022 393c
000003f0: ecc2 6c3e 009e c4c0 43f1 9540 4208 21bf

bias f4 [32]
6.4894857 2.26647 -0.07545136 6.7462654 6.6504726 2.2067845 6.835058 2.0095177
6.736404 6.3403535 -5.8460283 -6.245969 6.835468 6.7524657 -5.8809514 2.1422577
2.1526322 6.9872875 -0.13394617 2.1276429 6.301401 1.9234531 -0.0636158 6.8204966
6.373602 6.631833 -6.254819 6.676816 6.4305735 6.5939817 6.6701126 6.7501626
00000000: dea9 cf40 d80d 1140 3e86 9abd 68e1 d740
00000010: acd0 d440 f53b 0d40 ccb8 da40 f09b 0040
00000020: 9f90 d740 2de4 ca40 aa12 bbc0 fade c7c0
00000030: 27bc da40 3314 d840 c130 bcc0 c01a 0940
00000040: bac4 0940 dc97 df40 2f29 09be 4d2b 0840
00000050: 14a5 c940 b633 f63f 0049 82bd 8241 da40
00000060: 8cf4 cb40 fa37 d440 7a27 c8c0 7aa8 d540
00000070: 42c7 cd40 e601 d340 9071 d540 5501 d840

weight f4 [16, 32]
2.3763351 -2.2697873 -0.070057124 1.7088311 2.4957862 -3.084823 2.0810034 -2.7414882
2.202617 1.6515772 -2.752724 -2.8109899 2.0844128 1.8721788 -2.83326 -2.5819852
-2.5832667 2.6118872 0.13260569 -2.0138094 4.9391093 -2.7804377 0.11729251 2.8915813
1.9153793 2.3867526 -3.0427108 5.5921783 1.6048715 1.7820045 1.7954859 1.475575
0.16169776 0.052869514 -0.05816876 -0.14945611 -0.14056352 -0.011907473 0.093264386 0.11258526
-0.084880464 -0.07372493 -0.11303114 0.026634634 -0.006068215 -0.16507374 0.0366219 0.15944044
0.013904765 -0.08307753 -0.061607167 -0.06232956 -0.17272659 -0.15610337 -0.053583033 -0.0030133724
0.008384123 -0.051773846 -0.15810032 0.0767061 0.030711904 0.04685712 -0.052248858 -0.035463005
3.244991 -2.2415166 -0.09568119 2.1283922 3.0166764 -2.6594775 3.030938 -2.4310932
3.1313052 2.7357016 -0.47369814 -0.41025674 2.2707772 2.648286 -0.36012247 -2.2116387
-2.3525732 3.6511111 -0.031112283 -2.0520384 4.885716 -2.5158253 -0.027209967 2.5393577
3.1191473 2.4042418 -0.7191924 5.138023 2.4590414 2.4894068 2.3399107 2.8335063
2.4237723 -2.2392967 0.06876818 2.013269 2.5266252 -3.15117 2.2512276 -2.5149913
2.4309204 1.727512 -2.3926063 -2.3539088 2.1155214 1.6777716 -2.3782742 -2.355349
-2.3577445 2.4949167 0.15533759 -1.8381186 5.0536575 -2.6287374 0.17103513 2.8053489
2.1478474 2.3635516 -2.5223427 5.8477345 1.7350508 1.6151259 1.7630957 1.876463
2.060623 -2.3583226 -0.09099775 1.4157884 2.1852832 -2.380447 1.6869217 -2.582603
2.1982505 1.4093775 -4.258552 -4.2499275 1.7742672 1.2837352 -4.1016426 -2.5165014
-2.5204973 2.1281884 -0.16344842 -1.877658 4.9557514 -2.7303596 0.16457961 2.622297
1.7113638 2.2251732 -4.214356 5.83341 1.230483 1.5539768 1.5993185 1.287104
0.1963811 0.16287133 -0.0018364417 -1.3450294 -0.6702346 -0.7372239 0.37475187 -0.08481526
0.48173335 0.22893542 2.1036038 1.9744247 -1.6888914 0.26714155 2.1323714 0.0073510758
0.0689902 0.6788608 0.0769452 0.06965926 0.96408665 0.0054180324 0.14084654 -3.5897844
1.1127827 -2.3223047 2.059593 -1.2894393 0.17490293 -0.7750519 -0.6058815 0.8182603
1.9690298 -2.5769105 -0.051761094 1.6348172 2.0223513 -2.27935 1.8108076 -2.9073768
1.9430972 1.2104046 -4.5168986 -4.476887 1.8694248 1.2993366 -4.3743973 -2.5167754
-2.771881 2.300691 -0.039908066 -2.2758467 5.0318093 -2.6460478 -0.10113343 2.6034129
1.7098018 2.342723 -4.530052 5.648466 1.1389753 1.457594 1.5105823 1.2257001
0.01749067 -0.21135679 0.016335227 -0.02509202 -0.12871397 -0.032111663 -0.07072769 -0.03949594
-0.2009349 0.11136915 -0.03066904 -0.055305343 -0.0179114 -0.036953464 0.07630519 0.017123498
0.05215523 -0.060758427 0.15792741 0.10524327 0.13915461 0.11442836 -0.16789846 0.1058142
-0.1247668 0.12096237 -0.13259268 -0.030098587 -0.14154428 -0.13703199 0.14792751 0.050753772
00000000: e015 1840 3244 11c0 1c7a 8fbd faba da3f
00000010: f6ba 1f40 bd6d 45c0 292f 0540 8b74 2fc0
00000020: adf7 0c40 e266 d33f a12c 30c0 42e7 33c0
00000030: 0567 0540 8ea3 ef3f 2254 35c0 3f3f 25c0
00000040: 3e54 25c0 2929 2740 c9c9 073e 41e2 00c0
00000050: 2f0d 9e40 b1f2 31c0 0e37 f03d ab0f 3940
00000060: 262b f53f 8ec0 1840 c6bb 42c0 20f3 b240
00000070: 6e6c cd3f b918 e43f 7bd2 e53f a4df bc3f
00000080: 1994 253e b48d 583d 5e42 6ebd 060b 19be
00000090: e2ef 0fbe 9017 43bc 6601 bf3d 1a93 e63d
000000a0: cfd5 adbd 19fd 96bd df7c e7bd e030 da3c
000000b0: e0d7 c6bb 1709 29be d800 163d 5b44 233e
000000c0: d0d0 633c 8d24 aabd cc57 7cbd 484d 7fbd
000000d0: 3ddf 30be 90d9 1fbe e279 5bbd 007c 45bb
000000e0: 905d 093c d010 54bd 0de5 21be 1618 9d3d
000000f0: 8897 fb3c 40ed 3f3d e602 56bd a841 11bd
00000100: efad 4f40 0275 0fc0 80f4 c3bd 9437 0840
00000110: 3a11 4140 e134 2ac0 e3fa 4140 0897 1bc0
00000120: 4e67 4840 bc15 2f40 9088 f2be 2c0d d2be
00000130: 6a54 1140 857d 2940 f961 b8be 7d8b 0dc0
00000140: 8f90 16c0 ceab 6940 30df febc 9954 03c0
00000150: c957 9c40 4803 21c0 70e7 debc d684 2240
00000160: 1ca0 4740 19df 1940 fe1c 38bf af6a a440
00000170: ef60 1d40 7152 1f40 19c1 1540 2b58 3540
00000180: 161f 1b40 a350 0fc0 55d6 8c3d 66d9 0040
00000190: 3ab4 2140 c5ac 49c0 1d14 1040 9ef5 20c0
000001a0: 3394 1b40 1d1f dd3f 7620 19c0 71a6 16c0
000001b0: b464 0740 38c1 d63f a535 18c0 0abe 16c0
000001c0: 49e5 16c0 b7ac 1f40 d110 1f3e 7847 ebbf
000001d0: 90b7 a140 3c3d 28c0 d523 2f3e d68a 3340
000001e0: 5576 0940 6e44 1740 106e 21c0 a420 bb40
000001f0: 2516 de3f 72bc ce3f 1fad e13f f12f f03f
00000200: 3fe1 0340 c2ee 16c0 075d babd 8e38 b53f
00000210: aedb 0b40 3e59 18c0 0ded d73f 5e49 25c0
00000220: 23b0 0c40 7b66 b43f 0f46 88c0 68ff 87c0
00000230: 301b e33f 6f51 a43f a840 83c0 5c0e 21c0
00000240: d44f 21c0 3d34 0840 065f 27be 1957 f0bf
00000250: 8495 9e40 36be 2ec0 8f87 283e b7d3 2740
00000260: f80d db3f 3d69 0e40 01dc 86c0 4bab ba40
00000270: 7880 9d3f b6e8 c63f 78b6 cc3f d3bf a43f
00000280: 2118 493e bec7 263e c2b4 f0ba ec29 acbf
00000290: 7f94 2bbf b5ba 3cbf 7adf bf3e 9fb3 adbd
000002a0: c1a5 f63e 0c6e 6a3e 72a1 0640 f3b9 fc3f
000002b0: 982d d8bf c7c6 883e c678 0840 4be1 f03b
000002c0: bc4a 8d3d d2c9 2d3f 7295 9d3d 84a9 8e3d
000002d0: 62ce 763f c089 b13b 133a 103e 07bf 65c0
000002e0: aa6f 8e3f a4a0 14c0 5fd0 0340 590c a5bf
000002f0: c119 333e cd69 46bf 0d1b 1bbf 8279 513f
00000300: 2b09 fc3f 1aec 24c0 7103 54bd b141 d13f
00000310: 346e 0140 dfe0 11c0 8bc8 e73f 7612 3ac0
00000320: 69b7 f83f 8aee 9a3f 6f8a 90c0 a942 8fc0
00000330: 5049 ef3f a950 a63f 10fb 8bc0 d912 21c0
00000340: 8066 31c0 853e 1340 a476 23bd 79a7 11c0
00000350: 9504 a140 d958 29c0 0b1f cfbd 519e 2640
00000360: c9da da3f 2cef 1540 30f6 90c0 3cc0 b440
00000370: f1c9 913f 7192 ba3f c35a c13f bee3 9c3f
00000380: 9848 8f3c ea6d 58be 74d1 853c c88d cdbc
00000390: 98cd 03be 8587 03bd aed9 90bd 7fc6 21bd
000003a0: e1c1 4dbe 8215 e43d a33d fbbc db87 62bd
000003b0: eeba 92bc 845c 17bd e545 9c3d 9446 8c3c
000003c0: b9a0 553d d4dd 78bd b9b7 213e c989 d73d
000003d0: 8c7e 0e3e 6a59 ea3d 93ed 2bbe 1eb5 d83d
000003e0: bc85 ffbd 1ebb f73d 60c6 07be 5091 f6bc
000003f0: fcf0 10be 1d52 0cbe 4f7a 173e 30e3 4f3d

bias f4 [16]
5.824825 0.020966217 5.9484677 5.391164 5.62816 -0.01938659 5.706087 -0.11622097
0.5726513 2.3435025 6.4836164 0.16497864 5.5211997 0.050440103 -0.0980931 0.1205587
00000000: f764 ba40 58c1 ab3c d959 be40 6a84 ac40
00000010: e319 b440 a0d0 9ebc 4498 b640 4305 eebd
00000020: 4799 123f f2fb 1540 c979 cf40 29f0 283e
00000030: abad b040 489a 4e3d 09e5 c8bd 7be7 f63d

weight f4 [1, 16]
2.9987185 -0.16533315 3.4971912 3.242518 4.2710776 2.8257458 4.911729 0.15675291
2.1078615 -3.0780847 5.4998765 0.06463179 3.4122336 -0.19062626 0.029655844 -0.21956435
00000000: 01eb 3f40 184d 29be fbd1 5f40 6a85 4f40
00000010: abac 8840 05d9 3440 e22c 9d40 d683 203e
00000020: 34e7 0640 57ff 44c0 fdfe af40 ac5d 843d
00000030: 0962 5a40 8833 43be d0f0 f23c 7ad5 60be

weight f4 [2, 16]
1.1803544 -0.057446867 -0.1048128 0.8802889 1.3830509 -0.46984696 1.25066 0.12519446
0.09521046 2.5872273 1.5905854 -0.18050385 1.1907575 -0.047858477 0.109943114 0.08902335
-1.0686995 0.23119456 0.129459 -0.9508156 -1.3385398 0.39043936 -1.5374448 -0.02933613
0.013104041 -2.3472626 -1.5047785 -0.16390175 -1.1783769 0.1256631 0.22433063 0.20668675
00000000: da15 973f 684d 6bbd 18a8 d6bd 9d5a 613f
00000010: d007 b13f c88f f0be a015 a03f fa32 003e
00000020: b4fd c23d 2295 2540 4d98 cb3f 00d6 38be
00000030: be6a 983f 4007 44bd db29 e13d e051 b63d
00000040: 25cb 88bf 44be 6c3e e690 043e a768 73bf
00000050: 4655 abbf abe7 c73e feca c4bf 5352 f0bc
00000060: 55b2 563c 8d39 16c0 959c c0bf dcd5 27be
00000070: 0ed5 96bf d4ad 003e eeb6 653e b1a5 533e

bias f4 [2]
2.8282115 -3.197133
00000000: 6b01 3540 d49d 4cc0
