explainability/stages/final_3/cache_agent/6/D3QN_q_target.pth (torch, 80271 bytes, 7 tensors)

weight f4 [128, 15]
00000000: 841b c93f 31f1 9abf 22e2 3ac0 270f afc0
00000010: a5a1 f6be 4fc0 08bf 948e 2d3f 297b 883f
00000020: 3837 e4bc 9e36 313e b3b2 083f 12b8 0abe
00000030: edb5 85bf 898d 093f ddf7 553d cc9f db3f
00000040: d92b 89bf c53e 31c0 efd8 a3c0 b715 50be
00000050: 747b 07bf 9cae 1a3f fac2 703f 74c7 b1be
00000060: 809a 1fbb 0163 f73e 19ec 9fba 12b4 81bf
00000070: f943 133f 80ce 4f3e 9b2b f13f f582 87bf
00000080: 20cf 31c0 5847 a3c0 62c8 e93e 427b 61bf
00000090: c9d8 3a3f 101c 8c3f 0acb 1e3e 0e97 553e
000000a0: 7b5f 7f3f 1cc4 813d 4d0a 64bf 32d3 173f
000000b0: 94dc 813e 33d6 0140 1fde 43bf 0953 29c0
000000c0: a29f a2c0 53d6 e13d b669 20bf a088 383f
000000d0: 57f3 623f 7d75 35be 2061 bfbd a142 633f
000000e0: 4c6b 89bd 9b37 1cbf 65c6 bc3e 8312 9f3e
000000f0: 4abc 543e 0a33 acbd ae73 1dbe 7cf5 ffbd
00000100: af2c 06be c421 2bbe b01b b7bc cb0e 60be
00000110: 9954 57be ea03 6d3e ea0c 00be 7a72 cfbd
00000120: 44ef 52be fdb5 833e 4e0e 04be 483c ec3f
00000130: e6e7 59bf 4df2 2dc0 df6b a7c0 59c9 033e
00000140: e4f2 32bf b6e9 873f 4e6e 933f 209a c73d
00000150: c349 6dbe 73d9 593f 85d7 3b3d 07f9 4abf
00000160: 92d1 613f b08b ac3e 1d01 c13f dbed 63bf
00000170: 8be3 3dc0 98fa a9c0 7cf9 c13d 5001 19bf
00000180: 6888 843f 26d3 823f 44c6 0b3c 9ed4 93bd
00000190: 500a 663f 9d03 7cbd e035 5fbf 4eaf 923e
000001a0: 27fc 883e 339d f53f 9c09 cfbf 871a 49c0
000001b0: 25a7 bbc0 3a19 8b3d da53 0fbf 1e7d 6c3f
000001c0: 6e5c 193f 5688 f4be b82c 033d 475c 383f
000001d0: 8950 bd3c 5c7d a1bf 2aa6 453d 5a1f 173b
000001e0: b3d1 e63f 3df3 86bf 7521 3bc0 8706 afc0
000001f0: 25d8 883e 6e37 36bf 38e5 853f 1d10 813f
00000200: c85f e3bd 5adf 293e 4385 383f 796c 42bd
00000210: 6b8c 63bf 6e14 aa3e 21c3 5b3e 453a e23f
00000220: 2881 9dbf 4f2f 4cc0 3d8a afc0 caf1 b9bf
00000230: 1471 2ebf 749d 333f 8c05 3e3f 74ec a3be
00000240: a880 0cbd e2e4 023f 13a1 3cbe 9268 96bf
00000250: 004b 1b3f d27a c83d dac9 683f 0c62 ea3d
00000260: 559a 323f 59b1 3e3f 4d8c e4bd 1bdb 813f
00000270: d1ff 8a3f 9234 9a3f bd1d cebe ec78 663e
00000280: 415d f43e eb5a 6dbe da38 8c3f 7f92 31be
00000290: cb5a 6fbf 8fa6 fb3f 6075 80bf 0da9 48c0
000002a0: fef2 b5c0 ac4f 1cbe 31ff e8be c92b 113f
000002b0: 7926 943f ab04 6cbe 96f2 72be a329 cf3e
000002c0: 50c9 71bd a551 a0bf ea43 4c3f 5647 533d
000002d0: 41b3 fd3f 07a1 74bf 0b97 26c0 f6c0 a0c0
000002e0: c024 fa3e 3df6 14bf 97ce 4d3f f3a7 703f
000002f0: d5e9 47bd 28fc 443e 8d82 323f 528e 10bd
00000300: 30ce 35bf 3b12 103f b797 363e 86c7 f23f
00000310: 4058 4bbf 9d0a 25c0 07b5 a4c0 5b2e f23c
00000320: e67c e7be 4014 ab3f a9df 8a3f b676 233f
00000330: 9a14 243e 4140 8d3f 2b18 f5bb ce59 e0be
00000340: 9219 4e3f 52c8 9d3e 3199 533e 323f 623e
00000350: 9dfa 1d3d d433 73be 790a d43d bf72 303e
00000360: f638 14bd 17a5 28be 20a6 c23d ceeb 443e
00000370: 1529 933d f805 10bd 8fbf b13d 0c18 233e
00000380: 72f3 5ebe df56 0140 7c99 78bf 5505 39c0
00000390: 7409 a1c0 f161 863e 6d88 1ebf 8982 823f
000003a0: 04cd 963f 214d 913e 3fad 05be d7a9 213f
000003b0: 26e1 48bd b640 4fbf 26ff af3e 2bc2 683e
000003c0: a738 323e b4ee 7dbe 838c 7e3e 904f 4c3e
000003d0: 5f6e 0ebe 5879 413c 48dc 433e c286 cebc
000003e0: f613 96bd 8878 09be c01c b6bd 738a 63be
000003f0: 4563 88bd ee16 413e db2f e0bd 0a94 d23f
1.5711522 -1.2104856 -2.920052 -5.4705997 -0.481702 -0.5341844 0.6779568 1.0662585
-0.027858362 0.17305991 0.53397673 -0.1354678 -1.0446144 0.5373159 0.052238334 1.7158141
-1.0716506 -2.7694561 -5.120231 -0.20320784 -0.5292275 0.6042268 0.9404751 -0.34722483
-0.0024353564 0.4831772 -0.00122011 -1.0133078 0.57525593 0.20293617 1.8841432 -1.058684
-2.778267 -5.102459 0.45660692 -0.880787 0.7298704 1.0946064 0.15507141 0.20858404
0.99755067 0.06336233 -0.8907822 0.59306633 0.253636 2.0286987 -0.76510805 -2.645693
-5.0819864 0.11027207 -0.626613 0.72083473 0.8865256 -0.177206 -0.09344697 0.8877354
-0.067099184 -0.6102235 0.36870113 0.3106881 0.20774952 -0.084081724 -0.1537616 -0.12497994
-0.13102983 -0.167121 -0.02235207 -0.21880643 -0.21028365 0.23146024 -0.12504926 -0.101292565
-0.20599085 0.25724784 -0.12896082 1.8455896 -0.85119474 -2.7179139 -5.231918 0.12869777
-0.6990187 1.0618198 1.1518037 0.09746194 -0.23172669 0.85097426 0.045859832 -0.79286236
0.88210404 0.33700323 1.5078465 -0.89034814 -2.9670131 -5.31184 0.094714135 -0.5976763
1.0354128 1.0220687 0.008531157 -0.07218288 0.89859486 -0.061526883 -0.8719158 0.28649372
0.26754877 1.9188598 -1.6174808 -3.142244 -5.8641534 0.06791921 -0.5598732 0.92378414
0.5990666 -0.47760266 0.03202507 0.72015804 0.023109691 -1.2616382 0.04825417 0.0023059458
1.8032745 -1.054298 -2.923917 -5.469547 0.26727405 -0.7117833 1.0460577 1.0083042
-0.11102253 0.16589108 0.7207834 -0.04746673 -0.88886136 0.33218712 0.21461155 1.7674032
-1.230504 -3.1903875 -5.485625 -1.4526913 -0.68141294 0.7016213 0.74227214 -0.32016337
-0.034302384 0.511305 -0.1842082 -1.1750662 0.60661316 0.09789051 0.90933 0.11444482
0.6976674 0.7448936 -0.11159573 1.0144991 1.0859319 1.2047293 -0.40257064 0.22507066
0.47727397 -0.23179214 1.095485 -0.1734104 -0.93497914 1.9660205 -1.003582 -3.135318
-5.685912 -0.15264767 -0.45507196 0.56707436 1.1574241 -0.23048656 -0.23725352 0.40461454
-0.059029877 -1.2524916 0.7979113 0.051581703 1.9820329 -0.9555821 -2.602969 -5.023555
0.48856163 -0.5818823 0.80393356 0.9400627 -0.048806984 0.19236815 0.69730455 -0.035291977
-0.7101774 0.5627782 0.17831312 1.896714 -0.79431534 -2.5787728 -5.147098 0.02956312
-0.45212477 1.3365555 1.0849506 0.63853014 0.16023484 1.1035234 -0.0074796877 -0.43818516
0.8050777 0.30816895 0.20663907 0.2209442 0.03856908 -0.2375024 0.1035356 0.17231272
-0.036187135 -0.16469227 0.09504342 0.19230577 0.0718557 -0.035161942 0.08679115 0.15927142
-0.21772555 2.0209272 -0.971092 -2.8909504 -5.032404 0.26246598 -0.6192692 1.0196086
1.1781316 0.28379157 -0.1305437 0.6314978 -0.049042843 -0.80958116 0.3437435 0.22730319
0.17404424 -0.2479809 0.24858288 0.19952226 -0.1390929 0.011808716 0.19127 -0.025210742
-0.07328026 -0.13424885 -0.088922024 -0.22220783 -0.06659559 0.18856403 -0.10946628 1.6451428

bias f4 [128]
00000000: 2001 e73f bffb d43f 7721 d53f e5ab ca3f
00000010: 10ef 20be 819c d33f 9465 c93f bb3a c53f
00000020: 857c c13f e0ce da3f aef8 7e3f 72b4 ca3f
00000030: cf81 eb3f e0e2 ee3f 16ff 19be 7d0a e73f
00000040: bdd7 02be 3d6a d13f 6ff9 bf3f fefe f33f
00000050: 00f6 5c3b 607d 3a3e bdaf f2be 3cf9 ac3f
00000060: d5bc bc3f 109e e73f 7ecb cc3f 3287 f6bf
00000070: 88f4 e83f 9e0c c03f 05f8 e2bf 50b2 503d
00000080: 8ab6 dfbd 3bcf ce3c f069 cf3f 104b 8bbc
00000090: 1dfe 923c 803f 133c 0498 a83f 35f8 81bf
000000a0: 5f0a df3f 9960 eb3f b343 0c3f 7d88 e3bf
000000b0: bb14 de3f 9033 8b3e 40f9 f33f 37b8 fabf
000000c0: 470e ba3b c56d 193e cf4f dd3f aafc 09be
000000d0: 9fda 9bbe a762 d5bf 4c76 cc3f fdb0 e93f
000000e0: 6cfb f3bf e0c6 6c3c 3593 ebbd 30e4 e83f
000000f0: a74a 1cbd 1754 d23f b8c0 f33f b899 bc3f
00000100: abd9 d43f 88ba f93f 5569 c0be e820 b7be
00000110: 5248 eebf e894 a13f 699e a53f 3ba4 b13f
00000120: 5975 9b3f 7dcf ee3f d333 98bf bfc9 113d
00000130: 8439 d73f 1f75 0ac0 a74a 9e3f 559a a63f
00000140: db77 09c0 b736 c63f 9f01 0340 d0ce b73c
00000150: 5e88 cf3f 02f6 0240 36e4 de3f 4428 d63f
00000160: d302 f13f 383c ca3f b418 3dbd b7b9 b13f
00000170: 2250 c23f 260b d13f 87f6 c23d 15b9 58bc
00000180: 0653 d93f af43 aa3f 61ec ee3f cea8 4cbe
00000190: f07e 33bf eb7d bd3f 63be e2be e7b2 e23f
000001a0: fc72 b43f 517c 3bbe 25be f4bf a545 b93f
000001b0: 880b 9b3f ca3a e53f 6a4b b93f feed 043e
000001c0: 16c3 9c3f da9a b13f 02e0 1abf 798b b13f
000001d0: e63a 02c0 dfba 823f bc8f 8d3e 0f43 cf3f
000001e0: 1c77 c33f f8b6 493e ba46 d33f b5e9 ef3f
000001f0: e4e3 f0bf 4475 d33f 503e a63f 4a24 1abf
1.8047218 1.6639327 1.6650838 1.5833708 -0.15716195 1.6532136 1.5734124 1.5408548
1.5116125 1.7094383 0.99598205 1.5836318 1.839899 1.8662987 -0.15038714 1.8050076
-0.1277761 1.6360546 1.4997996 1.9062192 0.0033715963 0.1821189 -0.47399703 1.351356
1.4745127 1.8095112 1.5999601 -1.9260008 1.8199625 1.500385 -1.773194 0.050951302
-0.109234884 0.0252453 1.6204205 -0.017003566 0.017943436 0.008987308 1.3171391 -1.0153872
1.742504 1.8388854 0.547908 -1.7776028 1.7350076 0.27187777 1.906044 -1.9587468
0.0056779715 0.1498328 1.7289981 -0.1347529 -0.30440232 -1.6670731 1.5973601 1.8257138
-1.9061103 0.014451712 -0.11502687 1.8194637 -0.03815713 1.6431912 1.9043188 1.4734411
1.6628927 1.951005 -0.37580362 -0.35767293 -1.861582 1.2623568 1.2938968 1.3878244
1.2145187 1.865707 -1.1890815 0.03559279 1.6814427 -2.1633985 1.2366532 1.3015848
-2.1479404 1.5485448 2.046974 0.022437483 1.6213491 2.0462651 1.7413394 1.6731038
1.8828987 1.5799627 -0.046166137 1.3884801 1.5180705 1.6331527 0.095196776 -0.013227721
1.6978462 1.3301905 1.8665887 -0.19986269 -0.70115566 1.4804052 -0.4428588 1.7710847
1.409759 -0.18309142 -1.9120528 1.4474379 1.2112894 1.7908566 1.447614 0.12981412
1.2247036 1.3875382 -0.6049806 1.3870689 -2.0348449 1.0213279 0.27648723 1.619234
1.5270724 0.19698703 1.6505959 1.8743197 -1.8819547 1.6520162 1.2987766 -0.6021162

weight f4 [128, 128]
00000000: f9f3 893f d7e3 e93e 31d4 e53e 9d2c af3e
00000010: d7e3 afbd 1493 ca3e 193c d43e 0603 793f
00000020: 121c 043f 3c9f 403f 825c a13f 7a04 903f
00000030: 81e3 0a3f db47 c73e 1890 863c 6ddd df3e
00000040: 94a8 843d 095d 743f 3842 643f 7e65 d13e
00000050: 31c6 eebd 78b8 c9bc bfb2 ffbf 0000 2b3f
00000060: eb59 993e 6882 7e3f 8370 063f 4844 54bf
00000070: c250 013f d717 fd3e 7022 44bf 8e9c afbd
00000080: 98ff f6bf 3165 5f3d ae00 8f3e e579 9b3d
00000090: f3f3 f93c 6564 b0bd 0371 973e 8880 cfbf
000000a0: e2f6 023f 0189 7c3f 193d 02be 2514 42bf
000000b0: 5e59 013f 2459 8dbd f2c7 2f3f 00ab d1be
000000c0: 61ff 863d a210 e5bc 945d 6a3f aa87 2bbf
000000d0: 50b1 acbf 3d10 5dbe 2c1e a73f 2b31 2d3f
000000e0: edff 75bf 54e2 ed3c 53f3 9bbf 03f6 523e
000000f0: f3a1 b1bd 0f48 193f f66c 013f 579d f73f
00000100: 9214 2340 0104 6e3f 3987 f1bf 2ef6 1ebd
00000110: ffa6 efbe f52d d53e 9c1e a13e f6cc a33e
00000120: fd9e 0840 881c d43e 5280 e2be e899 94bd
00000130: 7f23 fe3e 54a6 1abf 7239 af3e bde7 0d40
00000140: 0817 3abf e88e c73e 554e 923f 9c84 7cbd
00000150: bfb1 c23e ce3c f33e 5daf 153f f9be 893e
00000160: c934 0a3f c0e9 373f e0b5 623b 955e 903f
00000170: 1d2c 533f 0ee7 ef3e a05f 08bd fefc 62bf
00000180: 5ecc c63e 19a5 253f 0b76 253f 627c 8dbd
00000190: 01f1 01bf dd3c 143f c80e 08c0 e799 d43e
000001a0: 406c 4d3e b811 093d 723a 00bf 1dd7 d03e
000001b0: 9509 db3f bc59 303f 7b8c 283f 802e e53c
000001c0: b0ed a13e 5bf9 6c3f 68ad 06c0 41b0 bf3f
000001d0: 0f8d 83bf 49a8 fc3f c6c7 ffbe 1f27 253f
000001e0: dc54 223f bd26 a43d 4f7b 1f3e 9b96 433f
000001f0: 1f36 39bf c8eb c83e 9d76 343f 8762 19bd
00000200: 1324 823f af38 b73e ff18 d93e acf9 e23e
00000210: ca40 48bd 68e0 cc3e 5a10 f83e e994 743f
00000220: 76cb 0c3f c629 4f3f 4871 253f d1ad 823f
00000230: b86a 143f a8ca b63e a8a2 b13d cf7e f53e
00000240: f93e 5ebd f554 7a3f 1626 353f a16b ce3e
00000250: 75a7 a3bd 7360 8dbd 61f3 c5bf 3182 333f
00000260: ade2 ae3e 3fd7 623f 026a e33e cc82 67bf
00000270: 2f54 d33e e5c7 e63e 82c6 53bf 3052 bfbb
00000280: 71a7 edbf b970 833d 0902 d63e d0b9 b2bc
00000290: ef3f 333d 48e5 dbbc 6da3 333e 7c7d e4bf
000002a0: daa1 bd3e 6dd0 7a3f 2301 f8bb e580 35bf
000002b0: 98dd da3e 2d46 283c 32f2 1e3f 86ba 13bf
000002c0: 6ebe 67bd 660f f9bc 9cb9 443f 1121 1cbf
000002d0: d37a c6bf 68d1 75be cafd 9c3f 7ca3 303f
000002e0: c446 7dbf 50b0 21bc de25 b2bf 4ee0 9d3e
000002f0: 044f 1e3d 3b41 313f 9e2d 083f c183 f93f
00000300: ae52 0e40 0866 593f 8e6d e2bf 9358 703c
00000310: 645f 29bf 4a0a dd3e a747 883e 033b db3e
00000320: 2cf3 1b40 a60f af3e 7afa eebe af87 07bd
00000330: 02aa ce3e a66a 4fbf b351 cf3e b8ac 0340
00000340: e3e9 5ebf 1c98 8e3e 322f 913f 0c28 0c3d
00000350: a545 6f3e 053e e23e 3cca 0b3f a40c c93e
00000360: 89a2 243f 59e7 3d3f 5e49 743d c1ee 9f3f
00000370: ac45 2d3f 9d13 cb3e ed3f 8b3c 143d 53bf
00000380: e0a9 f63e 9bee 1f3f 5389 313f 2cd5 7ebc
00000390: bdfd 14bf 5abd 113f fd08 04c0 837f b03e
000003a0: 679b 893e 122b e7bc b76e f1be 1fb6 013f
000003b0: 7bac f33f 052a 2f3f c0d4 223f a307 13bd
000003c0: a68d e93e 5a61 893f 8261 e0bf db81 be3f
000003d0: 6cfb 93bf 07cf 0940 5333 f1be c151 e03e
000003e0: 2500 e03e 8279 a4bd 092a 5e3e b5d1 543f
000003f0: eeb1 44bf 731c fa3e c11a 113f 6212 b2bc
1.077758 0.4568164 0.44888452 0.34213725 -0.08588379 0.39565337 0.414521 0.9727024
0.5160533 0.7524297 1.2606356 1.1251366 0.54253393 0.3892201 0.016426131 0.43723622
0.06477466 0.9545446 0.8916354 0.40897745 -0.11658896 -0.024624094 -1.9976424 0.66796875
0.29951414 0.99417734 0.5251543 -0.8291669 0.5051385 0.4943225 -0.7661505 -0.08574782
-1.9296751 0.054539863 0.27930206 0.07591609 0.030511832 -0.08612899 0.2957841 -1.62111
0.51157963 0.9864655 -0.1271862 -0.7581199 0.5052699 -0.06901768 0.6866447 -0.40950775
0.065916784 -0.027962033 0.9154904 -0.6700388 -1.3491611 -0.21588226 1.3056083 0.6765315
-0.96093637 0.029038586 -1.2183632 0.20601659 -0.086734675 0.5987558 0.50556886 1.9344891
2.5481305 0.9297486 -1.8869392 -0.038808994 -0.46807095 0.41636625 0.31468666 0.3199231
2.1347039 0.41428018 -0.44238526 -0.07255918 0.49636456 -0.60410047 0.34223515 2.2172692
-0.7269139 0.38976216 1.1430155 -0.061649904 0.38026235 0.47507328 0.5847071 0.26903513
0.53986794 0.7184105 0.003459327 1.1278864 0.82489187 0.46855968 -0.03329432 -0.88667285
0.38827795 0.64705044 0.64633244 -0.0690849 -0.5075837 0.5790537 -2.1259022 0.41523668
0.20060825 0.033464164 -0.5008918 0.40789118 1.7112299 0.68886924 0.65839356 0.027976274
0.31626654 0.92567986 -2.1043339 1.4975663 -1.0277423 1.9738857 -0.49957103 0.6451282
0.63410735 0.08015201 0.15574382 0.7640168 -0.7234821 0.39242387 0.7049349 -0.03744748
1.0167259 0.35785434 0.42401883 0.4433111 -0.048889913 0.40014958 0.48449975 0.9553972
0.54997957 0.80923116 0.6462598 1.0209295 0.5797534 0.3570149 0.08673602 0.4794831
-0.054259274 0.97785884 0.7076124 0.4031649 -0.07990924 -0.06903162 -1.5464898 0.7012053
0.34157315 0.8860969 0.44416815 -0.90433955 0.41275164 0.45074382 -0.82724774 -0.005838655
-1.8566724 0.064179845 0.41798428 -0.021817118 0.043762144 -0.026842728 0.1754281 -1.7850795
0.37037545 0.9797428 -0.007568495 -0.708998 0.42747188 0.010270637 0.6208831 -0.5770649
-0.056578092 -0.03040285 0.7684572 -0.60987955 -1.5506233 -0.24005663 1.226495 0.6899946
-0.98936105 -0.009868696 -1.3917806 0.30835193 0.038649574 0.6924016 0.53194606 1.9493333
2.2237964 0.8492131 -1.7689683 0.014669555 -0.6616118 0.43171912 0.26617166 0.4281846
2.436717 0.34191626 -0.46675473 -0.033088382 0.4036408 -0.8102211 0.4049202 2.057417
-0.8707563 0.27850425 1.1342528 0.03421788 0.23366411 0.44187942 0.5460546 0.39267457
0.6431051 0.74181134 0.05964028 1.2494737 0.67684436 0.396634 0.016998256 -0.8251507
0.4817648 0.6247346 0.69350165 -0.015553754 -0.58199674 0.5692955 -2.0630486 0.34472284
0.26876375 -0.02821878 -0.4715478 0.5066852 1.9037012 0.6842349 0.6360588 -0.035895955
0.45615882 1.0732834 -1.7529757 1.4883379 -1.1561103 2.153261 -0.4710947 0.43812373
0.4375011 -0.08030988 0.21695723 0.8313249 -0.76834 0.4884983 0.5668145 -0.021737281

bias f4 [128]
00000000: 12ca c93f e775 c43f cfa5 bf3f a433 8c3c
00000010: f41c c83f 3ca9 50bb 582b b5bc cb47 863f
00000020: f273 b93f 34b0 d13f f9b1 cfbc 5af0 ab3f
00000030: 58cf bbbd 5198 c3bd 6a33 d13f 10b2 1e3f
00000040: 51a3 c73f e509 0d3e 2d26 5b3f 756a 4abe
00000050: 1f0b aebd 9d88 a83e 0d41 8abf ed6c 1f3d
00000060: 33fa acbe 5272 50bf 3433 be3f 77cd bf3f
00000070: e282 1e3d fab6 7f3f d50b 90bf 7d94 88bd
00000080: 2351 c13f 5615 283d 9a56 a93f b48c cc3f
00000090: 0797 cf3f 59b9 c7bb dc02 cc3f 6815 11bf
000000a0: 80fe 2a3f 1c5b 7e3e 1a7f a5bf bb96 cf3f
000000b0: 6783 d83f 983b 443b a826 2abc 977c b1bf
000000c0: 1a18 5c3f bbad 9bbd 330d 7b3b fdcb 1dbf
000000d0: 4d7b c03f fd7d c53f 0347 94be d1e2 5a3d
000000e0: fa82 893f 41ca c5bf e461 bd3e 2011 c639
000000f0: 8d2f c83f 0dbf 963d 5c80 d0bc 4c71 8b3d
00000100: 8289 af3f db04 77be 3686 9dbd 538f bf3f
00000110: 0fec 343d 7fab 8d3f 7ca6 663f eb41 643f
00000120: 295b 503e 2507 74bf 2335 99bf 1f85 9c3f
00000130: 75d2 54be c0d4 9fbc 1163 cfbd 07dd adbd
00000140: bca8 ad3f 9be1 703f a665 333e 9a92 bf3f
00000150: b89c 22be 57b3 a7be e480 3cbf 27b6 343b
00000160: 4d72 72be 437c c03f 2c9e d23f bd1c 9d3d
00000170: fce3 d73f eca5 cf3f 0e6e 6f3e ea06 423f
00000180: 0ecf 243d eb68 9f3f 43be afbf e6d4 b53f
00000190: 3c7e 803f 6524 933c a9af edbc a739 363e
000001a0: b13f c53f 65c2 c93f bb60 a93f 96ac ba3f
000001b0: bc36 083d e7e8 323d f608 1cbd 7f17 c93f
000001c0: f0e4 bdbc b735 d93f b774 3b3c 031c fe3b
000001d0: 4af0 d03d 5ac7 cdbc 966f ba3f a9fc d43c
000001e0: 667b c93f 66cd 94bd ad49 cc3f 45a2 8abd
000001f0: 6dd8 95bd 2881 cb3f a141 c0bd 1280 cf3e
1.5764792 1.5348481 1.4972476 0.017114468 1.5633836 -0.0031839153 -0.022115394 1.049066
1.4488509 1.6381898 -0.025353419 1.3432724 -0.09170407 -0.095505364 1.6343815 0.6199045
1.5596715 0.13773306 0.85605127 -0.19767173 -0.08498215 0.32916728 -1.0801102 0.03892224
-0.33784637 -0.8142444 1.4859376 1.4984578 0.03869904 0.99888575 -1.1253611 -0.06668947
1.5102886 0.041035973 1.3229554 1.5980439 1.6217965 -0.006095093 1.5938373 -0.5667329
0.66794586 0.24839443 -1.2929413 1.6217874 1.6915101 0.0029942747 -0.010385193 -1.3866147
0.85974276 -0.07601496 0.0038307428 -0.61639386 1.5037628 1.5429074 -0.28960428 0.053438965
1.0743096 -1.5452348 0.36988747 0.00037778262 1.5639511 0.07360659 -0.025451832 0.06808719
1.3713839 -0.24122946 -0.07691614 1.4965614 0.044170436 1.1067961 0.90097785 0.8916308
0.20347275 -0.953234 -1.1969341 1.2228125 -0.20783408 -0.019510627 -0.10126317 -0.08489423
1.3567119 0.94094247 0.17519245 1.4966614 -0.15880096 -0.32754013 -0.7363417 0.0027574392
-0.23676415 1.5037922 1.645452 0.07671497 1.686645 1.622251 0.23381826 0.757918
0.040236525 1.2453893 -1.3729938 1.4205596 1.0038524 0.01796169 -0.029014425 0.1779543
1.5410062 1.576245 1.3232645 1.4583919 0.033255324 0.043679144 -0.038094483 1.5710295
-0.023180455 1.6969517 0.011441401 0.007754804 0.102020815 -0.025119472 1.4565303 0.025999384
1.5740783 -0.07265739 1.5959984 -0.06769232 -0.073166706 1.589879 -0.09387518 0.40527397

weight f4 [1, 128]
00000000: 4b12 983f 9f9f 9a3f 6ad5 9d3f 181a 82bd
00000010: 73e4 9e3f bce4 9abd 0c50 83bd c137 aa3e
00000020: cbc2 6340 f42f a33f 796e 54bd 4edc 1540
00000030: dcb6 88bd 2064 cdbb aa63 a33f 3b97 42bf
00000040: 6a0c 9a3f c373 7f3d c8ed 85be 20b8 95bd
00000050: 88e8 42bd 3d7c 7cbd 2ee4 c9bf a5fc 893d
00000060: bdbd 70c0 dee3 5ac0 2383 a03f 2a9d 3540
00000070: 220e 153d 6aae 2f3e b60a f2bf 7656 a6bd
00000080: 9106 a23f 2acf e63b 71bf 6f40 a1c9 923f
00000090: 7c56 9a3f 10dd 43bd 7853 9a3f 8b75 eabf
000000a0: ab73 ae3f 376f 3ebd e526 efbf b59b 993f
000000b0: 9b39 903f 1ce9 09bb 5e5c 623d b82d d6bf
000000c0: cf34 1240 11d3 93bd 7c44 0dbd aae2 5cc0
000000d0: 8e7a fb3f 000e 2240 27dc 74c0 5129 493a
000000e0: c49a bd3f b5a2 cfbf a2f5 cb3e 5eb9 2b3d
000000f0: 6c43 dd3f e757 32bd 8869 2d3c 97c3 3ebd
00000100: 5f1d 5d40 2c5e eabd 759c 92bc 544f a53f
00000110: cffe b4bc 5203 3b40 f50b 103f 40be 173e
00000120: b490 66be 2db7 0ac0 fc5b 56bf 5a90 1640
00000130: e6af 99be 08f6 0c3c b909 d1bc 4264 5abc
00000140: bdc6 2540 e16f 8ebd aec0 d6bd 69c3 9d3f
00000150: b887 9bbd a001 6fc0 112e 13c0 8d0a 993d
00000160: 18c6 f2bd af58 993f b0ce 963f 37d1 36bd
00000170: fa64 913f 2625 983f e0dc 2a3d bc3b 97bf
00000180: 1167 463d b37b 2b40 ab20 eabf 5fbf 7240
00000190: 3b25 993e 28c0 c3bd ef88 d0bd 9e21 a43c
000001a0: 87c8 913f 1b23 a53f b3e5 5240 d40b 9e3f
000001b0: 4669 80bd f1d5 703d 4dff 84bc dc7c 3a40
000001c0: 56f3 1c3b 8854 913f f2c2 64bd c4ae 8abc
000001d0: 3a67 5fbd 086d 483d fcba d03f b7b8 38bd
000001e0: e7be 953f e5a9 1cbd 0d2a ac3f a453 88bd
000001f0: 03f9 a5bd 43e3 9c3f af68 a73c 627a ed3e
1.1880583 1.2079962 1.2330754 -0.06352633 1.2413467 -0.07563159 -0.06411752 0.33245662
3.5587642 1.2749009 -0.051863167 2.3415713 -0.06675503 -0.0062680393 1.276479 -0.7601201
1.2035038 0.06236626 -0.26157975 -0.0731051 -0.04758504 -0.06164192 -1.577276 0.06737641
-3.7615807 -3.420158 1.254002 2.8377175 0.03639043 0.17156377 -1.8909519 -0.0812196
1.2658254 0.007043739 3.7460597 1.1467782 1.2057643 -0.047818244 1.2056723 -1.8317121
1.3629049 -0.04649278 -1.8683745 1.2000643 1.126758 -0.0021043485 0.05526387 -1.6732702
2.2844732 -0.07217992 -0.03448914 -3.4513345 1.9646776 2.5321045 -3.825937 0.0007673698
1.4812856 -1.6221529 0.3983584 0.041924827 1.72862 -0.04354086 0.010584243 -0.046573248
3.4549177 -0.11443743 -0.01789687 1.2914834 -0.022094158 2.9220777 0.56268245 0.14818668
-0.22516137 -2.1674302 -0.83734107 2.3525605 -0.30017012 0.00860358 -0.025517331 -0.013329567
2.590255 -0.06954933 -0.104859695 1.232526 -0.07594246 -3.7344742 -2.2996867 0.074727155
-0.1185419 1.1980189 1.1781826 -0.044633117 1.1358941 1.1886337 0.04171455 -1.1815104
0.048438136 2.679425 -1.829122 3.7929304 0.29911217 -0.09558135 -0.10182368 0.020035561
1.1389321 1.2901338 3.2952697 1.234736 -0.06270079 0.05879778 -0.016235018 2.9138708
0.002394875 1.1353922 -0.055849977 -0.016929038 -0.054541804 0.048932105 1.6307063 -0.045098033
1.1698884 -0.03824796 1.3450333 -0.06656578 -0.08104136 1.2256855 0.02043566 0.46382433

weight f4 [4, 128]
00000000: faf5 e33d b2c8 c7bb fe2c b23d 1507 52bd
00000010: 7d7f 2a3b dd28 ddbd 619f 593d c01f d5bf
00000020: cb09 053e 109e c5bc 1f4b b4bc 0723 503d
00000030: 106e c93a af3a 373d b58d 4abc 9d22 1e3f
00000040: 9d00 7f3c e693 a83c 6ad6 b7be 0ca1 b8bd
00000050: f474 f1bc 36e0 84bd 29d9 853e c44d 7dbd
00000060: 07e6 a03f 49b9 723f 6e81 973c c761 443e
00000070: 29ff 3abd 1e44 173f 6903 ab3e bf64 aabd
00000080: 0af6 b3bc 253a 9f3d ff89 583d 5caf 903d
00000090: 739f 12bd a81b bbbd b5c4 5e3d 8d83 fe3c
000000a0: 0da8 64bf 8a32 d8bd dc2a 903e 4588 d03c
000000b0: 7f22 c23d 86a0 9cbc fe37 4f3d 415c df3e
000000c0: b158 88bf eee9 313d 6cad 75bd 239b 003f
000000d0: f853 bdbc e903 f03d 3236 e53f 3598 01bb
000000e0: 2b56 03bf bf5e bb3e fb4e d6be e45e 83bc
000000f0: 1f0d b9bc 71d8 563d 9a91 9ebd ebda 7c3d
00000100: bf8b 133e 168c 4fbd ace5 0ebc fca9 a0bd
00000110: 51b1 c3bd 60bd 533f f86c 8dbe 2593 1fc0
00000120: da84 efbd a39d 463e 3f47 d3be fe37 ab3f
00000130: ddf1 91be 08e0 5dbd fad8 55bd 512d d9bc
00000140: 38ba 853d 536c e0bf a5d3 733d f597 ab3d
00000150: 0238 f6bd b153 823f 5869 5dbe 0671 a6bc
00000160: 1105 803d 5da9 2f3d f956 9c3d f537 903c
00000170: 0761 c43d 01a4 b73c 2c66 f0be ccdd 3c3f
00000180: 5be3 72bd 0f9d 153f f525 c53e e6f4 88bc
00000190: 6271 433f d289 6dbc a637 a7bd 569f 2abe
000001a0: a5b0 d7bc 3f5f 49bc e1ac 023e f647 1c3d
000001b0: 8efa a33d 7ff1 17bf b6cc 24be 5533 493e
000001c0: 7e6f a3bc 2843 a73d 1acc e03c f965 4b3a
000001d0: 80ba 13be ce90 a5bd 18cf d3bc bd52 14bd
000001e0: dff7 79bc 1283 6b3d 9f3f 453a c574 03bd
000001f0: 5edb a2bd b51d 5a3d a9d0 533d f323 febe
00000200: 6a5c 8bbd fb1a f1bb 6a08 c63c 574b 953d
00000210: 6e37 a93d a493 ed3d f073 bb3d 2fb0 57bf
00000220: ad91 433d e8a9 47bd 28b4 c5bc a667 90bd
00000230: 1ec7 17bd 92f0 df3c e6ad 3a3d 5a16 9d3d
00000240: cad4 96bd f247 53bd 5ca9 71bf 4405 7a3d
00000250: 3786 363d 68d0 173d 1f0d 853d 40c5 ce3c
00000260: 269b 823f 3a5a 2c3e 7853 683d efec e63d
00000270: 30de 81bd a832 cebe 7ed5 4b3e 7a67 d1bd
00000280: aa7c 9bbc 8a51 57bd 01c2 b03d d5e3 8a3d
00000290: 1ee1 b83c 429b 6ebd 39fa 89bb e016 debb
000002a0: 2787 a73e 13fa 6c3d 92b9 133e b49a c53c
000002b0: 2a64 813d d7b4 b53d f3e2 78bd 8a2c 893e
000002c0: a75c e3bc b06d 73bc 0864 3dbd eca3 633e
000002d0: 554b d8bc 2bd6 7d3d 71ce 8f3f d585 8f3d
000002e0: 3a71 36be 5978 513e 85d2 933a d642 af3c
000002f0: 0545 65bd 00ca c83c 581d 74bd 4a1b 5f3b
00000300: f289 ea3d 13a3 bd3d 69fb 4fbd 9aca 813c
00000310: 4cf8 81bd 9f81 3f3f bcaa 4eb9 f6c1 75bf
00000320: 4d42 86bd f515 9b3d 40d1 0ebe c925 d53e
00000330: 8ef8 45be 0069 f5bc 9458 09bd 3707 ae3d
00000340: 1c53 503b e439 87bf 33ce febe 7a51 c73d
00000350: 6518 f2ba 2666 3f3f cc7f 023d 645f 85bc
00000360: 9e68 2e3d 50af 3b3d ce29 84bd c783 a63d
00000370: bb17 033d b532 adbc d09b f7bd bf33 4fbd
00000380: 059b 06bd 0878 2e3f d423 f73d 1fbd d33b
00000390: f90a 90bf 4d63 85be 2615 863d 2db6 983d
000003a0: e673 fe3a 2084 5a3d 773b 433e e91c a93d
000003b0: 1458 073c bdff 38be 77fc 343c 5675 ed3d
000003c0: 06b8 afbd 93e8 c6bc 9803 45bc e4e9 70bd
000003d0: bfbc ce3c b51a 183c 7ed5 3fbd 0454 7d3b
000003e0: 405a 64bb 08b5 3c3c bf73 463b 11fc dbbc
000003f0: 83bc 8b3d 5ff8 ab3c 6890 cc3c 6f81 86bd
0.11130901 -0.006096923 0.08699988 -0.051276285 0.002601593 -0.1079881 0.05313051 -1.6650314
0.12992017 -0.024123222 -0.022008477 0.050814655 0.0015367884 0.0447337 -0.012362887 0.61771566
0.015564111 0.020578336 -0.35905772 -0.09015092 -0.029474713 -0.06488077 0.26142243 -0.06184174
1.2570199 0.9481397 0.018494334 0.19177924 -0.045653496 0.59088314 0.3340104 -0.08319997
-0.021967907 0.07774762 0.05286598 0.07064697 -0.035796594 -0.091361344 0.054386813 0.031068588
-0.89318925 -0.105565146 0.281577 0.025455603 0.09479236 -0.019119512 0.050590508 0.43625072
-1.0652066 0.043435983 -0.05997984 0.5023672 -0.023111328 0.11719496 1.7907164 -0.001977456
-0.51303357 0.36595723 -0.41857132 -0.016036458 -0.022589264 0.05245251 -0.07742615 0.061732214
0.14408778 -0.050670706 -0.00872175 -0.07844922 -0.09555305 0.8271084 -0.276222 -2.493356
-0.11695261 0.19396071 -0.41265294 1.3376462 -0.2850484 -0.05416873 -0.052208878 -0.026510866
0.06529659 -1.7533058 0.05952801 0.08378593 -0.120224014 1.018179 -0.21622217 -0.020317566
0.06250966 0.042886127 0.07633776 0.017604807 0.09588819 0.02241707 -0.4695295 0.73775935
-0.059298854 0.5844278 0.3850552 -0.01671834 0.76344883 -0.014498191 -0.08164911 -0.16662344
-0.026329348 -0.012290775 0.1276126 0.038154565 0.08006774 -0.5935287 -0.16093716 0.19648488
-0.019950625 0.08167106 0.027441073 0.00077590306 -0.14426613 -0.0808426 -0.025855586 -0.036211718
-0.015256851 0.057498045 0.0007524434 -0.032093782 -0.07951997 0.053250987 0.051712666 -0.49636802
-0.06804736 -0.0073579527 0.024173934 0.072897606 0.082625255 0.11600426 0.09152973 -0.8425321
0.04774635 -0.04874602 -0.024133757 -0.07051019 -0.037055127 0.027336393 0.045576 0.07670279
-0.07364805 -0.051582284 -0.94399047 0.061040178 0.04456159 0.037063986 0.06496643 0.02524054
1.0203598 0.16831294 0.056720227 0.1127566 -0.06341207 -0.40273023 0.1990566 -0.10224815
-0.018980343 -0.052567996 0.08630753 0.06781737 0.022568282 -0.058253534 -0.004210737 -0.0067776293
0.327203 0.057855677 0.14426258 0.02412162 0.06317933 0.08872383 -0.06076331 0.26791793
-0.027754141 -0.0148576945 -0.046237975 0.222305 -0.026403109 0.061971825 1.1234876 0.07007948
-0.1781663 0.20456065 0.001127795 0.021394175 -0.055974025 0.024510384 -0.059598297 0.0034043365
0.11452092 0.092596196 -0.050776873 0.015843678 -0.06346187 0.7480716 -0.00019709294 -0.95999086
-0.065556146 0.07572547 -0.1394701 0.4163039 -0.19333097 -0.029957294 -0.03353174 0.0849747
0.0031787818 -1.0564542 -0.49766693 0.09732337 -0.0018470405 0.7476524 0.031860158 -0.016280837
0.04258024 0.045821488 -0.06453286 0.08130603 0.032005053 -0.021142343 -0.12090266 -0.05058646
-0.032862682 0.68151903 0.120673805 0.006461754 -1.1253349 -0.26052323 0.065470025 0.07456622
0.0019413203 0.05334866 0.19065653 0.08257467 0.008260746 -0.18066306 0.01104652 0.11594646
-0.085800216 -0.024280822 -0.012024783 -0.058816805 0.025236486 0.009283711 -0.04683446 0.0038654814
-0.0034843832 0.011517771 0.0030281392 -0.026853593 0.06823065 0.020992456 0.024971202 -0.06567656

bias f4 [4]
00000000: 3fdb 33be cc63 38bf 266c e1be a5f7 243f
-0.17564104 -0.7202728 -0.44027823 0.64440376
